ml-agents-master/ml-agents/config/results/ppo/LineCreator/LineCreator-1000144.pt (torch, 434231 bytes, 40 tensors)

network_body.vector_processors.0.normalizer.running_mean f4 [4]
00000000: b5e0 1e41 0847 5140 2fb4 75c0 4577 0b40
9.92986 3.2699604 -3.8391225 2.1791546

network_body.vector_processors.0.normalizer.running_variance f4 [4]
00000000: eb43 c742 e015 3b41 035a 114b 7d55 284a
99.63265 11.692841 9.525763e+06 2.7579832e+06

network_body.linear_encoder.seq_layers.0.weight f4 [128, 4]
00000000: 6c53 1fbf 3581 993e 28b5 91bf 7180 603e
00000010: ebb0 14be cfcc 943e 4814 08bf 3c8e 04bd
00000020: 8726 af3e f639 1e3e e50d 1e3f 28b6 403e
00000030: 4807 3a3d 1484 15be 41e6 313f 3e35 0e3f
00000040: 0cd4 453f 6c0c a9be f37c 28bf 4405 1fbf
00000050: ab3b 87bf d693 d83e c3e3 003f bb7c 6a3f
00000060: 297a 8bbe b179 fabe 1e7b cc3d 52ff 903f
00000070: 137e 6fbf 290b 8dbf cad9 88be 0449 18bd
00000080: f928 22be c4b1 dc3e 0dae bc3b 2294 ddbe
00000090: d5ba dcbd 488f 023d 4caf f0be 2f9d 42bc
000000a0: fede 8f3f bce6 d6be 5383 99be 636c 273d
000000b0: 753a 30be 022f 16bb 545e 273f ec3f e5be
000000c0: 0728 3cbd 0c82 bdbe e369 efbc 2735 223e
000000d0: 353a fdbd 62a4 ba3e b2db 0cbe 40f7 6dbd
000000e0: 3c86 a6be 7ed8 9dbb 50cc 96be f23d dfbe
000000f0: 8eef 8dbd 0eab 003f 4959 dfbe 9625 1c3d
00000100: fb20 79bf f20e c13e 3384 ea3e 566c 04bf
00000110: b804 fabe 8448 08bf 844b f0be 8923 73be
00000120: c901 353e 1e41 c43e 6ce9 3b3d 0e05 003e
00000130: 2020 0b3f 4c4b 7d3e f306 7ebd 2098 633e
00000140: c299 1dbf 327f 0d3e e34e 0f3f c8a8 45bd
00000150: d586 573f c754 893b f192 643f 9247 483e
00000160: 7f81 15bf defc ecbe 5dde 143e 41c6 3c3e
00000170: 4fdf 14be d627 0d3e 0b9c 693e 0eec 8f3e
00000180: 3ef4 04be 3faa e93e 8783 04be 0e5a 723f
00000190: 9de5 133f bfda 82be 1edf 4bbd 97a9 e9bc
000001a0: 6fb5 5dbf fe1b 19bf 4c81 123f bf24 9bbe
000001b0: 2165 f9bd 7cbf 593f db2b 0dbf 6371 e4bd
000001c0: 9566 0fbe 1c88 c23f 0ded 9bbd 7b44 f7be
000001d0: b833 453f e55a b83e 12ad 21bf 2a02 a0be
000001e0: c9ca 7a3e 9eea 9abe 1f0d cd3e fb5d e03c
000001f0: 6a1b 873f e385 973f 1247 203f 15c1 f53a
00000200: 1271 b4be 348b c03e 1924 ad3e fcc4 ab3e
00000210: 8a85 2c3f 9d7f 9a3f 6a27 edbd 4690 7bbe
00000220: 8238 01be a30c 703e cab9 3b3f 4948 173f
00000230: a9b7 28bf e69b 0e3f fa79 25be f054 c8bd
00000240: bb5f 0dbe 7e96 31bf 0a74 0fbe 4e87 ae3e
00000250: 6ac1 f2be 3c9b 09be 6f93 503f a0e1 aabd
00000260: 9bbc 623d c302 113f c963 1abf 8a1e 483c
00000270: 5c4a ebbd e15b d4be cbf0 713e 44cb 4c3f
00000280: efb0 88be c853 863e b731 c03d 67ce 163e
00000290: 7734 983f 0170 63be 2649 71be 8062 183e
000002a0: d3e3 9a3c b855 19bf 378f 023e 2dd8 2abb
000002b0: 1634 453e 44ef 153c 2186 9c3e 9166 b13e
000002c0: 3e72 e4bd dfca d7be 11a6 e3be 958e 403f
000002d0: d08d cfbb ec34 47be 6e42 87bf 0e42 2dbe
000002e0: 6a05 65be ec97 b1be cc5f c93e bfd6 88be
000002f0: ac65 26bf 75b3 89bf 2872 053f 36de e2bd
00000300: 2029 0c3f 855a 30be 762d 55be 4172 6ebe
00000310: 0845 b7be 12a2 f8bd ea2e 6e3f 0fbe 213f
00000320: 3e40 85be 84ef 193f db89 f0bd e74e 00be
00000330: 1fc5 d2be e216 133f be7d 2b3d 8873 113f
00000340: 13f5 36be 82ef 153f 1e00 83be 69f7 233c
00000350: 4fe0 30bf 9dac 92bd 6de8 813f f092 1fbf
00000360: 2e79 4abd 6734 6b3f 9f4e 123e c35f f03e
00000370: 39ce 71be 2a47 003f 94eb e23e 286b a0be
00000380: e938 14bf fe73 00be 7f0e 6e3f 14b5 9cbe
00000390: ad58 ed3c 6d88 513f abf7 78bf a038 6f3f
000003a0: 78bd d8be 11e4 953e 3c74 173e ad88 70bf
000003b0: b3eb f73d 2e61 c8bc 3c63 153f 598c 633e
000003c0: 60a6 33bf 7828 413e 09bc cfbe 2008 bebd
000003d0: 4ce9 7f3e 804a febe 27c0 c2be d06e 963e
000003e0: 602f 76bd 2673 ae3e 2e9f 363f 4f66 a53d
000003f0: dc27 8abe 0e9f d4bd 542e 58bf 7ede 6cbf
-0.62236667 0.2998139 -1.138341 0.21923997 -0.14520614 0.29062507 -0.53155947 -0.032362208
0.34209082 0.15451798 0.6173995 0.18819487 0.0454171 -0.14601165 0.69491965 0.5554999
0.7727668 -0.3301729 -0.6581566 -0.6211741 -1.0565084 0.4230029 0.50347537 0.91596574
-0.27241638 -0.48920968 0.0998442 1.1327918 -0.9355175 -1.1019031 -0.2672866 -0.037179008
-0.15835942 0.43104374 0.005758053 -0.4327708 -0.10777823 0.031874925 -0.4700874 -0.011878296
1.1239927 -0.4197291 -0.29983005 0.04087485 -0.172098 -0.0022916202 0.6537831 -0.4477533
-0.04593661 -0.3701328 -0.029225295 0.15840589 -0.12364618 0.3645354 -0.13755682 -0.058097124
-0.32524288 -0.0048170676 -0.29452753 -0.43601948 -0.06930457 0.5026101 -0.43622807 0.038121782
-0.9731595 0.37706715 0.45803985 -0.5172781 -0.48831725 -0.5323565 -0.46932614 -0.23744024
0.17676462 0.3833093 0.045876905 0.12501928 0.54345894 0.24735755 -0.062018346 0.22226
-0.6156274 0.13818052 0.55979747 -0.048256665 0.8419011 0.0041910145 0.89286715 0.19558552
-0.5840072 -0.46286672 0.1453795 0.18435003 -0.1453831 0.13784727 0.22813432 0.28109783
-0.12983796 0.456377 -0.12940799 0.9466866 0.5777224 -0.25557515 -0.049773328 -0.02852325
-0.8660497 -0.5980834 0.5722854 -0.30301473 -0.12177492 0.85057807 -0.55145043 -0.11154439
-0.14003976 1.5197787 -0.07613573 -0.48294434 0.7703204 0.36006847 -0.6315471 -0.3125165
0.24491419 -0.30257124 0.40049073 0.027388563 1.0555241 1.1837734 0.62608445 0.001874956
-0.35242516 0.37606204 0.33816603 0.33548725 0.67391264 1.2070194 -0.11579783 -0.24566755
-0.12619212 0.2344232 0.73330367 0.59094673 -0.65905243 0.5570663 -0.16159812 -0.097818255
-0.1380605 -0.6937026 -0.14009109 0.34087604 -0.47413188 -0.13438123 0.81474966 -0.08343816
0.05535565 0.5664484 -0.6030851 0.012214312 -0.11488792 -0.41476348 0.23627011 0.7999766
-0.2669749 0.26235795 0.09384482 0.14727174 1.1891011 -0.22210695 -0.2356306 0.14881325
0.018907463 -0.5989642 0.12749945 -0.0026068792 0.1925815 0.009151284 0.30571082 0.34648564
-0.111546025 -0.42146966 -0.44462636 0.7521756 -0.006334044 -0.19453782 -1.0567148 -0.16919729
-0.22365347 -0.3468622 0.393309 -0.26726338 -0.6499889 -1.0757891 0.52127314 -0.110775396
0.5475025 -0.1722203 -0.20818123 -0.23285772 -0.35794854 -0.121402875 0.93040335 0.6318063
-0.26025575 0.60131097 -0.11745044 -0.12530099 -0.41166016 0.5745679 0.041867964 0.5681691
-0.17866926 0.58568585 -0.25586027 0.010007718 -0.6909227 -0.071618296 1.0149056 -0.62333584
-0.049431972 0.91876835 0.14287804 0.4694806 -0.23613824 0.5010859 0.44320357 -0.31331754
-0.5789934 -0.12544248 0.9299087 -0.30606902 0.028972948 0.81848794 -0.9725291 0.9344578
-0.42332053 0.29275563 0.14790434 -0.9395855 0.12105503 -0.024460401 0.58354545 0.22221507
-0.70175743 0.18863094 -0.40573147 -0.092788935 0.2499134 -0.49666214 -0.38037226 0.29381418
-0.060103774 0.34072226 0.7133664 0.080761544 -0.26983535 -0.103819 -0.8444569 -0.92526996

network_body.linear_encoder.seq_layers.0.bias f4 [128]
00000000: b2c1 153d b9a0 9fbc 135f 45bd 833d 2bbd
00000010: d376 893d a9a2 9d3c f9b8 8ebb be41 3e3d
00000020: 636d 383b 9655 e43c 6ded a5bd a972 94bd
00000030: a89c 07be d651 0ebd a8a7 8a3c 5906 103d
00000040: 7a56 e3bd b309 783d 5a41 0e3d 530c d93c
00000050: f5bb 1e3d 7436 78bd 298a 90bd b995 8ebd
00000060: b323 e93a 94e6 9fbd dab3 c9bb 97f9 443d
00000070: 5726 a5bd 98d1 76bd 2cde e7bb b649 9dbd
00000080: 677c d2bc a40c a23d 9fe7 be3c 8315 dfbc
00000090: 2fea d4bc 0ced 5abd c04f 4f3d 97c4 60bd
000000a0: bf7e 8a3d 6c26 34bd c711 2b3c 3a49 dd3c
000000b0: c240 e9bc 8941 403d cc5d 17bd de7e 8ebd
000000c0: 0363 87bd 9949 bb3c 4e97 c73c e956 39bd
000000d0: 6181 d83c ca38 30bd f8dd 6dbd 6365 fa3c
000000e0: a9d3 e9bd 252c 48bc 34fc e1bd a47e ed3d
000000f0: 487c 503d a42d d839 31b5 943d 5962 96bc
00000100: be2c 173d 80a5 27be 010f 5d3d 52af b0bc
00000110: 4508 473d 1976 cb3c 6951 8a3a 88a4 16bc
00000120: 7529 8d3c 5992 063d a56c 183c 493c abbd
00000130: 3e3a ac3b c15b 1cbb b546 823d d036 a8bd
00000140: b718 153d aad9 653d 3827 cd3d 7153 f1bd
00000150: e48b fc3c a8e1 b73b f189 9f3d daaf 20be
00000160: b1fe 69bc 1b87 4e3d f839 8fbc d745 9a3c
00000170: 693f 273c ee3d 883b 4f95 2abd 1b05 adbd
00000180: 86b8 b73b fd6b e2bd 4180 38bd 5d0d 503c
00000190: 603d 77bd 50c8 233d e389 29bd 85c0 e2bd
000001a0: 3e05 713c 295c 10bd c141 33be 27f4 af3b
000001b0: 904b 81bc cfb4 dbbd 9e74 66bd a012 d9bc
000001c0: 478a 14bd 9baf 9bbb b6e3 5a3d 7e52 913d
000001d0: e276 103d 4583 04bd 8adf d0bd 4993 95bd
000001e0: d1aa 28bc f3bd 3abe a1b5 4abd 1ad5 5d3c
000001f0: 1fc6 e2bd 66db 15bd 6038 0cbc 3651 b7bc
0.036561675 -0.019485818 -0.048186373 -0.04180671 0.06712117 0.019242601 -0.0043555466 0.046449415
0.0028141371 0.027872842 -0.08101926 -0.07248432 -0.13243353 -0.034746014 0.016925648 0.035162304
-0.111004785 0.060556125 0.034730293 0.026495134 0.03875347 -0.060598806 -0.07057602 -0.06962151
0.0017787128 -0.07807651 -0.006155473 0.04808959 -0.08063953 -0.060258478 -0.0070760455 -0.07680075
-0.025694085 0.07912567 0.023303805 -0.027231937 -0.025990574 -0.05344872 0.050613165 -0.054874983
0.06762456 -0.043981954 0.01044125 0.027012456 -0.028473262 0.0469375 -0.036954686 -0.06957792
-0.06610682 0.022862243 0.02436414 -0.0452489 0.02642888 -0.04302291 -0.058073014 0.030565923
-0.11417324 -0.012217556 -0.11034432 0.115964204 0.050899774 0.00041232735 0.07261122 -0.018357443
0.036907904 -0.16371727 0.053969387 -0.021567974 0.04859187 0.024836587 0.0010552827 -0.009194501
0.017231682 0.03285441 0.009303247 -0.08361108 0.0052559664 -0.00238584 0.063611425 -0.0821358
0.036400523 0.056115784 0.10017246 -0.11783493 0.030828424 0.005611617 0.07789982 -0.15692082
-0.014281915 0.050421815 -0.017483696 0.01883213 0.010207989 0.004157773 -0.041646298 -0.084482394
0.0056067137 -0.110557534 -0.045044187 0.012698499 -0.060361266 0.039985955 -0.041391265 -0.110718764
0.0147107225 -0.03524414 -0.17505552 0.0053696814 -0.015783101 -0.10727846 -0.05626356 -0.026498139
-0.036264684 -0.0047511584 0.05343982 0.07095812 0.035269625 -0.03235175 -0.10198887 -0.07303483
-0.010294632 -0.18236522 -0.04948962 0.013539577 -0.11072945 -0.036586188 -0.008558363 -0.022377592

network_body.linear_encoder.seq_layers.2.weight f4 [128, 128]
00000000: cf6f 963c 1112 efbc 611b 49bc 4623 243d
00000010: 6068 66be 8492 e93d 6530 f6bb 84d3 923c
00000020: 578b 20be 5c58 7ebc 4b05 503d 3805 8fbd
00000030: 0069 973d 4ac0 9abc 68af 29be 3dc2 83bd
00000040: be05 26bd e812 84bd 5e8a 51bd 5edd 823c
00000050: f86f 883e 5a40 d1bd 57e5 673d a6d0 6c3d
00000060: 5d01 c83d 44ac f03b dd86 cb3d b48c 023e
00000070: 64a5 d2bd 3d40 c4bc 38a4 6a3e b39c 3e3e
00000080: a195 843e a260 cfbd d4c4 7cbd 3354 b23c
00000090: 261d e1bb 5c2c 183d f77b 00bd 3d5b 0a3e
000000a0: 1a8a 0cbd 210a 0abe 23d4 8dbc 38e0 273d
000000b0: f4b5 f4bd 76eb f8bd bae8 5ebe d8ff 94bd
000000c0: f30e ec3d ffd1 21bd 9df1 1bbd 3b2f b4bd
000000d0: d2b5 653d 0d89 7b3d ed8c 293e f7ec 2fbe
000000e0: 53a7 1dbe a7ed 103e 3cc7 94bc 66a3 78bd
000000f0: 8196 1abe 5cbe 6ebc ae81 173e 26a7 e1bd
00000100: 8408 23be 3a7d 1b3e e191 10be 075b 0bbd
00000110: 2aa7 11bd 7f9b 71bd 1e7b d7bd 8fe7 203e
00000120: 233c fa3a 8ba0 1ebd ebe4 9dbd ad47 5c3d
00000130: 39fa 41bb 9bc0 34be 2833 4cbd 07da 09bc
00000140: 9265 373d 5087 5a3d 709f 533e d4cd 973d
00000150: 02be b13b 9fd4 6abd d142 233d ab9b 81bd
00000160: 497d 543e 36af d5bd b66d 75bd 8cb1 143e
00000170: 69b8 04bd 20b4 4cbd cedb 5dbd f436 f73c
00000180: 8d6f 88bd 7e42 003e 3afa 3b3d 7f01 693d
00000190: 2ea7 5c3c 5a79 173c a5a1 be3d 1fad 12be
000001a0: 2e82 00be ee25 07be b463 933d 10f6 dbbc
000001b0: 6d8e 9cbd 88b8 92bd a35a 563d f820 0abe
000001c0: 0c1e b93c 88f7 01be 743a 7bbd 6b10 8bbd
000001d0: eade 91bd 0e19 0b3d 25e1 76bd 7ac4 be3c
000001e0: 8f5e f6bd f2d7 963d 912d a23d 824b 8d3d
000001f0: 906f d2bc 451a 0b3e 6785 a2bd bf29 533c
00000200: f61a 473e a3d9 773d 490e 1b3d be9e c1bc
00000210: 145b 8bbd 9e1a 1abd 0f42 2e3d fc27 27bc
00000220: 9ba6 cbbc d02d ff3d 8604 afbd afd9 4d3d
00000230: b267 4bbe 7b41 c4bd 362a c23c 43af e73d
00000240: cb7f e73c a057 c23d 122f 0f3e 16f8 333d
00000250: 7bc9 be3d 5357 cebd 479e e0bc a4de 573d
00000260: ae9c 213d 6ac3 85bb 49c9 5d3b eccb 4c3d
00000270: 4099 58be 6d47 41be af07 a03d c98f 4c3d
00000280: 6bfa 053c 07b1 f03d 4d7f ddbc 777b 13bd
00000290: 277b 6e3d 2897 01be cbba 6dbc 47c6 9dbd
000002a0: 8489 2b3c a04e 6b3d 627e dcbb d57f 723d
000002b0: ff8a 973d 84d6 d2bd 3c66 a3bc a703 aabc
000002c0: 26c9 8fbd fd2c 093d a0f2 b5ba 21f0 f3bc
000002d0: 3dbd a2bc 252a 2bbc 8423 2d3c 12a9 c9bd
000002e0: 9b90 4abd d36b 0abe a6a9 85bd 1fc0 583e
000002f0: d6d2 2c3b 66cd ccbc d6a8 893d fb27 bf3d
00000300: 8785 813e 38aa 833a 2a4c 92bd 7c8d 7e3c
00000310: a2f5 c63c ba11 243e 9bcd a8bd a743 513d
00000320: 1d24 453d 9b22 0dbc b880 153d 7186 8dbd
00000330: 9a7e 22be dfe5 d73c 7795 08be 37b4 5a3d
00000340: 4eda 783d 2737 bf3d 40f7 14bc a9cf 02bd
00000350: 728f be3d 220d 663b 2469 ce3c ebcd 74bd
00000360: b4c3 0b3e 93c0 28bd 8e2f 15be ed01 e93c
00000370: 4373 4b3e 0fb3 b13d c9be 44bc ad51 543c
00000380: 7155 39bd b927 a83d 7090 aebd fbe5 21bd
00000390: 1a78 b4bb 30ec a63d e908 6abd 8656 ac3d
000003a0: abdd 733d c6ba cbbb 9cc2 d3bd ff09 17be
000003b0: c4b6 e2bc 9c1c 383d 5019 d43d 6fe9 ffbc
000003c0: 462b d9bd adce d83c 9bc1 1cbe 1413 d83c
000003d0: fb3e 183e c4d3 3dbe 49d1 c03d 01cc 563d
000003e0: a089 fb3c 10ce 2dbe 6f75 6ebd 5d0f c03b
000003f0: 427e 0f3c 73d6 a3bd 328b f43c cd06 183e
0.018363861 -0.02918342 -0.012274594 0.040072702 -0.22500753 0.11404899 -0.0075130933 0.017923124
-0.15678154 -0.015523996 0.050786298 -0.06983417 0.07393074 -0.018890519 -0.16570818 -0.064335324
-0.04053282 -0.064489186 -0.051157348 0.015974697 0.26647925 -0.10217352 0.0566152 0.05781617
0.09765885 0.0073447544 0.099378325 0.12748986 -0.10285452 -0.023956412 0.22914207 0.18614464
0.25895408 -0.10125853 -0.061711147 0.021768665 -0.00686993 0.03715168 -0.031368222 0.13511367
-0.03431139 -0.13480426 -0.017313069 0.040985316 -0.11948767 -0.121542856 -0.21768466 -0.07275361
0.11526289 -0.03950691 -0.038072217 -0.08798071 0.0560816 0.06141 0.16557665 -0.17180239
-0.1539586 0.14153157 -0.018161409 -0.060702704 -0.15096475 -0.014571752 0.14795563 -0.11018209
-0.15921217 0.15184489 -0.14118148 -0.034022357 -0.03555981 -0.058986183 -0.105215296 0.15713333
0.0019091408 -0.038727324 -0.07709678 0.053779293 -0.0029598607 -0.17651598 -0.049853474 -0.008413798
0.0447746 0.0533517 0.2066629 0.074123055 0.005424262 -0.057331678 0.039858643 -0.063285194
0.20750917 -0.104338095 -0.05991908 0.14520854 -0.03240243 -0.049976468 -0.0541647 0.03017757
-0.066619016 0.12525365 0.04589293 0.056886192 0.013467593 0.009245241 0.09308175 -0.14323853
-0.1254966 -0.13198063 0.07196751 -0.02685073 -0.07644353 -0.07164103 0.05233253 -0.13489139
0.022597335 -0.12692082 -0.061335042 -0.06790241 -0.071225956 0.03395944 -0.06027331 0.023287047
-0.12029754 0.07365407 0.07918847 0.068991676 -0.025687963 0.1358424 -0.07935601 0.012888371
0.19443879 0.06051029 0.03785542 -0.023635264 -0.06804481 -0.03762304 0.042543467 -0.010202404
-0.024859717 0.1245991 -0.08545785 0.050256427 -0.19863775 -0.09582802 0.023701768 0.113127254
0.028259179 0.094893694 0.139828 0.043937765 0.09315773 -0.100752495 -0.027419223 0.05270256
0.039456062 -0.004082133 0.00338419 0.049999163 -0.2115221 -0.18874903 0.078139655 0.04994181
0.00817738 0.11752515 -0.02703824 -0.036006417 0.058222916 -0.12655318 -0.014509867 -0.07703834
0.010469798 0.05744803 -0.006728933 0.05920394 0.07399558 -0.10294822 -0.01994621 -0.020753695
-0.07020788 0.03349017 -0.0013881512 -0.029777588 -0.019865626 -0.01044706 0.01056755 -0.09846701
-0.049454313 -0.13517694 -0.065264985 0.21167038 0.0026370785 -0.025000285 0.06721656 0.093337975
0.25297186 0.0010045236 -0.071434334 0.015536662 0.024287049 0.16022387 -0.08242341 0.05108991
0.048130143 -0.008614208 0.03649971 -0.06910408 -0.15868607 0.026354728 -0.13338266 0.053394523
0.060755067 0.09336691 -0.009092152 -0.03193632 0.09304704 0.0035103043 0.02519662 -0.05976669
0.13648874 -0.041199278 -0.14568922 0.028443301 0.19868188 0.08676731 -0.012008377 0.012958926
-0.0452475 0.082107015 -0.08523643 -0.039525967 -0.0055074813 0.08150518 -0.057137404 0.084149405
0.05953757 -0.0062173335 -0.10339853 -0.14749907 -0.02767504 0.04494916 0.103563905 -0.03123924
-0.10603957 0.026465738 -0.1530823 0.026376285 0.14867775 -0.18537813 0.09414918 0.052440647
0.030705273 -0.16973138 -0.058217462 0.0058612064 0.00875813 -0.07999887 0.02985153 0.14846344

network_body.linear_encoder.seq_layers.2.bias f4 [128]
00000000: 6a42 79bd 2a43 cd3d 7add b7bd d700 97bd
00000010: ea74 5ebc e79b 45bc a6a8 56bd b4aa dabd
00000020: f744 6b3d 3825 bcbd 40e7 4cbd bb79 bdbd
00000030: 7d47 c8bc 8ffe c0bc df2c 17bc 0ff2 943c
00000040: 07d7 f83c 8d70 a3bd 7b72 07bd 8cc4 19bc
00000050: 0bab 45bd 8816 a7bd 9561 c53d 1ff2 46bd
00000060: bbe2 d03c bed8 133d 1af3 a5bd fb89 48bd
00000070: e927 a63d 4f04 4bbd a1cc fabc df48 013d
00000080: 83bb 9cbd 0241 0ebd 4340 6dbd 0212 fbbb
00000090: 7f51 a0bd 9511 f13a f4ab 153d 77fa cdbd
000000a0: 482a 2abd 2f40 0439 077f b4bd 6c23 963c
000000b0: 4acf 12be 5644 c0bd a53b 1d3d 3a6e bcbc
000000c0: 3a4a bbbc fe8c 3ebd 5b2d c5bc 5935 c1bd
000000d0: 8fff 36bd 689a 8abc 714a 133d cb02 cbbd
000000e0: cfa9 b2bd 0532 65bd 7827 ebbd f534 753d
000000f0: f962 1abd 2878 88bd 6b61 40bd f397 c1bd
00000100: 0512 55bd 7471 89bd c078 0a3c 119f 2ebc
00000110: 208a fbbd 942a d8bc 2d85 4f3d 6a89 913d
00000120: d88e 06be 08d0 933c 8182 d9bb a10e aa3d
00000130: e378 27bd 6967 75bd 1a3e f43d 716e 323a
00000140: f0c1 bdbb f378 35bc c032 03bd 0129 d93c
00000150: f8df c5bd f336 67bb f204 1bbd 44d6 0b3d
00000160: 2505 963d b195 c6bc 6c96 b63b b297 5cbd
00000170: 1e61 b3bd ad3f 283d f200 82bd 321f 49bd
00000180: 88b2 c13c ebda 9dbd 2c39 cd3d 9adf a83d
00000190: 9063 193d 169f 76bd 02c8 a63c 0fbb 86bd
000001a0: f1db c33c 0319 5abd e420 0d3e c217 d2bd
000001b0: 8644 3b3d 1d08 55bc dcd4 523d 1449 ac3a
000001c0: 76c7 363c 0c8e 0fbd 5afd bfbd 752c 0cbe
000001d0: e379 9abd 84ea b73d cc0e 2c3d a44b 5abd
000001e0: 09f7 ebbd 7b8e 0c3c edaa 0ebd 2717 d23c
000001f0: 3747 4c3d 01fb b53a 1871 99bd 984d a53b
-0.060854353 0.10022576 -0.0897779 -0.07373207 -0.013577679 -0.012061096 -0.05240693 -0.1067709
0.057438817 -0.091867864 -0.050025225 -0.09251734 -0.02444815 -0.023558883 -0.009227007 0.018181829
0.03037597 -0.07980452 -0.03306816 -0.009385239 -0.048258822 -0.08158594 0.09637753 -0.04857075
0.025498739 0.036095373 -0.081030086 -0.048959713 0.08113081 -0.049564656 -0.030615153 0.031563636
-0.076529525 -0.034729965 -0.057922613 -0.007662059 -0.07828044 0.0018392081 0.03654094 -0.10057538
-0.04154423 0.00012612411 -0.08813291 0.018327437 -0.14336887 -0.09388034 0.03838696 -0.023001779
-0.022862542 -0.04652118 -0.024069479 -0.094340034 -0.044677313 -0.01691933 0.035959665 -0.09912642
-0.08723795 -0.055955905 -0.114821374 0.059864957 -0.037692044 -0.06663543 -0.046967905 -0.0945281
-0.052019138 -0.067110926 0.008451641 -0.010658042 -0.12282205 -0.02638749 0.050664116 0.07106288
-0.13140428 0.018043533 -0.0066378717 0.083035715 -0.04088677 -0.059913073 0.119259074 0.0006806618
-0.0057909414 -0.0110762 -0.03203082 0.02650881 -0.09661859 -0.0035280555 -0.037846513 0.034139886
0.073252 -0.0242413 0.005572131 -0.053855605 -0.08758758 0.04107635 -0.063478366 -0.049102016
0.0236447 -0.07707771 0.1002067 0.082457736 0.037448466 -0.06021031 0.020359043 -0.06578647
0.023908587 -0.05324651 0.13782078 -0.10258438 0.045719646 -0.013002423 0.05147253 0.0013144338
0.011155954 -0.035047576 -0.09374495 -0.13688834 -0.07542779 0.08980277 0.0420063 -0.053294793
-0.115217276 0.008578892 -0.034830976 0.025645806 0.049872603 0.0013884009 -0.07492274 0.0050446503

distribution.log_sigma f4 [1, 2]
00000000: 9b7c c3bd a03e 663c
-0.09545251 0.014053017

distribution.mu.weight f4 [2, 128]
00000000: 3fc8 efbb cf59 be3b c3ee bf3b 7897 ec3b
00000010: 3459 663c 102b 653b b7de 9bbc 7425 3939
00000020: a0fd 83bc 53db a43b 6ccc 8a3c 1458 aa3a
00000030: 7ff2 cfbb 5c1c 4bbb 5daf d13b 66cb 303c
00000040: 08e3 7c3d 33f9 9f3b 8885 c23b 6ea8 d43b
00000050: f981 863c c5b3 e8bb 53e0 e8bc 397b 063c
00000060: f681 3d3d c2f6 9d3d c1ce e2bb e4ff f5bc
00000070: 979e 90bb 2398 7bbb c1a5 aaba 45ea 033c
00000080: 5c43 313c ee05 a4bc 5ef8 c93b c4bf f9ba
00000090: f563 cb3b 1304 7ebb 8671 c3bb c5ae 2a3c
000000a0: d676 aabc 1746 43ba 4c94 0739 4283 fb3c
000000b0: d3f4 cd3b d1fb b9ba 4841 213c 69e7 313a
000000c0: 6070 7d3c b686 d0bb 3e3a 683c f863 adbb
000000d0: b26a 083c 7ca8 63bb c717 1d3c fc06 1b3c
000000e0: 88b0 97bb e60c 2f3b cf01 e73b 38f9 963d
000000f0: a0fa e93b 9b48 aabb f5a4 9fba b5f0 96bb
00000100: 3a1c 37bb a892 aebb 0608 193d f7ad 0e3c
00000110: 82ac d03b 0494 31bb 9329 b3bc e9fb 3f3d
00000120: 6b2e d93b 94ac 463d d0a4 273c 1c61 eebc
00000130: 1538 753b e023 bdbb b8c0 c03b 7302 debc
00000140: df2c a3bb fb84 713c fc23 7437 be62 ed3b
00000150: 7db2 8738 15d2 993c e84a 1fbd cdcc a53c
00000160: 5ec9 75bb f39f 123c 7396 433a 5446 153c
00000170: ffbf 183c 82f0 5f3d 3e75 953b 7ae4 cb3b
00000180: 390f cd3b 4d3a e93b 384d 803a 9705 6b3b
00000190: ddb1 35b9 7938 d5bb b44e 123d 9f63 cb3b
000001a0: 9873 e53b ac44 de3b fda1 01bd 9e0e 123c
000001b0: 1bc8 dfba 463f 78bc ee7b 84bb c964 da3c
000001c0: 8da9 ee3c c36c 4a3b 6453 a9bb 11ae 9d3b
000001d0: 4a05 1f3c 9dd2 84b9 aae0 e43b 222e fb3b
000001e0: 4b2a a9ba db7d 243d 89c0 17bd 85ea d63c
000001f0: ab6e da3b a585 c83c d3e2 c73b a998 f73a
00000200: c62e b3bc c408 c23a a7c4 8d39 fe9d 963a
00000210: 810e e23c 0255 d3bc f0c6 103d a972 b0ba
00000220: 3370 153d 00f5 ba38 6cc9 cbbb 1092 9fbb
00000230: 887a c23a d450 c43c 4898 253b 27c5 b33a
00000240: df41 ea3c e43e 7139 6d37 593a e008 e53a
00000250: 2acd f73c 8c7a adba 2ffd e73c e839 223a
00000260: ef6d 403b 3090 29bd 05fe cbb8 4d2c 8b3c
00000270: 6870 4c39 7255 d6ba 3767 f8b9 44cd 003a
00000280: a309 c73a f6f2 273d 33d2 8c39 a70f 0ebc
00000290: 44d5 b83a 8cf9 61bb c80d 3f3a c3ff bf3a
000002a0: 3991 a7bc 4cf2 85ba 821a 04bb 0094 2dbc
000002b0: 1209 8f39 21bd 6aba ae3d 093b 45f7 25bc
000002c0: 9ac7 203d 106b bab9 1472 e1bb 4a31 f23c
000002d0: 70e7 8f3a abc3 4e3a ff32 173b 1f3c 8c3a
000002e0: a77f a8ba d86d 13bd 1e77 e7bc 147f f33b
000002f0: 3912 773a f037 2cbd 591d f6bc 72e5 0dba
00000300: 8712 cd3c d404 febb 0850 08bd 96e1 213a
00000310: 3a10 6038 e03d e1ba 7f87 1a3c 5997 2c3d
00000320: 6be0 223a e9f1 8dbc 410e b73a 4973 683c
00000330: fa1d 253b 5ddd edba d1c2 143b 1f7e de3c
00000340: ca02 e63c adb0 63bd ef0d 33bb 9e2d cc39
00000350: b39d baba d45b 55bd f57b 09bd f1a8 5e3c
00000360: 8412 aaba 33b1 d83b db44 84ba 5f66 93bc
00000370: 00ce 883a 5bdd e2bc 3322 12bd 0c14 82bc
00000380: b34e 1c3b 4c83 d737 bde5 423c e99c 11bd
00000390: a756 b9ba b92b 08bb 3579 9fbc 49c7 eb39
000003a0: ca26 8a3a 3eae a63a 86a3 b93c 1820 3a3a
000003b0: c54c 40ba 7520 403d d66f c837 eebe bcbc
000003c0: f54f a83a 2901 ed3c 815d 8039 f148 06b7
000003d0: 5d95 453a 6563 aa3a 40b4 693a 806b 08bd
000003e0: ed74 b4ba 7a68 0cbd a64e a63c 022a 0a3b
000003f0: 5f16 983a b3b5 e4bc 8e1d 073a c09d b139
-0.0073175724 0.005809046 0.00585732 0.007220205 0.014059354 0.0034968294 -0.019027097 0.00017656927
-0.016112149 0.0050310283 0.01694318 0.001299622 -0.0063460465 -0.0030992245 0.0063990788 0.0107906815
0.06173995 0.004882002 0.0059363283 0.006489805 0.016419398 -0.0071015083 -0.028427279 0.0082080895
0.04626652 0.07713081 -0.0069216196 -0.030029245 -0.0044134366 -0.003839024 -0.0013019369 0.00805146
0.010819282 -0.020022359 0.006163641 -0.0019054343 0.006206984 -0.0038759753 -0.005964461 0.010417645
-0.020808619 -0.0007449104 0.00012929848 0.030702237 0.006285289 -0.0014189427 0.009842224 0.0006786497
0.015468687 -0.006363715 0.014174042 -0.005291458 0.008326219 -0.0034737876 0.0095881885 0.009462114
-0.0046291985 0.002671057 0.007049776 0.073717535 0.0071404725 -0.0051966435 -0.0012179898 -0.0046063312
-0.0027940408 -0.0053275414 0.037361167 0.008708469 0.006368221 -0.002709628 -0.02187041 0.0468711
0.006627848 0.048504427 0.010232165 -0.02909904 0.003741746 -0.005772099 0.005882349 -0.027100777
-0.0049797143 0.014741178 1.4551912e-05 0.007244437 6.470548e-05 0.018776933 -0.038889796 0.020239258
-0.0037504057 0.008949268 0.00074610783 0.009111006 0.009323119 0.054672725 0.0045610955 0.006222305
0.006257918 0.0071175457 0.0009788638 0.0035861486 -0.00017327764 -0.006506976 0.03571959 0.006206944
0.0070023052 0.0067830887 -0.031648625 0.008914618 -0.0017073186 -0.015151804 -0.004043094 0.026659386
0.029133582 0.003088758 -0.0051674116 0.00481201 0.009705851 -0.0002533392 0.00698479 0.0076654116
-0.0012906281 0.040159088 -0.03704885 0.026234875 0.0066660247 0.02447779 0.0061000376 0.0018890101
-0.02187289 0.0014803638 0.00027040133 0.0011491177 0.027594807 -0.02579737 0.03534597 -0.0013461906
0.036483955 8.914806e-05 -0.0062190797 -0.004869707 0.0014837543 0.023964323 0.0025267769 0.0013715372
0.028595863 0.0002300698 0.0008286152 0.0017473958 0.030249197 -0.0013235374 0.02831897 0.0006188438
0.00293624 -0.041397274 -9.727109e-05 0.016988898 0.0001949683 -0.0016352369 -0.00047379147 0.00049133995
0.0015185367 0.04100319 0.00026859491 -0.008670724 0.0014101644 -0.0034481017 0.00072881253 0.0014648366
-0.02045499 -0.0010219305 -0.0020157401 -0.010594368 0.00027281843 -0.0008954574 0.0020941305 -0.010129754
0.039252855 -0.00035556452 -0.0068800543 0.029564518 0.0010979008 0.0007887433 0.0023071168 0.001069907
-0.0012855426 -0.035993427 -0.028255042 0.0074309204 0.00094250176 -0.042045534 -0.03004329 -0.0005412913
0.025033249 -0.0077520404 -0.03327945 0.00061752775 5.3420874e-05 -0.0017184578 0.009431719 0.042136524
0.00062132505 -0.017327266 0.001396604 0.014187642 0.002519487 -0.0018147636 0.0022699127 0.027159749
0.028077502 -0.055588413 -0.0027321537 0.000389439 -0.0014237672 -0.052089527 -0.03356548 0.013590083
-0.0012975489 0.0066129207 -0.0010091321 -0.01799315 0.0010437369 -0.027693441 -0.035677146 -0.0158787
0.002385062 2.5691137e-05 0.011895594 -0.03555003 -0.0014140204 -0.0020778014 -0.019466976 0.00044971172
0.0010540124 0.0012716723 0.022660982 0.0007100119 -0.00073356583 0.046905953 2.3893936e-05 -0.023040261
0.0012841212 0.028931217 0.00024483728 -8.004005e-06 0.00075372105 0.0012999593 0.0008915104 -0.033305645
-0.0013767757 -0.034279324 0.020301174 0.0021082168 0.0011603347 -0.027918672 0.00051542453 0.00033877604

distribution.mu.bias f4 [2]
00000000: a6bb 503d 33cf aebc
0.050960205 -0.021339035

critic.network_body.vector_processors.0.normalizer.running_mean f4 [4]
00000000: b5e0 1e41 0847 5140 2fb4 75c0 4577 0b40
9.92986 3.2699604 -3.8391225 2.1791546

critic.network_body.vector_processors.0.normalizer.running_variance f4 [4]
00000000: eb43 c742 e015 3b41 035a 114b 7d55 284a
99.63265 11.692841 9.525763e+06 2.7579832e+06

critic.network_body.linear_encoder.seq_layers.0.weight f4 [128, 4]
00000000: d9cf 3abf 17b0 59be fd54 42bf b94f 96be
00000010: 59a1 843e f521 30bf a3ab 74bd cbcf 19bf
00000020: 76a2 79bf f4b5 d3be b31c b2bd 5f41 e9bc
00000030: 2999 6fbf ad24 733f 114b fb3c ca0c 8b3d
00000040: 91c0 893d 8150 343e f5c7 a43e e432 c63e
00000050: 91e6 273f 8850 d93e c62d b7be 4d3a d4be
00000060: f7b4 773f 67fa 8ebd fc3d 33be 47cf 0abe
00000070: 3a73 94be a99c a5be 9601 73bd 6fb6 223e
00000080: 059b 4dbd 6a09 023f 9e61 a5be fac7 e9be
00000090: f955 803f 94cb 343f ef6c d537 6301 623a
000000a0: 0d42 163f 1bc4 6d3f b459 003e c1ab acbe
000000b0: ae8e 473f 6eae ea3d ec8c 90be ace0 e6be
000000c0: ee58 ee3c 9161 643f 2101 3f3d c40c 813e
000000d0: 631a a83e 51ee 0c3d 7abb 1c3e 40bb 763d
000000e0: 08b8 14bf df3b c23e b5ea f7bd 101b 173d
000000f0: 5b96 56bf 5e54 56be 9ac4 1ebe 6eb9 7f3f
00000100: 7efa 2dbf 9e7c 403f c6ce 363d e7ce 35be
00000110: d119 26bf 75b4 41be 6c83 3cbe f475 663e
00000120: 5a84 c3be a3cc d9be f83d 98be a7d5 0f3d
00000130: 09bf 2d3f 6a16 e83e bc76 d5be acc7 4abd
00000140: 201d 38be c360 71bd cbfe 71bf 2a14 d23e
00000150: 23f4 ecbd ccfa e4be a519 c4bd 5561 c43e
00000160: e80a c0bd 7039 3cbe 744c 01be 5049 45bf
00000170: b33d ecbe b042 e0bc c4c2 42bf e432 2cbe
00000180: 47f2 623d 0302 593e ce83 983c 48d7 6bbc
00000190: df65 c53d e63d 713e 7468 4dbe de0f 2abe
000001a0: dbdd 803f 5cc0 1cbf 9359 843b d954 af3d
000001b0: 5143 6a3f 981a 5bbe 1d33 a13c f7d4 983d
000001c0: 085b 7dbe f459 ccbe 280a 49be 6d5e bbbe
000001d0: f89d f8be 97a9 053f 2fc8 cd3e 901b 073e
000001e0: 2d00 31bf 2260 a53e edbe df3e 9321 f03e
000001f0: 8c7e a13f 2a0d 983e f272 0fbf 6bad ef3e
00000200: c01a d1be 14ef c73e 39e0 623f d86e 7f3f
00000210: 2f3e 12bf f619 af3f f580 6abd 5a2e bdbd
00000220: aae5 08bf be50 0f3e a8e8 d33e fe5c ecbe
00000230: 2561 433e df81 013f 47c2 8bbe 8d04 c53d
00000240: 9dd0 c7be 2db5 a9be 54ec 37be 2f8a 8ebe
00000250: 9e0b d4be 442e df3e 618e 2dbe 3559 25bf
00000260: 5fa9 973d dfcb 46bd 4e9f c03e a303 6a3f
00000270: 9d1f a33c e0fc c4bd 612b 17be 308d 03bf
00000280: 8990 bc3e 132c a03e 2bbc 663e eae5 d1be
00000290: e0a4 eb3e 4f0e 1ebf 600d 203d 6c4c 993e
000002a0: 448f bd3d 9b3b c53e e6dd 51be 8ae8 913c
000002b0: 4ff2 37be a307 f1be 460d 9d3e 4ee0 673e
000002c0: 7296 233e d7d4 a1bd 496a 41bf 5e73 febe
000002d0: c92f b53e ddd8 6b3c 9330 e93c ec31 c9be
000002e0: 2638 023f beee a9be 0d23 3c3e c580 fabc
000002f0: edcd df3c 3ee5 bfbd 950c 12bf 7ee9 8fbe
00000300: 9039 323f e8fe eebe 066d 963e 364f 7dbc
00000310: d2e2 f13e f94b 37be 9518 cb3c 39c5 813f
00000320: 5ee6 53be 3745 c13e a010 b6be 50bb 97be
00000330: 8d14 dcbe 591d 57be 913d 2dbe fae2 3ebe
00000340: 1be4 3e3e 9619 103f 4fd8 933d 3cdc e2bd
00000350: c38a ea3d f8a8 04bf 73b2 f2bd aeec 1cbe
00000360: 853e 45bf a0cb 84be 5e33 b13e f376 afbf
00000370: 00af 413f dee7 06bf 9e39 883e a5d1 f1bc
00000380: a2cc 85be 011e 453f 3409 fa3e 8647 533f
00000390: 52ac 523d 6913 263e 3a42 1bbe 37b7 b83e
000003a0: cb92 c43e 8c90 3ebe 44a5 2abe ce86 49be
000003b0: 8ffc 57be 5f9a dbbd bd33 0f3e 95e5 513e
000003c0: 6d0b 77bf d8a8 2d3f 1cca e5bc 492b 34be
000003d0: 7d28 0f3e 3529 96be 2dbd 103f e8eb e6bb
000003e0: b7d9 fd3e ce0e 8cbf c7f9 0dbf 54d3 04be
000003f0: f576 b23e 24eb 9e3e b0d0 7e3e 75cd 7c3e
-0.729734 -0.21258579 -0.7591093 -0.293577 0.25904348 -0.68801814 -0.059733998 -0.6008269
-0.9751352 -0.41349757 -0.0869688 -0.028473554 -0.9359308 0.9497784 0.030675443 0.06789549
0.06726182 0.17608835 0.32183805 0.387107 0.6558619 0.42444253 -0.3577711 -0.4145073
0.96760505 -0.06981354 -0.17504114 -0.13555633 -0.2899416 -0.32346085 -0.059327684 0.15889905
-0.050196666 0.50795615 -0.32301039 -0.45660383 1.0026237 0.70623136 2.5442305e-05 0.00086214225
0.58694535 0.9287736 0.12534219 -0.33724788 0.77952087 0.11459051 -0.28232515 -0.45093286
0.02909514 0.89211375 0.046631936 0.25205052 0.3283263 0.034406964 0.15305892 0.06023717
-0.5809331 0.37936303 -0.12105314 0.036891043 -0.83823174 -0.20930621 -0.15504685 0.9989232
-0.67960346 0.7519015 0.04463079 -0.17754708 -0.6488314 -0.18916495 -0.18409508 0.22505933
-0.38186914 -0.42538938 -0.29734778 0.035115864 0.6786962 0.453296 -0.4169215 -0.04950683
-0.1797986 -0.05893017 -0.9452941 0.4103101 -0.11570003 -0.44722593 -0.09575204 0.38355508
-0.0937708 -0.18381286 -0.12626821 -0.7706499 -0.46140823 -0.02737555 -0.7607844 -0.16816288
0.055406835 0.21192174 0.018617537 -0.014394589 0.09638571 0.23558769 -0.20059377 -0.16607615
1.0067705 -0.6123102 0.0040389984 0.08561105 0.91508967 -0.21396863 0.019677693 0.07462495
-0.24741757 -0.3991238 -0.1963278 -0.3659548 -0.4855802 0.522119 0.4019179 0.13194108
-0.69140893 0.32299906 0.43700352 0.46900615 1.2616744 0.29697543 -0.5603477 0.46811995
-0.4084072 0.3904959 0.88623387 0.9977851 -0.57126135 1.3679798 -0.05725189 -0.092373565
-0.5347544 0.13995644 0.4138844 -0.46164697 0.19080026 0.5058879 -0.2729666 0.096200086
-0.39026347 -0.3314604 -0.17961246 -0.278398 -0.41415113 0.43589985 -0.16948844 -0.64589244
0.07405352 -0.04853427 0.3762154 0.914118 0.019912535 -0.096185446 -0.14762641 -0.5138731
0.36829022 0.31283626 0.22532718 -0.40995723 0.46024227 -0.61740583 0.039075255 0.29941118
0.092558414 0.38522038 -0.20494804 0.017811079 -0.17963527 -0.4707614 0.3067419 0.22644159
0.15975359 -0.07901924 -0.75552803 -0.49697393 0.3538802 0.014394966 0.028465545 -0.392959
0.50866926 -0.33189958 0.18372746 -0.03057898 0.027319873 -0.09369896 -0.5705045 -0.28107828
0.69619083 -0.46678853 0.29380053 -0.01546078 0.47243363 -0.17900075 0.024791995 1.0138313
-0.20693347 0.3774812 -0.3555956 -0.29635096 -0.4298443 -0.21007289 -0.16918017 -0.18641272
0.18641703 0.5628904 0.07218992 -0.110771626 0.11452248 -0.51820326 -0.11850443 -0.15324661
-0.7704852 -0.25936604 0.34609503 -1.3708175 0.75657654 -0.5269755 0.26606458 -0.029518912
-0.26132685 0.7699891 0.48835146 0.8253101 0.05143387 0.16218342 -0.15161982 0.36077282
0.38393244 -0.18609828 -0.16664606 -0.1968033 -0.21092437 -0.10722803 0.1398458 0.20497735
-0.9650181 0.6783576 -0.028050475 -0.17594637 0.13980289 -0.29328313 0.5653866 -0.007047165
0.49580166 -1.0942018 -0.55459255 -0.1297124 0.34856382 0.31038773 0.24884295 0.2468775

critic.network_body.linear_encoder.seq_layers.0.bias f4 [128]
00000000: ff9d bcbd d765 253c 28eb cbbd f029 b3bd
00000010: a17c 623c 49d2 f0bc 08e1 cbbd 05c7 53bd
00000020: 7fb3 b43c b49f 8ebc f838 043d 79c3 3f39
00000030: 7c20 cdbd a989 52bd 80bd 21be 7c76 95bd
00000040: 0ab2 3c3d 9358 1cbe cbf4 7bbd 0bc9 98bd
00000050: 1146 84be 5255 7cbe 3aae 19bd 27b3 1cbe
00000060: c0b5 d33d 1917 9ebc 19d8 dbbd 49e5 e7bd
00000070: 041d 113c 642d de3b f270 87bd 6e65 09be
00000080: d98b b93b dc1f 983d 1893 24bd e288 80bd
00000090: bf06 ac3d fc9a 6ebd 7397 9ebd 490a 3b3c
000000a0: 4139 3dbd 4ddd 37be fc8c 3bbd 3845 edbb
000000b0: 5a9c 0b3c 50a7 403d fe7d c7bb 9675 72bd
000000c0: c326 10bc 7ef0 ddbd cee7 3abd 4f8f a2bd
000000d0: 66fc b23d fb6a 0ebc 07a1 2cbd fba5 dd3c
000000e0: db7c 32bb ec15 e7bd 5647 e1bc f535 90bd
000000f0: 27cd d83c 90e6 883c edb2 eebd c398 b13d
00000100: 2886 e53c 0a42 363e 78ca 903c f9cd 283d
00000110: a2dd 2c3c 6443 3abc af55 af3c fc67 37be
00000120: b4dc be3d 3997 57bd d1da 043e 10a6 fcbd
00000130: 22d9 34bd e963 b33c a7fd a1bd 6c29 59bd
00000140: 1d76 003c ad10 19bd 67b1 95ba bcd0 403d
00000150: 7a7b a9bc 1ab8 93bd 2c17 89bd 3134 34be
00000160: dc6f c9bd edf1 8d3c 5278 e6bd b52f 7bbd
00000170: e98a 18be 6230 5c3c 0b60 88bd 56c6 bd3c
00000180: ce17 71bd 57de 563c ece7 df3d 6fc3 23be
00000190: 6fdb 6cbc 03f1 8c3c 60ef 59bd 0eb0 173c
000001a0: 30ab 5ebd 0d91 e43d 2a92 6e3d 58e1 67bd
000001b0: c609 51bd 341c abbd eccb 1dbd 23de 1b3d
000001c0: 4495 193b 7f4f 9d39 2c7e 0fbd decc a7bd
000001d0: b975 1cba 0b60 643d 0b9f b2bc 4457 0b3c
000001e0: dac3 f13d 6041 e33c 804d 103c ce53 4fbe
000001f0: 895c b2bc 043a 25be 435e 14be 6e0d e6bc
-0.09209823 0.010095081 -0.09956962 -0.08748233 0.013823659 -0.029397147 -0.09955031 -0.05170347
0.022058247 -0.017410137 0.032280892 0.00018287999 -0.100159615 -0.051400814 -0.15794945 -0.0729799
0.04606823 -0.15268163 -0.06151275 -0.07460221 -0.25834706 -0.24641922 -0.03751967 -0.15302716
0.103374004 -0.019298123 -0.10734577 -0.113230295 0.0088570155 0.0067803133 -0.066133395 -0.13417599
0.005662423 0.07427952 -0.040179342 -0.06276108 0.08399724 -0.058253273 -0.077437304 0.011416026
-0.04619718 -0.17955513 -0.04578875 -0.0072409175 0.008521164 0.04703456 -0.0060880175 -0.05919417
-0.008798304 -0.10836886 -0.045631222 -0.0793749 0.087395474 -0.008692498 -0.042145755 0.027056685
-0.0027235064 -0.11283478 -0.027499836 -0.070415415 0.026465012 0.016711503 -0.11655221 0.08671715
0.028018072 0.1779863 0.01767467 0.041212056 0.010550888 -0.011368606 0.021403162 -0.1791076
0.093194395 -0.05263445 0.12974097 -0.123363614 -0.044152386 0.021898227 -0.079097085 -0.05301802
0.00784066 -0.03736942 -0.0011420668 0.047074065 -0.020688761 -0.07212849 -0.06693873 -0.17598034
-0.098357886 0.017327273 -0.11253418 -0.061324794 -0.1489674 0.01343927 -0.06658944 0.023165863
-0.058860593 0.013114533 0.109329075 -0.15992521 -0.014456614 0.017204767 -0.0532068 0.009258283
-0.054362476 0.11160479 0.05824486 -0.05661139 -0.05103471 -0.08354989 -0.038524553 0.038053643
0.0023434917 0.00030004603 -0.035032436 -0.08193372 -0.000596847 0.055755656 -0.021804353 0.008504692
0.11804934 0.027741134 0.00880754 -0.20246813 -0.02177264 -0.16135412 -0.14489083 -0.028082576

critic.network_body.linear_encoder.seq_layers.2.weight f4 [128, 128]
00000000: 465d cbbd 4ff9 d1bd 1e5c 843d cfb1 feb9
00000010: df7a 90bc f43d 9ebd 6e03 833d 20a0 c9bd
00000020: 485e 88bc b9cf fabd f831 afbd 7f74 a0bd
00000030: 02fe d13d d234 99bb f807 b2bc 1df4 fe3c
00000040: afc4 823c f199 42bc b9d3 60bc c3d8 fabc
00000050: a2e3 2a3d 4254 f83c aa2f 883d 9cda fa3c
00000060: 2b81 aa3d ea2a b7bd 4922 f7bc 2c53 4a3d
00000070: 3955 8bbc 1d96 11bd 0e73 fabd 7ff7 13be
00000080: aff0 5d3c 823f fbbd 7c27 86bc 8936 cfbd
00000090: 7c86 58bc 674e 63bd 6018 a4bd 9753 fb3d
000000a0: 5bbf b43d aa4e a73d 3009 34bd 18c5 2abc
000000b0: 6cbe 6e3e 6cc7 f7bd fae6 133b ca35 80bd
000000c0: 6938 0ebe 97ac f83d 102e db3d da48 75bd
000000d0: 5baa 00bd 6e1d 393d a4dc 6abe 0323 f1bc
000000e0: 5694 bcbd 3a2b 3dbd a7c5 6bbd 8fa0 473d
000000f0: 3c4a 5abc 4357 153d bf43 18be 738e 42bc
00000100: b42c b53d 9c79 0d3e 0951 173d 131b c1bd
00000110: 75da 833c 951d d83d 5eec 96bd 1119 c5ba
00000120: 1f43 143d 9dff 79bd 1687 13b9 1cde c0bd
00000130: 7000 ea3c 1593 d4bd 9ee5 ca3c f2aa 1dbc
00000140: 7441 963d 3d52 c1bd 3eb1 dbbc ad9d b6bd
00000150: 4942 4dbd f6e7 f7ba c719 073e 05fc 9f3d
00000160: c7fc d1bd daa6 bbbd 604c e6bd c853 21bd
00000170: 65e0 10bd b40c 2ebe 5f4f 023d afb2 3e3e
00000180: f130 6dbc 8ee2 1ebd 5048 6ebb 4ce0 8abc
00000190: bc92 673c 248d 89bd 44e2 9abd 2ce4 97bd
000001a0: 6e26 2cbd 71b0 3c3d 6fe9 23be c7ed 8fbd
000001b0: a9b2 62bd b644 073d bfa5 a9bc d2ac ccbd
000001c0: 76c9 12bd 4286 993d 91d7 0cbe 66a0 8fbe
000001d0: e2d8 2b3c 993e 3bbd 5409 13bd f7a1 30bd
000001e0: b71e 8a3d 0fc9 6f3d 799a fc3d a895 b93c
000001f0: b454 013c 87b1 38be 9564 c13a 98e7 69be
00000200: 8fe3 ab3d d621 ad3d bb76 83bd e2f4 c33c
00000210: 5575 b3bd 1f08 74bc e453 e83d 01be d23d
00000220: 23da 173d 538e d53d 0645 b23d 9176 7cbe
00000230: 2cc6 a73c 142e a83d d9de a4bc 04ff 50ba
00000240: 51c8 20be c0a9 c93d a14c b83c 65a9 bfbd
00000250: 1911 963d 60b3 c5bb 0fcd 073e f3d7 89bd
00000260: cfa0 38be a3e3 2cbd 59f5 87bc 8d77 b63d
00000270: 2475 613d a458 83bd a6e4 363e 5f90 8bbc
00000280: a6b1 48bd 4477 83bd 1562 e3bc 93ea 0c3d
00000290: 91c1 e13d 6b94 a73c 7159 f1bd b34f 663c
000002a0: 1774 823d 8636 7ebc 4911 f33c 94b1 fc3d
000002b0: c63a c83b 031b 853d 8fba 293d ec1f 713d
000002c0: 23d3 efbd 42e4 093d e0b5 043e d532 febd
000002d0: 4190 4ebd 575f de3b 237a 88bd 765b ae3d
000002e0: e6ed d23c 8748 a5bd 3fc7 db3d f1e4 6fbd
000002f0: 4b18 2d3e 3f95 1b3d 785b b3bd c4e2 a3bd
00000300: abd4 ad3d 7843 a9bc 2586 3f3d 59e9 f23d
00000310: 4603 43bd f727 713d b968 a1bd 24dd 8cbd
00000320: d578 803d 3b84 663c 3ff9 49bd ec21 d83d
00000330: 26eb 03be affd 8a3d 2b41 bbbd 59e5 7b3d
00000340: 7339 c9bc 35b8 3e3d fdc1 8abd 5a1b abbc
00000350: 25a8 e3bd 41a4 f3bd e233 13bd cc3a a8bc
00000360: c9b9 063e dfaa 1b3c c477 b93d 8630 a93d
00000370: 41b0 d23d bed9 43bd 733d d73d d908 283d
00000380: 2d56 2abb ec56 08be b7ec e8bd bfdf 2b3e
00000390: e87c 3cbe dd92 3abd eecf 2a3d 5208 83bd
000003a0: 8e33 eb3d 5d51 47be 7a66 a3bc 2a5d a2bd
000003b0: 60af 85bd 2d1b 8ebd 131f e33d d813 043e
000003c0: 756a 0fbe 727b 2cbe e839 57bd 71c3 e63b
000003d0: 9174 1fbd c288 05bd b156 aa3d e7c3 c73d
000003e0: 6683 b3bb dba0 19bc dcfe 43bd f324 07bc
000003f0: 451f 2abd b03d 4abd cd2d 36bd 4cd4 5d3d
-0.099299 -0.1025263 0.064628825 -0.00048579133 -0.017636715 -0.0772666 0.063971385 -0.098449945
-0.01664652 -0.12246651 -0.08554453 -0.0783472 0.10253526 -0.004675486 -0.021732315 0.031122262
0.015962927 -0.011877523 -0.013722354 -0.030620938 0.041720994 0.030313615 0.06649716 0.03062182
0.08325418 -0.08943732 -0.030167716 0.049395725 -0.01700841 -0.03554355 -0.12228976 -0.14449881
0.013546153 -0.122679725 -0.01637625 -0.10117824 -0.013215657 -0.055494692 -0.08012462 0.12271803
0.08825561 0.08169301 -0.043954074 -0.010422967 0.23314828 -0.120985836 0.0022568093 -0.062602594
-0.13888706 0.12142294 0.10702145 -0.05988393 -0.031412464 0.045194082 -0.2293573 -0.02943564
-0.0920798 -0.046183802 -0.057561543 0.048737105 -0.013323363 0.036460172 -0.14869593 -0.011874783
0.08846417 0.13815922 0.036942516 -0.09428992 0.01609538 0.10552517 -0.07369302 -0.0015037378
0.036196824 -0.061034787 -0.00014069336 -0.09417364 0.028564662 -0.10379616 0.024767693 -0.009623276
0.07336703 -0.09439514 -0.026817914 -0.08916793 -0.050112043 -0.0018913734 0.13193427 0.07811741
-0.102532916 -0.09162684 -0.11245036 -0.03938654 -0.03537025 -0.16997033 0.031813975 0.1862285
-0.014477001 -0.038790278 -0.003635902 -0.016952656 0.014134105 -0.067163736 -0.07562688 -0.07416567
-0.042028837 0.046066705 -0.16007017 -0.07027774 -0.055346165 0.033024512 -0.020708917 -0.099939
-0.03583666 0.07496311 -0.13754107 -0.28052062 0.010488721 -0.045713995 -0.035897568 -0.04312321
0.0674414 0.058541354 0.12334151 0.02265437 0.00789373 -0.18036471 0.0014754707 -0.22842252
0.08393013 0.08453719 -0.064191304 0.02392048 -0.08762614 -0.014894514 0.11344126 0.102901466
0.037073266 0.10427537 0.087045714 -0.24654604 0.020480238 0.08211914 -0.020125793 -0.00079725706
-0.15701415 0.0984683 0.022497477 -0.09358481 0.0732748 -0.006033346 0.13261817 -0.06730642
-0.18030094 -0.04220928 -0.016596483 0.08909521 0.055043355 -0.06413391 0.1786066 -0.017036615
-0.048997544 -0.064192325 -0.02775673 0.034403395 0.11023248 0.020456513 -0.11784638 0.014057088
0.06369799 -0.015515929 0.029671328 0.12338558 0.006110522 0.06499293 0.04143768 0.058868334
-0.11710193 0.03366495 0.12960005 -0.12412039 -0.05043054 0.0067862677 -0.06663921 0.085135385
0.025748204 -0.08070474 0.107313626 -0.058567945 0.16903798 0.03798413 -0.08757681 -0.080022365
0.08487829 -0.020662054 0.04675879 0.11860914 -0.047610544 0.058876004 -0.078813024 -0.06878117
0.06273047 0.014069612 -0.049309965 0.10553345 -0.12882671 0.067866676 -0.09143289 0.06149802
-0.024563527 0.046562392 -0.067752816 -0.020887066 -0.111160554 -0.11896563 -0.03593815 -0.020535849
0.13156809 0.009501188 0.090560466 0.08261208 0.10287524 -0.047815077 0.105097674 0.041024063
-0.0025991306 -0.13314408 -0.11373275 0.16784571 -0.18407023 -0.045550216 0.041702203 -0.06398071
0.11484443 -0.19464631 -0.019946326 -0.07927926 -0.06527591 -0.06938777 0.11089911 0.12898195
-0.14005454 -0.16843966 -0.052545458 0.0070423414 -0.038929526 -0.032601126 0.08317316 0.09754162
-0.0054783104 -0.00937673 -0.047850475 -0.0082485555 -0.041533727 -0.049375236 -0.044477273 0.05415754

critic.network_body.linear_encoder.seq_layers.2.bias f4 [128]
00000000: cf72 45bc 603a 97bc 9a84 00bd b835 cabc
00000010: 29ee 5ebc 7ed6 d3bc 459d e5bc 1e1b e9bb
00000020: 0537 90bc 57b6 03bd 24f5 6f3b 59ea 553d
00000030: 661b 81bc 2749 04bd 1a1e d9bb e9a0 43bc
00000040: 13a4 b2bc e2dd a9bc 57c7 debc f478 2fbc
00000050: 3a56 d2bc 757b adbc 3a66 cfbc dc3d a3bc
00000060: 7280 8bbc d48c b7bc 2ee3 c1bc 0fd2 a83c
00000070: b631 07bc 976a 113d 38b6 66bd 2489 1b3d
00000080: d2c5 e3bc a66b c3bc e59e bb3c 22a7 32bd
00000090: 4a2d cabc 3efa a33b bad3 b2bc 7b45 c4bc
000000a0: 4102 7fbc 1c46 043d f372 8bbc 301a b6bc
000000b0: 1a02 b1bc 1e5e e4bc 1635 08bc 39ff b9bc
000000c0: 394a d2bb 3d82 8fbc 08c1 02bc 4e7f 92bc
000000d0: 5a0e ddbc 477a d4bc cca5 d9bc 6340 d2bc
000000e0: 24ed 22bc 72db 0dbc 2ad3 abbc 53c6 30bc
000000f0: 8ba4 babc 11e4 abbc 559a 2fbd 7489 89bc
00000100: e4cd dcbc 8909 f0bb daf2 b0bc 3f3e b8bc
00000110: 22ab b9bc 4c70 01bd f760 fabc dbfd f0bc
00000120: 6936 b73c e43a 813b 4457 cfbc d08a c9bc
00000130: f899 7ebc a6b3 b6bc 944d 93bc 72cd 06bd
00000140: 253e cbbc 9a41 babc 4ae0 a3bc 7fa4 9abd
00000150: 0c86 98bc ec27 bcbc be39 aebc 6dc2 823c
00000160: d437 f1bc 2ecd bfbc cc23 073b b2a1 e9bc
00000170: eb5a 13bd 58a6 05bd 07cc 17bd fd40 06bc
00000180: 764e fa39 c088 a8bc 566e 4dbd 9ddd aebc
00000190: 7c49 93bc f2d6 0ebd dfc8 1dbd 5492 dcbc
000001a0: df29 a7bc 4a7e d2bc ce3c 36bd 7024 c8bc
000001b0: b830 eebc 3fd9 87bb 462c 6abc a15c 2abc
000001c0: 25a0 ebbc b575 cfbc 0eb8 ebbb cd2e cdbc
000001d0: 682a 06bd 2c76 a2bc 8591 b3bc 1221 0abc
000001e0: dfa3 33bc db0e d9bb 1da8 07bc 3727 a5bc
000001f0: 0d0e cfbc 004f 76bc 9af7 c2bc e285 82bc
-0.012051298 -0.018460453 -0.03137646 -0.024683818 -0.0136065865 -0.025859114 -0.028029094 -0.0071138283
-0.01760436 -0.032156315 0.003661462 0.052225444 -0.015760135 -0.032296326 -0.006625903 -0.011940219
-0.021806752 -0.020735685 -0.027194662 -0.01070999 -0.025675882 -0.021177033 -0.0253173 -0.019926958
-0.017029021 -0.02240602 -0.023667898 0.020607976 -0.008251598 0.035502043 -0.05632612 0.037972584
-0.027804289 -0.023855042 0.022902915 -0.04361642 -0.024679799 0.0050041964 -0.021829475 -0.023958912
-0.015564502 0.032293424 -0.017022585 -0.022229284 -0.021607447 -0.02787691 -0.008313438 -0.022704707
-0.0064175394 -0.017518157 -0.007980593 -0.01788297 -0.026984382 -0.025937213 -0.026568316 -0.025665468
-0.009944234 -0.008658277 -0.020974714 -0.010789472 -0.022783538 -0.020982774 -0.042871792 -0.016789176
-0.026953645 -0.0073253554 -0.021600176 -0.022490619 -0.02266461 -0.031601235 -0.030563815 -0.029417923
0.022364812 0.003943788 -0.025310166 -0.024602324 -0.015539639 -0.02230246 -0.017981328 -0.03291077
-0.024809906 -0.02273636 -0.02000441 -0.075509064 -0.018618606 -0.022968255 -0.021267768 0.01596185
-0.029445566 -0.023413267 0.0020620702 -0.028519485 -0.035975378 -0.03262934 -0.03705981 -0.008194205
0.00047742174 -0.02057302 -0.050154053 -0.021345908 -0.017979376 -0.034872957 -0.038521644 -0.026925243
-0.020405708 -0.025694985 -0.04449158 -0.024431437 -0.029075965 -0.004145771 -0.014292782 -0.010398061
-0.028762886 -0.025324682 -0.007193572 -0.02504673 -0.032755286 -0.01983174 -0.021919975 -0.008430736
-0.010964363 -0.0066240854 -0.008279827 -0.0201603 -0.025275255 -0.0150334835 -0.023799706 -0.01593298

critic.value_heads.value_heads.extrinsic.weight f4 [1, 128]
00000000: c1d9 5fbd f5c2 b8bd bb6a 683a ed81 043e
00000010: 9b4c 743a 7014 22bb 3288 01bd b6a3 36bb
00000020: bff2 aabc fd74 66b8 ec56 c0b9 9ede 6bbb
00000030: 1cfd 2cbe b299 8d3b 7891 bf3a d007 e53a
00000040: 6c08 033b 4e3c 843d ddcd 993a 26eb 39b8
00000050: 0241 c43b 33c2 e4bd d8da a7bd c14b ed3d
00000060: 6fe3 5a3d 30f4 0ebe 5800 1dbe be04 12b9
00000070: d906 11bd 6c15 7ebc a921 0a39 5d07 b6ba
00000080: a976 023e 7a9c c93d 7d4d 6dbb fce8 ad3a
00000090: 2fbe eebd c251 52bc 2fa8 aabd f399 833b
000000a0: 615b 86bd e4b5 053b 5eb8 8e3a 8d96 1c3e
000000b0: 2e63 ed3a f905 123e 39b6 b6ba 4137 81bd
000000c0: b2b4 cdbb 0456 e1bd 2898 96bb 24a6 413e
000000d0: e6c3 0e3d 629b 3e3a fa43 aebd 1bcd d0bd
000000e0: d450 edbd 6475 ae3b 8afe 87bd 0504 97bc
000000f0: 6d3b 9138 cdbb e2ba 21d4 803a 0cce 913d
00000100: 96fc 99bd 5fd7 41ba d119 22ba 3d0f 9b3d
00000110: 762b 123b 3142 b439 2c61 be3d 4ffa cbbd
00000120: 4136 bd3a a645 7b3a 4ee4 4a3d 1a9c dabd
00000130: de65 b7bd e102 4fbd 226f 1abe 4010 d6bd
00000140: 538e ab3d 76e0 67ba 251a ea3d 012c f53a
00000150: bd9c abb9 2447 94bd ce5b 09bd 03fe 06be
00000160: 418b 8e3d 74e4 873d 8a13 483a 7169 b7bc
00000170: 2b55 31bc bd24 38bb 7408 a33a 635b adb9
00000180: 4dc5 eeba 22f9 ee3d ef35 f33a e5df 743d
00000190: fd92 94bd bac7 383b ef0e 73ba f4e5 703d
000001a0: 6b3d 833d 3889 973d 2071 093a 4817 123e
000001b0: 0016 b83d f7e1 f13d fcb2 8c3d babb 283e
000001c0: db21 fbba 4648 f73d 8fef 28bb 93d1 863d
000001d0: 2d45 e1ba ec79 e93d 1354 9939 ee01 deb9
000001e0: 02a7 96bb ec98 90ba 02ee 533a 92a4 a83d
000001f0: 3ee6 fcba df35 ad3d 80d2 94bd 0896 9a3b
-0.054651026 -0.0902156 0.0008866002 0.12940188 0.00093192764 -0.002473142 -0.031624027 -0.0027868575
-0.020867703 -5.4945227e-05 -0.00036685856 -0.0035990844 -0.16893429 0.0043213004 0.0014615497 0.0017473642
0.0019994034 0.06456815 0.0011734326 -4.4326436e-05 0.005989195 -0.11169853 -0.08196038 0.115867145
0.053439554 -0.13960338 -0.15332162 -0.00013925412 -0.03540692 -0.015508037 0.00013173245 -0.0013887692
0.12740578 0.09844299 -0.0036209517 0.0013268287 -0.116573684 -0.012836875 -0.0833286 0.004016155
-0.06560398 0.0020402605 0.0010888686 0.15291806 0.0018111223 0.14260091 -0.0013939805 -0.06309367
-0.006277644 -0.11002734 -0.004595775 0.18911034 0.034854792 0.00072710786 -0.08509059 -0.10195371
-0.11587682 0.0053240526 -0.06640346 -0.018434534 6.925208e-05 -0.0017298401 0.0009828844 0.071193784
-0.0751888 -0.00073944585 -0.00061836565 0.07571266 0.0022303737 0.00034381592 0.09295878 -0.09959852
0.0014435725 0.00095852686 0.049534135 -0.10674305 -0.089549765 -0.050539855 -0.15081456 -0.10452318
0.083767556 -0.0008845398 0.11430768 0.0018705131 -0.0003273244 -0.072401315 -0.033534817 -0.13182835
0.06960154 0.06635371 0.0007632306 -0.022389146 -0.010823528 -0.002809807 0.0012438432 -0.0003306522
-0.0018216759 0.11668612 0.0018555502 0.059783835 -0.07254598 0.0028195218 -0.00092719396 0.05881305
0.06408199 0.07399219 0.0005242992 0.14266694 0.08988571 0.118106775 0.06870076 0.16477862
-0.001915987 0.12074332 -0.0025777554 0.06582942 -0.0017186754 0.11400208 0.00029245074 -0.00042344577
-0.0045975456 -0.0011031902 0.0008084477 0.08234514 -0.0019294692 0.08457541 -0.07266712 0.004717592
