ml-agents-master/ml-agents/config/results/ppo/LineCreator/LineCreator-225300.onnx (onnx, 71632 bytes, 9 tensors)

53 f4 [4]
000000 69 44 b6 40 2b cf 36 40 72 48 70 40 a0 e9 3d 40
       5.695851 2.8563945 3.7544217 2.9673843

54 f4 [1, 2]
000000 35 41 01 bd 5c 69 96 bc
       -0.031556327 -0.018360786

distribution.mu.bias f4 [2]
000000 12 8a ad 3d e7 b7 b5 bd
       0.084736004 -0.08872967

distribution.mu.weight f4 [2, 128]
000000 10 19 f7 3a ea 2a 1b bc d4 65 44 bb db e4 df bc
       0.0018852074 -0.009470681 -0.002996792 -0.027330806
000010 0c 44 33 3b cf 45 1c 3c e7 05 de 3a 72 22 0d bc
       0.0027353792 0.009538128 0.0016939015 -0.008614169
000020 ed 38 5e 38 d2 49 2d 3c 6f 7b 9c 3b cf 05 83 3d
       5.298194e-05 0.010576682 0.0047754566 0.06397592
000030 0f e2 95 3b fd 7a 4e 3c 6b 7e dc ba 3c 7d 26 3b
       0.0045740674 0.012602565 -0.0016822343 0.0025404235
000040 78 fc c8 3d 57 c5 55 3d ff ed 6f bb 69 9e b1 bc
       0.098137796 0.05219015 -0.0036610363 -0.021681981
000050 92 c9 28 3b fb f7 ed bc d3 19 16 ba 51 65 38 3b
       0.002575491 -0.02904891 -0.0005725894 0.002813656
000060 3b 60 23 3b 26 ec 93 3b 1d a6 bc 3b e3 b1 66 3c
       0.0024929184 0.004514235 0.005757107 0.014080497
000070 95 fd 09 3c b9 6a a7 3b 98 00 30 bb dd b6 e2 3b
       0.008422275 0.005109158 -0.0026855823 0.0069187717
000080 29 07 4b bb 3b 58 1f 3c 5e f4 6e 3a 7a 56 27 3d
       -0.003097961 0.009725626 0.0009115393 0.040853955
000090 2b 54 09 bd 4b 1e 33 bd 1a 8c 4a 3c 8b 6e b3 3b
       -0.033527534 -0.04373006 0.012362504 0.0054758242
0000a0 c1 bd 9a bd c2 ea 09 bb 43 c7 80 b9 80 f7 26 3b
       -0.07555724 -0.0021044468 -0.00024562524 0.0025477111
0000b0 41 7c 3d 3d 8f 40 9a 3b 46 76 9d 3c db 80 35 bb
       0.046261076 0.004707403 0.019221436 -0.0027695212
0000c0 38 a8 9a bb 66 bd ce 3b e4 6e ce ba 0d 23 1f bd
       -0.0047197603 0.006309199 -0.0015749601 -0.038851786
0000d0 97 6a d1 3a 6c 34 4c ba 18 b5 cb b6 72 58 3b 3b
       0.0015977201 -0.0007789794 -6.0709535e-06 0.0028586653
0000e0 a5 43 4e ba a9 81 da 3c ce 28 b6 bd 5d 22 f2 3a
       -0.0007868356 0.026673155 -0.088945016 0.0018473376
0000f0 ad bf 61 3b ed ef 0d 3b 8a 38 4a bb 50 83 bf 3b
       0.0034446523 0.00216579 -0.0030856454 0.005844511
000100 c2 f8 b9 ba 61 63 a7 ba 44 9c c7 bd 97 c0 14 3d
       -0.0014188515 -0.0012770706 -0.09746602 0.03631648
000110 94 bb fc ba 04 42 8c bb 3d 02 74 3c 6b b5 83 b9
       -0.0019281977 -0.0042803306 0.014893112 -0.00025121434
000120 53 cd 2b bb 98 7f 41 3b fe c6 11 bc e9 4f 96 bd
       -0.0026214912 0.0029525515 -0.008897541 -0.073394604
000130 05 7e c1 bb e7 3b 7b 3b 25 e8 d3 3b 3f 44 b0 bb
       -0.0059049153 0.0038335265 0.006466883 -0.0053792293
000140 e5 6e dd b9 03 1d 64 bb bb da 43 bb a0 09 20 bc
       -0.00042235028 -0.0034807331 -0.0029885012 -0.00976792
000150 43 ba 4f 3c 2f 79 31 ba 3c 55 99 3b 7a 16 ac bb
       0.012678686 -0.0006770072 0.00467935 -0.005251703
000160 41 ba 12 3b d7 32 9a 3b 69 a7 37 bd 69 59 08 3c
       0.0022388848 0.0047057676 -0.04483739 0.008322098
000170 fd 77 d0 39 8c c9 bd 3d 6d 35 69 3d b5 12 8a 3b
       0.0003976225 0.09266958 0.056935716 0.004213656
000180 50 e3 9d 3d b1 57 40 bc 1e e6 29 bb ec a7 89 bb
       0.07709372 -0.011739657 -0.0025924514 -0.004200926
000190 e1 41 03 3b c2 6c 99 3b b4 1a 0e 3b 34 fb 27 bb
       0.002002828 0.0046821544 0.0021683397 -0.0025631906
0001a0 35 5a b7 ba ab 3d 14 bb a6 ac f4 3b b4 1c d5 39
       -0.0013988676 -0.0022619765 0.0074668704 0.0004064791
0001b0 59 7c 18 3b 64 c7 1e 3b c2 70 82 bb 8f 1f 57 3b
       0.0023267476 0.0024227733 -0.003980727 0.0032825207
0001c0 11 47 77 3d ce 17 52 3b 03 5b 5a 3b dd 29 f3 ba
       0.06037051 0.0032057646 0.0033318407 -0.0018551905
0001d0 80 e5 c3 ba 8d 5f 0f 3a 9b 39 10 3d 8d 92 18 bc
       -0.0014945716 0.0005469255 0.035211187 -0.009312284
0001e0 79 e1 9e ba 2b bb 99 bb ca e0 16 3a c2 42 85 ba
       -0.001212164 -0.0046915016 0.0005755542 -0.001016699
0001f0 4c 3b 3f 3b f7 57 da 3a 8c 4c b2 bc e1 8a 3b bb
       0.002917963 0.0016658296 -0.021765016 -0.0028616714
000200 be 95 84 3c 8d d3 a7 bd 04 be ab bb c9 24 73 bd
       0.016184684 -0.08194647 -0.0052411575 -0.059361253
000210 df 72 4a 3a ff d4 11 3c c2 94 a8 39 1e 05 2b 3c
       0.00077228056 0.00890088 0.0003215429 0.010438232
000220 ab 9d 9d bb 85 dd b5 bb 8b ca 28 3b a0 dc 0d bc
       -0.0048100553 -0.005550089 0.002575549 -0.008658558
000230 c9 59 90 ba 23 dd 16 3d 86 8d c7 38 cf 45 a7 ba
       -0.0011013086 0.036831986 9.51542e-05 -0.0012761893
000240 d0 3a 68 3c d3 bf 5b bd 6b 10 9b ba 0b c5 81 3d
       0.014174178 -0.053649735 -0.0011830454 0.06336411
000250 6a dd 61 ba 9a a4 a4 3c 82 c2 d9 ba 0e 7a 07 b9
       -0.0008616062 0.02009802 -0.0016613754 -0.00012920072
000260 7b 62 96 bb b2 92 df 3a 68 ef aa 3c a9 47 c0 3b
       -0.0045893765 0.0017057268 0.02086611 0.0058679176
000270 61 6c 2d bb fb f6 8c bd 56 75 02 bb 2c 4e fd ba
       -0.0026462304 -0.06883045 -0.0019906363 -0.0019325665
000280 49 9e a4 bb 39 e9 3a bd 16 b2 e6 b9 14 9e c8 bb
       -0.005023752 -0.045632575 -0.00044001703 -0.00612236
000290 df 7c f7 bd 02 9d 03 bd 12 23 84 bb ed 5e 4c bb
       -0.12084364 -0.032132156 -0.004032501 -0.003118451
0002a0 cc b2 83 3d 8d bb a6 bb 95 18 0f bb 30 7a 48 38
       0.06430587 -0.0050882758 -0.002183472 4.779751e-05
0002b0 46 d2 3d bd 09 75 6c bb 95 1b 56 3c c8 b0 90 b9
       -0.04634311 -0.00360805 0.0130680995 -0.00027597533
0002c0 63 d8 12 3a 53 be db b9 53 71 81 ba cb 3e 05 bd
       0.0005601702 -0.00041912738 -0.0009875692 -0.032530587
0002d0 24 f3 51 ba e4 ee 90 bd 52 12 08 39 09 8a f6 3a
       -0.0008008948 -0.07076815 0.00012976796 0.0018809448
0002e0 1d 6f a1 3a 35 fa 7a 3c 49 8a 1c bd 94 be 14 bc
       0.001231644 0.015318443 -0.038217817 -0.0090786405
0002f0 37 36 65 ba cc b1 f2 b8 bb 12 55 bb cf 81 8e 3b
       -0.00087437354 -0.000115725765 -0.0032512385 0.0043489705
000300 6f dc b1 bb 00 82 95 bb 17 fd f6 3c cf 18 84 bc
       -0.005427889 -0.0045626163 0.03014998 -0.01612511
000310 67 af 96 bb e1 ca 8f bb bd 42 b9 3d c2 6d 11 bc
       -0.0045985463 -0.0043881987 0.090459324 -0.008876266
000320 8b 1d 26 bb e2 5c ad 3a 10 b3 42 bd 99 e5 c7 bc
       -0.0025347199 0.0013226534 -0.04753405 -0.024401473
000330 ef 00 a5 b9 3a 8d 3f bb 20 ec 11 3c 0c 74 c6 ba
       -0.00031471948 -0.0029228465 0.008906394 -0.0015140786
000340 13 ca bc bb 96 e2 b0 bb 20 03 f3 ba 01 00 f1 bc
       -0.005761394 -0.005398105 -0.001854036 -0.029418947
000350 4b 36 d3 3b b1 28 86 3d f5 95 05 bb ae 12 fa b9
       0.006445681 0.0655073 -0.002038357 -0.00047697633
000360 ec 94 01 3a 2c 9e e4 ba 3d 98 0e 3d da 9d ce bb
       0.00049431506 -0.0017442158 0.034813154 -0.0063054385
000370 a1 d5 05 3b 4b b6 00 3d 6a ec a9 bd ad 0b d1 3b
       0.0020421522 0.031423848 -0.082970455 0.0063795657
000380 37 7c d0 bd 80 ce ce 3d 72 fd 76 3c 5a 7a 66 bd
       -0.10179942 0.100979805 0.0150750745 -0.056269027
000390 35 1a 27 3a f6 43 11 3a 3a 04 5a 3d 1f 55 ca ba
       0.00063744496 0.0005541438 0.053226687 -0.0015436745
0003a0 e9 06 d9 ba e8 a6 46 3c 84 ad 31 3b 42 5a 81 bb
       -0.0016557846 0.0121247545 0.002711148 -0.003947527
0003b0 9c 42 6c bb f8 bc 7e ba ea ff db ba 6f 9c c8 b9
       -0.0036050444 -0.00097174896 -0.0016784642 -0.00038263525
0003c0 d0 72 ae b8 53 20 1b ba f2 84 c5 3a 2e 01 ca bb
       -8.318352e-05 -0.00059175974 0.0015069528 -0.0061646914
0003d0 0c 7c c1 ba 15 88 a7 bb 18 24 3e 3c 48 05 66 bd
       -0.00147617 -0.005112658 0.011605285 -0.05615738
0003e0 51 d0 21 bb 6d f8 46 bb d7 e7 ac 3b 93 22 6b bb
       -0.0024690817 -0.0030360476 0.005276661 -0.0035878762
0003f0 0e f6 d1 b8 4b 0f db 39 a7 e3 2c bd a3 35 12 bb
       -0.00010011728 0.0004178233 -0.042209294 -0.0022309802

network_body.linear_encoder.seq_layers.0.bias f4 [128]
000000 1a 59 1a bd ef ed 9e bd 60 b3 eb bd 77 3b 78 bd
       -0.03768263 -0.07760226 -0.115088224 -0.060603585
000010 24 71 90 be fa 98 85 be f9 b9 d0 bd c8 8c a2 bd
       -0.2821132 -0.26093274 -0.101917215 -0.07937008
000020 8b a1 c5 3c 6a 05 d2 bd 62 4e 54 be 80 76 1e be
       0.024124881 -0.10254939 -0.20733026 -0.15474892
000030 44 24 d3 bb 45 04 89 3c 73 44 88 be 39 5e d6 bd
       -0.006443532 0.016725669 -0.26614723 -0.1046719
000040 c6 26 62 be cc 05 fa bd 48 ab 58 be bd 82 8c bd
       -0.22085103 -0.12208137 -0.21159089 -0.06860874
000050 2a e8 a9 bd d5 df 31 be 6b f0 29 bd b2 ea 5d bd
       -0.08296235 -0.17370541 -0.041489046 -0.0541789
000060 a5 6d a9 bc bf ec c3 bd 9d 5e 44 be dd 56 54 be
       -0.020682165 -0.0956664 -0.19176717 -0.2073626
000070 4f f7 17 bc cf f2 52 be 2c 14 1a be 47 de e6 3b
       -0.009275272 -0.20600437 -0.15046757 0.0070455405
000080 5a 6b 86 be b7 fb 5a bd dc f7 c5 bd ad 98 a2 3d
       -0.26253778 -0.05346271 -0.09666416 0.07939277
000090 7b 24 d0 3c 0d fa 5a be fb 9f da bd 1c cf 0b be
       0.02540802 -0.2138445 -0.10675045 -0.13653225
0000a0 54 54 e0 3d a9 1f f8 3b 8b 80 b2 be fc 7f fa bd
       0.10953584 0.0075721336 -0.34863696 -0.12231442
0000b0 91 a8 af be ed 87 3e be 2c 8f 2c be 97 55 20 be
       -0.34308293 -0.18606539 -0.1685149 -0.1565765
0000c0 ec c4 c9 bc b7 1c 69 bd 41 ec d0 bb 22 1d 6d be
       -0.024630032 -0.05691215 -0.00637582 -0.23155645
0000d0 d0 d7 8b be ab ab 81 bd 83 01 09 be 3c 0d 86 bd
       -0.2731309 -0.06331571 -0.13379483 -0.06545493
0000e0 ed ad 66 be 23 ec 61 be 16 80 2e be 24 31 8f be
       -0.22527285 -0.22062735 -0.17041048 -0.2796718
0000f0 ce e8 b5 be d1 38 96 bd 36 c9 9a be 44 ad 0b be
       -0.35529178 -0.073350556 -0.30231637 -0.13640314
000100 26 86 8b be 73 a2 63 be b3 eb 5e be 9d 9e 20 be
       -0.27250785 -0.22229938 -0.217696 -0.15685506
000110 98 f3 d8 bd 33 88 2f be 60 f7 36 3d 3b 1f 67 be
       -0.10593337 -0.171418 0.04466951 -0.22570507
000120 66 86 5b bd e5 26 01 be a7 58 41 be 71 a5 3c bd
       -0.05359497 -0.12612493 -0.18881474 -0.046056215
000130 52 6b 4d be 79 91 5f be d2 ff f2 bd 0e 56 48 be
       -0.2006047 -0.21832837 -0.118652 -0.19564077
000140 48 26 33 be e3 b3 04 be 62 41 b8 be 92 2a a4 b9
       -0.17495072 -0.12959246 -0.35987383 -0.00031312235
000150 f7 bf 50 be a0 13 3c be 51 4f 3e bc 19 da 4f be
       -0.20385729 -0.18366861 -0.01161559 -0.20298041
000160 f5 4e df bb 8f 1f 6f be e2 9c 6d be c5 84 49 be
       -0.0068148323 -0.23351882 -0.23204377 -0.19679554
000170 46 cf 5e 3e 16 44 69 bd d7 d3 4a 3d e5 95 31 be
       0.21758756 -0.056949697 0.049518432 -0.17342336
000180 ef 42 dc bd 1c 2f a9 be 83 ed 87 be 18 3e 10 be
       -0.10754954 -0.33043754 -0.26548395 -0.14086187
000190 f8 96 02 bd b9 60 3d be 7a da 33 be 04 68 4d be
       -0.031882256 -0.18493928 -0.17563811 -0.2005921
0001a0 c0 0f 29 be 66 bc 71 bd a0 af ec 3d 2a 82 88 be
       -0.16509914 -0.05901756 0.11556935 -0.26661807
0001b0 5c 22 4c bd ff ce a2 bd 76 aa 83 be 77 18 b0 be
       -0.049837455 -0.079496376 -0.2571599 -0.34393665
0001c0 6a 30 20 bc b0 0d dd bd d3 d0 01 3c 93 76 2a be
       -0.009777168 -0.10793626 0.007923323 -0.16646795
0001d0 73 0a 58 bd ca 97 fb bd 79 bd 4c bd 6a 9d 49 be
       -0.05274434 -0.12284811 -0.049985383 -0.19688955
0001e0 61 39 18 be 25 f3 b3 bd f7 9f 80 3d 85 4d 28 bd
       -0.14865638 -0.087866105 0.06280511 -0.041089553
0001f0 1f e9 3a be 37 84 b1 bd ba 47 57 be 06 02 57 3d
       -0.18252991 -0.08667796 -0.21023455 0.052492164

network_body.linear_encoder.seq_layers.0.weight f4 [128, 4]
000000 37 a0 33 bf 21 be 8a 3e 68 f2 38 3f 5a f7 06 3f
       -0.70166343 0.27098182 0.7224488 0.5272118
000010 64 78 95 bf 18 01 8e 3e 96 8f 97 3e 08 7f 24 be
       -1.1677365 0.2773521 0.29601735 -0.16064084
000020 52 ec 20 bf 3c 01 b2 3f 1b bc 4a 3e 2f c2 d4 3e
       -0.62860596 1.3906627 0.19798319 0.415544
000030 7d 8e 1b bf 21 0c 01 3f 39 23 8e bf 0a 72 b9 3b
       -0.60764295 0.5040913 -1.1104499 0.0056593465
000040 60 18 31 bf ca 0d 50 be 23 94 1b bf 2c a7 cf 3f
       -0.6917782 -0.2031776 -0.60772914 1.6222892
000050 11 7f 37 bc e2 da 24 3e c6 90 b4 be 3c 6c 25 3f
       -0.011199729 0.16099122 -0.35266703 0.6461828
000060 95 8c 83 3e 46 ef 83 3e 42 6c 79 bf 18 eb 0a 3e
       0.25693193 0.2576849 -0.97430813 0.13566244
000070 c1 88 fc bd f3 0f 6d 3e cf 78 d0 bc fc 15 1b 3e
       -0.12330771 0.23150615 -0.025448231 0.15145105
000080 27 e4 98 be c0 b0 19 bf 1a 44 17 bf 44 fb 25 bf
       -0.29861566 -0.60035324 -0.5908829 -0.64836526
000090 82 ca c1 be 80 9f b1 bd d9 ef a4 bc 96 58 e3 bd
       -0.37849814 -0.08673 -0.0201339 -0.11100881
0000a0 c0 1a 55 3f 68 b7 4e 3e 75 75 1b 3f 89 fa c4 3e
       0.8324394 0.20187151 0.607261 0.38472393
0000b0 7d 21 83 3d cd 7b a3 3e f1 9b 07 3c 9b 26 aa 3e
       0.06402872 0.3193039 0.008276925 0.3323258
0000c0 b9 78 81 3e b7 a4 93 be 31 6e 90 bf bf e7 6e be
       0.25287417 -0.28836605 -1.1283628 -0.23330592
0000d0 3d 1b 19 be 34 62 27 3f 89 f8 99 be e4 32 e4 be
       -0.14951797 0.6538422 -0.3007243 -0.44570076
0000e0 68 c4 a9 be 4c ab 00 be cd e8 fe 3d 99 e6 e3 3d
       -0.3315766 -0.12565345 0.12446747 0.111279674
0000f0 c1 3b 76 3f 39 13 e9 3e 0a 2e f5 be 6c 39 30 3f
       0.9618493 0.45522478 -0.47886688 0.6883762
000100 cd 36 1c bf 49 2a 06 be 15 f8 d6 3e e1 76 af bb
       -0.6102112 -0.13102068 0.41986147 -0.0053547476
000110 98 33 18 bd 4b 87 58 be 07 f7 2e 3e a6 90 04 bd
       -0.03715858 -0.2114536 0.17086421 -0.03236451
000120 dc c1 65 be ea 3e 8b 3c 40 91 75 be ad 9c 99 3c
       -0.22437233 0.016997773 -0.2398119 0.018751467
000130 0c c9 45 3c 49 93 97 3f a6 d0 26 bf af 7b c6 3e
       0.012071859 1.1841823 -0.6516212 0.38766238
000140 b5 6c a7 3d 34 3d 12 3b 10 38 5b be d8 fd c6 ba
       0.08175031 0.0022314312 -0.21408105 -0.0015181853
000150 bb ef 2a be 08 b7 e2 be 39 ac e8 bd b4 84 55 3c
       -0.16693012 -0.44280267 -0.11360974 0.013032127
000160 a1 6c c2 3e 01 3e 2a 3e b0 53 6c 3d 4b f2 ae be
       0.37973502 0.16625215 0.057696998 -0.3416923
000170 87 70 36 bc 9a c1 b0 3e 56 f2 aa bd ac 1b 1e be
       -0.011135227 0.34522706 -0.08347003 -0.15440243
000180 3e 15 6b 3e 30 07 47 bc 28 8f 68 3f 47 b1 fb be
       0.22957322 -0.01214771 0.9084344 -0.4915869
000190 49 5b d2 be b3 23 2d bf ce 29 00 3f f7 84 07 bf
       -0.4108527 -0.676326 0.5006379 -0.52937263
0001a0 46 6a 07 be 7a 5d f2 3e 1f 4f 92 be b8 7f cf 3e
       -0.13224134 0.47336942 -0.2857599 0.4052713
0001b0 a7 33 1b 3f 6b 98 44 bf 9c b1 fe 3e e7 80 43 3d
       0.6062569 -0.7679507 0.4974488 0.047730353
0001c0 b1 d9 81 3e a0 cb 3f bf c3 b6 39 bf bb b7 94 be
       0.25361398 -0.7492008 -0.725445 -0.29046425
0001d0 9e 46 d8 be 3d c8 02 3f bd 15 8c 3e 1b e3 73 3f
       -0.42241377 0.5108679 0.27360335 0.9526841
0001e0 a6 31 54 3e 4e 36 35 3f 53 39 b8 bd ef 1a 4b be
       0.20722064 0.7078599 -0.08995309 -0.19834493
0001f0 c4 46 21 3e ec ae 9a 3f 8c d6 53 3e c7 31 16 be
       0.15749651 1.2084632 0.20687312 -0.14667426
000200 22 0f 55 3e 9c e4 d2 be d4 4c df 3e 03 91 bb 3e
       0.20806554 -0.4119004 0.43613303 0.36634073
000210 aa dd 89 be 98 1e c9 3d 90 d9 d2 be 0d 29 4c be
       -0.2692693 0.098202884 -0.41181612 -0.19937535
000220 60 cd 92 3e c1 79 12 3d c1 bf f9 3d f3 7f bc be
       0.28672314 0.035760645 0.12194777 -0.36816368
000230 f4 98 2d bf 7d 2a 53 be d0 77 4c bf 64 f4 a1 bf
       -0.6781151 -0.20621677 -0.7987032 -1.2652707
000240 c4 f6 b3 be 8f 10 f3 3e 59 e8 1f 3f 25 03 1b bd
       -0.35149205 0.4747357 0.6246391 -0.037844796
000250 41 37 cb 3e 2b 2c d3 3e f5 bb 0b 3d 37 cf 6f 3e
       0.39690593 0.41244635 0.034114797 0.2341889
000260 1b b7 2e 3e de 2d e0 bd 9e ac cc 3e ba d2 b3 3e
       0.17062037 -0.109462485 0.39975446 0.3512171
000270 48 03 85 be 27 6e 6b bf db 5e 3d bf 7d ca 82 be
       -0.25979066 -0.91964954 -0.7397286 -0.2554511
000280 8f 7e 9b be 1e 54 d7 3e 85 53 bb 3e a1 68 5c be
       -0.30369994 0.42056364 0.36587158 -0.21524288
000290 93 49 58 be 58 07 1c 3c e2 4d 04 3f 5b 46 93 3e
       -0.21121816 0.009523235 0.5168134 0.28764614
0002a0 34 8c ef 3e 3e 1e b8 be d0 07 a3 3e 1c b5 fd 3e
       0.46786654 -0.35960573 0.31841898 0.49552238
0002b0 7f 60 0b bf e0 3f 3f bf 20 b6 da 3e bc 2a 31 bf
       -0.54444116 -0.7470684 0.42717075 -0.6920583
0002c0 5d 95 c4 3e d0 70 0e bf f8 41 ca be 92 ca c6 3f
       0.38395205 -0.5564089 -0.39503455 1.553057
0002d0 65 c6 26 bd dd 4e 18 3e 9f 29 85 3d e5 b1 a5 3f
       -0.040716548 0.14873834 0.06502079 1.2944914
0002e0 37 2d 1b bd c2 a4 40 3e 0a 5c 1a be 82 b1 0b 3f
       -0.037884917 0.1881285 -0.15074173 0.5456773
0002f0 64 94 f0 3c f6 8e c1 3e dc 67 2e be d9 99 7d be
       0.029367633 0.37804383 -0.17031807 -0.2476572
000300 a3 86 34 be b3 a2 4b bf 64 e0 cc be 8e 45 42 bf
       -0.17629485 -0.79545134 -0.40014946 -0.7588738
000310 ec 1f 53 be 46 22 9a be 7e 5a 50 3e 72 1c 89 bc
       -0.20617646 -0.30104274 0.2034702 -0.016737197
000320 68 f0 48 3e 4f ac 2e be 82 3a 36 bf 91 b0 32 bb
       0.19622958 -0.17057918 -0.71183026 -0.0027265886
000330 c8 0c e5 3e 56 fb ff bd 2a c4 4d bf 13 7a 57 3e
       0.44736314 -0.124991104 -0.8037745 0.21042661
000340 92 95 28 bf 91 33 20 3f 60 b9 29 bf cd 39 d9 3e
       -0.65853226 0.62578684 -0.66298485 0.4242691
000350 1d ff 84 3d 16 2e c5 be 26 00 6b 3e f3 75 05 bf
       0.064939715 -0.38511723 0.22949275 -0.521331
000360 35 ad 43 bf 1e c1 4c be 94 44 48 bf a4 32 13 bf
       -0.7643617 -0.19995543 -0.7822964 -0.57499146
000370 df ee f0 3c 36 e8 87 bc 71 91 9a 3d 3f 22 8e 3d
       0.029410778 -0.016590219 0.07547272 0.06940126
000380 77 89 06 3d 80 8b 46 bf 9d 72 3d 3f 1f e9 e7 3c
       0.03284594 -0.7755661 0.7400301 0.028309403
000390 23 4e d7 3e c4 81 e8 be f7 f1 1a 3f b6 e2 1d 3f
       0.420518 -0.45411503 0.6052546 0.6167406
0003a0 0e 1c 99 3c 55 1e e2 be bb 31 d0 3e c1 29 27 bd
       0.018690135 -0.44163767 0.4066294 -0.040811304
0003b0 27 3e 5e 3f b2 22 db bc 0f 0e 05 3e ba 2c 14 3f
       0.86813587 -0.026749942 0.12993644 0.5788075
0003c0 dd 70 b7 be 35 fb ab be 28 8f 3b bd b8 25 be 3e
       -0.35828295 -0.33590093 -0.04579082 0.37138152
0003d0 7c 3f 25 bf bb 74 4f bf e2 fe 4e 3e 18 4e 3c bf
       -0.64549994 -0.8103749 0.20214418 -0.7355666
0003e0 cc fd 3d 3f 77 7a 4c 3e 64 90 8f be 74 c5 e1 be
       0.7421539 0.19968592 -0.2803985 -0.44095957
0003f0 9f c2 f4 bd 97 c9 15 bf b0 b5 6f 3e fc 82 68 bf
       -0.119511835 -0.58510727 0.23409152 -0.90824866

network_body.linear_encoder.seq_layers.2.bias f4 [128]
000000 66 f5 d6 3c 27 cd 22 be b8 e8 cc 3c a0 8c 26 be
       0.026240062 -0.15898572 0.025013313 -0.16264582
000010 9d d5 4b 3c 78 59 60 be ab 94 cb bb d3 0f 82 bd
       0.012441066 -0.2190913 -0.006212791 -0.063506745
000020 ed cb 32 bd ab 5e c3 bd 8e c0 7f 3d d9 f2 0d 3d
       -0.04365151 -0.09539541 0.062439494 0.034655426
000030 66 fe 4d bc 56 46 5f bd f2 0e 18 bc 9d 79 67 bd
       -0.01257286 -0.054510437 -0.009280907 -0.056512464
000040 e9 23 b5 bd ff 6f 05 be de 5a c1 bc 81 34 03 be
       -0.0884474 -0.13031004 -0.0236029 -0.12812997
000050 0e 39 01 3d 9f 09 1c be 8a 02 ab bd 85 0b fb 3a
       0.031548552 -0.15238045 -0.08350094 0.0019153213
000060 11 8a 87 3c 8e e4 d6 3c cf 7e 02 3c 78 ab 0a 3d
       0.016545327 0.02623203 0.007964804 0.03385493
000070 ab 40 4e 3b 3b f4 39 be 5b 2c 8e bb 45 06 56 3d
       0.003147165 -0.18159573 -0.0043387837 0.052252073
000080 8a 31 46 bd 5e 50 59 be 7b 96 5f bd ad d6 b5 bd
       -0.048387088 -0.21222064 -0.05458687 -0.08878837
000090 16 e0 0d be 48 87 6a be 9e 76 4b bd 0b e3 9e 3c
       -0.13855013 -0.22903168 -0.04967367 0.019395372
0000a0 ee 9d a2 bd 45 79 07 3c 60 19 cd 3c 08 28 d5 3b
       -0.07940279 0.008268659 0.025036514 0.0065050162
0000b0 c6 d9 49 be e4 be 84 bd 85 9c 8a 3c 12 99 bd 3b
       -0.1971198 -0.06481722 0.016920337 0.0057860697
0000c0 91 f4 f0 bc e0 ed 6c 3d 8f f8 0f be e6 76 81 be
       -0.029413493 0.057844043 -0.14059661 -0.25286025
0000d0 87 4d d1 bc 8c b9 f2 bd 69 f3 55 bc 49 77 8d bd
       -0.025549663 -0.118517965 -0.013058522 -0.069075175
0000e0 9e 4b 05 3d 33 4a 18 3c 7b cd 89 bc 39 f1 59 3c
       0.032542817 0.009295034 -0.016821614 0.013302141
0000f0 81 5e bd bd 00 7b a6 bc 9a bb 15 bd b5 5f 86 bd
       -0.09246541 -0.020322323 -0.036555864 -0.065612234
000100 6d 23 08 bd 4d f7 3c bc 0e b7 33 be c8 f5 95 bd
       -0.03323691 -0.0115335705 -0.17550299 -0.0732227
000110 e8 d6 16 bd e0 e4 05 bd 0c 67 1c 3d f9 4c 11 bd
       -0.036826044 -0.032688975 0.03818421 -0.035473797
000120 53 cb 24 3c c1 11 9d bd df 13 39 be 8b 89 0e be
       0.010058242 -0.07669402 -0.18073986 -0.13919656
000130 41 59 ff bc 8a b9 5f bd 11 cf bd bd 1a 73 fe bb
       -0.03117049 -0.054620303 -0.092680104 -0.007765186
000140 2c 83 57 bd 49 f9 9a bc 14 5a be bc c1 e7 4f be
       -0.05261533 -0.018917697 -0.023236312 -0.20303251
000150 60 ea 7a 3d fe 6c 1d bc 3f c4 bf bc d8 68 dd 3a
       0.061258674 -0.009608505 -0.023409007 0.0016892208
000160 75 29 89 bc c9 8a 88 bc ab 9e 2b be 21 11 b4 bd
       -0.016743401 -0.01666774 -0.16759746 -0.087923296
000170 92 30 df bb e6 7f aa 3b ab 8e fb bd d6 75 96 bd
       -0.00681121 0.005203235 -0.12283071 -0.07346694
000180 ff 1b 44 bd 4a 28 c2 3b 6b 9c 19 bd 33 f5 1b be
       -0.04787826 0.005925213 -0.037502687 -0.15230255
000190 c0 a9 ab 3b c3 95 f4 bc 7d 64 fe bc 91 1f a4 bc
       0.0052387416 -0.029856568 -0.031053776 -0.020034583
0001a0 58 4f 1d 3c 96 f7 59 bd 85 fe 31 3d 43 16 b9 bc
       0.009601437 -0.053214632 0.04345562 -0.022593623
0001b0 25 2b fb bd dc d0 97 bd e9 32 e5 bb 63 23 1c bc
       -0.122640885 -0.07412884 -0.0069945944 -0.009529921
0001c0 1d 9a de bb 82 40 1f bd b2 e1 08 3a 25 8d b2 bc
       -0.006793274 -0.03887988 0.00052216195 -0.021795819
0001d0 d8 2b b1 bc 54 e3 35 bc 3a e4 1a bc ac d6 2e be
       -0.021627352 -0.0111015625 -0.0094538275 -0.17074078
0001e0 7a b5 3c 3d cb 2b 3c 3d 5d 56 88 bd 02 6d 98 bd
       0.046071507 0.0459402 -0.066570975 -0.074426666
0001f0 30 bf b3 bc 0f 4b 4c bc ed 5f 34 be bd 64 20 bc
       -0.021941751 -0.012469067 -0.17614718 -0.009789643

network_body.linear_encoder.seq_layers.2.weight f4 [128, 128]
000000 2b 38 70 3d 29 fb 57 3d de 47 67 3d 05 b3 07 be
       0.058647316 0.05272976 0.056465022 -0.13251884
000010 a0 d1 4c be e5 34 13 be 00 c7 ab bd d4 29 5b 3e
       -0.2000184 -0.14375646 -0.083875656 0.21402675
000020 de da a2 3d e7 27 21 bd 1c 3e d8 bd 65 2f 1c 3e
       0.07951902 -0.039344694 -0.105587214 0.15252455
000030 8e 7f 40 3d 6b 2f f1 bd 8f 6f cd bd d2 65 4d bd
       0.046996646 -0.117766224 -0.10031044 -0.05014593
000040 cf 9b fd bb 06 79 17 be dd c7 a3 bd e2 c9 08 be
       -0.007739521 -0.1479226 -0.07997105 -0.13358262
000050 e3 8e cd bd 10 8b d1 3b b2 87 81 bd 74 26 a5 bd
       -0.10037019 0.0063947514 -0.0632471 -0.08063975
000060 c6 1d 2c bc 6d 48 5f bc 39 56 1a 3d 6d 80 9b bc
       -0.010505145 -0.0136281075 0.037679885 -0.018982137
000070 34 f5 86 3c ed 57 a6 3c f6 f0 1a 3e df c1 cd bd
       0.016474344 0.020305598 0.15130982 -0.100467436
000080 40 3f c1 bd a6 94 cb 3b 68 b4 5b 3d 73 76 74 be
       -0.09435892 0.0062127886 0.053638846 -0.2387331
000090 77 7d 0e be e9 d3 2c 3e a8 92 4e bd 34 f3 3a 3d
       -0.13915049 0.16877712 -0.05043283 0.045642093
0000a0 91 b5 41 3d 61 bf 90 bd b3 e3 2c be f3 81 91 3d
       0.047292296 -0.07067753 -0.16883735 0.07104864
0000b0 32 8e 9d be cf 0e 34 be 65 99 bc ba 0e 4f d5 bd
       -0.3077255 -0.17583774 -0.0014388977 -0.10415469
0000c0 1a 3e b7 3c 61 5c 9c bc 8d 97 06 bd 27 a6 b9 3c
       0.02236848 -0.019087018 -0.032859374 0.022662235
0000d0 81 29 86 3d 51 c7 87 bd 90 5b e2 bc be 46 12 3e
       0.06550885 -0.066298135 -0.027631551 0.14284799
0000e0 1b a5 50 3d 1c f0 10 be b3 b4 8c 3d 30 c1 45 be
       0.050938707 -0.14154094 0.06870403 -0.19311976
0000f0 87 f2 0f be e6 7c 57 be 4b 06 ce bd 2f c1 bf bd
       -0.1405736 -0.21043739 -0.10059794 -0.09363019
000100 a2 4b f3 bd a9 66 17 bb ba 0f db 3d af fb 86 3d
       -0.1187966 -0.0023101962 0.10696359 0.065909736
000110 a7 a9 56 be 58 fb 32 3e 0b ff 94 bd 17 71 e9 3d
       -0.20963155 0.17478693 -0.07275208 0.11398523
000120 68 1c 2f be f9 3c c5 bd fa 11 fa bd 97 92 60 3d
       -0.1710068 -0.0963077 -0.1221046 0.0548273
000130 58 04 8b 3d 15 ab d4 bc c0 b1 32 3c 80 14 92 bd
       0.06787938 -0.025960485 0.010906637 -0.07132816
000140 64 28 e9 3c 5b 3e 14 bc 97 55 9b bd 10 c6 39 bd
       0.028461643 -0.00904807 -0.07584684 -0.045354903
000150 e4 ca 96 bd 3b b9 e3 bd 4d c7 f3 bd 9c bd 8a bd
       -0.07362917 -0.11119314 -0.11903248 -0.06774446
000160 02 48 34 3c 8f e5 e7 3c 71 b6 b0 bd e1 25 3d bd
       0.011003496 0.028307704 -0.08628548 -0.046178702
000170 43 9e 97 bd d7 26 84 3d 14 e2 46 3d 39 e7 0a be
       -0.07403233 0.064527206 0.04855545 -0.13564767
000180 7d 7e 8b 3d 04 ab 82 bd ce f1 e4 3c 13 3b f5 bd
       0.06811235 -0.06380275 0.027947333 -0.11974158
000190 3e 72 67 3d 90 b4 03 bd 73 f8 9b bd 0d 77 8b bd
       0.056505434 -0.03215462 -0.07615747 -0.068098165
0001a0 9b 73 f0 bd 07 f7 00 3e f1 4a 96 bd a9 da f1 3c
       -0.117408 0.12594233 -0.07338513 0.02952321
0001b0 69 8e 4b bd 85 2a 27 bd a8 e5 b7 bd 75 ab 9c bd
       -0.04969636 -0.040812034 -0.0897935 -0.0764989
0001c0 c3 ef e3 bd aa ed 99 bd 79 58 7a 3c 95 d1 27 3b
       -0.11129715 -0.07516034 0.015279883 0.0025607098
0001d0 dd 72 00 be a5 61 3a be 8f c5 3c 3d 4c 6a f7 bb
       -0.12543817 -0.18201311 0.046086844 -0.0075505134
0001e0 e5 91 3a bd 61 2c ad bc f7 c0 be bd e8 e2 e7 bd
       -0.045549292 -0.021139326 -0.09314149 -0.11322576
0001f0 bc 9b 60 3e 54 6c fe bc 88 ec c1 bd c6 ad 77 bd
       0.21934408 -0.031057514 -0.09468943 -0.060468458
000200 a3 c1 04 be 21 cb 60 be 2d c4 53 3d 23 a7 f2 bd
       -0.12964492 -0.21952488 0.05170076 -0.11848285
000210 99 71 83 3d 27 a4 94 3e 3b 1f 27 be 81 62 80 bd
       0.064181514 0.29031488 -0.16320507 -0.06268788
000220 fd 7f f3 bd 91 9b bc 3c 68 9a 06 be 19 4c 32 bd
       -0.11889646 0.023023399 -0.13144839 -0.043529604
000230 e8 6f 12 be cd bb 6f 3d 55 44 17 bc b0 fc 78 3d
       -0.14300501 0.05852871 -0.0092326 0.060787857
000240 91 9f 05 bb d1 e8 55 bd 4e 7a c7 bc 79 13 92 3d
       -0.0020389298 -0.052223984 -0.024350312 0.0713262
000250 85 58 65 3b f2 62 f5 bd 48 4f f2 bd bb 28 20 bb
       0.0034995389 -0.11981763 -0.11831528 -0.002443834
000260 bb 1b 8e be a6 b6 1a bb ae a0 44 3d dc ff 91 bd
       -0.27755532 -0.0023607402 0.0480048 -0.071288794
000270 ab 88 25 be a0 56 2d 3e 82 0f 15 3e a4 cb 42 bd
       -0.16165416 0.16927576 0.14556697 -0.047557488
000280 6a 3f 05 bd a9 56 b8 3c ba da e6 bc 53 d2 01 be
       -0.03253118 0.02250226 -0.028180469 -0.12677889
000290 bd 43 f6 bd 99 cb 44 3e a1 d9 f2 bd ea fc 15 be
       -0.12024639 0.19218291 -0.11857916 -0.1464726
0002a0 a1 37 cb bd a7 af ba bd bd 3b d4 bd f7 d4 c6 bd
       -0.0992272 -0.09115534 -0.10362957 -0.097085886
0002b0 29 21 71 3c 2c 47 03 3e 95 80 89 3e 33 6b 9c 3d
       0.014717379 0.12820119 0.26855913 0.07637634
0002c0 67 3f 5b be ac 18 3b be bb a9 45 3b d3 5c e8 3c
       -0.21410905 -0.1827113 0.0030160982 0.028364575
0002d0 af 64 e9 3d 10 ee da bd fd 1c d2 bd 3c 68 c3 bb
       0.11396157 -0.10689938 -0.10259435 -0.0059633534
0002e0 8c f3 31 be 0b 7a a9 3c cc b8 c8 bd b0 7e 5f 3e
       -0.17378062 0.020688077 -0.09800872 0.21825671
0002f0 40 62 5d bc 0d d7 48 3c 19 87 e6 3b 5d 11 2d be
       -0.013512194 0.012258303 0.007035148 -0.16901155
000300 6b 21 58 3c 47 aa 85 bc 1a 9a 0b 3e 89 af 34 be
       0.013191561 -0.016316546 0.13633004 -0.17645086
000310 63 87 1b 3d aa 54 79 bd 1e 3a fb 3b 42 89 3e 3d
       0.03797091 -0.060871758 0.00766684 0.046517618
000320 98 1b 87 be c4 29 98 3d ea 82 cf bd 3a d8 5a be
       -0.2638824 0.07429841 -0.10132392 -0.21371546
000330 7f ea 8c 3c fb 1b 08 3d 67 d0 ef bc 7f f1 80 3e
       0.01720166 0.03322981 -0.029274179 0.25184247
000340 67 0f 73 3d 81 00 a8 bd 40 35 15 3e 44 fe f9 bd
       0.05934086 -0.08203221 0.14571095 -0.122067004
000350 af 50 88 3d ba 29 a8 bd ea 01 98 3d c1 b7 a9 bc
       0.06656014 -0.08211084 0.0742224 -0.020717504
000360 57 54 d6 be a7 2d 8d bd fa 0c fa 3d 88 c3 54 be
       -0.4186122 -0.06893473 0.12209506 -0.20777714
000370 0c fb 39 be 5b 56 99 bd ff f7 bf bd 39 68 37 bd
       -0.18162173 -0.07487174 -0.093734734 -0.04477713
000380 f9 30 ef 3b 30 dc 50 3e 5d 3f de bd 29 3d a8 bd
       0.007299539 0.20396495 -0.10851929 -0.082147904
000390 e3 7d 24 be 53 c3 a5 3d 32 f8 1e 3e 59 5d d0 3d
       -0.16063647 0.08093896 0.15524366 0.10174055
0003a0 9a 6b 00 bc 0e 9f 51 be 1c 42 b3 3d 62 dc 4b 3e
       -0.007838154 -0.20470831 0.08752844 0.19908288
0003b0 cb 3e b5 bc 4c e6 a5 3d ab 54 1e 3e 3c 69 6b 3d
       -0.022124669 0.08100566 0.15461986 0.057473406
0003c0 d1 7a 53 be 0e bd 9f bd a6 8a 00 bd 4a be 17 3e
       -0.2065232 -0.07799731 -0.031382225 0.14818683
0003d0 12 f1 20 3c b1 44 96 bd cb 9e 94 3c 5a 14 dc 3d
       0.009823101 -0.073373206 0.018142125 0.10746069
0003e0 9d 2c dc 3c 38 0d 8c 3d e4 f2 f8 bd 69 cb 46 bd
       0.026876742 0.06838459 -0.12155703 -0.04853383
0003f0 7c bd fb 3d df 81 8f 3d 29 b9 dd 3d df fa 85 bd
       0.12292001 0.07007193 0.10826332 -0.065419905

network_body.vector_processors.0.normalizer.running_mean f4 [4]
000000 c5 8b 0d 40 71 0c b9 3d 05 e8 ef c0 d1 e0 3b 3f
       2.2116559 0.09035576 -7.4970727 0.7338992
