ml-agents-master/ml-agents/config/results/ppo/LineCreator/LineCreator-795979.onnx (onnx, 71632 bytes, 9 tensors)

53 f4 [4]
000000 aa 40 b9 40 96 3a 3d 40 0f cb d2 40 52 17 31 40
       5.7891436 2.9567008 6.5872874 2.7670484

54 f4 [1, 2]
000000 a6 42 42 bc 63 80 03 be
       -0.011856711 -0.12841944

distribution.mu.bias f4 [2]
000000 a4 70 58 3e c1 86 09 be
       0.21136719 -0.13430311

distribution.mu.weight f4 [2, 128]
000000 3d 97 1a 3d 22 83 3d bb b2 e6 ab bb 34 4d b7 be
       0.03774189 -0.0028917273 -0.005246007 -0.3580109
000010 68 1a d7 ba c0 63 e4 bb 47 84 53 bb 3a dd 7b bb
       -0.0016411068 -0.006969899 -0.0032274888 -0.0038431422
000020 64 34 2e 3d bc c0 ca bd 3b d5 d9 bb e7 7b 7a be
       0.042530432 -0.099000424 -0.0066477335 -0.24461327
000030 60 66 c1 ba b7 91 ca 39 f9 12 89 3d 5e 83 24 3b
       -0.0014755242 0.00038637008 0.06693072 0.0025102715
000040 e3 d9 ca bb c6 b4 7a bc 26 39 04 bd ac 15 60 3d
       -0.006190525 -0.015301889 -0.032281063 0.054708168
000050 18 ae b5 3a 59 c8 b3 bd 52 c5 96 3a 35 c2 a2 be
       0.0013861088 -0.08778448 0.0011502898 -0.31788793
000060 64 ac 62 be 1e 85 94 bb 7d 52 70 bb 7c ae f2 bb
       -0.22136074 -0.0045324704 -0.003667026 -0.007406054
000070 c6 d1 ce 3b 50 94 ca bd b0 c5 ec bb 2f 16 a6 be
       0.006311628 -0.098915696 -0.0072257146 -0.324388
000080 06 37 db bb eb 14 16 3c 9b 58 5b 3b 75 01 e0 3b
       -0.006689909 0.009160261 0.003346956 0.006836111
000090 1b 2b 12 3b ff f1 e0 3d b1 4d 1b bc ed c1 0d 3e
       0.0022303525 0.10983657 -0.009478972 0.13843508
0000a0 73 15 64 3b 49 26 0c bd 49 33 10 3e d7 ba 4e 3b
       0.0034802824 -0.0342162 0.14082064 0.003154447
0000b0 69 97 92 bb 4e 64 d2 bd 06 89 1b 3d fd 21 aa be
       -0.004473616 -0.10273038 0.037972473 -0.33229056
0000c0 6d 83 78 bb 52 99 b5 3d 65 2a 1e 3a 5b 17 d8 bc
       -0.0037920133 0.08867134 0.0006033539 -0.026378324
0000d0 0a c4 b5 bb a6 bf 50 39 08 41 e1 bb 02 3b 72 bb
       -0.0055470513 0.0001990782 -0.0068742074 -0.003696144
0000e0 a4 1b 5b bd 2f 7d f1 3b 9a a8 2b bb be ca 3c 3c
       -0.053493157 0.0073696594 -0.0026193024 0.011522947
0000f0 ff a9 33 3e 7e 93 a7 bb 1c 56 85 bb c6 6a 64 be
       0.17545317 -0.005114018 -0.004069103 -0.22306356
000100 56 9b 18 3c 64 06 49 bd 6f 00 cc bb 49 e9 af be
       0.009314379 -0.04907836 -0.0062256376 -0.3435767
000110 3c f8 a2 bb 56 b4 67 3a 2b 89 a2 3b 28 3d 49 3d
       -0.0049734395 0.0008838823 0.0049601994 0.04913059
000120 ff 3c 30 bd f1 b4 b9 bc db 54 a5 3b 19 5c 21 3a
       -0.04302692 -0.022669287 0.005045516 0.0006155386
000130 89 7b 72 39 5a 4f cd 3b 9d 94 6e bb f3 a0 ad be
       0.00023124939 0.006265563 -0.0036404498 -0.33911857
000140 d2 d6 a1 3b 73 a5 4d ba 30 64 bf ba 47 36 98 3b
       0.0049389387 -0.0007844783 -0.0014602002 0.0046451422
000150 85 bd 2d bc 7a 1f 69 3b 84 34 75 bb d2 b0 20 3b
       -0.010604267 0.003557174 -0.0037415335 0.0024519456
000160 e5 b4 e1 be 40 df 82 bb 91 04 70 bb 91 43 25 3b
       -0.44083324 -0.0039938986 -0.0036623816 0.0025217275
000170 64 10 72 bd ed dc a0 3b 3c 9e 19 bb 44 df b5 bb
       -0.059097663 0.004909149 -0.0023440262 -0.005550297
000180 1e 57 1f bd 99 f1 9a be 3b 2b 73 bb 4a 6e 4b bb
       -0.03890144 -0.3026245 -0.0037104625 -0.003104108
000190 0b 27 23 3d 04 90 95 bd 66 ea 21 bd 04 72 13 3b
       0.039832156 -0.073028594 -0.03953018 0.0022498379
0001a0 03 83 a9 bb ff 94 93 bb 90 54 17 bc f0 89 02 bc
       -0.0051730885 -0.0045038457 -0.00923647 -0.007967457
0001b0 62 89 c3 bd 61 8c 2e bc cb 3a 4b bb 3f aa f1 ba
       -0.09547688 -0.010653586 -0.0031010385 -0.0018437578
0001c0 3c 19 01 3e ba 7f d7 bb 5d 7b 68 bb 08 bb ba bb
       0.12607282 -0.0065765055 -0.003547392 -0.0056985654
0001d0 ca 1b a4 ba c4 c8 40 bb 43 4d 53 bd cd fa c4 be
       -0.0012520489 -0.002941654 -0.051587354 -0.38472596
0001e0 39 e7 83 bd c8 cd 50 bb c2 ff 4a 3c 83 60 21 3e
       -0.064405866 -0.0031860936 0.012390079 0.15759473
0001f0 37 00 08 bc 35 55 a9 bb d2 47 9b 39 e4 1c b6 3b
       -0.0083008325 -0.005167628 0.00029617414 0.0055576432
000200 8f 30 40 3d dd 63 28 3b 10 8d cb 3a b9 bb 92 3d
       0.04692131 0.0025694289 0.0015529711 0.071647115
000210 2d 98 4e b9 14 fc 6a 3b 7e 44 3d bb 66 a7 89 3b
       -0.00019702381 0.0035855817 -0.0028879936 0.0042008637
000220 b7 7d 40 be 26 3b 4b 3c 00 1c 16 ba 74 1f df 3b
       -0.18797956 0.012404239 -0.0005726218 0.0068091694
000230 8b b1 2c 3a 43 5a 7a bb db 6c f8 3c da 20 65 bb
       0.0006587735 -0.0038200773 0.030325344 -0.0034962208
000240 25 0d bc 3b bb 3e 15 3b 02 78 34 3c 43 98 82 bd
       0.0057388716 0.0022772986 0.01101494 -0.06376698
000250 fe b7 f5 ba fe e6 ea 3c 8e 21 85 bb 8e e7 8c bd
       -0.001874685 0.028674599 -0.004062838 -0.06880103
000260 40 38 08 3e 65 b9 08 3b bd a9 9f 3b e5 a5 2e 3c
       0.13302708 0.0020862457 0.0048725293 0.0106596695
000270 be 58 f8 3a 95 c4 dc bc 3a 6e 79 ba c2 eb 18 3d
       0.0018947346 -0.026949206 -0.0009515021 0.03733421
000280 2c b4 d1 3b 1f 49 59 bb 37 f1 6a bb 7b a7 4f bd
       0.006399652 -0.0033155156 -0.0035849342 -0.05069683
000290 4a 23 ed bb c6 df 9f bd 70 f1 89 3b 49 2c c7 3b
       -0.007236873 -0.07806353 0.00420969 0.0060782772
0002a0 7d dc e1 3a 74 49 24 3c ec 76 38 3b 5d 73 b7 bb
       0.0017231848 0.010027278 0.0028147055 -0.005598469
0002b0 19 05 53 3a 02 53 df bd f9 19 3f bd 49 6a 15 3e
       0.0008049771 -0.10904504 -0.04665563 0.14591326
0002c0 0a 11 de ba 46 28 cb 3c e1 b9 26 bb 7a 4f 1d be
       -0.0016942334 0.024799477 -0.0025440382 -0.15362349
0002d0 8f 72 ef ba ff 33 41 bb 70 b3 81 3b eb b4 55 3b
       -0.0018268394 -0.0029480455 0.003958158 0.0032609056
0002e0 dc 82 9b bb a7 d9 f2 3b 3d dc 3e 3b 1d 08 c7 bb
       -0.0047458243 0.0074112 0.0029122971 -0.006073965
0002f0 2e 94 9d bd 56 b4 81 3b c5 b1 38 b9 53 44 e4 3d
       -0.07694279 0.0039582653 -0.00017613832 0.11145844
000300 e1 81 aa bb 38 64 00 bc 7f f0 6d 3a 06 f5 23 3e
       -0.005203471 -0.007836394 0.0009076669 0.16011438
000310 7c a7 7a 39 b0 28 2b bb 08 f3 be bb d3 db 8e bd
       0.0002390425 -0.002611678 -0.0058273114 -0.06975522
000320 02 03 a8 3d 7c a5 e0 3c 81 b0 04 bb d4 42 84 bb
       0.08203699 0.02742266 -0.0020246806 -0.004036287
000330 b7 3c df 3a f6 ef 2a bb da 1b 91 3b 65 18 82 3d
       0.0017031644 -0.002608297 0.004428369 0.06352309
000340 4d 2e ac 3b f9 eb f6 3b a7 56 f3 ba 74 70 a9 bb
       0.005254543 0.0075354544 -0.0018565253 -0.005170876
000350 a7 bd a1 3b b8 75 15 ba 38 b9 ad 3b c9 01 80 bb
       0.0049359384 -0.00057014404 0.005301621 -0.003906463
000360 26 84 17 3e 7c b1 c7 3a 6e 0d 6a bb 05 86 8d bb
       0.14796504 0.001523539 -0.003571357 -0.004318955
000370 9a 5b 29 3b 22 79 ee bc ef de e1 3a 41 6b e4 b9
       0.0025841952 -0.029110495 0.0017232577 -0.0004356746
000380 f7 a3 0a 3d 27 3c 0f 3e e5 3d 9d 3a 38 2d b6 ba
       0.033847775 0.1398779 0.0011996595 -0.0013898974
000390 e2 e4 92 bd 3b f5 66 3d a4 b9 de 3c e9 5d 32 38
       -0.07172562 0.056386214 0.02718813 4.2525968e-05
0003a0 38 80 d9 3a f9 6a cb ba 50 38 99 3b 23 aa ca ba
       0.0016593998 -0.0015519551 0.0046759024 -0.0015462082
0003b0 c4 19 6a bd 31 0c 45 bc b6 a4 8f 3b ac 2f bb b8
       -0.05715348 -0.012026832 0.0043836487 -8.9257344e-05
0003c0 49 75 3d be 77 b2 ed 3a 72 2d 9a bb e1 8f 41 3b
       -0.18501772 0.0018134852 -0.0047051245 0.0029535221
0003d0 8d 90 3d ba e8 12 5e 3b 6d d1 3d 3e 80 e6 8b 3d
       -0.00072313176 0.003388578 0.18536921 0.06831074
0003e0 e8 a6 04 bd 17 21 7d 3b d3 5f 6c 3c 58 aa f6 bc
       -0.032385737 0.003862446 0.014427143 -0.030110523
0003f0 d1 2f 78 3b 2d a1 43 3b 82 99 d1 bb 80 db 8c bb
       0.0037870298 0.0029850707 -0.0063964734 -0.0042986274

network_body.linear_encoder.seq_layers.0.bias f4 [128]
000000 e3 47 05 bd 84 14 bd be ee 07 85 bd e7 df 27 bd
       -0.03253926 -0.36929715 -0.06495653 -0.040985014
000010 fd 27 42 be f9 ee 1f 3c c3 a1 36 be 8e 51 6c 3e
       -0.18960567 0.009761565 -0.17835145 0.23077986
000020 ea 0f 37 3e cf d3 8a be 99 e6 af bd 2d 18 c1 bd
       0.17877164 -0.27114722 -0.08588905 -0.09428439
000030 f3 ac 3e 3e 3f 62 18 be 2b e6 c8 be a4 30 81 3d
       0.18620662 -0.14881228 -0.39238104 0.063081056
000040 e5 54 11 bc 31 1c 43 3e 9c 9b 7c 3e c4 3d 76 3e
       -0.008870338 0.19053723 0.24668735 0.24046999
000050 95 ae 04 bf 95 e0 ce be e8 e4 18 3e 8b d3 e8 b7
       -0.5182889 -0.40405717 0.14931071 -2.7755063e-05
000060 d9 c3 ae be 74 cb 14 3b 0a eb 57 bc fa bc 46 be
       -0.34133795 0.0022704275 -0.013178596 -0.19408026
000070 fa 25 b3 be 39 74 12 3a 5c b6 23 be d2 e6 27 3e
       -0.3498991 0.00055867765 -0.15987533 0.16396645
000080 eb 33 0b be 49 75 fb bd 97 fd cf 3b 06 31 5a 3e
       -0.13594024 -0.1227823 0.006347369 0.21307763
000090 b3 ef 97 b9 25 ae d0 bd b7 c0 bb 3d 1e 69 55 bd
       -0.00028979554 -0.101894654 0.09167617 -0.0521022
0000a0 55 a1 2a 3e 25 8e 5a be 48 19 aa be 38 0f 4d 3e
       0.16663106 -0.21343286 -0.33222413 0.20025337
0000b0 f0 2b 17 bd 53 8e 01 be b2 fd 02 be d8 a7 c5 be
       -0.036907136 -0.12651949 -0.1279209 -0.38604617
0000c0 06 4e 84 bc 68 44 a7 be 1b 86 2e be fb 68 c2 b9
       -0.016150486 -0.32669377 -0.17043345 -0.0003708078
0000d0 97 e5 75 be 2e 90 1f be de 4b b6 3d 55 e3 42 bd
       -0.24013363 -0.15582344 0.08901189 -0.047580082
0000e0 bd e4 b7 be 39 6e ba be e8 ee dd 3d b8 20 ce bd
       -0.359167 -0.36412218 0.108365834 -0.10064834
0000f0 06 e7 d9 3c 01 bf 77 bd bb 82 db bd 7e df 2a bd
       0.026599418 -0.06048489 -0.10718294 -0.041717045
000100 86 45 2b be ea e7 4e be ef fd ca be ea 25 5e be
       -0.1672574 -0.20205656 -0.3964686 -0.2169415
000110 a4 4d 31 3e 59 dc a4 bc 77 15 eb 3d c6 b2 7b 3d
       0.17314774 -0.020124601 0.114787035 0.06144979
000120 7c dc 8a be 3b cc 12 be ba 23 c4 3e 4c e1 0a be
       -0.2712134 -0.1433572 0.38308507 -0.13562506
000130 ea fd 83 3e c0 42 b9 be 91 17 5b 3e cf 0f 68 be
       0.2577966 -0.3618374 0.21395709 -0.2266228
000140 b6 d0 23 3e 39 cc d3 bd 1a a6 93 be e5 14 81 bd
       0.15997586 -0.10341687 -0.28837663 -0.063028134
000150 07 46 53 be 1a 74 86 be 2d 83 13 be 52 af 13 bf
       -0.20632182 -0.26260453 -0.14405508 -0.5768939
000160 11 8c 8d 3d ed 5b e1 3d ac 80 55 bd 6c 14 d0 bd
       0.06911481 0.110038616 -0.052124664 -0.10160145
000170 1b 03 ed bc 81 15 9a bd 20 a8 68 3d 04 51 97 be
       -0.028932145 -0.07523633 0.05680096 -0.29553998
000180 13 42 4f be 85 6a 27 3e f9 ba 56 be 2e 7b 24 3e
       -0.20240049 0.16349228 -0.20969762 0.16062614
000190 cd 74 ab 3d 4d 32 b2 be 79 35 14 bd f5 ea 27 3d
       0.08371887 -0.34804 -0.036183808 0.040995557
0001a0 db 69 4f bb 93 38 90 3d 88 4c a5 bd 37 a1 4e 3c
       -0.0031648788 0.07042041 -0.08071238 0.012611679
0001b0 cb 84 dc bd 23 20 c1 bd ad eb c3 bd fa 77 93 3e
       -0.10767516 -0.09429958 -0.09566436 0.28802472
0001c0 2d bd 15 3e 52 c3 98 bd fe ba 67 bc 0c cf 82 3d
       0.14622946 -0.074591294 -0.0141437035 0.06387147
0001d0 95 19 fe be a6 6f 2e 3b ff a9 ae 3b 2a 02 b1 3e
       -0.49628893 0.002661684 0.0053303237 0.34571964
0001e0 af c4 34 be 25 44 0b bf 98 ad 6c 3c ca 42 db bd
       -0.17653154 -0.54400855 0.014445685 -0.107060984
0001f0 0b 8f 9c be 93 e5 86 3e a3 6a ae be 6d 3a 09 bf
       -0.30577883 0.26347026 -0.34065732 -0.53604776

network_body.linear_encoder.seq_layers.0.weight f4 [128, 4]
000000 ae 0b 90 3f e1 72 2c bf 9b b9 12 3f 6c 22 f1 3e
       1.1253564 -0.6736279 0.5731446 0.47096574
000010 06 20 8d 3e d7 e9 32 3e 61 f4 6e bc ad 06 9b 3f
       0.27563494 0.17472015 -0.014584632 1.2111412
000020 32 d8 88 be 1a af 9d be f2 11 81 3d 0d 21 f1 3e
       -0.26727444 -0.30797654 0.06302251 0.47095528
000030 88 b0 16 bf 83 01 2d bf 76 b4 ad 3d 38 f2 a5 3e
       -0.58863115 -0.6758043 0.08481686 0.3241136
000040 d5 73 22 3f 70 a4 08 be a6 2c ca bd 45 f0 aa bd
       0.63457996 -0.13343978 -0.09871797 -0.08346609
000050 61 1b 20 bf 2f c3 ab 3f d5 04 7d 3f 8f e2 1f bf
       -0.62541777 1.341894 0.988355 -0.62455076
000060 9b 25 82 bd 8f 9d 2d bd ad 6d ed 3d 9d bf 90 3e
       -0.06354829 -0.042386588 0.115931846 0.2827119
000070 a6 20 df be 5a 3d 22 3e 27 4b ed 3e 45 cc 31 bf
       -0.43579596 0.15843716 0.463464 -0.69452316
000080 bb a9 d4 bd 34 74 97 be c6 64 20 3e 28 54 9d 3e
       -0.10383936 -0.29580843 0.15663442 0.3072827
000090 76 f5 09 3f f2 2a 93 3f fd 00 c2 be 92 4b dc be
       0.5389017 1.1497481 -0.3789138 -0.43026406
0000a0 04 b2 12 3e a0 92 cc 3d 1b dd 7a be c0 df 71 be
       0.1432572 0.09988904 -0.24498408 -0.2362051
0000b0 52 0f 45 bf 03 9c ce 3d 9f c5 40 3f e3 bc 17 3f
       -0.769765 0.100883506 0.75301546 0.59272593
0000c0 d2 ec e5 3e 89 af 14 3e ae df 39 bf 15 a9 62 bf
       0.44907242 0.14520086 -0.72606933 -0.8853925
0000d0 59 d9 3f bf 68 5e 15 3d f4 97 ef 3e 7f a1 80 bd
       -0.7494102 0.036466986 0.4679562 -0.06280803
0000e0 71 a1 6c 3f 68 bd ba be 9f 59 cf 3e 55 b5 c3 3e
       0.9243384 -0.3647263 0.40498063 0.38224283
0000f0 df b1 75 bd 98 c6 68 3f 79 64 cd 3e 4f d8 45 bf
       -0.059984084 0.9092803 0.40115717 -0.77283186
000100 f9 f1 d8 bd 1f a2 38 be ee 1c e9 3d ed 3e 78 3e
       -0.105930276 -0.18030594 0.11382471 0.24242754
000110 ea 28 91 3e 58 e2 f7 3e 92 b6 3d be 6f c9 08 bf
       0.28351527 0.48414874 -0.18526676 -0.53432363
000120 18 f0 0a 3f 03 d4 2c 3e 3e a5 a8 be 6d 3f f4 be
       0.54272604 0.16877751 -0.3293857 -0.4770464
000130 5e f6 ee be 18 c3 c2 be fa 6e 0e 3f 67 26 22 3f
       -0.46672338 -0.3803947 0.55638087 0.6333985
000140 39 1f fe be e7 92 41 bd 5a d0 f6 3d cf 97 03 3e
       -0.49633196 -0.047259238 0.12051459 0.12850879
000150 59 f3 e9 be d1 4d ae bd 11 46 ac 3e 0c ac 1e bd
       -0.45693472 -0.08510936 0.33647206 -0.038738295
000160 d1 5c 88 be 87 44 ed be 3b 26 a6 3e f2 6f 28 3f
       -0.26633313 -0.46341345 0.32451043 0.65795815
000170 a2 88 42 bb ad 85 b3 bb c8 f6 ba 3b 53 55 a1 3a
       -0.002968349 -0.005478582 0.005705688 0.0012308754
000180 05 7c d3 be 03 c4 a0 3e 56 71 8f 3e 92 f6 03 bf
       -0.41305557 0.31399545 0.28016156 -0.5154811
000190 c5 6c 1d 3e 1a 9c 56 bf d5 d1 18 be 13 4e 52 3d
       0.15373524 -0.8383194 -0.14923795 0.05134399
0001a0 a4 22 ed 3b d5 d9 d8 3b 80 00 15 3c d0 00 0a bd
       0.0072367955 0.0066177645 0.0090943575 -0.03369218
0001b0 83 87 5a 3f 6a b3 87 3e 84 10 b2 be 75 b4 aa be
       0.85363024 0.2650407 -0.34778225 -0.33340803
0001c0 76 6c 7e bd 60 e4 1f 3d 5d 29 72 be e4 38 49 3f
       -0.062115155 0.039036155 -0.23648591 0.78602433
0001d0 d0 53 bc 3c 07 22 ce 3c 95 c6 b2 bc a2 91 08 bd
       0.022989184 0.02516271 -0.021823207 -0.03334201
0001e0 2d 3e 3f 3f 92 4d 43 3f e4 8a e7 3d 12 bf 11 be
       0.7470425 0.7629024 0.11305788 -0.14233044
0001f0 e2 1f 54 be 6d 4a 1a bf 1f 8c ac 3e 1e a8 2c 3f
       -0.20715287 -0.60269815 0.33700654 0.67444026
000200 cc e3 89 bd d8 05 35 3f 3b 61 13 be 77 10 45 bf
       -0.06732902 0.7071204 -0.14392559 -0.7697825
000210 7b bf 0f 3f dd 08 66 3f 38 fd df 3e 15 06 00 3e
       0.5615155 0.89857274 0.43747878 0.1250232
000220 72 24 b5 be c3 d6 cd be 1a 0a dd 3e eb e9 e4 3e
       -0.35379368 -0.40202913 0.4317177 0.44709715
000230 cd 56 14 3e 2c c3 c9 3c 72 bb b7 be 92 41 77 be
       0.14486237 0.024629198 -0.35885197 -0.24146107
000240 cd 59 09 bc 7d b7 07 be a3 1a 1f 3e 42 65 6f 3e
       -0.008383227 -0.13253589 0.15537505 0.2337847
000250 ad 3d 61 3e db aa 17 3e 37 f5 80 bf 18 c9 0c bf
       0.21996184 0.1481127 -1.0074834 -0.54994345
000260 c6 fd 52 be 86 12 ad be 75 22 51 3e 3d 0f 17 3f
       -0.2060462 -0.33803195 0.204233 0.59007627
000270 ad e2 e3 bd 84 15 e7 3e de 33 89 be 67 3e 3d bf
       -0.11127219 0.45133603 -0.26797384 -0.73923343
000280 7f cf d4 3e 1e 80 d9 be 07 03 8c bf ab ee f8 be
       0.41564557 -0.42480558 -1.0938424 -0.4861959
000290 98 05 4d 3e d7 c9 8b 3d d6 56 41 3d df 42 dc bd
       0.20021665 0.06825607 0.047201954 -0.10754942
0002a0 c9 24 e6 bc 16 22 53 bd 55 65 a1 be ca 46 a4 3d
       -0.028093712 -0.05154618 -0.31522623 0.080213144
0002b0 04 58 ce be 61 08 55 bf 3d b2 c2 bd f9 44 c7 3e
       -0.40301526 -0.8321591 -0.095066525 0.3891981
0002c0 a1 7d da bd 2c 09 45 3e ae e4 f3 3e 43 1f 4e be
       -0.10668493 0.1924178 0.47635406 -0.20129113
0002d0 00 66 87 3d 17 0d 4e bd 5f 64 98 be b0 14 ba 3f
       0.06611252 -0.050305452 -0.29764077 1.4537563
0002e0 33 75 2a 3e 58 ae 22 3f 74 2b 01 be 74 27 46 bf
       0.1664627 0.6354728 -0.12614232 -0.7740395
0002f0 01 23 6d bc 96 0a d0 bd 22 67 f4 be fd 46 dd 3d
       -0.014473678 -0.10158269 -0.47734934 0.108045556
000300 3f e7 ef bc 62 11 17 3e e1 c9 b1 be 01 78 e3 be
       -0.029285071 0.14752725 -0.34724334 -0.44427493
000310 50 78 ca be 7a 0e 95 bd 70 c8 2b bf 27 cd f2 be
       -0.39544916 -0.07278152 -0.6710272 -0.47422144
000320 3d f7 82 be ec 44 14 3e 71 7c 80 3e 95 e1 4d be
       -0.25579253 0.14479417 0.2509494 -0.20105584
000330 4f 45 7a 3b d2 42 1a 3b 18 7a 99 bb 63 f7 ba 3b
       0.0038188284 0.0023538363 -0.004683744 0.0057057603
000340 df f0 a8 3b 06 b0 06 be c9 9c 45 3e b5 b8 d4 3e
       0.005155667 -0.13153085 0.1929809 0.4154717
000350 6b 70 a0 3e 43 a3 07 3d b0 34 5e bf 1a 43 2d be
       0.31335768 0.033114683 -0.86799145 -0.16920128
000360 0e 65 41 3d 2d 01 19 be 4c 79 13 3e af 19 74 be
       0.047215514 -0.14941855 0.1440174 -0.23837923
000370 70 ab 10 be 8d 05 f1 be 56 18 f6 3e fc be ef 3e
       -0.14127898 -0.47074547 0.48065442 0.46825397
000380 7c e4 17 bc f4 27 a0 be de 8b 2a bf 77 58 5a 3e
       -0.0092707835 -0.31280482 -0.6661967 0.21322809
000390 17 3d a8 be 26 7c 76 bd 9a fa 98 3e 6b 33 77 bd
       -0.32859108 -0.06017699 0.29878694 -0.06035177
0003a0 4c 57 7d bd a5 52 dd 3e 41 0b ed 3d 61 44 ef be
       -0.06185083 0.43227115 0.11574412 -0.46731856
0003b0 52 0d 3a 3f aa 76 cc bd 8f f2 b5 be bf 11 1f bf
       0.72676575 -0.09983571 -0.3553662 -0.62136453
0003c0 0f 6f f7 3d b9 74 b5 3e fd fb 02 be db e0 d5 be
       0.120817296 0.35440615 -0.12791438 -0.41773114
0003d0 ee 10 22 bf dc cf 4c be d2 a3 34 3f 16 96 b4 3f
       -0.6330708 -0.20001167 0.7056247 1.4108303
0003e0 ca 15 d6 be a3 19 35 3d 9c 24 e3 3e 85 1c 46 be
       -0.418135 0.044213902 0.44363868 -0.19346817
0003f0 bf 82 76 3e 3e e1 91 be 9d 87 8b be 98 fd c1 bd
       0.24073313 -0.2849216 -0.27251902 -0.09472197

network_body.linear_encoder.seq_layers.2.bias f4 [128]
000000 12 7f 42 be fa d1 32 3d b5 2c e2 bc e5 3c fa be
       -0.18993786 0.04365728 -0.027609209 -0.48874584
000010 90 fe dc bc 6f 18 0a bd c4 43 7a 3d c8 ec 2f bb
       -0.026976854 -0.033714708 0.061099783 -0.0026844013
000020 e2 8a a6 be 38 26 c2 be 20 62 0d bc ff 34 03 bf
       -0.32527834 -0.37919784 -0.008629352 -0.5125274
000030 ae 81 7d 3b 0f 86 2a bd 9d 3d 27 3e 0d 88 09 bd
       0.0038682031 -0.041631754 0.16332097 -0.033577014
000040 b4 e4 a6 bd d5 c3 78 be 13 8c 98 bd 2a 7b 46 3d
       -0.081490904 -0.24293454 -0.07448592 0.048457302
000050 8a 86 bb 3b b1 be b5 be 4a b6 1e bd ec d3 04 bf
       0.0057228254 -0.35497048 -0.038748063 -0.5188587
000060 67 4a ea be e9 8b d1 bb cd 8d eb bc 86 12 a9 bd
       -0.4575989 -0.0063948524 -0.02875414 -0.08255486
000070 8d 00 90 bd 5b a5 af be 1b fe c2 bd 7e 11 12 bf
       -0.07031355 -0.34305844 -0.09521123 -0.5705794
000080 8b 00 50 bd 1d 4a 3e be 26 07 8e bd ad be 2e bd
       -0.050781768 -0.1858296 -0.06934957 -0.04266231
000090 2d f2 d2 bd 22 57 7e bd d2 24 d6 bb e8 3a a1 3d
       -0.103000976 -0.062094815 -0.006535151 0.078725636
0000a0 0b e5 6f bd 8a a4 ba be fd b1 88 3e e7 0e c7 bc
       -0.05856804 -0.36453658 0.26698294 -0.024299098
0000b0 32 18 ad bb 0f 4e 72 bc 16 5e f0 3d 1d 98 0b bf
       -0.0052824253 -0.014789118 0.117366955 -0.5452898
0000c0 cc ea 5b bd e0 f3 d2 3c db bd 86 3b 09 5a 41 be
       -0.053690717 0.025751054 0.004111988 -0.18882002
0000d0 87 57 15 3d d6 8a 94 bd 36 83 b4 3c 45 62 11 bb
       0.036460426 -0.07253043 0.022035223 -0.0022183817
0000e0 73 d7 5f be 58 ac 55 be 96 73 9e bd bc 3b af bb
       -0.21859531 -0.20866525 -0.0773689 -0.005347697
0000f0 7e 01 05 3e fc ae f2 bc fc 9f 97 3c 2b ff fd be
       0.1298885 -0.029624455 0.018508904 -0.4960874
000100 be be 23 3d e0 13 c4 be 67 59 4f bd 21 13 09 bf
       0.039976828 -0.38296413 -0.05062237 -0.53544813
000110 68 05 c1 bd d6 5a 00 3c f7 11 ff bd cc 8a a6 bd
       -0.09424859 0.007834157 -0.124545984 -0.08131942
000120 39 7b 4e be bd c4 cb bd 68 65 04 bd fa ce e1 bd
       -0.20164193 -0.09949634 -0.03232327 -0.11025806
000130 a9 b2 9e bc 40 59 67 bd 28 bf 0a 3c 0f fb f2 be
       -0.019372301 -0.0564816 0.008468427 -0.47457168
000140 3e 85 71 be 5f 20 6c be 47 cc 6d 3d 7c 65 93 bc
       -0.23585984 -0.23059224 0.058056142 -0.017992727
000150 b0 e0 2d 3d eb 46 eb bc a8 d9 2a bd fc f9 38 bd
       0.042450607 -0.02872034 -0.04171148 -0.04516028
000160 6b 35 f8 be 01 42 e4 bb ec b6 7b bc 2b eb 3d bd
       -0.48478255 -0.006965876 -0.015363436 -0.04636685
000170 87 b8 d3 be 2c 57 c3 be 2b e9 19 3d c1 7e b8 bd
       -0.4135172 -0.38152444 0.037575882 -0.090085514
000180 62 a3 aa be 4d 20 04 bf f5 16 77 3d 69 bf 2c bc
       -0.33327776 -0.5161179 0.060324628 -0.010543683
000190 52 b8 0f 3e c4 40 88 be 29 f9 ad be 33 2c 37 bc
       0.14035156 -0.26611912 -0.33979157 -0.0111799715
0001a0 e7 ac 5d 3d 06 65 3f bd b0 30 bb 3c d2 33 91 be
       0.05411997 -0.046727203 0.022850364 -0.28359848
0001b0 b9 58 9a be 94 f0 df be 58 6e 84 bd 0a f4 86 bd
       -0.30145815 -0.43738234 -0.06466359 -0.065895155
0001c0 96 80 55 bd ec e0 81 3c 12 9d 84 bd 50 d8 ec bb
       -0.052124582 0.015854321 -0.06475271 -0.007227935
0001d0 9d 2b 5e bb ee f2 8a bd 62 b5 d2 bd 14 7a 0a bf
       -0.0033900507 -0.067846164 -0.10288502 -0.54092526
0001e0 b3 58 06 be db 82 74 3a 7e 49 d3 3d 67 c7 f5 3c
       -0.13119774 0.00093273603 0.10316752 0.030002309
0001f0 de b3 a7 ba 2a 20 e2 bc 81 f9 17 bd 81 bb ae 3c
       -0.0012794693 -0.027603228 -0.03710318 0.021329643

network_body.linear_encoder.seq_layers.2.weight f4 [128, 128]
000000 ac 92 00 be 0e ba f4 be 96 30 4c be a3 24 47 be
       -0.12555951 -0.47798198 -0.19940409 -0.1944757
000010 20 e7 80 bd 13 14 1c be 54 22 14 be 6b 95 88 bd
       -0.062940836 -0.15242033 -0.1446622 -0.06669124
000020 a5 6e 0c be 1c 2e 99 3b 07 00 bb bd a9 72 ad be
       -0.13714083 0.004674686 -0.091308646 -0.3387654
000030 de 2f 00 bd 57 1a 00 be 04 a5 89 bc 35 ea 13 3e
       -0.03129565 -0.12510048 -0.016802318 0.14444812
000040 f3 91 1c bd 01 76 33 3e da 4f 72 bc 46 f2 9c be
       -0.038225126 0.17525484 -0.014789546 -0.3065359
000050 19 e7 2c bd cb ab 87 bc 96 38 a7 be f2 36 39 3d
       -0.04221258 -0.01656141 -0.3266036 0.045218416
000060 3b 51 df bc 66 cd a8 be 3d 19 39 3e d4 e6 88 bd
       -0.027260413 -0.32969207 0.18076034 -0.06684652
000070 bd fe 33 be 39 62 c0 3d 9d f7 fb bd e3 99 eb bd
       -0.17577644 0.093937345 -0.12303088 -0.11503961
000080 18 ed 02 bd 28 46 87 be 6a 5f 99 bd f3 b5 57 be
       -0.03196439 -0.26420712 -0.07488902 -0.21065502
000090 23 b5 8a bd 30 5a e3 bd f2 1a 79 be 97 b6 87 bd
       -0.0677283 -0.11101186 -0.24326685 -0.06626623
0000a0 dc 6c da be a3 34 02 3e 6e f5 2f bc 92 2b 00 be
       -0.42661178 0.12715392 -0.010739667 -0.12516621
0000b0 b9 e5 27 3e 7c ba 2e bf 8a df b7 3e 6a e3 a9 bd
       0.16396226 -0.682533 0.35912734 -0.08295329
0000c0 68 f4 6e be 31 b1 58 bd 45 5a 81 bd a5 29 aa bd
       -0.23335421 -0.052903358 -0.06316046 -0.08308724
0000d0 64 06 b4 bd 80 bb ad be 32 ff ca bd 1a 88 bc bd
       -0.087902814 -0.33932114 -0.09911956 -0.09205647
0000e0 14 9c b6 be a5 62 db bd 54 96 8f bd 8a 1c 90 bd
       -0.35665953 -0.10712174 -0.07011095 -0.070366934
0000f0 8d 30 aa 3d 55 3d 25 bf 25 9c 60 bc 70 3a de bd
       0.083100416 -0.6454671 -0.013709103 -0.1085099
000100 e8 ea 0b 3d 74 90 d8 bd 52 19 76 be e3 9e c7 bc
       0.03415957 -0.10574427 -0.24033096 -0.024367755
000110 e2 86 e9 bd ba 20 42 3e 5c 46 35 be 0d 2a 00 be
       -0.1140268 0.18957797 -0.17702621 -0.12516041
000120 75 06 04 be f2 0d 91 bc 55 e2 5c bd 6a 4b 1e be
       -0.12893088 -0.017706845 -0.053926785 -0.15458456
000130 9f 89 6c 3d 8f 8d 3e bd c5 3f e5 bd eb 4a 25 be
       0.057748433 -0.04652172 -0.11193804 -0.1614186
000140 ff 5d 01 be 7f 3f 07 3c 57 f4 ac bc 5e 84 8b be
       -0.12633513 0.008254885 -0.021112604 -0.27249426
000150 bf a9 d6 3d dc c2 28 be 44 26 7d bd bf 2b 1e be
       0.10481595 -0.16480583 -0.06180407 -0.15446375
000160 bb c0 bd bd 77 d8 2d 3e 9a b5 15 bf b6 7a 9c be
       -0.09265276 0.16977106 -0.58480227 -0.3056237
000170 d8 d0 96 be fb 18 1b be ed 08 03 be eb f8 ba bd
       -0.2945621 -0.15146248 -0.12796374 -0.091295086
000180 56 64 90 be c4 4d 9f be ab f0 a7 3e d5 2a 02 3e
       -0.2820155 -0.31114018 0.32800803 0.12711652
000190 25 95 bd be 7b c4 35 be 5d fd 80 be 94 ba d6 be
       -0.3702785 -0.17750733 -0.251933 -0.41939223
0001a0 17 d8 92 3d c3 1c df bd 67 08 03 bd a1 d2 68 bd
       0.07170122 -0.10894158 -0.031990435 -0.056841496
0001b0 9a 7e aa 3c 56 ed a1 be ef 57 c9 bd 19 6f ce bd
       0.020812321 -0.31626385 -0.09831225 -0.10079784
0001c0 92 48 df bd 75 bf 7d bd 10 f9 7d ba b4 83 22 3e
       -0.109025136 -0.061950166 -0.0009688297 0.15870553
0001d0 cb b3 30 be a6 12 9e 3d 00 ba e8 3a 72 9f 85 be
       -0.17256086 0.07718401 0.0017755628 -0.2609821
0001e0 ab d0 1c 3d 83 5d 09 3c 99 2e fd bc 7a cd 4e bd
       0.03828494 0.008384111 -0.030906009 -0.050488926
0001f0 cd 95 c8 bd 4a 82 9d be 60 2e 7e be db 70 7e be
       -0.09794197 -0.30763465 -0.24822378 -0.24847738
000200 07 d2 27 bd fe 3d b2 bd ea 57 bc bc 64 53 19 3d
       -0.040971782 -0.0870323 -0.02299114 0.037433043
000210 56 18 e9 3c 31 a8 e5 bd e9 79 42 3d 10 82 c7 3d
       0.028453987 -0.112137206 0.047479544 0.09741604
000220 92 99 53 be 01 4e eb bd 52 86 09 be 5e cd 5c bd
       -0.20664051 -0.114894874 -0.13430145 -0.05390679
000230 4b f6 2d 3c 84 70 a4 3c 4f 9e 52 ba e4 5b 2a bd
       0.010617803 0.020073183 -0.0008034454 -0.04159154
000240 c3 21 45 3e 11 df 41 bd 17 53 94 3d ec 37 f5 bd
       0.1925116 -0.047331873 0.07242411 -0.11973557
000250 65 92 99 bc 80 e1 f6 3c 81 61 09 3d 1b 6d 69 bc
       -0.018746564 0.030136824 0.033540253 -0.014247204
000260 1d 6a d4 3d a5 94 32 3e 58 08 23 be b6 43 e1 bd
       0.10371802 0.17439516 -0.15921152 -0.10999243
000270 b8 24 14 3e af b2 01 3e 03 4b 07 3e 5d f2 88 bc
       0.14467132 0.12665819 0.13212208 -0.01671713
000280 ce fe a3 bc 6d 66 9d 3c 27 83 db 3d 9e 98 4a be
       -0.020018961 0.01921388 0.10718375 -0.19784781
000290 d8 5c e1 bc fc fe ef bd cd c6 9b 3c aa 5e 3d bc
       -0.027510092 -0.11718556 0.019015694 -0.011558214
0002a0 b3 6b 1b bd 33 cf 79 bd 2f ba 02 bb 95 98 09 be
       -0.037944507 -0.060988616 -0.00199474 -0.13437112
0002b0 4d 2c d2 bd 09 8a 09 bc 62 c5 61 bc 11 d7 ca bd
       -0.10262356 -0.008394727 -0.01377997 -0.09904302
0002c0 1b ad 51 3d 67 47 ad bc 8f 9d b1 3d 7e a7 7f 3c
       0.051190477 -0.021152211 0.0867263 0.015603898
0002d0 a8 8a 56 3e 30 61 82 3d 72 ef 97 bc fe 88 b0 3c
       0.2095133 0.06366193 -0.018546794 0.021549698
0002e0 ec 9c be bb ec 6c 54 3e 28 58 8e 3c d8 24 1b be
       -0.0058170464 0.20744675 0.01737602 -0.15150774
0002f0 fe 6d 32 bc 91 94 f3 3c d3 e0 3e be 74 69 6b bd
       -0.010890482 0.029733928 -0.18640451 -0.057473615
000300 21 9c 7b bd 96 62 c2 bc c7 d9 a5 39 f4 b4 91 3d
       -0.061428193 -0.02372865 0.0003163351 0.07114592
000310 5b 36 0c 3e 17 90 dd bd 50 91 72 bc d2 66 9b 3c
       0.1369261 -0.108184986 -0.014805153 0.018969927
000320 d2 8d bc 3b 49 6a a3 bd 0c b2 aa 3d 5c 3a 10 3d
       0.005754211 -0.07979257 0.08334741 0.035211906
000330 ee e7 8b 3d 19 8b 30 3b 2c a2 1d 3d eb 36 42 bd
       0.068313465 0.0026938377 0.038484737 -0.047415655
000340 a2 f2 75 3c a4 a2 1e be 64 d9 28 bd af 9e bd bd
       0.015011461 -0.1549173 -0.041222945 -0.09258782
000350 d4 41 3d 3d 45 fe a0 3d 69 13 35 3d 9e e3 04 bd
       0.046205357 0.07860998 0.044207964 -0.032443635
000360 b5 42 9e bd ab 96 81 bd f5 73 e5 3d 75 1e 2f bd
       -0.07727567 -0.06327566 0.11203758 -0.042753655
000370 b6 d5 ab 3d 8d 5b 89 3c 85 e5 bb 3a 7e 8c 94 3d
       0.083903715 0.016767288 0.001433537 0.07253359
000380 24 64 1a bd f7 3e c0 3c f6 7e 45 3e d3 98 9b 3c
       -0.037693158 0.023467524 0.19286713 0.01899377
000390 39 81 b4 bd ef 03 10 bd a9 b4 e0 3d ad 89 ef bc
       -0.0881371 -0.03516 0.10971958 -0.029240454
0003a0 3e f5 22 3c 3a 2b 1a 3b d1 2b 00 3d fa 4b fc 3d
       0.009946166 0.00235243 0.031291787 0.12319179
0003b0 22 66 be bc bd bc a0 3d f1 03 6f bd 84 40 b6 bd
       -0.02324206 0.07848499 -0.05835337 -0.08899024
0003c0 8e f3 df 3c ee be d1 3c d1 46 89 39 9b bb 45 3d
       0.027337816 0.025603738 0.0002618344 0.048274618
0003d0 c6 79 b1 bd 76 cc 04 3e ee 53 4b bc ba 16 ad 3d
       -0.086658046 0.1296862 -0.012410147 0.084516004
0003e0 fd 90 58 bd 34 97 07 be 8a 93 24 be 35 e6 2d 3d
       -0.052872647 -0.13241273 -0.16071907 0.04245587
0003f0 bb f8 5b bd 33 7b 2e bd 72 af 00 bd 59 1f 17 3d
       -0.053704005 -0.04259796 -0.031417318 0.03689513

network_body.vector_processors.0.normalizer.running_mean f4 [4]
000000 43 6b 48 40 40 32 b8 3c 82 10 15 c0 78 01 91 3f
       3.1315467 0.022484899 -2.3291326 1.1328573
