ml-agents-master/ml-agents/config/results/ppo/LineCreator/LineCreator-19257.pt (torch, 434231 bytes, 40 tensors)

network_body.vector_processors.0.normalizer.running_mean f4 [4]
00000000: eade 1e41 a344 5140 8486 44c1 cf14 ad40
9.929422 3.2698143 -12.282841 5.40879

network_body.vector_processors.0.normalizer.running_variance f4 [4]
00000000: 4733 c742 b813 3b41 549f ba46 76b1 2547
99.60015 11.692314 23887.664 42417.46

network_body.linear_encoder.seq_layers.0.weight f4 [128, 4]
00000000: c731 94be c996 ba3d 0f91 043f f194 85bf
00000010: d29b 41be 3e46 fcbd 82a2 53bf cdce aebe
00000020: f085 14be 188f b0bc c1f6 b73e c87d e83e
00000030: 985f 2c3f a508 483e b6e3 bc3e f560 22bf
00000040: 2639 0f3f 2806 b9be 138f 3abf d049 183e
00000050: db2a 103f 64a4 5f3f 3fe8 abbe 4c80 50bd
00000060: 49c4 4fbb fd3b 0dbf 0c21 7abd 39e7 2abe
00000070: 268b a9be 2c39 a5be c5b8 c23e 3b3d 6bbf
00000080: 33fc b9be 97f8 213f 0644 2e3d 5902 1abe
00000090: 78d8 c6be 0d5d 8f3e 096e 0dbf d2cb 3ebd
000000a0: c2cb 303f 81d7 143e 916e 783e fa1e a73d
000000b0: dfb8 773e 8d4b fcbd a314 d1bc 673c fd3e
000000c0: da73 4abf 1e97 d5be a23c 023f 1ee8 de3e
000000d0: 4a2c 883f fea9 86bf 8ffa b63d 7200 b3be
000000e0: 1548 92bd 8bd4 6bbd ae9d 27be c854 ae3e
000000f0: a589 53be 5d65 1f3f 5933 0f3e 24ec d9bd
00000100: 793e 3ebf ab7b 1d3c d610 263f 7af3 623f
00000110: ff20 05bf 5265 bbbd cdd7 2cbe 2b21 7abe
00000120: 36da 5a3e 297a ccbd a045 883f 95a3 973e
00000130: 1495 d6be e2a6 de3b 4036 9d3e 0259 16bd
00000140: c0da a9be 7fb7 cf3a 3911 5c3f 4abc c3be
00000150: bc3c 1d3f fc5d 11bf 9591 d13e 1a8f 773e
00000160: 7b0f a63e d728 e4be f2b4 6e3d 3246 ec3e
00000170: bef5 a83e 371d 1fbf e60e 373f 206e 69be
00000180: adc4 ed3d 2a2e 5f3f dfa9 933e 2405 c9be
00000190: 2a6b 4d3e 34a9 1dbf 8641 bfbc ffa0 593f
000001a0: 0607 dabe b074 bcbe df6a a1be 0b32 1abe
000001b0: 42ad 9e3d 6391 f4be 9756 22bf 6df4 f1be
000001c0: 5cdb bcbe 378f 023f df06 a7bd 23ba 8a3c
000001d0: 13c8 6f3f fa07 febd ac30 12bf f3aa 47bd
000001e0: e612 d9be afca 9a3e 82e7 6f3e 60ec 9dbe
000001f0: 312b aabe b04d 8d3e ba69 7d3e 829f ce3e
00000200: a5cc b2bf 8faf c53d bcb9 2dbf 1fca ec3d
00000210: e97f bf3e d43f 14bf bcb8 52bf 983f 1d3d
00000220: 5043 9a3e 9198 50bd 65c8 023f 463a 81be
00000230: cc6d 123e 755a a6bd 52da 1bbf 05d1 143f
00000240: 234f c3be a926 413e be89 8ebd a980 4fbe
00000250: 3860 91be 25f4 493e da6d c13e f670 133f
00000260: 4279 82bf 37e9 97be 88ae 25bd 1070 17bf
00000270: 77be 283f 19c9 6f3e 8e4f 74bd e6ce b03d
00000280: 8a0d d2be 6555 25be 9a1c 75be 4212 0b3f
00000290: c780 7bbe bea0 e8be 6b5f 393f 8869 9e3d
000002a0: 5593 07be 2956 943c 1e15 5b3e 4373 063e
000002b0: 57ec 1bbf 09c9 983e ae45 c9bd 371f 9e3d
000002c0: 1a37 41bf 2440 0b3d 8807 f2be bdc2 b8be
000002d0: 0d8f cbbe 2f98 cb3e 22bf 8abd 9330 89bc
000002e0: 610e b23e 4d1d 82be c728 693e ce0f 79be
000002f0: 0172 563d 03f5 9ebe f79d 833f 03a3 d9be
00000300: 5c7f dc3e 434b 84bf d665 02bf 9dd9 fd3e
00000310: ec00 82be 1d84 2fbd 1325 16bf bdfa 08bf
00000320: 237d 3fbf 76da a1be 7adf 763e 6d06 27bf
00000330: 070b 32bf ba7d e4be 6149 543e 3843 e63d
00000340: 7029 043f a2f8 05bf b6ab e4be b96e 22bf
00000350: 5f6a 47be 0225 0cbf e639 d0bd 9bcb 013f
00000360: 980d fe3d 8f09 b2bc daa8 1c3f 7991 61bd
00000370: 5894 8c3f 626c 95be b9ca a7be 1c76 643f
00000380: 83c3 d9be 2a7b bb3d f64b da3d 943b dfbe
00000390: 3276 80bd 204b d6be d986 253d 5f73 22bf
000003a0: 4c2f 823c 0739 a3be 4464 06be a195 18bf
000003b0: 79ee 94bf 5606 2cbf ac52 253e 4fc2 af3d
000003c0: a064 783f 90e0 99bf 2ea4 79be fae2 8ebe
000003d0: 0247 8e3c 93c1 1cbf 664d 153e 3cef 253f
000003e0: 48c4 c73e c47b 3d3f 4006 52be 9280 25bd
000003f0: 1132 333e 4a39 bf3c 2435 623e 05b8 6cbe
-0.28944227 0.09110791 0.5178384 -1.0436078 -0.18907097 -0.12318085 -0.8266984 -0.3414215
-0.14504218 -0.021552607 0.35930446 0.45408463 0.67333364 0.19534548 0.3689248 -0.63429195
0.55946577 -0.3613751 -0.72874564 0.14871907 0.5631539 0.87360215 -0.33575627 -0.050903603
-0.0031702688 -0.5516966 -0.061066672 -0.16689767 -0.33113974 -0.3227018 0.38031593 -0.91890305
-0.36325225 0.63269943 0.04254534 -0.15039958 -0.38837028 0.2800068 -0.55246025 -0.046581097
0.6906091 0.14535333 0.24260928 0.08160205 0.24191616 -0.12319098 -0.025522536 0.49460146
-0.79083025 -0.41716856 0.5087377 0.43536466 1.0638516 -1.0520627 0.08934509 -0.34961277
-0.07142655 -0.057575744 -0.16368744 0.34049058 -0.20657976 0.62264043 0.13984431 -0.106407434
-0.74314076 0.009612004 0.6486944 0.88652766 -0.52003473 -0.09150185 -0.16879196 -0.24426715
0.21372303 -0.09984238 1.0646248 0.2961699 -0.41910613 0.0067947963 0.30705452 -0.03670598
-0.33174706 0.0015847533 0.8596378 -0.3822959 0.614208 -0.56784034 0.40931383 0.24175683
0.32433686 -0.44562408 0.05827803 0.46147305 0.32999986 -0.62153953 0.7150711 -0.22795916
0.116097786 0.87179816 0.2884054 -0.39261734 0.20060411 -0.6158631 -0.023346674 0.85011286
-0.42583483 -0.36807775 -0.3152685 -0.15058152 0.0774789 -0.4776717 -0.63413376 -0.47256795
-0.36886108 0.5099978 -0.081556074 0.01693446 0.93664664 -0.12403865 -0.5710552 -0.048747014
-0.4239723 0.3023276 0.23428157 -0.30844402 -0.33236077 0.27598333 0.24747363 0.4035607
-1.3968703 0.09652626 -0.67861533 0.11561989 0.37402275 -0.57909894 -0.8231313 0.038390726
0.3012948 -0.05092675 0.5108703 -0.25239772 0.14299697 -0.08122722 -0.60880005 0.5813144
-0.38146314 0.18862404 -0.06959866 -0.20263924 -0.28393722 0.1972204 0.37779123 0.5759424
-1.0193255 -0.29670116 -0.04044965 -0.5915537 0.65915626 0.23416556 -0.05964618 0.08633213
-0.41025954 -0.16145857 -0.23936692 0.54324734 -0.24560843 -0.45435137 0.7241122 0.07734972
-0.13239796 0.01810749 0.21394774 0.13129906 -0.609075 0.29840878 -0.098277435 0.077207975
-0.75474703 0.033996716 -0.4727137 -0.36086074 -0.39757577 0.39764544 -0.06774737 -0.016746795
0.34776595 -0.2541298 0.22769462 -0.24322435 0.052354816 -0.31046304 1.0282582 -0.4250718
0.43065917 -1.0335468 -0.5093664 0.49580088 -0.25391328 -0.042850602 -0.5865032 -0.53507596
-0.7480032 -0.31611985 0.24108687 -0.6524418 -0.69548076 -0.44627172 0.20731117 0.1124329
0.5162573 -0.5233251 -0.44662255 -0.634502 -0.19474171 -0.5474397 -0.10167293 0.507013
0.124049366 -0.021733074 0.6119515 -0.055070374 1.0982771 -0.29184252 -0.32771853 0.8924272
-0.42531976 0.09154351 0.1065902 -0.43600142 -0.06272544 -0.4185419 0.040411804 -0.6345729
0.015891694 -0.31879446 -0.13124186 -0.59603316 -1.1635276 -0.6719717 0.16144818 0.08581983
0.9702854 -1.2021656 -0.24379036 -0.27907544 0.017367844 -0.6123287 0.14580306 0.6481817
0.39016938 0.74016976 -0.20510197 -0.040405817 0.17499568 0.023342747 0.22090584 -0.23117073

network_body.linear_encoder.seq_layers.0.bias f4 [128]
00000000: 73ba 98bd 6269 763d 00ce 193c 1fcf 7dbd
00000010: 5fe2 4b3d dac5 903d 286a 13bd 4fc2 95bc
00000020: 0bc4 cebc 81b9 f0bb eb13 d2bc 7e1c f83b
00000030: ab1d 8e3d 799b 9fbd e7a4 9e3d d436 3c3d
00000040: 25f8 763c fa6c 9ebd 5773 213d e5f9 2a3d
00000050: 153a d9bc 4ade 933c 274a 8f3d 9992 a9bc
00000060: b433 9cbc 107c 7f3d 9c09 61bd 7eb6 823c
00000070: 909f bf3d 28cc 3d3d 5270 093d 8e7e 9abd
00000080: 8518 263d 6615 24bd 81e7 943c f0bf 673d
00000090: 5f53 32bb 6bda c03b 1a51 c8bd 39f0 b53d
000000a0: bc1d 32bd e695 11bd ff0c a0bd f727 a33d
000000b0: c440 8a3d 2fe4 993d 0886 20bd 0507 99bd
000000c0: d2a3 923d 1be1 40bd c543 49bd 0696 bc3d
000000d0: ef90 5ebd e37a 1c3d b15e c3bc c464 ae3c
000000e0: a071 93bd eef1 35bd b395 babd acc0 76bc
000000f0: 6067 a7bd 1398 e53c 74b4 2a3d 8b4b dcbc
00000100: c581 07bc 6c81 82bd 2426 9bbc 3e10 81bd
00000110: 22df 823d f8f0 a9bc 5939 1a3c 4ad5 c0bd
00000120: cb6a a7bc 0781 eb3c 6242 483d c172 53bd
00000130: 4643 b1bd 6ba9 863d 1ebc 883d 15c3 b4bd
00000140: 0dbe c03c 1468 acbc 7b83 9c3d 8209 8a3d
00000150: bbff 92bc 6b77 ad3d 0d97 9dbd 37f6 12bc
00000160: e7c9 663d f657 5bbd 31fe 24bd 5c04 6e3d
00000170: 1a0a ae3b cb5e 95bc 7909 2bbd 6c07 c7bd
00000180: d52a 95bd 3960 a53c 5fb3 31bd 4946 8d3d
00000190: b954 813d b40c 59bd 74ab 3a3c 5516 bdbd
000001a0: 7310 4dbd b7e3 b7bd 3c25 453d 5edc 7a3d
000001b0: beec 74bd 9617 2c3c 8d9d ecbc 412c cdbc
000001c0: e8ec 633d 742a 5f39 742e c9bc c91e 783c
000001d0: 7109 17bd 1db1 bbbd 1d83 1cbd f191 08bd
000001e0: 183d 283d 96b0 b73d f7e1 383d 9a8a 823d
000001f0: bedc dabc 6aef 1c3b b55d 393d c54c 803d
-0.07457437 0.060159095 0.009387493 -0.061965104 0.04977643 0.07068987 -0.03598991 -0.01828113
-0.025239965 -0.0073463325 -0.025644263 0.007571756 0.069392525 -0.07793326 0.077462964 0.045950726
0.015073811 -0.077356294 0.039416637 0.041742224 -0.026516953 0.018050332 0.06996565 -0.020699786
-0.019067623 0.062374175 -0.054940805 0.01595616 0.09356606 0.046337277 0.033554383 -0.0754367
0.040550727 -0.04005947 0.018176796 0.05657953 -0.0027210338 0.0058854125 -0.09781094 0.088837095
-0.04348539 -0.035543345 -0.07814979 0.07966607 0.06750634 0.07514226 -0.039190322 -0.07472042
0.071601525 -0.047089677 -0.049136896 0.09208302 -0.05433744 0.03820313 -0.023848863 0.021288283
-0.071994066 -0.044420175 -0.09110584 -0.015060585 -0.08174014 0.028026616 0.041676 -0.02689149
-0.008270686 -0.063723415 -0.018939085 -0.06301926 0.063902155 -0.020744786 0.009413087 -0.09415682
-0.020436665 0.028748048 0.048891433 -0.05162311 -0.086554095 0.06575283 0.066765055 -0.088262714
0.023528123 -0.021045722 0.076422654 0.06740095 -0.017944207 0.08470043 -0.07694826 -0.008969835
0.056344893 -0.053550683 -0.04028148 0.058109626 0.005311263 -0.018233677 -0.04175708 -0.097182125
-0.0728356 0.020187484 -0.043383952 0.068981715 0.06314988 -0.05299063 0.011393417 -0.09232775
-0.050064515 -0.0897898 0.048131213 0.061245315 -0.059796087 0.01050367 -0.02888372 -0.025045516
0.055645853 0.00021282752 -0.024558283 0.0151440585 -0.03687424 -0.09164641 -0.038210977 -0.033342306
0.04107389 0.08969228 0.045137372 0.063740924 -0.026716586 0.0023946413 0.04525538 0.062646426

network_body.linear_encoder.seq_layers.2.weight f4 [128, 128]
00000000: 9bba c2bd e523 183c 2e7e 453d 8d18 0d3e
00000010: 8d10 10be 8230 c23d 3333 f03c b721 8ebd
00000020: cd02 113d 8a62 d5bd 8916 433d afc6 babd
00000030: 4606 903a eb7f 983c 2def bcbb 5d06 62bc
00000040: d260 243e f210 efbd 6f25 26be 96ce 333b
00000050: 48e6 4d3c 2bc1 823a 2415 ddbd fab6 17be
00000060: c3f8 d7bd c5a6 493c ff2f 9d3c 4600 b2bc
00000070: c7c6 a93c f15c 14be 42f1 01bd 563b 423c
00000080: 05d3 7dbd b0df 0abd 92b2 01bd 4891 6b3e
00000090: 1f07 a2bd 49e8 7c3d c536 93bb 8468 ee3c
000000a0: 7a6f 28be 2427 8a3d 994b e63c 3e7d 88bd
000000b0: 5cd7 22bc bf5a 153e 04d1 12bc f9e5 003c
000000c0: 5cb4 493a f65b 603d b58a c5bd b850 d23c
000000d0: 8d77 913c ef42 f5bd a691 1abc 82b3 5f3e
000000e0: 8e02 553d edf8 f43d bf57 f6bc 92c3 893c
000000f0: 8bb8 e1bd bd2e 443e 98a9 a5bd b614 e9bc
00000100: 3b87 273d 7f8a 0abd bf48 ebba ebb9 7a3d
00000110: a165 e73d c689 f6bd b6ce 2bbe 9be6 cfbd
00000120: 1bba a63d 03a3 26bd ed28 91bd 6a6b 41bd
00000130: 1125 0b3d 0445 9f3c 23bd e3bd 3ecf ab3d
00000140: 05b2 e5bd ac65 1e3e 86d2 ff3d f0e2 5b3e
00000150: 44ee 40bd 1642 b43d 28a1 503d 1138 bbbd
00000160: 4e00 8c3c 3dba 05be 75a6 f33c 64ab f13d
00000170: 1913 02be fee8 a53d b448 883d 16ab 833e
00000180: 14c5 98bd b937 3bbe 0523 1abe 20c8 b53d
00000190: d657 8ebd 575e 5d3d d63b 0d3e f368 7fbd
000001a0: 476f ba3d f409 46bb bf1a 9dbd 1a1e 50be
000001b0: 0045 c33d 0479 d43b 3adc 6abd bf95 38be
000001c0: 4f43 e93d 0085 523e ddde 713d 1a1b 2dbe
000001d0: c717 e23c 5a20 f9bd 430c b6bc e11f a0bb
000001e0: 8320 ff3d e144 14be 5eb6 d1bc 0f75 1a3e
000001f0: a578 363d 015f 75be 825a dabc fe84 723e
00000200: 0523 193e 5736 b1bc 7245 80bd b442 6bbd
00000210: f3bb cc3d dcae 08bd e671 d1bb 4eb3 ba3d
00000220: a2c6 76bd b2ee 40be a468 c23d 30b6 033d
00000230: 6f45 35bd 1f6a 8abd 13c4 8b3c d5f8 e9bd
00000240: 8ed3 b63d 0113 ee3a 2c03 fabb 3603 653d
00000250: 18c0 963d 135f 793d b011 93bd a984 10bd
00000260: d1a8 34be b6e3 64bd 6604 89bd 5cf8 e1bc
00000270: 2452 58bc 6671 943c fe34 5d3d 7a99 14bd
00000280: 5222 44bd 56ed 0d3d 72c4 a4bb f27c 0cbd
00000290: 025f 33be 77e7 2abd 9d1c ecbd b084 4f3e
000002a0: 2a2c 02bd 0e81 ae3d 2c2a 08bd 0238 0bbc
000002b0: 4cc7 d73d 2ff0 813d 9d21 4cbe 44f5 47be
000002c0: 5b4d c93d 1fd4 8ebd d8ad bebd 8076 673c
000002d0: b3ff d6bc 04ad 31be 2e9d d43d 2833 e8bd
000002e0: 9696 e03c 446e fd3c 7878 0e3d deaf 2b3c
000002f0: 06f0 083e 837d ba3d a94d c2bd 2596 0fbd
00000300: 8950 9cbd 2f36 07be 5a34 0a3d 5307 d6bd
00000310: ec7c cdbc de0d fe3b 87eb cabb 9f21 bfbd
00000320: 62c9 323e 020f 3a39 e451 34bd f970 67bd
00000330: c8df 763d 96e1 283d 96d4 923d af60 93bd
00000340: c4fe 3a3d 3a90 023d df2a 7cbc eee9 ca3c
00000350: 8122 eeba 3ef9 8bbc 0211 b9bd 6225 19be
00000360: 8cd5 1e3e b60d d13d 4bc3 103d c0c5 bfbd
00000370: e035 583c 05c8 0f3e 255d 2fbc df75 603e
00000380: 5d48 54bd 1214 cbbb d717 4ebd 1b44 f9bd
00000390: 341b abbd f27a c8bd 7adc 523d 1444 b0bb
000003a0: de90 84bd 36eb 913d 4a77 613d 8b7d a43b
000003b0: efa3 76bc 447d e83d 5d97 363e 6e46 e9bc
000003c0: 2f9d 05be 2bf7 0d3e 5231 c6bc fbe1 9ebd
000003d0: b122 a23d 5631 713d 17ce 74bd 2b13 ed3d
000003e0: ed83 e23d d1fa 833d 9ed4 0abe ea57 ca3d
000003f0: 4f0a d2bc f8dc a13d 9835 933c 392f bf3d
-0.095082484 0.009285902 0.048216037 0.13778897 -0.14068814 0.094819084 0.029321289 -0.06940024
0.03540306 -0.104191855 0.047628913 -0.09119927 0.0010988198 0.018615684 -0.0057658167 -0.013795462
0.16052559 -0.11673154 -0.16225217 0.0027436367 0.01256711 0.0009975781 -0.10795048 -0.14815894
-0.105454944 0.012307827 0.019187925 -0.021728646 0.020724667 -0.1448858 -0.031724222 0.011854967
-0.061968822 -0.03390473 -0.03166444 0.23004639 -0.079115145 0.061744962 -0.004492613 0.029102571
-0.16448775 0.06745747 0.02811222 -0.06664513 -0.009939041 0.14585398 -0.008960966 0.00786733
0.0007694417 0.0547752 -0.09645597 0.025673255 0.017757202 -0.11975657 -0.009434139 0.2184582
0.05200439 0.11961541 -0.030071137 0.016816888 -0.11021527 0.19158454 -0.08088988 -0.028452259
0.04090045 -0.033823486 -0.0017950757 0.06121246 0.11298681 -0.12037997 -0.16778073 -0.101514064
0.081409656 -0.040682804 -0.07087884 -0.04722158 0.033970896 0.019442089 -0.11120059 0.08389138
-0.11215595 0.15468472 0.12491326 0.21473289 -0.047102228 0.088016674 0.05093494 -0.09141553
0.017089989 -0.13059326 0.029742459 0.11800268 -0.12702598 0.0810108 0.06654492 0.25716466
-0.07459465 -0.18282975 -0.15052421 0.088760614 -0.06950347 0.054045048 0.13792357 -0.062355947
0.09103256 -0.0030218335 -0.07671117 -0.20323983 0.09534645 0.0064841527 -0.05733893 -0.18025874
0.11389791 0.20558548 0.05905043 -0.1690487 0.027599229 -0.12164374 -0.022222644 -0.0048866128
0.12457373 -0.144794 -0.025599655 0.15083717 0.04454865 -0.23962022 -0.026654486 0.23683545
0.14954765 -0.021632357 -0.06263246 -0.05743666 0.09996786 -0.033369884 -0.0063917516 0.09116231
-0.060248025 -0.18841055 0.09492615 0.03215617 -0.04425567 -0.06758522 0.017061269 -0.11424414
0.089270696 0.0018163623 -0.0076297726 0.055911265 0.07360858 0.060881685 -0.07181108 -0.035282765
-0.17642523 -0.055881225 -0.06690292 -0.027584247 -0.013203178 0.018120479 0.054005615 -0.03627918
-0.047884293 0.03465017 -0.005028301 -0.034298845 -0.17516711 -0.04172465 -0.11528895 0.2026546
-0.0317804 0.08520709 -0.033243343 -0.00849724 0.1053606 0.063446395 -0.19934697 -0.19527155
0.098292075 -0.06974053 -0.09310502 0.014127374 -0.026244974 -0.17351156 0.10381542 -0.11337882
0.027415555 0.030936368 0.034782857 0.010478942 0.13372812 0.09105971 -0.09487469 -0.0350553
-0.07632548 -0.13204263 0.033741333 -0.10450616 -0.025083981 0.007753118 -0.006192628 -0.093325846
0.17459634 0.00017743933 -0.04402341 -0.056504223 0.06027201 0.04123076 0.07169454 -0.07196175
0.04565312 0.031875826 -0.015391081 0.02476975 -0.0018168242 -0.017086621 -0.09036447 -0.14955667
0.15511149 0.10207693 0.035342496 -0.0936389 0.013196439 0.14041145 -0.01070336 0.21919964
-0.051826824 -0.006197461 -0.050315704 -0.12171193 -0.08354798 -0.09789075 0.051479794 -0.0053792093
-0.06472944 0.07124941 0.055045404 0.0050198487 -0.015053733 0.113520175 0.17831178 -0.028475966
-0.13048242 0.13863818 -0.02419344 -0.07757946 0.07916773 0.05888494 -0.059766855 0.115759216
0.11060319 0.06444324 -0.1355767 0.098800495 -0.025639681 0.079034746 0.017969891 0.09335179

network_body.linear_encoder.seq_layers.2.bias f4 [128]
00000000: bfc3 89bc 3697 213d 4a2b 90bd 6dae 8ebd
00000010: 1933 f8bc d1e6 8ebd 7d56 15bc f3dc a6bc
00000020: f381 84bd 4fd5 b4bd 20a3 a1bd be62 cbbb
00000030: 85f4 5cbd 9d05 003d 1d01 913d 1380 6abb
00000040: c699 853d f75c cb3d 3519 74bd 839a 2fbd
00000050: f90c 5a3d dbe8 403c d48b a2bd 7fa4 8cbd
00000060: 6415 b4bc cdce 94bc 36db 9b3d 06bf e83c
00000070: 0e09 373d a822 89bd a525 833d 1bc8 94bd
00000080: 68e8 9e3d 53a9 b2bd beb4 723d 4dbc 02bd
00000090: 1bcb 9b3d a55e 3cbd 696d 85bd 17d5 0bbd
000000a0: 6beb 51bd 4637 83bd 39af 9cbd 4a5d 3b3d
000000b0: 5579 d8bd c22c 3b3d 838e 2c3d 7bde dd3d
000000c0: 4d81 84bd caa9 b5bd 59d0 973d 04e8 1b3d
000000d0: 50e0 313d c70d ee3c a332 6cbd 2fdc 65bd
000000e0: ca9e 453d 4603 9b3d 8965 a13d 2920 8ebd
000000f0: 46db f4bb 6e6b e1bd 517b 643d 0e08 01ba
00000100: 7b80 10bd b1b8 4bbd 32ca 87bd 694c 7ebd
00000110: 405f 2d3d a1a8 92bd 7517 163d 69a3 493d
00000120: 279b 82bd 7510 cd3c 77f2 54bd d1c5 313d
00000130: 7663 a4bd 481d 753c c0d4 6b3d aa71 64bd
00000140: 5090 a2bd 163d a5bd 0be8 29bd af09 90bd
00000150: 3ae9 86bd 0252 a53d f263 5c3d 0dba 7c3d
00000160: 3a6a e7bc 1943 403d 851f 823d 9487 0c3d
00000170: 652b f63c c4dc 8ebd ad4c b5bd 633f d7bc
00000180: ca5f edbc 13db e8bc aa8a 5c3d 9296 8d3c
00000190: 7543 74bd 89c4 10bd b2df 55bd 3db7 3a3d
000001a0: 0b39 bf3c bdce 98bd efb7 093d 53da 4abd
000001b0: 95b0 0bbd 7e8e 463d 5cd2 85bd b696 7fbd
000001c0: 8dad 8dbc c397 aabd dbe3 9bbd 1c59 1ebd
000001d0: 6c27 bbbd 7e06 0dbe a2ef ecbb f5e8 54bd
000001e0: 0b7e a8bc 3e6c 20bd 0001 fb3c 9193 063c
000001f0: baa5 9ebd c8d9 953d 0adc c9bd 17a1 9d3d
-0.016816972 0.039450847 -0.07039507 -0.06966863 -0.030297803 -0.069776185 -0.009114859 -0.020369029
-0.06470098 -0.08829748 -0.07892442 -0.0062068393 -0.05394413 0.031255353 0.070802905 -0.0035781905
0.065234706 0.09929841 -0.05959435 -0.042871963 0.053235028 0.011774267 -0.07936826 -0.06867313
-0.021982856 -0.018165017 0.076101705 0.0284114 0.04468637 -0.06696063 0.064036645 -0.072647296
0.07759172 -0.08723702 0.0592544 -0.03191786 0.07607099 -0.045988698 -0.06515009 -0.034138765
-0.051249903 -0.06407027 -0.076506086 0.045743264 -0.10570017 0.04569698 0.042128097 0.108334504
-0.06469975 -0.08870275 0.07412786 0.038063064 0.04342681 0.029059304 -0.05766548 -0.056118187
0.048247136 0.07568984 0.078806944 -0.06939728 -0.0074724285 -0.11006819 0.055781666 -0.000492216
-0.03527878 -0.049736682 -0.066303626 -0.06208459 0.042327166 -0.0716107 0.036643464 0.049228106
-0.06377249 0.025032261 -0.051989045 0.043401543 -0.08026783 0.0149605945 0.05757594 -0.05577246
-0.07937682 -0.08068292 -0.04148106 -0.07033097 -0.06587453 0.080722824 0.053806253 0.06170087
-0.028248895 0.04693899 0.06353668 0.034308985 0.030049989 -0.069757015 -0.08852515 -0.026275342
-0.02897634 -0.028424775 0.053843178 0.017283712 -0.059634645 -0.03534368 -0.052215286 0.045584906
0.02334263 -0.07461307 0.03362268 -0.049524616 -0.03410395 0.048475735 -0.065342635 -0.06239959
-0.01729467 -0.083297275 -0.07611819 -0.0386592 -0.091383785 -0.13772008 -0.007230715 -0.051979978
-0.020567914 -0.039165728 0.030640125 0.0082138935 -0.077464536 0.07316929 -0.09856422 0.07696741

distribution.log_sigma f4 [1, 2]
00000000: f4b5 dbbc 1db4 623c
-0.02682016 0.013836888

distribution.mu.weight f4 [2, 128]
00000000: c2dd 8ebc bf10 c938 0eaf 44bb 3a06 a1bc
00000010: d6ff 23bd c78c a1bb 93f0 1c3a 4a4c 0f3c
00000020: 8dad 96bb b785 46bc 62ad 80bb feff 7a39
00000030: 0356 e53b 2fd8 76bc cacf 2c3b c964 b9bc
00000040: a4f6 813b 2777 873c a205 55bb 693a abbb
00000050: fb3c bf3c 4cc1 823a 5d8a 0ebc 0487 1abb
00000060: 2388 a63b 7c4c b4ba 0665 833c cf36 91bb
00000070: de97 38ba 50c7 0fbb c0ca 0b3d e665 5cbb
00000080: a67c 783b cdee 25bc 2a5b c13c 805d c7ba
00000090: 82b2 fe3c df77 85ba 611e 55bb 5256 0fbc
000000a0: acf2 60ba 73a8 84b9 3b76 0fbc 56df 4d3c
000000b0: 7869 89bc d258 8eba 9e76 113b c6bc 9f3c
000000c0: 4f45 efba 1d4c d5bc c154 d33b 5e98 e73b
000000d0: 9f79 843b 7c55 fe3b 25cd 94ba 17a6 7abc
000000e0: a71d 8ebc ae1a 0c3d 5b0d e5bb 5830 caba
000000f0: f180 e3bb 04a3 5ebd 6238 ee3b 117a b33c
00000100: 5d19 e3bb 3bc3 0f3b 7060 9cba c7fd 30bc
00000110: 5e76 e43b 5e07 bfbb 6d2c d83b 5920 faba
00000120: 4b58 b9ba e340 d33c 9b73 1b3b 15f5 cd3a
00000130: 306e c4ba fa30 3d3c 1ebb 943c 4b64 9e3a
00000140: 79a2 bebb 24dc eabb c643 74ba af3b dbbc
00000150: 9eb4 19bb 7db3 0a3c db5d 393b 739b 1d3b
00000160: 6ecf 3abb 60a8 1b3d e7b4 383b e5b7 803a
00000170: a3ce df3a 0ea1 40bb 3550 15bd a4d3 3b3b
00000180: 89b5 b6ba 8b48 fd39 3e33 c4bb 7d4d 9eba
00000190: 4f83 933a bfd4 42bc e621 35ba d8dc 373c
000001a0: 0942 d13c 6e3a e9ba 7363 0c3c d1de b3ba
000001b0: e408 84bb f58b 413b bc37 43bc 906a 17bc
000001c0: 0b27 c2ba b8bf 0cbc 908e 95bc 5180 533c
000001d0: cde1 35bc ca35 ecbc 41b9 e0bb 373f c0ba
000001e0: 84fb dbbb a265 c23c 95cc 92bb e461 2a3b
000001f0: 487a 5fba c67d 9a3a 9f33 13bc 1d42 bd3b
00000200: 96a0 09bc c655 c4bb a1df 1d3c 8ce2 6f3b
00000210: a8b8 eebb c9ce 123b d713 dfb9 2c76 993b
00000220: cf58 053a faf8 513c 50e4 6d3c 62df b4ba
00000230: 5380 213b 91d2 8bbc d97f 27bd 4d0c a1bc
00000240: 7335 7dbc e49b 9cbc d685 223c a738 923b
00000250: ace9 7dbb edde d7ba 688a 413c b453 eb3a
00000260: 6c05 b03a aee6 a53b b786 1ebc 2491 c4ba
00000270: 49bb 7ebc 681e 993b d83d e1ba 813c bf3b
00000280: fca6 04bc bdb8 c73b 3356 e7bb 0559 a43a
00000290: 6483 c1bc 9c16 423a 1746 2a3b 7d15 afbb
000002a0: 4da3 5b3b 465f f93b 4a9d 693c fd53 51bb
000002b0: 25a7 a13c 605b 01bc ac00 38bb 3505 3abc
000002c0: 697e a83b b744 a53c a113 bebc ba39 923a
000002d0: c8ca a1ba aa51 a2bb 80c8 083c a18f b2ba
000002e0: ae1e 12bd ade0 34bc eaec 23bd 5a82 943a
000002f0: e1aa 9cbb 1706 733c a02f 48bb 45a3 aa3a
00000300: a771 59bb 1c8e a93c c5c2 a53a 6c42 293b
00000310: 6f5b 16bb 13f8 c33c 3de7 b8b9 1520 88bc
00000320: 07f5 1cba 9e0a 643a 5c94 3c3b 8a44 2abb
00000330: 80c2 6e3c 0643 5739 e1e0 11bc f695 0f3c
00000340: 2f4b 483c f4cb 803c 1579 1b3b b3ec 863c
00000350: 1c4d f43b 810e edbc d84c d1bb 6258 8bbb
00000360: 8a96 0b3c 7647 4ebb b303 0bbc 48e4 003b
00000370: 1d83 10bb 75bf f63b 78f4 383c 5f30 393c
00000380: 58ff b53b be0b 873b ff32 69bc ea9e 043b
00000390: 457b bd39 7ac6 bebb 7f35 fc3a d351 ffbb
000003a0: 2b87 87ba e41b ef3b 7d2e bdbb 2cd8 353c
000003b0: f8b1 dc3b da70 66bb 0a21 c73b fb97 fa3c
000003c0: 574d 0d3b 8009 f13b 5a13 5a3c 7487 903c
000003d0: d84a b63c 8868 c93c c5b5 e239 6d7d 473b
000003e0: 7204 d2bb e92b 913c 60f9 c4bb fd06 333b
000003f0: 6ac5 0b3b 0e46 35bd d1b6 673c e053 f4bc
-0.017439727 9.587546e-05 -0.0030011567 -0.01965629 -0.040038906 -0.004930112 0.0005986776 0.008746216
-0.0045983256 -0.012116841 -0.003926919 0.00023937222 0.006998779 -0.015066191 0.002636897 -0.022631066
0.0039661694 0.016536308 -0.0032504578 -0.005225469 0.023344507 0.000997582 -0.008699981 -0.002357901
0.0050821467 -0.0013755704 0.016039383 -0.0044315825 -0.0007041673 -0.0021938868 0.034128904 -0.0033630072
0.0037916093 -0.010127735 0.02360304 -0.001521036 0.031090979 -0.0010182819 -0.0032519328 -0.008748608
-0.0008581083 -0.00025302506 -0.008756216 0.0125654545 -0.016773924 -0.0010860211 0.0022195945 0.019499194
-0.0018254909 -0.02603727 0.0064493124 0.007067724 0.0040428187 0.0077616554 -0.0011352642 -0.015298388
-0.017348124 0.03420513 -0.0069901175 -0.0015425785 -0.0069428612 -0.054354683 0.007269905 0.021908792
-0.006930514 0.0021936435 -0.0011930596 -0.010802693 0.0069721183 -0.0058297357 0.006597093 -0.0019083127
-0.0014140693 0.025787776 0.002372003 0.0015713299 -0.0014986452 0.011547321 0.01815563 0.0012084333
-0.005817708 -0.007167356 -0.00093179604 -0.026761858 -0.0023453603 0.008465645 0.0028284702 0.0024048954
-0.0028504985 0.03800237 0.0028183998 0.000982043 0.0017075132 -0.002939287 -0.036453445 0.0028660083
-0.00139396 0.0004830997 -0.005987554 -0.0012077537 0.0011254343 -0.011891543 -0.00069096533 0.011222087
0.025544183 -0.0017793903 0.008568632 -0.0013723021 -0.00402938 0.0029532884 -0.011915144 -0.009241715
-0.0014812661 -0.008590631 -0.018256456 0.012909011 -0.011101198 -0.028834242 -0.0068580215 -0.0014667277
-0.0067133326 0.023730103 -0.0044799545 0.0025998289 -0.0008524996 0.0011786751 -0.008984475 0.0057757036
-0.008400103 -0.0059916703 0.009635837 0.0036603538 -0.0072851963 0.0022401086 -0.00042548656 0.0046832766
0.0005086781 0.012815708 0.014519766 -0.0013799483 0.0024643138 -0.01706818 -0.04089341 -0.019659186
-0.015454638 -0.019117303 0.009919604 0.00446232 -0.0038744016 -0.0016469635 0.011812784 0.0017954023
0.001342935 0.0050628996 -0.009675673 -0.0014996869 -0.015547582 0.004672814 -0.0017184569 0.00583607
-0.008096453 0.0060950206 -0.0070598363 0.0012538737 -0.023622222 0.0007403882 0.0025981718 -0.005343138
0.0033514083 0.0076102344 0.014258692 -0.003194093 0.019733021 -0.007895321 -0.0028076572 -0.0113537805
0.0051420224 0.020174367 -0.02320272 0.001115612 -0.0012343759 -0.004953583 0.008348584 -0.0013623127
-0.03567379 -0.011039895 -0.04002086 0.0011330352 -0.0047811125 0.014832995 -0.0030545965 0.0013018629
-0.0033179314 0.020697646 0.0012646547 0.0025826944 -0.0022942682 0.023922002 -0.000352675 -0.01661686
-0.00059874397 0.0008699092 0.0028774953 -0.0025980794 0.01457274 0.00020528966 -0.008903713 0.008763781
0.012224956 0.015722252 0.0023723294 0.016470289 0.007455481 -0.02893758 -0.0063873343 -0.0042524794
0.008519778 -0.00314757 -0.008484769 0.0019667316 -0.0022050806 0.0075301477 0.011288755 0.0113030365
0.005554121 0.004121273 -0.01423335 0.0020236322 0.00036140732 -0.005822 0.0019242017 -0.0077917366
-0.0010339966 0.007297026 -0.005773364 0.011098903 0.0067350827 -0.003516248 0.0060769366 0.030590048
0.002156099 0.007355869 0.013310278 0.017642714 0.022252485 0.024585977 0.00043241508 0.003043975
-0.0064092213 0.017721133 -0.006011173 0.0027317398 0.0021327385 -0.044256262 0.014142708 -0.029825151

distribution.mu.bias f4 [2]
00000000: 11f2 5d3d 915e 98bd
0.05418593 -0.07439912

critic.network_body.vector_processors.0.normalizer.running_mean f4 [4]
00000000: eade 1e41 a344 5140 8486 44c1 cf14 ad40
9.929422 3.2698143 -12.282841 5.40879

critic.network_body.vector_processors.0.normalizer.running_variance f4 [4]
00000000: 4733 c742 b813 3b41 549f ba46 76b1 2547
99.60015 11.692314 23887.664 42417.46

critic.network_body.linear_encoder.seq_layers.0.weight f4 [128, 4]
00000000: fc5a e53e 3100 62bd c92d cbbd 100f 22be
00000010: f4ee 4e3f 5f4f 483f 816b 5bbe 8c37 03bf
00000020: 7446 8dbc e9a2 33be 171d 10bf 402a b8be
00000030: e383 59bd 373c b33e 8d61 dc3e a0c9 8e3c
00000040: 78ed e83d 845f 223f 23da 91bd 4568 bcbe
00000050: 3cac a4bf 7736 e5bd 1a12 df3e 47eb cd3e
00000060: e346 fabe 42e4 eb3e 5f5a 5d3e fdcc a1be
00000070: 7de5 09bf 6253 22bd 2d9b 333f e323 bb3f
00000080: 6d0e 19bf c6ed 06bf a8bb cfbd dcc1 b9be
00000090: 049f b33e ab66 0a3f 1408 653e 8113 253e
000000a0: efad 87be e998 003f 5f65 16be b12b f9be
000000b0: 2e9a c1be cbe3 de3e 9b7e 423f 64a2 3abf
000000c0: a223 2bbf 28e2 a0bc 5273 45be 31c8 663e
000000d0: b493 62bf ee27 94bc 0014 2bbf d86a e33e
000000e0: aa85 4e3e 18e7 2a3f d5f3 1cbe afb0 8b3e
000000f0: d350 83bd feee a9bf ac87 003f bcd8 413f
00000100: 10c2 853e 6347 46be dc1f c93e ccdd de3b
00000110: 65e9 ec3e 3c77 683e 8666 14be 6242 843d
00000120: dd6c 533d 56c9 d0be 3ed1 93bd 4c10 febe
00000130: 9c23 05be 83a3 f33e 9198 16bf 9837 ab3e
00000140: ee2e c3bf 7ca7 553e a9f7 883e b922 13bf
00000150: 2312 0fbf f8c8 9c3e 084a 3bbe 846d 1abe
00000160: afe1 31bc 9f35 11bf 0bc3 053f 9b2a fdbd
00000170: 0448 933e 9950 37bf cfee 61bf cfbe 53bf
00000180: ee1b c43c 495e febe 492f e03e aac6 113f
00000190: 6578 80be 7cc7 553e dffc 0fbf 6a1f ac3e
000001a0: 1608 043e 3100 98be 44ed 933e e541 45bf
000001b0: eeb4 373d bbee cebe dc74 7d3f 917b 44be
000001c0: b48e e43d 531e 413f 5877 c3bf 655a 0dbf
000001d0: 0d26 06bf 02e4 94be 4a51 8d3d a545 aebe
000001e0: 9711 1e3f edff f5bd 658c 11be cc18 37bf
000001f0: 9227 1cbc cad2 303d 5f31 fb3e c576 e2be
00000200: 9bd6 093e ec78 033f 75b1 6cbe 6430 06bf
00000210: f57e 3a3f ce35 853e b06e 6e3f 1ffd 903f
00000220: 4dcb 8f3e aec3 28be aef9 0cbf aace 5abf
00000230: 01ad dbbe 453b cabe 3b33 a8be 61ba ed3c
00000240: b68d 9dbd 6a91 02bd 2af6 92bd cc69 7d3f
00000250: 11ec a7be f8d4 fabe d4f5 6b3e d4af 3abf
00000260: 7244 843f cc72 833d 882e 12bf e7e1 c83e
00000270: 0eb9 8c3e f12e 1abf 0467 8d3c fef2 54bf
00000280: 194c e33c f117 babe f2c9 2bbe 734a 00bf
00000290: eeab 2b3f b50d 40bd 7263 ebbe ee33 f53e
000002a0: afc5 97be 8b19 ac3d 6d25 52be 35a6 773f
000002b0: 82c8 fd3e a821 903e 5ea9 853e 81a1 12bf
000002c0: 32c7 c03d e00d 6e3d 2050 b43e 5e02 073f
000002d0: 001e 163e 2895 8d3c 9502 563b 4b06 aabd
000002e0: ea7e 093d bef7 bbbe 21c6 16ba 9c2f 0fbf
000002f0: fd39 d43e 7e30 d6be 492d 95bf 5d90 00be
00000300: 0a40 5d3d c606 b53d f067 423f 3d0c 963d
00000310: 6937 713f 18c0 1a3f ba79 413e de41 87be
00000320: 73a6 60bd 4620 8e3d 2ca9 95be 58f5 a1bc
00000330: 5839 c4be 8f46 69be ead7 563e 34fa ca3c
00000340: 2358 22bf 55ef d2be 17cd c83d d1ac 2a3d
00000350: 5aa1 083f d767 d83e 676d ef3e 527d 783e
00000360: 2a04 eb3d d6bd 97be defe 96be 7307 06bf
00000370: 8b53 83be ff7b 323e b669 0e3f 19e1 23bf
00000380: 560d 713d cacc 01bf d152 03bf ce38 7abe
00000390: bf21 adbd e64f 413f bbc3 b73d dc4b 2bbe
000003a0: a28d 2cbe 7ee9 4fbe b57a 1c3d e2fa cf3d
000003b0: 4087 163c a3cb 253d 9e2f 02bf b3ba bc3e
000003c0: 4564 1abf 73b5 0cbe 17ab 41be fca5 c9be
000003d0: e655 f63d 43a9 a83e ffe6 a3be 0a97 d6be
000003e0: 20d1 fd3d fd8c 443f fa25 c9bf 11f3 293f
000003f0: 997a d0bd f903 a13b 6209 3abf 53a5 653b
0.44795978 -0.055175964 -0.09920842 -0.15826058 0.80833364 0.7824611 -0.21427728 -0.5125663
-0.017245509 -0.17542614 -0.5629439 -0.35969734 -0.053104293 0.35006878 0.43043175 0.017430127
0.113734186 0.63426995 -0.071216844 -0.367983 -1.2865062 -0.11192029 0.43568498 0.40218565
-0.48882207 0.46072584 0.21616505 -0.31601706 -0.53865796 -0.0396303 0.70158654 1.4620327
-0.59787637 -0.52706563 -0.101432145 -0.36280715 0.35082257 0.5406291 0.22366363 0.16120721
-0.26499888 0.5023332 -0.14687108 -0.48666146 -0.37812942 0.43533167 0.75974435 -0.7290404
-0.66851246 -0.01963909 -0.19282272 0.22537304 -0.8850663 -0.018085446 -0.6682739 0.44417453
0.20168176 0.6675887 -0.1532739 0.27283236 -0.064119 -1.327606 0.5020702 0.75721335
0.2612462 -0.1936317 0.3928212 0.0068013426 0.46271816 0.22701734 -0.14492235 0.06457974
0.051617492 -0.40778607 -0.07217644 -0.4962181 -0.13001865 0.47585687 -0.5882655 0.33440852
-1.5248697 0.20864671 0.2675145 -0.5747486 -0.5588705 0.30622077 -0.1828996 -0.1508084
-0.01085703 -0.56722444 0.52250737 -0.12361642 0.2876588 -0.7160736 -0.8825502 -0.82713026
0.0239391 -0.4968131 0.43786076 0.5694376 -0.25091854 0.20876878 -0.56245226 0.33617717
0.1289371 -0.29687646 0.28891957 -0.7705367 0.044850282 -0.40416512 0.9900644 -0.19187762
0.11160031 0.75436896 -1.5270796 -0.55216056 -0.5240181 -0.29080206 0.0690027 -0.3403751
0.6174559 -0.120117046 -0.14213713 -0.7152221 -0.009530919 0.043169774 0.49061105 -0.4423124
0.13460772 0.5135639 -0.2311457 -0.5241759 0.7284997 0.26017612 0.93137646 1.1327246
0.28084794 -0.16480896 -0.5506848 -0.85471594 -0.4290543 -0.39498344 -0.32851586 0.029019536
-0.07693045 -0.03187696 -0.07175858 0.9898956 -0.32797292 -0.48990607 0.23042995 -0.7292454
1.0333388 0.0641838 -0.5710225 0.3923485 0.27484936 -0.60227877 0.017261036 -0.83183277
0.027746247 -0.3634639 -0.16776255 -0.501136 0.6705922 -0.046888072 -0.45974308 0.47891182
-0.29643008 0.084033094 -0.2052209 0.96737987 0.49567038 0.28150678 0.2610578 -0.57277685
0.094129935 0.0581187 0.3521738 0.5273799 0.14659882 0.017283037 0.0032655348 -0.083019815
0.0335683 -0.3671245 -0.00057515694 -0.5593202 0.41450492 -0.41833872 -1.1654445 -0.1255507
0.05401615 0.088391826 0.75939846 0.07326553 0.94225174 0.6044936 0.18894091 -0.2641744
-0.05484624 0.069397494 -0.2923063 -0.01977031 -0.38325 -0.22780822 0.20980802 0.02477751
-0.63415736 -0.4119822 0.09804743 0.041668717 0.533712 0.42266724 0.46763155 0.24266556
0.114754036 -0.2963702 -0.29491323 -0.52355117 -0.25649676 0.17430113 0.5563005 -0.64015347
0.05885061 -0.5070311 -0.5129824 -0.24435732 -0.08453702 0.7551254 0.089728795 -0.16728157
-0.16850904 -0.20303914 0.03820296 0.10155274 0.00918752 0.040477406 -0.5085391 0.3686119
-0.6030925 -0.13741092 -0.18912922 -0.3938445 0.120281026 0.32941636 -0.32012174 -0.4191211
0.12393403 0.7677763 -1.5714715 0.66386515 -0.10179634 0.0049138037 -0.7267057 0.0035041168

critic.network_body.linear_encoder.seq_layers.0.bias f4 [128]
00000000: 0e08 17bd fd4a f03c 4b58 eaba a738 b7bc
00000010: 5cb0 c33c fa7c 0d3d a04b c13c 8659 49bc
00000020: cf23 403c 4edc 5abc 5676 aebc ea73 f23c
00000030: 77f2 44bc ae3d 1b3d 400d d73c 2ddb 8fbc
00000040: 247a de3c ad93 d43c d09a b83c 0be5 f33c
00000050: 9bad f33c 4f76 a4bc 3812 c83c 97df 013d
00000060: 19c0 b6bb c984 453a d08d ae3b c16b 63bc
00000070: 0e73 443c 99b5 e8bc 31c6 1fbd bca8 b9bc
00000080: c043 debc 13e6 273d 6dc5 e53c 3539 c0bc
00000090: ae4e 4bbc 8a3a cc3c 8151 21bc 2e51 f43c
000000a0: f949 cfbc afdd f63c 7b79 8dbc 2256 ec3c
000000b0: 993d 023d 4921 dabc addc b93c 19f1 cf3c
000000c0: f99f 80bc 5714 b3bc 34be 9abc fff2 04bd
000000d0: e339 f0bc 9785 083d 83d7 cd3c 68a3 143d
000000e0: a0da da3c a267 c5bc baf4 c0bc 1a20 f53c
000000f0: 8258 c93c 16f7 4ebc 6174 0d3d 63e1 093d
00000100: 1d2a d33c b8ef d93c bbc2 95bc 2d62 57bc
00000110: 0eed 123d ae0c b3bc f6cf be3c bd17 d73c
00000120: dacd f0bc f4cb c9bc e3dc 94bc 4347 023d
00000130: 8636 7dbc 2e72 f03c 8155 b93c 62be 163d
00000140: 85c4 d33c 4e58 ef3c 1f14 babc 534a f53c
00000150: e2c9 bb3c bb2c 243d 6577 bb3c e3fb 223d
00000160: f5f8 253d e3c8 c0bc cb89 223b 520b ae3c
00000170: 5773 2fbb d9dc d33c 16d2 c9bb d33e 88bc
00000180: ff5f 2a3d 7ee9 bb3c 06a4 dc3c 0c20 fc3c
00000190: 030e b3bc 6d3b 1d3d cb11 cf3c 0f39 c63c
000001a0: a0e1 abbc 904e b73c dbe3 c0bc 59fe ba3c
000001b0: 52cd 4dbc 11d0 d23c 17b2 303d bb82 4c3d
000001c0: f3c7 553d 8d8d d33c 999d d63c 95e1 5f3a
000001d0: bed9 ce3c 3c83 9abc c2ad a6bc c07c 083d
000001e0: 1583 043d b84b 63bc ec77 d8bb ec3e e4bc
000001f0: 1a05 a4bc 5934 0e3d 3d8c 8a3c 69d0 babc
-0.036872916 0.029332632 -0.0017879097 -0.022365881 0.023887806 0.034543015 0.023595631 -0.01228941
0.011727287 -0.013358189 -0.021296661 0.029596288 -0.012020699 0.03790062 0.026251435 -0.017560566
0.02715785 0.025949324 0.022534758 0.029772302 0.029745867 -0.020075945 0.02442275 0.031707373
-0.005577099 0.000753474 0.005326964 -0.013880671 0.011990322 -0.028406905 -0.03900737 -0.022663467
-0.027131915 0.0409909 0.028048242 -0.023464778 -0.012408895 0.024930257 -0.009846092 0.029823866
-0.025303828 0.030135004 -0.01726984 0.028849665 0.031797025 -0.0266272 0.022688234 0.025383519
-0.01570128 -0.021860285 -0.018889524 -0.0324583 -0.029324478 0.033330526 0.025127178 0.03628865
0.026715577 -0.024097268 -0.023554195 0.029922534 0.024578337 -0.012632152 0.034534816 0.03366221
0.025776917 0.026603565 -0.018281331 -0.0131459655 0.035870604 -0.021856632 0.023292523 0.026256436
-0.029395033 -0.024633385 -0.018171733 0.03180624 -0.015454894 0.02935132 0.02262378 0.036802657
0.025850544 0.029216912 -0.022714673 0.029942667 0.022923414 0.04008172 0.02288408 0.039791
0.040520627 -0.02353329 0.002480137 0.021245632 -0.0026771629 0.025862144 -0.0061590774 -0.01663152
0.041595455 0.022938486 0.026933681 0.030777 -0.021857267 0.03838675 0.025277039 0.02419713
-0.02098161 0.022376329 -0.02354615 0.02282636 -0.012561159 0.02573398 0.04313859 0.04992936
0.05219264 0.025824333 0.026198195 0.0008540389 0.025250312 -0.018861406 -0.020346526 0.033322096
0.032351572 -0.013873033 -0.0066060927 -0.027862035 -0.020021964 0.03471789 0.016912574 -0.022804456

critic.network_body.linear_encoder.seq_layers.2.weight f4 [128, 128]
00000000: 520b 113d 56a0 8d3d 4a80 0f3e ed74 d7bc
00000010: 4541 9f3d 75fa 143e 90a4 ea3d 976a 81bd
00000020: 8eac c33b d37c 41bd 603e 1bbe d3c0 903c
00000030: 9e1b 8bbc f2b0 14be ace2 da3d 073c fa3d
00000040: b099 f7bd 1230 62bd bced a63c 35f4 f2bc
00000050: d581 023d 6c51 8a3d 3009 183e 1d1a 013d
00000060: 1c27 083e 6cbf 75bd 4fdf 8ebc 68ed ff3c
00000070: 17bb df3d f990 013e 2925 a9bd 81c5 1f3d
00000080: 99cf 323d f540 2dbd 1489 06be 5995 40bb
00000090: 807f 4abc 2fd2 e03b e093 723c bb6e 14bd
000000a0: dd8b 02bd 2c5f f7bd 76c5 08bd a839 aa3d
000000b0: 989e e93c 0fa2 fabd 4d41 babd 15a1 58bc
000000c0: d445 b53b 2527 dc3c f841 dfbb d27d 803d
000000d0: 7518 ddbb 63d7 003e d187 12be b547 72bc
000000e0: b350 28be 83e1 50bd 314d 0d3e 9ab1 11be
000000f0: 2ced 163e 3ba6 0cbd aa16 883b 841d 023d
00000100: b823 fc3d addd 343d 5385 90bd 0faf 2c3c
00000110: ed42 0abe 557b ddbd b0fa 03be 7559 efbc
00000120: c6b3 8ebd 661b 973c 8725 67bd b056 133e
00000130: a2cb c33d 6477 c7bd e02f 413e ed3a 28bd
00000140: 396b b439 e113 a9bd 37fb 74bd fbe7 203d
00000150: 220b c43d ee92 a1bd 9e1b 813d c43d eabd
00000160: 46fd acbd b922 8abc 84ca 583e e1e3 be3c
00000170: 4269 8e3d 4bad 4e3d 8eef e2bc 610b 4b3d
00000180: 7038 f43c f7bf ae3b b976 c63d 600a 993d
00000190: 2969 9ebd a743 d6bc 1d0b 5abd 4669 6dbe
000001a0: 1416 c13b 131b 593d 8a8a c3bd 3172 b73d
000001b0: c8ff c4bc 01a5 c03d 7bd0 c8bd 24d0 6abc
000001c0: 8fe8 dfbc 9208 063e 2b3f 7a3c 1901 dabc
000001d0: 2d2f 373d fde1 713d 173f c4bd d649 de3c
000001e0: 8ed7 d5bc 1597 28bd cea4 163e f21b 663b
000001f0: 1847 023e a158 3e3e ee85 9d3c 6029 fe3c
00000200: 8a14 1e3c 4dd4 1f3e d5aa 063d 7c5d 103c
00000210: 39b6 9cbd 47bf 4ebd 6339 b33d 3098 3ebd
00000220: e75e 553c 4921 39bd f909 203c 2d25 8dbd
00000230: e454 e13d e8cc af3d 43d8 adbd 2806 fe3c
00000240: ab4f 9abd f943 f43c 521d 27be 04fe 55ba
00000250: 3866 e23d 5c00 b33d f966 8bbe 23dc 283e
00000260: 590b 143d 0f58 b83c 6e6f d03d c969 25bc
00000270: 8ed4 033e 0acc 2cbd 1524 0bbe 3e19 583c
00000280: 65a0 593d 5b5e 36bc c1e1 e73c 917c 00bd
00000290: b4b8 53bd 4f49 273b 7e3c fc3c 106a 823d
000002a0: 0ddf cf3d 5b5a 4a3d 6be5 4bbd da92 9f3d
000002b0: 858a 9f3a 82ee 2fbd 9f8c 88bc 60c7 883c
000002c0: 5abf 06bc e335 11bd bbec 35be f638 cfbc
000002d0: 464a 8b3c bbae c0bd ca72 71bd d434 c9bd
000002e0: 13c8 cbbc 2899 003e 0c47 e1bb 990a 9bbe
000002f0: 1353 d1bc a59c 1bba 1391 f53c 119c 003e
00000300: f44e b2bd e4d2 753d 7e6d 6cbd 6458 ae3d
00000310: 6fc9 6a3d 0f34 ff3d 4dbc ee3c 509d 253e
00000320: 36b1 013e c353 91bd 4421 023e 2046 093c
00000330: 9fd5 a13d 917b bd3c e719 e2bd 90f1 913c
00000340: 4745 a43c f0b5 3bbe a286 663d 48e1 963d
00000350: b4a0 0e3d a021 393d a7f9 1d3b 2d29 92bc
00000360: 4e0d a7bd 2092 16bd 0b5c 993d 6e3e db3d
00000370: b5fc 063e 6e44 833d 3c7c b73d cf7a 91ba
00000380: 852e 14be 920e 393d fc81 35be 251f 843d
00000390: a6ad 28bd b9ee e43d 02cf 80bd 7fca c2bb
000003a0: 7e4a da3b 5bb4 9bbc e34a 473c c343 ecbd
000003b0: 65fa d5bc e5e7 113e 3166 f43d bc19 843e
000003c0: ab96 07bc 2cba 95bd 3b41 07bd 2419 51bd
000003d0: b4c8 89bd 6d81 8d3d 4997 9d3d 23a5 fbbd
000003e0: 5c53 0cbd 676b dd3d b936 f9bc 7f8d 9dbd
000003f0: d5a3 ac3d 43a0 4fbd f5b5 2abd 8924 353d
0.035411187 0.06915347 0.14013782 -0.026300872 0.07776121 0.14548667 0.11457169 -0.063191585
0.005971498 -0.047238182 -0.15160513 0.01767007 -0.016980942 -0.14520624 0.106877655 0.122184806
-0.120898604 -0.055221625 0.020377032 -0.029657463 0.0318621 0.06753811 0.14847255 0.031519044
0.13296169 -0.059997007 -0.017440466 0.031241134 0.109243564 0.12652959 -0.08259041 0.039006714
0.04365501 -0.042298276 -0.13138229 -0.0029385893 -0.0123595 0.0068609933 0.014805764 -0.036238413
-0.031871665 -0.120786995 -0.03339144 0.08311778 0.028518006 -0.122379415 -0.090944864 -0.013221999
0.005532006 0.026874134 -0.006813284 0.06273998 -0.0067473003 0.12582164 -0.14309622 -0.014787604
-0.16437034 -0.050996315 0.13798977 -0.14227906 0.14738911 -0.034338217 0.0041530924 0.03176643
0.123115 0.04415672 -0.070566796 0.010539784 -0.13502093 -0.10814539 -0.12888598 -0.029217461
-0.06967883 0.018445682 -0.056432273 0.14388537 0.09560324 -0.09739569 0.18865919 -0.04107182
0.00034412162 -0.08255745 -0.05980989 0.039283734 0.09572436 -0.07889353 0.06304096 -0.11437562
-0.084467456 -0.01686226 0.21171004 0.02330202 0.0695367 0.050458234 -0.02770212 0.0495714
0.029812068 0.0053329426 0.09690613 0.07472682 -0.077349015 -0.026155306 -0.053233255 -0.2318469
0.0058925245 0.053004336 -0.095479086 0.08957327 -0.024047747 0.09406472 -0.098053895 -0.014331851
-0.027332572 0.13089207 0.0152738495 -0.026611852 0.044722725 0.05905341 -0.09582346 0.027134817
-0.026103761 -0.041159708 0.14711305 0.0035111872 0.12722433 0.18588497 0.019228902 0.031025589
0.009648452 0.1560833 0.032877762 0.008811351 -0.07651944 -0.050475385 0.0875118 -0.046531856
0.013023115 -0.04519776 0.009768003 -0.06891856 0.1100252 0.08584005 -0.08488514 0.031008795
-0.07534727 0.029817568 -0.16319779 -0.00081631565 0.11054653 0.08740303 -0.27227 0.16490225
0.036143634 0.022502927 0.101775035 -0.010096022 0.12874052 -0.042186774 -0.13587983 0.013189612
0.05313148 -0.0111308945 0.02830589 -0.031368796 -0.05168982 0.0025525873 0.030790564 0.06367886
0.101499654 0.049402576 -0.049779337 0.077916816 0.0012172019 -0.04295207 -0.016668616 0.016696632
-0.008224333 -0.03545178 -0.17766087 -0.025295716 0.01700319 -0.09408327 -0.058947362 -0.09824529
-0.024875676 0.12558424 -0.0068749245 -0.30281523 -0.025552308 -0.00059361226 0.029976403 0.12559535
-0.08706465 0.060015574 -0.057721607 0.08512953 0.05732101 0.12461101 0.029142523 0.16173291
0.12665257 -0.070960544 0.12708002 0.0083785355 0.07902073 0.02313021 -0.11040097 0.017815381
0.020052565 -0.18331122 0.05628074 0.07367188 0.034821227 0.045198083 0.0024105103 -0.0178419
-0.081568345 -0.03676045 0.07488259 0.10705267 0.13182338 0.06409536 0.08959243 -0.0011099222
-0.14470871 0.04517991 -0.17725366 0.06451253 -0.04118123 0.11178345 -0.062894836 -0.0059445496
0.006661712 -0.019006899 0.0121638505 -0.11536362 -0.026120374 0.14248617 0.11933554 0.25800884
-0.008275668 -0.073109 -0.033021193 -0.051049367 -0.06727734 0.06909452 0.07694871 -0.12287357
-0.034259185 0.10811501 -0.030421602 -0.07693004 0.08429686 -0.050689947 -0.041677434 0.044224296

critic.network_body.linear_encoder.seq_layers.2.bias f4 [128]
00000000: 7b0c c03c 0bf5 a4bc 7544 aa3c bb83 c3bc
00000010: a883 dfbc 9077 c03c 93f4 d43c b5aa ad3c
00000020: f06b c83c fa54 bcbc 82a3 b63c 1d3d bf3c
00000030: 9fd7 dfbc ece6 c73c fc1c dcbc f114 4e3c
00000040: 8403 ba3c 80b9 b23c 0384 b3bc db7a b0bc
00000050: 5342 c23c 6f48 b2bc f245 af3c 5789 b4bc
00000060: e9c7 a8bc 0e57 c33c 1fdd bbbc 579f a3bc
00000070: 8950 c0bc 1eaf b93c f42b d0bc 59ea bdbc
00000080: 1c2d bd3c 864e c7bc 1a90 ba3c 8d8e cebc
00000090: f847 acbc e142 ddbc 29f7 bfbc 88e9 b6bc
000000a0: 818a adbc 2eb9 bebc 3ae4 a8bc b0f3 bb3c
000000b0: c37d ba3c aa75 bc3c eeb0 85bc 88ae 7abd
000000c0: e7a2 c83c b12e 9ebc 219b b1bc 7851 a9bc
000000d0: 72f4 af3c 6515 babc 53e4 c4bc e1fb c1bc
000000e0: 1ad7 b0bc db4e b93c 016f 84bc 79c1 b3bc
000000f0: dbde ccbc 3342 bb3c 8ad3 a0bc 7aee a93c
00000100: fa27 b1bc 0492 a6bc df63 b7bc c1cc cbbc
00000110: 2b3b bf3c 2b92 bd3c 3c4d b8bc 50b0 a2bc
00000120: 1030 df3c ab85 cdbc 3dbc c03c 85df d3bc
00000130: 4fa0 b7bc 052b c0bc f453 b93c a375 a9bc
00000140: a9fb bd3c 05f7 aabc c3fd b03c 5015 c13c
00000150: 7810 af3c 26bf b03c e514 d8bc e107 b73c
00000160: 295f b1bc b130 cabc 5916 c43c 16b1 8fbc
00000170: 123f a33c 85f5 bc3c 42bf f0bc 0ca8 cfbc
00000180: efbe c43c fcfd cc3c 0155 b8bc 67ae b43c
00000190: 38dc b93c d85d d5bc cd9f c83c d50e aebc
000001a0: a130 9d3c e251 dabc ddd3 b8bc d36e b63c
000001b0: ee14 aebc b6e5 c73c cea4 ce3c 5766 bd3c
000001c0: 400f 86bc b564 cd3c 775f be3c 8ea0 be3c
000001d0: 6bf7 bb3c 5819 c83c 7d8b babc d93b c7bc
000001e0: 37af c9bc 2608 a2bc 42d1 bc3c a551 b03c
000001f0: b872 c03c fbdf c6bc a7f7 ae3c 2ebb cabc
0.023443451 -0.020136377 0.020784596 -0.023866525 -0.027284458 0.023494512 0.025995528 0.021199564
0.024465531 -0.022989739 0.022294763 0.02334457 -0.027324496 0.024402104 -0.02686929 0.012578235
0.022706755 0.021816969 -0.021913534 -0.021542957 0.023713266 -0.021763055 0.021395657 -0.022038145
-0.020603137 0.023845222 -0.022932587 -0.01997344 -0.023475902 0.02266651 -0.025411583 -0.023183035
0.023092799 -0.024329435 0.022773791 -0.025214458 -0.021030411 -0.02700943 -0.023433285 -0.022328153
-0.021184208 -0.02328166 -0.02061664 0.022943348 0.022765046 0.023005325 -0.016319718 -0.061201602
0.02449174 -0.019309374 -0.021680417 -0.02066873 0.021478865 -0.02271528 -0.024034655 -0.023679676
-0.021586943 0.022620609 -0.016166212 -0.02194284 -0.02500861 0.022858715 -0.01963212 0.020743597
-0.021625508 -0.020333298 -0.02238649 -0.024877908 0.023343643 0.023140987 -0.022497766 -0.019859463
0.027244598 -0.025088152 0.023527259 -0.025863418 -0.022415308 -0.023458013 0.02262304 -0.020685976
0.02319129 -0.020869741 0.021605378 0.023569733 0.021370158 0.021575522 -0.02637715 0.022342624
-0.021651821 -0.024681421 0.023936437 -0.017540496 0.019927535 0.023066292 -0.029388074 -0.025348686
0.024016825 0.025023453 -0.02250147 0.022055818 0.022688016 -0.026045725 0.024490261 -0.021247307
0.019188227 -0.026650373 -0.022561962 0.022269642 -0.021250214 0.024401527 0.02522507 0.023120089
-0.016364694 0.025072435 0.02323888 0.023269918 0.022945127 0.024426147 -0.022771591 -0.02432053
-0.024619682 -0.019779276 0.023049 0.021523306 0.023492202 -0.024276724 0.021358324 -0.024747457

critic.value_heads.value_heads.extrinsic.weight f4 [1, 128]
00000000: bde3 1cbe d841 983d 7e93 17be e14d a33d
00000010: af67 b13d 23e7 c5bd f079 dbbc cf20 dfbd
00000020: 2243 77bd cdb0 783d d0dd c2bd 4300 febd
00000030: 6aad 9a3c 13c6 cabc 15a0 ff3d 5a7b 61bb
00000040: e86a 6cbd c412 29be 6ec1 563e 346a 413d
00000050: 723e d8bd 4450 903d 7f54 40be 181c 443e
00000060: 8f4b d63c a4ca 93bd adf4 303d 8f34 4c3e
00000070: 7066 c63d d433 0abd b8c3 523e 7eaf c53d
00000080: dccd 5dbd e2c6 493e cafd f5bd 4cf6 183e
00000090: c0e5 983d c2b2 9b3d 4674 8b3d 685c 943c
000000a0: 0dd5 b53d e458 043d b04d 263e 905d 25bd
000000b0: a5d3 04be 8883 e0bd b0e6 543b f7b8 ce3c
000000c0: b450 0dbe 7e95 513e 4783 173e f33a 263e
000000d0: af8e 50be 4a5c 2f3e 625d f63c 3ac1 253d
000000e0: 5241 163e eb4c 41be 582f 02bb 1434 263e
000000f0: 6b69 e93d a251 70bd 658f d83c 7f6b 99bc
00000100: b036 803d cc10 103e ed54 473d 61c2 373d
00000110: 4ca5 0bbd 7c40 2abe 205e 3e3e bd4f 103e
00000120: 5354 25be bb1b b63d 7fe0 45be cf3a fc3d
00000130: 6f3b d23c 918a 183d ddde 5cbe a1a1 ac3d
00000140: 9c62 a4bd 6447 443e dea1 c3bd c57f 1bbe
00000150: 939c 1ebd fa58 d8bd d1cf 523e fe8f 2dbe
00000160: a187 243e ee88 af3d 6562 c1bd 7d7e 893c
00000170: ab05 c6bd 6365 96bd 177e 263b 697e 4f3e
00000180: 9bb5 93bc b975 e0bc 3f55 5f3c e773 2fbe
00000190: 9847 bebd a4ca b13d 152d 19be 10cd 2f3c
000001a0: 9f95 b7bb 11d5 103e 3efc b73d 74ce babd
000001b0: 6525 fb3d cd72 aabd e385 babd 32c7 c2bd
000001c0: b7b0 893b 5a32 d7bd 41b4 37bd 4737 d2bd
000001d0: 3ff2 48be ffba 12be dbc3 753d 8611 ec3c
000001e0: 6e8b 1a3e cbc8 883d 2981 4cbe 97b9 a3bc
000001f0: b325 c0bd c91b 3a3e 1c85 0cbe e303 313e
-0.1532125 0.07434434 -0.14802358 0.079738386 0.08662354 -0.096632265 -0.026791543 -0.108949296
-0.060366757 0.060715485 -0.095149636 -0.12402394 0.018881518 -0.024752652 0.12481705 -0.0034405799
-0.05771914 -0.16511065 0.20972225 0.047220424 -0.105587855 0.070465595 -0.18782233 0.19151342
0.026159076 -0.07216385 0.04320209 0.19941925 0.09687507 -0.033740833 0.20582473 0.09652613
-0.0541514 0.19704774 -0.12011297 0.14937705 0.07465696 0.07602455 0.06809287 0.018110469
0.08878527 0.032311335 0.16240573 -0.04037243 -0.12971361 -0.109625876 0.0032486133 0.025234682
-0.13800317 0.20467183 0.14796172 0.16233425 -0.2036693 0.17125049 0.030073825 0.04046748
0.14673355 -0.18876998 -0.0019864645 0.16230804 0.1139706 -0.0586716 0.026435563 -0.018728016
0.06260431 0.14068907 0.048664976 0.04486311 -0.034093186 -0.16626161 0.18590593 0.14092918
-0.16145448 0.08892008 -0.1932392 0.12315904 0.025663106 0.037241522 -0.2156939 0.08429266
-0.08026621 0.19167858 -0.09552358 -0.15185459 -0.03872354 -0.10563846 0.20587088 -0.1694946
0.16067363 0.08571039 -0.094425954 0.016783947 -0.0966905 -0.07343557 0.0025404745 0.20263065
-0.018030932 -0.027399885 0.013631164 -0.17134057 -0.09290999 0.08681229 -0.14958604 0.010730043
-0.005602553 0.14143778 0.08983658 -0.09121409 0.12262992 -0.08322678 -0.09107568 -0.0951065
0.0042019743 -0.10507651 -0.044849638 -0.102644496 -0.1962366 -0.14329146 0.060001235 0.02881695
0.1509225 0.06678923 -0.19971146 -0.019985957 -0.093821906 0.18174662 -0.13722652 0.17286639
