ml-agents-master/ml-agents/config/results/ppo/LineCreator/LineCreator-443981.onnx (onnx, 71632 bytes, 9 tensors)

53 f4 [4]
00000000: 0d6b 753c de29 a83b eb96 f340 05e6 2840
0.014979136 0.005131944 7.6121726 2.6390393

54 f4 [1, 2]
00000000: cff2 15be 3842 70be
-0.14643405 -0.2346276

distribution.mu.bias f4 [2]
00000000: f26f 223e bac5 34be
0.15863016 -0.17653552

distribution.mu.weight f4 [2, 128]
00000000: c3eb 443b bc36 093d edd8 cf3c 2aa2 2eba
00000010: cdab 1e3d 6d1a d0b9 2956 7e3c 3cd5 743b
00000020: b072 bb38 8e7c bcb9 6c28 5c38 2de8 0f3a
00000030: 6735 c0ba 4184 b03d df27 0e3d d4f5 ed3b
00000040: 5d25 d63b e3f7 933c 8c40 12ba 7b0e 783d
00000050: 4d74 523d 9a6c 75be 95d1 573c 1e04 f13c
00000060: f312 003d 481c 413a bfa6 f53c 887e 323d
00000070: 60e1 80bb 36af b53b 3899 1fbd e724 d83c
00000080: 511a ec3c 6e96 b53a de09 1c3d e1a1 b1bc
00000090: 4f72 c33b 06f9 6b3b 8d67 18bb 0e00 6dbb
000000a0: f11c 7cba 7a07 c73c c5e8 11ba 7546 eebc
000000b0: 0ab0 58be ca7b b33d d7ae ed39 8949 123b
000000c0: 33ba 033d 05ba 073a 47b6 bb3a e284 f43c
000000d0: cd06 a43b f2ef 0e3c 2731 443a 488d 2f3b
000000e0: 2712 3e3a 4200 b83b 71c3 f53a f20e 0e3c
000000f0: af87 b339 7adb aa3b 1f8c d23c 3896 a33c
00000100: 423f 66bb ca0a 0dbb 824c 4a3d e042 9039
00000110: b571 143d 8727 533a c5e7 b53a d761 4d3c
00000120: b48f 0a3b d801 54bb ec4a 8d39 d387 76bb
00000130: aa0d 183b d091 5aba 05b0 033d c3b0 d83c
00000140: df4e dfba 7286 54bb 2858 d83b a4ea 013d
00000150: 0060 ce3c d3ca ef3c a5ec 163d ef92 843b
00000160: 7119 133d a72f 8ab7 7763 ed3c 790c d83a
00000170: e83c 93bb 1d6c 6dbb 5128 ed38 7147 c63c
00000180: 5232 093d 181c ef3c 75a2 dfbb 4d62 8ebe
00000190: 122e 1cba c445 e23b 5d10 883a 18dc a7bc
000001a0: e1b2 eb39 7284 b93a fbdf 82ba 3366 c1bd
000001b0: 2ab4 c03c e6bd 183b 111b 903b fc85 e9bd
000001c0: db7f cb3c 6641 943b d3ba a23a d787 13b9
000001d0: 7d54 863b 838f 86be a4ff 5fb9 415c ff3b
000001e0: ceff f43c b7f6 feb9 7255 9f37 cc3b 6d3a
000001f0: dfcc 1bbc 5907 c6b9 af87 a638 c168 f1b9
00000200: 0bbf 4e3b 2320 74bd 8ec0 68bc 97da 01bd
00000210: 4c7d 7bbc 086d d33a c605 f23d 6cc3 b13b
00000220: fb7f 293b 43da d33a d233 4e3b e972 ca3a
00000230: d567 cdba b238 073d a265 85bc eaa0 903a
00000240: 33ef ef3b 2c8d 213d 3bf1 a6bb 1d77 11be
00000250: 53ff c13b 9a14 3bbd 627a eabc 34fb 7cbc
00000260: c77c 92bc d05e 843b 588d 82bc d8dc 82bc
00000270: 4245 42bb fbf8 693b 3539 4fbb 961b dcbd
00000280: f769 7dbc a2a6 1d3b 3a2f 1ebc b8aa b2bd
00000290: 7679 eb3b dfda d13b 965c 78ba 379c 96bb
000002a0: eee2 07ba cd15 2fbc 4367 63bb 3935 d9bb
000002b0: 463b 963d 16a5 dcbd c57c 523b c99d 9d3b
000002c0: f74d a9bc 6b8d 823b e880 9e3a 64cd 74bc
000002d0: 4fec d93b ee84 d73a 681a 06ba c572 18ba
000002e0: f975 7f3a b1a4 913b 16ed 8d3a 2455 d43b
000002f0: c112 2a3b fd10 efbd 82ae 8a3c 2575 8a3c
00000300: d824 43bb 570f 94bb a3e3 1f3a 5e37 e6b8
00000310: 71eb 6fbc 284b c0ba f4af 503b db86 b43c
00000320: 16ee 4c3b d345 a4bb bd54 cc3a d4f8 86bb
00000330: 5812 153b 6826 403b 72f0 88bc 6a2c a7bb
00000340: 60e2 8db9 6344 a4ba 718e e93b 956e 55bc
00000350: 0ec1 06bc a130 73bc ab40 0d3d f5f8 843b
00000360: e105 69bc 34df a7ba b4a9 53bc f305 9a3b
00000370: f590 c0bb 852a 30bb 4d22 533a 2d02 16bb
00000380: 80f9 c63b 5890 02bc e887 8fbd 06e0 053d
00000390: 02c0 ae3a 6172 4e3c 0fc0 8c3a f1b3 3bbc
000003a0: ba92 263b 41b4 a0ba e181 9c3a f944 1cbd
000003b0: ed9c 1abc f5b4 0f3a 675d b83b b379 6f3d
000003c0: bf07 11be 3446 d83b 6925 7b3b 5e22 583b
000003d0: be7b 8e3b 0335 9cba a0a5 a13a 22ac 113c
000003e0: 9e8d 89bc 6b3e 7ebb 7f1f 403b af71 833b
000003f0: f256 c0bd a2e8 1d3b 0b1d 48ba e2a2 1cb9
0.0030047751 0.033499464 0.025371993 -0.00066617376 0.03873806 -0.0003969254 0.015523472 0.0037358543
8.938217e-05 -0.00035950955 5.2489733e-05 0.0005489614 -0.0014664353 0.086189754 0.034705993 0.007261971
0.006535216 0.018062538 -0.0005579076 0.060560685 0.051380444 -0.2396721 0.013172527 0.029420909
0.03126807 0.000736658 0.029986737 0.0435777 -0.003933117 0.0055445684 -0.03896448 0.026384784
0.028821142 0.0013854036 0.038095348 -0.021683635 0.0059645544 0.0036006584 -0.002325508 -0.0036163363
-0.000961735 0.024295557 -0.00055659964 -0.02908633 -0.21160904 0.08763845 0.00045334428 0.0022321662
0.032159995 0.00051775604 0.0014321291 0.02984852 0.0050056935 0.0087242 0.0007484131 0.002678709
0.000725063 0.005615265 0.0018750263 0.008670555 0.00034242633 0.005214152 0.02570158 0.01996909
-0.003513292 -0.0021521323 0.04938937 0.00027515646 0.036241252 0.0008054901 0.0013878277 0.012535534
0.0021142783 -0.0032349732 0.00026949437 -0.0037617579 0.0023201504 -0.0008337768 0.032150287 0.026451474
-0.0017037055 -0.0032428768 0.006602306 0.03171791 0.02519226 0.029271519 0.036846776 0.004045836
0.035912935 -1.6473072e-05 0.028978093 0.0016483209 -0.0044933446 -0.003622777 0.0001130855 0.024203988
0.033495255 0.0291882 -0.0068247863 -0.27809373 -0.0005957793 0.0069052894 0.0010380853 -0.020490691
0.00044955968 0.0014153852 -0.0009984964 -0.09443321 0.023523409 0.0023306548 0.004397758 -0.114025086
0.02484124 0.0045243977 0.0012415297 -0.00014069617 0.0040994273 -0.26281366 -0.00021362171 0.00779298
0.029907133 -0.00048630472 1.8994066e-05 0.0009049743 -0.009509294 -0.00037770977 7.94077e-05 -0.0004604515
0.0031546976 -0.05960096 -0.014206065 -0.031702604 -0.015349697 0.0016130516 0.118175074 0.0054249074
0.0025863636 0.001616307 0.0031463993 0.0015445623 -0.0015671203 0.033013053 -0.016283814 0.0011034284
0.007322216 0.039441273 -0.005094675 -0.14205594 0.0059203296 -0.045673944 -0.02862281 -0.015440751
-0.017881764 0.004039623 -0.015936539 -0.015974447 -0.0029643332 0.0035701382 -0.0031619791 -0.10747449
-0.0154671585 0.002405562 -0.009654814 -0.08723968 0.00718611 0.0064042653 -0.00094742456 -0.004596259
-0.00051836565 -0.01068635 -0.0034699 -0.006628659 0.07335524 -0.10773675 0.0032117825 0.004810069
-0.02066706 0.0039841435 0.001209286 -0.014941547 0.0066504846 0.0016442814 -0.0005115629 -0.0005815442
0.00097450573 0.0044446816 0.0010828103 0.006479876 0.002595112 -0.11673162 0.016928915 0.016901562
-0.00297766 -0.00451843 0.0006099289 -0.000109775676 -0.014643536 -0.0014670836 0.0031843157 0.02203696
0.003126984 -0.0050132065 0.0015589219 -0.004119018 0.002274653 0.0029319767 -0.016716216 -0.00510173
-0.00027062278 -0.0012532588 0.007127576 -0.013026853 -0.008224739 -0.014843137 0.0344855 0.0040579983
-0.014222593 -0.0012807609 -0.012918878 0.0047004162 -0.005876655 -0.0026880812 0.00080541224 -0.002288948
0.006072223 -0.007968985 -0.07008344 0.03268435 0.0013332369 0.012600512 0.001073839 -0.011456476
0.0025417046 -0.0012260751 0.0011940562 -0.038151715 -0.009436828 0.0005481982 0.005626369 0.05846567
-0.14163111 0.0066001657 0.0038321859 0.0032979469 0.0043482473 -0.0011917654 0.0012332685 0.008891137
-0.016791161 -0.0038794528 0.0029315648 0.004011355 -0.093915835 0.0024094959 -0.0007633722 -0.00014937998

network_body.linear_encoder.seq_layers.0.bias f4 [128]
00000000: be80 b43d 5559 723d 209b 5ebd 267b 32be
00000010: 7e41 22be 7fb4 1e3d c28d 25bc 36e5 893d
00000020: 7cb2 e43c 7d0f 12be f369 15be a514 04be
00000030: 7f47 ce3d 4079 2abd 9e52 20be fb89 cebd
00000040: 4e4b 21bd af9c fabd 189a b1bb 5a39 76bd
00000050: 4dc2 06be 5ceb 99bd dfbe b33c 7d76 31be
00000060: 4148 57be 418c 2abe 4d09 fcbd df3c 36bd
00000070: 4bde c6bd c633 3abe a680 38be dcfb 203e
00000080: 12fe 11bd 0225 82be da4c 58be 8039 21bd
00000090: 6689 85bd b3c1 38be 03a5 fcbd 81ff d23c
000000a0: ce11 15be 8a3f b33d 0645 0dbe f41e e23d
000000b0: 0ae0 e8bd a082 a0bb 8125 1fbe 7127 b13d
000000c0: 2123 61b9 989c 45bd 3d39 85bc 278d 4dbe
000000d0: f108 bbbd 56e8 6b3d c3a7 eb3d 0316 7a3d
000000e0: 0385 603b 43a2 34be cf40 20be f902 24be
000000f0: 3f06 2bbe fe22 393c 68c0 93bd ecf0 d3bd
00000100: 2643 cdbd fc07 3dbe 43e9 31be 4c83 183e
00000110: ad9a 933d dcab 21be 4b73 76bd 5563 bebe
00000120: 27d8 b13d 83ec 7abe 2bd2 96bd 237a eebd
00000130: 5aa0 cfbd eafd 3ebe 57b8 e73b 0d98 83be
00000140: a47a 35be 2598 4fbd b072 993b f29c fbbd
00000150: 7f11 88be 24f7 fe3c b2cc 9abd bdca e13d
00000160: 6849 1cbe 8340 75bc 3feb 2c3d fa05 be3a
00000170: e642 fb3b eba5 19bd 1f8a 6fbe 9c34 28bd
00000180: 5543 c7bd f8e2 87be 8eef f1bd 73f3 d1bd
00000190: 90ea 1dbe 9981 4b3b 839f ecbd 9a16 023c
000001a0: d6e9 37be e9ff 5ebc f291 bd3d 0063 53be
000001b0: 1c5d d6bd 8aec 833d 5026 8abe 07e6 14be
000001c0: 2368 43be 23b5 1ebd 61c9 2fbe 59ed 9abd
000001d0: 659a 09be 61b4 88be 88d1 a9bd d881 883d
000001e0: 5eb4 013e 70b7 e3bd 0fba fcbd 5b3d 71be
000001f0: 6e96 84be 3dfd d0bd 0637 9f3c 9177 26be
0.08813618 0.059167225 -0.054347157 -0.1742979 -0.15845296 0.038746353 -0.0101045985 0.06733172
0.02791714 -0.14263721 -0.14591198 -0.128985 0.100722305 -0.04161954 -0.15656516 -0.100849114
-0.039378457 -0.12236916 -0.0054199807 -0.06011329 -0.13160057 -0.07515594 0.0219416 -0.17330356
-0.21023656 -0.16655065 -0.123064615 -0.044491645 -0.09710368 -0.18183812 -0.18017825 0.15721077
-0.03564269 -0.2541886 -0.21123067 -0.039361477 -0.06520347 -0.1804264 -0.12336161 0.0257566
-0.14557573 0.087523535 -0.13795862 0.1104106 -0.11370857 -0.004898384 -0.1554165 0.08650101
-0.00021470759 -0.048245043 -0.016262645 -0.20073377 -0.09132565 0.05759462 0.115066074 0.06105615
0.0034258969 -0.17640023 -0.15649723 -0.16016759 -0.16701601 0.011299847 -0.07214433 -0.103486866
-0.10022573 -0.18460077 -0.17374139 0.14893836 0.072072364 -0.15788215 -0.060168546 -0.3718516
0.08683806 -0.24504285 -0.07364305 -0.116443895 -0.101380065 -0.18651548 0.0070715356 -0.25701943
-0.17722565 -0.050682206 0.0046828613 -0.12285794 -0.26575848 0.031123705 -0.07558574 0.110249974
-0.15262377 -0.014968994 0.042216536 0.0014497631 0.007667887 -0.037511747 -0.23392533 -0.041065797
-0.097296394 -0.2654035 -0.118132696 -0.102515124 -0.1542151 0.0031052588 -0.11553862 0.007939959
-0.17960295 -0.013610818 0.092563525 -0.20643234 -0.10466978 0.064416006 -0.26982355 -0.14540873
-0.19082694 -0.038746964 -0.17166664 -0.07564802 -0.13437803 -0.26700118 -0.08291918 0.06665391
0.12666461 -0.11118972 -0.12340175 -0.23558562 -0.2589602 -0.10204551 0.019435417 -0.16256548

network_body.linear_encoder.seq_layers.0.weight f4 [128, 4]
00000000: 3667 493f 30bd 44bf 295d b7bc cf2e 1b3d
00000010: f693 07bd ecd0 923f 1973 7cbf 4ae5 2cbf
00000020: f085 2fbf 4a38 d13d a3ce 0fbf ddea 7fbe
00000030: fbdf 2a3f 07c7 7cbf 2660 6abf d0aa 49bd
00000040: e16a 9abe 2a4a 01bf e88f a23e 30e7 d53e
00000050: ffc4 a1bc c2c0 22be a38f 153f a376 7c3e
00000060: 1ef4 163e 8a2b adbe 1fba 2dbb c776 f0bb
00000070: 415e d03e 81bd 8b3e 898f 67bc 5a68 663c
00000080: d95e aebd e37b f2be 71ca edbe 4c43 0cbd
00000090: e9f8 44bf 80cd 08bd 9db4 263e a148 2fbf
000000a0: 3ec2 e03e 3644 683e 3bfe 183f b9c6 1b3f
000000b0: df63 efbe 0433 f93d 2e13 d7be 704e 053f
000000c0: 8a6a e33e 253c 743e c428 a6be 55c5 433e
000000d0: 6c36 5cbd c60a 573e 629d 5dbe ece3 03be
000000e0: cd17 fcbd 4e38 d03e 7118 bbbe 52d2 b5be
000000f0: a6eb 6ebe 676c 0cbf 6d36 b83d f9d7 afbd
00000100: 8068 11bd 33fa 313f cc25 8f3e ea98 1c3e
00000110: d00b 01be 528a 103f fc90 a73d 7e59 033e
00000120: 5cc7 203e c111 923d 3e4b a73d 6e9e d43d
00000130: 9b7e 7bbe 83f9 66be 0fd6 13bd 56a0 d33f
00000140: 9178 8bbe 5439 36bf ee73 233f 5f6b febd
00000150: e0a9 33bf f76c 7dbe 5d9a fabc caa9 8ebe
00000160: c012 2bbf 2bfc c3be 9d76 2b3c 4b73 823a
00000170: 514a 12be b24c 2abf f64d e7be 8d03 ce3d
00000180: d965 7fbf 1d88 59bd 8f19 55be cf66 4b3f
00000190: bb8f 3abe 2780 bb3d 284c 9dbc 6d82 ccbd
000001a0: 3a18 443f 5fd2 333f f973 c03e a549 e63e
000001b0: e802 373f 060e 2f3e 90a5 ea3c 97a6 403d
000001c0: 783a 353d 0fa2 723f fadd 4c3f 5174 1dbe
000001d0: 3a46 a3be 273b 37bf a22a 133e 6a11 3fbf
000001e0: b7b0 89bf 69bc 12bf cf1e da3e fcec ee3e
000001f0: c7f3 6d3f d351 833e 35b1 5fbe 2d3d 98bd
00000200: 428a b23e 535c 293f 7e14 f9bd 287b 29be
00000210: dbb4 7bbb 9c4d e2bf 3c31 11be 744d 5dbd
00000220: f0f0 95bd f211 f7bd 19c2 2f3f 8ef2 22bf
00000230: 732d d43e d775 3cbe 746f 79be cf3b 99be
00000240: fcf0 83be 640d 823e 1475 6d3e 4d87 f13e
00000250: 9f9b b93e e7cb d4be d115 27bf 2073 a3be
00000260: ebe2 03bd 8f88 863d 6069 3cbe 5bfe bc3e
00000270: 8be1 443f 25fc 08bf 9a36 88bf 339e b53d
00000280: b57a 36be e4c8 b73e 2685 653e b185 003d
00000290: 49eb 3f3f e92a 173e ec37 d8be 089e 8dbe
000002a0: 76b4 2e3e e79d a23e 3e80 11be 3606 243f
000002b0: dd0c ca3e a01b 5fbe 161b d63c 53d2 e23d
000002c0: 51c9 f1bc aa24 c93e be65 4fbe 3a53 babd
000002d0: 1704 263f d2c3 873f 5cd5 14bf b7bc b63e
000002e0: 7a18 45bf 926c 203d 5096 2c3e 560c 473d
000002f0: 6d6f bc3e 88a6 e43e 7b7b 7cbc feb9 c2bd
00000300: 71cf 89be 61a7 a7bd 73d9 283e a887 6e3e
00000310: d15d 02be 09fb aa3d 1641 d8bd a0c8 7dbd
00000320: d35a 89be eecf ae3e c274 bbbc 34db a5bb
00000330: edac d53e 8e27 3abf e33c a33c 26a6 01bf
00000340: 4786 19bf 054c 02be c385 4d3d cd25 7fbe
00000350: 3698 1e3e 4338 26bf 4195 efbd d4d6 e3bd
00000360: 8aa7 5fbe e9fa 0b3f c65b 09bf 7191 36be
00000370: 35ea 80be 8af2 9f3e 42a7 8bbe 0fdc d43d
00000380: c0e4 20bf 5ef2 6dbe dbf8 8fbb 1698 b5bb
00000390: a405 eb3e ff13 f6be 36ef 963e 1183 b23f
000003a0: 5dfe ea3e 7c17 1fbf 0dd0 0ebf af6c 97be
000003b0: 8e95 06bf 4cb8 c3be 0950 eabd 8d2e dbbd
000003c0: 728f 45bf 3704 90bf 3ece 823d 701b 1fbd
000003d0: 13d2 14be 291a 36bc 01b6 0e3d d949 cc3e
000003e0: 86d4 233e 98da 63be 56c4 363f 8dcf ff3d
000003f0: 9012 1a3f ca54 f3be 99ed 353f 0abc 00bf
0.7867311 -0.7685118 -0.02238329 0.037886437 -0.03310009 1.1470008 -0.98613125 -0.6753737
-0.6856375 0.102158144 -0.5617468 -0.24991937 0.6674802 -0.9874119 -0.9155296 -0.049235165
-0.30159667 -0.5050379 0.31750417 0.41777945 -0.019747255 -0.15893844 0.584223 0.24654631
0.14741561 -0.3382228 -0.0026508642 -0.007338378 0.4069691 0.27293018 -0.014133343 0.014062965
-0.085141845 -0.47360143 -0.46443513 -0.034243867 -0.76942307 -0.033399105 0.16279836 -0.684702
0.43898195 0.2268227 0.59762925 0.608501 -0.46755883 0.121679336 -0.4200682 0.5207281
0.4441722 0.23851068 -0.32452977 0.19118245 -0.05376284 0.21000203 -0.21642068 -0.12879914
-0.12309227 0.40667957 -0.36542085 -0.35512024 -0.2333208 -0.5485291 0.08994756 -0.085861154
-0.03550005 0.695224 0.27958524 0.15292707 -0.12602162 0.5646106 0.081819504 0.12827107
0.1570105 0.071322925 0.08168648 0.103817806 -0.24560015 -0.22556119 -0.036092814 1.6533306
-0.27240422 -0.71181226 0.6384877 -0.12422823 -0.70181084 -0.24748598 -0.030591184 -0.27863914
-0.66825485 -0.38278326 0.010465291 0.0009952573 -0.14286162 -0.6652328 -0.45176667 0.10059271
-0.9976478 -0.053108323 -0.20810531 0.7945375 -0.18218891 0.091553025 -0.019201353 -0.09985814
0.76599467 0.70242876 0.3758848 0.4497806 0.7148881 0.17095193 0.0286434 0.047033872
0.044245213 0.9477853 0.8002621 -0.15376402 -0.31889516 -0.71574634 0.14371732 -0.74635947
-1.0757054 -0.5731874 0.4260163 0.4666518 0.929501 0.25648364 -0.21844943 -0.07433543
0.34871107 0.661565 -0.12162112 -0.16550887 -0.0038407359 -1.7679935 -0.14178938 -0.054028943
-0.07321346 -0.1206397 0.68655545 -0.6365136 0.41440925 -0.18404327 -0.24358922 -0.29928443
-0.25769794 0.2540084 0.23189193 0.4717354 0.36251542 -0.41561815 -0.65267664 -0.3192377
-0.032198828 0.06569015 -0.18399572 0.36912808 0.7690665 -0.5350974 -1.0641663 0.08868065
-0.17820247 0.35895455 0.22414073 0.031377498 0.7496839 0.14762463 -0.42230165 -0.2765963
0.17061028 0.31761095 -0.14209077 0.6407198 0.3946294 -0.21787882 0.026135962 0.110752724
-0.02951494 0.39285785 -0.20253655 -0.090979055 0.6484999 1.0606635 -0.5813806 0.35690853
-0.76990473 0.03916604 0.16854215 0.04859575 0.3680376 0.44658303 -0.015410299 -0.095081314
-0.26916078 -0.08186222 0.164892 0.23293936 -0.127311 0.083486624 -0.10559289 -0.06195891
-0.26827106 0.34143013 -0.022882823 -0.0050615314 0.41733494 -0.72716606 0.019926494 -0.5064415
-0.59970516 -0.12724312 0.050176393 -0.24916764 0.15487751 -0.649296 -0.1169839 -0.111249596
-0.21841255 0.54679734 -0.5365566 -0.17828919 -0.25178686 0.3123973 -0.27276045 0.10393535
-0.62849045 -0.23236987 -0.0043936796 -0.0055418117 0.4590274 -0.4806213 0.29479378 1.3946248
0.4589719 -0.6214521 -0.5578621 -0.29575107 -0.5257195 -0.38226545 -0.11441047 -0.10702238
-0.77172005 -1.1251286 0.06386994 -0.038844526 -0.14533262 -0.0111146355 0.03484154 0.3990009
0.1599904 -0.22251356 0.71393335 0.12490759 0.60184574 -0.47525626 0.7106567 -0.50286925

network_body.linear_encoder.seq_layers.2.bias f4 [128]
00000000: 90fd 66bd ecf7 113e 5e50 0bbd 1efa e03d
00000010: fbbd 263d 9816 e1bc ac89 68be ba57 a0bd
00000020: d758 093c 505f 22ba f46a 99bc 9752 493d
00000030: 30fd a9bc e6c2 31be 53a1 f9bc dce4 c6bc
00000040: 3493 e4bb 2edd aabe 2f44 62bd 06e4 503e
00000050: 4ca5 a93d 1924 03be aa03 213e 6af2 b3bd
00000060: 1298 25bd 7b0b 06bc 330b 253d 2b28 0b3e
00000070: 3ff7 7a3a cc26 e8bd f77f ce3b c6be 0d3e
00000080: e94f 19bd ed3d 05bd db19 963d 05c5 a9bc
00000090: c1ba 593d d529 913c a7b5 663b b4b4 7fbc
000000a0: b734 503d 0acf eabd bb66 24bc 7787 e9bd
000000b0: 2600 96be 63d8 813e 1b9a bcbc 2ce2 253c
000000c0: 22a0 b93b 969c aa3c 6993 09bc ce37 18bd
000000d0: 6ffb 9dbc feac a53a 70cf 80bd 9c8e 10be
000000e0: eab1 85bc c723 763b fad0 10bc fe6a 7dbd
000000f0: e16a a2bb 45b4 ae3d 9ea6 fe3d dce1 d73c
00000100: b161 993c d3b5 85bd 455f ce3d 1ff9 0d3d
00000110: 096a f5bc d618 18be 39e1 993b b141 033d
00000120: ce1f 13bd d57e 843d 3ffe 37bd ea0b 193d
00000130: 116e 56bc d333 c7bc 01d2 3b3c 1f70 b1bc
00000140: 32e9 4ebb b7b9 b43c efe5 ffbc da43 c6bd
00000150: a024 c6bd a997 bebc 5304 89bc 1f47 f6bc
00000160: 925c 91bd 5e67 b4bd c313 4a3d 4e2c d4bc
00000170: b577 c43b 8deb cfbd e5c6 42bc aa80 da3c
00000180: a10b b23d a452 223d 6106 1c3d 839a 5abe
00000190: 140c fc3b e3ac 313d 8d94 533c 86c8 55bd
000001a0: f396 c83b 4e0e cdbc 29c1 9abc 3f79 8dbd
000001b0: be82 71bc 7b73 04be f796 c8bc 5bfb aebe
000001c0: 4377 e03c 9815 b3bc 3abd 053d c938 473d
000001d0: 5c0f 513b ed16 3dbe 86ce 01bd b66a ccbd
000001e0: cf5c e4bc f76f 5abd 695e fe3c 4054 a3bc
000001f0: fb3b b4bb 241a 3d3d 2bc3 14bd 2073 56bd
-0.05639416 0.14254731 -0.03401219 0.10985206 0.040708523 -0.027476594 -0.22708768 -0.078292325
0.0083829975 -0.0006194012 -0.018727757 0.04915103 -0.020750612 -0.17359504 -0.030472433 -0.02427905
-0.006975556 -0.33371872 -0.055240806 0.20399484 0.08283481 -0.12806739 0.15724054 -0.08786471
-0.04042823 -0.008181448 0.040293884 0.13589542 0.00095735857 -0.11335525 0.0063018757 0.13842306
-0.037429724 -0.03252976 0.0732915 -0.020723829 0.053156618 0.017720142 0.0035203488 -0.015607048
0.050831523 -0.11465271 -0.0100342585 -0.11402791 -0.29296988 0.25360402 -0.023022702 0.010124724
0.0056648413 0.02082662 -0.008396962 -0.037162594 -0.019284932 0.0012640057 -0.062895656 -0.14116901
-0.016320188 0.0037557946 -0.008838886 -0.061869614 -0.0049565886 0.085304774 0.124341235 0.026352815
0.01872334 -0.06528821 0.10076765 0.03466141 -0.029957788 -0.14853224 0.004696038 0.03204507
-0.035919003 0.06469504 -0.044920202 0.037364878 -0.013087765 -0.024316704 0.011463643 -0.021659909
-0.00315721 0.022061212 -0.03123757 -0.096809104 -0.096749544 -0.023265677 -0.016725695 -0.03006321
-0.070977345 -0.08808778 0.049335252 -0.025900032 0.0059957155 -0.101523496 -0.01188824 0.02667268
0.08693624 0.039629593 0.03809202 -0.21348004 0.0076918695 0.04337777 0.012913835 -0.052193187
0.00612151 -0.025031235 -0.018890934 -0.069078915 -0.014740644 -0.12934677 -0.024486048 -0.34176144
0.027400618 -0.021860883 0.032651164 0.04863814 0.0031900024 -0.18465777 -0.031691097 -0.09981291
-0.027876286 -0.053329434 0.031050878 -0.019937634 -0.0055003143 0.046167508 -0.03631894 -0.052355886

network_body.linear_encoder.seq_layers.2.weight f4 [128, 128]
00000000: 0ce7 853d 4ba0 a53b 9333 4dbd d098 7ebc
00000010: b188 09bd 1314 c03c 9dd0 23be df1e f2bc
00000020: 435f a8bd b21b 74bd 7c2d f03d 6bda 973d
00000030: a05d e33d 7022 37bb f18f 02bc 0c9f 033e
00000040: 4b6c 0cbe 51af 42be 2608 cbbd a6e2 e9bd
00000050: 072a edbd f6a9 c0bd 9efd 9fbc 29aa 7c3d
00000060: 62d4 233d fce0 76bd b899 70bc f40c b53d
00000070: d24e 4abd cc2a de3d d417 27be 64ae 39bd
00000080: a209 a9bd dcc9 46be 5430 873c fdec 223c
00000090: bd42 cabc a943 37bd a594 293d 7c4b 733e
000000a0: 7710 8dbd 6891 dfbc a6de a13d 8676 21be
000000b0: 9dc5 033e d675 3bbe d04b 74bd 87b9 37bd
000000c0: fe05 59bd aadc 5abe f71d 313e 6bec ad3d
000000d0: 2889 a0bd a37f 843c 627b bebc 662b b1bc
000000e0: b3c0 953d a35b 073d d65d d53b b02f a2bc
000000f0: 5af5 943d 3cde 5abd b09e 143c b6f4 11bd
00000100: 547e fabc 855c b03c 6bfe c23d 6aff 333d
00000110: d1f7 553e b4d5 27bc e4a9 62bd bc16 9cbd
00000120: c7a1 8f3d f1da 173e 61b4 e5bd 9924 3abd
00000130: 80a3 9e3d a367 c9bd c3b3 22bd 9fce cd3d
00000140: 999c ae3d 781a fc3c ae47 afbd 029c 23be
00000150: a4a9 b5bc 67e6 09be 329d 4fbd c84b ed3c
00000160: b17c 18bd faf3 283e f389 023d c46b 443e
00000170: 9af5 30bc 92d2 4abd 4e9e 6c3d e559 46bd
00000180: 5b35 49bc e998 c73d 7cf7 87bd 810f 94bd
00000190: 348d 963d 1529 703d 1f6e 4bbd 2716 823c
000001a0: 52d7 0e3d e046 f03c 487a 1c3e 9509 fc3d
000001b0: fed8 8dbb 7cb7 4f3d 82cf e73c 06b2 b1bd
000001c0: 82f2 373e 45dc e43d e033 0e3d e567 6fbd
000001d0: 2e12 583d a12f fd3b d6a6 da3d fa85 aa3c
000001e0: ace0 2b3c c835 94bd 8036 953e b358 53bd
000001f0: e085 1bbc 6560 4c3c 702c 0bbe f14c 4abe
00000200: 0443 653e dcec 6a3e 202d a8bd 77c4 80bd
00000210: bb6e 0abe b361 dcbd 14a0 36bd 9988 b63d
00000220: 98ed a2bc 7e4a a2bd 90e4 8fbe 5063 adbd
00000230: 0ed3 d9bc bcfe 44bd 4cf2 debd 9207 14be
00000240: 5cc5 cabd 7655 eebd 48da 9d3d ea6d 75be
00000250: 8f4b 40bd f84b 00bc 61ff 32bc a5b7 06bd
00000260: e9e4 fbbd 66a6 a5bd e830 27be b22e 28bc
00000270: 65aa 75be e4e3 03be 608b 2dbe a444 6b3d
00000280: 6035 433b f82c 133e 1f7f 9bbe d5a6 053e
00000290: 1948 bdbd 57ff e6bd d9e9 9fbe f87a 2abd
000002a0: 4323 1cbe 22c3 e53d f479 e1bd 1926 0f3c
000002b0: 1a9d 053d 954d 62bd 1266 0dbe 340c 10bd
000002c0: e493 15bd 4948 a0bc 7d8f a9bd 4b71 3fbe
000002d0: 2e3c 96bd 5a78 843d d5b2 133e 77a1 9b3c
000002e0: b06b 89bc 7334 3ebe a59c 77bc 203c b03b
000002f0: de6f 283d d42b 213c 1140 9dbe e2dd 19be
00000300: 5d57 9fbe 16af 03be 0a7e c73b 5e8f 683e
00000310: d84b 5a3d 9312 40be 55b2 e0bd 8869 87bd
00000320: 7bd2 dd3d a300 773c 652f edbd 45a6 86be
00000330: f2e3 f8bd 95fd 08be 478d 15bd 6d96 52be
00000340: ae81 febd c0dd 183d f4e2 cabd 47c2 ca3d
00000350: 33e5 cbbe 2b6c 323d 5230 56bd 9d2c a03e
00000360: 2321 48be 8d64 0c3d 814d b23d 1dbc 2dbd
00000370: 3bfa e13c 9bc0 14be d872 53be 9038 83ba
00000380: 66d6 58bd 818e 6cbe 6ab7 5bbe 1d14 7bbe
00000390: 0ceb 6b3d 36ef 583d 7395 53bd 269a f03c
000003a0: e359 acbd 4b81 15be 5c15 f63d 0bdb 8dbd
000003b0: 6496 82bd 2a74 8e3d 2ea1 02be 654d e1bc
000003c0: ab61 e6bd baf7 06be fdad 6ebe a476 413e
000003d0: 5039 a4bd bc16 26be 53b7 24be e220 f0bd
000003e0: fcd4 7a3e a86a b7bd 9eee 8cbd a878 833d
000003f0: 1e8e acbd c874 0bbc 7b2a df3d c415 5ebd
0.06538209 0.005054509 -0.050098013 -0.015539363 -0.033577625 0.023447072 -0.15997548 -0.029555736
-0.08221295 -0.059596725 0.117274255 0.07414707 0.11101842 -0.002794411 -0.007968889 0.1285364
-0.13713185 -0.1901219 -0.099136636 -0.11420183 -0.11580282 -0.094074175 -0.019530114 0.061685715
0.039997466 -0.060273156 -0.014685087 0.08840361 -0.049391575 0.108480066 -0.16317683 -0.045332327
-0.082537904 -0.1941294 0.016502537 0.009944198 -0.024690026 -0.04474226 0.041401524 0.23759264
-0.06887906 -0.027291015 0.07903795 -0.1576787 0.12868352 -0.1830667 -0.059642613 -0.044854667
-0.05298423 -0.21373239 0.17296587 0.08492359 -0.078386605 0.016174143 -0.023252193 -0.02162714
0.07312145 0.033046376 0.0065114303 -0.01979813 0.072733596 -0.053434595 0.009071037 -0.035633765
-0.030577816 0.021528492 0.095211826 0.043944754 0.20895316 -0.010243822 -0.0553378 -0.07621524
0.070132785 0.14829613 -0.11216045 -0.04544506 0.07746029 -0.0983422 -0.039722215 0.100491755
0.085259624 0.03077434 -0.08558594 -0.15977481 -0.022175618 -0.13466798 -0.050687023 0.0289668
-0.03722829 0.1649932 0.03186984 0.19181734 -0.0108007435 -0.04951722 0.05776816 -0.048425574
-0.012280787 0.09745962 -0.06639001 -0.0722952 0.07351151 0.05863293 -0.049665567 0.015879704
0.034873314 0.02933067 0.15281022 0.12306515 -0.004328846 0.050712094 0.02829719 -0.086765334
0.17963603 0.111748256 0.03471744 -0.05844869 0.052751713 0.007726625 0.10676353 0.020815838
0.010490578 -0.072368205 0.29143143 -0.051598262 -0.0094923675 0.012474154 -0.1359117 -0.19755913
0.22388846 0.22941917 -0.08211732 -0.06287473 -0.13518803 -0.10760822 -0.044586256 0.08912773
-0.019888684 -0.079243645 -0.28104067 -0.08466208 -0.026589897 -0.048094496 -0.10886058 -0.14456013
-0.099009246 -0.11637394 0.077076495 -0.2396771 -0.04694706 -0.007830612 -0.010925145 -0.03288998
-0.122995205 -0.080883786 -0.1632725 -0.010265039 -0.23990782 -0.12879902 -0.16947699 0.057438508
0.0029786453 0.14372623 -0.30370423 0.13051923 -0.09242267 -0.11279171 -0.312331 -0.04162118
-0.15247826 0.11218859 -0.11009589 0.0087371105 0.032620527 -0.05524977 -0.13808468 -0.035167888
-0.036517993 -0.019565718 -0.08279321 -0.18695562 -0.07335697 0.06468268 0.14423688 0.01899789
-0.016774982 -0.18574695 -0.015113031 0.005378261 0.04112231 0.00983711 -0.3071294 -0.15026048
-0.3112134 -0.12859759 0.006088023 0.2271094 0.053294986 -0.18757086 -0.10971514 -0.06611925
0.108311616 0.015075835 -0.115813054 -0.2629873 -0.12152852 -0.13377984 -0.036511686 -0.20565195
-0.12427078 0.037320852 -0.09906569 0.09900337 -0.39823303 0.04356019 -0.052292176 0.31284037
-0.1954389 0.03427558 0.08706189 -0.042415727 0.02758514 -0.14526598 -0.20649278 -0.0010011364
-0.05293884 -0.23101236 -0.21456686 -0.24519391 0.057597205 0.052962504 -0.051656198 0.029370379
-0.08415582 -0.14600103 0.12015793 -0.06926545 -0.06376341 0.0695575 -0.12756798 -0.027502725
-0.112490974 -0.13180438 -0.23308559 0.18892914 -0.08018744 -0.1621961 -0.16085558 -0.11725022
0.2449531 -0.0895589 -0.0688145 0.06419498 -0.08425544 -0.00851173 0.108967744 -0.054219976

network_body.vector_processors.0.normalizer.running_mean f4 [4]
00000000: a3e0 1e41 f346 5140 e079 7dc0 29d3 2f3f
9.929843 3.2699554 -3.9605637 0.6868158
