ml-agents-master/ml-agents/config/results/ppo/LineCreator/LineCreator-164484.pt (torch, 434231 bytes, 40 tensors)

network_body.vector_processors.0.normalizer.running_mean f4 [4]
000000 cd 82 1e 40 81 47 d6 bd c7 f8 1d c1 ce 98 6e 3f
       2.4767334 -0.10462857 -9.873237 0.9320191

network_body.vector_processors.0.normalizer.running_variance f4 [4]
000000 30 f4 a7 4a 4a 99 a9 49 6d 68 3b 49 76 ca b0 49
       5.503512e+06 1.3893532e+06 767622.8 1.4482708e+06

network_body.linear_encoder.seq_layers.0.weight f4 [128, 4]
000000 fc 5e 1c 3e d9 ff 12 be ed 7d 66 3f 35 ad 83 3f
       0.15270609 -0.1435541 0.900359 1.0287234
000010 68 9f 06 bf 1f ac db bc fc b1 38 3f 30 e6 07 3e
       -0.52586985 -0.026815472 0.7214658 0.13271403
000020 65 ec 29 be c8 c7 f4 be 3e dc 88 bd 73 db 1d 3e
       -0.16594084 -0.4780867 -0.06682633 0.15415744
000030 2a 3f fa 3d 6b 8b 91 be 05 1d 92 be df af 82 bc
       0.12219079 -0.2842668 -0.28537765 -0.015953002
000040 a8 c3 96 bd 2e 01 b0 be a5 47 1b be 80 18 57 be
       -0.07361537 -0.343759 -0.15164049 -0.2100544
000050 b3 d1 25 be fb dd 01 3e bc 3b 06 3f 0d 57 a7 be
       -0.16193275 0.12682335 0.524349 -0.32683602
000060 d2 ef 97 be e9 f7 b9 be bf 8b 9f 3d 8f 6e c8 be
       -0.29675156 -0.36321953 0.07790326 -0.3914685
000070 36 d1 c3 bc af 87 51 3f 38 23 27 bf 9c e6 6d be
       -0.02390347 0.8184766 -0.65288115 -0.23232502
000080 85 c7 86 bd 24 73 91 3e a9 f5 10 3e db 01 0b bd
       -0.06581024 0.28408158 0.14156212 -0.033937316
000090 b5 eb 32 3e 87 94 4b 3f ce 84 1c 3d 8e a7 d1 3d
       0.17472728 0.7952351 0.03821259 0.10237037
0000a0 08 3b c1 3e 5f c7 09 bf 51 e1 d2 bf 2c ef b7 be
       0.3774035 -0.5381984 -1.6475011 -0.3592466
0000b0 80 68 f7 bc 62 e1 70 bf 5a 36 b7 3d 0d 7e 8c 3e
       -0.030201197 -0.94093907 0.089459136 0.2743992
0000c0 17 fd b2 3e 0b 79 28 be 70 05 19 bf b7 fe 46 3e
       0.34958717 -0.16452424 -0.5977392 0.19433104
0000d0 9a d8 79 3e 8b 01 01 3f 03 1b 87 3e 0a e5 d9 bd
       0.24399033 0.5039298 0.26387796 -0.10639389
0000e0 42 cf f2 3d 63 b3 f2 bd 03 cb 73 3e 0c cc 35 3e
       0.118559375 -0.118506216 0.23807912 0.17753619
0000f0 c1 f5 86 be 3f c4 4d bf 94 4b 95 3e 24 fa 05 bf
       -0.2635937 -0.8037757 0.29159224 -0.5233481
000100 84 84 30 3f 57 f0 1b bf dd 8c 48 3e 72 a7 55 3f
       0.689522 -0.60913604 0.19584985 0.83458626
000110 c8 53 20 3e b9 03 06 be ea 44 43 3e e2 48 08 be
       0.1565696 -0.13087358 0.19069257 -0.13309053
000120 0e 5e 85 3e a0 86 09 bf ed 0c 43 3f 9e 0e a3 be
       0.2604832 -0.53721046 0.761916 -0.3184709
000130 f1 00 06 3f 1b 4b b2 bc 0a a1 97 3d 5b ab 6e bf
       0.52345186 -0.021764329 0.07403763 -0.9323022
000140 eb a8 09 be 47 dc 3f bf b5 d7 44 be a5 c3 b4 3e
       -0.13443343 -0.7494549 -0.1922291 0.35305515
000150 ca 70 a6 3e ec 8d 09 3f 3e b7 70 3f e4 18 2d 3e
       0.32507926 0.5373218 0.94029605 0.16904026
000160 3e 44 dc bd c2 ee 53 be 92 44 7e bd e4 ee 31 bc
       -0.10755204 -0.20696548 -0.062077112 -0.010860179
000170 29 2a d0 3e 29 d0 86 3f 4c d9 7e 3c b1 4b 27 3e
       0.40657166 1.0532275 0.015554737 0.16337468
000180 7b cd 29 bf 34 14 b1 be 2c 8e e6 be 37 ff c1 3f
       -0.66329163 -0.34585726 -0.45030344 1.515601
000190 7b 48 b5 3e 40 8b 2a 3f 72 1b 0d be 01 86 2f bf
       0.3540686 0.6661873 -0.13780001 -0.6856385
0001a0 1a b7 91 bd 47 46 82 3e da ae d8 bc 10 67 3a 3d
       -0.07115002 0.25444242 -0.026450563 0.045508444
0001b0 21 39 c8 3e 3e 94 fd bd 75 7b fb be 6e 94 16 bf
       0.39106086 -0.123817906 -0.49117628 -0.58820236
0001c0 a8 77 65 bd 79 08 69 3e 00 4a f8 3d 7b b3 60 be
       -0.056022316 0.22757138 0.121234894 -0.21943466
0001d0 62 4f 52 bf 04 66 c0 3d 2f 74 ef be 93 75 75 3d
       -0.8215238 0.09394458 -0.4676833 0.05992658
0001e0 a4 03 2e bf 23 cb a2 3e ee 95 64 bd 81 7d 5f 3a
       -0.67974305 0.31795606 -0.055807047 0.00085254764
0001f0 aa be cc bc 4c d9 c1 bc 06 bd 39 3e 0a 19 81 3d
       -0.02499326 -0.023663186 0.18138513 0.06303604
000200 66 7f 12 bf d6 1c ab be 9c 57 25 bd ca 85 4e bd
       -0.57225645 -0.33420438 -0.040366754 -0.05042056
000210 5a 26 58 3e 7e 88 4e 3e 47 59 e3 3e f8 4c 5b bf
       0.2110838 0.20169255 0.4440405 -0.8566432
000220 2b b0 70 bd 34 f5 cc 3e fd 3b b9 3e 0a 05 10 bd
       -0.058761757 0.40030825 0.3617858 -0.035161056
000230 1c a1 26 3f fa 72 81 bf 72 3c 32 be 67 68 df be
       0.65089583 -1.0113213 -0.1740587 -0.4363434
000240 bf 7d 4b 3e f8 0c 09 3f d1 8a 77 3e 4e 69 84 3c
       0.19872187 0.53535414 0.24174048 0.016163494
000250 e8 3d bf 3d 27 4d 78 3e ca b4 cd be 6d 11 18 be
       0.093379796 0.24248181 -0.40176994 -0.14850397
000260 87 9f 47 bb 54 f8 5e 3e b4 b8 67 be 3e 6d 36 3f
       -0.0030460076 0.21774417 -0.22629052 0.7126044
000270 77 d4 6c 3e 9f de e6 3c 2d 77 aa bc 43 13 fc be
       0.23127924 0.028182326 -0.02080878 -0.49233446
000280 6e 0e 86 be 82 f4 fd be a6 56 35 3f 0e 59 ce bd
       -0.26182884 -0.49600607 0.7083534 -0.100755796
000290 c7 85 8e 3e 28 5f 3e 3e de 37 94 3e a5 e0 64 be
       0.2783644 0.18590987 0.28948873 -0.2235132
0002a0 55 46 70 3d 92 b5 77 bd a0 0d cd 3e 03 97 ed 3e
       0.058660824 -0.060475893 0.40049458 0.46404275
0002b0 99 6d 08 3f 02 3d 63 3e 0f c8 20 3f a4 76 81 be
       0.5329223 0.22191241 0.62805265 -0.25285828
0002c0 93 71 c7 be e6 56 96 3e cd 5f ce be 99 1c f7 3c
       -0.38953838 0.29363173 -0.40307465 0.030165004
0002d0 b5 4f ee 3e 76 0f 2e be 11 b8 a8 be ec cd aa be
       0.46545187 -0.16998085 -0.32952932 -0.3336023
0002e0 cc 65 b8 3e 53 a8 af 3e 65 dd 81 3e 46 d3 3f 3f
       0.36015165 0.3430811 0.25364223 0.7493175
0002f0 61 e6 6d bd 2a ac 53 3f 43 7a 63 3e 63 d4 fe bd
       -0.058081035 0.82684577 0.22214608 -0.12442853
000300 83 84 21 3e 5b 43 af 3e f4 db cd 3e 03 9a 54 3f
       0.15773205 0.34231076 0.40206873 0.83047503
000310 ed c9 95 3e fb cd fb 3d 71 2b ca 3e bd d5 d8 be
       0.2925562 0.12295147 0.39486268 -0.4235057
000320 77 63 4e 3f da ae 28 bc 63 47 17 3d a7 74 38 be
       0.8062052 -0.010295594 0.036933314 -0.1801325
000330 2f af 07 be 62 54 8f bd e1 36 6f 3e c3 56 db 3c
       -0.13250421 -0.069985166 0.23360778 0.02677477
000340 bf c7 ba be 09 15 8b 3e 3b 3d 2c bf 45 cc 30 3e
       -0.3648052 0.27164486 -0.6728093 0.17265423
000350 db be 1f bf b1 24 53 3e 63 66 fc 3e 8b f7 ba be
       -0.624006 0.20619465 0.49296865 -0.36516985
000360 ca 99 d1 bc a8 0d fd bd 57 eb c0 bc 41 56 c9 3d
       -0.025586028 -0.1235612 -0.023549719 0.09830905
000370 c7 c7 83 be 5d 09 d7 3e 78 be 0e bf 32 5c 00 3f
       -0.25738356 0.4199933 -0.5575938 0.5014068
000380 21 80 ea 3e ef a9 96 3d 35 a7 2e bf 81 36 16 3f
       0.4580088 0.07356631 -0.6822389 0.58676916
000390 be f9 4f bd df 9d 98 be 50 9c a6 be 06 87 13 3f
       -0.050775282 -0.29807946 -0.32541132 0.57627904
0003a0 2e 23 00 bf 98 8c e9 3e 48 21 20 3f dd 14 43 3f
       -0.5005368 0.45615077 0.62550783 0.7620371
0003b0 e8 dc 83 bf 9d a5 d4 bd 58 18 da 3e 3d fc 07 bf
       -1.030179 -0.10383151 0.42596698 -0.5311926
0003c0 9e 77 19 3e f9 35 03 bd 23 e3 bf bd 39 bf ab 3e
       0.14987037 -0.032033894 -0.09369495 0.3354433
0003d0 ce fb d0 be 09 fc 1b be b0 2e 17 bf 99 67 2d 3f
       -0.40817112 -0.15232863 -0.59055614 0.677362
0003e0 ed 9c a2 bd 06 d3 57 3e f2 1e d2 3e e8 d6 23 be
       -0.079400875 0.21076593 0.41039234 -0.15999949
0003f0 18 04 1b bd b4 3f 1d be 80 97 83 be ac 03 05 3c
       -0.0378457 -0.15356332 -0.25701523 0.008118551

network_body.linear_encoder.seq_layers.0.bias f4 [128]
000000 36 49 1b 3b b0 ab 5e bd 6d db 6c be 56 06 f1 3b
       0.002369476 -0.054362953 -0.2313058 0.0073554916
000010 33 87 19 be a6 40 c0 bc 9d e3 e8 bd 6d 9d 23 be
       -0.1499298 -0.023468327 -0.11371539 -0.15978022
000020 d1 40 e6 bd 1f e5 1e be e2 f0 cf 3d 21 2a da bd
       -0.112428315 -0.1551709 0.101533666 -0.10652567
000030 e9 e6 dc bd f4 7e c1 bd bb ee 05 bb 4a 37 31 bd
       -0.1078623 -0.094480425 -0.0020436484 -0.04326562
000040 18 cd 2c be 77 88 f5 bc 6b 66 34 be 62 65 5d bd
       -0.16875112 -0.029972298 -0.17617194 -0.054051764
000050 45 39 f2 bd 0d 89 07 bd 8f 50 5e bd cf 42 d7 bd
       -0.118273295 -0.033089686 -0.054276045 -0.105107896
000060 a2 cd 0f be aa 11 5e be c3 5a 14 be 94 70 b0 bd
       -0.14043286 -0.21686426 -0.14487748 -0.086152226
000070 5e 09 a1 bd 59 0b 37 be 98 0d 69 be f0 c6 84 3d
       -0.07863115 -0.17875423 -0.22759092 0.06483257
000080 a6 35 34 be b5 78 21 bd 11 1b 29 3c 56 7c a5 bd
       -0.1759859 -0.039421756 0.010321395 -0.08080356
000090 30 82 21 be 8d 31 07 be 0c d6 53 bd a6 bc 50 bd
       -0.15772319 -0.13202496 -0.051717803 -0.05096116
0000a0 4f 30 9b bd 08 e4 7c bd 7c fd a5 bd f0 92 53 bd
       -0.075775735 -0.061740905 -0.08104989 -0.051653802
0000b0 bc cb 1d be 7c 7e 6e bd 76 e9 bd bc 6a 6b 87 bd
       -0.1540975 -0.058226094 -0.023182612 -0.066122845
0000c0 c7 f7 ad 3c f8 1a 0e bc fb bb 45 be 6f 43 4e 3d
       0.021236314 -0.008673422 -0.1930999 0.05035728
0000d0 3c 9a 92 bd c2 76 7c bd b4 79 9e 3c cc 04 30 bd
       -0.07158324 -0.061636694 0.019345142 -0.042973325
0000e0 cc be 49 bd c2 36 03 bd ae 56 d6 bc 24 bc 86 bd
       -0.049254224 -0.032034643 -0.026164379 -0.06578854
0000f0 1c d1 1d be 33 5c 80 bd 14 df d7 bc 8d 72 f0 bd
       -0.154118 -0.062675856 -0.02635149 -0.11740599
000100 55 95 7b bd df f8 71 bc 43 40 a1 bd e5 d0 24 be
       -0.06142171 -0.014768808 -0.07873585 -0.16095312
000110 e7 3b 1a 3b ea c0 6f bd 67 f8 6c 3d b5 50 2e bd
       0.002353424 -0.058533587 0.057854082 -0.042557437
000120 69 a9 f8 bd 50 3a ad bd cd 95 15 be 6b b9 38 bc
       -0.121416874 -0.08458388 -0.14607926 -0.011274676
000130 36 b5 70 be 1b 42 29 bd 97 fe 30 be 27 e5 a5 bd
       -0.23506626 -0.04132281 -0.17284618 -0.08100348
000140 30 21 43 bd 85 36 44 be 33 5f be bd 4f c3 53 bd
       -0.047639072 -0.19161423 -0.092955016 -0.051699933
000150 d5 eb 7c bc 49 f2 47 be 2b 5c e3 bd f8 43 36 bd
       -0.015437086 -0.19526018 -0.11101564 -0.044498414
000160 59 22 f9 3c 42 4f ca 3c e0 f5 05 be dd 43 a8 bd
       0.030411886 0.024695996 -0.13082075 -0.08216069
000170 26 78 9c bc 39 f2 09 be 79 69 c4 bc 98 30 01 bd
       -0.01910026 -0.13471307 -0.023976075 -0.031540483
000180 c6 b7 d5 3d 7e 6e ee bd 95 8c 09 3c 01 bb d5 bd
       0.104354426 -0.116421685 0.008395334 -0.10436059
000190 e7 9e 01 3d a2 38 0f be 0a 16 06 bd 8d 8d 00 be
       0.03164568 -0.13986447 -0.03273586 -0.12553997
0001a0 fc 94 53 bd f2 51 df bc 0a 5d 97 be 81 55 18 be
       -0.051655754 -0.027260754 -0.2956317 -0.14876367
0001b0 c7 4e 26 bd 6f 3f 58 bd 8b 76 fc bd bc 22 a7 bd
       -0.04060247 -0.05279487 -0.12327298 -0.08160922
0001c0 48 37 19 3d 0f e9 2d bc f7 ab 17 bd 0c d1 50 be
       0.037406236 -0.0106146475 -0.037029233 -0.20392245
0001d0 89 be 07 bd b0 47 1d be c2 80 de bd e4 29 b6 bc
       -0.033140693 -0.15359378 -0.10864402 -0.022236772
0001e0 0e 44 3e be 46 c4 25 bd 9c 08 07 bd 01 99 da 3d
       -0.18580648 -0.040470384 -0.032967195 0.106737144
0001f0 96 8a 2e be 5f c6 ce bd cf f8 68 bd 15 03 e3 3c
       -0.17045054 -0.1009643 -0.056877907 0.02771143

network_body.linear_encoder.seq_layers.2.weight f4 [128, 128]
000000 a2 ca 16 bd 61 86 8d 3d bb b8 9d 3d ab ed 86 3d
       -0.03681434 0.06910396 0.0770125 0.065883
000010 f5 a7 3e bd 9d fb 91 bc 4b 1a 49 bc ec a4 d0 3d
       -0.046546895 -0.017820174 -0.012274335 0.10187706
000020 02 3c 13 be 19 94 c0 bd b8 a2 f4 3c f3 25 e7 3b
       -0.1437836 -0.094032474 0.029862747 0.0070540844
000030 56 56 90 3d 3d 03 7b bd 81 72 35 3e 25 66 86 bd
       0.07047717 -0.061282385 0.17719461 -0.06562451
000040 06 76 37 3d d1 4f d9 bd 69 35 a8 bd 32 df 1f bd
       0.04479029 -0.10610927 -0.08213312 -0.039031215
000050 c8 08 f3 bc 34 23 2e 3d 17 2a 22 be 02 47 dd 3c
       -0.029667273 0.04251404 -0.15836369 0.027011398
000060 ff 94 c0 bb 85 38 70 3d c9 ca 0e be 65 82 36 bd
       -0.0058771367 0.05864765 -0.13944544 -0.044557948
000070 70 e1 2d be c2 5c f1 3c c7 79 13 be 24 31 a8 bd
       -0.16980529 0.029463176 -0.14401923 -0.08212498
000080 0a 57 8e bd 6b 7a 44 bb f7 5d 38 bc de 45 7a 3d
       -0.06950195 -0.0029980193 -0.011252872 0.061101787
000090 26 c4 30 bd ab 47 38 bd cf 34 16 3d e3 78 1f be
       -0.04315581 -0.044990223 0.036671456 -0.15573458
0000a0 20 91 10 3e a1 11 ce 3c 64 c7 07 bc 81 3d 86 bd
       0.14117861 0.02515489 -0.0082872845 -0.065547
0000b0 3c 2b 78 bd 3a ea 17 3c df cc f6 bd 1e 52 06 3e
       -0.060588107 0.009272153 -0.12050795 0.13117263
0000c0 50 80 16 3b 70 4c 8c bd 27 0e 08 3d 4c 78 48 3e
       0.0022964664 -0.06850517 0.03321662 0.1957714
0000d0 2e 6e 7b 3d 2d 09 7a bd b5 32 da bd bb 3e 07 be
       0.061384372 -0.061043907 -0.10654203 -0.13207524
0000e0 4a cd bf bd 11 55 1f 3c 84 97 05 bc de 07 6f 3c
       -0.09365328 0.009724871 -0.0081538 0.014589278
0000f0 c7 8d 31 be db 29 4a bc 2a 50 2c 3e c4 64 86 bd
       -0.1733924 -0.012339081 0.16827455 -0.06562188
000100 01 2c 08 3d d7 d1 ad bd 2c 87 80 3d c3 84 06 be
       0.03324509 -0.084872894 0.06275782 -0.13136582
000110 65 23 10 3e 28 37 20 be 96 f7 98 3d c6 27 cc bd
       0.14076002 -0.1564604 0.07469098 -0.09968524
000120 b6 2a 44 3d a8 7d 20 3e fb c1 3e bd fb eb e6 bc
       0.047892295 0.15672934 -0.046571713 -0.028188696
000130 ba 59 6e 3c 77 b8 86 bb fa d3 75 bd 02 95 21 be
       0.01454776 -0.0041113454 -0.06001661 -0.15779498
000140 83 65 b1 3d c0 a8 84 3d a7 35 bb 3d 5d b3 5e 3d
       0.0866194 0.06477499 0.09141093 0.054370273
000150 d6 63 8f 3d 21 c3 af bd 6c da 9d bd 0f f9 65 bd
       0.07001464 -0.0858214 -0.07707676 -0.056145724
000160 31 66 1c be b0 bc 22 be 7c d4 10 bd b9 4e e6 3b
       -0.15273358 -0.15892291 -0.03535889 0.0070284274
000170 8f 20 93 bd 14 70 9c bd f7 14 8b bd fe 4d 99 3d
       -0.071839444 -0.07638565 -0.06791108 0.07485579
000180 ad d5 70 bd fe 2a 8f bd 8f 5a bf 3c 6f 69 f0 3d
       -0.058797527 -0.06990622 0.023358611 0.1173886
000190 e1 fc 94 bd 51 09 ec 3c 27 e9 0a bd b6 69 08 3d
       -0.07274795 0.028813036 -0.033913758 0.03330394
0001a0 f7 95 7b 3d 57 e0 98 3d 7c ef bd bd db 13 32 3e
       0.061422314 0.074646644 -0.09274194 0.17390387
0001b0 39 de 9d bd 85 00 59 bd d5 2c d0 bd 2a e8 0d bd
       -0.07708401 -0.05297901 -0.10164801 -0.034645237
0001c0 06 34 86 3b 0f af f3 bd a9 8d 5f 3d 2e 06 f4 3d
       0.004095557 -0.11898624 0.054578457 0.11915241
0001d0 db 9d 84 3d 00 30 5d bc 9d 99 0f bd 17 70 33 bc
       0.06475421 -0.013500214 -0.035058606 -0.010952017
0001e0 7f 0d e8 3c 29 9a 6b bd d2 af 4d 3c 4f dc a2 ba
       0.028326748 -0.057520065 0.012554126 -0.0012425276
0001f0 56 54 ec 3c 2f 03 ca 3d 76 1c 0d be c1 8f cb 3d
       0.028848808 0.098638885 -0.13780388 0.09939528
000200 cb 6d c9 3b 14 14 44 bd 6e b9 89 3d c4 35 57 3c
       0.0061471215 -0.04787071 0.06724821 0.013135377
000210 59 49 85 bc 33 df ba bd 04 53 8d bd 34 f2 49 bd
       -0.016270326 -0.09124603 -0.069005996 -0.04930325
000220 a2 bd 4e bd 01 f4 d2 bd e3 32 d4 bd 3c c5 d7 bd
       -0.050473817 -0.10300446 -0.10361268 -0.10535666
000230 a7 72 35 3d 77 6b 72 bd 74 6d de bc 31 ef dc 3d
       0.044298794 -0.059184518 -0.0271518 0.1078781
000240 f4 0c 8a bd 45 45 d5 3b 42 eb 80 3d 3b 30 5d bd
       -0.06740752 0.0065085017 0.06294872 -0.054001074
000250 05 f0 95 bd 1c 93 22 3d ef f2 76 bd b3 a8 e6 ba
       -0.07321171 0.039691076 -0.060290273 -0.0017597884
000260 6d 97 b1 3a a7 87 7e bc 13 b6 1c be 03 2e c6 3c
       0.0013549157 -0.015535272 -0.15303831 0.024191862
000270 1e 9b 14 3d 54 92 60 3d 82 b3 18 bc 71 79 b4 3d
       0.036280744 0.05482705 -0.009320142 0.088122256
000280 4f 64 b0 3d 5a f3 16 be 8c 10 f3 bc 6e 24 28 bd
       0.08612882 -0.14741269 -0.029670976 -0.041050367
000290 f6 15 6e 3c 66 d8 bf bd a4 9a e8 3d a1 1e c4 3c
       0.014531603 -0.093674466 0.1135762 0.023940386
0002a0 d2 74 89 bd f4 6c 6d bd 01 9a 50 3d 7f 30 7e 3d
       -0.06711735 -0.057965234 0.05092812 0.06205797
0002b0 f7 9c 1b 3e 8d f1 40 3d 88 55 97 bd 54 da 3d bb
       0.15196596 0.04710536 -0.07389361 -0.0028969245
0002c0 b2 72 a7 bd df 43 01 3e 01 eb 66 bd 2c 8f 90 bd
       -0.08176173 0.12623547 -0.05637646 -0.07058558
0002d0 af 2e ef 3c 95 ac 7c bd d6 e0 cd bd 0f 9c d7 3b
       0.029197065 -0.061688025 -0.1005265 0.006579883
0002e0 22 aa cb bd c2 e4 11 be 46 24 40 bc 25 e2 d8 bc
       -0.0994456 -0.1424742 -0.011727398 -0.026475022
0002f0 0b 4a 48 be 99 7d 90 bd 54 8a a5 3d c5 8b e0 bd
       -0.19559495 -0.07055206 0.080830246 -0.10964159
000300 de eb 08 be d1 31 c5 bc 4a 6c 5d 3d 32 32 e5 bd
       -0.13371226 -0.024071606 0.05405835 -0.111912146
000310 71 89 a8 3d 0a 5c 23 be 4a 11 5e bd aa 81 53 3d
       0.0822934 -0.15953079 -0.054215707 0.05163733
000320 58 79 9c 3d f9 6f 66 bc 4e f5 63 bd 97 8a 9b 3c
       0.07640332 -0.014064782 -0.055653863 0.018986983
000330 f6 09 36 3e 9f 43 25 be 00 8e fe bd 8c b0 98 bd
       0.17777237 -0.16139077 -0.12429428 -0.07455549
000340 14 eb 67 3d fc 17 23 3d 13 e2 b4 bd 1e e1 c4 3b
       0.056620672 0.039817795 -0.08832183 0.0060082814
000350 50 8f bd bc e6 73 7d bc 39 6a 3e 3e 2c 4b 2b be
       -0.023139626 -0.015469527 0.18595208 -0.16727895
000360 d3 d2 58 3d 4c a6 e8 bd 10 25 d9 3d 8e 0f 81 bc
       0.052935433 -0.113598436 0.10602772 -0.015754487
000370 d1 78 f3 3d 6c 00 09 3c 04 05 ad 3c 8c 32 0b be
       0.11888278 0.008361917 0.021120556 -0.13593501
000380 72 6f 8f bd 6a 42 c3 bd d1 da 26 be 97 0d 52 3c
       -0.070036784 -0.09534152 -0.1629441 0.012820623
000390 fd dd 8a 3d 04 23 03 bd 7d fc 1f bc 1f f7 d8 3d
       0.06780622 -0.032015815 -0.009764788 0.105940096
0003a0 43 0f 7a be 94 2d 54 3d 5f 6d 24 be 0f e2 a6 bd
       -0.24419884 0.05180128 -0.16057347 -0.08148586
0003b0 06 7d 00 3d 4c 79 ec 3d 47 5f 7d bd b4 bf 2b 3d
       0.03136923 0.11546573 -0.06185844 0.04193087
0003c0 9d e7 5b bd 7c c8 2d bd d6 e5 8d bd 69 98 48 3d
       -0.05368768 -0.042427525 -0.06928603 0.048973475
0003d0 c6 11 b3 bc 74 dd 25 be da e8 cc 3d ff be cd bd
       -0.021859061 -0.16197759 0.100053504 -0.10046195
0003e0 72 0a 0c 3b 47 90 9e 3c f6 95 4b 3d 5b c0 a5 3d
       0.002136853 0.019355906 0.04970356 0.080933295
0003f0 39 fe a4 bc 66 be 48 3d 3f 25 1b bc 8c f5 26 bd
       -0.020140754 0.049009703 -0.009469329 -0.040761515

network_body.linear_encoder.seq_layers.2.bias f4 [128]
000000 97 82 2a bd 45 3a 54 3c 8a 07 29 bc b8 a5 6b bc
       -0.041628446 0.012953346 -0.010316739 -0.014382772
000010 ed fc 61 bd 5a 4c 50 bc a9 60 9f bc 03 b8 c2 bc
       -0.05517285 -0.012713516 -0.01945527 -0.023769384
000020 53 bd 41 be 07 31 be bc 10 62 b5 3c b8 f0 35 bd
       -0.18919878 -0.023216737 0.022141486 -0.04441902
000030 9e 8a d7 3b 93 7f 90 bd ac 48 9b bd 4e af 99 3c
       0.0065778038 -0.07055583 -0.075822204 0.01876035
000040 86 77 82 bc 12 87 31 bc d6 49 a2 3c 6b d6 7c 3b
       -0.015926134 -0.010835426 0.019810598 0.0038579952
000050 42 1e 30 bc 4c e3 44 bd a6 32 9e 3a 9b 00 08 3b
       -0.0107494015 -0.04806833 0.0012069538 0.0020752314
000060 33 31 a6 bc 80 f3 ca 3c 4d 0b 50 bd 23 7f a8 bd
       -0.020287132 0.024774313 -0.050792027 -0.082273744
000070 31 7d b2 3a 06 77 9b bc b3 83 77 bd 33 11 77 3c
       0.0013617632 -0.018977653 -0.060428333 0.015079784
000080 9d 69 63 bd 67 10 8d bc 50 6a 3a bd 33 52 05 bc
       -0.055520643 -0.017219735 -0.045511544 -0.008137274
000090 17 2c 30 bd a5 23 b6 bc 4f 79 62 be f5 4d 83 bc
       -0.043010797 -0.022233794 -0.22116588 -0.016028384
0000a0 cb 60 de 3c 4a 61 2a bd 46 23 30 bd d7 a1 86 bd
       0.027145764 -0.04159669 -0.04300239 -0.06573837
0000b0 a8 33 ad bc 67 5a 97 bc e3 f7 47 bc b0 2c 05 bd
       -0.021142796 -0.018475724 -0.012205097 -0.03251332
0000c0 eb 14 4d bd 9e 6b 85 3c 87 84 25 be a0 6d da 3b
       -0.050068777 0.016286667 -0.16163836 0.0066659003
0000d0 f6 84 af bc df ae bd 3c d6 d7 b1 3c ce 0c f3 bc
       -0.021425705 0.023154674 0.021709364 -0.029669192
0000e0 0a 73 1e bc 27 75 52 3d ca de ad ba dd 57 45 bd
       -0.009670982 0.051381256 -0.0013265249 -0.048179496
0000f0 22 3a b1 bd 1b 8c 48 bc 6b 97 aa bc 22 0d a1 bc
       -0.08653666 -0.012240435 -0.020824155 -0.019659583
000100 a1 cf 5e bd bb cf 33 bd f8 45 11 bc df af 55 be
       -0.05439723 -0.04389928 -0.0088667795 -0.20867871
000110 f3 a5 10 be 6a 71 00 bd 22 cc 3a bd f3 b6 58 bd
       -0.14125805 -0.03135816 -0.045604832 -0.05290885
000120 8f ea 79 bc e8 24 8d 3c 1e bd a7 3b b2 7e 53 3d
       -0.015253677 0.017229512 0.00511898 0.051634498
000130 5f e3 b6 bc e2 fa 8a bd 75 a7 18 be e5 5f c7 bd
       -0.022325216 -0.06786133 -0.1490763 -0.09735087
000140 46 72 a7 bd 97 df 9f bc a1 d5 4e bc a2 b3 c3 bd
       -0.08176093 -0.019515796 -0.012624175 -0.095557466
000150 a1 5f 55 bd d9 05 50 bd 73 da c1 bc 28 9f a1 bc
       -0.052093152 -0.050786827 -0.023663735 -0.019729212
000160 df cd 89 bd 43 5b 99 bd 36 87 b0 bc 70 0c 7c 3c
       -0.0672872 -0.0748811 -0.021548849 0.015383825
000170 25 67 aa bd 43 2d fc 3c d5 f6 11 bb ac 66 93 3c
       -0.083204545 0.030783301 -0.0022272367 0.017993294
000180 87 78 92 bc 8d 87 32 be 3b cb 28 3c 5b 4e a9 bb
       -0.017879738 -0.17434521 0.01030236 -0.0051668114
000190 60 45 f4 bc 85 53 18 bd 84 26 05 bc 3e 38 91 bc
       -0.029818237 -0.037189025 -0.008126859 -0.017727014
0001a0 8f da ee bb b3 32 c9 bc ab 46 38 bd e3 4e 8d bd
       -0.007289238 -0.024560308 -0.04498927 -0.06899812
0001b0 c9 8e af 3c 74 d9 4b bb 5c 90 5e bd fd 10 8c bb
       0.02143039 -0.0031104954 -0.05433689 -0.004274486
0001c0 51 f0 39 bc 40 d0 93 bc e4 43 9c bb 20 04 5c bd
       -0.0113488 -0.018043637 -0.0047688354 -0.05371487
0001d0 e4 b8 03 3c ad ea 36 bc 65 10 1f bd 81 03 72 bd
       0.008039687 -0.0111643495 -0.038833994 -0.059085373
0001e0 04 33 cf bd 9c 03 37 bd da 6d 16 bd df 9a 11 3d
       -0.10117152 -0.044681177 -0.036725856 0.035548087
0001f0 9e 2d 7e 3d f1 26 bd bc d1 ce 82 3b 40 31 02 bd
       0.062055223 -0.023089858 0.0039919396 -0.03178525

distribution.log_sigma f4 [1, 2]
000000 a3 5b a4 bd 9f b6 98 bd
       -0.08025291 -0.07456707

distribution.mu.weight f4 [2, 128]
000000 5e 51 e0 39 2f a7 4c bb c1 9f 9f 3b bc 9d c7 ba
       0.00042785233 -0.003122758 0.004871339 -0.0015229504
000010 c9 a6 08 3c 00 98 ef bb 79 5a b7 bb 5e f6 f4 ba
       0.008340546 -0.007311821 -0.005595502 -0.0018689146
000020 be 81 9d 3c d9 35 eb ba 5e bb dd ba 92 49 0b bc
       0.019226905 -0.0017945125 -0.0016916802 -0.008501427
000030 36 bd 26 bb 04 7e 14 3d 8a 53 f1 ba f1 b3 43 bb
       -0.0025442368 0.03625299 -0.0018411737 -0.0029861892
000040 79 89 92 bb bf 02 31 bb 9d 28 82 3b 76 e3 69 3b
       -0.0044719544 -0.0027009693 0.0039721266 0.0035688556
000050 ec 8a b8 3b a3 68 cc 3b 09 3f 0a 3b 18 72 08 3b
       0.005631795 0.0062380596 0.00210947 0.0020819958
000060 61 df 8d 3b ff 2c 17 3a 12 77 60 3a 69 8d 8a 3c
       0.0043296074 0.0005766898 0.0008562665 0.016913133
000070 a4 8f 63 3d 11 f2 69 3b 27 03 3c 3b 1d 2f d7 3a
       0.05555691 0.0035697261 0.0028688402 0.0016417239
000080 23 d4 4f 3c c5 d2 f7 b9 74 4f f8 ba 9f 17 47 3b
       0.012684855 -0.00047268547 -0.0018944577 0.003037907
000090 db 9b 0a 3a 23 35 ef 39 c5 16 96 3c 7b a2 70 ba
       0.00052875065 0.00045625222 0.018321404 -0.0009179485
0000a0 b4 5c 14 3a d5 0d d0 3b 43 4e 46 3b f0 f5 4f b9
       0.0005659566 0.006349305 0.003025905 -0.00019832677
0000b0 4a e9 92 3a 4d 7c 8b 3b 5c cc 12 bb e1 3c 0b bc
       0.0011208442 0.004256761 -0.002239964 -0.008498401
0000c0 34 53 9f 3a 03 de 37 3b 38 81 e4 bb a9 03 ca 3b
       0.0012155534 0.0028055913 -0.006973412 0.006164987
0000d0 e0 26 3e b8 29 ce 17 bb 67 f7 37 3a 02 a2 d9 3b
       -4.5335735e-05 -0.0023163653 0.0007017762 0.0066416273
0000e0 61 dc 94 ba 66 99 8e 3b 76 28 ec 3b bf e0 7c ba
       -0.0011357182 0.0043517826 0.0072069718 -0.0009646527
0000f0 f5 f4 65 bc ce f1 dd 3a 31 27 84 3b 64 74 80 bb
       -0.014035453 0.0016933025 0.0040329923 -0.003920125
000100 d2 7c 8a bc 9a 69 31 b9 b6 7a 3d ba 73 13 2f 3d
       -0.016905222 -0.00016919375 -0.0007228063 0.042743158
000110 8b 82 b5 ba 83 a1 52 bb e7 03 29 bc b4 fb 0a bd
       -0.0013848109 -0.0032139726 -0.010315872 -0.03393145
000120 bc 2d 59 3b 9e ec 19 bb 21 8d b0 bb 35 48 94 3b
       0.0033138832 -0.0023486982 -0.0053879176 0.0045252093
000130 0e 9e b8 bb 28 73 c0 3a a0 62 b7 bc 4f 9c 15 3b
       -0.005634076 0.0014682757 -0.022385895 0.0022828763
000140 38 d9 c6 bc 94 60 ee 3a 7d bc 47 3b ae 59 87 3c
       -0.0242735 0.0018186742 0.0030477338 0.016522255
000150 e5 d8 54 3b ab 2a 6f bc 93 58 ba bb b7 8a 3e bb
       0.0032477912 -0.014597575 -0.0056868284 -0.002907438
000160 7a 66 40 bb 5d b2 04 3d e6 58 1b 3d 7e 1c 69 3b
       -0.0029357956 0.032396663 0.037926577 0.0035569961
000170 54 be 7e bc 04 11 30 ba 34 66 a6 3b e7 3f 14 bb
       -0.015548307 -0.0006716403 0.0050781015 -0.0022621097
000180 be 1e 4a 3b 86 8f 9b 3b 4b c4 9e 3d 42 a7 53 3c
       0.0030841078 0.004747334 0.07752284 0.012918295
000190 61 58 95 3b b6 2d 35 bb 2d d6 5a ba f9 23 52 3b
       0.0045576547 -0.0027645654 -0.0008347955 0.0032064898
0001a0 32 5c 1c bb 98 7c 33 bb 55 e5 14 bd 56 d0 3b bc
       -0.0023858664 -0.0027387496 -0.03635152 -0.011463245
0001b0 c5 02 66 bb 4e 4e fd ba d6 e3 0e bd 4e b0 b4 39
       -0.0035096866 -0.0019325705 -0.03488525 0.00034463633
0001c0 ee 66 8b 3d 9c 5b 95 bb 2b d9 2e bc 14 e8 e9 38
       0.06806742 -0.00455804 -0.010671894 0.00011153534
0001d0 34 58 e4 39 bb bb 8a 3a ad bb ee ba 6c f8 32 bd
       0.00043553265 0.0010584512 -0.0018213891 -0.043693945
0001e0 3d a6 2d bd 88 7f 22 3b 82 1e 53 3b 09 4a 9e 3b
       -0.042394865 0.0024795253 0.003221423 0.004830603
0001f0 72 77 07 3b 43 66 0d 3c 1b 66 42 bb 76 c5 d0 bb
       0.002067056 0.008630338 -0.002966291 -0.0063711954
000200 9d b6 5d ba 41 ba 33 bb 8f 17 72 3b 69 18 41 3b
       -0.00084576925 -0.0027424248 0.0036940312 0.0029464012
000210 08 4f 8a 3a 1a e8 7a bb e5 2b d9 bb 7e 61 c0 3a
       0.0010552118 -0.0038285316 -0.006627547 0.0014677492
000220 0e 81 cd bb c8 e9 f9 bb 9e 5b af 3b 30 21 15 bc
       -0.006271488 -0.007626746 0.005351498 -0.009102151
000230 9f c1 21 39 87 db f2 bd 8c cb a3 bb 32 de c9 b9
       0.00015426286 -0.11858278 -0.00499863 -0.00038503256
000240 b7 36 0d bc 5f 71 6a 39 84 f6 ad 3a 2f 47 4f 38
       -0.008619002 0.00022358213 0.001327232 4.941894e-05
000250 31 7f 0b 3b de 71 0c 3c eb bf e0 bb 09 eb 00 3c
       0.0021285529 0.00857207 -0.006858816 0.007868537
000260 47 4f 08 3c ee 56 38 bb 12 4d 59 bb bc f3 a3 3b
       0.008319682 -0.0028127986 -0.003315751 0.0050034206
000270 b3 d8 4a 3d 68 02 62 3b 5d ac 03 bd 33 81 0d 3a
       0.049523067 0.0034486298 -0.0321468 0.00053979753
000280 5d 9f 93 bd cb 45 c2 ba d8 f3 ce b9 c8 17 fc 3b
       -0.072081305 -0.0014821825 -0.0003947306 0.0076932646
000290 e4 f3 c6 3a 40 74 78 3b e4 82 a5 b9 27 f3 78 ba
       0.0015178886 0.0037911087 -0.00031568774 -0.0009496682
0002a0 bc 82 0d 3b 95 2f 26 3c 9d e5 92 3b d2 bb a5 3b
       0.0021592816 0.01014318 0.0044829384 0.0050577903
0002b0 fb ac 25 3c 47 4f cb ba 67 f7 90 bb 19 01 1c bc
       0.010112043 -0.0015511297 -0.004424024 -0.009521746
0002c0 6e fa 87 bb c0 1d a6 39 ff d3 7a bc 03 70 c6 3b
       -0.0041497266 0.00031684153 -0.015309333 0.0060558333
0002d0 2d a4 35 3b c5 70 04 bb eb bf 1d b9 65 6a 0f 3c
       0.0027716265 -0.0020208817 -0.00015044182 0.008753394
0002e0 29 fd 68 ba 8e 39 e1 ba bd 0e f9 3b 64 f9 bb bb
       -0.00088878215 -0.001718329 0.007600634 -0.005736517
0002f0 0b eb 4d bc 8b c4 9e 3b 3a f4 0d bb f3 d8 b2 3b
       -0.012568246 0.004845207 -0.0021660463 0.0054579913
000300 f5 2e 36 bc c2 63 e9 bb 8a ca bb 3a 25 10 a5 bb
       -0.011119594 -0.0071224878 0.0014327329 -0.005037325
000310 b8 4d 30 bc 28 7d b1 ba 94 ef bb 3c a3 6c 7e bc
       -0.010760717 -0.0013541328 0.022941388 -0.015528831
000320 cb 59 fc 3b dd f1 5a bb 44 fe b2 3b 7e c1 82 ba
       0.007701134 -0.0033408322 0.0054624397 -0.0009975878
000330 54 4a bf b9 f2 d2 a7 bb 46 50 dc bc 7b 4a b1 ba
       -0.00036485738 -0.005121582 -0.026893746 -0.0013526225
000340 a1 75 be bc 8d 5d 43 3c 75 eb 9d bb 96 a7 2a 3b
       -0.02324945 0.01192416 -0.0048193284 0.002603983
000350 4b 04 08 3c 25 9c 22 bd 50 f2 6c bb ff 4c 78 3b
       0.008301805 -0.039699692 -0.0036155172 0.003788769
000360 31 24 a5 bb 24 2f e1 bc b7 9b 31 3c 50 34 9e 3b
       -0.0050397147 -0.027488299 0.010840348 0.0048280135
000370 51 33 2e 3d 29 42 ee ba ac 28 c0 3a 2d e4 70 bb
       0.042529408 -0.0018177676 0.0014660559 -0.0036757097
000380 04 d1 16 3a f3 20 5f bc fe 2f 19 bd e7 86 cd bd
       0.00057531917 -0.013618696 -0.037399285 -0.10035496
000390 52 3b 2b bb 00 90 ad ba fd b7 d2 3a ac c6 0f bc
       -0.0026127887 -0.0013241768 0.0016076561 -0.008775394
0003a0 1a 49 93 ba 43 b6 ba bb 18 59 19 bd b5 6c 92 3b
       -0.0011236996 -0.005697997 -0.037438482 0.0044685253
0003b0 d7 20 58 bb 4a e9 e4 ba 15 8c f3 3c 5e b1 df b9
       -0.0032978558 -0.0017464545 0.029729882 -0.00042666023
0003c0 67 24 1c bd b4 28 41 ba a2 49 d0 3c eb 23 23 ba
       -0.038120653 -0.0007368431 0.025425736 -0.0006223309
0003d0 7e 71 81 bb c4 7f 1d 3b 15 2b b8 3b 28 d1 d0 bc
       -0.003950297 0.0024032453 0.00562037 -0.025490358
0003e0 3d 64 84 bc 9e 95 fb 3b 56 96 9e 3a e3 14 5b 3b
       -0.016161079 0.007677748 0.0012099247 0.0033429198
0003f0 58 2b 2e 3b 57 aa 18 3c d8 9d 59 bb d1 08 a4 bb
       0.0026576128 0.009317956 -0.0033205654 -0.005005934

distribution.mu.bias f4 [2]
000000 fc f8 8a 3b b4 7b ae bd
       0.004241107 -0.08519688

critic.network_body.vector_processors.0.normalizer.running_mean f4 [4]
000000 cd 82 1e 40 81 47 d6 bd c7 f8 1d c1 ce 98 6e 3f
       2.4767334 -0.10462857 -9.873237 0.9320191

critic.network_body.vector_processors.0.normalizer.running_variance f4 [4]
000000 30 f4 a7 4a 4a 99 a9 49 6d 68 3b 49 76 ca b0 49
       5.503512e+06 1.3893532e+06 767622.8 1.4482708e+06

critic.network_body.linear_encoder.seq_layers.0.weight f4 [128, 4]
000000 1a db 32 3f 1b 23 d4 3d a2 44 f5 bd a7 67 4b 3f
       0.6986557 0.10358258 -0.11975981 0.79455036
000010 49 b8 07 bf 72 e2 1d bf a9 32 0f 3f 42 42 14 3e
       -0.5301557 -0.61673653 0.55936676 0.144784
000020 bb f4 87 3d 5c f4 07 3e fa d7 82 be aa 9a d1 3d
       0.066384755 0.1327681 -0.25555402 0.10234578
000030 56 72 94 3d 74 e5 04 3f 6e 2b d4 be ac 37 e0 3e
       0.0724837 0.5191262 -0.41439384 0.43792474
000040 52 c3 80 bd 45 5b d9 3d fa 7a 69 bf d4 33 82 be
       -0.062872544 0.106131114 -0.9120327 -0.25430167
000050 4a 9d b2 be 43 b3 57 be f7 db 44 3d 7e 7d 73 be
       -0.34885627 -0.21064477 0.048061337 -0.2377834
000060 16 dc 35 bf 04 59 06 bf 93 d6 32 3e 8e f2 f9 3a
       -0.7103895 -0.5247958 0.17464666 0.0019069479
000070 1a 78 2c 3e a4 82 86 be fa a2 27 be 8b e9 f6 be
       0.1684269 -0.26271546 -0.16370764 -0.48225054
000080 98 53 5d bf d4 f1 41 bf 4a 61 5f 3e 53 99 57 3f
       -0.8645568 -0.75759625 0.21814457 0.8421833
000090 a0 b0 4f 3c ab 79 87 bf f5 47 38 3e 53 81 31 bf
       0.012676388 -1.0584005 0.179962 -0.6933796
0000a0 e9 16 46 3d 25 2d 0f 3e 85 1b 97 3e e6 bb c4 be
       0.048361693 0.13982065 0.29513183 -0.38424605
0000b0 49 07 ef 3e 49 3c c6 be 0a 8d 46 ba 14 5e ca be
       0.46685246 -0.3871787 -0.0007574117 -0.395249
0000c0 75 71 ae be ef 1b d9 3e c9 b3 8a be 29 34 9d be
       -0.34070936 0.42404124 -0.2709029 -0.30703858
0000d0 31 68 5d 3d 77 3d fa be bc 2d 54 3e 69 d9 83 3e
       0.054054443 -0.4887502 0.20720571 0.25751808
0000e0 07 5e f8 be 71 64 2a 3e 20 61 3b 3e 20 5a 85 3e
       -0.48509237 0.16639878 0.18298769 0.26045322
0000f0 0e 4b bc bd a6 aa 81 be cb 79 f8 be 2a 8d d1 3d
       -0.09194003 -0.25325507 -0.4853042 0.10232003
000100 19 b6 34 3f b5 26 0e 3d 41 4b 6d bf 54 1a 07 3f
       0.7059036 0.034704883 -0.92692953 0.5277455
000110 6d df a8 be 47 f4 c2 bd 1d 72 8e 3d 30 f3 51 bf
       -0.3298296 -0.095192485 0.06955359 -0.820117
000120 ef 36 2f be ca bc 8d bd 63 3d c2 be 1c 44 f3 bc
       -0.17110799 -0.06920774 -0.3793746 -0.029695563
000130 8d b5 1e bf 56 c6 74 3f 46 1b 31 bf 40 dd 62 bf
       -0.61995775 0.95615137 -0.6918224 -0.8861885
000140 0c f9 0f bf dd db b7 3e 22 5e 34 3e 0a 66 02 3e
       -0.5623939 0.3590993 0.17614034 0.12734237
000150 ef 2a 65 3f c0 57 25 bf d5 20 e4 3e d0 27 2c 3f
       0.89518636 -0.6458702 0.445563 0.6724825
000160 5e a7 57 3d 27 52 b1 be 29 0a a7 be 3e 2b 59 3d
       0.05264985 -0.3463299 -0.3262494 0.053019755
000170 2c 50 87 be 37 b9 d6 be 14 94 9d be 13 5e 07 be
       -0.26428354 -0.41938183 -0.30777037 -0.1321948
000180 29 9c 2d 3e 9e ef 10 bf 7f 52 42 be 59 17 66 3e
       0.16954102 -0.56615627 -0.18976782 0.22469844
000190 da db 92 3d ca 0b 21 bd 55 56 e7 bd bf dd 7d be
       0.071708396 -0.039317884 -0.112957634 -0.2479162
0001a0 c2 4d bf be ba a1 81 3e 0f 56 6d 3f 06 a9 0e bf
       -0.37364012 0.253187 0.9270944 -0.5572666
0001b0 11 52 f1 3c 57 4e 10 3e d3 05 a1 bd 7c 58 cb be
       0.029458078 0.14092384 -0.07862439 -0.39715946
0001c0 17 e5 39 bf 8c 0a ff be 6c 41 47 3f 80 7f 7b 3e
       -0.7261519 -0.49812734 0.778342 0.24560356
0001d0 9e 4c 93 3e 00 d1 a4 bd b6 46 cd 3c 6d 05 f1 be
       0.28769392 -0.08047676 0.025058132 -0.47074452
0001e0 7f 72 81 3e 43 22 ed 3e 82 76 54 3f 4b 32 82 3d
       0.25282666 0.46315202 0.8299333 0.06357249
0001f0 2a 7d 07 3e 0f 8a aa be 5e 86 ae bd 38 e1 e0 be
       0.1323134 -0.33308455 -0.08521722 -0.43921828
000200 36 40 87 3d 1a 6b 12 3e a7 2a 67 be 8f 3c e3 3b
       0.06604044 0.14298669 -0.22574864 0.0069347094
000210 20 24 be 3d aa f2 65 3f f2 37 f1 3d 16 df 80 bf
       0.09284234 0.898234 0.11778249 -1.006808
000220 6b 12 76 3e 51 d3 26 3e 41 06 d0 bf 62 c4 18 be
       0.24030463 0.16291548 -1.6251909 -0.14918664
000230 64 59 00 be 09 d8 c2 be f9 f5 30 be 9d 2b d9 bd
       -0.125341 -0.38055447 -0.17281331 -0.10604022
000240 7d 0d d1 be 78 43 1d 3f dd 85 89 3e 69 25 f8 be
       -0.40830603 0.61431074 0.26859942 -0.48466042
000250 bf d0 05 be a7 29 54 bc c8 d7 91 3e 69 4e 96 3e
       -0.13067912 -0.012949384 0.2848494 0.29356697
000260 aa 91 3c be df a9 e1 3e f8 d9 81 3e 8e 70 04 bf
       -0.18414941 0.44074914 0.2536161 -0.51734245
000270 b7 ca 0b 3e fe 58 03 3f fc a0 d3 ba 6f 0d 0c 3f
       0.13651548 0.51307666 -0.0016146 0.54708
000280 d6 9e 68 bf 4e fc a7 be 49 f1 2e 3e 1d 1e 9a bd
       -0.90867364 -0.3280968 0.1708423 -0.07525275
000290 7b 9a 5e 3e f7 73 70 bc 81 43 7a 3e bc de 56 be
       0.21738617 -0.014676086 0.24439813 -0.20983404
0002a0 16 23 f2 3e af a7 60 be ca ff 12 bf 40 63 a4 bd
       0.47292393 -0.21938966 -0.57421553 -0.08026743
0002b0 dd 23 42 3f 0e db 2e be ea 42 86 3e 58 70 8d 3f
       0.75835973 -0.1707575 0.26222926 1.104991
0002c0 00 54 ca 3c 24 6e 27 bd 9d 37 e6 3c 16 5b 51 bd
       0.024698257 -0.040876523 0.02810269 -0.051112257
0002d0 3a 9d 93 3c ee 82 56 bf 68 30 22 3f cf f2 3d bf
       0.018019307 -0.8379353 0.6335511 -0.7419862
0002e0 57 ed 8c ba 40 10 8c bf 4e b6 11 3f 76 db 27 be
       -0.0010751885 -1.0942459 0.569188 -0.16392311
0002f0 d0 0d b2 3f bb 4c cb 3e 68 7f df bc 1f 60 f1 be
       1.3910465 0.39706978 -0.027282432 -0.47143647
000300 01 6d 91 3e 07 cf 19 bd 5b 4e dc bd a9 2e 97 bf
       0.28403476 -0.037550952 -0.107571326 -1.1811115
000310 01 b5 58 bf e3 bf a0 bf fd c1 70 3f b8 45 00 3f
       -0.8465119 -1.2558559 0.94046 0.5010638
000320 1f b1 69 bd e9 77 dd 3d c6 56 95 be ec a1 1d 3f
       -0.05705368 0.10813887 -0.29167765 0.615752
000330 39 f9 de be 64 63 c6 3e 18 29 52 be e3 ad f5 3e
       -0.43549517 0.38747704 -0.20523489 0.47984228
000340 64 ab 52 3f 58 91 b9 be 09 c9 e1 3e 0e 80 d0 be
       0.8229277 -0.362437 0.4409869 -0.40722698
000350 95 b4 f6 3e d5 de 7b 3e 20 8d 79 3e 76 1f 64 bd
       0.48184648 0.24596722 0.24370241 -0.055694066
000360 e1 20 31 bf ac 75 01 3e 18 95 b7 3e 23 bd 16 bc
       -0.69190794 0.12642545 0.35855937 -0.009200367
000370 f2 cc 07 3d 0a 48 2d bf dd 00 71 be 46 5d 07 bf
       0.033154435 -0.6768805 -0.23535486 -0.528767
000380 98 0a e5 3e b3 a5 fd be e3 b8 56 3e d0 7e ad 3e
       0.44734645 -0.4954048 0.20968966 0.33885813
000390 0a 7b 04 3f ae 73 eb 3e e8 09 c6 3e 60 b8 d4 3d
       0.5175024 0.45986694 0.38679433 0.10386729
0003a0 a6 df a6 bf 96 12 a9 3e c7 14 53 bd ff 16 f9 be
       -1.3037002 0.33021992 -0.051533487 -0.48650357
0003b0 aa 25 ac be cb 92 48 bf 74 80 ce 3d 25 ca 9c 3d
       -0.33622485 -0.7834899 0.10083094 0.076557435
0003c0 4e 6d 8b be ce 47 94 3e 3d 0a fe 3d ad be f4 3d
       -0.2723183 0.28961033 0.124042965 0.11950431
0003d0 b0 19 cf be 99 23 c0 3d b4 63 a4 3e 58 88 9b bf
       -0.40449286 0.0938179 0.32107317 -1.2150984
0003e0 21 d5 28 be 94 8f fd be a2 ef fe be fd 01 5e bf
       -0.16487552 -0.49523604 -0.497922 -0.86721784
0003f0 c8 8d da bd 4c b9 ad bd b7 64 e9 bc 34 87 36 3f
       -0.10671574 -0.08482608 -0.028490407 0.71300054

critic.network_body.linear_encoder.seq_layers.0.bias f4 [128]
000000 e7 bd 87 3e 1c 76 37 be f1 4f 4b be 80 69 af 3e
       0.26512071 -0.17916149 -0.19854714 0.34260178
000010 1b 00 94 3e 55 b6 9d 3e 89 e1 7d be b6 e5 92 be
       0.2890633 0.3080317 -0.24793066 -0.2869088
000020 57 a1 30 3e 57 7e 52 be ef 4b 76 be 9a a5 6e be
       0.17249046 -0.20556007 -0.24052404 -0.2330536
000030 ef 29 14 3e 06 7c 37 3d cf d0 c1 3d bd 8e 18 3e
       0.14469121 0.044796012 0.09463655 0.148982
000040 87 44 9f 3e 97 e9 6c 3e 6a 1d 08 be 0d 58 0b 3e
       0.3110697 0.23135982 -0.1329247 0.13607807
000050 cc 34 59 3e 42 64 30 3e 1c 68 6d be dd 7a 49 be
       0.21211547 0.17225745 -0.23184246 -0.19675775
000060 da 29 d2 be 08 a9 51 3e 33 b6 ea 3c ef ae 70 be
       -0.41047555 0.20474637 0.028651332 -0.23504232
000070 a3 78 b0 be 0c 35 13 3e a3 45 64 be 46 9c e9 ba
       -0.3446704 0.14375705 -0.2229219 -0.0017823062
000080 2c 47 7b bc af 61 d3 bd 3c 5a 86 3e 4a 37 96 3e
       -0.015336793 -0.10321366 0.26240718 0.29339057
000090 7f 82 26 3c da 0d 68 3e 2e 52 44 3e c9 2b 10 3e
       0.010162949 0.22661534 0.19171974 0.14079203
0000a0 4e 29 4f bd 0b ce 3e be e2 86 2d be 29 bf 55 3e
       -0.0505765 -0.18633287 -0.16945985 0.20873703
0000b0 87 81 52 3d ea 16 8f be 3e 96 44 be 80 48 5d be
       0.05139306 -0.2794717 -0.19197938 -0.21609688
0000c0 ea e9 dd 3d 2c 05 c8 3c 35 cf 34 3e 33 39 2d 3e
       0.10835631 0.024416529 0.17657168 0.16916351
0000d0 4a 45 f8 bd 79 22 94 be ab 15 4b 3e 94 ca 8e be
       -0.12122591 -0.2893255 0.19832484 -0.2788893
0000e0 96 dd 23 3e d9 0c 2e 3e 55 32 3c be b9 75 77 be
       0.16002497 0.16997088 -0.18378575 -0.24166001
0000f0 e0 6a 13 3d 9d 7e 0e 3e 8b 0f 13 bd d7 95 4b bd
       0.035990596 0.13915487 -0.035903495 -0.049703445
000100 3a b3 00 be 55 66 d4 3d a8 37 42 be ea ce 1e be
       -0.1256837 0.10371081 -0.18966544 -0.15508619
000110 a7 73 8b 3d 1d 40 92 be cb 1d f7 3d 81 b5 52 bd
       0.06809168 -0.2856454 0.120662294 -0.051442627
000120 f3 3e 46 3e 54 8b 82 be 0b e3 03 3e 3f 1d 8b 3e
       0.1935995 -0.25496924 0.12879579 0.2717075
000130 da cd a6 3d 2d 36 99 3e 36 fe ff 3d 32 4c 84 be
       0.08144732 0.29924145 0.12499659 -0.25839382
000140 be 04 03 3e 21 d3 66 3e f1 d7 af 3a 1e 89 41 3e
       0.12794778 0.22541477 0.0013415796 0.18899962
000150 be 70 36 be ea ba 9b be 27 3e 5b be 31 77 47 3e
       -0.17816445 -0.30416042 -0.21410428 0.19479062
000160 64 12 c2 be da c9 a7 bd 09 02 7e 3d fc d2 00 bd
       -0.37904656 -0.08192797 0.06201366 -0.03145121
000170 2b 2d 76 3e 7f 6e 76 be b1 ef 0d 3e 26 fc 6e 3e
       0.24040668 -0.24065588 0.13860966 0.23338374
000180 24 6c f2 3d cf d0 40 3e d5 87 62 bd 8e b2 55 be
       0.118370324 0.18829654 -0.05530532 -0.20868894
000190 89 bc 2d be d6 1f f3 b9 9a 5a 2a 3e f4 d8 d5 be
       -0.16966452 -0.0004637229 0.16636124 -0.41767085
0001a0 a3 d5 b7 bd d5 ed c8 3e 28 63 1b be ed 7b c9 3d
       -0.08976295 0.3924395 -0.15174544 0.0983809
0001b0 7c 31 ed 3d 86 a5 f5 bd 96 79 c7 be 01 9f c9 3d
       0.11581704 -0.11994462 -0.3895995 0.09844781
0001c0 58 36 22 3e b3 a2 4f 3e 39 d7 21 3e cc 7a 96 be
       0.15841043 0.20276909 0.15804757 -0.29390562
0001d0 2f fa 83 be 16 1e 36 3e d7 38 5c 3e 04 79 c0 3e
       -0.25776812 0.17784914 0.21506058 0.37592328
0001e0 25 fc 32 be 31 fd 59 be 42 d5 4e 3c 17 6a 28 3e
       -0.17478998 -0.21287991 0.012624087 0.1644672
0001f0 c9 69 15 be af b0 2e be e8 67 87 be 75 03 07 3d
       -0.14591135 -0.17059587 -0.26446462 0.03296228

critic.network_body.linear_encoder.seq_layers.2.weight f4 [128, 128]
000000 3a 50 1c ba d5 1b 32 bc 04 01 1e 3d 22 45 58 bd
       -0.00059628824 -0.0108708935 0.038575187 -0.052800305
000010 75 95 91 be 51 08 f7 3d e1 59 4e 3d 86 77 a2 bd
       -0.2843434 0.12062133 0.050378684 -0.079329535
000020 e2 bc ed bd da 04 71 bd 5a f6 af 3c 83 40 7a bc
       -0.11608292 -0.058842517 0.021479774 -0.01527417
000030 b8 37 b6 bc da 19 35 3e ff 49 b7 bd e0 6e ca bd
       -0.022243366 0.17685643 -0.089496605 -0.09884429
000040 11 a7 21 3d 94 33 c3 3c be 4c 80 bc e1 48 47 bd
       0.039465968 0.023828305 -0.015661594 -0.048653487
000050 d7 ec f3 bc 56 f4 c3 bd 65 cf 06 bd e7 c5 40 3d
       -0.02977602 -0.09568088 -0.03291263 0.047063734
000060 19 fb e0 bc 7e 29 35 be 84 c4 0b bd 8a b8 2a be
       -0.027463483 -0.1769161 -0.03412296 -0.16671959
000070 1f 68 81 3c f2 1a 9e bd f8 1d 6c bd 75 fe ac bd
       0.01579672 -0.07719983 -0.057645768 -0.08446971
000080 e6 f6 f0 3d be 6c 0c 3e 53 9e 00 3e 45 50 4a 3d
       0.11765842 0.13713357 0.12560396 0.049392957
000090 80 6a fa bd 82 7f 92 bc f8 bd 9b 3b e9 ba 97 bd
       -0.122273445 -0.017883066 0.0047528706 -0.07408697
0000a0 1a c2 9d bd 32 f1 06 3d 4b 2d aa bc 91 d0 f5 3b
       -0.077030376 0.032944866 -0.02077355 0.0075016697
0000b0 31 93 a4 bd 63 8f 74 bd dc 33 fc 3b 62 d2 88 bc
       -0.08035887 -0.059707057 0.007696612 -0.01670188
0000c0 5d 18 9e 3d 27 e3 a3 bd 03 03 df 3d 53 c4 a5 3b
       0.07719491 -0.0800231 0.10889246 0.005058804
0000d0 27 4f 41 bc 1c 14 17 be 3e cf ef bd aa cf 2b 3c
       -0.011798657 -0.14753765 -0.1170945 0.010486523
0000e0 f4 cc f5 3c 17 94 ab 3a ff 26 57 3c 68 96 88 bd
       0.030004956 0.0013090399 0.013131856 -0.06669313
0000f0 ab eb 52 bd c8 cd 00 3e 00 75 95 bc 43 7e 06 3e
       -0.05149428 0.125785 -0.018244267 0.13134103
000100 f2 22 4b 3d 4e 7d 9e bc a0 a9 0b 3d 4f 17 dc 3c
       0.049593873 -0.01934686 0.034097314 0.026866583
000110 d5 db 51 3d dd 92 45 3d e8 88 63 3d a5 e8 7c 3d
       0.05123504 0.048235763 0.055550486 0.061745305
000120 54 b0 4c 3d 81 c5 ab 3c e9 6a 9a 3d 0b b8 77 3d
       0.049972847 0.0209682 0.07539923 0.06047825
000130 6e 28 ba bd 89 f9 68 bb 99 56 f9 3c 7e 86 a7 be
       -0.090897426 -0.0035549125 0.0304368 -0.32719797
000140 ff 09 f2 bd 0a c5 82 bd 3c 4d 8e 3d f5 cc 1d 3c
       -0.11818313 -0.063852385 0.06948325 0.009631385
000150 12 fe 89 3d dd b4 5d 3d c5 27 13 be 6b ba 99 3c
       0.06737913 0.054127563 -0.1437064 0.018765649
000160 b1 94 eb 3d 38 b9 e4 3d ce 66 e9 bd c4 fc 04 3d
       0.1150297 0.1116814 -0.113965616 0.03246762
000170 ca 21 68 3e a9 c8 44 bc fc c8 a2 3c 9d b9 3e 3d
       0.2266914 -0.012010732 0.019871227 0.046563733
000180 70 16 ee 3a 89 3f 3a be e2 9d b5 bc b1 f7 90 bd
       0.0018164646 -0.18188299 -0.022170011 -0.070784934
000190 ac 9c d3 3d b2 81 09 bd 68 52 9a 3c 62 f3 4d 3c
       0.10332617 -0.033570953 0.018838122 0.012570234
0001a0 de 1f 69 bd 28 29 ef 3d 7f 7a 87 3d 6a 12 c4 bc
       -0.056915157 0.11677772 0.06615161 -0.023934562
0001b0 0e 2e d2 3c 81 6b 01 be 86 0b c5 bc f9 11 24 bd
       0.025656726 -0.12638666 -0.024053346 -0.040056203
0001c0 4e e0 85 3d 9f b1 38 3e 92 2e 20 3d 86 86 a0 3d
       0.06536923 0.18036507 0.039106913 0.07838158
0001d0 05 e4 9a 3d a2 ab 84 3c aa 3a 9e bd 2b 1b 0d be
       0.075630225 0.016195122 -0.07726033 -0.13779895
0001e0 58 a8 69 bd 82 41 62 3d 79 03 d9 3c fd 92 91 bd
       -0.05704531 0.055238254 0.026490914 -0.07108114
0001f0 9a 9d cd bc 5c 66 e2 3d 66 c0 c4 bd 33 ff 3f bd
       -0.025099564 0.1105468 -0.096070096 -0.046874236
000200 f5 61 6f bd 97 0e b8 3d 12 d7 84 3c 5e d8 1b be
       -0.05844303 0.08987158 0.016215835 -0.15219256
000210 f9 72 2e be 3a f7 80 3d 3d ff 07 3a e6 b4 e0 3d
       -0.17036046 0.06297155 0.0005187875 0.10972004
000220 0b 25 e6 3c e6 26 ad bd b0 d8 8d 3d 17 eb 75 bd
       0.028093835 -0.08454685 0.069260955 -0.060038652
000230 e6 b4 44 3d 43 4c 9f bb d2 87 79 bd 35 a4 06 be
       0.04802408 -0.004861386 -0.060920544 -0.13148578
000240 bb 7f 4f be c8 55 48 bc 5c 00 05 be cd f6 37 bd
       -0.20263569 -0.012227483 -0.12988418 -0.044913102
000250 e4 6a 42 3d e1 90 82 be dd 9d 0f be 3b c4 93 3d
       0.04746522 -0.2550116 -0.14025064 0.07215162
000260 b0 ec ee bc ce f5 02 3e 31 f9 c7 3d 55 b1 81 3d
       -0.029165596 0.1278908 0.09764326 0.063326515
000270 d6 8a 3e be dc 72 e3 3c 57 1f 22 3b cb f6 6a bd
       -0.18607649 0.02776473 0.0024737918 -0.057364266
000280 35 3d 46 3d 21 1d 99 3d 36 0f ea bd 0d 9c 03 be
       0.048398215 0.07476259 -0.114286825 -0.12852497
000290 00 bc e4 bc ed 8c f8 bd f1 ae fd bc 56 76 7f bd
       -0.027921677 -0.121362545 -0.030967208 -0.062368713
0002a0 ab e4 dd bc 8d 11 41 3e 64 ee 23 be 10 78 c5 bd
       -0.027086576 0.18854351 -0.16008908 -0.09642041
0002b0 f3 5c b9 3d d8 40 d7 bd ff a3 0e be ca 28 96 bd
       0.09050932 -0.10510415 -0.13929747 -0.07331999
0002c0 0b 4b 25 be b6 b5 6a 3d c5 bb 9c 3d 3d 5e 5e 3d
       -0.16141908 0.0573022 0.07653002 0.05428909
0002d0 12 bd 33 be 97 6a 0a 3e 9d 92 53 be 01 b3 18 3d
       -0.17552593 0.13517223 -0.20661397 0.037280086
0002e0 9a fa aa bd 5a 36 28 bd 31 05 d1 bd 80 3b 9a 3d
       -0.0834858 -0.04106746 -0.10206068 0.0753088
0002f0 66 90 92 3d d1 17 69 3c bb 9f 1f be da 20 75 bd
       0.07156448 0.01422687 -0.15588276 -0.059845783
000300 64 64 82 bd f2 85 4d be 4f 3a 1a bd f9 59 ee bc
       -0.06366804 -0.20070627 -0.037653264 -0.029095637
000310 7c b7 9e bd 21 af 34 bd 1e d2 27 be 46 aa f6 bd
       -0.077498406 -0.04411233 -0.16388747 -0.12044196
000320 53 72 b2 bd 2d be d2 3d de 4b 43 bc a7 b8 64 3d
       -0.08713212 0.102901794 -0.011919944 0.05584016
000330 a8 7e 08 be 0e 5b 59 3e d8 09 ac bd 47 28 0a 3d
       -0.13329566 0.21226141 -0.08400315 0.033729818
000340 f3 53 06 be 3e 01 5b bd b2 15 8c 3d f8 0e 94 be
       -0.13117962 -0.05346798 0.068400756 -0.2891767
000350 0c a2 2b 3d 2f 54 5b bd db 73 1a be 17 d0 d5 bd
       0.041902587 -0.05354708 -0.15083258 -0.104400806
000360 b8 05 9a 39 10 63 08 be a9 a9 89 bb b3 1b d0 3d
       0.0002937743 -0.1331904 -0.0042011333 0.10161533
000370 74 59 bf bd ae 01 a8 bd 33 f7 88 3d bf 72 b5 bd
       -0.09343234 -0.082034454 0.066877745 -0.08859777
000380 ae 74 eb bd c7 f0 2f bb 7e 63 ff 3d 53 58 e7 3d
       -0.11496864 -0.0026846395 0.124701485 0.112961434
000390 9f b8 20 be af df 86 3d 99 3e 4d be ca f8 4c 3d
       -0.15695427 0.06585633 -0.2004341 0.05004195
0003a0 d1 9d 9d bd 64 36 17 bd 19 ff 0c be 10 c6 e7 3c
       -0.07696117 -0.036917105 -0.13769187 0.028292686
0003b0 7a 9e 24 be 1c 5f 64 be 15 f8 f3 bc 1c 88 a5 3d
       -0.16076079 -0.22301906 -0.02978138 0.080826014
0003c0 9c 90 94 3d 2d 49 16 3c 40 ea 67 3c 44 b7 39 be
       0.072541445 0.00917272 0.014154971 -0.18136317
0003d0 84 5d a7 bd 15 45 31 3c 58 79 40 be 54 fd da bc
       -0.081721336 0.010819693 -0.18796289 -0.026732124
0003e0 00 48 d2 bb 96 a2 34 bd c6 38 98 3d 88 f7 17 3d
       -0.0064172745 -0.044100367 0.07432704 0.0371013
0003f0 7e e7 eb bc 43 43 0b be 79 e6 22 3e fa 26 f7 3c
       -0.028796908 -0.13599877 0.15908231 0.030169953

critic.network_body.linear_encoder.seq_layers.2.bias f4 [128]
000000 ae 01 4f 3d 15 bc e4 bc 27 74 3f be d5 32 9d 3d
       0.05053871 -0.027921716 -0.18696652 0.07675711
000010 4c d7 e6 3d 8d 30 74 bd 02 65 53 be 35 f8 e6 3c
       0.11271533 -0.059616614 -0.20644 0.028194526
000020 90 ab 47 be 7f af 90 3c f8 a3 8e bd 45 28 56 be
       -0.1949904 0.017661808 -0.06964868 -0.20913799
000030 e2 b9 d2 3d 5f 82 12 be 71 dd 56 be 93 a7 1c bd
       0.102893606 -0.14307545 -0.2098291 -0.03824575
000040 d4 28 5d be 0f d2 4b be 85 bc e8 bd 95 7c ca 3c
       -0.21597606 -0.1990435 -0.11364082 0.024717608
000050 f3 fb 4a bc 49 31 b4 3d c1 63 64 be 23 23 3d be
       -0.012389171 0.08798463 -0.22303678 -0.18470435
000060 48 f5 3d 3e 8b 37 c3 3d ce 58 93 3d 73 a3 7e be
       0.18550599 0.09532078 0.071946725 -0.24867038
000070 e0 3a 56 be fd 86 48 be 6b 04 6b bd 91 47 4f bd
       -0.20920897 -0.19582744 -0.05737726 -0.05060536
000080 29 30 85 3d b6 ef 7d 3d 05 9c c5 3d f1 fc 88 3d
       0.065033264 0.061996184 0.09648899 0.0668887
000090 52 9e 00 be c6 91 d2 3d de db 50 be 5e c0 31 be
       -0.12560394 0.1028171 -0.20396373 -0.17358539
0000a0 90 69 78 be ba 46 dd bc 0b 50 a4 bd b5 b1 7c be
       -0.24259019 -0.027011264 -0.080230795 -0.24677165
0000b0 36 dc c5 bd ca e0 2a 3e 41 dd 39 3d 4a b0 a3 bd
       -0.096611425 0.16687313 0.04537702 -0.07992609
0000c0 c8 41 e5 3c 40 9b ee 3d b1 00 7b be bb ae 4e be
       0.027985469 0.11650705 -0.24511983 -0.20183842
0000d0 c5 a4 43 3d 4e db e7 bb 4e 5e 91 bd 13 1d ea bc
       0.04776456 -0.0070757037 -0.07098065 -0.028578317
0000e0 d5 63 7c bd 22 e6 36 be 5f 62 5b 3d 13 28 90 3d
       -0.061618645 -0.17861226 0.05356061 0.070388936
0000f0 f5 c9 1b be 56 26 48 bd 48 b2 07 be 19 25 7f bd
       -0.15213759 -0.048864685 -0.13251603 -0.06229124
000100 ba 1e 58 be c6 33 51 be 40 b1 85 3d 3f c9 bc 3d
       -0.21105471 -0.20429906 0.065279484 0.09218072
000110 b4 58 86 3d b4 98 85 be 21 ed 3a be be dc 02 3c
       0.065598875 -0.26093066 -0.1825452 0.007987199
000120 a3 6c 25 3e c3 e7 e2 3c 56 9c 17 3b f9 b9 d0 bd
       0.16154723 0.027698403 0.0023133955 -0.101917215
000130 e0 4c e1 3d 7c 27 d8 bd c4 8a 67 be 04 60 a4 3d
       0.11000991 -0.10554406 -0.22611529 0.08026126
000140 1a e1 6a be 83 99 48 3d 38 e4 8f 3d a7 15 3b be
       -0.22937432 0.048974525 0.07025951 -0.18269978
000150 ef 83 47 be b0 8a 46 be 8c a9 9d bd 9b e9 59 be
       -0.19483922 -0.19388843 -0.07698354 -0.2128052
000160 db 07 4e be 59 37 81 be 3e a8 c0 3d d0 4d 53 be
       -0.20120184 -0.2523754 0.0940709 -0.20635152
000170 46 ec 75 be b8 33 b2 3d 42 07 2a bd 07 dd 6d be
       -0.24015912 0.08701271 -0.041510828 -0.23228846
000180 96 2e 59 3d 81 54 89 be 06 e6 82 be 90 5f 41 3d
       0.053022943 -0.26822284 -0.2556612 0.047210276
000190 71 c5 e5 bb b6 75 80 be 63 72 de 3d e6 da 51 be
       -0.0070120622 -0.25089806 0.10861661 -0.2049366
0001a0 28 1b 89 be 90 8b 7b be 57 13 39 3e d5 dc b3 bc
       -0.2677853 -0.24564958 0.18073784 -0.021955887
0001b0 6f 28 18 bd bb 7a 0b bd 8b 70 78 3b 5a e5 61 be
       -0.037147935 -0.03405259 0.0037908878 -0.22060147
0001c0 6d 7b 7e 3d 35 bd 8e 3d eb fc ac 3d 39 5c 7b be
       0.062129427 0.06969682 0.08446678 -0.24546899
0001d0 33 61 f3 3c 44 47 62 be 2d 33 03 bd f7 78 61 be
       0.029709434 -0.22097498 -0.032031227 -0.220188
0001e0 25 3c c7 3d 94 4f 2b be 8a 30 57 3d b2 97 5b 3c
       0.097282685 -0.16729575 0.052536525 0.013402866
0001f0 90 79 52 be 88 41 38 bd cb e8 aa bd 5e 5d 23 3d
       -0.20554185 -0.04498437 -0.08345183 0.039883964
