ml-agents-master/ml-agents/config/results/ppo/LineCreator/LineCreator-113058.onnx (onnx, 71632 bytes, 9 tensors)

53 f4 [4]
00000000: 47fa ba40 b3b9 3b40 8dfe 3d40 c711 4040
5.8430514 2.9332092 2.9686615 3.001085

54 f4 [1, 2]
00000000: 217d 8aba bd51 2d3c
-0.0010565856 0.01057857

distribution.mu.bias f4 [2]
00000000: 2568 433d 34de 22bd
0.04770674 -0.03976269

distribution.mu.weight f4 [2, 128]
00000000: 4a02 443d 163b a93b b66d 00bd 976a 30bd
00000010: 3c1d 69bc bea9 0d3b 2b11 e93b 6212 423c
00000020: 4af2 cb3d e509 a33b d2b0 0ebd 4b08 8b3b
00000030: d2d6 343b d6f4 f73a f43b 6a3b fb99 ddbb
00000040: d525 c8bc 8c20 063c 8c76 123b 1926 b73c
00000050: 88d3 a0bc 29f3 6cbc b2d5 273a 1e50 46bc
00000060: c995 213c 4412 4b3b 599f 123c f6a7 2a3b
00000070: b018 e53a 37ff be3a 40bf c63c 2060 6a3c
00000080: be71 aebb 2f2c 323b a66d 063b c293 793d
00000090: d081 3ebb 652d 313c bc91 0e3b a3a1 f73c
000000a0: fda7 0b3b b19a bf3b 93a4 9e3b 3e71 1a3d
000000b0: c157 553d 3252 633c 240d e83b 6bc9 02bc
000000c0: 6a19 cfba 5ea6 c93b 325e 23bb d8dd 28bb
000000d0: bdc3 e1bb 8355 853d f5f4 123a 4c0e 07bd
000000e0: fbc3 a8bb eb50 223c 24c5 053c c711 bc3a
000000f0: 6ff3 7b39 e2a2 d93c 474e 6cb9 e6b8 1d3d
00000100: fecf e73b bde9 e23b 6e86 86bb 9a03 c039
00000110: 6ee1 84bc 89f6 ce3c 6ed1 aa3b 3ba5 cdbb
00000120: 07cd 15bc abce 093c 88f0 743b 5dde 8e3b
00000130: de77 373c 70a6 193c a49a 423a 0096 a33c
00000140: 4e4b c73a 2178 553d beef 4dba 51c5 bcbc
00000150: 6a6d f5ba 4873 91ba fcfb f7bb 086b 5f3b
00000160: dd47 023c 8c3d 76bb de2b 43ba 262e 3dbc
00000170: c1cc 3c3b b135 bd3b 6c0b 92bc 88ea 353b
00000180: 5db6 893d 0acb 47bd fbd2 e4bb fd86 87bb
00000190: 986c b4bc f68c 883a 39c0 c83c f663 9d3b
000001a0: ca5b 80bd 23c7 9938 2d7c 0abb ecad b6bc
000001b0: ac09 9abb cf4f 263c aafc ac3b 2559 0a3b
000001c0: 2f29 f53c af91 e0bb a64b 313b 4765 403b
000001d0: 7f17 ae3b 7bd3 08bd 81fc ad3a 3c76 e7bb
000001e0: 658c 243b b834 2bbb 9174 f8ba 7449 54bc
000001f0: af9d 853b 97a9 5fbb 0ed6 a8bb 3c70 12bd
00000200: 6096 aa3b a25d 973a f800 263d 14f9 fe3c
00000210: 6218 803d f9f7 39bc b054 07bc ffac 23bc
00000220: 6098 973d b697 a8bb 7ba3 543b 978a 53ba
00000230: bb06 293a daa0 6fbb ec8d b1bc 013e b8ba
00000240: 0c87 a03c dee1 2bbc c9e6 5bbb 9b24 db3a
00000250: 0eee e33c ebb0 723c 78a1 2abb 1d76 1a3b
00000260: aa30 183b e9fa 86bb 38e2 243c 8dfb 56bb
00000270: 5bf5 943a ee67 70b8 caa8 743d b533 8c3b
00000280: 36b6 853b cd36 31bb 7742 67bb ce10 873b
00000290: bea6 a13a dee6 26bb 35f0 8bba efc4 1c37
000002a0: e45f 27bb d341 9b3b 2c8a 63bb f3d4 fe3c
000002b0: dc26 18bd c111 ac3c 3735 b2bb ef86 83bb
000002c0: 7c33 06ba 8a04 16bb af9e e8bb d979 233b
000002d0: 89c6 46bb 9dcb f5bb 18f7 bb3a 5922 0dbc
000002e0: 39d6 29bb 1ac0 de3c 5e58 5dba 4a59 f8b8
000002f0: 70c8 763b f4bb f339 c71b 81bb 462c 5a3b
00000300: 51f1 b439 aeac 56bb ab1b e13b 818f 3e3b
00000310: 6d70 b23c 10ec 9ebc 7995 1c3b 0eff fc3c
00000320: e503 90bb e536 48bb 47a1 e2bc 2d6a d03c
00000330: 235c 39bd 1946 803a 2337 a63a 55c7 9d3d
00000340: f8af efbb e826 d33c dd0f 863b 9a5b 773d
00000350: 0731 58ba 45fa 96bb cf3a 41bc 2dbb a8bd
00000360: 5339 17bc 15ac 333c 813d b2bb e7bc c6bc
00000370: 8cda c5ba 935f b2bb 1ddf 1b3d 59dd 0e3b
00000380: fc3c 45bc a317 873d eaf6 18bd d022 bdbb
00000390: 6bf1 3dbc 93ca 83ba 2cef e4bd 7249 753d
000003a0: bac6 a53d b81d b6ba 46df 833b 8737 d4bc
000003b0: fb0f b2b9 92fe 8b3d f43d 0d3d 487b f3bb
000003c0: 2413 eabd 737c b03b af58 58bb 9b61 42bb
000003d0: a308 dc39 93db 993d 4911 5b3b 5955 e43b
000003e0: 7669 923b e476 d93b b102 293a 32e1 8a3b
000003f0: aa02 90bb 6dec a3b9 b93a 03bc b441 72bd
0.047853746 0.0051645143 -0.03135463 -0.043070402 -0.014228161 0.0021616067 0.0071126423 0.011845203
0.09958322 0.0049755448 -0.034836598 0.004242932 0.0027593863 0.0018917571 0.0035741301 -0.0067627407
-0.024432102 0.008186471 0.0022348491 0.022357034 -0.019632116 -0.014462271 0.00064023875 -0.012104062
0.009862372 0.003098623 0.008949124 0.0026040054 0.0017478671 0.001457191 0.024261117 0.014305145
-0.0053236177 0.002718698 0.0020512133 0.06093193 -0.0029069073 0.010814046 0.0021754345 0.030228442
0.0021309846 0.005847298 0.004841396 0.037705652 0.05208564 0.013874577 0.0070816446 -0.007982592
-0.0015800421 0.0061538657 -0.002492797 -0.0025766995 -0.006889789 0.06510451 0.00056059594 -0.03297262
-0.005150316 0.009906988 0.008164678 0.001434856 0.00024027911 0.026566926 -0.00022535874 0.03850641
0.007074355 0.0069248364 -0.0041053807 0.00036623777 -0.016220775 0.025264041 0.0052129542 -0.0062758005
-0.009143121 0.00841109 0.0037374813 0.004360004 0.011198012 0.009378061 0.0007423556 0.019968987
0.0015204938 0.052116517 -0.0007855854 -0.023043307 -0.0018724625 -0.0011096979 -0.0075678807 0.0034090895
0.007951704 -0.0037573306 -0.00074451964 -0.011546647 0.0028808566 0.005774223 -0.017827712 0.00277582
0.06724236 -0.048777618 -0.0069831586 -0.004135965 -0.022024438 0.0010417986 0.024505721 0.004803176
-0.062675074 7.3327006e-05 -0.0021131143 -0.02229973 -0.00470086 0.010150864 0.0052791433 0.0021110263
0.029926864 -0.0068533043 0.0027053147 0.002935724 0.0053128595 -0.03340481 0.0013274105 -0.007063655
0.0025108096 -0.0026123952 -0.0018955638 -0.012956966 0.0040776352 -0.0034128183 -0.0051524704 -0.035751566
0.0052059144 0.001154829 0.040528268 0.03112463 0.06254651 -0.011350625 -0.008259937 -0.009989976
0.0740211 -0.0051450385 0.0032446075 -0.0008069663 0.00064478413 -0.003656438 -0.021674119 -0.0014056565
0.019595645 -0.010490863 -0.0033554307 0.0016719283 0.027823474 0.014812688 -0.0026036184 0.0023568936
0.0023222365 -0.0041192663 0.0100637 -0.0032803745 0.0011364626 -5.731725e-05 0.059731282 0.004278625
0.004080559 -0.002704072 -0.003528742 0.0041218763 0.0012333018 -0.0025467197 -0.0010676446 9.344177e-06
-0.0025539333 0.0047380715 -0.0034719808 0.031107401 -0.037146434 0.02100456 -0.0054384726 -0.004013888
-0.0005119366 -0.002289089 -0.0070989947 0.0024944453 -0.0030330739 -0.0075010792 0.0014340607 -0.008614146
-0.002591504 0.02719121 -0.00084436487 -0.00011842193 0.003765609 0.00046488608 -0.003940079 0.003329055
0.0003451207 -0.0032756734 0.0068697534 0.0029077234 0.021782124 -0.019399673 0.0023892804 0.030883338
-0.0043949955 -0.0030550298 -0.027664794 0.025441254 -0.045253884 0.0009786516 0.0012681227 0.07704035
-0.0073146783 0.025775388 0.0040912465 0.060390092 -0.0008247052 -0.004607471 -0.011793806 -0.08238826
-0.009229976 0.0109663205 -0.0054394607 -0.024259998 -0.0015095039 -0.0054435222 0.038054574 0.0021799414
-0.012038466 0.06596305 -0.03734485 -0.0057719722 -0.011593203 -0.0010054879 -0.11178431 0.059884496
0.08094545 -0.0013894355 0.004024419 -0.025905384 -0.00033962712 0.06835665 0.03448291 -0.0074304678
-0.11429432 0.0053859293 -0.0033011844 -0.0029660228 0.00041968105 0.075125836 0.003342705 0.006968182
0.0044681383 0.0066364873 0.00064472394 0.004238271 -0.004394849 -0.00031265934 -0.008009606 -0.05914469

network_body.linear_encoder.seq_layers.0.bias f4 [128]
00000000: 952e b0bd 4034 25bd ea2f 493d b334 17be
00000010: d835 6cbb 30cd 38bd 7e3c 083d 80fc 023e
00000020: a090 04bc e3ca 8a3d 74b4 b23c 9a0f 1bbd
00000030: 1af9 c93d c426 94bc 3bd8 c7bd c05a 9cbd
00000040: 1299 68bd 7825 cb3c bd7d 1e3d bb6e 99bd
00000050: 1064 d0bc 4ebb 85bd e85e c23b c8ad 45be
00000060: bb2b 2abd 1926 20be b0be 64be 8f71 8dbb
00000070: 756a 0abe 1472 88bc 06a0 15bd d2c0 d1bd
00000080: 66ee 9cbc a59a 5d3a 253e 84bc 59c4 19bd
00000090: 546e 003e 36bc 97bd ae46 703d 59de 9ebc
000000a0: 50a6 93bd 21d2 fabd d4ec 8cbd 291b 60bd
000000b0: 0ada 7cbe 82f9 e23d 994e 20bd 222f da3d
000000c0: f080 81bd f539 06bc aec0 2abe 4695 4cbe
000000d0: 257e f3bd f515 40bd d2f0 9c3c 56ec 09bd
000000e0: f884 323d 0b9f c8bd a8ad 37bd 0ee2 c4bd
000000f0: db10 e1bd 8f9e 09be cb8b bebd 4367 8d3d
00000100: 8c0c 99bc 537f 8b3d b4f8 0dbc 2fe8 203c
00000110: 6fe6 7d3c 1e14 cabd 0d39 8ebd 03f5 d3bd
00000120: 9794 63be e2ce babd 886c 21be a469 1fbe
00000130: 57d6 4e3d c000 da3d 027f 813d ac92 88bd
00000140: e67f 1ebe 63ce 26be bc54 08be 1d96 2a3d
00000150: 9b9d 91bd 8035 84bd dd9d e7bd a43a cdbd
00000160: 97fe 433c 0009 26bd 45f6 bebd 3bf7 09be
00000170: a340 53bd faab 14bd 77a1 c3bd 9906 ab3d
00000180: d017 2cbe 0c83 e0bc e723 fcbc fbbe 46be
00000190: 6624 34bd 7a25 203d 78c3 14bc 1077 0c3d
000001a0: a7ea f73d 0b18 70bd 5c3c bfbd 46f7 c9bd
000001b0: 7ab8 1cbd 8c70 ecbd 1049 65bd f8d6 eebd
000001c0: 3f17 a7bb fd9f 5a3d ec51 a13a bce0 9cbd
000001d0: 107c 3bbd 1f92 5f3d 14e9 34bd 1b3b d03c
000001e0: 63ad ca3d 30b6 913d 533a 683d d38d 403a
000001f0: c1c4 32be 4970 3ebe 12d8 29bd 5267 07be
-0.08602635 -0.040333033 0.04911796 -0.14766197 -0.0036042836 -0.045117557 0.033260815 0.12791634
-0.008091122 0.06776979 0.021814562 -0.037856676 0.098619655 -0.018084891 -0.097580396 -0.07634497
-0.056786604 0.02479814 0.038694132 -0.07491823 -0.025438339 -0.06529866 0.005931724 -0.19304574
-0.04154561 -0.15639533 -0.22338367 -0.0043165158 -0.13517173 -0.01665596 -0.036529563 -0.10241856
-0.019156646 0.0008453525 -0.016142914 -0.037540767 0.12542087 -0.07408945 0.058661155 -0.019393133
-0.07209456 -0.1224711 -0.06881109 -0.054713402 -0.2469255 0.11082746 -0.039137457 0.10653521
-0.06323421 -0.008192529 -0.16675064 -0.19978818 -0.118892945 -0.04689594 0.0191578 -0.033672653
0.04358384 -0.0979596 -0.044843346 -0.09613429 -0.10989543 -0.13439392 -0.09304007 0.06904461
-0.01868274 0.068113945 -0.0086652525 0.009820982 0.015496834 -0.09867118 -0.06944475 -0.10349467
-0.22224651 -0.09121491 -0.15764058 -0.15567642 0.05049738 0.10644674 0.06323053 -0.066686004
-0.15478477 -0.16289668 -0.13313574 0.041647065 -0.07110139 -0.06455517 -0.11309407 -0.100209504
0.011962554 -0.040535927 -0.09324316 -0.13473217 -0.051575314 -0.036296822 -0.09552281 0.08350868
-0.16805959 -0.027406238 -0.030778838 -0.19408791 -0.043980025 0.03909824 -0.0090798065 0.034293234
0.12105303 -0.05861668 -0.093376845 -0.09861617 -0.038261868 -0.11544904 -0.05597788 -0.11662096
-0.0050992067 0.053375233 0.001230774 -0.07660052 -0.045772612 0.05458271 -0.044167593 0.025418809
0.09896352 0.07114828 0.056696247 0.0007345352 -0.17457868 -0.18597521 -0.041465826 -0.13223007

network_body.linear_encoder.seq_layers.0.weight f4 [128, 4]
00000000: 0d07 09bd e3a3 ecbe 5a9e 77be 0fae f93e
00000010: e72c f23d 1e27 8ebd 8d72 6cbf 6cc9 253d
00000020: f1f6 ea3d 84bf 14bf f83a a23e 3d78 f5be
00000030: 9362 90bd ea55 3d3f 4cc8 0d3d 6055 493e
00000040: 0d96 07be d3b2 cf3d 394d a0be 67db 59be
00000050: 177d 86bf 263d b83e 1a34 a03e 5b9d 693e
00000060: b1cf 08bf 3ea6 8d3d 6692 abbe c962 3fbf
00000070: 7863 a6be 92c8 01bf f6f2 043e f2a4 e4be
00000080: aaed 9ebe cff7 813e 1ac9 36bf c3b4 c6be
00000090: c593 34be d720 ff3d abb1 023f c90e ec3d
000000a0: 5045 ab3e 90d2 cbbd 11ee 6a3e 63f2 05be
000000b0: 9c02 bcbe ae29 163f 84dc a63e 7816 573e
000000c0: 5ee4 0b3e f805 993e 7d10 623e 1c12 dfbe
000000d0: 32c1 6d3e 4b9d 393e 7d27 933f d384 8c3e
000000e0: 605f 083f e570 ccbf fa04 e73e 57cc 123f
000000f0: a0cd 383f 5cbe 2f3e 6b60 80bf 6355 863e
00000100: fca7 cebe 7619 3a3f c054 323f c67e 943f
00000110: 990d 043f 7a6b 873e c787 083f 8869 3abe
00000120: 0604 a9be c3e6 15bf 830b 5e3f ac1c 073e
00000130: a2ef 8abe b12f 14bf bafc 1e3e 003d b03f
00000140: 258c fcbd 1e83 dcbd 54c8 ccbe ec44 7e3e
00000150: 03f5 3bbd 7584 86bc ab88 b13c 1b1b 183f
00000160: 5264 3bbe 3b12 0abf a73e 80bf c032 adbe
00000170: e907 493f 3af4 6abd a0b2 31bf 98fd 353f
00000180: a4bc e3be 65fc 64bf 155b 523c 6845 993e
00000190: 4167 2dbf 2ed5 643f 09e8 513e e992 83bc
000001a0: 0968 48bf 8fe5 d53d 2d37 d4be 322e 583e
000001b0: 4349 383f 12dd 32be 80e1 6c3f e31d b6bf
000001c0: 162e 173f da2d d9bd bcc3 a53e 85d1 cc3d
000001d0: c07d 18bf 6b82 bb3e dc20 5fbe f391 f337
000001e0: 9525 87be 7ab9 063f c7eb 3a3e 1803 afbe
000001f0: baf5 04be 98d5 903d d544 123e 7943 b63e
00000200: 1b78 883d 1bde e1bd 4889 ac3d 30a8 413d
00000210: 47d6 203e 393f 533c f643 483f 4078 d73c
00000220: 4635 163f 4e1f b7be 2573 c8be 9a2d 9b3c
00000230: efb2 6a3b 5b6b 9cbe 6a8c 193d 228f 65be
00000240: 7881 1cbd 55ef 593e 5d5a 453d cbd8 b7be
00000250: 5b8b c33e 3590 0ebf b284 a7be a0f8 c8be
00000260: e867 00be 401f 483e 062b f5be ba0d bebe
00000270: 55cc a4bd fc91 3dbf 465e ed3e 3271 613f
00000280: ad70 f6be ed98 853e d03d 773e 3030 32bf
00000290: 35ae 0e3f ee58 4e3f 7030 093e 06e7 893f
000002a0: f752 063e 7ac3 023f aaca 223f f247 053e
000002b0: 9961 98be e7ee babe 2353 233f 1b84 393f
000002c0: 62d9 3d3e 44f4 2e3f 124b b0be 3f54 d93c
000002d0: 77e7 c4be 9323 163f 3757 5cbf caa1 35bf
000002e0: 51bd 913d 8561 5a3f 98da bcbe 72e0 ecbe
000002f0: a967 cf3d 6507 8a3d ab14 e33d 6d28 87bd
00000300: 56e6 d9be cd91 bb3e f73d 683e 81d8 c8be
00000310: 9cb1 403d ac0c 48be 0414 66bd dbf4 7cbe
00000320: dd27 c43e 32fa d93d 16ca 203d f328 003e
00000330: 5a51 0a3f 8a5d 33bf d61b 1d3e 3c95 1a3e
00000340: 77d3 833e d5a5 f83c 8fe3 c3bd e6b6 7a3f
00000350: 1058 17bd 78e1 f63e 1226 0a3f 0c8b 4c3f
00000360: 18aa 31bf 11a9 133f 0f5e c73f a7c6 593e
00000370: 94a7 6bbe 77ab acbd 8150 c6be 1e21 f73c
00000380: ca0e d2be 0564 b4be 352d ae3e e113 03be
00000390: 70d0 8d3f 2322 47be 74ad bd3e 1e46 93be
000003a0: 96e5 02be 2a4e c2be 2f7f 2fbf 12a9 8a3e
000003b0: 8240 233d 98ad 143e 1fbf 913c a41c 143f
000003c0: c3ca 08bf 94ac 553e 7185 b6be a79a 343f
000003d0: 33bc d23d cf09 a3be 539e 893d d800 963d
000003e0: 02cb 943e 7ce9 9a3f ade3 3f3f 4d71 92be
000003f0: 34a9 953d 7b7c 823e 8b74 0d3e 6667 96bc
-0.03345399 -0.46218786 -0.241815 0.4876561 0.11824971 -0.06941055 -0.9236229 0.040475294
0.114728816 -0.5810473 0.31685615 -0.47943297 -0.070500515 0.7395922 0.034614846 0.19661474
-0.13240834 0.1014153 -0.31308916 -0.21275102 -1.0506924 0.35984153 0.3128975 0.22813933
-0.5344191 0.06916474 -0.3351013 -0.7476011 -0.32497764 -0.5069667 0.12983307 -0.44657093
-0.31040698 0.25384375 -0.71400607 -0.38809785 -0.17634495 0.124574356 0.5105235 0.115262575
0.3345132 -0.09952271 0.22942378 -0.13080744 -0.3672074 0.5865735 0.32590115 0.21004665
0.13661334 0.29887366 0.22076602 -0.43568504 0.2321823 0.18126409 1.1496426 0.27445087
0.5327053 -1.5971953 0.45120984 0.5734305 0.7218876 0.1716246 -1.0029424 0.2623702
-0.40362537 0.726951 0.6966057 1.1601188 0.5158325 0.26449186 0.5333218 -0.1820432
-0.33010882 -0.5855524 0.86736315 0.13194531 -0.2713595 -0.5788527 0.15526095 1.3768616
-0.12331418 -0.10767196 -0.39996588 0.24830979 -0.04588796 -0.016420582 0.021671614 0.5941636
-0.18299988 -0.5393407 -1.001912 -0.33827782 0.78527695 -0.05736182 -0.69413185 0.7109008
-0.4447986 -0.89447623 0.012839098 0.29935765 -0.6773568 0.89387786 0.2049867 -0.016061263
-0.78283745 0.104441755 -0.41448346 0.21111372 0.7198679 -0.17467144 0.92531586 -1.4227871
0.59054697 -0.106044486 0.32375896 0.100009 -0.5956688 0.3662294 -0.21789879 2.903582e-05
-0.2639586 0.52626765 0.18254004 -0.34182048 -0.12984362 0.0707199 0.1428407 0.35598353
0.06663533 -0.110286914 0.08424622 0.047279537 0.1570674 0.012893491 0.782287 0.026302457
0.5867504 -0.3576607 -0.39150348 0.018942643 0.003581222 -0.30550656 0.037487425 -0.22417882
-0.03820941 0.21282704 0.04818188 -0.35907587 0.38192257 -0.5568879 -0.32718426 -0.39252186
-0.12539637 0.19543171 -0.47884387 -0.37119848 -0.08046786 -0.7405088 0.46360987 0.8806335
-0.4813284 0.26093236 0.24144673 -0.6960478 0.5573457 0.80604446 0.13397384 1.0773628
0.13117586 0.51079524 0.6359049 0.13015726 -0.2976196 -0.36510393 0.6379873 0.724672
0.18539956 0.6834147 -0.34432274 0.02652943 -0.38457844 0.5864803 -0.8607058 -0.70949996
0.07116187 0.85305053 -0.36885524 -0.46264988 0.101271935 0.06739692 0.110879265 -0.065995075
-0.42558545 0.36634675 0.22679888 -0.3922768 0.04704438 -0.19536084 -0.056171432 -0.2470278
0.38311663 0.10643424 0.039255224 0.12515621 0.5403038 -0.70064604 0.1534265 0.15095991
0.25747272 0.030352512 -0.09564888 0.9793533 -0.036949217 0.48218894 0.5396434 0.7989967
-0.6940017 0.5767985 1.557558 0.21267186 -0.23013145 -0.08431142 -0.38733295 0.030167159
-0.41026908 -0.3523256 0.34018865 -0.12800552 1.1079235 -0.19446616 0.37046397 -0.28764433
-0.12782893 -0.3795026 -0.6855344 0.27082115 0.03985644 0.14519346 0.017791329 0.578562
-0.5343439 0.20866615 -0.35648683 0.7054848 0.102898024 -0.3184342 0.06719651 0.0732438
0.29061133 1.2102504 0.7495678 -0.28602067 0.073076636 0.25485596 0.13813989 -0.018359851

network_body.linear_encoder.seq_layers.2.bias f4 [128]
00000000: d4d5 3bbc a67b 443c 941c c4bd dbdb 82bd
00000010: 1181 b1bd 48fc 5bbd 43cb c0bc ffab aebc
00000020: 0e7a 273d 0067 2a3c 5209 8abd c5c9 cabb
00000030: a3ad d53c 3edf 37bd 0350 e1bc eed4 a1bd
00000040: 58e4 4fbd 28d7 31bc 26fa 89bc b729 48bd
00000050: 7ae6 ccbd fe55 b2bd 3eb7 2bbc 8f51 a7bd
00000060: ad7b 58bd 2ba3 a1bb c39e 063d 1814 803c
00000070: 1227 5bbc 60e7 89bb 2bfd a63c 1b77 55bd
00000080: 0adc 04bc 0f43 b4bc d96d 69bc b18b 09bd
00000090: dde0 dbbc 9777 adbd c058 1abd 9079 07bd
000000a0: 4309 693c a25c 11bd 202b 87bc fc2f 37bd
000000b0: d7f8 83bd 1e70 81bd 3120 b0bd 8846 0ebd
000000c0: 95a8 3dbd e1c0 92bc 67dd 67bc 8547 1e3c
000000d0: 6534 24bd f09e 97bc 6ffd cabb 6494 b7bd
000000e0: d2cb b1bd aa08 0b3d 1616 b8bc f18e a1bc
000000f0: 4629 1cbd d551 e7bc a59c f8bc 9cac 92bc
00000100: def4 c83c 9a6a 17bd 9e90 10bd f2b1 aebc
00000110: 1040 c6bd d2d9 12bd 84a5 17bd 8d17 b7bd
00000120: 15fa abbc b6e1 97bc 8a5f 95bd 8864 f83c
00000130: f38b 10bd 06d8 2dbc bb97 19bd 1b08 73bc
00000140: 828a 46bd 5dec c73a 1bc8 01bd 440c 96bd
00000150: 80a7 12bc 0f27 89bd 582a 15bd 5cd8 08be
00000160: 3152 abbd 4aaa 2abd 10b6 36bd 544a 82bd
00000170: 848e 29bd 57a9 28bd 3716 abbd 0387 bdbc
00000180: 4284 923a 35de b9bd b8c6 cfbd e60d debc
00000190: 66a5 58bd 446b 97bc 3217 cbbd 50d4 87bd
000001a0: aae4 07bd c86a 23bd c713 90bc e2ef c3bd
000001b0: 4c9f 853b 2cf2 ffbb 93fa e6bc 6b50 ebbc
000001c0: 5923 cbbd d69b 2bbd ef6d 12bd d361 c13c
000001d0: 6612 c8bc 68da babd d84d 57bd 2bda f23c
000001e0: e0a4 fbbc 123c 56bd b188 23bd dc6b c1bc
000001f0: b662 8a3c 80be 0fbd aada b0bd 64b2 84bd
-0.011464555 0.011992371 -0.09575763 -0.0638959 -0.086671956 -0.05370739 -0.023534423 -0.021322249
0.040887885 0.010400534 -0.06740059 -0.0061886036 0.026083773 -0.044890635 -0.027503973 -0.07901941
-0.050754875 -0.01085452 -0.016842913 -0.048867907 -0.100048974 -0.08707808 -0.0104807 -0.08169853
-0.05285232 -0.004932781 0.03286625 0.015634581 -0.013376014 -0.0042084903 0.020384392 -0.05211554
-0.008109102 -0.022004632 -0.014247381 -0.033580486 -0.026840622 -0.084700756 -0.037682295 -0.033074915
0.0142234 -0.035488732 -0.016500056 -0.044723496 -0.06443947 -0.06320213 -0.0859989 -0.034735233
-0.04630335 -0.017914237 -0.0141519075 0.009660606 -0.04008903 -0.018508404 -0.0061947624 -0.0896385
-0.08681454 0.03394381 -0.022471469 -0.01972148 -0.0381253 -0.028237263 -0.030348131 -0.017904572
0.024530824 -0.036966898 -0.035294168 -0.021325085 -0.09680188 -0.03585226 -0.037023082 -0.08940039
-0.020993272 -0.018540245 -0.07293613 0.030321375 -0.035289716 -0.010610586 -0.037498217 -0.014833475
-0.048471935 0.0015252937 -0.031684976 -0.07326558 -0.008951068 -0.06696903 -0.036417335 -0.13363785
-0.08365286 -0.041666307 -0.044607222 -0.06361833 -0.04139568 -0.04117712 -0.083538465 -0.023135668
0.0011178332 -0.09075586 -0.101453245 -0.027106237 -0.05289211 -0.018483765 -0.099165335 -0.06632292
-0.033177055 -0.039896756 -0.017587556 -0.095672384 0.0040778276 -0.0078108516 -0.028195655 -0.02872487
-0.099188514 -0.041896664 -0.035749372 0.023606217 -0.024422836 -0.09123689 -0.052564472 0.029645046
-0.030718267 -0.05230338 -0.03992528 -0.023611002 0.016892772 -0.035093784 -0.08635457 -0.06479338

network_body.linear_encoder.seq_layers.2.weight f4 [128, 128]
00000000: 50d0 d73d d01c b03d 848f 61bd 92f3 45bd
00000010: ce20 f7bc 856c f63d 0341 84bc 855c 9bbd
00000020: 35a1 fb3c 07f3 2b3c 1440 6ebd 6499 7bbe
00000030: 78a5 2f3c e508 99bd 8dae 5cbe f76c 5b3d
00000040: 5912 4bbe 8b94 1f3e 4750 483d 6081 4dbd
00000050: c02c 21be d489 12be 5891 1f3c 64ed fe3c
00000060: 9fad 133d 7d66 f0bd 2b9d b8bd 02d0 683c
00000070: a057 1bbd f0de 0ebe a853 a1bd 18fe 3b3c
00000080: 762c 05be 26fc 1fbe 512c febc ddb8 08bd
00000090: 4859 a1bb 68e1 13be 9b7d f5bc 1478 c5bd
000000a0: 26bb e6bd 0a49 36bd 501f cd3d 9401 a63d
000000b0: 2147 173e f3df 5d3e f4ae c23d 96b9 0cbe
000000c0: 0640 063e 23b3 cfbd 2b5a ad3d 0ef7 86be
000000d0: c0af c53b d0f8 b0be 3e88 e2bd a2e8 33bd
000000e0: 35b9 58be 74b2 b83d 1193 0bbd fe2d 06be
000000f0: e81c bd3c 6d5e b8bd 0a47 623d f857 00bc
00000100: 4e50 60be ee04 b63d 3796 c6bd 51ac 1abe
00000110: 7a21 3abd d09a 88bd d5ca 39be 3fac a83d
00000120: a9f2 863e e8f8 b8bd 558f b3bd f260 08bd
00000130: 0b59 5dbd 3a75 3d3c 94dd fc3c 5297 963c
00000140: 295e 5fbd d833 933d 5fda b8bd 6776 30bd
00000150: 5708 d63d 3031 123d ddf5 84bc 214e c13d
00000160: 1a7e 8abd 558c 81be c079 f03d d356 c63c
00000170: a1a7 2b3b cd51 133d fa01 8fbd a48a a0bd
00000180: ad3e cd3d b929 07be b0ba 68bd a80f 1cbe
00000190: 5c46 763c c491 06be 7890 36bd 9a8e f3bc
000001a0: 5c7c 04bd 1fcb f7bc 6d10 7f3e d925 293d
000001b0: e4f7 1cbd 71d3 cfbc ffc7 5fbb 8b4d 36bd
000001c0: edfb e2ba 5b48 edbd 6a40 00be e8d5 06be
000001d0: 7125 1e3e d5c7 333e 780f dcbd e28a 25be
000001e0: 6b12 8d3d afb7 ae3c ee54 943c 644c 3cbc
000001f0: 954f c8bd d050 5f38 185d 93bb 820b d7bd
00000200: f1c1 13be 6ed4 033c 06f7 123e 2fdf a83d
00000210: 4624 893d 8d0b 1f3d d1c5 1d3e 4ba0 babd
00000220: 59ce c4bd 663d 89bd f9ae 0ebe 7cd3 a73d
00000230: ec10 75bd 3ebe a53d 8057 653d f3e2 1f3e
00000240: 01f5 8a3d 4c6f b0bd 92bc 353e 8519 c2bd
00000250: 79eb 1f3e f9d1 cbbd ebb0 643d fb46 81bd
00000260: 85da a0bd 06ed 2b3d f859 e63b 5557 e7bd
00000270: 7050 babd 9779 77bd 18f0 3e3d 3de6 9ebd
00000280: 0b0a 693d 2773 a7bd c52d 60bc a324 813d
00000290: 3b25 4d3d d124 01be 1e29 9e3d 17e3 60bd
000002a0: bfc1 76bd 6d0a e8bd 49be 9d3c 11ae a33c
000002b0: 1f29 1e3d cbd4 48bc 4b23 a6bd 4ad8 e13d
000002c0: 1231 023e a9c1 15bc 9b83 07be e6ce b13d
000002d0: 6d51 8aba f3f1 103e 52f2 093d c7ec 363d
000002e0: ce6f 2e3d c386 f73d 78f7 8abd 4903 d9bc
000002f0: 3eea ee3c b9b3 aebd ebfc fd3c d54d bbbc
00000300: 7581 c1bd 21b9 3f3e b8c6 febd 4b09 42bd
00000310: c6ff 07be b805 f2bd ab0f 793d 135b 6ebe
00000320: fefb db3c aff6 ebbd 5a61 dcbd 7c83 963c
00000330: 82de ab3c b5fe d83d e11d 0b3e 2f52 db3c
00000340: a914 f3bd 26ff b4bc a37f ea3c 3323 babd
00000350: 1e2a 963d 7d31 2ebe 4a2b 0cbe 6992 91bd
00000360: e54b 853c 1f35 193d c804 283d 0c5a 44be
00000370: d0ed 0f3d bb00 8fbc f0c3 073d 06f1 a4bd
00000380: 4b10 4f3b 90f4 3bbd f773 db3c a9a1 fc3b
00000390: 844f c03d 5b21 363b a16b ffbd 56fc ed3d
000003a0: 1721 5abd bfb5 483c 2098 9e3d acce abbd
000003b0: a663 9bbd c4c2 3abe 296b 1dbd f6ac ad3c
000003c0: 09a9 803c dea6 57bd 75fe dd3b 7fe9 60bd
000003d0: 14e4 b63b defe 07be 2011 ae3d 222e 9abc
000003e0: 53bc 47bc 25e7 da3d 193c cfbc 6788 e43a
000003f0: 247c b2bd db6f f1bd f954 c03c 446d 1abe
0.10537779 0.085992455 -0.055068508 -0.04832799 -0.03016701 0.12032417 -0.016144281 -0.07586006
0.030716518 0.010494954 -0.05816658 -0.24570233 0.010720603 -0.074723996 -0.21550961 0.053570714
-0.19831218 0.15584008 0.048904683 -0.05017221 -0.15739727 -0.1431039 0.0097392425 0.031119056
0.03605425 -0.11738298 -0.090143524 0.014209749 -0.037925363 -0.13952231 -0.07877284 0.011474155
-0.13005242 -0.15623531 -0.031026991 -0.033379424 -0.004923973 -0.14441454 -0.02996712 -0.09642044
-0.112661645 -0.04450325 0.10015738 0.0810577 0.14773227 0.21667461 0.09506026 -0.1374267
0.1311036 -0.101415895 0.08464464 -0.26360363 0.006032914 -0.3456483 -0.110611424 -0.043923028
-0.21164401 0.09018412 -0.0340758 -0.13103482 0.023085073 -0.09002385 0.05524353 -0.007833473
-0.21905634 0.08887659 -0.0969662 -0.15104796 -0.045442082 -0.06670153 -0.1814378 0.08235978
0.2635701 -0.0903185 -0.08767573 -0.03329558 -0.054039996 0.0115635935 0.030867375 0.018382702
-0.054533157 0.07187623 -0.09026026 -0.043081667 0.104508094 0.03569144 -0.016230518 0.0943873
-0.06762333 -0.25302377 0.11741972 0.024211323 0.0026192444 0.035966683 -0.06982799 -0.078389436
0.1002172 -0.1319951 -0.056818664 -0.15240347 0.015031423 -0.13141543 -0.04457137 -0.029731084
-0.03234516 -0.030248223 0.2490861 0.04129586 -0.038322344 -0.025369378 -0.0034146307 -0.044507544
-0.0017317511 -0.11586066 -0.12524572 -0.13167536 0.1544397 0.17556699 -0.10745138 -0.16166261
0.068882786 0.021327822 0.018106904 -0.011492822 -0.09780804 5.3242606e-05 -0.0044971816 -0.10500242
-0.14429452 0.008046253 0.14352044 0.08245694 0.06696372 0.038829375 0.15407492 -0.09112605
-0.0960967 -0.06701164 -0.13933934 0.08194634 -0.05983059 0.080929264 0.05599165 0.15613918
0.06785012 -0.08614978 0.17747715 -0.09477524 0.1561717 -0.099521585 0.055832785 -0.063123666
-0.07854179 0.04197409 0.007029768 -0.11295954 -0.090973735 -0.06041869 0.04661569 -0.07758758
0.056894343 -0.081762604 -0.013682787 0.06305816 0.050084334 -0.126117 0.07722686 -0.05490407
-0.060243364 -0.113301136 0.019255774 0.019980462 0.038613435 -0.012257765 -0.081122 0.11027582
0.12714031 -0.00914041 -0.13233797 0.08682041 -0.0010552831 0.14154796 0.03367836 0.044659402
0.042587094 0.12086251 -0.06785482 -0.026490824 0.02916443 -0.08530373 0.03100439 -0.022864262
-0.0944852 0.18722965 -0.12440246 -0.047372144 -0.13281164 -0.11817497 0.060805958 -0.2327693
0.026853558 -0.115216605 -0.10760756 0.018373244 0.020980123 0.105954565 0.13585617 0.026772587
-0.11869175 -0.02209432 0.028625315 -0.09088745 0.07332252 -0.17011066 -0.13688388 -0.07108004
0.01627154 0.037404176 0.041020185 -0.19174975 0.035138905 -0.017456403 0.033145845 -0.08053784
0.0031595405 -0.04588753 0.026788695 0.007709701 0.093901664 0.0027790878 -0.124717005 0.11620395
-0.053254213 0.012250363 0.07743859 -0.08389029 -0.07587366 -0.1823836 -0.038432274 0.021200638
0.015705602 -0.05264937 0.0067747184 -0.05491018 0.0055813882 -0.13280818 0.0849936 -0.018820826
-0.012190896 0.106886186 -0.025297211 0.0017435671 -0.08715084 -0.11788913 0.023478018 -0.15080744

network_body.vector_processors.0.normalizer.running_mean f4 [4]
00000000: 06ac 0c40 d4a3 67be f93b 04c1 2970 e43f
2.1979995 -0.22621089 -8.264642 1.7846729
