ml-agents-master/ml-agents/config/results/ppo/LineCreator/LineCreator-61055.pt (torch, 434231 bytes, 40 tensors)

network_body.vector_processors.0.normalizer.running_mean f4 [4]
000000 58 e0 1e 41 85 46 51 40 57 a1 38 c1 12 35 84 40
       9.929771 3.2699292 -11.53939 4.1314783

network_body.vector_processors.0.normalizer.running_variance f4 [4]
000000 79 35 c7 42 a6 15 3b 41 75 dd 14 48 0d b2 b0 48
       99.60444 11.692785 152437.83 361872.4

network_body.linear_encoder.seq_layers.0.weight f4 [128, 4]
000000 40 cb 78 3d 40 a7 3a be 42 03 28 be 39 f0 61 bc
       0.06074071 -0.18227863 -0.16407493 -0.013790184
000010 1d a2 ca 3e 46 44 9d 3e 74 8f 13 3f 28 00 af be
       0.39576808 0.3071615 0.5764077 -0.34179807
000020 cd 5a 51 be 0d 71 8d 3e 5c 71 ab be 74 1b 9c bd
       -0.20444794 0.27625313 -0.33484924 -0.07622424
000030 3f 6f be 3e 4f 67 0b be 45 67 cb bd b8 f2 90 bd
       0.3719425 -0.13613628 -0.099318065 -0.07077545
000040 1b e5 47 3f 00 42 31 bf e8 d9 54 3f 04 ea db 3f
       0.7808396 -0.69241333 0.83145 1.7180791
000050 de bb 7b bf a4 4a 76 3f 53 7b dc 3e 25 6e d1 be
       -0.9833354 0.9620764 0.4306284 -0.40904346
000060 96 ad c2 3e c6 e1 fe 3d 87 73 ff be 7e 90 d0 3e
       0.3802306 0.124454066 -0.49892828 0.4073524
000070 29 aa 30 bf e4 31 89 be e3 35 98 3f 78 9a df 3e
       -0.69009644 -0.26795876 1.1891445 0.43672538
000080 67 f3 f7 bc 29 2d 36 3f ab fe 48 3e 3d a8 0c be
       -0.03026743 0.7116266 0.19628398 -0.13736053
000090 ba 1b c1 be 8a 15 0e 3f 30 7b d3 be 38 2f 8a 3e
       -0.37716466 0.55501616 -0.41304922 0.2698915
0000a0 c8 ab 3d 3e 9a 9c 2e be 2d c9 9a 3d 05 c8 69 be
       0.1852256 -0.17051926 0.075579025 -0.22830208
0000b0 c2 46 41 bf 56 89 1e 3f cb 44 3c bf d0 98 65 bb
       -0.7549859 0.6192831 -0.7354247 -0.003503371
0000c0 64 b4 83 3f 9c f9 57 3e 30 a6 4a bf a2 65 09 3d
       1.0289426 0.21091312 -0.7915983 0.03354419
0000d0 88 2d 74 bf 26 20 ca 3e fe 58 a5 be 4c f4 4a bc
       -0.95381975 0.39477652 -0.32294458 -0.0123873465
0000e0 81 1c ba 3d 4c a2 49 bd 68 cf fd 3e 77 66 b0 3c
       0.09087468 -0.049227044 0.495723 0.021533234
0000f0 3c b1 a3 be 55 e8 03 3f 6d 10 bc 3c 23 2a d0 bd
       -0.31971157 0.51526386 0.022957051 -0.10164287
000100 46 fa fa 3d ef 71 2f 3e a5 53 1e bf 0a f5 b6 be
       0.12254767 0.17133306 -0.6184638 -0.35733825
000110 75 79 0f bf 7d 0a 52 3f 01 81 87 be 5d e0 09 3f
       -0.56044704 0.82047254 -0.2646561 0.53857976
000120 f7 ba ed 3d 21 af 81 3f 48 11 f3 bd ab 4b e9 bc
       0.11607926 1.013157 -0.118685305 -0.028478464
000130 ab 77 bf 3e ee f6 46 bf 7e f2 ed be f7 29 57 3e
       0.37395987 -0.77720535 -0.4647407 0.21012102
000140 40 d5 e8 be d8 b9 20 3f 1b c2 e6 be 36 35 53 3f
       -0.45475197 0.62783575 -0.45069966 0.8250307
000150 91 04 2d bf 75 4b ba be 9a 0c 84 3e 4a 72 24 3f
       -0.6758509 -0.36385694 0.25790864 0.6423689
000160 93 af 0d 3f 92 68 a8 3c ab 93 b4 3d 67 62 c1 3f
       0.5534603 0.020557676 0.08817228 1.5108155
000170 bf c8 e6 3d a1 0f a1 be d3 1b 8e be 93 84 ad 3e
       0.11268758 -0.31457236 -0.27755603 0.3389021
000180 b5 a5 3c bf 84 e4 02 3f 80 24 52 3f 5a ac 1a bf
       -0.7369035 0.5112994 0.82086945 -0.6041924
000190 c8 9b ad 3f 8f 27 aa be dc 74 01 3f 55 78 ff be
       1.3563166 -0.33233306 0.5056894 -0.49896494
0001a0 3e 95 df bf 7c 31 2f bf e6 83 15 be 71 d2 30 bf
       -1.746742 -0.6843488 -0.14601097 -0.6907111
0001b0 53 db 93 3e a1 c9 59 bd a4 1f e9 be 65 f4 31 3e
       0.2887827 -0.053170804 -0.45531952 0.17378385
0001c0 51 18 0e bf d1 f6 02 3e 94 7f b6 bf f1 db 53 be
       -0.55505854 0.12789465 -1.4257684 -0.2068937
0001d0 80 bd 4a 3f af eb a6 3f df 88 a8 3e 62 77 44 3e
       0.79195404 1.3040675 0.32916924 0.19186166
0001e0 de 3e d5 3e 91 a4 ad be 1a 2a 75 3d 09 c8 72 3e
       0.41649526 -0.33914617 0.059854604 0.2370912
0001f0 fe cf ce 3c e7 3d f7 3e cd d6 65 3e 68 32 1f bf
       0.025245663 0.48289415 0.22445221 -0.6218629
000200 31 bb 76 3e 5b 34 68 3f 36 f0 60 be 43 50 5e 3e
       0.24094845 0.9070489 -0.21966633 0.21710305
000210 59 05 b6 be 9a 34 92 3e 15 fb f2 bd 15 50 2d bf
       -0.35550955 0.28555757 -0.11864296 -0.6770032
000220 e2 49 5d 3e 1b ea 07 bf 0d 01 07 bf ea 7a 4b 3f
       0.21610215 -0.5309159 -0.5273598 0.79484427
000230 6c 1a 4a 3f bf ae 24 bd 1d 18 89 be 62 3c 10 3e
       0.78946567 -0.040205713 -0.2677621 0.14085534
000240 9e 68 a0 be 96 ea e1 3e 4d 49 2c 3b 63 1b 6e bd
       -0.31329817 0.44124287 0.0026288808 -0.058131587
000250 31 6e 40 3f 0a ba 00 bf 26 40 f9 be ad a8 8d 3e
       0.7516814 -0.50283873 -0.48681754 0.27667752
000260 33 81 14 3f 5f 24 e0 bd 8b c1 a8 bc 3c 4e fe 3d
       0.5800964 -0.10944437 -0.020600101 0.12417266
000270 44 4f da 3e 03 25 6b bd f0 19 09 bd d3 8d b4 3e
       0.426386 -0.057408344 -0.033472 0.35264453
000280 f4 3b 3c bf 7d 53 97 3e a6 bd b8 bd 55 f7 d7 3e
       -0.7352898 0.29555884 -0.090205476 0.42180887
000290 28 19 06 3d fa 9f 56 be d9 58 d6 be 26 cb 54 be
       0.032738835 -0.20959464 -0.4186466 -0.2078062
0002a0 23 26 42 bf fc b8 aa 3e dc 32 4d 3f a4 e1 ef be
       -0.7583944 0.33344257 0.8015573 -0.46851838
0002b0 54 da 1c be a6 1d b8 3e e7 64 e0 3e 5d c3 3d 3c
       -0.1531766 0.3596012 0.43826982 0.011582223
0002c0 43 0d 03 3f ed cf f7 3e 18 93 2d 3e c4 f6 98 3d
       0.5119211 0.48400822 0.16950643 0.07468942
0002d0 a1 18 88 3e ef 95 0d 3f dd fd d6 3d ba 43 50 39
       0.2658129 0.55306906 0.10497639 0.00019861656
0002e0 a0 c7 07 3f 8e b9 40 3f c2 e2 d7 3e 4c 53 fb bd
       0.5303898 0.75283134 0.4216519 -0.12271747
0002f0 5c c7 60 bd f7 6b 45 bd 3b 93 98 bd 06 9a 58 3f
       -0.054877624 -0.048198666 -0.07449957 0.8461002
000300 35 42 9a bf c5 20 c4 3e 34 92 04 bf f7 8a 63 be
       -1.2051455 0.3830625 -0.5178559 -0.2222098
000310 08 66 66 3e 53 e9 7b 3d 9e ae 4f 3f a6 40 31 3e
       0.2249986 0.061501812 0.8112582 0.17309818
000320 d6 ed 54 be 19 cd cc 3e 80 49 b0 bc cb bb 95 bc
       -0.20793852 0.40000227 -0.021519423 -0.018278023
000330 de ab 9a be 33 01 f7 3d ff c1 a8 be ab d6 28 be
       -0.3020925 0.120607756 -0.32960507 -0.1648814
000340 7f e8 37 3f fb ae dc be 24 0a a3 be ba 20 d8 bd
       0.71839136 -0.4310225 -0.31843674 -0.10553117
000350 38 ae 97 3f a6 b4 28 3c a2 23 96 be 6f dc 9d bf
       1.1850042 0.010296976 -0.2932406 -1.2332896
000360 27 bf c0 3e e5 75 f9 3d 88 cb 14 3e 06 1e 0d bf
       0.37645838 0.1218069 0.14530766 -0.5512394
000370 7d 2c ac 3e d8 1f d9 3f b8 d3 6c bc eb eb be 3e
       0.33627692 1.6962843 -0.014454775 0.37289366
000380 59 7c 9f 3e ce a1 32 be 14 d6 43 3e 74 78 b0 be
       0.31149557 -0.17444536 0.19124633 -0.34466898
000390 75 51 af 3e 2a 8d 6b 3e b5 18 47 be 2d 0f 9f 3e
       0.34241834 0.23003069 -0.19443019 0.31066266
0003a0 e4 4d 72 bd d0 1d a1 be b3 91 1f 3e d6 99 f8 bd
       -0.059156314 -0.31468058 0.15582924 -0.12138717
0003b0 a7 7c 93 3f 7b fd 17 be cd 59 79 3f f6 92 5b 3e
       1.1522416 -0.14842789 0.9740265 0.2144278
0003c0 71 a7 5a 3d c5 87 38 bf a6 90 3e bf 27 f4 40 3e
       0.05338234 -0.7208217 -0.74439466 0.18843137
0003d0 02 df 70 3e b8 56 ff 3e c3 8e 17 3f eb 37 4c bf
       0.2352257 0.4987085 0.5920221 -0.79772824
0003e0 00 84 4b bf da 14 77 3d 8e 6b 64 be 98 f1 8d 3e
       -0.7949829 0.06032262 -0.22306654 0.27723384
0003f0 06 c6 e0 bd 27 e8 e3 3e 70 c8 87 3f 62 a0 26 3e
       -0.1097527 0.44513056 1.0608044 0.16272119

network_body.linear_encoder.seq_layers.0.bias f4 [128]
000000 e9 72 d5 3c cc 3a f4 bc 5f 04 06 bd 6e d4 9a bc
       0.02605577 -0.029813193 -0.032719012 -0.018900122
000010 d6 65 a3 bc 5a 6a 10 bd b9 4b 6a bd 23 9a 86 3c
       -0.01994602 -0.035257675 -0.05720112 0.01643092
000020 3c 16 e3 bc 0f ee 18 3d 59 d1 69 bd 2c 9c 74 bd
       -0.027720563 0.037336405 -0.057084415 -0.05971925
000030 ba 5f 83 bd 0b 42 dc 39 43 56 f3 bc fb 1b 25 39
       -0.06414743 0.00042010876 -0.029704219 0.0001574605
000040 be 10 16 bd 90 31 7c 3d 5c 15 12 3d 03 3c b8 3c
       -0.03663706 0.061570704 0.0356649 0.022489553
000050 05 30 89 bd ab 2a 4c 3a 80 71 34 bd 36 bb 4b 3b
       -0.06698612 0.00077883404 -0.044053555 0.0031086928
000060 b6 91 17 bd 77 9f 0b bd 39 a8 5a bd 01 51 43 bd
       -0.037004195 -0.034087624 -0.053383086 -0.047684673
000070 fd ac 9d bd 5f 3a d3 3c 9a b6 47 3d 5c 15 b2 bd
       -0.076990105 0.02578467 0.048758127 -0.0869548
000080 22 ef 21 3c 90 5c 7a bc 7b 37 9a 3c 70 e8 9f 3c
       0.009883674 -0.015280858 0.018825283 0.019520015
000090 30 c4 e5 3a d9 77 b8 bc 76 66 9f bc 06 03 1c bd
       0.0017529782 -0.022518085 -0.019458037 -0.03808882
0000a0 dd 6b 14 bd 44 a0 78 bc ef 2e a6 bd 45 25 52 bc
       -0.03623568 -0.015174929 -0.081144206 -0.012826269
0000b0 17 90 03 bd 25 bc 9d 3c b0 ac e6 3b 87 a3 00 3d
       -0.032119837 0.019254753 0.007039629 0.03140595
0000c0 ec 60 e8 bc 70 88 f5 bc ee c0 96 3b c4 00 85 bb
       -0.028366528 -0.029972285 0.0046006357 -0.004058929
0000d0 0c da 2d bd d9 b4 18 bd 42 80 30 bd 8b 01 34 3d
       -0.042444274 -0.037281845 -0.043091066 0.043946784
0000e0 bf cf 09 bd c6 78 8a 3c 10 0c ca bc 7d 8f ae bd
       -0.033645388 0.016903292 -0.024663955 -0.08523462
0000f0 f3 22 1b 3b 1f fc c8 bd b7 7c 61 bd ff 44 80 bd
       0.0023671954 -0.09813713 -0.055050578 -0.0626316
000100 ad 63 80 bd 91 30 72 3c 8e 4e b2 bc 98 ff 46 bd
       -0.06269012 0.014782087 -0.021765973 -0.048583597
000110 6e 52 6d 3d ff fc cf bc 91 22 06 3d ca dd 44 bd
       0.05793994 -0.025389193 0.03274781 -0.048063077
000120 a5 f3 92 bc c4 b1 f4 bc 8c 33 cb bc 98 9e d5 bc
       -0.017938444 -0.029869922 -0.024804853 -0.0260766
000130 51 6f 03 bd 44 91 d1 3a e7 ff 56 bd 13 5d 1f 3d
       -0.03208858 0.0015988727 -0.05249014 0.038907122
000140 08 23 ea bd 57 91 6e bd 7c 6e 15 bd 7b 4e 1d bd
       -0.11432463 -0.058244076 -0.03648232 -0.038404923
000150 fb f5 68 bc 82 ec 55 bd cd de f2 bc 4e d5 52 3c
       -0.014218803 -0.052227505 -0.029647255 0.012868239
000160 6e 6b 20 bd fb e1 af bd 45 c5 41 3d 9e 92 e5 bc
       -0.039164953 -0.08588024 0.04730727 -0.028024014
000170 1e 12 90 bc 5b 7e 6b bd 0e fd 15 bc fe 44 86 bc
       -0.017586764 -0.05749355 -0.009154571 -0.01639032
000180 26 de 95 ba 08 d2 9e bd 2b c3 32 3d e6 92 d2 bb
       -0.0011434003 -0.07754904 0.043643158 -0.006426203
000190 c9 cc 8f 3b cf b9 30 bd f4 93 a9 bd af 22 e8 bc
       0.004388426 -0.04314595 -0.08280173 -0.02833685
0001a0 1a d3 2a bd 58 66 6d bd df 83 e5 bc 6c 3c 5c bd
       -0.04170523 -0.05795893 -0.028016983 -0.05376856
0001b0 73 48 97 3c a3 1f 9b bc 23 61 32 bd be ab 69 bd
       0.018467164 -0.018935984 -0.043549668 -0.05704855
0001c0 8c 7e 30 3c 04 fd 4a bd 87 bd df bc 81 06 dc 3c
       0.010772359 -0.0495577 -0.027312053 0.02685857
0001d0 c3 ca f2 bc b9 bb 52 bd e3 de 0a 3d dc 0c 51 bc
       -0.0296377 -0.051448558 0.033903968 -0.012759414
0001e0 0d 94 2f bd 5f 43 af 3a d1 fb 56 bd 62 fb ba bc
       -0.0428658 0.0013371519 -0.052486245 -0.022824947
0001f0 bd 9c 42 bd 33 71 fb bc 4e a9 a9 bc 58 1c 31 bc
       -0.04751276 -0.030693626 -0.020710614 -0.01080998

network_body.linear_encoder.seq_layers.2.weight f4 [128, 128]
000000 70 33 4b 3d 1f cf 8a 3c 42 cb 29 be ca da 7b bd
       0.0496096 0.016944466 -0.16581443 -0.06148795
000010 14 88 92 bd 7a 35 24 bd ad 6c 2e 3e 36 d2 7c 3d
       -0.07154861 -0.04009006 0.17033644 0.06172391
000020 3b 50 a3 bd 55 0a 21 be c4 36 1e bd 9e 85 4b bd
       -0.07974287 -0.15726598 -0.038626447 -0.049687974
000030 3a 02 ee 3d f7 31 e2 bd 68 94 d3 bd b9 79 8c bc
       0.116215184 -0.11044686 -0.103310406 -0.017147886
000040 ae 0d a4 bc 40 f3 37 3c b6 02 86 bd 24 91 92 bc
       -0.020026054 0.011227429 -0.06543486 -0.017891474
000050 9a ff 60 3c c0 22 d6 bd 51 a0 22 bd 72 d8 97 3d
       0.013732815 -0.10455847 -0.03970367 0.074143305
000060 c0 7e e5 bc e1 dc 6b 3d 23 e0 0f 3e 7a c3 de 3c
       -0.02801454 0.057583693 0.14050345 0.02719282
000070 b1 b8 60 3d 19 87 3e 3d 8f f9 02 3e af a9 f5 bc
       0.054863635 0.046515558 0.12790512 -0.029988138
000080 29 50 81 3d fb 5e 61 bd d4 28 8a bd 43 4f e9 3c
       0.063141175 -0.05502222 -0.067460686 0.028480178
000090 45 a6 f6 3d 1c 82 4c 3d 15 9b e8 3d e2 36 81 bc
       0.12043432 0.04992877 0.113577046 -0.01577324
0000a0 dd 5b fe bb 5d 6e 78 3d d4 dc 01 3e 08 8d c1 bd
       -0.007762416 0.060652126 0.12681895 -0.09450728
0000b0 75 2a 64 3d 7d c9 8f 3c 06 9c ff bd 32 30 b4 3d
       0.055704553 0.017552132 -0.12480931 0.08798255
0000c0 9a 3e d3 3c af f2 bf bc aa c4 b7 bb 02 f4 fe bd
       0.025786687 -0.02343115 -0.005608161 -0.124488845
0000d0 08 d5 a7 3c a3 46 5c bb e4 14 ae 3c d4 74 cf 3c
       0.020487323 -0.0033611439 0.021250196 0.025324263
0000e0 16 b9 3f 3d d1 40 e2 3c cd 0e 43 be c6 74 b2 bd
       0.04680737 0.027618797 -0.19048615 -0.08713679
0000f0 6b 53 0a 3e 2c 1a 8d 3b 90 c8 27 3c 2f c4 09 be
       0.13508384 0.0043060984 0.010240689 -0.13453744
000100 8e 41 95 bd e0 26 b3 bd e4 fe 82 bd 1b c8 81 bd
       -0.07287894 -0.08747649 -0.06396273 -0.06336995
000110 a0 cf 97 bd c3 b5 e6 3d 1a 67 8d 3d 5c 2d 9f 3d
       -0.07412648 0.11265137 0.06904431 0.077723235
000120 ee 57 09 be 3a ed de bd f1 a3 d4 3c 81 19 28 bd
       -0.13412449 -0.10885091 0.02595708 -0.041039947
000130 6b 78 83 3d 90 93 d7 3d 43 d0 86 3c ef 83 47 bd
       0.06419452 0.10526192 0.016456729 -0.048709806
000140 74 f7 e6 3d 72 04 02 3d d3 d7 21 3e 51 2d 67 3d
       0.11277667 0.03174252 0.15804987 0.0564397
000150 6d 0f d4 bb 77 04 65 bd 22 fe 36 3c d2 d7 27 be
       -0.0064715655 -0.05591246 0.011168988 -0.16390923
000160 16 06 d6 3d 54 a2 a1 bd 2f bc 0c 3e 63 ae c3 bd
       0.104503796 -0.0789229 0.13743661 -0.09554746
000170 3e c5 16 3d 0f 40 09 3e 95 83 ce 3d 77 30 b8 3d
       0.0368092 0.13403343 0.10083691 0.08993619
000180 5c 33 b4 3c 7e ff b5 3c 15 97 21 3e 6a 35 cb 3b
       0.021997146 0.022216555 0.1578029 0.006201436
000190 83 78 80 3d 54 ab 9b bd 20 41 80 3c 56 5f d8 bd
       0.06272986 -0.076010376 0.015656054 -0.10565059
0001a0 4b f9 2f bc 92 4b 9c 3d e0 22 71 bc a8 13 e4 3d
       -0.010740588 0.076316014 -0.0147177875 0.11136562
0001b0 56 01 8a bd 13 c9 3b bc 8d 3c 02 be 28 35 43 3c
       -0.06738536 -0.011461514 -0.12718411 0.011914529
0001c0 bb e8 5e bd 3c 6d eb 3c ff b6 e0 bc cb 56 0c 3e
       -0.054421168 0.02873861 -0.02743101 0.13704984
0001d0 a2 30 bf 3c 0d 63 fe bb 7d 8f 3c be 72 4a 86 bd
       0.02333862 -0.0077632726 -0.18414111 -0.06557168
0001e0 b3 ca 90 bd bb 94 41 3d 55 1a 22 3d 44 81 d2 ba
       -0.07069912 0.04726098 0.039575893 -0.0016060253
0001f0 10 df 6d bd 6c e5 64 be 80 80 ec 3c 1c f4 97 3d
       -0.058074057 -0.22353142 0.028869867 0.07419607
000200 e7 66 94 bd 9b 59 fb bb e5 ff 37 3c 70 3e d7 3d
       -0.072461896 -0.007670594 0.011230444 0.10509956
000210 97 c5 c6 3c e1 df 46 3c b6 a5 ab 3b e2 95 1e 3c
       0.02426414 0.012138338 0.00523826 0.00967929
000220 6b 2b b6 3d 71 93 16 bd 3d 73 5f 3d ce f9 e7 ba
       0.08895 -0.036761705 0.05455326 -0.0017698349
000230 77 67 f5 3d 22 2a 00 bd 14 d6 18 bd c3 04 45 3d
       0.11982625 -0.03129018 -0.037313536 0.048100244
000240 50 0e 98 3c a7 8f 2d 3d 44 28 f2 3d 5f ea dc 3c
       0.018561512 0.042373326 0.11824086 0.026967226
000250 f2 cd 73 3c 26 8d 25 bd 0f 9d bb 3d c5 5e 21 bb
       0.014880644 -0.040417813 0.09160816 -0.0024623137
000260 37 3e 5c be 24 3f 90 bd 6c 5a 01 3e a8 f2 12 3d
       -0.21508108 -0.07043293 0.1263215 0.035875946
000270 e4 ff 6c bc 70 22 1c be 27 c1 e6 3d 2d 0d d1 bc
       -0.014465306 -0.15247512 0.1126731 -0.025518978
000280 26 66 f6 bc 4c f9 fa bd 1e c8 ba 3d 5d ab 04 bd
       -0.030078005 -0.12254581 0.091202006 -0.032389987
000290 91 2a 8f bb a8 5f d4 3a 42 5e 42 bb 0a 87 64 be
       -0.004369088 0.0016202824 -0.0029658233 -0.22317138
0002a0 d2 7b 14 be ab ec b5 3d fd 5b ea 3c 59 c7 b5 3d
       -0.14500359 0.088830315 0.028608317 0.08875913
0002b0 34 80 38 3d 48 f3 7f bd 94 80 f8 bd a2 af a1 bd
       0.04504414 -0.06248787 -0.12133899 -0.078948274
0002c0 f8 18 ca 3d 5c bb 64 3d 82 59 4e 3d 69 2e 26 3b
       0.09868044 0.055842742 0.05037833 0.0025357252
0002d0 86 3a 3e bc 96 b8 90 bc ac 86 24 bc 17 30 8a ba
       -0.011610633 -0.017666142 -0.010041874 -0.0010542896
0002e0 38 72 49 3d 48 67 aa bd 05 e5 7a bd 96 b9 78 bd
       0.049181193 -0.083204806 -0.061253566 -0.060723864
0002f0 ec 5d 0d be 1d cb cc 3d 33 a2 f4 3c 29 57 68 bd
       -0.1380536 0.09999678 0.029862499 -0.056723747
000300 36 10 50 bd 17 1f 54 3d 69 b0 6c bc db 0a 04 3d
       -0.05079671 0.051787462 -0.014446356 0.032236915
000310 1d 2a 5b 3d db ce 20 3d bb d4 ac bd 9e ca 78 3d
       0.05350696 0.039259773 -0.084390126 0.060740106
000320 94 7f 8b bd ee e4 a4 3c ae e7 36 be d4 e2 d3 bd
       -0.06811443 0.020128693 -0.17861816 -0.103459984
000330 a3 9c 49 be 3d 06 5d 3c 2d 93 bd bc 27 30 2a be
       -0.19688658 0.013490257 -0.023141468 -0.16619931
000340 0b e1 f9 3d cb 7f 41 3d 01 97 c9 3c 75 d8 65 3d
       0.12201127 0.047241013 0.024608137 0.056114633
000350 38 5d 05 3e 3f b8 03 be ad 72 1a 3d 0b 2b cf bd
       0.13023841 -0.12863253 0.03770702 -0.10115632
000360 fd 21 06 3e 52 f0 da bd c3 2e d9 3d 49 e3 95 3d
       0.13098903 -0.10690369 0.10604622 0.07318742
000370 73 5d a2 bc 37 9f fc 3d 2b 5e 84 bd e9 91 c1 3d
       -0.01981995 0.12335055 -0.064632736 0.09451658
000380 00 83 fd 3c 57 05 02 bd 73 13 2f 3d 42 91 d5 3d
       0.030946255 -0.031743374 0.042743158 0.10428096
000390 3c 95 12 3e dd 97 84 3a de 19 2a 3d ae c1 a4 bc
       0.14314741 0.001011606 0.041528575 -0.020111885
0003a0 f5 03 3d 3e 0b b7 0f 3e 34 cc ba bd 85 19 74 3d
       0.1845854 0.14034669 -0.0912098 0.05959465
0003b0 47 d9 c9 3d e9 a5 8b 3d 32 e5 ca 3c e5 db 8d 3d
       0.098558955 0.06818754 0.024767492 0.06926707
0003c0 a9 41 94 3e 7f c1 29 3e 48 d2 33 3c 10 04 15 be
       0.28956345 0.16577719 0.010975428 -0.14552331
0003d0 bb 0f 70 3d 32 65 2c bd 59 d4 e6 bd a7 fa b5 bc
       0.05860875 -0.042088695 -0.11270971 -0.022214247
0003e0 2e 87 eb 3c 37 f0 08 bd 4a 91 66 3d e6 35 84 3c
       0.028750982 -0.03343221 0.056290902 0.016138982
0003f0 eb ba cf 3c ff 66 0f be fd 9c 27 bd b5 01 25 be
       0.025357684 -0.14004134 -0.0409212 -0.16113932

network_body.linear_encoder.seq_layers.2.bias f4 [128]
000000 46 b3 56 3c 5f 8a 10 bd 8b ad 13 bd f8 bc 0a bd
       0.013104266 -0.03528821 -0.036054175 -0.03387162
000010 71 ae 79 bc 35 ea af bc d4 d5 62 3c b6 4b 14 3d
       -0.015239344 -0.021473983 0.013844926 0.036205016
000020 ff fe fc bc 04 f6 13 bc 6f 2a 71 bb 1a 92 1a bc
       -0.03088331 -0.009030823 -0.0036798974 -0.009434247
000030 11 e1 c8 bb 0d 7f 68 bc 43 2c 67 bd aa 5e b1 bc
       -0.0061303456 -0.0141904475 -0.056438696 -0.021651585
000040 7b d9 01 bc 54 e3 c2 bc bc 39 c4 3b 31 90 c6 bc
       -0.007925387 -0.02379004 0.005988328 -0.024238678
000050 3e dc 2e 3c 39 d5 48 bc 3d ea 4a 3d c7 a4 b7 bb
       0.010672627 -0.0122578675 0.049539793 -0.00560436
000060 0f 91 f9 bb a6 33 c2 bc f7 aa a6 3c 0c 9a c4 3c
       -0.0076161693 -0.023706269 0.020345194 0.023999237
000070 c1 37 2b 3d 94 d6 ee 3b fd f9 3c 3c 91 f6 e2 3c
       0.041801218 0.0072887633 0.011534211 0.027705463
000080 72 51 c5 bc 1c fe 48 3d de b5 73 3c 1f 24 b0 bc
       -0.024086688 0.049070463 0.0148749035 -0.021501599
000090 e4 63 99 3a ad 8a af bc 52 8b 80 3d 96 ac 5b bc
       0.0011702743 -0.02142843 0.06276573 -0.013407847
0000a0 c9 24 b6 bb d8 7a 1b bc 36 cc 9d 3d 69 8a 46 3a
       -0.0055585844 -0.009489737 0.07704966 0.00075737253
0000b0 0a 50 53 3c 4f 6b 20 3c a5 61 45 3a 07 d2 0d bd
       0.012897501 0.009791209 0.0007529504 -0.034624126
0000c0 40 26 c1 3b 1e 7b 82 3d 9d 71 1c bd b6 31 52 bc
       0.0058944523 0.06371139 -0.038194288 -0.012829235
0000d0 b1 f1 86 bb e8 2a 1b 3c 4b 49 3d 3c a9 13 d5 bb
       -0.0041181673 0.009470679 0.011553119 -0.006502588
0000e0 d3 5d aa bc 49 06 7d bc 36 59 ee bc f0 55 33 bd
       -0.020796692 -0.015443393 -0.029095273 -0.04378313
0000f0 4e a9 64 3d 9d 8d da bb 41 96 08 3c 3c e0 9a 3b
       0.055825524 -0.0066697136 0.008336605 0.004726438
000100 ae 6d 3b bd f8 c2 86 3c f1 11 42 3c 2f cc c5 bc
       -0.045758896 0.01645039 0.011845098 -0.024145214
000110 bb 89 ef 3c 20 53 0e 3c 05 28 de bc b8 7e 26 3c
       0.02924048 0.008686811 -0.027118692 0.010162048
000120 f8 82 d3 bc 58 99 0f bd 0b 59 a2 3c 6a 01 34 3c
       -0.025819287 -0.03505835 0.01981785 0.010986665
000130 cb 36 da 3c 81 e1 2d bc 9f 14 14 39 52 80 15 bc
       0.026637455 -0.010612846 0.00014122062 -0.009124832
000140 c6 e8 5d 3b 21 f7 fe 3c 5e be 7b 3c 90 b5 b8 bb
       0.0033860668 0.0311237 0.015365211 -0.0056368783
000150 2a e5 95 3b e1 91 8b 3c cc 8a c6 bc 1f 63 44 bc
       0.0045744376 0.017037334 -0.024236105 -0.011986523
000160 6d 4a 5d 39 55 a9 8c 3d 29 62 56 bc 67 45 57 3b
       0.00021103928 0.06868235 -0.013084927 0.0032847764
000170 16 9a 19 bd d4 0a 87 3c 55 0b c7 39 37 5f c2 ba
       -0.037500463 0.016484655 0.0003796468 -0.0014829402
000180 65 29 d3 3b bd a2 0c bd 75 81 be 3b 03 86 67 bc
       0.0064441436 -0.034334887 0.0058137723 -0.014131072
000190 10 40 2d 3d b0 3f da bc a0 65 ff bb f2 d4 7b 3b
       0.042297423 -0.026641697 -0.007794097 0.0038426486
0001a0 c9 61 47 bb cd 62 4d bb d0 df 45 bd 07 fc cd bb
       -0.0030423275 -0.0031339407 -0.048309147 -0.0062861475
0001b0 7f 2a 5b bc dd 83 4c 3b cb 59 8e 3c 5f 1a e0 ba
       -0.013376831 0.0031206526 0.017376801 -0.0017097703
0001c0 a7 05 1c 3c 70 38 b9 bc 62 9e 40 3c af a8 d9 3c
       0.009522832 -0.02260992 0.011756511 0.026569692
0001d0 42 5c 7f 3a 1e 6c d4 bc be 73 13 bd a2 d3 bb 3c
       0.00097412255 -0.02593046 -0.035999052 0.022928063
0001e0 0e 1d 6a bc 59 7b 2a 3c 09 11 32 bd ea 41 81 3c
       -0.014289154 0.010405385 -0.043473277 0.0157785
0001f0 2d 89 3a 3d fa 0b ca bc 07 1c 10 bc d1 7f 53 3c
       0.045540977 -0.024663914 -0.008795745 0.012908892

distribution.log_sigma f4 [1, 2]
000000 eb d0 83 bd d5 00 a8 bc
       -0.06436332 -0.02050821

distribution.mu.weight f4 [2, 128]
000000 2c 89 5c 3c 47 bb 16 3b a5 48 99 3b 97 40 55 bb
       0.013460439 0.002299981 0.0046778494 -0.003253972
000010 be 24 48 3c b4 92 03 3b 52 62 43 bc de 1e 63 bc
       0.012215791 0.0020076456 -0.011925297 -0.01386234
000020 55 54 c9 bb f8 23 6f bc f9 c0 b3 bc 31 5a 22 bc
       -0.0061440864 -0.014595978 -0.021942602 -0.009909199
000030 4a 6f 2f 3b 3c cf 65 bb 1f 02 ef 3b 21 81 5d 3b
       0.0026769214 -0.0035066148 0.007293954 0.003379889
000040 fb d4 c2 b9 92 fc 6e 3c 7a 88 bd 3a 80 44 98 3b
       -0.00037161246 0.014586585 0.0014460229 0.0046468377
000050 27 12 a4 3a 24 b4 5b bb ab ef 80 bb 01 12 a6 ba
       0.0012517617 -0.003352412 -0.0039348206 -0.001267016
000060 15 7b b3 3a 33 e3 b8 3b ce 0a ba ba 20 a7 2c 38
       0.0013693298 0.0056423186 -0.0014193894 4.1163643e-05
000070 d2 8e 47 bc c9 49 0b 3c c4 28 c0 ba 63 97 f1 bc
       -0.012180047 0.0085014785 -0.0014660587 -0.029491132
000080 b5 64 37 3a 6d 91 3a bc cd e3 00 39 90 94 02 3c
       0.00069959025 -0.011387211 0.00012291894 0.00796999
000090 5c 8d 10 bc 38 2e 5c 3c 6c 35 00 bc c6 df 9c 3b
       -0.008822765 0.013438754 -0.007825237 0.004787418
0000a0 ca 5a d6 bb e6 35 40 bb d2 81 f1 bb 39 57 c0 3c
       -0.0065415846 -0.0029329 -0.007370212 0.023479091
0000b0 b8 3a 06 3a 9c 9d 20 ba fc a7 4b 3b 40 ee b3 3b
       0.0005120444 -0.0006127001 0.0031075468 0.005491048
0000c0 92 f6 02 3c 12 b7 8b bb be 42 18 3c be 8b 93 3c
       0.007993357 -0.004263767 0.009293256 0.01801097
0000d0 4f 5d 9f 3c 7f 03 89 3b 67 3a a4 bb f9 84 09 bc
       0.019453673 0.004181325 -0.005011845 -0.00839352
0000e0 69 17 44 bc 8a 65 84 3c b6 c0 a6 3b 8c 6f d4 3b
       -0.011968472 0.016161699 0.005088891 0.006483024
0000f0 3a 3c a0 bb de 07 50 3b 5f 57 18 3c c9 03 b8 3b
       -0.004889992 0.003174297 0.009298175 0.0056156856
000100 bc b1 93 3c 55 07 16 ba 70 29 57 3c 07 ed 6c 3b
       0.018029086 -0.00057231385 0.013132438 0.0036152021
000110 5d 74 de bb 51 4b 10 3c 36 42 7d 3b 92 05 fc 3a
       -0.006788774 0.008807019 0.00386442 0.0019227734
000120 d6 3d b4 3b 5f 13 69 bc 97 e0 33 bc 37 f5 6f bb
       0.0055005355 -0.01422581 -0.010978839 -0.0036614665
000130 5d 63 36 bc f0 88 70 3b 82 18 ec 39 86 5d a1 3a
       -0.0111320885 0.0036702715 0.00045031687 0.0012311197
000140 18 1f 41 3c 2f 2b 0e 3c cc 87 75 bc dc cb 1b 3c
       0.0117871985 0.008677288 -0.01498599 0.009509053
000150 49 ef 15 3b 60 55 9c b9 41 51 f4 bb 7f 85 22 bb
       0.002287822 -0.00029818248 -0.0074559753 -0.0024798808
000160 4b 86 1e bb f0 3f 03 bc fc c6 d6 3a 1a 1e 27 3b
       -0.0024188932 -0.008010849 0.0016386206 0.002550012
000170 b8 cc 64 39 75 be 88 3b 4b 5d 43 3c b7 95 25 ba
       0.00021820038 0.004173095 0.011924098 -0.000631656
000180 98 96 71 3b e3 fb 43 bc 07 23 89 ba 36 7c 4f bb
       0.0036863443 -0.01196191 -0.001046271 -0.003165973
000190 79 06 f8 3a e1 aa 04 bc fe a7 19 3b 78 ca af 3b
       0.0018922827 -0.008097381 0.0023446078 0.0053647123
0001a0 c9 e9 9b ba bf 36 0e bc 9f a3 87 3b a8 d4 9a ba
       -0.0011895235 -0.008680045 0.004139378 -0.0011812644
0001b0 67 92 4f 3c 51 54 99 bb fe 3b e8 3b 59 bb d0 bc
       0.012669182 -0.0046792408 0.0070872298 -0.02547996
0001c0 ae 21 c4 3a 95 10 8f 3b e0 33 de 3c 20 ec 11 3c
       0.0014963651 0.0043659904 0.027124345 0.008906394
0001d0 13 de 65 bc e0 f1 ef bb 39 36 93 3b c9 e5 05 bb
       -0.014029997 -0.007322535 0.004492548 -0.0020431152
0001e0 6d 7d 9b 3b 96 21 03 bc d8 8e 91 3c 25 ca e5 bb
       0.0047451765 -0.008003613 0.017768309 -0.007012623
0001f0 b9 6c 07 bc d8 e9 d2 3a 06 81 f2 ba 1f 4f 7b 3c
       -0.008265668 0.0016091419 -0.0018501587 0.015338688
000200 d3 82 a1 3b 52 07 f8 ba b7 c5 4f ba 2e 75 c4 bb
       0.0049289255 -0.001892308 -0.0007925885 -0.005995414
000210 31 9d 58 3c f5 1a e4 b8 1d c3 80 bc 78 3d ca bc
       0.013221071 -0.00010876908 -0.015718037 -0.024687514
000220 97 1e 8f bc 6e a2 b0 bc 49 46 e6 bc c8 fa a2 bc
       -0.017470641 -0.021561828 -0.028109686 -0.019894972
000230 6d 6b f5 39 3c 07 dc 39 04 6d a8 3c 8f ff d6 3c
       0.0004681008 0.0004196706 0.020559795 0.026244907
000240 7a 2c 05 bb ad c2 8c 3c db c0 6c 3a 04 cd 6a ba
       -0.00203207 0.017182672 0.0009031423 -0.00089569413
000250 41 64 55 ba 6a 86 0f bc f5 5f a9 bb 3d 38 7c bb
       -0.0008140244 -0.008760074 -0.0051689097 -0.003848567
000260 f6 21 c2 39 72 b9 1c ba c6 b9 44 b9 bc 16 32 39
       0.00037027866 -0.0005978561 -0.00018761223 0.00016983872
000270 e0 21 32 bd 56 bb 06 3c 62 29 4f bb 4a b2 2a bd
       -0.043489337 0.008223375 -0.003161036 -0.041673936
000280 30 5c be ba 0e 49 d8 bc 41 54 9a bb 11 b1 0e 3b
       -0.0014523324 -0.026402023 -0.004709751 0.002177302
000290 cb 85 d5 bc 37 79 52 3c 2b b4 1a bd 4c 7e 51 b8
       -0.026064774 0.012846283 -0.037769478 -4.9947106e-05
0002a0 ed 0d 4c bc dc 54 e5 3a ac 2d ef bc dc b4 f8 3c
       -0.012454492 0.0017496604 -0.029196583 0.030359678
0002b0 dc 3a 69 39 5a ef d9 b7 aa 3a 6b bb 32 3e b1 3c
       0.00022242538 -2.5979873e-05 -0.003589312 0.021636102
0002c0 da d6 d1 3a 2c 0f 13 bc 9f 24 3b 3a c7 b1 98 3c
       0.0016009465 -0.008975785 0.0007138941 0.018639458
0002d0 4c 46 aa 3c 42 3c 82 3c 0f cb 9e ba c0 a5 fc 3a
       0.020785473 0.015897874 -0.001211496 0.0019275472
0002e0 84 ba a1 b9 45 3b 08 3d 16 5b b7 39 d4 3e 76 3c
       -0.00030847278 0.03325965 0.00034972344 0.015029628
0002f0 39 b6 00 bc 90 33 92 3b f6 db 6f 3c e5 fb 0d 3a
       -0.007855945 0.004461713 0.014639845 0.00054162584
000300 53 82 de 3c ca 02 52 39 cf 02 bb 3b 50 78 89 3b
       0.027161753 0.000200282 0.005707122 0.0041952506
000310 8b 1d 8a bc 9b 4b 23 bd 97 75 00 3b 4e b8 04 ba
       -0.01685979 -0.039867025 0.001960134 -0.0005062864
000320 39 29 6b 3b 65 26 00 bc dd 34 79 ba 0e 16 85 ba
       0.0035882725 -0.007821654 -0.00095064734 -0.0010153668
000330 5b aa 66 3b 4d 4e 0a 35 79 86 0c b9 b9 f8 32 ba
       0.0035196755 5.152295e-07 -0.00013401535 -0.00068272237
000340 67 5d 2c 3c 04 c4 16 3b f3 2d ce bc 86 cb aa 3b
       0.010520316 0.0023005018 -0.025168395 0.00521225
000350 88 d3 2b 3b 51 05 ea 3a 8c a9 33 bc d7 32 ea bb
       0.0026218612 0.0017854368 -0.010965716 -0.007147174
000360 54 ef 84 ba bc 0a fb bc bb 4e 04 3b 25 ba e8 ba
       -0.0010142126 -0.030644767 0.0020188529 -0.0017755671
000370 80 37 4e 3b ff a3 81 bc 0f 88 e2 3b 84 f5 f4 ba
       0.0031466186 -0.01582527 0.006913192 -0.0018688892
000380 79 1a 39 3a d0 39 1b bc 14 9d 1e b8 68 50 dc bb
       0.00070611347 -0.009474233 -3.7816426e-05 -0.0067234524
000390 81 0f 50 bb 6a 14 f7 3a 1f 74 2c bb b4 ba 95 ba
       -0.0031747522 0.0018850688 -0.002631433 -0.001142344
0003a0 70 7a 0f bb 35 ea 80 b9 2b 46 d8 ba b9 1f c7 3a
       -0.0021893047 -0.0002458856 -0.0016500404 0.0015191949
0003b0 6d 14 08 39 58 a0 87 bb cd 9a 90 3b 13 62 01 bd
       0.0001297758 -0.0041389875 0.004412985 -0.03158767
0003c0 fa 73 2c ba ea 9d c1 b9 b4 5a 76 3c a6 6d dc 3b
       -0.0006578561 -0.00036929484 0.015036274 0.0067269383
0003d0 44 49 a9 bc 60 ae e4 ba b2 5d 65 3b 0d 9b 4d 3b
       -0.020664819 -0.0017446987 0.0034998474 0.0031372935
0003e0 e1 e3 11 bb a5 5e 01 ba 07 9e 50 3d 94 03 40 bb
       -0.002226107 -0.00049350626 0.050931957 -0.0029299008
0003f0 24 28 a3 bc f8 b5 a3 bb a1 89 61 bb dd 50 1c 3c
       -0.019916601 -0.0049960576 -0.0034414309 0.009540764

distribution.mu.bias f4 [2]
000000 74 6e 25 3d a1 a7 37 bd
       0.04038854 -0.044837598

critic.network_body.vector_processors.0.normalizer.running_mean f4 [4]
000000 58 e0 1e 41 85 46 51 40 57 a1 38 c1 12 35 84 40
       9.929771 3.2699292 -11.53939 4.1314783

critic.network_body.vector_processors.0.normalizer.running_variance f4 [4]
000000 79 35 c7 42 a6 15 3b 41 75 dd 14 48 0d b2 b0 48
       99.60444 11.692785 152437.83 361872.4

critic.network_body.linear_encoder.seq_layers.0.weight f4 [128, 4]
000000 9f 6b 8d bf 7b 2f b0 3f ff d5 b0 3e c9 50 2e be
       -1.1048468 1.376449 0.34538266 -0.17023005
000010 d2 96 cc 3e 57 08 d0 be ca d5 da 3e d2 46 f7 bd
       0.39958817 -0.40631363 0.42741233 -0.12074055
000020 fc 72 a0 3d 94 ef c2 bc f3 04 b1 bf 8e 02 39 3d
       0.078344315 -0.02379588 -1.3829635 0.045168452
000030 77 82 1c bf aa ae ba 3e fd d4 01 3f 59 d4 ab be
       -0.61136574 0.36461383 0.5071562 -0.33560446
000040 a7 11 52 be 84 de ff be ad 95 2d bf 11 6b b6 be
       -0.20514546 -0.49974453 -0.6780651 -0.3562856
000050 4d 7a c2 3e ce 49 27 3f 76 a3 71 3d 40 1f 07 bf
       0.37983933 0.6534699 0.05899378 -0.5278206
000060 55 c0 8b 3f 15 33 92 3e 66 b0 2f 3e 87 ea 14 bf
       1.091807 0.28554597 0.17157134 -0.5817036
000070 03 95 2a 3e 50 30 a7 bf 89 46 4b 3d 1d 83 e3 3d
       0.16658406 -1.3061619 0.049627814 0.11108992
000080 a9 67 e7 be 58 07 1c bf 8e a6 0e be e9 a5 c7 bd
       -0.45196274 -0.60948706 -0.13930723 -0.09748442
000090 9b f4 8e 3d 21 34 71 3e e6 1b b9 3e ea 3d d5 bd
       0.069802485 0.23555042 0.36154097 -0.104122
0000a0 f5 b7 ff bd 61 49 61 bf 72 f0 75 bf bf 94 01 3f
       -0.12486259 -0.8800259 -0.96070015 0.50617594
0000b0 df b3 6f 3e 3e 03 85 3e 8e f6 8e 3d 8f fc 39 bf
       0.23408459 0.25979036 0.0698062 -0.72651
0000c0 aa 04 e8 3e 02 c8 8c be 39 5e 80 bd ad 07 1c bf
       0.45316058 -0.27496344 -0.062679715 -0.6094921
0000d0 70 f4 ac 3e cb fc 7e 3d 72 4f 21 bd 1f 24 d5 be
       0.3378024 0.0622528 -0.039382406 -0.4162912
0000e0 66 91 33 bf 47 a5 0d bf 91 2a 6a 3e 61 ad 09 be
       -0.70143735 -0.5533032 0.228678 -0.13445045
0000f0 b3 db a0 3e ed 33 bd 3e 52 d2 4d be 38 91 bc 3e
       0.31417617 0.3695368 -0.20099762 0.36829543
000100 e9 17 5d 3e 79 b7 7d bf c5 82 d3 bd fc a2 dd bd
       0.21591152 -0.9910808 -0.10327677 -0.108221024
000110 42 f7 30 3f 23 99 f1 be f4 1d 95 be b9 11 d2 3e
       0.69127285 -0.47187147 -0.29124415 0.41029146
000120 62 a2 44 bf 90 32 1e bf 51 e1 90 3f 95 e4 9a 3e
       -0.76810277 -0.617959 1.1318761 0.3025252
000130 a7 41 01 3f a8 2a 36 3e 3b 5f 33 3f 94 17 95 3f
       0.504908 0.1778971 0.70067185 1.164782
000140 9c 1e 8a bd 5c cb 24 bf 72 c1 30 3f b2 b5 a2 3e
       -0.067441195 -0.643728 0.69045174 0.31779248
000150 53 40 87 3e 58 0c 0a 3f 5e a4 1e 3e 2c 57 b2 3d
       0.26416263 0.53925085 0.15492389 0.08708033
000160 f2 ea 77 bf 15 4c 3d 3e 8a 82 14 be 9f d1 cd b9
       -0.96842873 0.18486054 -0.14502922 -0.00039256827
000170 ea b2 4e 3d 56 a7 16 3d b0 32 9c 3e 57 45 e8 3e
       0.050463594 0.036780678 0.30507421 0.45365402
000180 36 8f 81 3f d1 47 87 3f 9b 1b 91 3e 0d 68 e4 be
       1.012183 1.0568792 0.28341374 -0.44610634
000190 0f 23 f2 3e 6b 65 53 3f b4 e5 d9 bd 14 a8 fb be
       0.47292373 0.82576627 -0.106395155 -0.4915167
0001a0 11 15 61 3d 4d f1 0b 3f 31 57 84 be a0 ab d5 3d
       0.05495173 0.5466507 -0.25847772 0.104331255
0001b0 c2 5d d2 3e 53 c2 90 3f b3 e7 8e 3f 8e d7 40 bf
       0.41087157 1.1309303 1.1164459 -0.7532891
0001c0 4e 0a d1 bc 08 44 5d be fb fc 09 3f ad 52 38 be
       -0.025517609 -0.21607983 0.5390164 -0.18000288
0001d0 6d c9 c0 3e 1e 8f 3a 3d c7 e0 17 bf 01 10 b0 be
       0.37653676 0.045546643 -0.5932736 -0.3438721
0001e0 c2 ac 93 3e 69 cd 44 be 2e 59 38 bf fb 9f 4f bf
       0.2884274 -0.19218983 -0.7201108 -0.81103486
0001f0 d2 95 09 3d 28 05 a2 3e 71 bc a9 3e a4 5c 86 3d
       0.033590145 0.3164456 0.33151582 0.065606385
000200 80 4c 0c 3f 91 18 a2 be 9e 53 78 bb 93 70 9b 3c
       0.5480423 -0.31659368 -0.0037891637 0.018974578
000210 b7 21 22 bf 44 55 52 be b0 2b 55 be 24 29 ed 3d
       -0.63332695 -0.20540339 -0.20817447 0.115801126
000220 56 44 b2 3d 38 14 e4 3d 4c 03 8d 3e d2 f1 41 3c
       0.0870444 0.11136669 0.27541578 0.01183744
000230 0f 64 92 3e d7 79 0d 3f 90 0e b7 3e aa 0b ee 3d
       0.28591964 0.5526404 0.35753298 0.116233185
000240 d6 38 ca 3d eb 70 65 bf c0 01 a3 be f1 c0 b8 3f
       0.09874122 -0.89625424 -0.31837273 1.4433881
000250 fc 20 56 be a0 7c d8 3e f5 5f 0d bd 2a a4 f4 3e
       -0.2091102 0.4228258 -0.03451534 0.47781497
000260 91 cb 27 3f ab 58 4b 3e e5 83 e1 3c f0 1e 54 3e
       0.6554499 0.19858043 0.027528713 0.20714927
000270 86 6e a2 bf 42 09 f8 be 6a b1 2b 3f 32 dc b3 3e
       -1.2689979 -0.48444563 0.6706759 0.35128933
000280 2e ab 37 bf 41 44 e5 be 77 18 e3 be 0d 72 82 3e
       -0.71745574 -0.44778636 -0.44354603 0.2547764
000290 bc 79 09 bf 4e b7 25 bf b5 54 34 3f a2 fe 2c be
       -0.53701377 -0.64732826 0.7044175 -0.1689401
0002a0 c2 7c 30 be 61 b0 24 3f 3e 1e 22 be a6 00 89 3d
       -0.17235091 0.6433163 -0.15831849 0.06689577
0002b0 f1 71 31 bf c3 ff 11 bd dc f8 70 3f 27 08 05 3f
       -0.69314486 -0.035644304 0.9412973 0.51965564
0002c0 56 81 eb be b9 e4 0b bf 09 1f 83 3f 55 0e d1 be
       -0.45997113 -0.5464588 1.0243846 -0.40831247
0002d0 e1 cc 12 3e 3c 4c 0a bd 20 2f ce 3c f8 c9 96 be
       0.14335968 -0.03376411 0.025168955 -0.29450965
0002e0 e2 7a b7 bc 21 e6 a0 bc 91 89 af be 17 e0 43 3e
       -0.022397462 -0.019640984 -0.34284642 0.19128452
0002f0 a1 23 83 3e c9 79 50 be b8 f8 37 be f6 17 57 3f
       0.2561312 -0.20358957 -0.17965972 0.84020936
000300 a6 04 f9 be e9 aa e4 bd 68 de 32 bf 0f 00 e4 be
       -0.4863636 -0.11165411 -0.69870615 -0.44531295
000310 99 d1 cb be bb 31 e2 be 0b 2f 55 bd 30 ee 88 3e
       -0.39808348 -0.44178566 -0.052046817 0.26744223
000320 2e 84 f8 bd 5c 69 23 3d 6f 63 0c 3f 05 4a ba 3f
       -0.12134586 0.0398954 0.54839224 1.4553839
000330 97 b0 ea bc 11 0a c1 bc e0 53 36 bf 85 95 b1 3e
       -0.028648658 -0.02356437 -0.71221733 0.34684387
000340 61 f1 19 bf 29 57 42 3e 64 da 11 3f c1 53 6f 3e
       -0.6013394 0.18978561 0.5697386 0.23371793
000350 7a c3 0d bf 8a 43 2e 3f 18 d2 b7 bd 32 95 bb 3d
       -0.553764 0.68071806 -0.08975619 0.09159316
000360 1a 75 da 3e d5 fc 1f 3f c0 f0 dc be 0b 92 04 bf
       0.42667466 0.62495166 -0.43152428 -0.51785344
000370 ef 3c ec be c6 1d 39 3e bd 0c a2 be 02 7a 75 bf
       -0.4614024 0.18077764 -0.31650344 -0.95889294
000380 94 80 f7 bc 75 f1 31 3e 4d 94 b9 be ea 2f 9f 3f
       -0.030212678 0.17377265 -0.36245957 1.2436497
000390 8c 1f 98 bd 9e 63 82 bd ea 3f 7d 3d 02 07 81 bf
       -0.07427892 -0.06366657 0.06182853 -1.0080264
0003a0 60 be 34 be 6b 37 25 3f c3 31 05 be 1f 57 10 bf
       -0.17650747 0.64537686 -0.13007264 -0.56382936
0003b0 d2 b4 09 3f f5 c6 5c 3e 81 66 0a bf 79 e9 ba bd
       0.53791535 0.21560271 -0.5406266 -0.091265626
0003c0 f4 ae b0 be cc 74 bc 3c 52 45 a0 bd 69 7a 36 3e
       -0.3450848 0.023004912 -0.07825722 0.17820133
0003d0 8d 11 d1 be 16 0e 01 bf 5e 5b f6 3e 33 aa 86 3e
       -0.40833703 -0.5041212 0.48116583 0.26301727
0003e0 88 da 08 3f bf 29 c1 3d cb 26 ee be 0f 7d bf bd
       0.5345845 0.094317906 -0.46513972 -0.09350025
0003f0 cf fe 70 3f a4 aa e8 3e bb d3 c3 be 40 c0 fb be
       0.9413881 0.45442688 -0.38247475 -0.49170113

critic.network_body.linear_encoder.seq_layers.0.bias f4 [128]
000000 c1 fa b5 bd 66 b4 a5 bd 4d f2 1a 3c 33 c8 8a 3c
       -0.08885718 -0.08091049 0.009457183 0.016941166
000010 a0 e6 4f bd 9d bc 06 bd 57 1c b6 bc a4 ab 49 bd
       -0.05075705 -0.03289472 -0.02223031 -0.049235955
000020 ef db 2b bd 98 f3 10 3d 10 08 3b bd 32 c9 84 bd
       -0.041957792 0.03538856 -0.045661986 -0.064836875
000030 cf 87 e3 bc 1e 93 18 bd 8b 41 65 bd 08 97 2a 3d
       -0.02777472 -0.037249677 -0.05597071 0.04164794
000040 44 33 2f 3d dc b5 82 bd 6c 83 3c bd e5 eb 96 3c
       0.0427735 -0.06382343 -0.04602377 0.01842303
000050 a5 cf 94 bd b7 72 39 3d 5c d7 4b bd 2e b4 4a bd
       -0.072661676 0.045275416 -0.04976593 -0.04948824
000060 ec 97 14 3d 53 d5 4d bd 86 09 66 bd b7 0b 31 bd
       0.036277696 -0.05025227 -0.056161426 -0.043224063
000070 75 9d 2d bd 3a 18 43 bc 0c b7 25 3d 27 59 95 bc
       -0.04238649 -0.0119076315 0.04045777 -0.018230988
000080 5b f9 42 3d df eb 05 3d 98 eb 3a bd da 30 fa ba
       0.047601085 0.032695647 -0.045634836 -0.0019088045
000090 d3 75 6f bd be 5c 6a 3c 61 3e 39 3d 06 ef 7b bd
       -0.058461975 0.014304338 0.045225505 -0.061507247
0000a0 fc 34 21 bd 8d 72 e7 bc b7 ad 27 bd bf 4a 09 be
       -0.03935717 -0.028252864 -0.04093715 -0.1340742
0000b0 6f 46 36 bd 94 ba e3 3c e6 76 20 bd d5 f9 67 bd
       -0.044500764 0.027798928 -0.03917589 -0.056634743
0000c0 f8 8f e4 3c ce 86 6f bd 5e 3f 9a 3b 8f 8f 63 bd
       0.02790068 -0.05847817 0.004707261 -0.05555683
0000d0 70 5b bb 3b 9c ba a5 3c 26 ff c4 3c aa ad e3 bb
       0.0057176873 0.020230584 0.024047446 -0.0069481926
0000e0 83 05 9c bd 96 e8 1d bd a2 60 32 bd 94 f1 1d 3d
       -0.07618239 -0.03855189 -0.043549187 0.038560465
0000f0 c0 4a 7c bd f7 55 1d 3d d0 af 39 3d 68 e0 0f bd
       -0.061594725 0.03841206 0.045333683 -0.03512612
000100 3b 35 ce 3c 18 71 0e 3d 9d 61 49 3d 70 11 9c bc
       0.025171867 0.034775823 0.049165357 -0.019051284
000110 63 48 4b bd 6c 74 90 3c 28 ab 4c 3d 70 ce 64 bd
       -0.04962958 0.01763364 0.049967915 -0.055860937
000120 ec 28 62 3d 3f d2 d5 3c de e5 c5 bc c6 96 5f bd
       0.055214807 0.02610123 -0.02415746 -0.054587148
000130 36 79 b4 ba 8c 50 c8 3c 62 b1 e1 3c 99 44 8d bd
       -0.0013769034 0.02445247 0.027550403 -0.068978496
000140 e3 f2 6f bd 37 98 af bd af e6 58 bd eb 26 30 3d
       -0.058581244 -0.085739546 -0.052954372 0.043005865
000150 ec 1b 23 3d 38 65 14 bd 30 22 50 bd 5f ea 80 bd
       0.03982155 -0.036229342 -0.050813854 -0.06294703
000160 9b cd e9 3c d0 b3 5d 3c ea 3f 96 bd 26 ae b2 3c
       0.028540423 0.01353164 -0.073364094 0.021811556
000170 bf 0c 1c 3d d1 44 45 bd 51 6e 2a 3d ad b8 0e 3c
       0.038098093 -0.04816133 0.041609112 0.008711022
000180 db ef 3b bd d2 65 ac 3b 91 46 81 bd db a8 58 bd
       -0.04588304 0.0052611614 -0.063122876 -0.052895408
000190 71 ee 4c bb 5e 2b 7b bd 26 9f 74 bc 0b bb 26 bd
       -0.0031270052 -0.061320655 -0.014930522 -0.04070572
0001a0 58 5a 71 bc de e8 14 bd 23 fe 8c bd 55 d1 06 3d
       -0.014731012 -0.036354892 -0.0688441 0.03291448
0001b0 2c a6 56 3c 74 16 dc 3b da 6e e5 3c e2 24 af bc
       0.013101142 0.006716544 0.02800696 -0.021379892
0001c0 d5 92 61 bd a9 9b dc 3c eb 5a 95 bd ed 0b b1 3c
       -0.05507167 0.026929693 -0.07292732 0.021612132
0001d0 fe 78 81 bc 26 e5 af bc 81 d8 64 bd 97 ee 11 3d
       -0.015804764 -0.021471571 -0.055870537 0.035627928
0001e0 02 47 8e 3c 9e ac 2d 3d 19 d5 9d bd 98 6d 4a bd
       0.017367844 0.04240095 -0.07706661 -0.049420923
0001f0 bc 74 99 bb 66 62 3f bd ff d2 67 bd 43 ea 07 bd
       -0.0046831053 -0.0467247 -0.056597706 -0.033182394

critic.network_body.linear_encoder.seq_layers.2.weight f4 [128, 128]
000000 4e 9c 6d 3c 08 54 83 3d 61 d2 f6 3c be f7 17 be
       0.014502598 0.06412512 0.030129613 -0.148406
000010 d3 10 88 3d fa 31 76 bd 14 2b c4 bc 1a b6 f4 3d
       0.06643834 -0.060106255 -0.023946323 0.119487956
000020 2d 27 af bd eb eb fd bd 8a c3 f9 3d bb 04 47 3e
       -0.08552394 -0.123985134 0.12195499 0.19435398
000030 27 cf 4c 3b b8 6e 17 be a5 0f 42 3d 08 4b ee 3c
       0.0031251402 -0.1478833 0.0473782 0.029088512
000040 e7 61 11 3d 47 a7 b1 bd 4d 6d 1e 3d 92 37 a3 3d
       0.035493758 -0.08674484 0.038678456 0.079695836
000050 b0 72 d7 bd e6 7d 4c 3c 0c 79 ce 3d 0b 47 10 be
       -0.10519922 0.012481188 0.100816816 -0.140896
000060 61 47 68 3d af bc d2 3d ef 4e 83 3d a2 c7 02 3d
       0.056708697 0.10289895 0.0641154 0.031928666
000070 39 c2 11 3e 86 57 bb bd 75 65 b5 bd b7 df 96 bd
       0.14234246 -0.09147553 -0.08857242 -0.07366889
000080 06 23 9e bd d8 ab cf 3d 4f e4 31 bd f5 da a6 3d
       -0.07721524 0.101401985 -0.043430623 0.081472315
000090 4a 9a 92 3d 7d 97 45 3d d9 e0 e5 3d d1 f2 db 3d
       0.071583346 0.048240174 0.11224527 0.10739673
0000a0 66 fe 26 3c 3f 5c 65 3d 7d cd fa 3d 8d 7b 8c bd
       0.010192489 0.055996176 0.12246225 -0.06859503
0000b0 a6 0c 9d 3c 27 13 64 bc 25 a8 8f bd f1 ea df 3d
       0.01917107 -0.013920582 -0.07014493 0.109334834
0000c0 22 09 9c bc e6 6d 98 3d e3 eb 49 3e a1 ce e4 3d
       -0.019047324 0.074428365 0.1971889 0.11172224
0000d0 27 65 9c bd f4 4d 86 3d a6 0f 99 ba 86 b4 0c 3e
       -0.07636481 0.06557837 -0.0011677637 0.13740739
0000e0 a2 15 af 3d a4 fa d5 3d d9 5c 6f 3d 6b e5 dc 3d
       0.08549048 0.104481965 0.058438156 0.107859455
0000f0 20 ad c6 3c ca b9 96 bd ea 73 90 bc 2b ec a2 3d
       0.024252474 -0.07359655 -0.017633397 0.07955202
000100 d7 2d 61 3c 0d 46 9e bc 6d 88 9c 3d aa 04 1f be
       0.013743839 -0.019320512 0.07643209 -0.15529123
000110 21 33 a9 3d 63 bb 2c bd d5 3a aa 3d 6b d5 6c 3e
       0.08261705 -0.042170893 0.083120026 0.23128287
000120 e5 73 ff bd 6d d4 f6 3d a5 a3 b9 bc 1b 9a 36 bc
       -0.12473277 0.12052236 -0.02266104 -0.01114514
000130 0a df e4 bd 45 d8 02 be 32 b3 40 3d 44 3f c4 3d
       -0.11175354 -0.12777813 0.047045894 0.095823795
000140 f1 e4 9d 3d 7f 75 7a bb f7 67 27 bc 1c 5a 9d bc
       0.07709683 -0.0038217006 -0.010217658 -0.019208007
000150 44 c3 19 be 34 6f 3f bd e1 b1 15 3e b8 f7 66 3e
       -0.15015894 -0.04673691 0.14618637 0.22555435
000160 58 9f c3 3d aa c9 0c be 70 44 02 3e 1e 1f fa ba
       0.09551877 -0.13748804 0.1272142 -0.001908276
000170 0a ec 03 be 78 b3 39 3d 74 2f f0 bd 35 7f 82 bd
       -0.1288301 0.04533717 -0.11727801 -0.06371919
000180 8c f4 e4 3d 86 39 ea 3d f6 4d 78 3e 7c d6 3e 3e
       0.11179456 0.11436753 0.2424849 0.18636507
000190 62 dd be bb 79 61 c3 3c 10 2e b7 3d 64 16 2d 3e
       -0.0058247307 0.02385019 0.089443326 0.16903073
0001a0 c5 6f 1c 3d f9 09 4a 3e 4e fb df 3c 52 e3 59 3c
       0.03819253 0.19730367 0.027341511 0.013298826
0001b0 bf 74 04 bd 7a 9d 46 bd 15 04 99 3d 91 1d 44 3c
       -0.0323379 -0.048490025 0.07471482 0.01196994
0001c0 f4 d9 e0 3d 1f bf 4a be 11 af a0 3d c6 af 3a bc
       0.10979071 -0.1979947 0.07845891 -0.011394447
0001d0 5a 50 d3 bc 98 26 a9 bd 4f 7b 94 3e 91 79 f0 bb
       -0.02579515 -0.08259314 0.29000327 -0.0073387106
0001e0 e3 2b 8a 3d 60 7b 62 bd 52 88 a5 3d 36 db 5d 3a
       0.06746652 -0.05529344 0.08082642 0.0008463146
0001f0 e7 23 73 3e 2c 25 f8 3c a8 e3 0b 3e ed 62 8a 3d
       0.23744164 0.030291162 0.13661063 0.0675715
000200 64 96 e2 bc 34 c3 ae 3d 7b ab f7 bd 46 55 46 3d
       -0.027659602 0.08533326 -0.12093254 0.048421167
000210 6c ee 71 3d 38 44 f0 3d 33 39 c4 3d 34 9a 81 bc
       0.059065267 0.11731762 0.095812224 -0.0158206
000220 60 90 81 3d 10 d5 cd bc 01 b6 28 be 64 c2 54 bd
       0.063263655 -0.02512601 -0.16475679 -0.051943198
000230 1f 95 cf bc d9 aa ac 3c a4 63 21 3e 0d 07 cc 3c
       -0.025339661 0.02107756 0.15760666 0.024905706
000240 7e ce 21 3d b4 83 a6 bb c7 05 bf bd a1 d0 f3 bd
       0.039503567 -0.005081618 -0.09327274 -0.11905027
000250 db 16 9c bc a3 6d 1c bc 13 2f a4 3d e4 bc be 3c
       -0.019053867 -0.009547624 0.08016791 0.02328343
000260 89 e1 c4 3d 72 d5 ab bd 2a 5b 46 3d 54 78 90 3d
       0.0961333 -0.08390321 0.048426785 0.07054201
000270 ae fa 11 be 2f ba fe 3c a2 6d cf bd 33 48 86 3d
       -0.14255783 0.031094639 -0.10128333 0.0655674
000280 f6 67 50 bd 8f a7 f5 bd 5c d0 f5 bd 48 9c 25 3d
       -0.050880395 -0.1199485 -0.12002632 0.040432245
000290 4c dc e8 3d 22 d3 95 3d a0 18 02 be 2a 29 87 bc
       0.11370143 0.07315661 -0.12704706 -0.01649912
0002a0 b9 c8 66 3c 42 2c c7 3d f3 25 36 bd 57 77 c6 bc
       0.014085942 0.097252384 -0.044469785 -0.024226828
0002b0 b4 5a fa ba c2 94 4e bc b9 39 6f bd 19 46 b7 bd
       -0.0019100518 -0.012608709 -0.058404658 -0.08948917
0002c0 90 38 84 3d d3 24 22 3d 02 7f 83 bb ca df ba 3c
       0.06456101 0.0395859 -0.0040129432 0.022811789
0002d0 bb 1c e1 3c 23 e0 15 3e 56 ad 30 be c3 80 14 be
       0.02747952 0.14636283 -0.17253622 -0.14502244
0002e0 7a fd b8 bd 11 43 09 3b 93 36 1c be dc 12 d9 3d
       -0.09032722 0.0020944516 -0.15255193 0.105993
0002f0 63 0e f4 bd 8a df 0e bc 19 e6 d5 bd 27 2c dd 3d
       -0.119168065 -0.008720288 -0.10444278 0.10799437
000300 2c bc 0c bd 2b ba 5c bd db 0b 34 3e 2c a0 ed 3d
       -0.034359142 -0.05388848 0.17582648 0.11602816
000310 1b 95 72 be b6 8e fc bd 6a 83 34 be f3 21 0a 3e
       -0.23689692 -0.123319075 -0.17628255 0.13489513
000320 fe 51 15 be 92 0a d7 bc d0 05 6e bd ff 23 63 3c
       -0.14582059 -0.026250158 -0.058111012 0.013863563
000330 09 c5 12 bd 1a 7b 05 be 81 cf c6 bc 67 88 3f bd
       -0.03583244 -0.13035241 -0.024268867 -0.046760943
000340 50 8f b3 3d 95 a9 e2 3c c4 87 c3 bc 08 c2 cc bd
       0.08767569 0.027668754 -0.023868449 -0.09997946
000350 46 88 9a 3c 17 3e f6 3d d0 52 32 3d 00 7c bd 3d
       0.018863808 0.120235614 0.043536007 0.09252167
000360 90 12 5b 3d b3 95 86 3c a0 42 78 bd 43 82 51 3d
       0.0534845 0.016428804 -0.060610414 0.051149618
000370 87 a4 cc 3d a4 e1 24 bd a9 92 44 bd 24 f7 c1 bd
       0.099923186 -0.04025425 -0.04799143 -0.094709665
000380 2e 72 82 3d 3b 0b 86 bb e0 1c 9d bd 06 15 12 be
       0.06369434 -0.0040906942 -0.07671523 -0.14265832
000390 8f bf 64 3d d9 ed 41 bd ac b1 0e be ef bf 9e 3d
       0.055846747 -0.04734597 -0.13934964 0.07751452
0003a0 cd f9 a4 3d a6 e9 85 bd 1e d4 03 3d ca 66 a9 3d
       0.08055458 -0.065387055 0.032184713 0.082715586
0003b0 1e 36 03 3d 92 7a 53 be 70 d8 25 3d 34 2b 5e bd
       0.032034032 -0.20652226 0.040489614 -0.05424042
0003c0 37 a0 6a bd a9 fb c5 bd 20 03 e1 3c 8c 54 61 3d
       -0.0572817 -0.09667141 0.02746731 0.05501227
0003d0 32 f2 07 3c ef 37 bd 3c 61 a2 c8 3d 9d fe 2b 3d
       0.00829749 0.02309796 0.09796596 0.041990865
0003e0 9b 65 53 bd 1c 9e d5 3d e5 49 f0 bd e7 34 48 bd
       -0.05161057 0.104305476 -0.11732844 -0.048878577
0003f0 32 8a 04 3d ae 85 ff bd f8 3a 99 bc 43 03 ee 3d
       0.032358356 -0.12476669 -0.018704876 0.11621716

critic.network_body.linear_encoder.seq_layers.2.bias f4 [128]
000000 68 53 6f bd a0 d9 36 3d a0 86 15 3d aa 4d 66 bd
       -0.05842915 0.044641137 0.03650534 -0.05622641
000010 e9 ec 0e 3d 68 bd 69 bd b7 02 30 3d 24 ab 4f bd
       0.034893904 -0.057065398 0.04297134 -0.05070032
000020 fc 11 59 bd 47 f4 50 bd 6a 3d 95 bd 5a a8 67 bd
       -0.052995667 -0.05101421 -0.072871044 -0.056557037
000030 e8 e0 13 3d c5 a9 bf 3c 4e ad 62 bd 54 44 2c 3d
       0.03610316 0.023396382 -0.055341057 0.04205735
000040 5c b2 bd 3c fb c2 17 3d 1d 62 9f bc c6 b9 4b 3d
       0.023156337 0.037051182 -0.019455964 0.049737714
000050 f6 67 5e bd a9 95 82 bd 2b ed 45 3d 49 28 53 bd
       -0.054298364 -0.06376202 0.048321884 -0.05155209
000060 da fd 5d bd ed c9 9b 3d f9 53 12 3d 8c 95 74 bd
       -0.05419717 0.07606874 0.035724614 -0.05971293
000070 cd ed 33 3d 4e cd 82 bd 7d b3 1b 3d 81 a0 82 bd
       0.043927956 -0.06386815 0.03801297 -0.0637827
000080 d9 72 26 3d 12 aa 69 bd d5 6e 4e bd 31 cd 3c 3d
       0.04063687 -0.057046957 -0.050398666 0.046094123
000090 8f 31 84 bd 51 39 14 3d 09 02 8b bd 44 55 57 bd
       -0.06454765 0.036187474 -0.067874976 -0.05257155
0000a0 0e 63 79 bd 21 64 75 bd 55 b5 60 bd 2b 1a 1c 3d
       -0.06088548 -0.059909943 -0.05486043 0.038110893
0000b0 24 7b 1d 3d 80 91 17 3d 92 e5 09 3d d1 4a 69 bd
       0.038447514 0.037003994 0.0336662 -0.056956116
0000c0 cd b9 32 3d c5 01 74 bd b8 fe 46 3d cd bb 1e 3d
       0.043634225 -0.059572 0.048582762 0.03875332
0000d0 a0 b4 75 bd 28 0f 70 bd 3c 2e 5b bd c9 7a 55 bd
       -0.05998671 -0.058608204 -0.05351089 -0.05211905
0000e0 26 8c 5b bd dc c2 c6 3c b0 23 3b bd d2 e2 74 bd
       -0.053600453 0.024262838 -0.04568833 -0.059786625
0000f0 6a b3 82 bd 23 e6 0e 3d 25 3b 47 3d e8 16 23 3d
       -0.06381877 0.034887444 0.04864039 0.039816767
000100 cd 05 11 3d 06 26 1d 3d 60 d8 5c bd 40 36 25 3d
       0.035405923 0.03836634 -0.05391729 0.04033494
000110 62 ee 21 3d 58 3e 33 3d 30 2e 43 3d ad 4d 1f 3d
       0.03953398 0.043760628 0.04765147 0.038892437
000120 c9 87 44 3d 40 7c 11 3d c7 8f 2c 3d 68 96 0b 3d
       0.047981057 0.035518885 0.042129304 0.034078985
000130 be 39 77 bd db 58 7a bd f6 42 80 bd 14 d9 eb 3c
       -0.0603578 -0.061119895 -0.06262772 0.028790034
000140 81 d5 75 bd 50 2c 17 3d e3 3d 70 bd ce 0f 01 3d
       -0.060018066 0.036907494 -0.05865277 0.031509213
000150 55 8d 25 3c 17 5a 29 3d 92 5a 51 bd fc 35 10 bd
       0.010104497 0.041345682 -0.051111765 -0.035207734
000160 9d f3 79 bd d5 19 3f 3d 6a 16 27 3d c3 d5 7b bd
       -0.061023343 0.046655495 0.04079286 -0.061483156
000170 23 c2 82 bd 49 f2 3b 3d e2 b1 3c 3d 7a 91 60 3d
       -0.06384685 0.045885358 0.04606808 0.054826237
000180 94 c6 55 bd f9 f3 57 bd 10 79 52 bd 11 a3 8f 3d
       -0.052191332 -0.052722905 -0.051384985 0.07013524
000190 01 71 2b 3d f2 8c 46 3d 57 cc 2b bd d8 69 81 bd
       0.041855816 0.04847426 -0.04194292 -0.06319016
0001a0 e0 99 3e 3d 86 e4 76 bd fc 8c c2 3c 9f e8 44 bd
       0.046533465 -0.06027653 0.023748867 -0.048073407
0001b0 50 2b 56 bd b0 22 bf bb 52 47 3f 3d 8a 46 83 bd
       -0.0522874 -0.0058329925 0.046698876 -0.06409939
0001c0 10 ae 11 3d d5 a8 62 3d 59 0a 73 bd ed 9c 75 bd
       0.03556639 0.055336792 -0.05933604 -0.05996411
0001d0 f9 99 80 bd d4 92 53 bd 3c 50 73 bd 55 2e 3b bd
       -0.06279368 -0.051653698 -0.05940269 -0.045698483
0001e0 24 a6 17 3d 04 fa 7a 3d 46 c4 7c bd 2d a9 21 3d
       0.03702368 0.06127359 -0.06171062 0.03946798
0001f0 d0 94 2a 3d ab 11 e1 bc 1a af 0e 3d 4d 07 6f bd
       0.041645825 -0.027474245 0.03483496 -0.058356572
