ml-agents-master/ml-agents/config/results/ppo/LineCreator/LineCreator-84879.onnx (onnx, 71632 bytes, 9 tensors)

53 f4 [4]
0	0x3d0c500d	0.03425603
1	0x3c404c6b	0.011736969
2	0x4048405d	3.1289284
3	0x4036f352	2.858601

54 f4 [1, 2]
0	0x3cf73b9d	0.030179793
1	0x3d003df7	0.031309094

distribution.mu.bias f4 [2]
0	0x3dc9139c	0.09818193
1	0xbd53ef2f	-0.051741775

distribution.mu.weight f4 [2, 128]
0	0xba5bb4df	-0.0008381139
1	0xbb0d5377	-0.0021564642
2	0xbc6b48a9	-0.014360585
3	0xbaabdf5b	-0.001311283
4	0x3b923161	0.004461453
5	0x3b0e135b	0.0021679017
6	0x39dbdc2a	0.0004193497
7	0xbafe4949	-0.0019400503
8	0x3d201ac1	0.039088015
9	0xbb079c7d	-0.002069264
10	0xba6e9e66	-0.00091025827
11	0x3b16d1a6	0.0023013144
12	0x38d3712c	0.00010082344
13	0x3d137a20	0.03600514
14	0xbb39e4e6	-0.0028365194
15	0xbb495af9	-0.003072439
16	0xbb8f7b2c	-0.004378697
17	0x3ad82094	0.0016489201
18	0x3b629b39	0.0034577383
19	0xbaca2100	-0.0015421212
20	0x3d0fe899	0.03513393
21	0x3ce404f7	0.027834399
22	0x3ceb3881	0.028713467
23	0xb9ab5129	-0.0003267613
24	0xbabb1522	-0.0014273266
25	0xbb40e46f	-0.0029433032
26	0xb8a364df	-7.7912344e-05
27	0x3c646cd0	0.013941959
28	0x3c200375	0.009766449
29	0xbb2e4a6e	-0.0026594657
30	0x3a1f4390	0.0006075436
31	0xba84074d	-0.0010072977
32	0xba93f759	-0.0011288925
33	0xba12f4b7	-0.00056059234
34	0xbba3c496	-0.0049978
35	0x3a8bfae5	0.0010679631
36	0xba1ccd90	-0.0005981559
37	0x3a0ca012	0.00053644285
38	0x3af4cb26	0.0018676266
39	0x39b7395f	0.00034947225
40	0xba823354	-0.000993351
41	0xbbd54e76	-0.0065095974
42	0x38841109	6.2974235e-05
43	0x3a822e0e	0.0009931938
44	0xbb51bc84	-0.0032003233
45	0x39d398be	0.00040358858
46	0xb836dfae	-4.36005e-05
47	0x3a06d7c7	0.00051438477
48	0xbc890c3e	-0.01672947
49	0xbd2cb8a8	-0.04216829
50	0x3d551506	0.052022003
51	0x3a865cda	0.0010251061
52	0x3c22eb16	0.009943744
53	0xbd05faad	-0.032709766
54	0x3c8755de	0.016520437
55	0x3a96e70e	0.0011512951
56	0x3b1d0995	0.002396201
57	0x3b562af0	0.0032679401
58	0xb914d11f	-0.00014192284
59	0x3d19ff4f	0.037596997
60	0x38c367d3	9.317663e-05
61	0xbdaf3774	-0.08555499
62	0x3cdbdab7	0.02683769
63	0x39a987df	0.00032335424
64	0xbb1258d6	-0.0022330782
65	0xbae70f8e	-0.0017628537
66	0xbd4b0e4c	-0.04957418
67	0xb924de12	-0.00015722986
68	0xbaa85791	-0.001284348
69	0x3b5b8800	0.003349781
70	0xbb0c4e47	-0.0021408962
71	0x3cbbac34	0.022909261
72	0x3c2ec1be	0.010666309
73	0xbb018e7b	-0.0019768763
74	0xb9e98762	-0.0004454209
75	0x3a75da06	0.00093784963
76	0xb9451339	-0.00018794545
77	0x3c318c1d	0.010836628
78	0x3d109e3c	0.035307154
79	0xbae15056	-0.001719008
80	0xbb0714c3	-0.002061174
81	0xbb4692ba	-0.0030299858
82	0x3a9fc02c	0.0012188009
83	0xbcd1a8b7	-0.025593145
84	0xbd0df7d5	-0.03466018
85	0x3a764701	0.00093947357
86	0x3c75e9e8	0.015009381
87	0xbac5f8ce	-0.0015104057
88	0x399ec8f2	0.00030285824
89	0x3a1a9041	0.00058961293
90	0xba81339e	-0.0009857302
91	0xb8c95014	-9.5993426e-05
92	0xb8ff6fe1	-0.000121801866
93	0xbb43a1e9	-0.0029851145
94	0xbc97cf08	-0.018531337
95	0xba8dd10e	-0.001081975
96	0x3daa9eaa	0.08331044
97	0x3c8d5829	0.017253952
98	0xbbaf72ac	-0.005354246
99	0xbaaddb5d	-0.0013264228
100	0xbb0fae0a	-0.0021923804
101	0xbb2eeeb5	-0.0026692573
102	0xbab51f64	-0.0013818559
103	0x38a06854	7.648827e-05
104	0xba991acb	-0.0011680959
105	0xbb332a83	-0.0027338571
106	0xbd83bf6b	-0.064329945
107	0x391552cd	0.00014240593
108	0xbc19a270	-0.009377107
109	0x39b97447	0.00035372583
110	0x3a13530a	0.0005619979
111	0xb9a074a7	-0.0003060449
112	0xbccfc068	-0.025360301
113	0x3b9eeb5f	0.0048498358
114	0x3ac2d471	0.0014864338
115	0xbc6e46ce	-0.014543248
116	0x3d0c9b7c	0.03432797
117	0xbb202d22	-0.0024440964
118	0xbaa5e5d1	-0.0012656992
119	0xba68d3bf	-0.000888165
120	0xbd8c497b	-0.06849953
121	0xbae1ed90	-0.0017236937
122	0x393f72d3	0.00018257955
123	0x3a6b8c16	0.0008985413
124	0xba5e1b22	-0.0008472671
125	0x3d22f502	0.03978444
126	0xb8826893	-6.2183615e-05
127	0xbb39dffe	-0.002836227
128	0x3c45b755	0.012067636
129	0x3ba53352	0.0050415182
130	0xbbe56587	-0.0070006284
131	0xbaf632e3	-0.0018783476
132	0x3b9c6dae	0.004773817
133	0xbc2337a1	-0.009961993
134	0x3c96799e	0.018368538
135	0xbbb4da7e	-0.0055192104
136	0xbd526c95	-0.051373083
137	0x3b881d0f	0.0041538547
138	0x3c1da41d	0.009621647
139	0x3b89317b	0.0041868067
140	0xbc08b8df	-0.008344858
141	0xbd502d83	-0.050824653
142	0x3bb371c1	0.005476207
143	0x3a5c3102	0.0008399637
144	0x3a067129	0.00051285565
145	0xbb4264fd	-0.0029662244
146	0xbb9255b9	-0.0044657853
147	0xbab8ff2b	-0.0014114132
148	0x3cbd026e	0.023072448
149	0xbc9df00a	-0.019279499
150	0xbcedf5ae	-0.029047813
151	0x3a9b13c7	0.0011831456
152	0x3b4bcabe	0.0031096186
153	0x3b869d6a	0.0041081207
154	0xb93ac6bb	-0.00017812375
155	0x3bdb2a7f	0.0066884155
156	0x3bb2736e	0.005445889
157	0x3b7498f0	0.0037322603
158	0x3b5a91d6	0.0033351085
159	0x3b17c4dd	0.002315811
160	0xbb245bb7	-0.002507908
161	0x3b603522	0.0034211357
162	0x3c003401	0.007824899
163	0xbb90519d	-0.0044042603
164	0x3bf01aec	0.007327428
165	0x3ac7f834	0.0015256465
166	0x3bcd3eb7	0.0062635797
167	0xbcbff546	-0.023432385
168	0x3b9807be	0.004639595
169	0x3b62f209	0.0034629127
170	0x3b278eb5	0.0025567238
171	0xbb0f653f	-0.0021880416
172	0xb93ba254	-0.00017894182
173	0x3a85295e	0.0010159423
174	0xbad3e71c	-0.0016166898
175	0xb8c66644	-9.460424e-05
176	0x3bba4b4f	0.005685247
177	0x3d0ed24f	0.034868535
178	0xbd90c81c	-0.07069418
179	0xbb980159	-0.0046388325
180	0x3c1387e1	0.009004564
181	0x3c108874	0.008821595
182	0xbd6ce9dc	-0.057840213
183	0xbb1ad3aa	-0.0023624697
184	0xbc001193	-0.00781669
185	0x3a100df1	0.00054952415
186	0xbb87b5d1	-0.0041415473
187	0xbc5e5786	-0.013570672
188	0x3b47c048	0.0030479599
189	0x3d300f7c	0.042983517
190	0x3a669190	0.0008795494
191	0xbb6de7a0	-0.003630139
192	0xbbae2c02	-0.0053153047
193	0xb9ca2734	-0.0003855765
194	0x3c7d13d3	0.015446621
195	0xba2add41	-0.0006517955
196	0xbb41f57f	-0.002959579
197	0x3b5fca47	0.0034147666
198	0xba335f45	-0.00068425044
199	0x3d0e2936	0.03470727
200	0x3b081714	0.0020765709
201	0x39c8abb8	0.00038274913
202	0xbafabcf2	-0.0019129796
203	0xbbdbf82a	-0.006712933
204	0xbb021497	-0.0019848698
205	0xbd3cd8d7	-0.046105232
206	0xbcdc2057	-0.02687089
207	0xbaaef555	-0.0013348261
208	0xba585ca9	-0.00082535535
209	0x3b7a8324	0.0038225139
210	0xbb584837	-0.0033002028
211	0xbaf6707f	-0.0018801837
212	0xbb943c98	-0.004523825
213	0xbbbaeece	-0.0057047373
214	0x3b80bb1a	0.0039285542
215	0x3b57893d	0.0032888197
216	0xbb87f720	-0.0041493326
217	0xbbbb421c	-0.005714668
218	0xb9042d1c	-0.00012605306
219	0xbabf4a3b	-0.0014594266
220	0x394b3af8	0.00019381556
221	0x3b854414	0.0040669534
222	0x3c819401	0.015817644
223	0x3b8477d3	0.0040426045
224	0x3c91ba95	0.017789165
225	0xbd64cf5f	-0.055861827
226	0x39180b7c	0.00014500128
227	0x3b3cf386	0.0028831675
228	0x3ae6b601	0.0017601849
229	0x3b22b8ad	0.0024829314
230	0x3aa2891a	0.0012400479
231	0xbb9a7da0	-0.0047146827
232	0x3bce1d11	0.006290086
233	0xbb790e19	-0.0038002788
234	0x3c7fcbd8	0.015612565
235	0xbb0da2dd	-0.0021611967
236	0xbd3a0a62	-0.045420058
237	0x3a3805b3	0.0007019892
238	0x3b9cfdb9	0.0047909883
239	0xbacfec89	-0.001586334
240	0x3c0606b9	0.008180314
241	0x3be696a2	0.007037
242	0xba023b7b	-0.000496797
243	0x3bd25ec7	0.0064199897
244	0xbdc90589	-0.09815509
245	0xbb662f0f	-0.0035123264
246	0xbc0938e1	-0.008375377
247	0xb9fa70f2	-0.00047767867
248	0x3c9bc11f	0.019012986
249	0x3af9bd5a	0.0019053624
250	0x3bcf8c6e	0.006333879
251	0x3b2c1495	0.0026257385
252	0xbc020cfd	-0.007937667
253	0x3d0964c6	0.03354337
254	0x39603b49	0.0002138439
255	0x3afd7c08	0.0019339332

network_body.linear_encoder.seq_layers.0.bias f4 [128]
0	0xbc205c82	-0.009787681
1	0xbda9d574	-0.08292666
2	0x3d75589d	0.05989896
3	0x3cf0d7f0	0.029399842
4	0xbdd93193	-0.10605159
5	0x3da3d3e3	0.079993986
6	0x3cccfd3f	0.0250231
7	0xbddca269	-0.10773165
8	0xbd832496	-0.064034626
9	0x3dbedc45	0.09319357
10	0xbd53ea2f	-0.051737007
11	0x3d45db6d	0.048304964
12	0x3c5b65af	0.0133909425
13	0x3da0ac89	0.078454085
14	0x3c262c26	0.010142362
15	0xbd07cdcf	-0.03315526
16	0xbdf3d17b	-0.119051896
17	0xbd78843f	-0.060672995
18	0x3c37885f	0.011201947
19	0xbd24b662	-0.040212996
20	0xbcd31a55	-0.025769392
21	0x3c853e52	0.016265068
22	0x3d895c1a	0.0670702
23	0x3c9de794	0.019275464
24	0xbd5fc904	-0.054635063
25	0xbdb294ea	-0.08719809
26	0x3d451b7e	0.04812192
27	0x3c9122fb	0.017716875
28	0x3ca7fe8f	0.020507125
29	0x3d8804a9	0.06641514
30	0xbd758008	-0.059936553
31	0x3c97d676	0.01853488
32	0xbd3d86ba	-0.046271063
33	0xbcb91e06	-0.022597324
34	0xbc44df1a	-0.012016082
35	0xbaca2021	-0.0015420952
36	0xbdc979b7	-0.098376684
37	0xbde5c010	-0.11218274
38	0xbcb7529d	-0.02237826
39	0xbda76331	-0.08173216
40	0xbd3b37da	-0.04570756
41	0xbdb8a2c3	-0.09015419
42	0x3da15328	0.07877189
43	0xbe179287	-0.1480199
44	0xbdfafae5	-0.122548856
45	0x3daa583d	0.08317611
46	0xbd7f1833	-0.062278938
47	0xbc935949	-0.01798691
48	0x3d2df679	0.042471383
49	0xbe153217	-0.14569889
50	0xbb173f59	-0.002307853
51	0xbd453fca	-0.048156537
52	0xbb2303af	-0.0024874022
53	0xbd021a0c	-0.03176312
54	0xbc79550b	-0.01521803
55	0xbd7e77b0	-0.06212586
56	0x3cb61828	0.022228315
57	0xbe13052c	-0.14357442
58	0xbc85a0f9	-0.01631211
59	0xbc7980bb	-0.015228446
60	0xbd74fb39	-0.059809897
61	0x3ce1aee5	0.027549217
62	0x3deaf700	0.11472893
63	0x3ca54a7e	0.020177122
64	0x3c1fa979	0.009744995
65	0xbd09c250	-0.033632576
66	0xbdb285ca	-0.087169245
67	0xbda73976	-0.08165257
68	0xbb8f4efc	-0.0043734293
69	0xbcdc2721	-0.026874127
70	0x3cda1142	0.026619557
71	0xbd41173d	-0.047141302
72	0x3bd7c089	0.0065842313
73	0xbcb4113b	-0.021980872
74	0x3a8136ab	0.0009858211
75	0x3b86679e	0.0041017076
76	0x3c6b3aed	0.014357311
77	0x3d36aca6	0.044598244
78	0xba143f99	-0.0005655229
79	0x3d6467b3	0.055762958
80	0xbb65e95d	-0.0035081722
81	0xbbccacf6	-0.0062462045
82	0xbdf67e11	-0.12035764
83	0xbcd0c985	-0.025486717
84	0xbd0ab01f	-0.03385937
85	0xbda63f85	-0.08117584
86	0xbcea342d	-0.028589332
87	0xbd9cea67	-0.07661896
88	0xbd901c7b	-0.07036682
89	0xbdcd59a0	-0.1002686
90	0x3ced46e9	0.028964477
91	0xbd8eb11f	-0.06967377
92	0xbcde1aa6	-0.027112316
93	0xbd3d5fa8	-0.046233803
94	0x3b5dd786	0.0033850386
95	0xbda173ed	-0.07883439
96	0xbcbe1525	-0.023203442
97	0xbbd9983a	-0.0066404613
98	0xbca5764b	-0.020198008
99	0x3cd7a9a6	0.026326012
100	0x3dc4e137	0.09613269
101	0xbb2829ff	-0.0025659797
102	0xbd203bb2	-0.03911943
103	0xbcc70215	-0.024292985
104	0xbdaff3ff	-0.085914604
105	0x3cb82042	0.02247632
106	0x3d069d47	0.032864835
107	0x3b8f0d2d	0.0043655843
108	0xbd338968	-0.043832213
109	0xbd08c8b8	-0.033394545
110	0x3d0856c5	0.033285875
111	0x3ca0c8d6	0.019627016
112	0xbd95eef1	-0.07320965
113	0xbe0af3e6	-0.13569602
114	0xbce43e65	-0.027861783
115	0x3d12308d	0.035690833
116	0xba5fd562	-0.00085385714
117	0x3cc9fb84	0.024656065
118	0xbd83de68	-0.06438905
119	0x3ba7d407	0.005121711
120	0xbd2fc15a	-0.042909004
121	0x3be4de96	0.006984542
122	0xbc93e916	-0.01805548
123	0xbc96fab2	-0.018430088
124	0xbd17764c	-0.03697805
125	0xbc72d2ec	-0.0148207955
126	0xbe47cf73	-0.1951273
127	0x3d3f9610	0.04677397

network_body.linear_encoder.seq_layers.0.weight f4 [128, 4]
0	0xbcb592ca	-0.022164721
1	0x3eed25b1	0.4631782
2	0xbdab137e	-0.08353327
3	0x3ea24f60	0.31701183
4	0xbdfde0c6	-0.12396388
5	0x3eae759d	0.34074107
6	0xbecaee74	-0.3963505
7	0x3e05f4a6	0.13081607
8	0x3dd1d59b	0.1024582
9	0xbf416758	-0.75548315
10	0x3db7b74d	0.08970509
11	0x3d281a4b	0.0410407
12	0xbefb4bd3	-0.49081287
13	0xbe720beb	-0.23637359
14	0x3e46ee8b	0.19426934
15	0xbef3956e	-0.47574943
16	0xbe4e9013	-0.20172147
17	0xbee7cfd1	-0.4527574
18	0xbeafb4f8	-0.34317756
19	0x3f0378a3	0.5135595
20	0xbe5c8ecb	-0.21538846
21	0x3e194ba2	0.14970258
22	0x3d1083c8	0.035281926
23	0x3c8df24a	0.017327446
24	0xbe92f970	-0.2870593
25	0xbeac33fa	-0.33633405
26	0xbf0c584b	-0.54822224
27	0x3c6a2186	0.014290219
28	0x3ce301cd	0.02771082
29	0xbf4fc5e6	-0.81161344
30	0x3f47eaa6	0.7809242
31	0xbf3137fb	-0.69226044
32	0x3d745b08	0.059657127
33	0x3f598092	0.8496181
34	0x3da7aa24	0.081867486
35	0x3f14ce01	0.58126837
36	0xbf69a18d	-0.9126213
37	0xbd47d9a3	-0.04879154
38	0x3dbbd908	0.09172255
39	0xbe3f46f9	-0.18679418
40	0xbf5f1f8c	-0.8715751
41	0x3f528a2a	0.8224207
42	0xbe6d6a62	-0.23185113
43	0xbeb3a492	-0.35086495
44	0xbf257de0	-0.64645195
45	0x3eddd532	0.43326718
46	0x3f6da48e	0.92829216
47	0x3e860b8e	0.2618069
48	0xbf08e5e4	-0.53475785
49	0xbd001fa0	-0.03128016
50	0xbf88c4bf	-1.0685042
51	0xbe8bf761	-0.27337173
52	0xbf2a095f	-0.6642055
53	0xbe70eab3	-0.2352703
54	0x3bd7d880	0.006587088
55	0xbd1f4edf	-0.038893577
56	0x3e8ca425	0.27468982
57	0x3dd4eefd	0.10397146
58	0x3e211a0e	0.15732595
59	0xbd2944b6	-0.041325293
60	0xbf4e3532	-0.8054992
61	0xbedd5d47	-0.43235227
62	0x3e98d2bd	0.2984828
63	0x3d4cb8c3	0.04998089
64	0xbf157152	-0.5837604
65	0xbc94f2ab	-0.01818212
66	0xbf46b233	-0.7761566
67	0x3bda0db2	0.0066544646
68	0x3db6c21c	0.08923742
69	0x3e99312e	0.29920334
70	0xbe9ed7fc	-0.31024158
71	0xbf926d7e	-1.1439664
72	0x3f0aa2fc	0.54154944
73	0x3fb7de25	1.4364668
74	0x3db30143	0.08740475
75	0xbf098354	-0.53716016
76	0xbf6a7e10	-0.91598606
77	0xbf24f0ef	-0.64430135
78	0xbe93b4ba	-0.2884882
79	0x3f635685	0.88803893
80	0x3f001aee	0.5004109
81	0xbf1e634f	-0.6187028
82	0xbe5de07c	-0.21667665
83	0xbeaa5892	-0.332707
84	0x3dadfc25	0.084953584
85	0x3c9dd91b	0.019268563
86	0xbf06074f	-0.523549
87	0xbf88604a	-1.0654385
88	0x3ef0eca6	0.47055548
89	0xbda521a4	-0.08063057
90	0x3f111497	0.5667204
91	0x3eba6fe1	0.36413482
92	0x3ea74a9b	0.32674107
93	0xbe4d4950	-0.20047498
94	0xbf42f367	-0.7615265
95	0x3e0d0ecc	0.13775176
96	0x3ddb56d9	0.10709924
97	0x3eabc7c5	0.3355085
98	0x3dda6a28	0.10664779
99	0x3f660191	0.8984614
100	0xbef27145	-0.47352043
101	0x3f2213bb	0.63311356
102	0xbdd13e7c	-0.10216996
103	0x3e8495f7	0.25895664
104	0xbf834042	-1.0253985
105	0xbf065c36	-0.5248445
106	0xbe59ae01	-0.21257783
107	0xbda74b35	-0.081686415
108	0x3ecdff5d	0.4023389
109	0x3e2abb3f	0.16672991
110	0x3ed5dab2	0.41768414
111	0xbea56bcc	-0.32308805
112	0x3f217137	0.6306338
113	0xbf0accb0	-0.5421858
114	0x3ee19562	0.44059283
115	0x3efd0d07	0.49424002
116	0x3f11935e	0.5686549
117	0x3f45af2e	0.7722043
118	0x3e80d333	0.25161132
119	0xbe91f7dc	-0.28509414
120	0x3f02f7de	0.51159465
121	0xbdc22ae6	-0.094808385
122	0xbe3ec631	-0.18630292
123	0x3dbbc1ce	0.09167825
124	0x3e7715c3	0.24129395
125	0x3f56c32c	0.8389156
126	0xbead14c7	-0.33804914
127	0xbf1b8890	-0.6075525
128	0x3f1b4dd3	0.60665625
129	0xbd15913f	-0.03651547
130	0x3f12cd99	0.5734497
131	0xbec4d0a8	-0.38440442
132	0x3e92bafa	0.28658277
133	0xbf07238e	-0.5278863
134	0xbdc63edc	-0.09679958
135	0xbf732b99	-0.949884
136	0xbe81ba53	-0.25337467
137	0xbc779e89	-0.015113481
138	0x3f376ae3	0.7164747
139	0x3ead132e	0.33803695
140	0xbd71cfce	-0.05903607
141	0x3ecc6d37	0.39927074
142	0x3c2cc72b	0.010545532
143	0xbf05804b	-0.52148885
144	0x3e1c22f4	0.15247709
145	0xbdbe7f1f	-0.0930159
146	0x3daf2be1	0.08553291
147	0x3eb3ee58	0.3514278
148	0x3e9ed71e	0.31023496
149	0xbe57b0a8	-0.21063483
150	0x3e43cb16	0.1912044
151	0x3f25229b	0.6450593
152	0x3e995fe1	0.29955962
153	0xbf3d709a	-0.7399994
154	0xbca9fcd6	-0.020750444
155	0x3f2f7431	0.6853667
156	0x3df16b12	0.11788
157	0xbeacd938	-0.33759475
158	0x3f125e28	0.5717492
159	0xbeb91671	-0.36149934
160	0xbed69ab5	-0.41914907
161	0x3f9db324	1.2320294
162	0x3ef0d3cd	0.4703659
163	0x3e9d8967	0.30768892
164	0x3e7235d8	0.23653352
165	0x3f084696	0.53232706
166	0xbedd43db	-0.43215832
167	0x3dcf2484	0.10114387
168	0x3ec03c1e	0.37545866
169	0xbda9696d	-0.082720615
170	0xbeed917f	-0.46400067
171	0xbee43fe3	-0.44579992
172	0xbef993d8	-0.48745608
173	0x3daf6c07	0.085655265
174	0x3cbf13cd	0.023324871
175	0x3e823d28	0.25437284
176	0x3e24f566	0.16109237
177	0xbf2f7253	-0.6853382
178	0x3cc684c7	0.024233235
179	0x3f0e4230	0.55569744
180	0xbee2405b	-0.44189724
181	0xbdf7e309	-0.121038504
182	0x3e921a25	0.28535572
183	0xbe155753	-0.14584093
184	0x3ef81166	0.48450774
185	0x3f2b6dca	0.669644
186	0x3e741fcf	0.23840259
187	0x3f5ce96b	0.8629367
188	0x3f19ef38	0.60130644
189	0x3cf7981e	0.030223902
190	0xbc713780	-0.014722705
191	0xbf5ee513	-0.8706829
192	0xbf37132c	-0.7151363
193	0x3ec1758d	0.37784997
194	0x3de07982	0.10960676
195	0x3d9b5234	0.075840384
196	0xbee1845d	-0.44046298
197	0xbf6d73f5	-0.9275506
198	0xbe62e0b4	-0.2215603
199	0x3f2caded	0.6745289
200	0xbee0e0c0	-0.4392147
201	0xbefe4612	-0.49662834
202	0xbd552d61	-0.05204523
203	0x3ebe6238	0.3718431
204	0xbece7e74	-0.4033085
205	0x3f19b71f	0.60045046
206	0x3f347b77	0.7050089
207	0xbf183e4f	-0.59470075
208	0xbd9b7fe4	-0.075927526
209	0x3f06e995	0.5270017
210	0xbe893fe5	-0.2680656
211	0xbe3260cc	-0.17419738
212	0x3e2842c0	0.16431713
213	0xbf3cc7d2	-0.737424
214	0xbee4971e	-0.44646543
215	0x3f1052a5	0.56376106
216	0xbf116083	-0.5678789
217	0xbd3f38a8	-0.04668489
218	0xbe11b0d4	-0.14227611
219	0x3f15a6da	0.5845772
220	0x3e6d1e15	0.23156007
221	0x3ec3b132	0.38221127
222	0x3e826d4d	0.25474015
223	0xbee5bbaf	-0.44869754
224	0x3f383704	0.7195895
225	0xbe1bc667	-0.15212403
226	0xbf640ecb	-0.8908507
227	0x3d57331f	0.052538987
228	0xbea42269	-0.32057503
229	0x3f043468	0.51642466
230	0xbe69e2af	-0.22840379
231	0x3e1d702c	0.15374821
232	0xbf231f02	-0.6371919
233	0xbea721b8	-0.32642913
234	0xbe5d2609	-0.2159654
235	0xbe10493e	-0.1409044
236	0xbde071d9	-0.10959215
237	0x3e7a48f2	0.24441889
238	0xbe51bd27	-0.20482312
239	0xbe999fb7	-0.30004665
240	0x3f23f54d	0.64046174
241	0x3ee297d8	0.44256473
242	0x3f7fdc89	0.99945885
243	0xbefe2e51	-0.49644712
244	0x3ea88e78	0.32921195
245	0xbd87df20	-0.066343546
246	0x3ecd07ab	0.40044913
247	0xbec7177a	-0.388851
248	0xbd6bdb3d	-0.05758213
249	0xbe3deb33	-0.18546753
250	0x3df866d3	0.12128987
251	0xbf230690	-0.6368189
252	0xbc9b197d	-0.018933052
253	0xbd323d21	-0.04351533
254	0x3f4ed9c5	0.8080104
255	0x3ec76bc4	0.38949406

network_body.linear_encoder.seq_layers.2.bias f4 [128]
0	0xbc6f566c	-0.014608007
1	0x3d42b9fa	0.047540642
2	0xbdda5d8b	-0.10662373
3	0xbbd2e554	-0.0064360294
4	0x3ca871a8	0.020562008
5	0xbd57ff61	-0.052733783
6	0x3d1d46f0	0.03839773
7	0xbc860278	-0.016358599
8	0x3d0dce45	0.034620542
9	0x3c8dcb70	0.01730892
10	0x3ca35e7b	0.019942513
11	0xbc4a5171	-0.012348519
12	0xbd141a2d	-0.036157776
13	0x3b748900	0.0037313104
14	0x3d3e742c	0.04649751
15	0x3d8423bf	0.064521305
16	0x3c72c200	0.014816761
17	0x3c43d757	0.0119531965
18	0x3b757c8f	0.0037458276
19	0xbd7d9617	-0.061910715
20	0x3c97fa28	0.018551901
21	0x3cfced74	0.030874945
22	0x3d03bbfc	0.032161698
23	0x3da615b3	0.081096075
24	0xbc8463d6	-0.016160887
25	0xbb4bf381	-0.0031120481
26	0x3d1f92b2	0.03895826
27	0x3d5bc3de	0.05365359
28	0x3d94dd6a	0.07268794
29	0x3ce5f903	0.02807284
30	0x3c7a40e0	0.0152742565
31	0x3d51236e	0.05105918
32	0x3d77dbcf	0.06051236
33	0x3c68c657	0.014207444
34	0x3d4ecf1e	0.05049049
35	0xbd14b0b0	-0.036301315
36	0x3d2d6d3c	0.042340502
37	0x3c114604	0.008866791
38	0x3ba4144a	0.0050073015
39	0xbd2ef9e8	-0.042718798
40	0x3c2d1992	0.0105651785
41	0xbd56e632	-0.052465625
42	0x3d6818fc	0.056664452
43	0xbd02ef78	-0.031966656
44	0xbc0cf22c	-0.00860266
45	0x3d4cf4b6	0.050038062
46	0x3d21e41e	0.03952419
47	0xbd1165fe	-0.035497658
48	0xbdb1eb52	-0.08687462
49	0xbdb4f083	-0.088349365
50	0x3d1c00a3	0.038086545
51	0x3cde0796	0.027103227
52	0x3dacac9f	0.08431362
53	0xbdcb8ecf	-0.09939348
54	0xbc92bf96	-0.01791362
55	0x3bb9e2c6	0.0056727855
56	0x3b903848	0.0044012405
57	0x3c76b182	0.01505697
58	0x3ca50ca9	0.020147638
59	0x3d458ec6	0.048231862
60	0x3d878ce5	0.066186704
61	0xbdedf97a	-0.116198495
62	0x3d3b741c	0.045765027
63	0xbd52853e	-0.0513966
64	0xbd790c0f	-0.060802516
65	0xbc4c0e6b	-0.012454609
66	0xbdeb7295	-0.11496464
67	0x3cccbb4b	0.024991652
68	0xbcd90e3e	-0.026496049
69	0x3d5d94a1	0.05409682
70	0xbcf5f169	-0.03002234
71	0x3da77e5b	0.08178397
72	0x3d6abebe	0.057310812
73	0x3d917cfc	0.07103917
74	0xbd1943ad	-0.037418056
75	0xbbfce82d	-0.007718107
76	0x3c4a7848	0.012357779
77	0xbd732cc0	-0.05936885
78	0x3d173d4a	0.036923684
79	0x3ccd2e45	0.025046477
80	0xbcf58771	-0.02997181
81	0x3c8c9725	0.017161915
82	0x3b18e2de	0.0023328583
83	0xbd956542	-0.07294704
84	0xbdbaa230	-0.09112966
85	0xbd30d3f7	-0.043170895
86	0x3d8c3d27	0.068476014
87	0xbc8fd05c	-0.017555408
88	0x38d554b5	0.000101724094
89	0xbd8852c5	-0.06656412
90	0x3d487bd7	0.048946228
91	0xbcf01520	-0.029306948
92	0xbbbfc186	-0.005851927
93	0x3d803fa1	0.06262136
94	0xbda0eb72	-0.07857408
95	0x3b8c6eb9	0.00428566
96	0x3d69be7e	0.057066433
97	0xbc44d394	-0.012013335
98	0x3cf97c66	0.030454826
99	0x3c267c5a	0.010161484
100	0xbc11e98b	-0.008905779
101	0xbc368295	-0.011139532
102	0x3d847a42	0.06468631
103	0x3c1ace24	0.009448562
104	0x3d0c2d5f	0.034222957
105	0x3c482144	0.012214962
106	0xbddaa239	-0.10675473
107	0x3ce2cf36	0.027686696
108	0xbda318b9	-0.079637
109	0x3b27d54d	0.0025609315
110	0x3d2724ae	0.040806465
111	0x3d0e89b3	0.03479929
112	0xbdd7b872	-0.10533227
113	0x3d7cd916	0.061730467
114	0x3d673160	0.056443572
115	0xbd959d1d	-0.073053576
116	0x3d21fd6d	0.039548326
117	0xbc0006dd	-0.007814136
118	0xbd8fdbe5	-0.070243634
119	0x3d4d3311	0.05009753
120	0xbdff1b3b	-0.12456366
121	0x3d76619c	0.06015168
122	0x3d913729	0.07090599
123	0x3c5ae871	0.013361082
124	0xbd778bad	-0.06043594
125	0x3d6a9155	0.057267506
126	0x3cf39416	0.029733699
127	0x3c20b2d2	0.009808259

network_body.linear_encoder.seq_layers.2.weight f4 [128, 128]
0	0xbe0ff4a7	-0.14058171
1	0xbc2b4153	-0.010452586
2	0xbe44d366	-0.19221267
3	0x3e358296	0.17725596
4	0x3da8723a	0.08224912
5	0xbdcf7e76	-0.101315424
6	0x3d1781cd	0.036989022
7	0x3db3e876	0.08784573
8	0xbd498000	-0.049194336
9	0xbd21cecb	-0.039503854
10	0xbe5b69a7	-0.21427022
11	0xbd85b1be	-0.06528042
12	0xbe0fc7b5	-0.14041026
13	0xbcf3cc00	-0.02976036
14	0xbd38196e	-0.044946127
15	0xbd54e087	-0.05197194
16	0xbbd91684	-0.0066249985
17	0x3d89e158	0.06732434
18	0x3d3d7758	0.046256393
19	0xbc25355e	-0.0100835245
20	0xbde777ab	-0.11302122
21	0x3d169e02	0.03677178
22	0xbdcd52cf	-0.1002556
23	0xbd2dd617	-0.0424405
24	0x3d4baa05	0.04972269
25	0xbcbff0d5	-0.023430267
26	0xbd8c40b1	-0.068482764
27	0x3d1f43bb	0.038882952
28	0xbdb316c7	-0.08744579
29	0xbd9103a9	-0.07080776
30	0x3a51b756	0.00080000365
31	0x3d6ebd91	0.058286253
32	0x3d119cf5	0.035550077
33	0x3d2aa0a2	0.041657098
34	0xbdd91f87	-0.106017165
35	0x3d260db9	0.04054043
36	0x3d53fc1e	0.05175411
37	0x3d4e9273	0.050432634
38	0xbd6e8bf4	-0.05823894
39	0x3c13c370	0.009018764
40	0x3c9fa870	0.019489497
41	0xbdaca91a	-0.08430691
42	0x3d2ba1cc	0.04190235
43	0x3d401cb4	0.046902373
44	0x3c09daa1	0.008413942
45	0xbdfeb1f9	-0.12436289
46	0xbe469322	-0.19392064
47	0x3d491479	0.04909179
48	0xbe179184	-0.14801604
49	0xbd6f1e03	-0.05837823
50	0xbca9e222	-0.020737711
51	0xbca33293	-0.019921577
52	0xbdc01acb	-0.0938011
53	0x3bbc3423	0.00574352
54	0xbcb73ae6	-0.022366952
55	0xbd67937f	-0.056537148
56	0xbe273233	-0.16327743
57	0x3e035ed2	0.1282914
58	0x3df498e2	0.119432226
59	0xbd7fe786	-0.062476657
60	0xbce7a1f8	-0.028275475
61	0x3d015dac	0.031583473
62	0x3e745636	0.23861012
63	0xbe43a13f	-0.19104479
64	0xbcbd63c4	-0.023118861
65	0xbc8c118a	-0.017098207
66	0x3d9664db	0.073434554
67	0x3e288438	0.16456687
68	0xbdd25469	-0.10270006
69	0xbe08f16a	-0.13373342
70	0xbc87cf2f	-0.016578285
71	0x3e01c48b	0.12672631
72	0xbc50c982	-0.012743356
73	0x3dd49e9c	0.10381815
74	0xbda8a10e	-0.08233844
75	0x3de66de4	0.11251429
76	0x3c9a0b46	0.018804204
77	0xbd680e95	-0.05665453
78	0x3d0f96be	0.03505587
79	0xbe06b070	-0.13153243
80	0x3e1ce31f	0.15321015
81	0xbd18bcf3	-0.03728957
82	0xbdb88b59	-0.090109535
83	0xbc7e5df2	-0.015525328
84	0xbd9d399c	-0.07677004
85	0xbc94366e	-0.01809236
86	0xbe1d16bf	-0.15340708
87	0xbe4a59b9	-0.19760789
88	0x3d3e60b7	0.046478953
89	0x3d914dbb	0.07094904
90	0xbe39925c	-0.18122238
91	0x3db8010a	0.08984573
92	0x3d1ff907	0.03905585
93	0x3d434923	0.04767717
94	0xbe209841	-0.1568308
95	0xbe3162a2	-0.17322782
96	0xbe0f6cd5	-0.1400636
97	0x3cc9fe17	0.024657292
98	0x3e24e039	0.16101159
99	0xbdc22b6b	-0.094809376
100	0xbda6317e	-0.08114909
101	0xbd9d865e	-0.07691644
102	0x3b259ae7	0.002526933
103	0x3cf1e8b9	0.029529916
104	0xbc82da86	-0.01597334
105	0xbb971aa4	-0.00461133
106	0x3d45258b	0.048131507
107	0xbc87ce7e	-0.016577955
108	0x3d83ae92	0.06429781
109	0xbcc0ecfd	-0.023550505
110	0xbe5631d4	-0.20917445
111	0xbde564f3	-0.11200895
112	0x3d316756	0.04331144
113	0xbc1e089f	-0.00964561
114	0xbd053e17	-0.032529917
115	0x3d98afe8	0.074554265
116	0xbe1ea9d1	-0.15494467
117	0xbc1989f4	-0.0093712695
118	0xbca4e16b	-0.020127019
119	0x3cae66c7	0.021289242
120	0x3c0890e5	0.008335327
121	0x3d8976c0	0.06712103
122	0x3d892464	0.06696394
123	0xbe67c4d8	-0.22633684
124	0xbc57a1d1	-0.013161139
125	0xbdd026b6	-0.101636335
126	0xbe02b5fe	-0.12764737
127	0x3d7ecd27	0.062207367
128	0x3d907999	0.07054443
129	0xbd30beeb	-0.043150824
130	0xbd1b8f86	-0.03797867
131	0x3e1a337d	0.15058704
132	0xbd8f20b6	-0.06988661
133	0xbc92fadf	-0.01794189
134	0x3ddb7006	0.10714726
135	0x3df37465	0.11887435
136	0xbcd247a3	-0.025668925
137	0xbdd0ddb8	-0.101985395
138	0xbd7c30b5	-0.06156989
139	0xbde37be9	-0.11107618
140	0xbe062496	-0.13099894
141	0xbe0bcc7a	-0.1365222
142	0xbd80f27d	-0.06296251
143	0x3d0c3378	0.034228772
144	0xbd964fc6	-0.07339434
145	0x3e35c846	0.1775218
146	0xbe21e294	-0.15809089
147	0x3d13deec	0.036101267
148	0xbd65ecab	-0.056133907
149	0xbdfc5d28	-0.12322456
150	0x3e4d36b8	0.20040405
151	0x3d6107f7	0.054939236
152	0x3ceac392	0.028657708
153	0x3d2ce9f4	0.042215303
154	0xbcffffc7	-0.031249894
155	0xbccac12a	-0.02475031
156	0xbd9f967e	-0.07792376
157	0xbdc7f40e	-0.097633466
158	0xbe67620f	-0.22596
159	0x3e3c7fde	0.18408152
160	0xbdb863d2	-0.09003414
161	0x3d5f5ac6	0.054529928
162	0xbd5d804f	-0.054077443
163	0xbe07add9	-0.13249911
164	0xbdca9f6d	-0.09893689
165	0xbcc1c580	-0.023653746
166	0x3d9d5818	0.07682818
167	0x3dae4bc0	0.08510542
168	0x3d88ccec	0.06679711
169	0xbe0e0009	-0.13867201
170	0xbdae7594	-0.0851852
171	0xbbdd3a17	-0.0067513096
172	0x3dcf6296	0.10126226
173	0xba9dfa5d	-0.0012052763
174	0xbda0f52d	-0.078592636
175	0x3d6153b0	0.05501145
176	0x3b53464b	0.0032237943
177	0xbc9b681a	-0.018970538
178	0xbd4be2fe	-0.049777023
179	0x3dabb066	0.08383255
180	0xbe142070	-0.14465499
181	0xbd0dae5b	-0.034590106
182	0x3d1499a3	0.036279332
183	0xbcaf82d1	-0.021424683
184	0xbc8896ff	-0.016673563
185	0x3d7ebbc7	0.062190797
186	0xbcc23e46	-0.023711335
187	0xbc439094	-0.011936326
188	0xbce6432f	-0.028108208
189	0xbd8c9215	-0.068638004
190	0x3d644f79	0.055739854
191	0x3c1406cf	0.009034826
192	0xbe1623e8	-0.14662135
193	0xbcea6aad	-0.02861532
194	0xbd1bc09a	-0.038025476
195	0xbdbc6523	-0.09198978
196	0x3d4cabf1	0.049968664
197	0xbc655b70	-0.013998851
198	0xbe1e9069	-0.15484776
199	0xbde8dff8	-0.11370844
200	0x3d25cd64	0.04047908
201	0x3ddc076d	0.10743604
202	0xbde6420b	-0.112430654
203	0x3dfada94	0.12248722
204	0x3d03c20b	0.032167476
205	0x3dd6d947	0.10490661
206	0x3c53ea7b	0.0129343225
207	0xbdac46a0	-0.08411908
208	0x3bfe0b26	0.007752794
209	0x3e2a58f7	0.166355
210	0xbe519904	-0.20468527
211	0x3a81e7c6	0.0009910993
212	0x3d09176e	0.03346961
213	0x3de4af2e	0.111662254
214	0x3da04397	0.07825392
215	0x3e16ca4c	0.14725608
216	0x3c69ecf7	0.014277688
217	0xbd0e6951	-0.034768406
218	0xbd6451b5	-0.055741984
219	0xbcd5e04c	-0.02610793
220	0xbe0334b5	-0.12813075
221	0x3de87bab	0.11351713
222	0x3db8a624	0.09016064
223	0xbcc48d10	-0.023993045
224	0xbe358955	-0.1772817
225	0x3d3ef5a8	0.046620995
226	0x3d689d7e	0.05679082
227	0xbc6318b8	-0.013860874
228	0x3c6895a0	0.01419583
229	0xbd700e95	-0.058607657
230	0xbd982f6d	-0.07430921
231	0x3ccf410b	0.02529957
232	0x3de8e1ae	0.1137117
233	0x3b047213	0.0020209595
234	0x3dcf53ec	0.10123429
235	0xbe04ce1c	-0.1296925
236	0xbd584dd6	-0.052808605
237	0xbe073f8a	-0.13207832
238	0x3d7b1ba0	0.061305642
239	0x3d303cae	0.04302662
240	0xbdd57581	-0.10422803
241	0x3cf90318	0.030396983
242	0xbc7e60f2	-0.015526043
243	0x3c0f6144	0.008751217
244	0xbd49eb75	-0.049296815
245	0x3c4baf4a	0.012431929
246	0x3dbfb85d	0.093613364
247	0xbc25f32e	-0.010128779
248	0xbd911b7e	-0.07085322
249	0xbd64587e	-0.055748455
250	0x3cc83f8d	0.024444366
251	0x3ccbd84f	0.024883417
252	0x3cdfa408	0.027299896
253	0xbc8dc683	-0.017306572
254	0x3cbc3113	0.02297262
255	0xbd758028	-0.059936672

network_body.vector_processors.0.normalizer.running_mean f4 [4]
0	0x411ee0b8	9.929863
1	0x405146f7	3.2699564
2	0xc1120994	-9.127338
3	0x400ddc23	2.216561
