ml-agents-master/ml-agents/config/results/ppo/LineCreator/LineCreator-499946.pt (torch, 434231 bytes, 40 tensors)

network_body.vector_processors.0.normalizer.running_mean f4 [4]
0	0x403c24b5	2.9397404
1	0xbca2587f	-0.019817589
2	0xc0c74e8a	-6.2283373
3	0xbe9bbc9f	-0.30417344

network_body.vector_processors.0.normalizer.running_variance f4 [4]
0	0x4b698476	1.5303798e+07
1	0x4a76a281	4.0408642e+06
2	0x4b1770c6	9.924806e+06
3	0x4a71a8fe	3.9593595e+06

network_body.linear_encoder.seq_layers.0.weight f4 [128, 4]
0	0xbf010d1d	-0.50410634
1	0xbe3b7fde	-0.18310496
2	0xbd0d4376	-0.034488164
3	0x3ebd95e6	0.37028426
4	0xbf15f6ae	-0.5857953
5	0xbce25779	-0.0276296
6	0xbeb58901	-0.35456088
7	0xbf83c99a	-1.0295899
8	0x3d3e0305	0.0463896
9	0xbe868989	-0.26276806
10	0xbf788bfc	-0.970886
11	0xbf2ec154	-0.68263745
12	0xbf2c2a16	-0.6725172
13	0x3f1d0711	0.6133891
14	0xbe2ea971	-0.17056824
15	0xbf72e148	-0.94875
16	0x3e027c37	0.12742697
17	0x3d9d3212	0.07675566
18	0x3e39701f	0.18109177
19	0x3d2c8697	0.042120542
20	0xbe8ba280	-0.27272415
21	0xbe814b24	-0.2525264
22	0xbed529e8	-0.41633534
23	0x3e436114	0.19080001
24	0x3cb8fb5c	0.022580795
25	0xbe8007ad	-0.25005856
26	0x3eabdb3a	0.33565694
27	0x3f1c1a23	0.6097738
28	0xbf218fd8	-0.63110113
29	0xbeb16c42	-0.34652907
30	0x3bdcff0b	0.0067442707
31	0x3e6947e6	0.22781333
32	0x3f7624ea	0.96150076
33	0xbf3ab145	-0.7292674
34	0x3e8bdfe8	0.27319264
35	0xbd894979	-0.06703467
36	0x3ea9c0cd	0.33154908
37	0xbecd3677	-0.40080616
38	0x3dd5d1f3	0.10440435
39	0xbf03c515	-0.514726
40	0xbf131322	-0.5745107
41	0x3f1b58f2	0.60682595
42	0x3edf149d	0.43570414
43	0x3da76fc1	0.08175612
44	0xba50a1b7	-0.00079586677
45	0xbacf6f21	-0.0015825966
46	0xb9ed0395	-0.0004520683
47	0x3c4cfdd2	0.012511687
48	0xbd939835	-0.072067656
49	0xbdf6a90f	-0.12043964
50	0x3e1da855	0.15396245
51	0x3e886110	0.26636553
52	0xbd03d1d0	-0.032182515
53	0xbc36ffd6	-0.0111693945
54	0xbd51642e	-0.05112093
55	0xbd746310	-0.059664786
56	0x3f415469	0.75519425
57	0xbe9e80c2	-0.3095761
58	0xbdf34115	-0.11877648
59	0xbf376411	-0.71637064
60	0xbf038af0	-0.51383877
61	0x3d33c716	0.043891035
62	0x3eb7363d	0.35783568
63	0xbc8b79ba	-0.017025817
64	0xbcc4ded1	-0.024032028
65	0xbea50d2d	-0.32236615
66	0x3d7ecbbe	0.062206022
67	0x3dcf9a8d	0.101369
68	0x3d4e895d	0.05042397
69	0xbd4ca5e2	-0.049962886
70	0xbbdb3e92	-0.0066908086
71	0xbdd74338	-0.10510868
72	0xbd47a7ed	-0.04874413
73	0x3f12adf0	0.5729666
74	0x3e529caf	0.20567583
75	0xbd6806ea	-0.05664722
76	0xbc97471d	-0.018466527
77	0xbd01f859	-0.031730983
78	0xbe242f58	-0.16033685
79	0xbe80fb9c	-0.25191963
80	0x3e05292c	0.13003987
81	0x3c3a085a	0.01135453
82	0x3e6ffe52	0.23436859
83	0x3e54eedd	0.20794244
84	0xbe292a2c	-0.16519994
85	0xbf3dc19b	-0.74123544
86	0xbea079a9	-0.3134282
87	0xbf0579c4	-0.52138925
88	0xbdb403a3	-0.08789756
89	0xbe2979db	-0.1655039
90	0xbf46a152	-0.77589905
91	0xbeeed3bb	-0.46645913
92	0x3e36722d	0.17816992
93	0xbd252788	-0.040320903
94	0x3e11abab	0.14225642
95	0xbeb1aa7f	-0.3470039
96	0x3f00a58a	0.5025259
97	0x3eff8667	0.49907228
98	0xbe55c07a	-0.20874205
99	0x3e8209b4	0.25398028
100	0x3db76d76	0.08956425
101	0x3efd0881	0.4942055
102	0x3dab9373	0.08377733
103	0xbe6dda1e	-0.23227736
104	0xbf6edf86	-0.9330982
105	0x3ecb5e78	0.3972051
106	0xbcda0465	-0.026613424
107	0xbf23f051	-0.6403857
108	0xbf2c2c1d	-0.6725481
109	0x3f4db0bf	0.8034782
110	0x3ec5e552	0.3865152
111	0xbef41340	-0.47670937
112	0xbea43fd9	-0.32079962
113	0x3ec4a003	0.3840333
114	0xbed23aca	-0.41060477
115	0xbe91a649	-0.28447178
116	0xbd74e41b	-0.05978785
117	0x3ecfd720	0.40593815
118	0x3e9ee3c9	0.3103316
119	0xbe867954	-0.2626444
120	0x3d941348	0.0723024
121	0xbc91dffb	-0.017806998
122	0x3d2b0048	0.041748315
123	0xba94de91	-0.0011357834
124	0xbee6328b	-0.44960436
125	0xbf340985	-0.70327026
126	0x3f5bedf3	0.85909957
127	0x3fa74f6f	1.3071116
128	0x3dc42da3	0.09579017
129	0x3ec9c9a4	0.39411652
130	0x3ee41707	0.44548818
131	0xbe63a91f	-0.22232483
132	0x3d2dbb8b	0.042415183
133	0x3cb00b7f	0.021489857
134	0x3d7e89f1	0.06214327
135	0x3d71d66c	0.05904238
136	0xbdd5b0de	-0.10434125
137	0xbe882fc9	-0.26598957
138	0x3dac8d74	0.084254175
139	0x3e31f8d4	0.17380077
140	0xbf24272d	-0.6412228
141	0xbf3b1aad	-0.7308758
142	0x3e855605	0.2604219
143	0x3ee227d6	0.44171017
144	0x3a339fff	0.00068521494
145	0xbeb594cf	-0.35465094
146	0xbed79854	-0.42108405
147	0xbe683797	-0.22677456
148	0x3e7bdf69	0.24596943
149	0x3e014d63	0.12627177
150	0x3d4d58ea	0.050133623
151	0xbc62b53d	-0.013837156
152	0xbe99b777	-0.30022785
153	0xbe4cc180	-0.1999569
154	0x3dd7abc1	0.10530806
155	0x3dfa7d9b	0.122309886
156	0xbd673951	-0.056451146
157	0xbdbae1ff	-0.091251366
158	0xbe95f70d	-0.29290047
159	0xbf13ed7c	-0.5778425
160	0xbf11bf7c	-0.56932807
161	0xbe313d64	-0.17308575
162	0xbf5abe34	-0.85446477
163	0xbeb035c0	-0.34416008
164	0xbdec831e	-0.11548446
165	0x3ecd10b4	0.40051806
166	0x3edc9b6b	0.43087325
167	0xbe94e388	-0.29079843
168	0xbcfc3f39	-0.030791866
169	0xbe90ff3e	-0.28319734
170	0x3e292204	0.16516882
171	0x3e96a520	0.29422855
172	0x3f42ff34	0.7617066
173	0xbec17869	-0.37787178
174	0xbd7ec29f	-0.062197324
175	0x3f6f3e49	0.93454415
176	0x3e2f2fef	0.17108129
177	0xbf2cfeea	-0.6757647
178	0xbf43c3a1	-0.7647038
179	0xbe934e45	-0.28770652
180	0x3f8d42cf	1.1036013
181	0x3f08be4a	0.5341536
182	0x3d5239dd	0.051324714
183	0x3e2bc6ac	0.16775006
184	0xbd5281a5	-0.05139317
185	0x3dfe9838	0.12431377
186	0x3d10b51f	0.03532898
187	0xbdfacad4	-0.12245718
188	0x3f2469ad	0.6422375
189	0xbe0ed9a5	-0.13950212
190	0x3e3f17e1	0.18661453
191	0xbec0f178	-0.37684226
192	0xbe9fb7e9	-0.31195
193	0xbe6c7e3f	-0.23095034
194	0xbf0ccf11	-0.5500346
195	0xbdbbdf42	-0.091734424
196	0x3f28ff82	0.66014874
197	0xbee7d31f	-0.4527826
198	0xbda23113	-0.079195164
199	0xbf271952	-0.6527301
200	0x3dd79fd3	0.10528531
201	0xbfa0e4fb	-1.2569879
202	0x3f3039e6	0.68838346
203	0xbe944159	-0.28956106
204	0x3d3b1cf6	0.045681916
205	0x3e1a33c5	0.15058811
206	0x3e0dc44f	0.13844417
207	0xbc1c648c	-0.009545457
208	0xbe8d6f1b	-0.2762383
209	0x3d136bef	0.035991605
210	0xbeb51a44	-0.35371602
211	0x3e8f7829	0.28021362
212	0x3e4ddee4	0.20104557
213	0x3e730332	0.23731688
214	0x3e7e6fc5	0.24847324
215	0xbf1a574e	-0.60289466
216	0x3ec370e0	0.38172054
217	0x3f89d193	1.0767082
218	0x3f722cbc	0.9459951
219	0x3c83cf7b	0.016090145
220	0x3e5663aa	0.20936456
221	0x3e7eae48	0.2487117
222	0x3cad8899	0.021183299
223	0x3d4661f3	0.048433255
224	0xbf1fa6e5	-0.62364036
225	0xbf225891	-0.6341639
226	0x3e93d51e	0.28873533
227	0x3ead78a6	0.3388111
228	0x3f0658e0	0.5247936
229	0xbe0ccf9b	-0.1375107
230	0xbd5b5981	-0.053552154
231	0x3f02a451	0.51031977
232	0xbcfc7a86	-0.030820142
233	0xbd9cfa97	-0.07664984
234	0x3cb4af1b	0.022056153
235	0xbcbec98a	-0.02328946
236	0xbde09ace	-0.10967027
237	0x3e3f5479	0.18684568
238	0xbe510170	-0.20410705
239	0x3d85a27f	0.06525134
240	0x3ea0a602	0.31376654
241	0xbe30b7bb	-0.17257588
242	0xbe062642	-0.13100532
243	0xbea7a78f	-0.32745025
244	0xbdff8a6b	-0.12477573
245	0xbef1de0a	-0.47239715
246	0x3e980a54	0.2969538
247	0x3ef8c9fe	0.48591608
248	0xbf6a932a	-0.91630805
249	0x3f1dfd7d	0.6171492
250	0xbf8044e3	-1.0021023
251	0x3efd308c	0.494511
252	0xbd5e9791	-0.054343764
253	0x3f6e7784	0.93151116
254	0x3f80a4d5	1.0050303
255	0xbf5069c7	-0.81411403

network_body.linear_encoder.seq_layers.0.bias f4 [128]
0	0xbe3b9a25	-0.1832052
1	0x3d18579a	0.03719292
2	0x3d24f00c	0.04026799
3	0xbc9b3da2	-0.018950287
4	0x3d446e46	0.047956727
5	0xbd15185a	-0.036400177
6	0xbdcc7a94	-0.099843174
7	0xbe520f52	-0.20513657
8	0xbe943ac2	-0.2895108
9	0xbe8feacc	-0.28108823
10	0xbe6b1a49	-0.22959246
11	0xba816133	-0.0009870887
12	0xbe364aa9	-0.17801918
13	0xbca46329	-0.020066814
14	0xbdbe4c79	-0.0929193
15	0xbdf8ca8a	-0.12148006
16	0xbd960c34	-0.07326546
17	0xbd2a8186	-0.04162743
18	0xbe876a6e	-0.26448387
19	0xbd17a86c	-0.037025854
20	0xbe2b6c81	-0.1674061
21	0xbdd796a8	-0.10526782
22	0x3db7489d	0.08949397
23	0xbdd77406	-0.105201766
24	0xbef86de1	-0.4852133
25	0xbe64dc0c	-0.22349566
26	0x3dcf0207	0.101078086
27	0xbb401640	-0.0029310137
28	0xbe7fac32	-0.24968031
29	0xbe0cac6b	-0.13737647
30	0xbd38cb25	-0.04511561
31	0xbe53e932	-0.20694426
32	0x3a90dbd7	0.0011051846
33	0x3bd4dddb	0.006496174
34	0xbe19d9c1	-0.15024473
35	0xbdff5a0e	-0.124683484
36	0xbe48f18b	-0.19623391
37	0xbeb6b4cd	-0.35684815
38	0xbe68cd3d	-0.22734542
39	0xbd0ba632	-0.034094043
40	0xbd87ca59	-0.06630392
41	0x3c0c9be4	0.008582089
42	0xbe57ff05	-0.21093376
43	0xbdf43cb4	-0.11925641
44	0x3d8621dc	0.06549427
45	0xbe8a3cfd	-0.26999655
46	0xbdd73ba3	-0.10509422
47	0xbe1ab783	-0.15109067
48	0xbd037d8a	-0.032102145
49	0xba0214e4	-0.00049622194
50	0xbe376311	-0.17908885
51	0xbe305c21	-0.17222644
52	0xbd02ff55	-0.031981785
53	0xbd854685	-0.06507591
54	0xbc18f40e	-0.009335531
55	0xbe81122b	-0.25209174
56	0xbe49b02b	-0.19696109
57	0xbddb4600	-0.10706711
58	0xbd63461f	-0.055486795
59	0xbdfca155	-0.12335459
60	0xbe4f09e8	-0.20218623
61	0xbdd011a3	-0.10159614
62	0xbbbb1966	-0.005709815
63	0x3d6432ff	0.055712696
64	0xbe775d4b	-0.24156682
65	0xbe71d0d1	-0.23614813
66	0xbe184643	-0.14870553
67	0xbe0cd2f1	-0.13752343
68	0xbc608caf	-0.013705417
69	0x3dc2a4d4	0.09504095
70	0x3cc45b04	0.02396918
71	0xbe05e589	-0.13075842
72	0xbe024313	-0.127209
73	0xbe9491ac	-0.2901739
74	0xbd862169	-0.06549341
75	0xbd19109e	-0.037369363
76	0xbdc53c09	-0.096305914
77	0x3c4e8410	0.012604728
78	0xbe1bec68	-0.152269
79	0xbdbdade7	-0.09261685
80	0xbea1e89b	-0.31622776
81	0xbdcfefed	-0.10153184
82	0xbddab192	-0.106784
83	0xbe87b4bb	-0.26505074
84	0x3d3ea808	0.046546966
85	0x3cd639e2	0.026150648
86	0x3d09310d	0.033494044
87	0xbe05189c	-0.12997669
88	0xbbebc530	-0.0071951374
89	0xbe5cb2ad	-0.21552534
90	0x3d0c9f02	0.03433133
91	0xbe024710	-0.1272242
92	0xbe14d754	-0.14535266
93	0xbdfe4ff9	-0.12417597
94	0x3d7267a6	0.059180878
95	0xbc08b671	-0.008344279
96	0x3d6ce624	0.057836667
97	0xbda6b666	-0.081402585
98	0xbe0c6521	-0.13710453
99	0xbdb63a76	-0.08897869
100	0xbe89aa87	-0.26887915
101	0xbcc5bcc7	-0.024137868
102	0xbc536672	-0.012902843
103	0xbb81083b	-0.0039377487
104	0xbdcef1e9	-0.101047345
105	0xbe24a314	-0.16077834
106	0x3d8a3e36	0.06750147
107	0x3ba21d52	0.004947343
108	0xbe3323cc	-0.17494124
109	0x3dab52dc	0.083654135
110	0x3d01f091	0.031723563
111	0xbe2d89a4	-0.16947037
112	0xbe3d6d6a	-0.1849877
113	0xbeb6e84c	-0.35724103
114	0xbe31814d	-0.1733448
115	0xbd66be23	-0.056333672
116	0xbd26762c	-0.04064004
117	0xbd6d8237	-0.05798551
118	0xbd3d99fb	-0.046289425
119	0xbdcdc8db	-0.10048076
120	0xbdd34108	-0.10315138
121	0xbd75478b	-0.05988268
122	0xbdc7ee73	-0.097622775
123	0xbe268ede	-0.16265437
124	0xbda334c3	-0.07969048
125	0x3d2ac659	0.041693065
126	0x3cdfc8ac	0.027317367
127	0xbdd83001	-0.10556031

network_body.linear_encoder.seq_layers.2.weight f4 [128, 128]
0	0x3d2a204b	0.041534703
1	0xbbb9613c	-0.005657343
2	0x3d9bd13c	0.07608268
3	0x3dc2792a	0.094957665
4	0xbde94dc3	-0.11391785
5	0xbda8ab5c	-0.08235809
6	0x3df9562b	0.12174638
7	0x3d00894a	0.03138093
8	0xbcb31712	-0.021861587
9	0x3cb0ebb4	0.021596767
10	0xbdccdc1d	-0.10002921
11	0x3daa992f	0.08329999
12	0xbc9ce9ac	-0.019154392
13	0xbdceb03b	-0.10092207
14	0x3d843a47	0.06456428
15	0xbe22e3be	-0.15907189
16	0x3b938001	0.0045013432
17	0xbda09994	-0.07841793
18	0xbd30a225	-0.043123383
19	0xbba94e7e	-0.0051668277
20	0xbbdd08fc	-0.006745456
21	0xbe1bd3ef	-0.15217565
22	0x3c90118e	0.017586496
23	0xbda79064	-0.08181837
24	0xbe41c83e	-0.18924043
25	0x3c5f6e0c	0.013637077
26	0x3e0f21c8	0.1397773
27	0xbdb0f158	-0.08639783
28	0xbe3728b4	-0.17886621
29	0xbd937b4a	-0.0720125
30	0xbe131c9a	-0.1436638
31	0xbd39bb8c	-0.045344874
32	0x3bf40e5f	0.007448002
33	0x3c7822b8	0.015144996
34	0x3da2a081	0.0794077
35	0x3e003901	0.12521745
36	0xbcf84457	-0.030306024
37	0xbdc5eeef	-0.096647136
38	0xbd80b315	-0.06284157
39	0x3e0dcf26	0.13848552
40	0x3cefb75d	0.02926224
41	0x3d99167d	0.074749924
42	0xbc4e0ab1	-0.012575791
43	0xbdf2dc0b	-0.11858376
44	0xbd3949f5	-0.045236547
45	0xbe498c58	-0.19682443
46	0x3d1c5b80	0.0381732
47	0x3e041339	0.12897958
48	0xbd3690fe	-0.04457187
49	0x3c7e5bbc	0.015524801
50	0xbcc48857	-0.023990793
51	0x3db1ad66	0.08675651
52	0xbdb0a4d7	-0.08625191
53	0xbe433ff9	-0.19067372
54	0x3d3f677c	0.04672955
55	0xb9df691e	-0.00042612193
56	0x3d56846c	0.05237238
57	0xbd9ca73d	-0.07649086
58	0xbcd69b4e	-0.026197102
59	0x3dd6350b	0.10459336
60	0x3d925b35	0.071463026
61	0xbe01f821	-0.1269231
62	0xbdc94f01	-0.09829522
63	0x3c043a76	0.008070579
64	0x3c8e8a8a	0.017400045
65	0x3dcabba4	0.09899071
66	0xbc29dc63	-0.010367486
67	0x3dc75c40	0.09734392
68	0xbc426660	-0.011865228
69	0xbdcca128	-0.099916756
70	0xbd06085a	-0.03272281
71	0x3d2a077f	0.041511055
72	0xbdcdf26e	-0.100560054
73	0xbd987d36	-0.07445757
74	0xbd79e867	-0.06101265
75	0xbda5d6a8	-0.08097583
76	0xbdbbcc27	-0.09169798
77	0x3d427ceb	0.047482412
78	0x3cd78d3d	0.026312465
79	0xbd3fefd8	-0.046859592
80	0x3d89e487	0.06733041
81	0x3c8a5ac8	0.016888991
82	0xbe8dd837	-0.2770402
83	0xbd1778fb	-0.03698061
84	0x3d01e424	0.031711712
85	0x3ccb901c	0.02484899
86	0xbc75ad14	-0.014994878
87	0xbda4de3d	-0.08050201
88	0xbd143592	-0.0361839
89	0xbba62e9f	-0.0050714756
90	0xbd32226d	-0.043489862
91	0x3e380837	0.17971884
92	0x3aa1574e	0.0012309344
93	0x3e2d62db	0.16932242
94	0x3d604fdb	0.054763656
95	0xbdbfcdfc	-0.0936546
96	0xbdd8f654	-0.10593858
97	0x3db2e1a3	0.08734443
98	0x3e0f2a05	0.13980873
99	0xbd6c8f81	-0.057754043
100	0xbbd2e7e2	-0.006436334
101	0xbc8b63a4	-0.017015286
102	0xbc99b7ce	-0.018764403
103	0xbdb816b5	-0.08988706
104	0xbcf4ae5e	-0.029868301
105	0xbd84786e	-0.06468283
106	0x3d909e00	0.07061386
107	0xbdce4fe0	-0.10073829
108	0x3d9fa354	0.07794824
109	0x3e054ebd	0.13018318
110	0xbd990808	-0.07472235
111	0x3d6a5b46	0.05721595
112	0x3d0f7f4b	0.035033505
113	0x3d682a1b	0.05668078
114	0x3e0768df	0.13223599
115	0x3d9edae7	0.07756596
116	0xbdb1a0b1	-0.086732276
117	0xbc3dd0b3	-0.011585402
118	0xbd5cb053	-0.053879093
119	0xbd84da36	-0.06486933
120	0x3e05a046	0.1304942
121	0x3de0636a	0.10956462
122	0xbcd19a18	-0.025586173
123	0x3e089883	0.13339429
124	0x3d2ae1d0	0.041719258
125	0x3cace3fb	0.021104803
126	0x3cdfac38	0.0273038
127	0xbe3db07d	-0.18524356
128	0x3da146d8	0.078748405
129	0xbd5230c4	-0.051316038
130	0xbe6dfb43	-0.2324038
131	0xbe8f8181	-0.2802849
132	0x3d58a391	0.052890364
133	0xbd230004	-0.039794937
134	0x3e2b3cb0	0.16722369
135	0x3e44c1d7	0.19214569
136	0x3d2b1f18	0.0417777
137	0x3dd869e7	0.10567074
138	0x3cfb66a0	0.030688584
139	0xbd6b91d8	-0.057512134
140	0x3e9c01e3	0.3047019
141	0x3d6238a7	0.05522981
142	0xbccb0c76	-0.024786215
143	0x3e87b7ed	0.26507512
144	0x3e792cee	0.24333546
145	0x3d9f3bc0	0.07775068
146	0xbe2c2492	-0.16810825
147	0xbe5e767a	-0.21724883
148	0xbd98b184	-0.074557334
149	0x3dd40b7d	0.10353754
150	0xbe6656fb	-0.22494118
151	0xbce3995e	-0.027783092
152	0xbc3f4af4	-0.011675585
153	0xbe878b1e	-0.26473325
154	0xbe0b7bf0	-0.13621497
155	0xbde96391	-0.11395944
156	0xbdeaed13	-0.114709996
157	0xbecc8538	-0.39945388
158	0x3ccd4acc	0.02506008
159	0x3e9e99b8	0.30976653
160	0xbe47fe8e	-0.19530699
161	0x3d705e80	0.058683872
162	0x3eb2c08b	0.34912524
163	0x3e8187f8	0.25299048
164	0xbbba1b69	-0.005679537
165	0x3bca279f	0.006169274
166	0x3e791ef9	0.24328221
167	0xbdd1af0a	-0.10238464
168	0xbd63dc5f	-0.055630084
169	0xbe6b3970	-0.2297113
170	0x3e8034f8	0.25040412
171	0xbe8f6fd7	-0.28015015
172	0xbe4f3c97	-0.20237957
173	0xbeb52e98	-0.3538711
174	0xbd70b5b9	-0.058767054
175	0xbd8c4276	-0.06848614
176	0xbdf2d285	-0.1185656
177	0xbdc9b208	-0.0984841
178	0xbd7d0ac3	-0.06177784
179	0xbc779752	-0.015111761
180	0x3d9ba94a	0.07600649
181	0xbedd4ef9	-0.43224314
182	0xbeb07cf2	-0.34470326
183	0xbd0ecccc	-0.03486328
184	0x3e38ca22	0.18045858
185	0xbe5cf094	-0.21576148
186	0x3d06e18e	0.03292995
187	0xbdf45567	-0.11930352
188	0xbd7443fb	-0.059635144
189	0x3eae32ec	0.34023225
190	0xbd1b9177	-0.037980523
191	0xbf092933	-0.5357849
192	0xbe5c6c7e	-0.21525761
193	0x3c956ae4	0.018239446
194	0xbd8b00e4	-0.06787279
195	0xbdc3d85a	-0.0956275
196	0xbd31bda5	-0.04339375
197	0xbdabbf49	-0.08386094
198	0xbd2a1690	-0.041525424
199	0xbeda8b5b	-0.42684445
200	0x3e48b785	0.19601257
201	0x3e443268	0.19159853
202	0xbdd783a9	-0.10523159
203	0xbe8623ca	-0.2619918
204	0xbe1247ff	-0.14285277
205	0xbeadb244	-0.33925068
206	0xbd4253c7	-0.047443178
207	0xbbbbaab0	-0.0057271346
208	0x3e18fe62	0.1494079
209	0xbe02f2cb	-0.1278793
210	0x3e7dc62f	0.24782632
211	0x3be67344	0.0070327837
212	0xbe694ca7	-0.22783147
213	0x3d344b28	0.044016987
214	0xbf0b55fa	-0.54428065
215	0x3e474163	0.19458537
216	0xbd0a9e8f	-0.03384262
217	0x3d7c662b	0.061620872
218	0xbdd92679	-0.10603041
219	0xbe37e9f8	-0.17960346
220	0x3ea5b91e	0.32367796
221	0xbe260c75	-0.1621569
222	0xbde0b704	-0.109724075
223	0xbd6dc74f	-0.058051404
224	0xbd062f0b	-0.032759707
225	0x3e61fce7	0.22069131
226	0xbecf1463	-0.4044524
227	0x3bc46359	0.0059932885
228	0x3e825d92	0.25462013
229	0x3d4a3dd2	0.049375363
230	0xbe5cb2ab	-0.21552531
231	0xbeb40829	-0.35162476
232	0xbe2c6cfa	-0.16838446
233	0xbe9d3698	-0.30705714
234	0x3db1a24a	0.08673532
235	0x3ccc0856	0.024906319
236	0xbe2c70fc	-0.16839975
237	0x3cdb5685	0.026774654
238	0xbe708100	-0.2348671
239	0x3e096eac	0.13421124
240	0xbe1a85d9	-0.15090121
241	0x3e00f29b	0.12592547
242	0x3e479338	0.19489753
243	0x3dc8c605	0.09803394
244	0x3e2e302a	0.1701056
245	0x3e22514d	0.15851326
246	0x3e69f288	0.22846425
247	0x3d3cde73	0.04611058
248	0xbd9db0bd	-0.07699726
249	0xbe8dfd8f	-0.27732512
250	0x3da0ef13	0.078581
251	0xbdb3014c	-0.08740482
252	0xbdb46054	-0.08807436
253	0x3c84e8c7	0.016224278
254	0xbc31988b	-0.010839592
255	0xbeaffb52	-0.3437143

network_body.linear_encoder.seq_layers.2.bias f4 [128]
0	0x3c00d653	0.007863599
1	0xbe2d2afb	-0.16910927
2	0xbd9ef8ad	-0.07762275
3	0xbdac9980	-0.08427715
4	0xbd116f3f	-0.035506483
5	0xbe8b4b20	-0.27205753
6	0xbdf7a6bc	-0.12092349
7	0xbe884c15	-0.26620546
8	0xbe4f664f	-0.20253871
9	0x3c8faa80	0.017537355
10	0xbd2f65b6	-0.04282161
11	0xbeb3ce9c	-0.35118568
12	0xbe23dc98	-0.16002119
13	0xba8e0477	-0.0010835071
14	0xbe735d6b	-0.23766105
15	0x38705e1d	5.730811e-05
16	0xbe6a889e	-0.22903678
17	0xbc19f4f2	-0.009396778
18	0xbb8b4c55	-0.004251043
19	0xbe12bc59	-0.14329661
20	0x3ce2e484	0.027696855
21	0xbe892bdf	-0.26791283
22	0xbb84e40c	-0.0040555056
23	0xbd67d90a	-0.05660347
24	0xbd33ca5c	-0.043894157
25	0xbd6571cb	-0.056016725
26	0xbd72ac88	-0.05924657
27	0xbce81460	-0.028330028
28	0xbde455f2	-0.11149205
29	0xbe5c57a2	-0.21517804
30	0xbb60ceb3	-0.003430289
31	0xbd96bd29	-0.07360298
32	0x3d0e6492	0.03476388
33	0xbe47e0e6	-0.19519386
34	0xbd4399d4	-0.047754124
35	0xbd36d0b8	-0.044632643
36	0x3d4e3403	0.05034257
37	0xbb5f766a	-0.003409768
38	0xbe003e48	-0.12523758
39	0xbd8a19fe	-0.06743239
40	0xbdd2479b	-0.10267564
41	0xbd524a61	-0.051340465
42	0xbe03c23f	-0.12867068
43	0x3d5ce5b6	0.053930007
44	0xbe2d12a4	-0.16901642
45	0xbd1b91dd	-0.037980903
46	0xbc6f0cd2	-0.014590459
47	0xbdbd5bf5	-0.09246055
48	0xbd65832b	-0.056033295
49	0xbe4de2d0	-0.20106053
50	0x3b9239b2	0.004462444
51	0xbc1bff28	-0.009521283
52	0xbe3c5c0a	-0.18394485
53	0xbdf06a25	-0.117389955
54	0xbe28c4fb	-0.16481392
55	0xbd99097d	-0.07472513
56	0xbe3e7cce	-0.18602297
57	0x3b450767	0.0030064227
58	0x3cde7d3e	0.02715933
59	0x3c8f5e4f	0.017501025
60	0xbeaca954	-0.33722937
61	0xbdf5b4be	-0.119973645
62	0xbd1fa060	-0.038971305
63	0x3c2b745d	0.010464755
64	0xbea34c2b	-0.3189405
65	0xbdeb4fa9	-0.11489803
66	0xbd96cc31	-0.07363165
67	0xbe6b3932	-0.22971037
68	0xbe0ba465	-0.1363693
69	0xbc721504	-0.014775518
70	0x3c583772	0.013196813
71	0xbd22ca19	-0.039743517
72	0xbc6dee2f	-0.014522119
73	0xbcfe2b78	-0.031026587
74	0xbd0b2abc	-0.0339763
75	0xbd19a0ae	-0.03750675
76	0xbd2c2d8e	-0.04203563
77	0xbc9be52a	-0.019030172
78	0xbd76b26f	-0.06022876
79	0xbd93ec73	-0.072228335
80	0xbe10eb42	-0.14152244
81	0xbe11cd7d	-0.14238544
82	0x3c693240	0.014233172
83	0xbe6bfc1c	-0.23045391
84	0xbc91efa2	-0.017814461
85	0x3bf360d4	0.0074273143
86	0xbd84a85a	-0.06477423
87	0xbd3706fa	-0.044684388
88	0xbd0ab0e8	-0.033860117
89	0xbc692e7c	-0.014232274
90	0xbdd9db3e	-0.1063752
91	0x3cfedbf8	0.031110749
92	0xbd48f3ce	-0.049060635
93	0xbe24f40d	-0.16108723
94	0xbb6647fc	-0.003513812
95	0xbd87aa52	-0.06624283
96	0xbd76e82c	-0.06028001
97	0xbc609cf7	-0.013709298
98	0xbed79959	-0.42109182
99	0xbd89d2f7	-0.067296915
100	0xbc2d760f	-0.010587229
101	0xbb662116	-0.0035114936
102	0xbda100e1	-0.07861496
103	0xbe2ec0a4	-0.17065674
104	0x3cd8b541	0.026453616
105	0xbc8eddc6	-0.017439734
106	0xbdb35a4d	-0.08757458
107	0xbdf49c50	-0.11943877
108	0xbe920d83	-0.28525934
109	0xbc3a6690	-0.011376992
110	0xbb99f319	-0.004698169
111	0xbe48ed16	-0.19621691
112	0x3d2f368e	0.042776637
113	0x3ca04e49	0.01956858
114	0xbd9126b0	-0.07087457
115	0xbe874f01	-0.26427463
116	0x3d347144	0.04405333
117	0xbcbf0cda	-0.023321558
118	0xbea12290	-0.31471682
119	0xbd054605	-0.03253748
120	0xbdba5446	-0.09098105
121	0x3b936890	0.004498549
122	0xbca0c9d5	-0.019627491
123	0xbd8939fc	-0.06700513
124	0xbd91ea4b	-0.07124766
125	0x3c541fb2	0.01294701
126	0xbe7f19fd	-0.24912257
127	0xbdc86f52	-0.09786858

distribution.log_sigma f4 [1, 2]
0	0xbe1c2710	-0.15249276
1	0xbe58457a	-0.21120253

distribution.mu.weight f4 [2, 128]
0	0x3c1418e7	0.00903914
1	0xbc9cc8cb	-0.019138714
2	0xbbac76a2	-0.0052631656
3	0xbbb6f1f1	-0.005583041
4	0x3be503c5	0.0069889748
5	0xbc887a7d	-0.01665997
6	0x3d97b278	0.07407087
7	0xbd390473	-0.04517026
8	0x3ac6ad10	0.0015157778
9	0xbae1e595	-0.0017234558
10	0x3b23ef18	0.0025014337
11	0xbc8d6d15	-0.017263928
12	0x3cd4b2e5	0.02596421
13	0xbd20c5f2	-0.039251275
14	0x3d0979af	0.033563312
15	0xbbeaf6b0	-0.0071705207
16	0xbd3f2f66	-0.046676062
17	0x3bb3fd6d	0.005492857
18	0x3adf9ec9	0.0017060871
19	0x3cbbced1	0.022925766
20	0x3c18f550	0.009335831
21	0xbc751e14	-0.014960784
22	0x3b9ab5aa	0.004721363
23	0xbc9b2703	-0.0189395
24	0x3b2d480c	0.0026440648
25	0x3c0f18a5	0.008733903
26	0x3dcd0a98	0.10011786
27	0x3a69cbb5	0.00089185993
28	0xbcc24560	-0.023714721
29	0xbc4e1084	-0.01257718
30	0xbb32c123	-0.0027275763
31	0xbc3237d0	-0.010877565
32	0xbc045673	-0.008077252
33	0x3cefebd3	0.029287254
34	0x3a8707bb	0.0010301986
35	0x3a52b120	0.0008037258
36	0x3c04e474	0.008111108
37	0x3b72d3ad	0.0037052438
38	0xbbf38808	-0.0074319877
39	0xbc03c924	-0.008043561
40	0xbd2a6aa0	-0.04160559
41	0x3b1af83f	0.0023646501
42	0x3cb5f458	0.022211239
43	0xbb6dabdc	-0.0036265766
44	0xbc16f478	-0.009213559
45	0xbb95bee4	-0.004569875
46	0x3bfc2779	0.007695135
47	0xbd6d520f	-0.057939585
48	0x3c0a23f1	0.008431421
49	0xbd1f026e	-0.038820677
50	0x3a5fd97b	0.0008539182
51	0xbbce3657	-0.006293099
52	0xbd96fb50	-0.07372153
53	0xbb6b1d3c	-0.003587558
54	0xbd600522	-0.054692395
55	0xbbb3efe6	-0.0054912446
56	0x3d74dd03	0.059781086
57	0x3b4eb720	0.0031542256
58	0xbb33778e	-0.0027384493
59	0xb98dc160	-0.0002703769
60	0xbd016128	-0.031586796
61	0xbb78a6e3	-0.003794127
62	0x3b9f4d2c	0.0048614945
63	0x3bab31ef	0.0052244584
64	0x3c4e0309	0.012573966
65	0xbcbc45fd	-0.022982592
66	0x3acc7781	0.001559958
67	0xbcee3784	-0.029079206
68	0xbde42b9e	-0.11141132
69	0x3ba1d9f0	0.0049393103
70	0xbc2678f0	-0.01016067
71	0xbbce6cbe	-0.006299584
72	0xbbc89662	-0.0061214427
73	0x39cede7f	0.00039457154
74	0x3b8aeacf	0.004239417
75	0xb9a6d1cb	-0.00031818295
76	0x3c0dace9	0.008647182
77	0x3b0ac4f1	0.0021174515
78	0x3d365178	0.04451129
79	0x3c5ec2c0	0.013596237
80	0xbd02f5dd	-0.031972755
81	0x3b5dc449	0.003383892
82	0xbb86ea72	-0.0041173035
83	0xbc25537d	-0.010090706
84	0xb9402176	-0.00018323012
85	0x3a9474d8	0.0011326326
86	0xbd704186	-0.058656238
87	0xbaf8f970	-0.0018995237
88	0x3b6a96a8	0.0035795365
89	0xbb5acf74	-0.0033387812
90	0x3d89b0c3	0.06723168
91	0x3b0016e7	0.00195449
92	0x3c0dee39	0.008662754
93	0x3cf0f996	0.029415887
94	0xbbd9b3ed	-0.0066437633
95	0xbba4ef92	-0.005033442
96	0xbcce55fd	-0.025187487
97	0x3a0c4dda	0.0005352177
98	0xbc545125	-0.0129587995
99	0xbb86a07c	-0.0041084867
100	0x3b990de7	0.0046708467
101	0xbab244d4	-0.0013600835
102	0xbad05716	-0.0015895094
103	0x3c96b613	0.018397367
104	0x3c03960f	0.008031382
105	0xb82d311d	-4.1292154e-05
106	0x3db17701	0.08665276
107	0xbbbe1198	-0.005800437
108	0xbcf79fa2	-0.030227486
109	0x3a8d4fa4	0.0010781181
110	0x3bd8182f	0.00659468
111	0xbda8b0b4	-0.082368284
112	0xbb741f22	-0.0037250002
113	0x3baf5135	0.005350257
114	0xb94edd0f	-0.00019728042
115	0xbcd77f8c	-0.026305936
116	0x3e0dac10	0.13835168
117	0x3bfd1f6c	0.007724693
118	0xbcc3f991	-0.023922713
119	0x3a40cb85	0.00073545455
120	0xbdad3cd8	-0.08458871
121	0x3ba48874	0.0050211493
122	0xbb6976a0	-0.0035623685
123	0xbceff8aa	-0.029293377
124	0x3c9da5c3	0.01924408
125	0xbbb073a9	-0.0053848815
126	0xbcdb08b0	-0.026737541
127	0xbbacbae7	-0.005271304
128	0xbc01475a	-0.007890547
129	0xbdcda39a	-0.1004097
130	0x3b6f4932	0.0036512134
131	0xba527134	-0.0008027733
132	0xbc383b25	-0.01124457
133	0x3b94df62	0.004543231
134	0xbdfa88f3	-0.12233152
135	0x3b3e9eea	0.002908642
136	0xbc931544	-0.017954476
137	0x3b161608	0.0022901315
138	0xbc13dba1	-0.009024532
139	0xbafb980f	-0.0019195097
140	0xbd389e6d	-0.04507296
141	0xbd69876d	-0.057013918
142	0x398e92c9	0.00027193714
143	0x3a63f8bd	0.00086964277
144	0x3ccefccb	0.025267025
145	0xbadf6246	-0.0017042838
146	0xbb1efb28	-0.0024258588
147	0xbd1e0af7	-0.038584676
148	0xbbf96a8b	-0.007611578
149	0xbda381b6	-0.07983725
150	0xbb9e4ebb	-0.0048311627
151	0xbd6b9252	-0.05751259
152	0xbb137437	-0.002249969
153	0x3c20e42f	0.009820028
154	0xbd7f02ce	-0.062258534
155	0xbc58f492	-0.013241904
156	0xbd71e335	-0.059054572
157	0x3b832081	0.0040016775
158	0xbaa9f980	-0.0012968034
159	0x3bd2e313	0.0064357608
160	0xbbbbfee8	-0.0057371743
161	0xbd62874e	-0.055304818
162	0xbb89e04c	-0.0042076465
163	0xbbe83abb	-0.0070870793
164	0x3b45a7fa	0.0030159936
165	0xbc1be7cf	-0.009515717
166	0x3a034e71	0.0005008942
167	0xbb323ae3	-0.0027195744
168	0xbdf8432e	-0.121221885
169	0xbbd0693f	-0.0063602026
170	0xbba29781	-0.0049619083
171	0xbbce10a4	-0.006288605
172	0xbb256c0f	-0.002524141
173	0xbb6f94a6	-0.0036557107
174	0xba99f924	-0.0011747223
175	0xbd52f304	-0.05150129
176	0x3b88fa39	0.0041802195
177	0x3dca5eda	0.09881373
178	0xbc54cf50	-0.01298888
179	0xbb693f13	-0.0035590574
180	0xbd84e074	-0.064881235
181	0xbb222429	-0.0024740791
182	0xba054a15	-0.00050845864
183	0x3ab3323c	0.0013671587
184	0xbd651cf5	-0.05593582
185	0xbc15ba3e	-0.009138642
186	0xbbbe765e	-0.0058124503
187	0xbb8d8d42	-0.0043198178
188	0x3c20e8b2	0.009821104
189	0xbcbb5920	-0.022869647
190	0xbc30371d	-0.0107553275
191	0xbbc5747f	-0.0060258503
192	0x3a026d1d	0.00049753656
193	0x3b50b6e1	0.0031847286
194	0x3abe5576	0.0014521319
195	0x3a9e699a	0.0012085915
196	0x3d863cbc	0.06554553
197	0xbb4d6e73	-0.003134635
198	0xbbca00f6	-0.0061646653
199	0x3a7cd498	0.0009644716
200	0xbb9a4fc5	-0.0047092163
201	0xbbcb1fc1	-0.0061988537
202	0x3c3ad4b2	0.01140325
203	0x3b46bc87	0.0030324773
204	0xbbe416d5	-0.0069607296
205	0xbb2897ac	-0.002572517
206	0xbc8dd5aa	-0.017313797
207	0x3bffd5ad	0.0078074546
208	0xbcdd3dc9	-0.027007
209	0xba844231	-0.0010090527
210	0xbaccc228	-0.0015621828
211	0xbc97d3d5	-0.018533627
212	0xbc41352a	-0.01179246
213	0xbb42c32b	-0.002971838
214	0xba259f8f	-0.00063180266
215	0x3b8dfda6	0.0043332158
216	0x3b9d4a5b	0.0048001236
217	0xbc5a961b	-0.013341452
218	0xbd28595e	-0.041100852
219	0xbb709c67	-0.0036714317
220	0xbbdb1ad7	-0.006686549
221	0xbd4939f1	-0.049127523
222	0xb9c137ee	-0.000368535
223	0xba9193d6	-0.0011106681
224	0xbd9d59ae	-0.07683121
225	0x3b4a0525	0.003082582
226	0x3d94c80e	0.0726472
227	0x3b05efd8	0.0020437147
228	0xbb195276	-0.0023395098
229	0xbb83cc53	-0.00402216
230	0xbb98add3	-0.0046593933
231	0xb9f1ee26	-0.00046144536
232	0xbbd6d54a	-0.0065561878
233	0xbc011b20	-0.007880002
234	0xbdee477f	-0.116347305
235	0xb9e65c19	-0.00043937637
236	0x3bae68d1	0.0053225537
237	0xbb3664c8	-0.0027831066
238	0x3bec98be	0.0072203567
239	0x3de756df	0.11295866
240	0x3a93654e	0.0011245401
241	0xbbaedc47	-0.0053363177
242	0xbb01f31d	-0.0019828745
243	0xbbadf57b	-0.0053088046
244	0xbe23e058	-0.16003549
245	0xbc1dea29	-0.009638348
246	0x3cfa2fd0	0.030540377
247	0xbba5db29	-0.0050615263
248	0xbd324a32	-0.04352779
249	0xbb798efd	-0.0038079612
250	0xbc27275d	-0.010202256
251	0xbe1709d8	-0.14749849
252	0x3bf90180	0.0075990558
253	0x3a3a459a	0.00071057084
254	0x3b9606fd	0.00457847
255	0xbb1ff278	-0.0024405997

distribution.mu.bias f4 [2]
0	0x3e04f823	0.12985282
1	0xbdfd5c0a	-0.12371071

critic.network_body.vector_processors.0.normalizer.running_mean f4 [4]
0	0x403c24b5	2.9397404
1	0xbca2587f	-0.019817589
2	0xc0c74e8a	-6.2283373
3	0xbe9bbc9f	-0.30417344

critic.network_body.vector_processors.0.normalizer.running_variance f4 [4]
0	0x4b698476	1.5303798e+07
1	0x4a76a281	4.0408642e+06
2	0x4b1770c6	9.924806e+06
3	0x4a71a8fe	3.9593595e+06

critic.network_body.linear_encoder.seq_layers.0.weight f4 [128, 4]
0	0x3ed03a0d	0.4066929
1	0xbf2eab49	-0.6823011
2	0x3eb78069	0.35840157
3	0xbf36dc01	-0.7142945
4	0xbf9e6c17	-1.2376736
5	0x3f46b447	0.7761883
6	0x3f095471	0.5364447
7	0xbf531df9	-0.8246761
8	0x3f56643b	0.8374669
9	0x3ed6e214	0.4196936
10	0x3df1633a	0.11786504
11	0xbdf4a1cc	-0.11944923
12	0x3e4a1af9	0.19736852
13	0x3facd402	1.35022
14	0xb9a9cc24	-0.00032386289
15	0xbeb766b0	-0.35820532
16	0xbdc83726	-0.09776144
17	0xbf01b485	-0.50666076
18	0x3ec80687	0.3906748
19	0x3f23d6f6	0.6399988
20	0x3ed3ea69	0.41389778
21	0x3efc173b	0.49236473
22	0xbfafde90	-1.3739796
23	0xbf1157ab	-0.56774396
24	0xbed2ff38	-0.4121034
25	0x3e955bff	0.2917175
26	0xbd4437ca	-0.047904767
27	0xbf01ff5d	-0.5078028
28	0x3f541072	0.82837594
29	0x3f2acd13	0.6671917
30	0xbe01b3c0	-0.12666225
31	0xbe827165	-0.25477138
32	0x3f198197	0.59963363
33	0x3b68d426	0.003552684
34	0xbe8da4b5	-0.27664724
35	0xbf838fc5	-1.027825
36	0xbec9ca3f	-0.39412114
37	0x3e55da71	0.2088411
38	0xbf2cb413	-0.6746227
39	0x3f36cff8	0.71411085
40	0xbea6cd57	-0.32578537
41	0x3e8240a5	0.25439945
42	0x3e1e5759	0.15463008
43	0xbcbe8e49	-0.023261206
44	0x3eae4a4f	0.34041068
45	0x3c523b0f	0.0128314635
46	0xbe94f33f	-0.29091832
47	0xbf1a6519	-0.6031051
48	0x3d8cc82b	0.068741165
49	0xbea77243	-0.32704362
50	0x3f56a015	0.83838016
51	0x3f85507b	1.0415186
52	0xbf77115e	-0.96510875
53	0x3d74a126	0.059723996
54	0x3f4194d4	0.7561772
55	0x3e81668f	0.25273558
56	0xbebe998c	-0.37226522
57	0xbf6826d5	-0.9068425
58	0xbeb30bb2	-0.3496986
59	0x3ef8df1c	0.4860772
60	0xbeae8503	-0.34085855
61	0xbe825083	-0.2545205
62	0x3e44364b	0.19161336
63	0x3f03e393	0.51519126
64	0xbf5dce7e	-0.8664321
65	0x3d80c7a6	0.0628808
66	0x3e3897f3	0.18026714
67	0x3e391ca1	0.18077327
68	0xbf4f948d	-0.81086046
69	0x3f15cee0	0.5851879
70	0x3ed9065a	0.42387658
71	0xbf12830e	-0.57231224
72	0xbf847e7b	-1.0351099
73	0xbf0fe828	-0.5621362
74	0x3f576e2d	0.8415249
75	0x3e9b93bc	0.3038615
76	0xba335193	-0.00068404636
77	0xbe7bb4fe	-0.24580762
78	0x3ec2a329	0.38015106
79	0x3f3a314c	0.7273147
80	0xbda6094b	-0.08107241
81	0xbe6ceca0	-0.2313714
82	0x3ead9791	0.33904698
83	0xbe784401	-0.24244691
84	0x3f35b5f3	0.7098076
85	0xbfb11b66	-1.3836486
86	0x3ea10a4a	0.31453162
87	0x3e9e69a6	0.30939978
88	0x3f851749	1.0397731
89	0x3f68f20e	0.90994346
90	0x3ead8750	0.33892298
91	0x3e3f1118	0.18658864
92	0x3f3809c3	0.71889895
93	0x3f6bf7a9	0.92174774
94	0xbeea117b	-0.45716462
95	0x3d347ec0	0.04406619
96	0x3f0f810d	0.5605629
97	0x3eba367b	0.3636969
98	0xbf697183	-0.9118883
99	0xbeaccb3d	-0.33748809
100	0x3e4e9b68	0.2017647
101	0xbf906286	-1.1280067
102	0x3d962542	0.07331325
103	0x3e4cbfeb	0.19995086
104	0x3fc72b48	1.5560083
105	0xbe7e0bc2	-0.24809173
106	0xbdb8410e	-0.08996783
107	0x3e86eb81	0.2635155
108	0xbec0f666	-0.37687987
109	0x3f949cff	1.1610411
110	0x3d53ea3e	0.051737063
111	0x3fb50fae	1.414541
112	0xbe2a54cc	-0.1663391
113	0xbf21cbce	-0.63201606
114	0xbf5408f7	-0.8282618
115	0xbf090159	-0.5351768
116	0xbecd1e21	-0.4006205
117	0x3d99062e	0.07471882
118	0xbf85d0d9	-1.045436
119	0x3e923446	0.28555506
120	0x3e78be64	0.24291378
121	0xbeaa1c7a	-0.3322485
122	0x3f521399	0.82061154
123	0xbf820359	-1.0157272
124	0xbec704c3	-0.3887082
125	0x3f13ec95	0.5778287
126	0x3edcfcff	0.4316177
127	0xbeafffc6	-0.34374827
128	0x3f828eb7	1.0199803
129	0xbee56a5e	-0.44807714
130	0x3e3354e1	0.17512847
131	0x3e611c7a	0.21983519
132	0x3f9a469b	1.2052797
133	0x3faedb5f	1.3660697
134	0xbda6c65e	-0.08143304
135	0x3f0d86b0	0.5528364
136	0x3ea68fe3	0.32531652
137	0xbebb9ebe	-0.36644548
138	0x3ef73933	0.48285827
139	0x3dbb2137	0.091371946
140	0x3e517083	0.20453076
141	0x3dc973d5	0.09836546
142	0x3d8fff6f	0.07031142
143	0x3e299d8c	0.16564006
144	0x3e392646	0.18081006
145	0x3e5943d8	0.21217287
146	0xbfcc070d	-1.5939652
147	0x3ceb52dd	0.028726036
148	0x3f35ddea	0.7104174
149	0xbee205a8	-0.4414494
150	0x3dcdbe4a	0.100460604
151	0x3b05884a	0.0020375424
152	0x3ffeaf43	1.9897236
153	0xbf2bb645	-0.67074996
154	0xbe870757	-0.26372787
155	0x3e9217ef	0.28533885
156	0xbf579784	-0.8421557
157	0x3f25084d	0.6446579
158	0x3f011916	0.50428903
159	0xbe56d2be	-0.2097883
160	0x3f1de4a2	0.6167699
161	0x3e0ea1a0	0.13928843
162	0x3fa69c3f	1.3016433
163	0xbec38105	-0.38184372
164	0xbf3aa2c2	-0.729046
165	0xbdfd683e	-0.12373398
166	0x3ea264bd	0.31717482
167	0x3e1ed6f0	0.1551168
168	0xbe31c394	-0.17359763
169	0xbd58383b	-0.052788
170	0x3e4e2265	0.20130308
171	0x3d3406cb	0.04395179
172	0xbf939e3e	-1.1532667
173	0x3f6588ee	0.89662063
174	0xbe8261ee	-0.2546534
175	0xbe593190	-0.21210313
176	0x3eaad307	0.33364126
177	0xbdb89159	-0.09012098
178	0xbd800367	-0.06250649
179	0xbf0100c4	-0.50391793
180	0x3f0b2489	0.54352623
181	0x3f13f059	0.57788616
182	0x3ecb099e	0.39655775
183	0x3b859a95	0.0040772655
184	0x3c5535a1	0.013013274
185	0xbf383d7c	-0.7196882
186	0x3cd96b05	0.026540289
187	0xbe8cfd74	-0.2753712
188	0x3e1b4452	0.15162781
189	0xbb2c0a7b	-0.0026251364
190	0xbfaabf66	-1.333966
191	0xbf5bc9ea	-0.8585497
192	0x3f55e4af	0.8355207
193	0x3ef3fea3	0.4765521
194	0x3db60e59	0.08889455
195	0xbe3f9cbe	-0.18712136
196	0x3fa72ccf	1.306055
197	0xbd9d517c	-0.076815575
198	0xbe9712d3	-0.2950655
199	0xbdcac3c4	-0.099006206
200	0x3f9bc003	1.2167972
201	0x3ef85a6e	0.48506492
202	0xbf3b40b8	-0.7314563
203	0x3e1c0ba1	0.15238811
204	0xbf0cbcaf	-0.5497541
205	0x3b82db49	0.003993426
206	0x3e5a42f8	0.21314609
207	0xbf495d0b	-0.786576
208	0x3f8cfa1b	1.1013826
209	0xbeb41935	-0.3517548
210	0x3ea55657	0.32292435
211	0x3cbb6be2	0.022878591
212	0x3e019739	0.12655343
213	0x3e358804	0.17727667
214	0xbf39f150	-0.7263384
215	0xbf0f379d	-0.55944234
216	0xbe43bfd7	-0.1911615
217	0xbe8f0305	-0.2793199
218	0x3e9a1f82	0.30102164
219	0xbe89344a	-0.26797706
220	0xbed2b501	-0.4115372
221	0x3f111795	0.5667661
222	0x3e35e963	0.17764811
223	0xbf185644	-0.5950663
224	0xbe1d8497	-0.1538261
225	0x3fbe3a5d	1.4861561
226	0x3e3231b5	0.17401774
227	0xbf5fb954	-0.87392163
228	0xbf07bb23	-0.5301992
229	0xbe39223f	-0.1807947
230	0x3f80c185	1.0059057
231	0xbe95b85d	-0.2924222
232	0x3e4bb9d4	0.19895107
233	0xbf13dde8	-0.5776048
234	0xbdabc08f	-0.08386337
235	0x3e925ff3	0.28588828
236	0x3fa040eb	1.2519811
237	0xbebba446	-0.36648768
238	0x3ea78815	0.3272101
239	0x3e1f9db2	0.155875
240	0x3f9c4ec9	1.2211543
241	0x3e17c846	0.14822492
242	0xbe998b52	-0.29989105
243	0xbe95b4bc	-0.29239452
244	0xbf247b75	-0.6425088
245	0x3e0b2c58	0.13591135
246	0xbf28b50c	-0.65901256
247	0xbd246c1e	-0.04014217
248	0xbe05deec	-0.13073319
249	0xbf09d4be	-0.53840244
250	0x3e1457df	0.14486645
251	0x3f0098e3	0.50233287
252	0xc0008b79	-2.0085127
253	0x3e489c90	0.19590974
254	0x3e39d96f	0.1814935
255	0xbecc7471	-0.39932588

critic.network_body.linear_encoder.seq_layers.0.bias f4 [128]
0	0xbe596470	-0.2122972
1	0xbec6467e	-0.38725656
2	0xbe1c2898	-0.1524986
3	0xbc8320d0	-0.016006857
4	0xbd992e73	-0.074795626
5	0x3e142385	0.14466675
6	0xbe97d79c	-0.29656684
7	0x3ee5a715	0.44854036
8	0x3e8d79db	0.2763203
9	0x3de33e62	0.11095883
10	0xbeeb40d4	-0.45947897
11	0x3e99836e	0.29983085
12	0x3d1811d8	0.037126392
13	0xbf0ece5c	-0.5578363
14	0x3c23845e	0.009980289
15	0xbdd193f8	-0.10233301
16	0xbeefceeb	-0.46837553
17	0xbee9290e	-0.45539135
18	0xbf0c1e22	-0.5473348
19	0x3d265175	0.040605027
20	0xbea38971	-0.31940797
21	0xbec5c5b1	-0.3862739
22	0x3e6904a5	0.22755678
23	0x3d35380e	0.04424291
24	0x3c90d8d6	0.01768152
25	0xbed46c80	-0.4148903
26	0x3e1f3716	0.15548357
27	0x3dcdc017	0.10046404
28	0x3dfaebd0	0.12252009
29	0xbd7b52b8	-0.061358184
30	0x3e43659e	0.19081733
31	0xbec0f69a	-0.37688142
32	0x3dc06eb2	0.093961135
33	0x3e3a00c2	0.18164352
34	0xbdea2e1a	-0.114345744
35	0x3e9369cb	0.2879165
36	0xbdf5a65c	-0.11994621
37	0xbed0b18c	-0.40760458
38	0x3eaf6ebd	0.34264174
39	0xbee39198	-0.44447017
40	0x3e3df1f2	0.18549326
41	0xbf0438f9	-0.51649433
42	0xbec4767a	-0.3837164
43	0x3d1d9184	0.038468853
44	0xbeaa8a02	-0.33308417
45	0x3e9a9326	0.3019039
46	0xbed0a736	-0.40752572
47	0x3e82f1c3	0.25575075
48	0x3e5db72a	0.21651903
49	0xbe8c43b3	-0.273954
50	0x3ef2cb0a	0.47420532
51	0xbed63a90	-0.41841555
52	0x3dee3eb3	0.11633053
53	0x3d527df3	0.051389646
54	0x3d638a1a	0.055551626
55	0xbe68d00b	-0.22735612
56	0xbdd73cb4	-0.10509625
57	0xbed4b4ed	-0.41544285
58	0xbd0f60ab	-0.0350043
59	0xbe280e04	-0.16411597
60	0x3e45b99c	0.19309086
61	0x3d4370bf	0.047714945
62	0xbe212852	-0.15738037
63	0xbebeddbe	-0.3727855
64	0xbd0991d5	-0.033586342
65	0xbdba43d9	-0.09094972
66	0xbea6cf98	-0.32580256
67	0x3cbd3598	0.023096845
68	0x3d617036	0.055038653
69	0xbdb6b02a	-0.089203194
70	0x3e197f5f	0.14989994
71	0xbd875754	-0.066084534
72	0x3e3cf8d3	0.18454294
73	0xbe98b1ef	-0.29823253
74	0xbe53c90a	-0.20682159
75	0xbe788d66	-0.24272689
76	0xbee7f5c2	-0.45304686
77	0xbe0c8674	-0.13723165
78	0xbe08c6c4	-0.13357073
79	0x3ce0610d	0.027390027
80	0x3e1ea2ba	0.15491763
81	0x3e8712d4	0.26381552
82	0xbed1bc73	-0.40964088
83	0xbe66befe	-0.22533795
84	0xbe933e1a	-0.28758317
85	0xbebff601	-0.37492374
86	0xbe381327	-0.17976056
87	0xbe86dd68	-0.26340795
88	0xbf006929	-0.5016046
89	0xbe087128	-0.13324416
90	0xbe8de693	-0.27714977
91	0xbc51703b	-0.0127831055
92	0x3ebf9db0	0.37424994
93	0xbe9d3848	-0.30707002
94	0xbe9c2c11	-0.3050237
95	0xbdcb555d	-0.09928391
96	0xbef74b99	-0.48299864
97	0x3ea2eab6	0.31819695
98	0xbf1e3e53	-0.6181385
99	0xbeeb63cb	-0.45974573
100	0xbefdedec	-0.49595582
101	0xbe9b794a	-0.30365974
102	0xbeb17451	-0.34659055
103	0xbe5ff6f0	-0.21871543
104	0xbc82398c	-0.015896581
105	0xbe904512	-0.28177696
106	0x3e0e798e	0.13913557
107	0x3d610b2a	0.054942288
108	0xbe8949eb	-0.26814207
109	0xbe010260	-0.12598562
110	0xbeaceaa1	-0.33772758
111	0xbeda7690	-0.4266858
112	0xbe0123a9	-0.1261126
113	0xbc2b6ded	-0.01046322
114	0xbec24d65	-0.37949672
115	0xbe323714	-0.17403823
116	0xbe0dd57e	-0.13850972
117	0x3e2538d7	0.16134964
118	0x3ed34734	0.4126526
119	0xbdaee03d	-0.08538864
120	0x3d9da1fa	0.0769691
121	0xbd63b1e7	-0.055589583
122	0xbed37f3e	-0.41308016
123	0x3d8466e2	0.06464936
124	0xbe7a1a6e	-0.24424145
125	0xbece9331	-0.40346673
126	0xbe3e288f	-0.1857016
127	0x3d182d5b	0.03715263

critic.network_body.linear_encoder.seq_layers.2.weight f4 [128, 128]
0	0x3db28b31	0.08717955
1	0xbebf57fb	-0.3737181
2	0x3e252785	0.16128357
3	0xbd47c1a0	-0.04876864
4	0xbdd546c9	-0.10413892
5	0xbd5459c0	-0.051843405
6	0xbe0c80ec	-0.13721055
7	0x3d0e9050	0.034805596
8	0x3e64f196	0.22357783
9	0x3dca0d60	0.09865832
10	0xbe566267	-0.20935975
11	0x3db89d37	0.09014361
12	0xbd606e04	-0.05479242
13	0xbef8fab3	-0.48628768
14	0x3d83a912	0.06428732
15	0xbed1d443	-0.40982255
16	0xbed9e58b	-0.4255794
17	0xbe845c88	-0.25851846
18	0xbeb92bb2	-0.3616615
19	0x3d9d40da	0.07678385
20	0x3d5df904	0.054192558
21	0x3def78e0	0.11692977
22	0xbd82a2e5	-0.06378726
23	0x3ceed32e	0.029153433
24	0x3e25fa35	0.16208728
25	0x3d9629d9	0.073322006
26	0x3d105a91	0.03524262
27	0x3da35769	0.079756565
28	0x3d909357	0.07059353
29	0xbb4c3882	-0.003116161
30	0x3dce7e1e	0.10082649
31	0xbe50e17c	-0.20398515
32	0x3e191307	0.14948665
33	0x3e066cb5	0.13127406
34	0x3e7bae6f	0.2457826
35	0x3df1a3c7	0.11798816
36	0x3cc0080e	0.02344134
37	0x3dac8440	0.08423662
38	0x3d2a993c	0.041650042
39	0xbef19822	-0.4718638
40	0x3e328981	0.17435266
41	0xbea6ed61	-0.3260298
42	0xbddaeb9f	-0.106894724
43	0xbd94382b	-0.07237276
44	0x3e3b9795	0.18319543
45	0xbb8b6860	-0.004254386
46	0x3ce98879	0.028507458
47	0x3d9d433a	0.07678838
48	0xbba0cf50	-0.004907526
49	0x3d8d9477	0.06913083
50	0x3d042c6f	0.032268938
51	0x3cf9b9da	0.030484129
52	0x3e4b2e22	0.19841817
53	0x3c3fc035	0.011703541
54	0xbd543336	-0.05180665
55	0xbe4f1420	-0.20222521
56	0x3c8f7e2c	0.017516218
57	0xbdc1a0d5	-0.094545044
58	0x3d43dbae	0.047816925
59	0x3ea08222	0.31349283
60	0x3e049941	0.12949087
61	0xbe434595	-0.19069512
62	0x3e39d405	0.18147285
63	0xbe876677	-0.26445362
64	0xbdf4e5fb	-0.11957928
65	0x3c13d225	0.00902227
66	0xbe01926a	-0.12653509
67	0x3dc63e78	0.09679884
68	0x3e00aa96	0.12565073
69	0xbd861b47	-0.065481715
70	0xbe92b4a1	-0.28653434
71	0x3d493c93	0.049130034
72	0xbd880534	-0.066416174
73	0xbd047dbe	-0.03234648
74	0xbd6d73ba	-0.057971694
75	0x3e1d5126	0.15362987
76	0x3e78f79d	0.24313207
77	0x3e437f5c	0.19091552
78	0xbd74d106	-0.059769653
79	0x3ddadbf6	0.106864855
80	0x3d111a8f	0.03542572
81	0x3e841c12	0.25802666
82	0xbec02c26	-0.37533683
83	0xbe994dd5	-0.29942194
84	0xbea9ec1b	-0.33187947
85	0x3df969df	0.121783964
86	0xbdefa5b7	-0.117015295
87	0xbe8389e4	-0.2569114
88	0x3d8cddaf	0.0687822
89	0xbe3b3ba3	-0.18284468
90	0x3e2a3eba	0.16625491
91	0xbd79baa1	-0.060969
92	0x3e100263	0.1406341
93	0x3ddb2f99	0.10702438
94	0x3dfcd75c	0.12345764
95	0xbc5be54c	-0.013421368
96	0xbcfff508	-0.03124477
97	0xbd708e63	-0.05872954
98	0xbe30ee62	-0.17278436
99	0xbe9d528f	-0.3072705
100	0x3cbe2dd8	0.02321522
101	0x3d8d6ce3	0.06905534
102	0xbebca448	-0.36844087
103	0x3e1c11cf	0.15241168
104	0x3d8445c0	0.06458616
105	0xbdcf334a	-0.101172045
106	0x3e393cda	0.1808962
107	0xbc9e0a8d	-0.01929214
108	0x3db7fa80	0.08983326
109	0x3da94a19	0.08266086
110	0xbe1b24bb	-0.1515073
111	0xbcc9cdae	-0.024634209
112	0xbdc98543	-0.09839871
113	0xbdbc6b96	-0.09200208
114	0x3db7bd39	0.08971638
115	0x3d0e9042	0.034805544
116	0x3db45c51	0.088066705
117	0xbcd25513	-0.025675332
118	0x3e35ae1f	0.17742203
119	0xbe127dcc	-0.143058
120	0x3e192a3e	0.1495752
121	0xbdc10f8c	-0.094267935
122	0xbddf2065	-0.10894851
123	0x39cc704b	0.00038993577
124	0xbeb82806	-0.35968035
125	0xbe9c346e	-0.3050875
126	0x3dbfc9a8	0.09364635
127	0x3dc96612	0.098339215
128	0xbd739c29	-0.059475098
129	0xbddc11a8	-0.10745555
130	0xbe53b863	-0.20675807
131	0xbec16c27	-0.37777826
132	0xbe500b7f	-0.20316885
133	0xbe9e5cd2	-0.3093019
134	0x3dd76657	0.10517567
135	0xbe6b4e26	-0.2297903
136	0xbd0f8662	-0.035040267
137	0xbecb54eb	-0.39713225
138	0xbe4181fc	-0.18897241
139	0xbd568591	-0.052373473
140	0xbe068466	-0.13136443
141	0xbdb52359	-0.08844633
142	0xbdcfc1fe	-0.10144423
143	0xbe666f84	-0.22503477
144	0xbe173fbe	-0.1477041
145	0xbddcf490	-0.10788834
146	0x3d2c5724	0.04207529
147	0xbc2e4a7e	-0.0106378775
148	0x3d554fb4	0.052077964
149	0xbe6ed687	-0.23324023
150	0xbd23c7f1	-0.0399856
151	0x3d8a3669	0.06748659
152	0xbe86a030	-0.26294088
153	0xbe10dc32	-0.14146498
154	0xbe09eb02	-0.13468555
155	0xbecb9119	-0.39759138
156	0x3d28677e	0.041114323
157	0xbebaa21e	-0.3645181
158	0x3c8626a9	0.016375856
159	0x3da70f6d	0.08157239
160	0xbeb45726	-0.3522274
161	0xbd9f27f2	-0.07771291
162	0xbd462b0d	-0.0483809
163	0xbc4a5c83	-0.012351158
164	0xbdfca79d	-0.12336657
165	0x3d9fe553	0.07807412
166	0xbeb1b1cc	-0.3470596
167	0xbea58c19	-0.3233345
168	0xbd2adf0d	-0.041716624
169	0xbc6c2df4	-0.014415253
170	0x3ddbf0df	0.10739302
171	0xbe855c4c	-0.2604698
172	0xbc0b3bcf	-0.008498146
173	0xbe0cc9e4	-0.1374889
174	0x3db10527	0.08643561
175	0x3d33daca	0.043909825
176	0xbde7349e	-0.11289333
177	0xbe607585	-0.2191983
178	0xbdfd9e9c	-0.12383768
179	0xbda30f6e	-0.07961927
180	0xbed5d1f3	-0.4176174
181	0xbe38053a	-0.17970744
182	0x3e2bbb05	0.16770561
183	0x3e19148f	0.14949249
184	0xbdcdf8a5	-0.10057191
185	0xbbe96026	-0.0071220575
186	0x3cfbba0f	0.030728368
187	0xbe460af2	-0.19340113
188	0xbdd4e7f5	-0.10395805
189	0xbe94954e	-0.2902016
190	0xbe489fb7	-0.19592176
191	0x3d9d6974	0.07686129
192	0xbe8f20b3	-0.27954635
193	0xbd9e0835	-0.07716409
194	0x3e133646	0.14376172
195	0xbd00744d	-0.031360913
196	0xbca8821e	-0.020569857
197	0xbe51bd3e	-0.20482346
198	0xbea07080	-0.3133583
199	0xbd29bc79	-0.041439507
200	0xbd8a048e	-0.0673915
201	0x3d402e6f	0.046919283
202	0x3dd1d3c7	0.102454714
203	0xbc8dd59d	-0.017313773
204	0xbe1afbbe	-0.15135095
205	0x3de17f1f	0.110105745
206	0xbe41740e	-0.18891928
207	0xbe2f87e5	-0.17141683
208	0xbea54456	-0.322787
209	0xbe33f567	-0.17574082
210	0xbe3e8bbb	-0.1860799
211	0x3e5988dc	0.21243614
212	0xbe4b3cc1	-0.19847395
213	0xbdc96711	-0.098341115
214	0xbd16aee4	-0.036787882
215	0xbe6d9c05	-0.23204048
216	0xbde94aeb	-0.113912426
217	0x3dccb2ea	0.09995063
218	0xbda8f1d9	-0.08249254
219	0xbe2a914d	-0.1665699
220	0xbe82ade9	-0.25523308
221	0xbdc7b893	-0.097520016
222	0xbdafa1b9	-0.08575768
223	0xbe011f59	-0.12609614
224	0x3dc1fade	0.09471677
225	0x3e122654	0.14272434
226	0xbd3a98bb	-0.04555581
227	0xbd65f7bf	-0.056144472
228	0xbd71e176	-0.059052907
229	0xbdb93ebc	-0.09045169
230	0x3d29770c	0.041373298
231	0xbe405345	-0.18781765
232	0x3d8c8a64	0.068623334
233	0xbd01012d	-0.031495262
234	0x3cd29fd6	0.025710981
235	0xbeede929	-0.4646695
236	0xbee2ab8d	-0.44271508
237	0x3c5ae00e	0.013359083
238	0xbe1d39c5	-0.15354069
239	0xbe1057ed	-0.14096041
240	0xbef07060	-0.46960735
241	0xbcf6fa57	-0.030148668
242	0xbe769b62	-0.24082711
243	0xbe3da34e	-0.18519327
244	0xbd0744e2	-0.033024676
245	0xbe06e707	-0.13174067
246	0xbe6f3364	-0.23359448
247	0xbd8857b5	-0.06657354
248	0xbeae7dd1	-0.34080365
249	0x3c85f568	0.01635237
250	0xbd87fb64	-0.06639746
251	0xbe6f76f7	-0.23385225
252	0xbe1fe09c	-0.15613025
253	0xbeac5dfe	-0.3366546
254	0xbe1e0f67	-0.15435563
255	0xbe3c5526	-0.18391857

critic.network_body.linear_encoder.seq_layers.2.bias f4 [128]
0	0x3e1785de	0.1479716
1	0xbd6aeeb1	-0.05735654
2	0xbdffad7b	-0.12484261
3	0xbebb18de	-0.3654241
4	0xbd2fccfd	-0.0429201
5	0x3ae3499a	0.001734066
6	0xbe617d44	-0.22020441
7	0xbebb365b	-0.36564907
8	0xbe4d5763	-0.20052867
9	0x3e938bf0	0.288177
10	0x3c965b07	0.018353952
11	0x3e594339	0.2121705
12	0xbbb006d0	-0.005371906
13	0x3df6297e	0.12019633
14	0xbe8e86cd	-0.2783722
15	0x3ec28237	0.3798997
16	0xbcccb4bf	-0.02498853
17	0x3d09292b	0.033486526
18	0x3cd5bcf1	0.02609107
19	0xbe831b3a	-0.2560671
20	0x3db933e4	0.090431005
21	0x3ce5eaef	0.028066127
22	0x3e07380e	0.13204977
23	0xbd65ab1c	-0.056071386
24	0x3e4bb550	0.19893384
25	0x3ca10180	0.019654036
26	0x3ded2977	0.115801744
27	0xbec54117	-0.38526222
28	0xbd883632	-0.06650962
29	0xbe1d6e9a	-0.15374222
30	0x3cd3f00e	0.025871303
31	0x3d496084	0.04916431
32	0xbdb6eda8	-0.08932048
33	0xbd76dd39	-0.060269568
34	0xbdeb9c38	-0.11504406
35	0xbcfa8da5	-0.03058512
36	0x3d788d5e	0.060681693
37	0xbc89d078	-0.016823038
38	0xbe0560b6	-0.13025174
39	0xbd11698e	-0.035501055
40	0xbd1316ee	-0.03591054
41	0xbe2be825	-0.16787775
42	0xbd468c53	-0.048473667
43	0xbe08d306	-0.13361749
44	0xbe7457cc	-0.23861617
45	0xbe83f551	-0.257731
46	0x3c1b8e55	0.009494384
47	0x3d13ca7f	0.036081787
48	0xbe7c73e0	-0.24653578
49	0xbea69eae	-0.32542938
50	0x3e1a6644	0.15078074
51	0x3e4a9360	0.19782782
52	0x3e57d13a	0.21075907
53	0x3e546b8b	0.2074415
54	0x3d95de07	0.07317739
55	0xbdc23da1	-0.09484411
56	0x3d934f96	0.07192914
57	0xbe47a845	-0.19497783
58	0xbe2c47d3	-0.16824274
59	0xbd0ac06a	-0.033874907
60	0xbc17f5e1	-0.009274931
61	0x3e03fa3b	0.12888424
62	0xbe883cdc	-0.26608932
63	0xbd23896c	-0.039925978
64	0xbdd6e45e	-0.10492776
65	0xbcf75d9e	-0.030196007
66	0x3e1d20d8	0.1534456
67	0xbd63d050	-0.055618584
68	0xbd306810	-0.04306799
69	0x3bb426b8	0.0054977797
70	0x3dee87e1	0.116470106
71	0x3e822577	0.25419208
72	0xbcf8cf05	-0.030372152
73	0x3dab950c	0.08378038
74	0x3d6ac63a	0.05731795
75	0x3e58dce4	0.21178013
76	0xbd96ce36	-0.0736355
77	0x3ea02cc5	0.31284156
78	0xbe5af2be	-0.21381661
79	0x3d43b257	0.0477775
80	0xbcea8ed5	-0.02863256
81	0xbe21b6df	-0.15792416
82	0xbdb4d29b	-0.08829232
83	0xbc9703d2	-0.018434439
84	0xbe0842a7	-0.13306676
85	0xbd0dd6eb	-0.03462879
86	0xbd305bee	-0.04305642
87	0xbe51038a	-0.20411506
88	0xbe0c4a87	-0.13700305
89	0xbe037d1e	-0.12840697
90	0xbe410c5b	-0.1885237
91	0xbc803e6a	-0.015654761
92	0x3cb43082	0.021995787
93	0xbd8d3808	-0.06895453
94	0xbe5f464f	-0.21804164
95	0xbe2a1f55	-0.16613515
96	0x3e44d5dd	0.19222207
97	0xbe6d9ec7	-0.232051
98	0xbdb31b5d	-0.087454535
99	0xbe06195b	-0.1309561
100	0xbea3076d	-0.31841603
101	0x3e957091	0.29187444
102	0x3d5572d6	0.05211147
103	0xbdc3661f	-0.095409624
104	0xbe249f2a	-0.16076341
105	0xbe633727	-0.22189008
106	0xbd943989	-0.072375365
107	0xbe19f95d	-0.15036531
108	0xbe52129a	-0.20514908
109	0xbd7ab7ca	-0.06121043
110	0xbc5841e6	-0.013199305
111	0xbea51e75	-0.322498
112	0xbe7410ec	-0.2383458
113	0xbe9016f4	-0.28142512
114	0xbe6e7251	-0.23285796
115	0xbcf345cd	-0.02969637
116	0x3e76e9f3	0.24112682
117	0x3e680c59	0.2266096
118	0xbeb65b8e	-0.35616726
119	0xbe54d893	-0.20785742
120	0xbdfb37fc	-0.122665375
121	0x3e043039	0.1290902
122	0x3d808643	0.062756084
123	0xbd37e977	-0.044900384
124	0x3e1d253a	0.15346232
125	0x3c912413	0.017717397
126	0xbca24d52	-0.01981226
127	0xbd1d28c4	-0.038368955
