ml-agents-master/ml-agents/config/results/ppo/LineCreator/LineCreator-1685786.pt (torch, 434231 bytes, 40 tensors)

network_body.vector_processors.0.normalizer.running_mean f4 [4]
000000 dd fc 0c 40 0d ac 76 3d 52 f5 1c c1 1b a1 9d 3f
       2.2029335 0.060222674 -9.809893 1.231479

network_body.vector_processors.0.normalizer.running_variance f4 [4]
000000 49 ad 4e 4c 99 05 54 4b 33 b2 14 4b e6 a6 51 4b
       5.4179108e+07 1.3895065e+07 9.744947e+06 1.373975e+07

network_body.linear_encoder.seq_layers.0.weight f4 [128, 4]
000000 db cd 0d be 63 d4 6e 3e 0f 16 08 bf b2 3f fc 3e
       -0.13848059 0.23323207 -0.5315866 0.49267346
000010 aa 98 f4 be 97 99 91 3d 9d ea da 3d 5b c0 e7 3e
       -0.47772723 0.07109373 0.1068928 0.45263943
000020 b5 e5 7b be f4 55 d3 bd 37 07 1d 3b e5 4f a1 3e
       -0.24599345 -0.10319129 0.00239606 0.31506267
000030 82 c1 14 bf e0 0c 42 3e b6 8a 1f 3e 66 5c eb 3e
       -0.5810777 0.18950224 0.15580258 0.45968932
000040 41 a8 28 be 83 9b 71 3e df 8a c3 bf 69 98 6d be
       -0.16470434 0.2359448 -1.5276755 -0.23202671
000050 05 8f bd 3a 84 97 8d bc 31 ce 8d bc f7 47 ac bb
       0.0014462179 -0.017284162 -0.017310234 -0.0052576023
000060 5b 2f 8f 3c cf 56 90 3e c7 c8 4e bf e4 22 ba be
       0.017478636 0.2819123 -0.8077511 -0.36354744
000070 e7 bf 5e ba d4 8c ad 3a bb 34 81 38 f7 80 0e bc
       -0.00084972236 0.0013240823 6.161021e-05 -0.00869774
000080 e9 4a e7 3d 7b 3b d7 3e 11 44 c1 3e 52 84 03 3d
       0.11293585 0.42037567 0.37747243 0.032108612
000090 e1 77 0e bf 90 76 39 bd 4c 49 52 3e 73 dc 38 3f
       -0.5565167 -0.045279086 0.20535773 0.7221138
0000a0 f8 cf 3f bd 4f f4 e7 bc 1b f8 ad 3b 53 75 67 3d
       -0.046829194 -0.028314738 0.0053091175 0.056508373
0000b0 6f 59 3e 3b eb 97 90 3b 0a 2a 45 bb d4 cd 05 3b
       0.0029045006 0.0044126413 -0.0030084872 0.0020416873
0000c0 5e e3 95 be d7 40 3b 3c ae b9 e5 3d ba a3 b9 3e
       -0.2927503 0.011429033 0.11217056 0.36257726
0000d0 f9 f3 95 ba e8 3a 50 3c d6 cb 11 3c 31 97 cc ba
       -0.0011440507 0.012709357 0.008898696 -0.0015609023
0000e0 46 91 0b be 28 7e 9d ba 6e 92 0a bf 2b f8 64 3e
       -0.13629636 -0.0012015747 -0.54129684 0.22360294
0000f0 51 e4 28 be dc 48 f7 bd 54 f1 08 bd db 54 5a 3e
       -0.16493346 -0.12074444 -0.033433273 0.21321432
000100 54 88 e6 3e 6d d3 c3 be 08 1a 0c be 76 cf d0 be
       0.45025885 -0.38247243 -0.13681805 -0.4078328
000110 07 82 3a 3f 85 5b a7 3e 8d 82 18 3f 09 f8 8c be
       0.72854656 0.3268701 0.59574205 -0.27532986
000120 ff 11 5a ba a1 67 06 3c 98 47 19 3c c9 c2 a5 bc
       -0.00083187217 0.008203418 0.009355448 -0.020234482
000130 bf 47 de bd 90 b8 58 3e 9d 0d 26 3e dc 9f 48 3e
       -0.10853528 0.21164155 0.1621613 0.19592232
000140 cf c5 69 bd 43 e7 f2 be 2d 72 5a be 15 19 61 3e
       -0.05707341 -0.47442064 -0.21332617 0.21982224
000150 5d cf ab bd a8 76 55 3f 11 15 c3 3d 9f da 8a 3f
       -0.08389161 0.8338418 0.095255025 1.0847968
000160 f0 f0 09 3d a2 4d b6 3c 93 c8 64 bb b7 fe 36 bd
       0.03367704 0.022253815 -0.003490959 -0.04467651
000170 87 b3 0a bb 4f 33 6a 3c 62 a2 b2 3c 58 23 85 3c
       -0.0021164136 0.0142944595 0.021805946 0.016252205
000180 97 0c 09 bf 9d c6 0c be 28 dc cc bc 37 88 2e 3f
       -0.53534836 -0.1374764 -0.025007322 0.681766
000190 e9 1c 8c 3f 95 58 a9 3f 1e af 65 3f 8b 9e 85 bf
       1.0946323 1.3230158 0.8972033 -1.0439008
0001a0 59 5e 43 be a4 cb 89 be 34 9a e4 be c6 03 ab 3e
       -0.1907896 -0.26913178 -0.44648898 0.33401316
0001b0 9a d3 2d 3e 60 f7 a8 bb 7f 07 8f 3f 89 35 11 3f
       0.16975251 -0.0051564425 1.1174163 0.56722313
0001c0 b6 56 39 bd 12 df d3 bc 31 d7 ef bd 9c 9f dd bd
       -0.04524871 -0.025863204 -0.117109664 -0.10821459
0001d0 84 57 8f bc 0f 1e 7f bc c0 82 7a 39 f0 c4 cd 3c
       -0.017497785 -0.015571131 0.00023890566 0.025118321
0001e0 9d 52 c5 3b a1 d6 52 3c 78 29 36 3b fc 5e d2 bb
       0.006021811 0.012868554 0.0027795713 -0.0064200144
0001f0 fd 2d 18 3f 54 7f 00 bf 87 5c d7 be e4 28 e6 3e
       0.5944517 -0.5019429 -0.4206278 0.44953072
000200 59 ce 56 3f 17 62 d5 3e d0 c6 ba be e2 a5 b6 bf
       0.8390861 0.416764 -0.36479807 -1.4269373
000210 21 aa 97 3d f1 96 85 3f 52 c5 8d bf 6a bf d9 be
       0.074054964 1.0436689 -1.1075842 -0.4252885
000220 d1 b1 bb 3e d5 2d 45 3e ce e3 4e be 21 0b 0a bf
       0.366591 0.19255765 -0.20204088 -0.5392323
000230 7b d4 e1 be c7 1f 46 3e 43 60 2e bf 30 b4 de be
       -0.44107422 0.1934806 -0.68115634 -0.43496847
000240 1b bf 0e bc a4 47 ef 3b 96 51 56 3c b7 53 24 3c
       -0.008712555 0.0073022414 0.013080975 0.010029725
000250 68 17 fc 3e 36 b7 e5 3e f2 ff 8f be 0b 5c 6a bf
       0.49236608 0.4486634 -0.28124958 -0.91546696
000260 b6 91 0f bf 73 75 17 be 3b 08 35 3d 7d 3e b4 3e
       -0.5608171 -0.14790897 0.044197302 0.35203925
000270 7c d3 3e be 86 1b d2 bc 98 1b c9 bb a6 46 16 3e
       -0.18635362 -0.02564789 -0.0061373226 0.14675388
000280 bb b8 cb be b2 29 04 3e 20 f0 9e 3d 21 52 af 3e
       -0.39789376 0.1290653 0.07760644 0.34242347
000290 1f d0 25 3f 51 9d 02 3f c2 df b1 bd 31 27 7c bf
       0.6477069 0.51021296 -0.086852565 -0.984973
0002a0 0d 27 ea 3e fa b4 16 3f f6 67 0c 3f 4e ea 4f be
       0.45732918 0.588699 0.5484613 -0.20304224
0002b0 28 26 7b be 8e 91 ce bd 4f c1 eb 3d 1c cb 12 3f
       -0.24526274 -0.10086356 0.1151148 0.5734117
0002c0 ec 9d c0 be a0 0e 16 bf 1f a9 07 3d 8b 1b 43 3f
       -0.37620485 -0.58616066 0.03312027 0.762139
0002d0 92 df 7a 3e 61 4f 5e 3e 67 a1 14 3d 9f f1 8a be
       0.24499348 0.21709968 0.036286738 -0.27137467
0002e0 51 64 1c 3e 5f 60 bd 3e f3 1f 27 bf f4 13 6b bf
       0.15272643 0.36987588 -0.65283126 -0.9182732
0002f0 d1 7c 20 3f 81 24 f0 3e aa 3b 68 3e 52 d1 2f bf
       0.62690455 0.4690285 0.2267901 -0.6867877
000300 10 5b a1 bd 7c 2a 65 bc 32 1d 5e bd 62 74 f0 3c
       -0.07878697 -0.01398718 -0.05422706 0.02935237
000310 93 f8 8d bd ff 98 98 ba d8 c9 75 bd 7e 09 8a bd
       -0.069321774 -0.0011642276 -0.060006946 -0.06740092
000320 ef 14 90 bd b1 fe 24 be 65 43 25 be a5 a6 f8 3c
       -0.07035243 -0.16112782 -0.1613899 0.0303529
000330 57 31 9d be 81 cc f8 3d fc 95 57 bf 60 88 01 bf
       -0.30701706 0.12148381 -0.84213233 -0.50598717
000340 5a 86 66 bd ce 71 0c bd f9 51 34 3c 41 8c f3 3d
       -0.05628047 -0.03428822 0.011005872 0.11891986
000350 06 7a 10 3b ae cb 73 3b c4 e3 1e 3c 1f 44 4e 3c
       0.0022045388 0.003720026 0.009697858 0.0125894835
000360 8f 29 ba ba f3 3b 53 3b 73 ac 11 39 31 d0 85 3b
       -0.0014203059 0.0032231777 0.0001389252 0.0040836562
000370 89 d2 5e be 29 19 5d be 2d f2 c8 bd c9 8b 99 3e
       -0.2176 -0.21591629 -0.09811816 0.2998946
000380 71 b3 e9 be 51 63 26 be 0d a2 28 bd 67 dd 0b 3f
       -0.45644715 -0.16248824 -0.04117017 0.5463471
000390 63 1f ea ba 27 89 b3 3b 65 f4 56 3b 01 1b 92 bc
       -0.0017862137 0.0054789963 0.003279948 -0.017835142
0003a0 62 8d 48 bb d5 23 1f 3c 46 24 27 3b cb c6 64 ba
       -0.003060185 0.009713133 0.0025503798 -0.0008727132
0003b0 bf a3 56 be d6 36 96 be 09 68 2a be dd b3 04 3f
       -0.20960902 -0.29338712 -0.16641249 0.5183695
0003c0 87 ce a5 be aa 27 c4 be d5 9e 73 be 50 cf f1 be
       -0.3238413 -0.3831151 -0.23791058 -0.4722848
0003d0 0c 90 c4 3e 5d 25 c8 3e b0 a8 43 3f 99 77 34 3e
       0.3839115 0.39091006 0.7642927 0.17623748
0003e0 27 31 0f bf 2e a1 a1 3d d5 86 a0 3e 30 6a 42 3f
       -0.55934376 0.07892071 0.3135287 0.7594328
0003f0 d3 b9 12 be 84 c7 15 bd fb db 8e be fe 12 a0 be
       -0.14328699 -0.036567226 -0.27902207 -0.3126449

network_body.linear_encoder.seq_layers.0.bias f4 [128]
000000 78 ce f8 be 55 d4 6d bd 08 f6 fe 3d c2 d5 93 be
       -0.48595023 -0.058063824 0.124492705 -0.28874022
000010 d5 82 06 be 23 4c b0 3b a5 3f b9 be f4 5d 29 3b
       -0.13135846 0.00538017 -0.3618137 0.0025843354
000020 62 b5 24 be 17 92 41 3e cf 6d 36 bc 52 5a f2 bb
       -0.16084817 0.18903385 -0.011134579 -0.007396021
000030 95 35 6c bd ea f2 d7 bb 58 be 11 bf 70 f9 50 3d
       -0.057668287 -0.006590237 -0.56931067 0.051019132
000040 83 ef 2e bf 75 93 9b 3d 1e af 3b bd 93 ce df be
       -0.68334216 0.075964846 -0.0458213 -0.4371229
000050 67 3f 0f be 3b e9 0d bf ee de 8d bc 2f 2c b6 bc
       -0.1398903 -0.55434006 -0.017318215 -0.022237865
000060 96 b2 9d be 3f a7 ce 3e 51 da 9e be 26 60 fe be
       -0.30800313 0.40361974 -0.31025937 -0.4968273
000070 b6 5f 9a bd 28 7f d2 ba 82 e5 2c bc a3 07 17 bf
       -0.07537787 -0.0016059624 -0.010552766 -0.5899603
000080 e2 c5 9a 3e 8e 05 c6 bd e9 e9 37 be ae 51 e9 bd
       0.30229098 -0.09669028 -0.17960323 -0.11392532
000090 78 d4 58 bc 53 13 77 3e 83 ca 89 3e 6a 3a 41 bf
       -0.01323425 0.24128465 0.26912317 -0.7547976
0000a0 d6 5d fa be 5a 8c 83 3e c4 51 d6 3b 33 6d 8e 3d
       -0.48899716 0.25693017 0.006540509 0.06954422
0000b0 36 b1 52 be 89 a6 74 bc 26 4c fb 3a 71 9c f4 3e
       -0.20575413 -0.014932283 0.0019172474 0.47775605
0000c0 07 96 d3 be 05 2f a5 be 3f 64 fd 3d cc f5 b0 be
       -0.413254 -0.32262436 0.12372636 -0.34562528
0000d0 32 5b 3d 3e 89 be f5 bb f3 d8 06 3b 88 2b 92 3c
       0.1849182 -0.00749952 0.002057609 0.017843023
0000e0 90 a8 b7 be 07 3c a7 b9 28 79 85 bb db a9 8c be
       -0.3587079 -0.00031897446 -0.004073281 -0.2747334
0000f0 31 38 0a 3f 84 24 da bd a0 ff 91 3c 8e 34 46 3e
       0.5399199 -0.10651496 0.017822087 0.19355986
000100 ae 49 fb be bc d3 25 3e 1e e6 4a 3c 4c 04 ab be
       -0.4907965 0.16194052 0.012383966 -0.33401716
000110 f6 68 7f 3e 8c 04 0b bf 25 7a 3a be 1f 2d 0b bf
       0.24942383 -0.54303813 -0.18210657 -0.54365724
000120 e7 81 55 3d 68 a6 cb be 6a 5d 41 39 62 61 10 bc
       0.052125838 -0.39775395 0.00018440714 -0.00881228
000130 97 c7 07 bc 93 21 3d 3c 6d bf d0 be 57 5a a6 b9
       -0.008287332 0.011543649 -0.40771046 -0.00031729296
000140 d3 76 d3 bd a1 f1 c6 be 65 3f 52 be 82 be c5 3d
       -0.10325398 -0.38856223 -0.20531996 0.09655477
000150 71 ef 05 3c d9 84 87 be b9 f6 a6 3e 08 de f4 bd
       0.008174763 -0.26468542 0.3261011 -0.119564116
000160 60 5e 53 be 92 d6 97 3d 6a 30 ca 3b 86 26 0a bf
       -0.2064147 0.07413973 0.006170322 -0.5396503
000170 b9 81 b6 be 26 62 f3 3e 41 ba 91 3b 5b 15 c6 3e
       -0.35645846 0.4753582 0.004447252 0.38688168
000180 0f 67 88 bd a4 24 8f be 2a c2 ae 3d d1 5e 9c 3d
       -0.06660282 -0.27957642 0.085331276 0.07635272
000190 bb 4d 71 3e 0f 5e 0e be 15 0d 6e bc db 71 12 be
       0.23564808 -0.13903068 -0.014529486 -0.14301245
0001a0 fd a8 23 3b fa 46 0b bf d9 14 d5 ba 3b 94 18 bf
       0.002497255 -0.54405177 -0.0016256823 -0.5960118
0001b0 82 48 37 be ea 26 39 3e 3d 02 e1 3b 02 6a 60 be
       -0.17898753 0.18081251 0.006866722 -0.21915439
0001c0 bd 81 aa 3e 73 38 30 3d e0 30 a6 3d e3 4b d2 be
       0.33302107 0.043022584 0.08114791 -0.41073522
0001d0 29 2c 75 be 30 30 ec be 7b 76 8e bb 84 4e 64 3b
       -0.23942627 -0.46130514 -0.00434762 0.0034836838
0001e0 4c 9f 48 bd 11 22 12 bc 61 d3 62 3a 93 47 1e 3e
       -0.048980042 -0.008919255 0.0008652714 0.15456991
0001f0 08 44 b6 bc 0c bf 57 3e 9f 49 b6 be e4 d4 b7 bd
       -0.022249237 0.21068972 -0.35603043 -0.089761525

network_body.linear_encoder.seq_layers.2.weight f4 [128, 128]
000000 af ae 87 be e9 01 7f 3e 58 6f 25 3d 57 67 a0 3e
       -0.2650046 0.24903072 0.04038939 0.31328842
000010 02 db 39 bf 1d 3c 4b 3d 0f 96 cf be d6 75 6a bd
       -0.72599804 0.049617875 -0.40544173 -0.057241283
000020 dd dc e4 3e d4 51 a7 3d 37 9b 23 3b 06 0a 99 3c
       0.44699755 0.08169904 0.0024964341 0.018681537
000030 47 85 e2 3e 16 69 cc 3c 30 ed 3e be ae c2 bd bd
       0.44242308 0.024952453 -0.18645167 -0.09265648
000040 d2 88 77 bd 16 2d 32 3e 77 0b 01 bd d2 ca d2 3e
       -0.060433216 0.17400011 -0.031505074 0.41170365
000050 a1 72 20 be d8 71 bf be 2a 96 2b 3d 1a 72 c1 bd
       -0.15668727 -0.37391543 0.041891254 -0.09445591
000060 7c f9 5a bd 93 f6 28 3e 20 36 61 be 7d ac 28 3d
       -0.053460583 0.1650031 -0.21993303 0.041180123
000070 ed bc a6 bd 3a 19 ee bd bb 70 a6 bd f9 a0 9f be
       -0.081415035 -0.11625905 -0.081269704 -0.311775
000080 7f 8a be be c1 b1 e3 be 80 59 05 be 42 c8 b4 be
       -0.3721504 -0.44471553 -0.13022423 -0.35309035
000090 a1 33 9c bd 9a bf ba be e1 bf 18 be 61 b4 8d 3e
       -0.07627035 -0.36474305 -0.14916946 0.2767668
0000a0 ed 1d cb 3e 24 29 cb be 89 c6 90 3e d4 e4 59 3d
       0.3967127 -0.39679825 0.2827647 0.053196743
0000b0 97 c7 84 be 0e 1b 89 bd 1f ab a4 be 14 33 e1 bd
       -0.25933525 -0.066946134 -0.32161805 -0.109960705
0000c0 0e 85 77 3e c1 d5 63 3e 86 68 d7 be 8c 12 92 be
       0.2417185 0.2224951 -0.42071933 -0.28529775
0000d0 5a e2 1b be 72 bc 9c bd ea ff f9 bd 34 8e 40 be
       -0.15223065 -0.076531306 -0.12207015 -0.18804246
0000e0 11 bd 27 3d 2f 81 43 3d 7d dc fc bd c9 e2 39 be
       0.040951792 0.04773062 -0.12346742 -0.18152918
0000f0 b0 ff ba be 6e fd bf 3e 92 29 7d 3c b0 91 d3 be
       -0.365232 0.3749804 0.015451806 -0.41322088
000100 5d e8 08 bf bc 37 80 be 5c 42 da be ad 3f 9f 3d
       -0.5347956 -0.25042522 -0.42628753 0.07775817
000110 aa db 02 bf ed a1 79 be 15 b2 a2 3c 6e d4 07 3f
       -0.5111643 -0.24378176 0.019860307 0.53058517
000120 cb 5a 30 bd 14 f7 eb 3d eb ae 83 bd c0 58 9c be
       -0.043055337 0.11521736 -0.06429847 -0.3053646
000130 6b ec 03 bd 27 f1 40 3d a6 c7 82 be e0 97 be bc
       -0.032207888 0.04710498 -0.25542945 -0.023265779
000140 9f b7 fa bd ad 94 b1 3d 4d 69 d6 be d4 3c 25 be
       -0.12242054 0.08670936 -0.41877213 -0.16136485
000150 91 ab af 3d fd 89 8f be 35 ef 50 3e cc ef 68 3d
       0.085776456 -0.28034964 0.2040375 0.056869313
000160 ab c4 50 3d 27 f7 d2 be fc dc 0f 3e e2 8c 42 3e
       0.050968807 -0.41204187 0.14049143 0.18999055
000170 38 b4 cc be 48 ff 9d be 4a 97 30 bd 35 74 c8 be
       -0.39981246 -0.30858827 -0.04311303 -0.3915116
000180 64 e3 9c be 0f e8 9a be a7 a6 9d bd 05 6f 87 bd
       -0.30642235 -0.30255172 -0.07697802 -0.06612972
000190 70 94 53 3e 96 1b da 3e d3 72 39 3e 81 ab a3 3d
       0.20662093 0.4259917 0.18110208 0.07991696
0001a0 60 50 45 3a 38 77 79 3e 6e 5a 57 bd 93 a7 1b 3e
       0.00075269304 0.24361885 -0.052576475 0.15200643
0001b0 9f 72 d4 3c 25 6d 53 bd 18 20 81 3d 5d b9 2d 3e
       0.025933562 -0.05161776 0.063049495 0.16965242
0001c0 57 e9 ac be 68 9b a4 bd ee df bb 3b 0d b8 9c be
       -0.33771774 -0.08037454 0.0057334816 -0.3060917
0001d0 d7 91 58 bd a1 cb 0e bf fe 81 2a 3c e7 9e a9 bb
       -0.05287346 -0.55779463 0.010406969 -0.0051764133
0001e0 28 9a 3f bc 23 a5 fe 3c 3d 2f 30 3d 06 10 d4 be
       -0.011694469 0.031084603 0.0430138 -0.41418475
0001f0 99 0a 10 bf 05 70 cf be 8c 7a b1 3e b3 3a 89 bc
       -0.5626617 -0.40515152 0.34663808 -0.016751623
000200 4f a7 69 ba bd 95 a3 bd c9 17 ba 3d d9 ed c9 3c
       -0.00089131756 -0.07987545 0.09086568 0.024649547
000210 7d 8d 65 bc ad 5e 10 3e 90 41 f4 bc a9 0a c9 3d
       -0.014010784 0.14098616 -0.029816419 0.098164864
000220 92 e4 6b 3d 31 3f ba 3c d0 fc 96 bd ce 59 6e 3d
       0.05759103 0.02273521 -0.07372439 0.058191113
000230 05 51 f6 3d e5 06 82 bc 60 c3 a7 3a 7a 79 19 bd
       0.12027172 -0.015872428 0.0012799315 -0.037469365
000240 04 67 0e be a1 b7 2f 3d 8e f5 3a bd cc ac ff b9
       -0.13906485 0.04289973 -0.045644335 -0.00048766134
000250 74 7e 2f 3d 1d 66 84 bd a9 41 1b 3e 46 ca 06 3e
       0.042845204 -0.06464789 0.15161766 0.13163099
000260 3b 4e cd 3d 80 bd 51 bd 01 ea bb bd b7 d2 95 3d
       0.10024687 -0.051206112 -0.09175492 0.07315581
000270 74 a2 7d bd f3 e3 94 3b a9 18 84 3c 8d 9a ae bd
       -0.061922505 0.004543775 0.01612504 -0.08525572
000280 7f 01 35 3c c2 54 1f 3c 3b ff 8d be ef 83 8f bb
       0.01104772 0.009724798 -0.27733788 -0.0043797414
000290 92 cb fd 3d 0d fd 36 3e 19 28 86 3d 2c e7 fc bd
       0.123923436 0.17869969 0.06550617 -0.1234878
0002a0 0e 18 d1 bd 8c e5 e3 bd a8 44 8b 3d f5 93 11 be
       -0.10209666 -0.11127767 0.068002045 -0.14216597
0002b0 e3 9e 68 bd 5c 25 83 3d 92 62 82 3d 20 54 08 3d
       -0.05679215 0.0640361 0.06366457 0.033283353
0002c0 06 ff 7f 3d 7f 20 35 3e d8 1a ce bc 70 af 9d bd
       0.06249907 0.17688178 -0.025159284 -0.07699478
0002d0 93 ff 21 bd c8 08 f3 bd 49 99 16 bd 43 00 99 3d
       -0.039550375 -0.11866909 -0.036767278 0.07470753
0002e0 de 50 ba bd 64 1b 15 3d 4e 00 fa 3c 5b 52 4f 3e
       -0.090974554 0.036403075 0.030517723 0.2024626
0002f0 75 65 21 3d e1 5b dd bd 3f 73 68 bc 89 b9 71 3b
       0.039403398 -0.1080854 -0.014187633 0.003688427
000300 31 1a b9 3d b5 7a 4e 3b b9 5b ba bd 38 88 e9 bd
       0.09038199 0.0031506245 -0.09099526 -0.11402935
000310 43 77 05 be 9e 12 a7 3d f4 92 6a 3d 1b 32 de 3d
       -0.13033776 0.08157848 0.05726905 0.108494006
000320 7a f9 5a bd c7 d6 6c be 9c 75 85 39 e8 22 ba 3c
       -0.053460576 -0.23128806 0.00025455363 0.022721723
000330 0a f3 18 3d 82 92 b6 3b 93 72 7e bb ab b1 f5 3c
       0.037341155 0.0055716643 -0.0038825616 0.029991945
000340 7b d9 b4 bc e1 36 5c bd a9 5a cb 3d 24 65 cd bc
       -0.022076359 -0.053763274 0.099294014 -0.025072642
000350 22 e6 22 3d d2 88 ea bc 35 25 c7 bc 33 f5 94 3c
       0.039770253 -0.028629694 -0.024309734 0.018183326
000360 07 d9 66 bc eb c9 a8 bd 00 dd 62 3d ea fa 0b bb
       -0.014089829 -0.08241638 0.055386543 -0.0021359273
000370 37 a5 70 3d 70 e8 3e be b3 35 98 bd b7 fd 01 3d
       0.05875131 -0.18643355 -0.07432117 0.031736102
000380 8d 9f d1 3d ea 16 a3 3d 8d 48 29 bd 29 4d 76 3d
       0.1023551 0.07963355 -0.041328955 0.06013218
000390 bf 9f 70 bc 82 19 70 3d a9 a8 fc bc 72 f6 12 3e
       -0.014686524 0.058618076 -0.030842142 0.14351824
0003a0 0a eb ee 3c c7 c9 dc bd 96 da 9f bd 66 b8 14 3e
       0.02916481 -0.107806735 -0.07805364 0.14523467
0003b0 04 75 41 3b f7 fa 43 3c d6 16 c4 bd 0e 62 03 3e
       0.002951921 0.01196169 -0.09574668 0.12830374
0003c0 ab fe 5e bd 68 26 06 3e 21 b4 4f bc 37 ca 96 bd
       -0.05444209 0.13100588 -0.012677223 -0.07362788
0003d0 ee 23 89 bb 69 13 e2 bd af 3d a3 bc a3 e1 a9 3c
       -0.0041851914 -0.110388584 -0.019926874 0.020737475
0003e0 0f af 94 3c 68 05 a6 3d 75 ae 7e bc 73 c9 06 bd
       0.01814988 0.081065 -0.0155445235 -0.03290696
0003f0 9f f9 8f 3c be 7f 9d 3d 5c 7b 26 3d 34 d4 19 bc
       0.017575083 0.076903805 0.04064499 -0.009388972

network_body.linear_encoder.seq_layers.2.bias f4 [128]
000000 99 ae c2 be 46 87 cc bc 2b 64 1c be 25 d8 e1 bd
       -0.38023832 -0.024966847 -0.15272586 -0.110275544
000010 3f 9a bb bd 3d 13 25 bc fb eb 71 bc a2 f8 25 bf
       -0.091602795 -0.010075388 -0.014765735 -0.6483251
000020 36 af 20 bf 9b e9 99 bd 5e 31 fc be c1 93 8d bd
       -0.6276735 -0.0751526 -0.49256414 -0.069129474
000030 53 d5 7f bd 82 f2 09 bd 5c f3 d0 bc 70 09 09 bf
       -0.0624593 -0.03367854 -0.025506668 -0.53530025
000040 1d ff 57 bc 71 ab e8 bd 08 35 88 bd f5 7e 13 bf
       -0.013183382 -0.11360825 -0.0665074 -0.57615596
000050 11 58 9f bd 6f 07 45 3b 06 4c 29 bc 81 07 e5 bc
       -0.07780469 0.0030064245 -0.010333067 -0.02795768
000060 6a 54 89 be 84 09 75 be 94 99 22 bd b6 34 cb bc
       -0.26822215 -0.23929411 -0.039697245 -0.024805408
000070 82 f0 6a be 50 bc d6 be 0a ea 2a bd c1 11 e5 bc
       -0.22943309 -0.41940546 -0.041727103 -0.027962567
000080 27 09 a7 be 7b e4 a5 3c a2 e2 c3 bd 1d 1b 62 bf
       -0.3262417 0.02025055 -0.09564711 -0.8832262
000090 42 e5 8a bc 42 4d 53 bc f2 4f 71 bc a3 89 ea be
       -0.016955022 -0.012896838 -0.014728533 -0.45808133
0000a0 ea 0e 5d 3c 64 47 d1 be ad 08 06 3a 42 c2 16 3d
       0.013492325 -0.4087478 0.0005112987 0.036806352
0000b0 3e 29 bc 3c 8b 3a bc be 22 6f 21 bf 2c 25 4e bf
       0.022968885 -0.36763415 -0.630602 -0.8052547
0000c0 a2 82 0c bf 23 51 ad 3c 21 a3 52 bd 76 0f 96 bc
       -0.5488683 0.021156853 -0.051425103 -0.01831792
0000d0 ec 2c 07 be 29 6e 0c 3d ae 89 0e bd 41 b2 5b bd
       -0.1320073 0.034284744 -0.03479927 -0.053636793
0000e0 4d 86 40 bd 0c 45 82 bd 66 e7 ec be 60 27 e7 bc
       -0.04700308 -0.06360826 -0.46270293 -0.028217018
0000f0 92 49 45 bd 05 68 aa be e6 34 fd bb aa 8d a4 bc
       -0.048165865 -0.33282486 -0.0077272533 -0.020087082
000100 40 06 a5 be e3 f5 43 bd 8d cc 7e be 85 6a ad bd
       -0.3223133 -0.047841918 -0.24882717 -0.084675826
000110 98 ae 90 3c ad 2d 04 bf ba 87 4c bf 85 4a c4 be
       0.017661378 -0.51632196 -0.798946 -0.38338104
000120 b7 70 df bc ee ca 1d bd 63 da 27 3c 8e 53 86 bd
       -0.027275426 -0.038523607 0.010244939 -0.065589055
000130 39 d6 b5 be ed 1c b4 bd 08 7d 9c bd c0 52 d9 bc
       -0.35515 -0.0879458 -0.07641035 -0.026528716
000140 7a f0 3e bf e9 18 c2 bb 39 74 20 bc 48 45 b7 bd
       -0.7458569 -0.0059233797 -0.009793335 -0.08948761
000150 b1 b3 fb bc bf e1 fb be a7 2e 13 bd 34 ee 6b bf
       -0.030725332 -0.49195668 -0.035933163 -0.92160344
000160 62 57 f8 3c c5 d5 c8 be 41 0e 99 bd 55 03 27 bd
       0.030315105 -0.39225593 -0.07473422 -0.040774662
000170 57 12 9f bf 9a 53 a8 3c a5 dd b4 be e9 c2 59 bc
       -1.2427472 0.020547677 -0.3532535 -0.013291099
000180 9e f4 d8 3a 97 f2 ef be e2 48 ca be c4 32 18 bc
       0.0016552394 -0.4686477 -0.3950873 -0.009289447
000190 a5 eb 8b bb 25 50 ef be 2d 0f 21 be d3 4e 16 bd
       -0.0042700344 -0.46740833 -0.15728445 -0.036696266
0001a0 2c 8f 4e bf f9 eb 0e bd f7 f6 a9 be 2e 55 7b bc
       -0.8068721 -0.03489301 -0.33196232 -0.015340133
0001b0 a7 8a d4 3c 1a 1c 90 bf 18 b5 a3 bf a9 f4 37 be
       0.02594502 -1.1258576 -1.278964 -0.17964424
0001c0 e1 b4 72 be f4 9c cb bd 50 18 1e bd 78 9a 1e bf
       -0.23701812 -0.09942046 -0.038597405 -0.6195445
0001d0 64 68 5c bf 89 17 cf bc 45 3b 5b bf 0d 40 f0 bc
       -0.8609679 -0.025279777 -0.85637313 -0.029327417
0001e0 23 25 72 be 5a f4 1b bf 06 ad 51 be e2 cc 3e bf
       -0.23646979 -0.60919726 -0.2047616 -0.74531376
0001f0 73 95 83 bd 3a 3c 56 bd 20 ab d7 bc bc a3 cd bd
       -0.064249896 -0.05230353 -0.026326716 -0.100409955

distribution.log_sigma f4 [1, 2]
000000 99 08 47 bf 9d ea 68 bf
       -0.77747494 -0.9098299

distribution.mu.weight f4 [2, 128]
000000 d2 59 ff bc 24 c8 4f ba 45 83 59 3c 1c fc ed 3a
       -0.03117076 -0.00079262466 0.013275926 0.00181568
000010 ee 2f 0c 3b 9a 97 d1 ba f6 1d 79 3b 33 19 09 be
       0.0021390873 -0.0015990615 0.0038012243 -0.13388519
000020 74 0c 28 3b 57 2e 0a 3b 41 67 3f bd f6 8a 03 3c
       0.0025642188 0.002108475 -0.04672933 0.008028736
000030 86 fa 82 b9 82 67 b1 3a 48 62 c3 b9 74 f8 83 3d
       -0.00024982187 0.0013534876 -0.00037266524 0.06443873
000040 47 04 21 bb aa 48 60 3b a0 b5 45 bc 93 26 79 bd
       -0.00245692 0.0034222999 -0.012067229 -0.060827803
000050 8d aa 60 3a bd 90 ea b8 38 4a 61 bb ea eb ad bb
       0.0008570336 -0.00011184949 -0.0034376513 -0.005307664
000060 3d e1 9c bd 50 31 50 bd 65 b0 59 bb e9 fd 2f 3b
       -0.07660148 -0.050828278 -0.0033216712 0.0026854223
000070 d5 f8 d0 3c 55 4e 17 3d 4c d9 ae ba 18 e9 14 3b
       0.025509277 0.036939938 -0.0013339906 0.0022721943
000080 3d af f1 bc 21 41 43 ba 12 a0 32 39 1c e1 85 bc
       -0.029502505 -0.00074483646 0.00017035034 -0.016342692
000090 48 15 40 3b 45 c6 c4 39 03 b3 f9 b9 72 72 cf 3d
       0.002930956 0.00037531756 -0.00047626355 0.101292506
0000a0 5c a8 71 bb a4 ae 05 3e 63 60 cd 3a 64 ae 8e ba
       -0.0036874032 0.13054901 0.0015668984 -0.0010885713
0000b0 80 09 92 bb b5 25 54 3d ea 43 33 bc 27 0e 32 3e
       -0.004456699 0.051793773 -0.010941485 0.17388211
0000c0 50 c1 b0 3d db 42 05 bb 04 0c 2d 3a 76 38 fb ba
       0.086306214 -0.0020334038 0.0006601217 -0.0019166607
0000d0 66 aa 48 3b 18 9f d1 b9 85 19 9b 3a 73 17 c1 ba
       0.0030619144 -0.0003998212 0.0011833167 -0.001473172
0000e0 65 ee 87 ba 90 a6 5c ba b6 aa 84 3d 1a 8c 4c 39
       -0.001037073 -0.0008417154 0.06477873 0.00019507148
0000f0 79 58 07 3b 71 73 a4 bd ce 92 4f ba 40 01 b0 bb
       0.00206521 -0.08029831 -0.0007918299 -0.0053712428
000100 9a 82 04 3e 75 65 97 39 6f 83 8c 3d 9b 6b 59 bb
       0.12940446 0.00028876556 0.068610065 -0.003317571
000110 82 7a ae 3a 5f 08 4e 3d 5f c9 c9 bc 41 64 2e 3c
       0.0013311657 0.050300952 -0.024632154 0.01064402
000120 cd b5 de 39 72 a7 d6 39 cf a0 86 3a e2 6f bd 3a
       0.00042478592 0.00040942017 0.0010271313 0.0014452899
000130 08 89 c8 3c 18 47 15 bb cc 6e 73 3a 6b ed 41 3b
       0.024479404 -0.002277797 0.00092862244 0.0029590975
000140 c7 38 a7 3d 1d 2b e2 3a 27 e0 cd ba c0 a8 79 3b
       0.08165126 0.001725528 -0.0015707061 0.0038094968
000150 99 01 a2 bb 2a 14 c5 bb e4 1b e6 ba 23 14 67 bd
       -0.004944038 -0.0060143666 -0.001755592 -0.05641569
000160 8b 14 69 3b 12 51 2a bc 34 07 07 3b 06 dd 7f 3b
       0.0035565223 -0.010395305 0.0020603659 0.0039041652
000170 d5 5d 14 bc a7 59 84 ba dc f5 8e 3b aa 33 d2 ba
       -0.009055574 -0.0010097519 0.004362805 -0.0016037126
000180 b0 d5 d6 39 8c c5 22 bc e5 50 fa 3d e7 63 32 ba
       0.0004097647 -0.009934794 0.12222461 -0.0006805048
000190 b2 f9 7a ba 89 82 ff bc 51 12 98 3d a4 ed 2b bb
       -0.00095739507 -0.031190174 0.074253686 -0.0026234174
0001a0 90 b1 40 bc 78 65 fd bb 7b 06 af bd 8a fe 2f bb
       -0.011761084 -0.0077330433 -0.08546158 -0.0026854598
0001b0 32 1c 02 bc 4b c8 53 3d 60 ae cf 3b 2b 0d 17 bd
       -0.007941293 0.051704686 0.006337926 -0.036877792
0001c0 cf bf 30 bd 66 de a4 bb 53 14 79 bb 52 47 d8 bd
       -0.043151673 -0.005031395 -0.00380065 -0.10560478
0001d0 05 c5 8e 3c 05 52 99 ba 8b a3 53 3d 58 8f 0c 3b
       0.01742793 -0.0011697417 0.05166964 0.0021447744
0001e0 92 86 7c 3d 52 1a c0 3d 96 ff 6c bd eb 68 cb bd
       0.061651774 0.0938002 -0.057860933 -0.09932121
0001f0 a3 85 42 3a 20 27 18 bb c0 e8 e6 39 59 80 6f 3b
       0.0007420426 -0.002321668 0.0004404243 0.0036545007
000200 77 ab 31 bd 9d 7b 23 bb 29 dc 03 be fe 3e 0d 3b
       -0.043376412 -0.0024945505 -0.12876953 0.002155244
000210 da 83 bb ba f8 44 6e 3b 62 8a a8 bb 47 98 b5 3c
       -0.0014306263 0.0036357027 -0.0051434496 0.022167338
000220 73 d3 9a 3c 4c bb 17 bb 75 53 5e bd 27 eb cb bb
       0.018899655 -0.002315241 -0.05427881 -0.0062231007
000230 04 cf c6 bb b7 9a 40 bc 3d 32 f4 3b 65 8b 5e bd
       -0.0060671587 -0.011755637 0.007452278 -0.054332156
000240 89 e3 d7 3b db 30 b8 bb 81 62 d5 bd 99 33 81 bc
       0.0065884036 -0.0056210584 -0.10419179 -0.015771674
000250 47 15 e0 ba ee b3 18 3c cd a8 e1 ba 17 d3 e1 3b
       -0.0017096185 0.009320242 -0.0017216444 0.006891619
000260 cf dd d9 bd 39 0a de bc 53 0a 0f 3a a8 36 b4 bb
       -0.1063801 -0.027104484 0.00054565555 -0.0054996796
000270 57 85 0e 3c 34 75 25 3c aa ad 66 3b a7 16 d5 3b
       0.008698783 0.010098744 0.0035198727 0.0065029445
000280 c4 bc 82 bd 1f 25 16 3c e9 62 7c bb bc 7c 4b 3d
       -0.063836604 0.009164124 -0.0038511103 0.049679503
000290 d5 2f b3 3b db 0a 1a bb b7 f8 6e 3b 7f b9 ab 3d
       0.0054683485 -0.0023505006 0.0036464164 0.0838499
0002a0 2b 53 f7 3b 18 c1 3c bb 1c 0c d3 3a 21 b0 9a 3b
       0.007547756 -0.0028801616 0.0016101631 0.0047207032
0002b0 e0 ed 64 3b 93 00 44 3b d2 96 d7 3c 51 2e de bc
       0.0034931824 0.0029907569 0.026317034 -0.027121695
0002c0 37 f3 41 bd da c7 1d 3c 33 88 37 3b af ca 90 3b
       -0.04735109 0.009630168 0.0028004765 0.004418693
0002d0 72 af f3 bb 9a 8e 25 3c 57 4a 3b bb cf 7e 52 3b
       -0.007436686 0.0101048 -0.0028578246 0.003211904
0002e0 c9 04 65 3b 12 8b 23 3c 7d 81 31 bd 07 0e e5 39
       0.003494548 0.009981887 -0.04333638 0.00043688735
0002f0 91 12 d6 bb 83 c4 b1 bd f4 41 f4 3b 9e 3c 16 3c
       -0.006532975 -0.0868006 0.0074541513 0.009169726
000300 29 08 1d bc 45 53 e1 ba 7d 51 f2 bc 3c 7e a4 3b
       -0.009584465 -0.0017190954 -0.029579872 0.005019931
000310 78 01 13 bc 30 f6 dc bc 02 c6 0e 3d 7a be 5b be
       -0.008972518 -0.02697286 0.034856804 -0.2145938
000320 0b d5 24 bb 8c f7 a2 b9 4d b6 12 3b 22 a2 ea 3b
       -0.0025151398 -0.00031083485 0.0022386492 0.007160441
000330 7c f6 c7 bc 7b 67 55 39 40 b5 48 bb c2 c8 43 bc
       -0.024409525 0.00020351812 -0.0030625612 -0.01194972
000340 e3 44 7b bd 39 d5 aa bb 4c e6 e3 3a a5 12 06 bc
       -0.061344992 -0.0052134064 0.0017387359 -0.008183156
000350 7d cf 2a 3c f3 03 bc bc d1 62 3e 3b f0 40 59 3d
       0.010425446 -0.022951102 0.0029050598 0.053040445
000360 c0 99 ff 3b ec 7e 9d bd cf d1 18 bb 92 d8 24 bb
       0.007800311 -0.07690224 -0.0023318415 -0.00251535
000370 c8 1b 03 bc 61 17 f7 ba b5 6c 7c bc d3 51 06 3c
       -0.008002229 -0.0018851572 -0.015406777 0.008198219
000380 60 c5 f5 bb d5 94 22 bd f5 e1 a6 bd 50 79 16 3c
       -0.0075003356 -0.03969272 -0.08148567 0.009184197
000390 6b 8b 17 3b c4 91 ee 3b 16 46 2e be ab 1a 72 3b
       0.002312387 0.00728056 -0.17018923 0.0036942165
0003a0 bb 6b c2 3c 8e 34 4a 3b ea a6 85 bd ee 5c 90 3b
       0.02373301 0.003085408 -0.06525977 0.0044056093
0003b0 1e c2 17 3c f6 c1 ba bc a7 2b 82 3c 45 b1 3c bc
       0.00926259 -0.022797566 0.015889956 -0.011516874
0003c0 6a 56 d0 bd 0e 15 2e 39 0b 83 c3 3b f6 8b 1f 3d
       -0.10172732 0.00016601777 0.0059665493 0.038951837
0003d0 d0 ad 78 3c b2 92 92 3b a1 b6 29 bc f1 d6 46 bb
       0.015178159 0.004473054 -0.0103584835 -0.0030340517
0003e0 20 79 9b bc 30 d4 99 bd 01 4f 35 be 30 c1 73 3d
       -0.018978655 -0.07511175 -0.17705919 0.05951041
0003f0 5a ca a1 3a f6 d4 1c 3c 95 ce 50 3b fd 06 9f bb
       0.0012343631 0.009572258 0.0031861414 -0.004853128

distribution.mu.bias f4 [2]
000000 42 65 95 3d 24 42 3b be
       0.07294704 -0.1828695

critic.network_body.vector_processors.0.normalizer.running_mean f4 [4]
000000 dd fc 0c 40 0d ac 76 3d 52 f5 1c c1 1b a1 9d 3f
       2.2029335 0.060222674 -9.809893 1.231479

critic.network_body.vector_processors.0.normalizer.running_variance f4 [4]
000000 49 ad 4e 4c 99 05 54 4b 33 b2 14 4b e6 a6 51 4b
       5.4179108e+07 1.3895065e+07 9.744947e+06 1.373975e+07

critic.network_body.linear_encoder.seq_layers.0.weight f4 [128, 4]
000000 1b 85 48 bf 64 1e 62 be f5 b0 fa be 60 0e 98 be
       -0.783281 -0.22081906 -0.48963133 -0.29698467
000010 0f fa 2b bf 63 d3 32 bf 61 d6 b9 3e b4 b6 9c 3f
       -0.67178434 -0.698538 0.3629637 1.2243257
000020 a9 87 c1 be 2a f7 95 be b5 2c 00 3e fc 70 63 3f
       -0.37798813 -0.29290134 0.12517054 0.88844275
000030 03 73 59 be 69 76 84 bd 31 50 43 bf fe 3f fa bd
       -0.2123528 -0.064678974 -0.7629424 -0.12219237
000040 f3 3c 6d bd fa 03 aa bf 48 c2 31 3f 11 6c 25 bf
       -0.057919454 -1.3282464 0.69437075 -0.6461802
000050 8b a1 b4 3e c5 56 04 3f 99 57 31 be e6 b0 c1 be
       0.35279498 0.516949 -0.17318572 -0.37830275
000060 11 83 57 be 5c cc 60 be 0d 10 ef 3d 89 28 a5 3e
       -0.21046092 -0.21952957 0.11672983 0.32257488
000070 f0 bc 70 3e d5 2d 35 3e d6 d6 02 3f f7 5c 54 3e
       0.23509574 0.17693265 0.51109064 0.20738588
000080 15 d9 23 be ed 7a 22 3e bf ac ac bc 15 28 a8 3e
       -0.16000779 0.15867205 -0.021078466 0.3284308
000090 45 31 03 c0 88 a4 bf 3e c5 50 db 3e 72 a5 f2 3d
       -2.0498822 0.37430215 0.4283506 0.118479624
0000a0 3f f9 90 bf c3 14 7d 3e 75 8a 0d be 70 d7 3f bf
       -1.1326064 0.24714951 -0.13822348 -0.74938107
0000b0 a7 6d 02 bf 1c 8f d2 3f 27 51 92 3f bb 19 98 3e
       -0.50948566 1.6449924 1.1431016 0.2970713
0000c0 33 5c fc 3e d0 93 ac bd ab 9f 8c be 06 69 a2 3f
       0.49289092 -0.084266305 -0.27465567 1.2688301
0000d0 04 a9 f0 be 35 4d 34 3f 70 ac 1a bf f9 d5 cb 3d
       -0.4700395 0.7043031 -0.6041937 0.099529214
0000e0 39 ef 0e be 3c ed 3d bd e3 f6 23 3e 04 d3 b5 3e
       -0.13958444 -0.046368822 0.16012149 0.35512555
0000f0 3b ff b2 3f a5 8d 16 3f bb 3f 8f 3f 6e df 9b 3d
       1.398414 0.5880988 1.1191324 0.07610975
000100 bd 2e 7d 3d a9 15 ef 3c 4a 6d 08 bb 8d a2 86 bb
       0.06181215 0.029185133 -0.0020817094 -0.004108733
000110 47 4c 6a 3f 56 57 93 3e 1f 6d 34 3f 14 60 28 be
       0.9152264 0.2877757 0.70479006 -0.16442901
000120 dd b5 b5 bf d3 2b 07 3d c2 69 57 bf aa de a2 bf
       -1.4196125 0.03300078 -0.8414575 -1.2724202
000130 db 70 13 3f ce 0b f4 3e 87 7f 0e 3c 9e 45 88 bf
       0.5759408 0.47665256 0.008697397 -1.0646245
000140 6e 6c c0 3f 0f ea 76 bd 32 54 07 be 93 df f2 3e
       1.503309 -0.06028181 -0.13215712 0.474362
000150 2a ba 35 be 7b 4d 23 ba e4 79 7e bd f3 43 fc 3d
       -0.17746797 -0.0006229502 -0.062127963 0.12317648
000160 d5 cf 9c 3e 01 8d 80 3e 6c 68 01 3f 2c a8 01 be
       0.30627313 0.25107577 0.5054996 -0.12661809
000170 3c 60 11 3f 37 b3 08 3f b4 1c dd be 67 1d a5 bf
       0.56787467 0.5339846 -0.4318596 -1.2899598
000180 8b d4 9f 3f e4 77 10 bf 2c 18 7d 3d d3 df 17 bf
       1.2486738 -0.5643294 0.06179063 -0.59325904
000190 e7 5c e3 3e 52 20 4b 3e 53 13 0d 3e ba 8b fa be
       0.44406816 0.19836548 0.13776903 -0.48934728
0001a0 0e 32 c2 3f 60 41 85 bf a8 62 df bd 4f eb 25 3d
       1.5171525 -1.0410576 -0.10907489 0.04050761
0001b0 6a 29 d8 3e bd 15 af 3e b1 32 87 be 63 b0 8a 3f
       0.42219096 0.34196272 -0.26405862 1.0835079
0001c0 86 40 6f bf 61 24 b0 bf 32 12 3d 3f 48 e0 8c 3f
       -0.9345783 -1.3761102 0.7385589 1.1005945
0001d0 38 38 1e be 89 de 96 3d 7a 34 58 be cd e4 c1 3e
       -0.15451133 0.07366664 -0.21113768 0.37869874
0001e0 b2 ec 46 be 3c de ca bf 1a 8b ad 3e 20 f0 91 3e
       -0.1942623 -1.584907 0.3389519 0.28503513
0001f0 4e bf 68 3e 2f aa a2 3f 9b 94 15 bf ac ef 91 be
       0.22729227 1.2708186 -0.5842988 -0.28503168
000200 96 19 08 c0 df 8b 1e bf de bc 6e 3e 2e a9 4c 3f
       -2.1265616 -0.61932176 0.23314235 0.7994565
000210 00 92 d8 bf 74 9c 76 bd 0c f5 94 3f 20 55 68 3c
       -1.6919556 -0.0602078 1.1637282 0.014180452
000220 dc f1 51 3e 9c 64 07 3f 25 c0 18 bf a8 fb 9c bb
       0.20502418 0.5288789 -0.5966819 -0.004790742
000230 63 69 2e 3e 22 b8 76 3f 4e 72 b5 be 3e 80 99 bf
       0.1703239 0.96374714 -0.3543877 -1.1992261
000240 6b f9 ad be 9a a8 e2 bf 42 f0 1b 3e d4 98 51 3d
       -0.33979353 -1.7707703 0.1522837 0.05117114
000250 da 9f b3 3e 56 e8 67 3f 3b 39 37 3f 0b 27 37 be
       0.35082895 0.9058889 0.715717 -0.17885987
000260 84 46 82 bf 30 38 ca 3d 39 01 6b bf 70 09 a8 3e
       -1.017777 0.09873998 -0.9179874 0.328197
000270 3c c6 d7 3e dd a6 63 3f 35 5d 54 bf c0 87 97 be
       0.42143428 0.8892649 -0.8295472 -0.29595757
000280 da 41 07 bf 67 77 fb 3c cd 50 6d 3e cc 54 0a 3f
       -0.52834857 0.030696584 0.23175354 0.5403564
000290 5e 34 ec 3f 05 97 94 3e 14 cd c6 3e 9b 20 22 3f
       1.8453481 0.2902147 0.38828337 0.63331
0002a0 72 9a c3 3e d2 bd 82 3e 15 31 60 3f ff 24 e7 be
       0.3820377 0.25535446 0.87574893 -0.45145413
0002b0 f9 24 c2 3e a4 53 96 3f d8 cc 8f be 7b 7d 5d bf
       0.37918833 1.1744275 -0.2808597 -0.86519593
0002c0 6e 88 ac 3d 86 c7 14 bf 0b 59 12 c0 51 b9 b4 be
       0.084244594 -0.5811695 -2.2866848 -0.35297635
0002d0 28 52 e0 3d da 92 ea 3d af 78 03 3e 3c 0c 9d bd
       0.1095317 0.11453791 0.12839006 -0.07668349
0002e0 2e 0d ff 3e 45 01 0b bf d7 15 2a bf 80 d3 89 3f
       0.49814743 -0.5429881 -0.66439575 1.076767
0002f0 2a ba 19 bd a9 81 82 3f 81 e4 28 3f 76 57 c2 3e
       -0.037531056 1.0195819 0.6597367 0.37957352
000300 7e 13 09 bf eb bf 99 be b3 38 27 3e 07 a3 91 3f
       -0.5354537 -0.30029234 0.16330223 1.1377877
000310 88 07 7d bd d0 9f ae bc fd 32 18 3c 27 d7 d6 3b
       -0.06177476 -0.021316439 0.0092895 0.00655641
000320 3c 8d 67 be 0c c0 c7 bf 82 21 ac be 74 86 9b be
       -0.2261247 -1.5605483 -0.33619314 -0.30376017
000330 f9 c0 2e 3f 23 2f 14 3f 2d 56 38 be b4 56 56 bf
       0.682632 0.57884425 -0.18001623 -0.8372605
000340 cf 77 90 3e 32 9e af 3e 80 4a 7a 3e 6b 34 07 bf
       0.28216407 0.3430038 0.24442482 -0.5281436
000350 ca 13 b6 bd 33 b0 f3 3d 14 e3 7c be 28 25 ed 3d
       -0.08890493 0.11898842 -0.24695998 0.115793526
000360 f0 3b 06 3f d9 a6 cb 3e fb 00 56 bd e4 b2 71 be
       0.5243521 0.39775732 -0.05224703 -0.23603398
000370 4f 95 ef 3d 7a f0 3b 3b fc cd 83 bd fe 6e 52 be
       0.116984 0.002867727 -0.06435773 -0.20550153
000380 16 6a db 3d 4f 74 f3 3e 00 24 81 be a7 7e fe 3d
       0.10713594 0.47549674 -0.25222778 0.12426501
000390 8a 56 34 3f 8b 16 b2 3e 19 5e 29 bf 58 57 bf be
       0.7044455 0.34782824 -0.66159207 -0.37371325
0003a0 b0 2e 6f 3f 7b 1d 12 3f f4 94 29 3e 8e e9 09 bf
       0.93430614 0.57076234 0.16560727 -0.53872
0003b0 0e fa 44 3e 26 e2 d3 3d ca e3 41 3e 7b cf 94 bd
       0.19236013 0.10345869 0.18934551 -0.07266136
0003c0 d0 94 42 bf 5e 89 45 bf 17 60 82 bf cd 30 4d bc
       -0.7600832 -0.7716273 -1.0185574 -0.012523842
0003d0 98 21 90 bf b4 bc 1c bf b5 08 8f be 59 36 75 3e
       -1.1260252 -0.6122544 -0.2793633 0.23946513
0003e0 35 90 45 3f ce f1 93 3e ec 23 49 bf 5c a1 a8 bd
       0.7717317 0.2889542 -0.7857044 -0.08233902
0003f0 97 6d b5 3e 5e 12 e2 be 29 94 60 3f ac ba bc be
       0.35435173 -0.44154638 0.87726074 -0.3686117

critic.network_body.linear_encoder.seq_layers.0.bias f4 [128]
000000 8d d2 c7 3e 01 5a 12 3f aa 8c b0 3e 21 c7 9c be
       0.39027825 0.57168585 0.34482318 -0.30620673
000010 71 b0 c0 3e 2a 06 53 3e d9 9f f3 3e 45 bd 37 3d
       0.37634614 0.2060782 0.47582892 0.044858236
000020 00 6e fb be c3 84 88 bd 17 32 22 bf 11 a1 48 3d
       -0.4910736 -0.06665947 -0.6335768 0.04898173
000030 a5 bf ec be 78 4f a2 3d 5a d4 a4 3e 9f 4d 32 bd
       -0.46239963 0.07925314 0.3219326 -0.043531056
000040 d2 7b f7 3c 51 32 9c be 8b 8d 2d 3e d8 51 aa 3e
       0.03021041 -0.30507138 0.16948526 0.33265567
000050 c2 0a db be 98 0f cc 3e 74 cf 13 3f e4 83 9f 3e
       -0.42781645 0.39855647 0.57738423 0.31155312
000060 cd 46 3e be ec 27 82 bd 8c 20 21 3e 7f b0 ba be
       -0.18581696 -0.06355271 0.15735072 -0.3646278
000070 52 e3 0e 3f 5c 7a a3 be c0 68 1d bd d2 f9 cf be
       0.55815613 -0.3192929 -0.038429976 -0.40620285
000080 ef 0e 8d 3e db ef fa bd 51 42 17 bf b7 7f f5 3d
       0.27550456 -0.1225278 -0.59085566 0.1198725
000090 77 64 b0 3e 28 ab af 3e 94 83 46 3e 33 6f 08 3e
       0.3445165 0.3431027 0.1938613 0.13323669
0000a0 0c 23 81 be 7f c2 ba bd af 04 ba bd f8 10 5e 3e
       -0.2522205 -0.091191284 -0.090829246 0.2168616
0000b0 f9 a1 c8 3e d2 f1 2a bf 3c c5 bf be 62 6a cb 3d
       0.39186075 -0.6677524 -0.37455165 0.099324
0000c0 64 d3 a4 3e d5 c9 7a 3e 67 72 c0 3e c6 5d 99 3e
       0.32192528 0.24491055 0.37587282 0.29954356
0000d0 6f 17 98 3e 64 ff c6 be 55 52 a5 3d 03 9d 91 be
       0.29705378 -0.38866723 0.08072344 -0.28440103
0000e0 54 5a 23 be 69 78 f7 be 05 69 ad 3e 70 e1 42 3e
       -0.15952426 -0.48334053 0.33869186 0.1903131
0000f0 17 98 1f 3f 36 70 ec bd 05 d5 78 be d8 e4 7b be
       0.62341446 -0.1154484 -0.2430001 -0.24599016
000100 84 34 be 3e 4e 87 a8 3e f6 7e da 3c 8b 21 33 3e
       0.3714944 0.3291573 0.026671868 0.17493264
000110 5a 99 84 be 3f d1 bf be ce d2 af 3e dd e2 31 3e
       -0.25898248 -0.3746433 0.3434052 0.17371698
000120 f6 f3 cc 3d 42 8a eb 3e be 78 81 bd eb 97 b5 3e
       0.10007469 0.4600392 -0.06321858 0.35467467
000130 56 01 2c bd 36 75 64 bd 69 25 39 3e 99 60 af be
       -0.04199346 -0.055775844 0.18080677 -0.34253386
000140 ea e5 14 3e 08 a1 a1 be 44 30 42 be 1b 3f 22 be
       0.1454083 -0.3156817 -0.18963724 -0.15844385
000150 51 a0 21 bf 62 38 0d 3f a0 a6 02 bf 8e f6 b9 3e
       -0.6313525 0.5516416 -0.510355 0.3632092
000160 1b 92 9b 3c cd 72 6d 3d e9 83 83 be 57 5f 53 3d
       0.018990567 0.05797081 -0.25686577 0.051604595
000170 81 3a bc be 07 a1 5d 3e 2e 77 da be 13 1f f7 be
       -0.36763385 0.21643458 -0.42669052 -0.48265895
000180 b4 82 58 bc f6 10 92 be d5 e5 d9 3e 9e d1 70 be
       -0.013214756 -0.28528565 0.4255816 -0.23517463
000190 77 1d e4 3e 96 8a 83 3e a1 b5 bb be d7 31 da be
       0.4455373 0.2569167 -0.3666201 -0.4261615
0001a0 1a 3d fb 3d c9 df 18 3f 79 74 d0 bc f3 e9 3e be
       0.122675136 0.5971647 -0.025446163 -0.18643932
0001b0 12 b9 92 3e 6b b0 9c be bd 52 09 bf 2a 90 d9 3e
       0.28656822 -0.30603346 -0.53641874 0.424928
0001c0 36 06 21 be 1d 2c fe be a3 7b c2 3e 0a 52 00 3e
       -0.15725026 -0.4964303 0.37984952 0.12531295
0001d0 b7 37 aa be a8 78 39 3e 18 80 0d bd d7 ec 0a 3e
       -0.33245632 0.18112433 -0.034545988 0.1356691
0001e0 88 ad be 3e 0d 4a 11 3f a3 62 3c 3d 7d e5 20 3c
       0.3724177 0.5675362 0.045992505 0.009820339
0001f0 62 3e 88 3e 8a d9 9a 3e 63 4d 2e bc d1 69 11 3f
       0.26610094 0.30244094 -0.010638568 0.5680209

critic.network_body.linear_encoder.seq_layers.2.weight f4 [128, 128]
000000 f1 41 54 be 2d a9 12 bb 7f 1e e8 3d ba c6 e2 3d
       -0.2072828 -0.0022378669 0.11333942 0.1107306
000010 bd 79 89 bf b6 89 ba 3e b3 a3 45 3d 90 de 93 3e
       -1.0740277 0.3643319 0.04825182 0.2888074
000020 c0 f0 de 3d 81 e3 f3 bd 68 c3 11 be a7 23 fa 3d
       0.10885763 -0.11908627 -0.14234698 0.122138314
000030 64 17 02 3e 78 95 7a 3e da ff 60 3e 31 75 d8 3e
       0.12704235 0.2447108 0.219726 0.4227691
000040 8a 24 0a 3e 16 c4 e7 3c cd 0f b8 3d b7 5a 82 bb
       0.13490501 0.028291743 0.08987389 -0.003978099
000050 d0 c2 27 bd c1 35 23 3e f9 80 08 3e 20 08 13 3e
       -0.040957272 0.15938474 0.13330449 0.14358568
000060 a1 f7 d2 be 3a e4 36 be e7 89 0c bf 01 34 71 3e
       -0.4120455 -0.17860499 -0.5489792 0.23554994
000070 b2 fd d0 bd b5 2b e1 3e 3a ff 01 bf 7d bd f7 3e
       -0.102046385 0.43978658 -0.5078007 0.48386756
000080 2a bc 80 be 94 18 ff be c6 10 e7 3e 0e be 88 3e
       -0.25143558 -0.4982344 0.45129985 0.267075
000090 51 a4 21 bf 02 04 ba 3e ad 6b a9 bc 2c 75 eb 3e
       -0.6314135 0.36331183 -0.020681227 0.45987833
0000a0 ed 4a 83 bd 4a d7 05 3e f8 f4 fe be 45 a2 c1 3e
       -0.06410775 0.13070408 -0.4979627 0.37819114
0000b0 0f ee e7 bc 44 a0 51 3d 73 7e e6 bb 58 c1 40 3e
       -0.028311757 0.05117823 -0.007034117 0.18823755
0000c0 86 f6 2a 3e dc 7c ed be b1 66 6a bf 7f d8 9c 3e
       0.16695604 -0.46384323 -0.91562945 0.30633923
0000d0 f3 98 df bd 86 df 96 3e 05 5b d1 3e 8a 70 a8 be
       -0.109178446 0.2946741 0.40889755 -0.3289836
0000e0 8a 48 99 3e 9f cd 2a 3e fb 97 f7 3e d2 31 b8 3b
       0.29938155 0.1668 0.4835814 0.0056211734
0000f0 c0 38 b3 bc 39 99 8b be c5 cc 89 3e 38 0d ee be
       -0.021877646 -0.27265337 0.2691404 -0.4649446
000100 e5 1d 93 bd 4b 77 a4 3e 08 1a d7 bc 3b c3 1c be
       -0.07183436 0.32122263 -0.02625753 -0.1530885
000110 7a 46 d2 3e ff 8c 9c 3e bb 1d 75 3e f2 60 93 3e
       0.41069394 0.3057632 0.23937123 0.287849
000120 cf 83 8b 3e 97 8c 94 3e 0e c8 f0 be 50 72 5f 3e
       0.27249 0.29013512 -0.4702763 0.2182095
000130 cd c1 e0 be 91 ca ac 3d 52 07 55 3d 7f 62 0a 3e
       -0.43897858 0.08437074 0.052008934 0.13514136
000140 6e 0c 40 be f9 cb 89 bc cc 1e b3 3e 09 3d 6f 3e
       -0.18754742 -0.016820895 0.34984434 0.23363127
000150 ec f0 91 be 22 f8 4d be 96 2a e9 3e c4 08 55 3e
       -0.2850412 -0.20114186 0.45540303 0.20804125
000160 41 d7 7d bf 04 76 d4 3d ff 7d 3e 3d 42 e5 c1 be
       -0.99156576 0.10374072 0.046506878 -0.37870222
000170 87 b6 c2 be 07 76 4a bf 62 73 4a bf 84 65 1e be
       -0.38029882 -0.79086345 -0.7908231 -0.15468413
000180 f7 66 e0 3e 7f 8d 83 3e 74 d8 e0 be 8b 16 74 3e
       0.43828556 0.2569389 -0.4391514 0.23836724
000190 94 6c 17 be 3e fe 85 3e b3 23 f7 be a4 fa 19 be
       -0.14787513 0.26170534 -0.48269424 -0.15037018
0001a0 e9 f5 80 bf 4e a5 46 be 54 54 41 3e 65 1e e2 bc
       -1.0075046 -0.19398996 0.18879825 -0.027602384
0001b0 9c 45 94 3e 0e 8c 23 3e 2f 14 b2 3e a1 30 c1 3d
       0.28959358 0.15971395 0.34781024 0.09433103
0001c0 b0 7f 01 3e 55 43 27 bf 80 12 91 be dc 0a d3 bd
       0.12646365 -0.65337116 -0.28334427 -0.10304806
0001d0 a7 75 41 be eb 51 2d bf 61 4a a7 3e b3 0c bb 3e
       -0.18892537 -0.6770312 0.32673934 0.36533126
0001e0 fa c7 bb bc 41 fd ee 3c d2 08 1b 3d ac 6a e1 3c
       -0.022922505 0.029173495 0.03785021 0.027516685
0001f0 44 23 a0 bd 77 8e b9 3e 5e d0 ac 3e 31 a4 03 3e
       -0.078192264 0.36241505 0.33752722 0.12855603
000200 7a d0 b0 3d cb f6 fa 3c 6e 96 b9 3e 33 31 2a 3d
       0.08633514 0.030635258 0.3624758 0.041550826
000210 08 4c 98 be eb a6 92 bd 85 84 c6 bd e5 ca de bd
       -0.29745507 -0.07160743 -0.09693245 -0.10878543
000220 b9 09 55 3d 9c 1b 96 3d f2 1a 24 be 18 47 c1 3d
       0.052011225 0.07329485 -0.16025904 0.09437388
000230 ac 3a 6c bc 70 0f 34 3d 53 15 66 3d 90 85 87 bd
       -0.014418285 0.043960035 0.05617268 -0.06617272
000240 da 2a a6 be bf 6b 49 be d9 fa 21 bd 50 8a 24 bd
       -0.32454568 -0.19670008 -0.039545868 -0.040170968
000250 a9 a6 9e be 7e 74 5c be 54 d0 20 be 6f 71 46 3e
       -0.30986527 -0.21528813 -0.15704471 0.19379209
000260 4d 2f da be 1a 86 50 be 2c d1 7a be d3 f5 92 bc
       -0.42614213 -0.20363656 -0.24493855 -0.017939484
000270 a7 a3 6c be 13 51 72 3e 6e 81 14 bf b6 93 f2 bd
       -0.23109303 0.2366374 -0.58009994 -0.1184458
000280 81 0a 5c bd 41 12 b7 3d de 08 22 be 23 d1 9b bd
       -0.053720955 0.089390285 -0.15823695 -0.07608249
000290 a8 4b f9 be 0a 69 8b bc f3 4c 35 3d 93 ee ca bd
       -0.48690534 -0.01701786 0.044262838 -0.09908786
0002a0 83 fc 94 3e af f1 f7 bd ac 95 70 be ae 10 36 39
       0.290989 -0.12106644 -0.23494595 0.00017363086
0002b0 6f fa b1 bd 2b 74 0c 3e e5 36 8d 3e af 83 71 be
       -0.086903445 0.1371619 0.27580944 -0.2358539
0002c0 85 46 70 3e 07 51 24 be 36 60 0b bf 18 45 4b 3d
       0.23464401 -0.16046534 -0.5444368 0.04962644
0002d0 57 a0 4f 3d 18 21 6a 3d 8d 92 9a 3d f8 4a 23 be
       0.05069002 0.057160467 0.075474836 -0.15946567
0002e0 60 13 9f bd ac 63 a2 bd 3e 0b ad bb 56 e0 d1 bd
       -0.07767367 -0.07929167 -0.005280881 -0.10247867
0002f0 52 08 d8 3c 3d 7f d3 bc 7f 62 52 be 5a f4 9d be
       0.026371155 -0.025817508 -0.20545386 -0.30850488
000300 cd 02 9f bd 3c dd ac 3b f7 26 31 3e 02 37 b9 bc
       -0.07764206 0.0052753966 0.1730002 -0.022609238
000310 05 76 f3 be 41 a3 2e be fd 1f 4a 3d ad c9 e6 bd
       -0.4755098 -0.17054464 0.049346913 -0.11268935
000320 24 97 64 be 60 7a 05 be 66 8b 1e be 86 11 49 be
       -0.2232328 -0.13034964 -0.15482864 -0.19635591
000330 94 de 09 be 16 2e 64 3e 77 22 63 3c 5c 2a 1f 3e
       -0.13463813 0.22283205 0.0138631975 0.15543503
000340 c8 5a c5 be 36 29 8e 3c c6 8e 6d bd 67 f7 8f be
       -0.38545823 0.017353635 -0.057997487 -0.2811844
000350 2d 93 66 3d ae 04 8d be af 76 a8 be 94 cb 73 3d
       0.0562927 -0.27542633 -0.32903048 0.05952032
000360 61 ba 0b be 7f ce e4 3e d6 61 90 3c ed 7e 0c be
       -0.13645317 0.44688794 0.017624777 -0.13720293
000370 25 94 6d be a7 9c b2 be 0f b4 22 be ba a4 b2 3d
       -0.23201044 -0.3488514 -0.15889 0.08722825
000380 7c 49 54 3e b3 2d 0f be 2c ef 81 be fc 15 8c be
       0.20731157 -0.13982277 -0.25377786 -0.27360523
000390 fb 67 47 3e b0 5b c7 3d f1 16 19 bd 72 e7 5d be
       0.19473259 0.09734285 -0.037375394 -0.2167032
0003a0 e0 b9 e1 be e1 66 b4 bc d0 ca 13 3d bc 34 fc bd
       -0.44087124 -0.022021713 0.03608209 -0.12314746
0003b0 e1 38 f8 bc 05 08 ef bc 8e 81 c6 be 97 ba 14 3e
       -0.03030056 -0.029178629 -0.38770717 0.14524303
0003c0 25 e6 20 3e 69 94 0c bf d7 9f 1d be fe 55 d7 bd
       0.15712793 -0.54913956 -0.15393005 -0.105144486
0003d0 3c 7f f8 bb ce bb ad be 7a 11 a0 3d b5 59 93 3d
       -0.007583527 -0.33932346 0.078158334 0.07194845
0003e0 14 ba ce 3b ed ed 7b bb 41 eb a9 bd 6a ca e1 bd
       0.0063088033 -0.0038441375 -0.08296824 -0.110249355
0003f0 d9 cb 51 bd f8 c2 0c be 6b 1a e3 ba c0 f2 c1 bd
       -0.051219795 -0.1374625 -0.0017326599 -0.09470129

critic.network_body.linear_encoder.seq_layers.2.bias f4 [128]
000000 85 43 aa 3e c1 5b 46 bd 06 2a b8 bc 0d 81 a4 3d
       0.33254638 -0.048427347 -0.022480976 0.08032427
000010 b4 8e 83 be 28 e3 02 bf 9c 97 5b be bc 17 ad bc
       -0.2569481 -0.5112786 -0.21444553 -0.021129481
000020 2c 7f 41 3d cb b2 cf bc 37 f7 41 be bd 98 84 be
       0.04724042 -0.02535381 -0.18941961 -0.2589778
000030 2b 39 5b bc 82 d8 24 bf e1 38 73 be 16 6c 86 3e
       -0.013380329 -0.64392865 -0.23752166 0.26254338
000040 ae 66 c7 bd 27 06 5c 3e a3 3a bf 3e 0c 03 ea be
       -0.097363815 0.21486722 0.37349424 -0.4570545
000050 4d bc 80 be 2a f9 ce be f3 c3 41 bc a4 97 75 be
       -0.25143662 -0.40424472 -0.011826503 -0.23983628
000060 e8 b7 c3 be 78 a0 8d be b3 e0 43 3d 92 af 5a 3c
       -0.38226247 -0.2766149 0.04782171 0.013347523
000070 91 33 03 bf 5b 7b 8e bd 8d 1e cc be 9e e0 f7 bd
       -0.5125056 -0.06957122 -0.39867058 -0.12103389
000080 1d b4 36 be d9 e4 17 be 37 08 17 3d a6 58 cd be
       -0.17842145 -0.14833392 0.03687307 -0.40106696
000090 0c a4 b0 be 71 17 6b be c3 02 6e be 7a e2 5d 3d
       -0.34500158 -0.22958161 -0.23243241 0.054171063
0000a0 45 44 b6 be 40 a8 cc bc 8c 86 59 be cd bf 5c 3e
       -0.3559896 -0.024982572 -0.21242732 0.21557541
0000b0 7e ef 95 be 88 d4 03 3f de 36 b4 bc be a4 15 bd
       -0.2928428 0.5149617 -0.021998819 -0.036534064
0000c0 6a 7e 29 be cf 09 0f be 4a ff 8f be 3e 61 ae 3d
       -0.1655213 -0.13968585 -0.28124458 0.08514641
0000d0 69 58 be 3d b0 61 0c 3d 7c 12 a1 bd 72 e5 94 bd
       0.09294207 0.03427285 -0.07864854 -0.07270326
0000e0 de 6b 99 bc 23 b6 55 be 7d a2 f6 b9 71 1b 8d bd
       -0.018728193 -0.20870261 -0.0004704184 -0.0689
0000f0 e6 63 00 bf 45 38 ff bb a7 03 05 bf 5c 96 20 3f
       -0.5015243 -0.0077886903 -0.519587 0.6272943
000100 68 9a 90 3e 44 07 4e 3c 11 d1 c5 be 75 1c 15 bd
       0.28242803 0.012574974 -0.38636068 -0.036404092
000110 9c c0 ab be 6f b0 38 bf 3d 13 ae bd ed 7f 56 be
       -0.33545387 -0.72144216 -0.08499763 -0.20947237
000120 f2 a4 29 ba 79 b8 ab be 06 36 a5 bd b1 df a2 3d
       -0.0006471417 -0.3353918 -0.08066945 0.07952822
000130 34 1b 46 be 34 cf f2 3a 5e 5f a9 be a8 60 32 bd
       -0.19346315 0.0018524886 -0.33080572 -0.04354921
000140 bb cb cd be 89 09 52 3e 76 11 cb be 37 3e d4 3e
       -0.40194497 0.2051145 -0.3966176 0.41453716
000150 50 75 f6 3c 30 73 37 bd 8c 1d 0e 3c 3e 84 d4 bc
       0.030085236 -0.044787586 0.008674037 -0.025941964
000160 05 ec e3 3e c3 14 25 3d d2 bf 27 be 0b c3 d7 be
       0.44516006 0.040303003 -0.16381767 -0.42140993
000170 a2 5e e5 3e 94 d3 ae be b8 6a e6 be 94 3e a6 be
       0.44798762 -0.34145796 -0.45003295 -0.32469618
000180 e6 c6 bf 3c d0 5f be bd d5 c9 aa bd 2c 9d 15 bf
       0.023410272 -0.092956185 -0.08339278 -0.5844295
000190 54 7c ae be 6a 06 e0 3e c1 16 24 bd 97 b2 10 3d
       -0.3407923 0.43754894 -0.040060762 0.035326567
0001a0 8c e2 23 bd c6 ae 1d be b3 54 dd bc 20 2d 33 be
       -0.040010974 -0.15398702 -0.027017927 -0.17497683
0001b0 eb d5 00 3e 22 40 ba 3d 46 b8 3a 3d 84 97 f7 be
       0.12581603 0.090942636 0.045585893 -0.48357785
0001c0 d8 d3 a3 bb 54 6d 0d be 3d 6c a5 3e 08 c8 f7 be
       -0.004999619 -0.13811237 0.32309142 -0.483948
0001d0 88 bf 0c 3e ed 71 e3 3e 83 8f f0 bd 5e 6d ce 3e
       0.13744938 0.44422856 -0.11746123 0.40317816
0001e0 82 7f b4 3e 2d e8 ce 3d 81 47 be 3e 67 93 40 be
       0.3525353 0.10102878 0.37163928 -0.1880623
0001f0 17 43 c6 bd 7d 54 e0 be d4 4d e1 bd 3c 82 79 bd
       -0.09680765 -0.4381446 -0.11001173 -0.060915217
