ml-agents-master/ml-agents/config/results/ppo/LineCreator/LineCreator-130049.pt (torch, 434231 bytes, 40 tensors)

network_body.vector_processors.0.normalizer.running_mean f4 [4]
00000000: bf87 1240 f702 88bd 78a2 11c1 0c5b e73f
2.2895353 -0.066411905 -9.102165 1.807466

network_body.vector_processors.0.normalizer.running_variance f4 [4]
00000000: af28 804a 2c3e 8f49 4ee5 6949 4536 8649
4.1995115e+06 1.1734455e+06 958036.9 1.0994646e+06

network_body.linear_encoder.seq_layers.0.weight f4 [128, 4]
00000000: a357 0cbf 9b6b be3c e28a 92be a4b6 b5be
00000010: d29e fd3d 7de8 683e 0fc8 403c 1927 0cbe
00000020: 132a 3bbf 6578 d3be 77a6 57be fac2 243f
00000030: 5d85 25be b530 bbbe 9b49 4ebe 1235 8bbc
00000040: b446 ba3e c64b 91bd a0d9 83bd 270a c13e
00000050: 889b 0fbf d3b4 a3bc 1d7e 93bd a4f1 d7be
00000060: 3606 993e b0ba 3c3e c19e 4bbf 3135 693e
00000070: 76e9 f73e 55e6 9cbe f5c8 a2be 57cc 8abe
00000080: 2744 c8be b859 62bd 0611 cabe bd1c c7be
00000090: b5d0 3d3d d412 fe3d 5aac 88bd 4e6c 02be
000000a0: ba13 5abd 4ee9 093f fca0 debc da3c 01bd
000000b0: 2608 1f3e 7ef5 0ebe 650f e23e bdfd 633f
000000c0: a799 cebe 2052 0c3f 7312 483e 9b52 703f
000000d0: 54f3 06bf 4af4 8cbc a226 4dbe 2fb8 29bf
000000e0: 90db 003e eafb 603e c857 8a3f e96b 593e
000000f0: 5b01 253e 7c09 39bf 97b0 e0bd e0a9 6e3f
00000100: a795 083e 25fa 883f 78df 0a3f c5c3 1bbf
00000110: 9d1f 18be f9b4 46be b956 083e b01f 8ebe
00000120: 35a9 1bbf d7ee 063d 0400 03bf a29b b2be
00000130: c3b0 873f c1ee 46be 8ccc 52bd e10a f53e
00000140: be67 253f 9ed8 f63d 889a 35be 1003 1cbf
00000150: 03bd 8dbe 8047 d03e 6912 58bf d619 b3be
00000160: a563 db3c 14c4 3e3c 901c a1bd a85d d03b
00000170: 8310 acbd 4c25 4abf 500d a0bf fa2a 683f
00000180: 799f b93d 8805 3c3e 1395 193f f21b 2ebf
00000190: 9c37 1dbe 92a7 043f 7e43 33bd 81aa 633f
000001a0: 9645 b53e 935d 4fbc 9473 2a3e fedc 57bd
000001b0: 4a95 a93e 648b 1dbf 0560 923e 36d2 ba3f
000001c0: 3ec7 5abf 6a60 403d f6a6 c33d 8f7a f7ba
000001d0: c23c 28bf 6144 ecbe 502a 003f b301 1a3f
000001e0: 4f68 723e fe37 00bf caae 4a3f ac3b b6bd
000001f0: 9934 873e f26f 433e c9bd 26be c403 833f
00000200: bbd2 27bf ae3f f33e f610 a4bc 2da4 d2be
00000210: c30b 83bd f2df 6c3e be33 e3be 1657 2abe
00000220: 7e14 e93d d044 bcbe fd2b c2be a442 4d3f
00000230: 6571 da3e 7c5b ac3c 9826 893e 4aaa 433f
00000240: 6d73 53be 134c 783e 7b96 a9be cf05 9f3f
00000250: bada 56bf 9a0b b8be 9db4 08be ca6c 583e
00000260: a8a1 1bbe 6f66 83be 12b8 643e 5732 f8be
00000270: a9e1 7dbd 6fb1 f23d 3116 a8be 021c 80bd
00000280: f948 ea3e e5b1 103f 16bb 203e 9dec 00bf
00000290: 4ba0 70bd 12a0 d93e 22df 66bd 4617 d0be
000002a0: 4b7f 1c3e 5345 2f3e 873e 173f 6170 74be
000002b0: 3d94 bd3b ca43 d03e 87e1 c53d cbc8 0d3f
000002c0: e594 55bf b20e 383e f39f afbe ae28 3bbf
000002d0: dd0c f53d fd7a 9cbe a1b5 64bf ffdd bcbd
000002e0: 910e 763e eaa5 3c3e 3247 163f a447 a43e
000002f0: 6774 863e 38a3 bb3a a61b 573e 6778 313f
00000300: b337 febd eaed 17bd a2db 1cbc ae79 55bf
00000310: d572 c13e 6a4d a73e 0581 b73e 8812 7a3d
00000320: 0091 a73e e4be 2d3f 8f55 a03e ddbd c7bb
00000330: 22f8 19bd 32de 8a3f 599d 1b3f c19a 76be
00000340: 6dab f43e 8ea2 433f 797a 54bc 4dff f53d
00000350: 9612 74bd ed7c 4e3f 1764 fa3e 9581 84be
00000360: 7aee 45bf 2619 003f 46c8 c73e fb4b 3fbe
00000370: d228 083e 5b2b b23d 2f7e a2bf 2c78 b0bd
00000380: cc48 bdbe 6740 873d 944f 26be 4378 453f
00000390: 3837 703e 94db 31bd 5f91 243c ec96 ac3c
000003a0: 2245 bfbe 8d5a ab3e d5dd 59be 14de cebe
000003b0: 7617 863f 93f2 efbe 32eb ffbd 69ab 1dbf
000003c0: cc06 203e ef1a da3e e43a 43be c543 db3e
000003d0: d91b 65be 6449 36be 1b98 12bf 6eef 033e
000003e0: 4daf fa3d 9a30 51be 208a ab3f 7200 c7bc
000003f0: 6fbc 8cbc b690 1a3e f9de eabe 46fd 613e
-0.54821223 0.02324467 -0.28621584 -0.35490906 0.12383808 0.22744937 0.011766448 -0.1368679
-0.73111075 -0.4130279 -0.21059595 0.6436001 -0.16164155 -0.36560598 -0.20145266 -0.01699308
0.36382067 -0.07094531 -0.06437993 0.37703058 -0.56096697 -0.019983685 -0.072017886 -0.42176545
0.2988755 0.1843059 -0.79539114 0.22774197 0.48420304 -0.3064448 -0.31793943 -0.27109024
-0.39114496 -0.055261344 -0.39466113 -0.38889113 0.046341617 0.12405935 -0.066734985 -0.12736627
-0.05324147 0.5387162 -0.027176373 -0.031552173 0.15530452 -0.13960835 0.4415237 0.8905905
-0.40351602 0.5481281 0.19538288 0.93876046 -0.5271504 -0.01720633 -0.20034268 -0.66296667
0.12583756 0.21971098 1.0808039 0.2123257 0.16113798 -0.72280097 -0.10971182 0.9322796
0.13338338 1.0701338 0.54247236 -0.60845596 -0.1485581 -0.19404973 0.13314332 -0.2775855
-0.60805064 0.03294262 -0.511719 -0.34884363 1.0600818 -0.19427015 -0.051464602 0.47859862
0.64611423 0.12053035 -0.1773473 -0.60942173 -0.27683267 0.4067955 -0.8440309 -0.3498065
0.026780913 0.011643428 -0.07866776 0.006358821 -0.08401587 -0.7896316 -1.2504063 0.9069058
0.0906362 0.18361485 0.59993094 -0.6801139 -0.15353245 0.5181819 -0.043765537 0.88932043
0.35404652 -0.012656587 0.16645652 -0.05270099 0.3312171 -0.6154082 0.28588882 1.4595401
-0.8546027 0.046966948 0.0955333 -0.001888113 -0.6571771 -0.4614592 0.50064564 0.6015884
0.23672603 -0.5008544 0.79172957 -0.088981 0.26407316 0.19085672 -0.16283335 1.0235524
-0.65555924 0.4750952 -0.020027619 -0.4114088 -0.06398728 0.23132303 -0.44375414 -0.16634783
0.11380862 -0.3677125 -0.37924185 0.8017981 0.42664638 0.021039717 0.26787257 0.76431715
-0.206495 0.2424777 -0.3312262 1.2423648 -0.839275 -0.3594635 -0.13350148 0.2113525
-0.15198386 -0.25664088 0.22335842 -0.48475906 -0.061982784 0.11850249 -0.3282943 -0.06255342
0.457588 0.56521446 0.15696368 -0.50361043 -0.058746617 0.42504936 -0.05636514 -0.40642756
0.15282933 0.17116289 0.59079784 -0.23870994 0.0057854936 0.4067672 0.096621566 0.5538451
-0.8343032 0.17974356 -0.3430172 -0.7310895 0.11965344 -0.30562583 -0.89339644 -0.0922203
0.24028994 0.18422666 0.58702385 0.32085907 0.26260683 0.0014315611 0.21006641 0.69324344
-0.124129675 -0.037092127 -0.009573849 -0.83388793 0.37782922 0.3267625 0.35840622 0.06105283
0.32727814 0.678694 0.31315276 -0.0060956315 -0.037590154 1.0849059 0.6078697 -0.24082471
0.47787037 0.76419914 -0.012968653 0.120115854 -0.059588037 0.8065937 0.48904487 -0.25880113
-0.7731701 0.50038373 0.39019984 -0.18681328 0.13296822 0.08699676 -1.2694758 -0.08616671
-0.36969602 0.06604081 -0.16241294 0.7713663 0.23458564 -0.043422297 0.010044425 0.021068059
-0.37357432 0.33467522 -0.21276028 -0.40403807 1.047591 -0.46864757 -0.12496032 -0.61589676
0.15627593 0.42598674 -0.19065434 0.42825142 -0.22373904 -0.17801434 -0.57263345 0.12884304
0.12240467 -0.20428696 1.3401527 -0.024292205 -0.017179696 0.15094265 -0.4587324 0.22069272

network_body.linear_encoder.seq_layers.0.bias f4 [128]
00000000: 0d3b 8fbd 78c5 71be c31a d4bd 558c f5bc
00000010: c1c5 edbd 35fa 93bc 9b08 43be aa83 89be
00000020: f8ef 9ebd 4ec6 c4bc b68f 90bd 6fb2 d73b
00000030: a6f1 52be 269b 87bd 544c dabd cc8c c6bd
00000040: 324f da3c d03c a8bd fc2d b4bd ef79 9dbd
00000050: 279f 473c eab4 d6bd b1ff 3a3c f8b1 2fbd
00000060: cdf1 adbd 4da7 cebd fea1 1bbe 0fe2 3ebd
00000070: f678 8bbe 5b52 77bd 7a3b 9abc ac25 3ebd
00000080: 31e4 0cbe 60d1 f4bd 9c9e 86be dc47 e0bd
00000090: 6d5e 20be 3856 52be cf3e 27bc dc52 5cbe
000000a0: 024a 83bd 48e2 e73b 3972 9bbc 0cb3 b0bb
000000b0: 54d5 a1bd 1b49 90bd 60c3 8abd 1101 44be
000000c0: 92da cc3b a738 3dbc 8b51 45bd 179f 05bd
000000d0: 818c babd 5f25 84bd 149a f4bd 27b8 18bd
000000e0: 72cb 67be 8198 3ebd 0019 7bbd 0398 0fbd
000000f0: f6d5 0bbe 82a9 82be d636 47bd d599 16be
00000100: 084d a6bc 76be 40be 2c8e c43b 4749 b1bd
00000110: 45e5 833d 13b5 6fbd 0fd8 29be 9139 bdbd
00000120: 9dce 0bbe 22fc 43bd e87b abbc 5e35 0abd
00000130: 67ee 383d d575 13be b24e 37be ddf5 0139
00000140: 596f 76be 9125 86be dd41 c3bd bcde 4f3a
00000150: 48a4 d8bd 5a4a 1bbe a988 b3bb 0253 0cbd
00000160: d168 1bbc 2071 0cbd 0f16 b0bc 870c 3cbe
00000170: ca13 11bd 8697 e43c 93b0 2fbb 5065 92bd
00000180: a31e d5bd 8b8d c3bd 486e d63d f9b6 42be
00000190: 704c 253d 0548 0dbe 251f aa3c 91fe 76be
000001a0: 09f1 62bd c059 27be 9ee8 533d d55e 15bd
000001b0: aeda 37be d412 8cbd 4baa fbbd 4335 d6bd
000001c0: fff8 06bd d8fe 79bc c302 dabd 0127 fcbd
000001d0: d110 12bd a2c4 55bc da3a 1fbe 0089 19be
000001e0: 0379 7a3d 319c 7bbc 5e35 38be 0fc1 7e3c
000001f0: 8610 c0bd 0b6b 8bbc a9b9 8bbd 3812 ce3c
-0.06993685 -0.23610485 -0.10356667 -0.029974142 -0.11609984 -0.018063644 -0.19046251 -0.26858264
-0.07760614 -0.02402034 -0.07058661 0.0065825502 -0.20599994 -0.06621389 -0.1065909 -0.096948236
0.026649091 -0.08214724 -0.08797833 -0.076892726 0.012183941 -0.10483725 0.011413501 -0.042894334
-0.084933855 -0.10090504 -0.15198514 -0.046602305 -0.27240723 -0.060381275 -0.018827189 -0.046422645
-0.13758923 -0.119539976 -0.26292884 -0.10951206 -0.1566102 -0.20540702 -0.010207846 -0.21515983
-0.064106 0.0070765354 -0.018975364 -0.005392438 -0.07902017 -0.07045194 -0.06775546 -0.19141032
0.0062516415 -0.0115491515 -0.04817347 -0.032622423 -0.0910883 -0.064524405 -0.119434506 -0.037284996
-0.22636202 -0.046532158 -0.06130314 -0.03505708 -0.13655838 -0.2551995 -0.04863628 -0.1470712
-0.020300403 -0.18822655 0.0059983935 -0.08656555 0.06440214 -0.058522295 -0.16586326 -0.092394955
-0.13653035 -0.047847874 -0.020933107 -0.0337423 0.045149233 -0.14400418 -0.17901114 0.0001239399
-0.24065913 -0.26200536 -0.09534047 0.00079296133 -0.10578209 -0.15165082 -0.0054789376 -0.03425885
-0.009485439 -0.034287572 -0.021494893 -0.18364154 -0.035419263 0.027904283 -0.0026808127 -0.0714823
-0.10406234 -0.095484816 0.10470253 -0.19015111 0.0403561 -0.13797005 0.020766804 -0.24120547
-0.05540565 -0.1634283 0.051735513 -0.036467392 -0.17954513 -0.06839529 -0.1228834 -0.104593776
-0.032952305 -0.015258513 -0.10645058 -0.12312127 -0.03566057 -0.013047369 -0.15549794 -0.14993668
0.061150562 -0.015357063 -0.17989108 0.015548958 -0.093781516 -0.017018816 -0.06822521 0.025155172

network_body.linear_encoder.seq_layers.2.weight f4 [128, 128]
00000000: 8b1f 81bd e62f aa3d a98f df3d c89a 0ebe
00000010: db92 9c3d 5e4c 3bbe 0ffe 7a3e 1adc a33d
00000020: 8499 53bd 2cd3 a73d e905 cebd ede5 9a3b
00000030: eba4 e73c 6f9e 89be eae9 793d e7dd 16be
00000040: fe06 cabd 481b 2dbd 9372 49bd 8765 9dbd
00000050: 0bcf 05be ddb6 74bd 5980 0e3c e906 403e
00000060: 43ea 92bc 1aeb 053e c3b5 ed3c 5594 4b3e
00000070: 47ca abbd f751 b2bd 4e0a 18bd 4b8a 263e
00000080: 30c9 b1bb a4e3 1d3e dbea 3a3e 60fc cc3d
00000090: b3d2 6d3e 2534 003e 47ac 333c 19d0 93bb
000000a0: 927f 5e3d 8477 2abe 5c5b 61be daf1 3d3e
000000b0: 6e59 63bc 87c1 923d d32b 8f3d 3890 813c
000000c0: a2de 8cbd 0eac 663d 4e94 963c 3377 61bd
000000d0: e088 ebbc 4ddd a9ba 5602 c5bc 6dee f63d
000000e0: b5b2 923c 670e 243d 034f fcbc 206f 4abe
000000f0: 2da9 eb3d 8476 0d3e 5b66 58bc 8bc1 783d
00000100: c294 77bc ca42 86bd dc43 19bd 78df d33d
00000110: d1ba 7e3d 8cce 143d d142 7d3d edb6 b3bc
00000120: 5740 053e 4fd4 8cbd 5e2b 273e db06 653c
00000130: 6c68 f53d f376 163d 3c57 ad3d 9df2 13be
00000140: a8cc 263e 27a6 013d c0e3 c93d aba7 1fbe
00000150: 9f10 c6bd 6c69 e03d ced1 5ebd a4f9 38be
00000160: 4264 053d 6704 233d f0ce f3bd aa66 fbbd
00000170: 52db e03d 6cff d73d 3d4c 1a3b 9fd2 14bd
00000180: 3d18 f5bd 61ba 7fbd cb2e 3fbe 17bf 95bd
00000190: dbea 09be 8192 273c 9e77 1cbe abc4 043e
000001a0: 9965 2abe 49ef 0e3e 4262 29bd 10db 1b3e
000001b0: 3ce6 eebc 6ebf 213e bf45 c8bd 8a6a 51bc
000001c0: 7194 97bd 8bde 853e 44a6 d3bd ce76 80bc
000001d0: 1d27 733b 7d90 c9bc 0a6a 5e3e 430d c73c
000001e0: e480 08be ec9b fb3d 8045 ae3c c7f4 b13d
000001f0: 6728 24bc 563d 9f3d 12a1 40bc 1f63 cfbd
00000200: 7602 4c3d 11f0 1bbd 99ad 9bbd bbff 5a3e
00000210: 8a9e 843d 7b51 5e3d 65ce 9fbd b50f 53bd
00000220: 43db 38bc a649 9a3d c4f1 ad3c b3f6 8c3d
00000230: 0b77 043e 4e43 a13d 9dc5 2bbe 7f77 273e
00000240: 7e97 d6bd db67 90bb 41d2 d9bd 9ccc 0dbe
00000250: bd7f e4bc ddcf 4dbd 4a2a ef3d e9c6 41be
00000260: 0614 773d 26f8 0d3d b83d 8cbd 0596 afbc
00000270: 19ea 883d 65b6 7f3c 4fe1 2fbe 3a44 16bd
00000280: fcc4 3e3d e2ba 543d 2bed a63c 683d 72bc
00000290: 604f eebb eb56 4dbd de82 8bba 442d 003d
000002a0: c586 c4bd 66e4 27be 7e0e ed3c 5e66 df3d
000002b0: 1f23 0b3b b784 6fbe ca78 5bbd 7866 58bc
000002c0: 9cef e83c 683f a9bd 6f29 35be b313 eabd
000002d0: 2315 2bbd f107 64be 5b5d 11be 5719 0abe
000002e0: 6960 2c3d fb07 48be 7a2b 1ebd e771 efbd
000002f0: 8fcd a6bd 9468 a53c 1441 90be da56 a0ba
00000300: 066b 3e3d f544 65bd e0b5 ca3a 1b3d c9bc
00000310: 9f3c 91bd 386a cd3d fde9 cd3d 4b9c f73c
00000320: 0828 30bd a9fc ab3d 6495 1d3d 323a 6c3b
00000330: 3733 5bbd 4067 a6bd d3a3 aebd ae51 883d
00000340: 8405 743d 979b ce3d 8d73 c8bd b496 c0bd
00000350: 3f2a 8abd 1293 d0bd f64d 91bd d585 84ba
00000360: 7176 a2bb a6f6 503e 52c6 1e3d 2ab2 5d3c
00000370: 8526 933d 8f87 86be bde6 003e 8205 77bd
00000380: 2a7c 593e adcc 1b3e fbe0 1dbe 8755 36bd
00000390: b8b7 bb3d a9e1 e93d 8c6b 6dbc 31e4 21be
000003a0: 949a ce3d 8a56 ad3b 68e0 e53d af9e 8f3d
000003b0: 89c9 ccbd 3915 f8bd a6f3 44be 8607 163d
000003c0: 6ff9 73be 37b7 f03d b968 78bd e07e 7ebd
000003d0: 3121 c03d 15fa 6dbe 746b 16bd 8016 bbbd
000003e0: b774 2c3d 133a d7bc dbb4 e93d d58f 09bc
000003f0: 3325 013e f595 89bd ccbb 773d faa1 98bd
-0.063048445 0.08309917 0.10916073 -0.13926232 0.07645198 -0.1829085 0.24510978 0.080009654
-0.051660076 0.08194575 -0.10059721 0.0047271163 0.028276881 -0.26878688 0.061014093 -0.14733087
-0.09864615 -0.042262346 -0.049181532 -0.076853804 -0.13067262 -0.059744705 0.008697593 0.18752636
-0.01793397 0.13077965 0.029017335 0.19880803 -0.08388191 -0.0870704 -0.037119202 0.16263692
-0.0054255947 0.1541887 0.18253653 0.10009074 0.23224907 0.12519892 0.010966367 -0.004510891
0.05432088 -0.16647154 -0.22007507 0.1854929 -0.013876302 0.07165819 0.06990781 0.01581584
-0.06878401 0.056316428 0.018381264 -0.055045318 -0.02875179 -0.001295963 -0.024048965 0.12057195
0.01790748 0.040052798 -0.030799394 -0.19768953 0.11506877 0.13814741 -0.013207997 0.060731452
-0.01511115 -0.06555708 -0.03741823 0.10345358 0.06218988 0.03632979 0.0618313 -0.021937812
0.13012825 -0.06876432 0.16325137 0.013978685 0.119828075 0.036734533 0.08463904 -0.14448018
0.16289008 0.031652596 0.09857893 -0.15591304 -0.09671139 0.109576076 -0.054399304 -0.1806398
0.032566316 0.03979912 -0.119047046 -0.12275441 0.10979332 0.10546765 0.0023543977 -0.036333676
-0.11967514 -0.062433604 -0.18670194 -0.07311838 -0.13468497 0.0102278 -0.15280005 0.12965648
-0.16640319 0.13958468 -0.04135347 0.15220284 -0.029162519 0.15795681 -0.09778928 -0.012781749
-0.0740136 0.2614635 -0.10334447 -0.01568165 0.003710217 -0.02460503 0.21720138 0.024298316
-0.13330418 0.12285599 0.021273375 0.08689266 -0.010019398 0.07775371 -0.011757152 -0.10126328
0.049807034 -0.038070742 -0.076014705 0.21386616 0.064755514 0.054276925 -0.078030385 -0.05152865
-0.011282745 0.075335786 0.021233447 0.06882992 0.12936036 0.078741655 -0.16774602 0.16354178
-0.104781136 -0.004406912 -0.10635806 -0.13847584 -0.027892942 -0.050247062 0.11677988 -0.18923534
0.06032183 0.03466048 -0.068477094 -0.02143384 0.066852756 0.015607451 -0.17175792 -0.03668616
0.046574578 0.051936038 0.020376762 -0.014785148 -0.007272646 -0.05013172 -0.001064386 0.03129317
-0.09596018 -0.16395721 0.028937574 0.10908197 0.002123065 -0.2339047 -0.05358199 -0.013208024
0.028434567 -0.08264047 -0.17691587 -0.114295386 -0.041768204 -0.22268654 -0.14195769 -0.13486229
0.04208413 -0.19534294 -0.03861568 -0.11691647 -0.08144676 0.020191468 -0.2817465 -0.0012232915
0.046488784 -0.055973966 0.001546558 -0.02456527 -0.07091641 0.10030025 0.10054395 0.030225893
-0.043006927 0.083978005 0.038472548 0.003604543 -0.05351564 -0.08125162 -0.08527341 0.06656204
0.059575573 0.1008827 -0.097876646 -0.09403744 -0.06746339 -0.101843014 -0.07094948 -0.0010110686
-0.004957967 0.20406589 0.03876335 0.013531247 0.071850814 -0.26275298 0.1258802 -0.060307987
0.21238771 0.15214796 -0.15417854 -0.04451516 0.09165901 0.114199944 -0.014490973 -0.15809704
0.10088077 0.0052898573 0.11224443 0.07012688 -0.09999377 -0.12113423 -0.1923357 0.03662827
-0.2382562 0.117536955 -0.060646746 -0.062132716 0.09381331 -0.2323993 -0.03672357 -0.09135151
0.042103495 -0.02627281 0.114114486 -0.008396109 0.12611847 -0.06718055 0.06048183 -0.074527696

network_body.linear_encoder.seq_layers.2.bias f4 [128]
00000000: e8cb a3bc bd69 0fbd 07c4 623b b6bf 073d
00000010: fc66 82bd 4982 bebd 24d8 cfbd d21b 433b
00000020: 04e2 6b3d 9194 5a3c c2f3 383d 1291 aebc
00000030: 10d4 763c c59a 14be b7e0 a4bd b3a2 0b3d
00000040: 24c8 d0bd b8a8 91bc e3cc 90bd c145 08be
00000050: 05c9 0c3d 2e11 513d 6fc2 0dbd fef6 1c3d
00000060: a219 0abe fc8f 5cbd 8e34 a1bd c81a 03be
00000070: 8a0f 64bc 40c5 a33c 39a8 99bb 6ebd cebd
00000080: 6df7 fab9 4a3a 9abc 6155 05be 0ace a0bc
00000090: 8cc9 6dbd 3aef 7ebd b014 343d ca5e efbc
000000a0: 3219 dd3c 904e 07be f0a4 26bc 5fba c7bd
000000b0: ff15 3c3d d51a 86bd 6feb 98bd aab6 b3bc
000000c0: b878 0fbe 9a61 84bd 2bba 8cbd 07cb e63c
000000d0: 42e8 adbd 9c6a 49bd dc3a dcbc 5082 25bd
000000e0: 7eeb 173c 5126 73bd 816c bfbd 8491 d9bc
000000f0: ace2 4e3d b4a0 edbd 2c45 3bbd f080 c8bd
00000100: 99cb 013c 9558 8bbc e4ac a03d 0e36 ddbd
00000110: 167c 183c a71c 153d 694d 6c3d f305 183d
00000120: 3c2c febc 4a32 cabc 3917 2e3d 7042 49bd
00000130: 1e12 dabd ba76 be3c 5087 0dbe fa55 063b
00000140: a2a5 18bd 970c 8d3b 5e26 1b3d dc8c f0bb
00000150: 15a1 b8bd d5a4 973c e4d0 8a3d fb3a ecbd
00000160: 54f3 1ebb 7054 1dbd 61f6 753b e6f9 4fbe
00000170: c626 afbd 3676 04bd 3d7e 3cbd a64f 6abb
00000180: 0a82 033d 8644 67be 6415 d1bc 1d89 173c
00000190: ab56 183d c845 0a3d 16e3 4dbd 8d88 8dbd
000001a0: 3a92 0a3d 857f 02bd 59eb 38bd 815e 7f3c
000001b0: 1375 203d cf10 0ebe 9b3f 9fbd 83a1 04bd
000001c0: ae24 a1bc 34ac a6bd a5b8 8fbc 3828 033c
000001d0: d139 9ebd fd01 edbd c473 cdbd a56f 3ebc
000001e0: 4c00 ebbc 1415 49bc 28a8 10bd 4e64 5c3d
000001f0: 1ac7 323c 700c 55bc 2ac6 5bbd ff9e bebd
-0.019994691 -0.03501295 0.0034601705 0.033141814 -0.06367299 -0.09302194 -0.101486474 0.002977122
0.057588592 0.013341085 0.04515434 -0.02130941 0.015065208 -0.14512165 -0.080506735 0.03409071
-0.10194424 -0.017780647 -0.07070329 -0.13307859 0.034371395 0.051041774 -0.034609254 0.038321488
-0.1348634 -0.05384825 -0.07871352 -0.12803185 -0.01391972 0.019991517 -0.004689243 -0.100947246
-0.00047868062 -0.018826623 -0.1302085 -0.019629497 -0.05805354 -0.062239863 0.04396504 -0.029220004
0.026989553 -0.13213563 -0.01017116 -0.09752344 0.045919415 -0.065480866 -0.074667804 -0.021937687
-0.14010894 -0.064639285 -0.06871446 0.028172983 -0.08491565 -0.049173936 -0.026883535 -0.04040748
0.009272454 -0.059362713 -0.09346867 -0.026558645 0.05050914 -0.11602917 -0.045720264 -0.09790218
0.007922077 -0.017010013 0.07845476 -0.10801326 0.009306928 0.036404278 0.05769101 0.03711505
-0.031026952 -0.024682183 0.042502616 -0.049135625 -0.10647987 0.023249973 -0.13821149 0.0020498023
-0.037267335 0.0043044793 0.037878387 -0.0073410105 -0.09015099 0.018511215 0.06778124 -0.11534687
-0.0024253922 -0.038410604 0.0037530886 -0.20310172 -0.08552317 -0.032339297 -0.046018828 -0.003575304
0.032106437 -0.22584733 -0.025522895 0.009248999 0.037192028 0.033757955 -0.050265394 -0.069108106
0.03383086 -0.031859893 -0.04514632 0.015586496 0.03917415 -0.138736 -0.07775804 -0.032380592
-0.01967081 -0.08138314 -0.0175441 0.008005194 -0.07725871 -0.11572645 -0.10031846 -0.011623298
-0.028686665 -0.012273092 -0.035316616 0.053806596 0.010911727 -0.013003454 -0.05365578 -0.0930767

distribution.log_sigma f4 [1, 2]
00000000: 4ecc 153d 4636 4439
0.036571793 0.00018712235

distribution.mu.weight f4 [2, 128]
00000000: b544 723d 02b0 863c a3d6 9cbb 13a1 b6bb
00000010: 8bfe b4ba f803 823a 27e1 473b 124f 87bb
00000020: 2b7d aebb dfa7 61bb 155b d1bb a806 43bb
00000030: e1d3 dcbb 56e1 593c 3a3a 663c 8e9a 45bb
00000040: 641d 113c 0a43 b8ba 1777 2fbc 5e4d 6ebd
00000050: 0c2e d9bb 8d4d 56bb e94a 93ba 32d7 64bb
00000060: efa3 8c3c 7934 003d a0d5 38bb 963e 343c
00000070: d970 2dbc 3a09 36bb 2450 77ba 5b71 22bb
00000080: 9c8c 0abc 2a87 11bc dbc7 b4bb 2de3 1d3d
00000090: fc84 a73a 13c5 af3b de12 3abb 8a6c 18bc
000000a0: 2762 8bba 3a9f e8bc 7de1 34bb 37c9 273c
000000b0: b828 d9bb fc30 22bd 43a7 8abb 19fb 1abd
000000c0: 1155 78bd 13e7 56bc 0751 553c 42d1 7ebb
000000d0: 57d6 81bb b247 49bb 6f23 f5bb f715 4a3d
000000e0: df99 4dbb 52b5 a4bb 019e 483c 597f 3f3a
000000f0: 488a debb 3e27 0cbd afe0 cfbb dbde b9b9
00000100: 770c 4ebb 2ccf 4cba 24a7 19bc 090c 193c
00000110: 527d f9ba 80b9 01bc 97c4 89bb 3fe2 dabb
00000120: b4f4 17bb 39e8 9f3b 89f4 ebbb c339 d6bb
00000130: d94a 343c 82ee debb b222 75bb cd74 d7bb
00000140: 0e9e 143c 3036 d43a ce8c 59bb c673 acba
00000150: 5e3b 0e3c d54e c3bb dd74 e0bb c98e 893a
00000160: a40c afbb 9265 1038 0217 a5bb c7af ebbc
00000170: f39c 6cbb b183 733b a916 6dbb 1f8d 78bb
00000180: 61ca 82ba 4f57 4bbd 4d00 ca3c 3312 05bb
00000190: ea01 f2bb 18ca b3bb 8bc0 02bc c94b a13a
000001a0: 17d9 a0ba d0e0 13bb 3979 1dbb 5ce8 6f3d
000001b0: 0272 783d d0ad 3abc 5e45 8cbb 46e8 a9bb
000001c0: f36a 0cbc 793f 39bb cbe8 b8bb 8d03 1e3c
000001d0: 79af 59bb 7f2b 9bbd 68e2 84bd 47cb 0dbb
000001e0: 54d1 f33a 3599 6d3b f256 2fbd f4ac 0dbb
000001f0: 8ead 22bb dab0 423d 3d98 1bbd 5482 b43b
00000200: 42ad 86bd 2011 193c 21be e03a 86a8 163c
00000210: cf55 0c3c aa73 b43a 208c c6bb 2f79 893b
00000220: 275c ff3b a622 973b ae7a 093c 993a b53b
00000230: a7a4 903a c52a 55ba c48d 58ba 82b7 bc3b
00000240: 6e8f 5e3c 6f8c 0e3c 669e 1a3a bebd 07bc
00000250: c527 3e3a 1bd0 06bb 747a 363b 19ab 3dba
00000260: 70f6 7dbd cee5 4f3c c67d 873b 4a05 023c
00000270: ecbb 633a 41be c03b d228 ec3b c57c 4dbb
00000280: 7209 083c 653f 97ba 99c4 7cba 976f d73c
00000290: a445 09bb 9de7 babb ed01 033c e305 b4ba
000002a0: 2ed6 1b3b b376 40bc 0215 2e3b 6803 873c
000002b0: 942a b13b 53ea f6bc dc08 cc3b a657 71bd
000002c0: c411 b73c 1140 813b 749e 783c 4923 f33b
000002d0: 2508 d8bb 0734 ca3a 2079 1fbc 90b0 2438
000002e0: 759c 19bb 05a5 5a38 db07 95bb 5995 fe39
000002f0: 767e 9a3a 8836 193d c0b3 b73b e32c dd3c
00000300: 8443 703b cc6b 7b3a b3da f53a f924 943a
00000310: 5508 b33b 9e82 8f3b ff2e ce3a ede9 ee3b
00000320: abfd 67bb 1c32 8e3b 6fc0 d2b9 e114 373b
00000330: 5616 353c feab 2a3c 5ce8 fb3c cc15 113c
00000340: 1715 403c 252a fb3b a0a7 b23b bc7b 3c3b
00000350: 9f71 ac3c 8939 773a d708 283c 92cf 55ba
00000360: b3f2 833b 14f0 e13b b51d ae3b 16b8 a9bb
00000370: a81b e63a d346 a93b 9b0c 9f3b d3ea a5bb
00000380: 0a96 613c 2ba4 153a d4ac 1a3b ef83 a1ba
00000390: cc39 953b 1915 0a3c 236b 1c3c b57a 8a3c
000003a0: 5712 5f3c bfab fc3b cd03 0f3c 0375 0abe
000003b0: 64e8 78bc 05d4 543c c966 75ba e1ba 9b3b
000003c0: f954 893a 86c2 483b dbb7 093b 9180 dabb
000003d0: e336 923c fec2 543b cc37 683c 0507 b53b
000003e0: 8d3f c43b 99cd 233c 8a2b 08bd 83ec f53b
000003f0: bf94 e938 25cb e73b 13c3 8f3d 15e9 28ba
0.059147555 0.016441349 -0.004786329 -0.0055734008 -0.001380877 0.0009919396 0.0030499191 -0.004129299
-0.00532498 -0.0034432334 -0.0063890317 -0.0029758606 -0.006739125 0.013298353 0.014051968 -0.0030151936
0.008857105 -0.0014058065 -0.010709546 -0.05817925 -0.0066278037 -0.0032700032 -0.0011237535 -0.0034918305
0.017168013 0.03130004 -0.0028203502 0.01100125 -0.010585987 -0.0027776496 -0.0009434244 -0.0024786803
-0.008456375 -0.008882323 -0.0055169887 0.03854673 0.0012780721 0.0053640692 -0.0028392593 -0.0093032215
-0.001063411 -0.028396238 -0.0027600222 0.010240844 -0.0066271685 -0.039597496 -0.004231365 -0.03783712
-0.060628 -0.013116616 0.013019807 -0.0038882052 -0.003962319 -0.00307129 -0.0074810307 0.049337354
-0.0031372232 -0.005026498 0.012244702 0.0007305048 -0.0067913868 -0.03421711 -0.006343923 -0.0003545199
-0.0031440535 -0.00078128534 -0.009378228 0.009341248 -0.0019034541 -0.007917762 -0.0042043435 -0.0066798027
-0.0023186626 0.004879978 -0.0072007817 -0.0065376475 0.011004173 -0.0068033347 -0.0037404713 -0.006575203
0.009070886 0.0016190466 -0.0033195498 -0.0013157062 0.008681146 -0.0059603252 -0.0068498687 0.0010494824
-0.005342083 3.442687e-05 -0.005038143 -0.02877034 -0.0036104291 0.0037157352 -0.0036176837 -0.0037925912
-0.0009978527 -0.04964381 0.024658347 -0.0020305037 -0.007385482 -0.005486738 -0.007980476 0.0012305911
-0.0012271729 -0.0022564419 -0.0024028553 0.058571205 0.0606556 -0.011393979 -0.00428073 -0.00518516
-0.008570421 -0.0028266592 -0.0056429855 0.009644401 -0.0033216162 -0.075766556 -0.06488496 -0.0021636055
0.0018601813 0.0036254649 -0.042807527 -0.002161798 -0.0024822685 0.04753194 -0.037986983 0.0055087004
-0.06576015 0.009342462 0.0017146507 0.009195453 0.00856538 0.0013767381 -0.0060591847 0.0041953544
0.007792968 0.0046122847 0.0083910655 0.005530667 0.0011035398 -0.00081316783 -0.0008260871 0.0057591805
0.013584001 0.008700474 0.0005898237 -0.008284984 0.0007253851 -0.0020570818 0.0027843984 -0.00072352734
-0.0620026 0.012689067 0.0041348664 0.007935831 0.00086873653 0.005882055 0.0072070146 -0.0031354886
0.008303033 -0.0011539279 -0.00096423324 0.026298327 -0.002094605 -0.00570388 0.007996065 -0.0013734665
0.0023778784 -0.01174705 0.0026562815 0.016481116 0.005406687 -0.030141031 0.006226642 -0.05892148
0.022347338 0.003944405 0.015174497 0.007419978 -0.006592768 0.0015426882 -0.009733468 3.9265084e-05
-0.0023439203 5.2128937e-05 -0.0045480556 0.00048557928 0.0011786956 0.03740552 0.0056061447 0.026998943
0.0036661336 0.0009590953 0.0018757194 0.0011302523 0.0054636397 0.0043795845 0.0015730559 0.0072910697
-0.0035399 0.0043394696 -0.00040197695 0.0027936029 0.011052689 0.010416983 0.030750446 0.008855294
0.011723778 0.007664936 0.0054521114 0.0028760275 0.021050273 0.00094308757 0.010256014 -0.00081562356
0.0040267347 0.0068950746 0.0053136 -0.0051794155 0.001755585 0.0051659136 0.0048537976 -0.0050633936
0.013768682 0.0005708362 0.0023601549 -0.0012322644 0.004554009 0.008427882 0.009547028 0.016904214
0.013615212 0.0077109034 0.0087289335 -0.13521199 -0.015192125 0.0129900025 -0.00093613245 0.0047525023
0.0010477594 0.0030633523 0.0021014127 -0.0066681583 0.017848438 0.0032464857 0.014173459 0.0055245184
0.005989021 0.009997749 -0.033244647 0.007505001 0.00011138012 0.0070737773 0.07019629 -0.00064434233

distribution.mu.bias f4 [2]
00000000: 43b9 4f3d 3bb6 aebd
0.05071379 -0.085308515

critic.network_body.vector_processors.0.normalizer.running_mean f4 [4]
00000000: bf87 1240 f702 88bd 78a2 11c1 0c5b e73f
2.2895353 -0.066411905 -9.102165 1.807466

critic.network_body.vector_processors.0.normalizer.running_variance f4 [4]
00000000: af28 804a 2c3e 8f49 4ee5 6949 4536 8649
4.1995115e+06 1.1734455e+06 958036.9 1.0994646e+06

critic.network_body.linear_encoder.seq_layers.0.weight f4 [128, 4]
00000000: 0a66 22bf ff24 c83e 046a e23e 979f 08bf
00000010: 9954 1b3f c2d1 7f3e de98 07be 9713 5f3c
00000020: 03cf d2be 62e3 403e 0300 b23c 22b1 a63d
00000030: 68ba 013f 13d5 183f 706d b3bd 3214 403f
00000040: 59e1 9c3e 4f1b 0abf 2140 b63f eed3 063e
00000050: 3079 0f3d 829e b9be 2118 3b3e 5bef 8fbe
00000060: 45d0 293e 149d 41be 07bb 643f 76ac fdbd
00000070: 1501 0cbf a9d3 4abe 575e 1ebe adc0 083c
00000080: b7b4 cb3e 705f e33d 631f 7abd 8134 6cbe
00000090: d670 563e 95e0 98be 48ba 2fbf 1c1a a6be
000000a0: 7340 4f3f 5232 083e c50f 0c3f e458 583f
000000b0: 2ca1 983e b238 04bf 4116 59be 4918 96be
000000c0: a165 323e 5e2b 31be e55f 183e 4941 093e
000000d0: 6501 973e cb3d 5b3e 1013 d43e 6984 b5be
000000e0: de75 a1be 473c 483f 3cae 983e c9cf f7be
000000f0: 9fa9 aabd ab35 783e 4620 343e 5622 aa3f
00000100: 61bf 373f cb51 dbbd 89c9 debe b01c bcbe
00000110: d9b6 fdbd 9f43 b7be 2aca 29be e577 b5bd
00000120: 61a2 07bc cdb5 1c3d 43b7 9bbe 751e 63be
00000130: ac38 ab3f 4ff9 04bf 7ebd 3cbd 4ed9 843e
00000140: f669 a83e 87d9 813f 899c 7fbe 5b7f 1dbf
00000150: 901f e73d 012f f1bd 2d6f 7bbe 2c64 d3bd
00000160: 0d98 17be 3d01 383e 8573 acbe eba9 2ebf
00000170: a3e8 b93e 8b23 18bf 9de4 393e 8513 a7bd
00000180: 5582 eebe c7e8 03bf ad82 b2be 4068 acbe
00000190: 70e2 2ebf 7bd3 89bc 03f9 a43f 2165 243f
000001a0: 6a64 07bf afd7 b23e 1cda eebd 5fe4 ddbe
000001b0: 14bc f13d 1535 d73d 6c0b 8f3e f6ee 313e
000001c0: 97fb 363f 66dd aa3e dbdd 933d ec4e a9be
000001d0: 92ab 883e ea4b c13e b2f7 44be 158d 7fbe
000001e0: e185 a23e 9a29 c13e 7a3d 8abf f46a 603f
000001f0: 7b18 3abf 9b51 4d3e 6167 cbbe 97e8 85bf
00000200: dfad 30bf 57cf cdbe 5dc0 6b3e 8783 9c3e
00000210: 8aff d0be f006 833e 149c a9be 7f97 4bbf
00000220: 6acc d83e 5f01 fbbe 5cff 603e e99f 113d
00000230: b875 b83e 3322 c6be 0543 31be 3f98 673e
00000240: 0199 f7be 5434 593b 0378 263e 8ef0 8abe
00000250: 6f8f a9bd 1e93 fcbe e594 dfbe 491a c63d
00000260: bca0 e53e 79f2 083d ea32 dabe 2407 34be
00000270: ae78 56bd f864 2f3e 3ce4 b2bd c0ae b7bc
00000280: 4ba6 91be 530b cb3e 40c1 2cbf 4355 0ebe
00000290: 2fc4 6c3e 585c ba3d 0338 063e f459 0bbf
000002a0: 3ce4 aabd f4be d83e e8ff 7c3e c82e 5cbf
000002b0: 4af1 963e 7ccd 963e 0795 083f db07 183f
000002c0: 4e22 ddbe 14c4 f73c 739a 2b3d 98b2 143e
000002d0: ff78 2cbe 58d5 81bf 0dfd 413f 31c6 633f
000002e0: a03a 033f 8dbc 88bc a913 6ebf b09a f2be
000002f0: 038f 77be 1390 483d 8548 28be cfe5 bb3d
00000300: e623 10bf 0134 dd3e 2ecf 03bf c000 66bf
00000310: 65bb 0cbf 3c74 093f 9e89 a8be 55c3 9ebe
00000320: 1942 16bf 8f4c 62bf 9858 493f 9780 5d3e
00000330: 6447 a13e 5d31 fcbe 1ce1 89bf 48bb 2abe
00000340: 4213 583f 77ef e0be 05b6 e6be 1a02 e3be
00000350: e9b9 fa3e b992 643f faeb 573e 1ba9 6fbd
00000360: 19d9 643e 47c4 3c3e e0f3 2d3f 1a5b 093f
00000370: 1983 1ebf 506e 5d3d 3cbb 91be 0814 263f
00000380: 7197 843e d813 8c3d c98e 6a3e 3eb0 a7bd
00000390: 0ce0 75bf e53d 1abf 584b 88bd 7111 293e
000003a0: 4cfb 14bf a9cd 053d cc7f 473e 34a1 883f
000003b0: 6f91 5e3f fdd9 27bf bafc 023e c26f 7f3e
000003c0: 3724 cebd bfff 09bf 8a6c 0dbf d9b8 a9be
000003d0: 1174 03bc 7347 e6be 5521 363f 6028 a93d
000003e0: a70e 46bd 1a42 023d 9a72 e03d c6bd e03e
000003f0: 2c45 b93e 3170 943e f46b 1f3f e248 9cbf
-0.6343695 0.39090726 0.44221509 -0.53368515 0.6067596 0.2498236 -0.13241908 0.01361551
-0.41173562 0.1883674 0.021728521 0.08139254 0.5067506 0.59700125 -0.08761108 0.75030816
0.30640677 -0.5394792 1.423832 0.13166782 0.035027683 -0.36253744 0.18270923 -0.281123
0.16583355 -0.18907577 0.8934788 -0.1238641 -0.5468915 -0.19807304 -0.15465675 0.008346719
0.39786312 0.11102188 -0.06106509 -0.23066904 0.20941481 -0.29858842 -0.6864362 -0.32441795
0.80957717 0.13300446 0.5471156 0.84510636 0.29810464 -0.5164901 -0.21199895 -0.29315403
0.17421581 -0.173017 0.14880331 0.1340381 0.2949325 0.21410291 0.41420794 -0.35452583
-0.31535238 0.78216976 0.2982043 -0.48400715 -0.08333134 0.24239223 0.17590436 1.3291728
0.71776396 -0.1070896 -0.43513134 -0.36740637 -0.12388391 -0.35793778 -0.16581026 -0.08860759
-0.00827846 0.038259316 -0.30413255 -0.22179587 1.337667 -0.51942915 -0.04607915 0.2594704
0.32893342 1.0144509 -0.24962057 -0.61522454 0.11285317 -0.117765434 -0.24554129 -0.10321841
-0.14804097 0.17969222 -0.33681884 -0.68228024 0.363103 -0.59429234 0.18153615 -0.0815802
-0.4658381 -0.51527065 -0.34865323 -0.33673286 -0.68314266 -0.016824475 1.2888492 0.6421681
-0.52887595 0.3493018 -0.11662695 -0.43338296 0.11803451 0.105081715 0.27938402 0.17376313
0.71477646 0.3337204 0.0722005 -0.33068025 0.26693398 0.3775323 -0.19235113 -0.24956162
0.31742766 0.37727052 -1.0800011 0.876632 -0.72693604 0.20050661 -0.3972731 -1.0461606
-0.69015306 -0.4019725 0.230226 0.30569097 -0.4081996 0.2559123 -0.3312689 -0.7952804
0.42343456 -0.49024484 0.21972412 0.035552893 0.36027312 -0.38697967 -0.17310722 0.22616671
-0.4835892 0.0033142762 0.16256718 -0.27136654 -0.08279311 -0.49330992 -0.43668285 0.09672982
0.44849193 0.033434365 -0.4261697 -0.17580849 -0.052361183 0.1712836 -0.087349385 -0.022422194
-0.28447184 0.39657077 -0.67482376 -0.13899712 0.23121713 0.090996444 0.13107304 -0.5443413
-0.083443135 0.42333186 0.24706995 -0.8600888 0.29480964 0.29453647 0.533524 0.59386986
-0.43190235 0.030244865 0.04189534 0.14521253 -0.16843031 -1.0143232 0.7577675 0.8897429
0.5126133 -0.01669147 -0.9299875 -0.47383642 -0.24175648 0.048965525 -0.16433914 0.09174692
-0.56304777 0.43203738 -0.51488006 -0.89844894 -0.5497344 0.53692985 -0.32917494 -0.31008402
-0.58694607 -0.8839807 0.7865081 0.21631084 0.3149978 -0.4925641 -1.0771823 -0.16673005
0.84404385 -0.43932697 -0.45060745 -0.4433754 0.48969963 0.8928638 0.21086112 -0.05851088
0.22348441 0.18434249 0.6795025 0.53654635 -0.6191879 0.05406028 -0.2846316 0.64874315
0.2589679 0.068397224 0.2290603 -0.081879124 -0.96044993 -0.60250694 -0.06654996 0.1651056
-0.5819595 0.032666836 0.19482344 1.0674195 0.86940664 -0.65567 0.1279172 0.24944976
-0.10065501 -0.5390586 -0.5524374 -0.3314884 -0.008023278 -0.44976386 0.7114461 0.08259654
-0.048353817 0.03180132 0.109593585 0.43894786 0.36185586 0.28991845 0.622741 -1.2209742

critic.network_body.linear_encoder.seq_layers.0.bias f4 [128]
00000000: 69af dd3d 1c0c 21be e16f 13be e1b6 ffbd
00000010: 2350 823e 6359 383e 2d30 833e 0eb1 903d
00000020: dc31 9b3d 8b7e bebd 07f4 c2bd 1741 c2bd
00000030: bf9c 043e 01e2 c73d 9118 99be ed63 073d
00000040: 48e8 473d 2e4a ad3d d1fb f5bd 8ec4 103d
00000050: eb41 4e3b 6048 8a3c 64f8 c7bd ea0f 39be
00000060: 06f7 bb3d 343f 92bd 672f 2fbe 7fe5 183e
00000070: 510f 1a3e a117 693e f18d e2bc 6b36 9a3d
00000080: 8521 d1bd eb81 2abe 44e3 d23b bd87 23be
00000090: 47aa bf3d 30e1 ab3d d3f6 b43d 0203 07be
000000a0: f459 0dbe 2c83 433e 274f 303e dee7 b73c
000000b0: f43e 1cbe 968b 24bb 29c6 14be f260 873d
000000c0: 769a 45be 55f9 70bb b38b b5bd 9ac3 b3be
000000d0: 4e63 343d aaf7 cabd a328 eabd 59f5 47bd
000000e0: e328 653e 02df 28be 3254 3abd 5600 7cbe
000000f0: 62e1 413d cf1d b53d 7c4a 59be 36a9 da3e
00000100: fb06 0fbe f486 fa3d 4c41 ef3c 50e5 04be
00000110: fc88 e03d b8e7 973e f7bf 513d 9f70 1b3d
00000120: dd91 08be dd5b 623d f838 173e a3db cfbd
00000130: a456 593c 1304 af3d b25b 423e 804c 01be
00000140: 253b 31be 50d5 ff3d d3b4 05be 3459 0abe
00000150: 79f6 83bd e51c e7bd b21b 81bd 0910 fcbc
00000160: 4b10 83be 5b9a 0cbe 4de5 10be 7e48 333e
00000170: 7870 983e 1eb2 6bbe 19ba 553d 8653 103e
00000180: 709e 463e 016a 50be f428 423d 674f 68be
00000190: 66e8 fd3c 740d a63e f81b 77bc 3bbd c9bb
000001a0: a71c 903d 3e22 253e 7240 fbbd 23af 093e
000001b0: 1ed5 863e 73eb 623e 38a3 153e d850 7dbe
000001c0: 65ee f9bd 781e 00be c91a 6d3e e17b 483e
000001d0: 21a3 d4bd b232 813e 1651 36bd 189b 653d
000001e0: 8850 4bbe ac1a 0a3b 150c 943e 7193 d93d
000001f0: 1e47 a6bd 042c 953d f493 703e 4209 6dbe
0.108244725 -0.15727276 -0.14398147 -0.12486053 0.25451764 0.18002848 0.25622693 0.070650205
0.07577869 -0.0930148 -0.09519201 -0.09485071 0.12950419 0.09759904 -0.29901555 0.03305428
0.048805505 0.08461414 -0.12010921 0.0353437 0.0031472396 0.016880214 -0.097641736 -0.18072477
0.09177975 -0.07140961 -0.17107926 0.14931296 0.15044905 0.2276292 -0.027655574 0.07529911
-0.102114715 -0.16651122 0.0064357836 -0.15969749 0.0935865 0.083925605 0.088361405 -0.13184741
-0.13803846 0.19093007 0.17217694 0.02244943 -0.1525839 -0.0025107614 -0.14528717 0.06610288
-0.19297203 -0.0036769707 -0.08864536 -0.3511017 0.044040017 -0.099105194 -0.11433532 -0.048817966
0.22378878 -0.1649132 -0.04549045 -0.24609503 0.047334082 0.08843576 -0.2121982 0.42707223
-0.13967507 0.122327715 0.02920594 -0.12978101 0.10963628 0.29668975 0.051208463 0.0379492
-0.13336892 0.05526339 0.14767826 -0.10149314 0.013265286 0.08545699 0.18980291 -0.12626839
-0.17307718 0.12491858 -0.1305726 -0.13510591 -0.06443495 -0.11284808 -0.063041106 -0.030769365
-0.25598368 -0.13730757 -0.14149971 0.17508122 0.29773307 -0.23017165 0.05217943 0.14094362
0.19396377 -0.20352937 0.047402337 -0.2268654 0.030994605 0.3243214 -0.015082352 -0.0061565912
0.07036715 0.16126344 -0.12268151 0.13445716 0.2633447 0.22160129 0.14613044 -0.2473787
-0.12203673 -0.12511623 0.23154749 0.19578506 -0.10382677 0.2523399 -0.044510923 0.056056112
-0.19854939 0.0021073027 0.28915468 0.10623825 -0.08119033 0.07283786 0.2349394 -0.23148063

critic.network_body.linear_encoder.seq_layers.2.weight f4 [128, 128]
00000000: b05a a23d 04fc 303d 4907 8cbb a2aa 783d
00000010: 2747 7e3c 52f6 36bd 8196 a6bd b674 97bc
00000020: 2c0c f2bc 6ef4 cdbd 5a1a a7bd b767 823d
00000030: 25d3 b5bd f4f8 813c 6371 85bd e591 25bb
00000040: 1136 b5bd 04fd cabd fa97 9c3d f04e 023d
00000050: c169 c63d fb28 bc3b 6c7a 2cbe c5db cd3b
00000060: 3414 a03d 7686 7bbc 9729 12bd bf8b a63d
00000070: 2491 f43b 373b 5fbd 68be 02be ebbc 123e
00000080: 9b95 373d b7c3 0e3e fdcc 4a3d f544 4abe
00000090: c2ba a13c ad4e 91bc a581 f23d 3ec2 5f3c
000000a0: f1ed 09bc 127b f53b d9e9 6abb c06f 83bd
000000b0: 3cc0 05be 6494 00be 52f5 1bbd c2dd 84bd
000000c0: c36a 0fbe 14af 7a3d 423f b93d 4ff4 4bbd
000000d0: cbb2 20be 81c8 1bbc 9b99 963d 60cf 653d
000000e0: 7c83 6b3d f9ab 903b f0fb 023e 9846 d03d
000000f0: eb44 c8bc 3f6f 633c 8ac2 8dbd 26e7 90bc
00000100: 4cab b03c 303f 063d 5e1b 66bd 3e67 45be
00000110: fc08 003d 4a28 e93d a182 26bd 8a80 283d
00000120: ca63 5dbd 67c8 6ebd 4798 dc3d fba4 cb3d
00000130: fea2 9c3d d31b cfbc 70b2 c5bd bf63 4a3d
00000140: e078 ab3c 9bc3 c9bc 6873 12bc 15e8 ab3c
00000150: 3d10 243d 633c 2b3d 0fda 56be 6453 99bd
00000160: 78d5 2e3d 1702 f1bd 5780 b6bd 34fd ac3c
00000170: 454c 8b3d 080c 5abd 7bca 6dbe 1731 f9bd
00000180: 09a8 64bd fecc a1bd 16c4 7cbd d093 77bd
00000190: fe03 4fbd 5623 143c 08bf a43d 5315 80bd
000001a0: ace4 9fbd d888 ba3d 0849 08be 383b a5bc
000001b0: 600f 0d3e b671 9dbd cae4 c83c dd76 4c3a
000001c0: 671d 58bd 8402 cd3d f469 73bc 1285 1c3d
000001d0: 4f14 edbd 2e4d 49bd 34fc 363e fe7c 583d
000001e0: 2aff 29bd b6c4 a83d 0880 183e 76e1 6e3d
000001f0: 465f 3a3e 8226 c0bd b35c 0abd 5ac3 bdbd
00000200: dd2f 6abe b72f 3ebd b49f 273d 0348 f5bd
00000210: 31a3 f2bc 0cdb babd befa f83c 8db3 4b3d
00000220: 5b8a 1fbc 7d1b f4bd 050f 02bb a898 b9bd
00000230: 1ae6 d93d bcd7 0f3c c3c3 663d 6a93 b0bd
00000240: 7cd2 e13d 6d81 c83c 35d3 873d 0851 b9bd
00000250: 90ea 0cbe ba89 c8bd 04b8 c43c 4573 93bc
00000260: b31e 04be 376a 24be d4df 163b 8510 abbd
00000270: 52cd 4fbe 4f68 98bd 65f7 37be b3d5 853d
00000280: c0c5 0dbd bfb9 36bd b0df 1d3d 14f8 823c
00000290: 5e9d c8bc 4495 0d3c 782a 9fbd 2587 8c3c
000002a0: 5021 0ebd 61d5 0dbd 1ce3 2d3d ffd0 dfbb
000002b0: bca1 213e 35cf 32be 231c 183e 1416 9ebd
000002c0: 6bd4 2a3d f7d3 51bd d93b 54be ec5d 92bd
000002d0: b867 cebd c660 103d 1f22 0f3d b057 4fbd
000002e0: 5933 0abe 43c7 c2bd d8b7 a63b 770e 323d
000002f0: f287 2d3d 84d7 fbbd c795 fcbb 919d 17be
00000300: 29e4 36bc ca81 1dbe 1b31 2fbd 9fc7 05bb
00000310: daef 3cbd b723 06be 9646 1abe dc9c 3abd
00000320: 9c5e ccbc d387 dcbc 0214 56be f7c8 0cbe
00000330: 8ad2 00be 31dc 80bd e530 98bd a352 1cbd
00000340: e79f 5dbd 1ab0 4f3d 0eaa cfbc e386 b4bd
00000350: 8bc8 62bd 601b e3bc c5a0 debd 3ebd d13d
00000360: 304a 603c b191 d3bd 8bde b3bd 4093 0cbe
00000370: 16ca b73d 7930 ba3d 5a4a 64bb 2877 843d
00000380: 19be bdbd 10fa a83b 0378 2a3e 4688 e5bd
00000390: c298 48bd c64d 33be ffe9 b43d b99e 18bd
000003a0: 31af 91bb b83a a4bd 20d0 8ebd 957a cdbc
000003b0: 66a0 5c3d bbe0 6ebe 8f9b 34be 16d2 003d
000003c0: ba3e 87bd be5c abbb c753 8fbd 6201 48bd
000003d0: 305a a23c 705c 02bd e384 2e3e 0cc3 afbb
000003e0: 60a1 173d ec90 283d 261b f3bd 45e2 c43b
000003f0: 05fd 41be 286a 76be bcbc 17bd d073 023d
0.079274535 0.04320909 -0.0042733294 0.060709603 0.015519894 -0.044668503 -0.08134175 -0.01848827
-0.02954682 -0.10056387 -0.08159323 0.06367438 -0.08878163 0.01586578 -0.065157674 -0.0025263962
-0.08848203 -0.0991154 0.07646175 0.031813562 0.0968814 0.00574219 -0.16843575 0.006282302
0.078163534 -0.015351882 -0.035684194 0.08132123 0.007463591 -0.05449983 -0.12767947 0.14329879
0.04482041 0.13941847 0.0495119 -0.19752868 0.019742373 -0.01773771 0.11841134 0.013657151
-0.008418546 0.0074914778 -0.003584495 -0.06417799 -0.13061613 -0.12556607 -0.038075753 -0.064876094
-0.1400557 0.061202124 0.090452686 -0.049793538 -0.15693204 -0.009508253 0.07353517 0.05610597
0.05749844 0.004415032 0.12791419 0.10169715 -0.024446925 0.013881504 -0.06921871 -0.017688345
0.021566056 0.032775104 -0.056178443 -0.19277665 0.03125857 0.11384638 -0.04065192 0.04113821
-0.054050244 -0.058296587 0.10771232 0.09943577 0.07648276 -0.025281822 -0.09653175 0.04941153
0.020931661 -0.024629405 -0.008938648 0.020984689 0.04005455 0.041805636 -0.2098162 -0.074866086
0.04268405 -0.11767977 -0.08911198 0.02111683 0.06801657 -0.05323413 -0.23221771 -0.12167566
-0.055824313 -0.07900427 -0.06171044 -0.0604437 -0.050540917 0.009041628 0.08044249 -0.06254067
-0.078072876 0.09108132 -0.13309109 -0.02016984 0.13775396 -0.07687704 0.024523158 0.00077996944
-0.052762415 0.100102454 -0.014856804 0.038212843 -0.11576139 -0.04914587 0.17869645 0.052853577
-0.04150311 0.08240645 0.1489259 0.058320485 0.18200406 -0.09382345 -0.03377981 -0.09265776
-0.22869821 -0.046432223 0.04092379 -0.11976626 -0.029618831 -0.09123811 0.030393 0.04973178
-0.009737576 -0.119193055 -0.0019845378 -0.0906232 0.106395915 0.008779462 0.056339037 -0.08621867
0.11026475 0.024475778 0.066320814 -0.090486586 -0.13761353 -0.09791894 0.024013527 -0.0179993
-0.12902336 -0.16056143 0.0023021596 -0.0835276 -0.20293167 -0.0744177 -0.17965467 0.065349005
-0.034612417 -0.044610735 0.038543403 0.015987433 -0.024489101 0.008641545 -0.07771772 0.017154286
-0.034699738 -0.034627322 0.042452917 -0.006830334 0.15784353 -0.17461856 0.14854483 -0.07719055
0.041706484 -0.051227536 -0.20725955 -0.071468204 -0.100783765 0.03524854 0.03494465 -0.050620735
-0.1349615 -0.095106624 0.005087834 0.043470826 0.042365976 -0.12296966 -0.0077082845 -0.148062
-0.011162796 -0.15381542 -0.04277144 -0.0020413173 -0.046127178 -0.13099562 -0.15065989 -0.04555975
-0.024947457 -0.026920235 -0.2090607 -0.13748537 -0.12580314 -0.06291998 -0.07431201 -0.038164746
-0.054107573 0.050705053 -0.025349643 -0.0881479 -0.055367034 -0.027723014 -0.10870508 0.10241173
0.013689563 -0.10330523 -0.08782681 -0.13728046 0.08974092 0.09091277 -0.0034834356 0.0646804
-0.09264774 0.005156763 0.16647343 -0.11207633 -0.048973806 -0.17510137 0.08833694 -0.037260745
-0.0044459333 -0.08019012 -0.069732904 -0.025082866 0.053863905 -0.23327915 -0.17637466 0.031450354
-0.06603761 -0.0052295616 -0.06998401 -0.048829444 0.019818395 -0.031826437 0.1704288 -0.0053638276
0.037019134 0.041153833 -0.118704125 0.0060084187 -0.18944176 -0.24063933 -0.037045226 0.03184873

critic.network_body.linear_encoder.seq_layers.2.bias f4 [128]
00000000: 33a9 083d 89b5 02be e1e9 273d 7ec1 febd
00000010: 7d27 4d3d b377 633d 4597 19be a8e3 a2bd
00000020: 285b 17be 3ba3 3abe 1d60 f9bd c26f e0bd
00000030: b692 2ebe 3c76 4b3d 409c 823d bd30 d43d
00000040: f69f 04be 0000 333d be9a 8d3d 965c 943c
00000050: 8039 0b3d 924d 3dbe c9b9 163d 58f2 2f3e
00000060: f618 573d 439f 453d 41f8 0c3e 24c4 3d3d
00000070: 9761 0b3d 2808 203e 915c a73d 7c7a 8f3d
00000080: 3e95 573c 99e2 08be 292f 1abe bade 2dbe
00000090: 6280 373d 4de2 d4bd 484a 07be 064b 6b3d
000000a0: 0bee 07be b458 1fbe f6a4 d9bd e1c9 1abe
000000b0: 39e7 44be 3585 01be 2596 883d 7901 0abe
000000c0: f8e6 f43c aa05 5e3d ceec 93bd fdcf 3d3d
000000d0: ba74 6bbd a477 02be 408a f23c 0364 6c3d
000000e0: 6782 343e e3da 8abd b40f 09be 1701 d73d
000000f0: 41af ccbd 5932 b1bd 1150 dd3c 03f8 933d
00000100: 53ca 0ebe 0d50 33be 6c1d 0b3d dd69 0ebe
00000110: 2a68 babd 1122 dc3d 9cf1 1e3d c6a3 0fbe
00000120: 5616 663d e7a7 213d f038 05be 3662 d93c
00000130: 3649 253d 77d0 2d3d 9bd8 1dbe 0c6c 35be
00000140: af40 0e3d 649b 4f3d c796 183e ff96 1c3d
00000150: f352 ddbd 7f4f cb3c 4446 a23d bb0e 61bd
00000160: 0c40 1bbe f911 2fbe 4c18 32be 48d3 84bc
00000170: 8b35 1bbe 8040 b73d 5ba7 183d 7321 a53d
00000180: 0f73 29be e75c 1c3d 7dfe 11be c5a1 013d
00000190: 4dac 04be f31d 7d3d c46a 673d 619d 333d
000001a0: b504 bc3d 42b1 28be f000 533d d033 50bd
000001b0: 95b6 8b3c ed0d 4e3d e539 863d 369f 9f3d
000001c0: 259c 14be a3b6 13be fd91 08be 8b87 15be
000001d0: 0ce2 bfbd 5d5d 1abe ed6c 9e3d 156b 07be
000001e0: 411b 133e 36ff 1ebe 8241 363d 6d3b 303d
000001f0: 9669 13be 7572 c8bc 039a ed3d c635 0a3e
0.033364486 -0.12764563 0.04099453 -0.124392495 0.050086487 0.055534076 -0.14999111 -0.07953578
-0.14780867 -0.1822633 -0.12176535 -0.10958816 -0.17048153 0.049673304 0.063774586 0.103608586
-0.12951645 0.043701172 0.0691428 0.018110555 0.033990383 -0.18486622 0.036798272 0.1718229
0.05251404 0.048247587 0.13766576 0.046329632 0.034028616 0.15628111 0.081719525 0.07005784
0.013158141 -0.1336769 -0.15057053 -0.16979495 0.04480017 -0.10394726 -0.1321193 0.057444595
-0.132744 -0.15561181 -0.10627167 -0.15116073 -0.1922883 -0.1264847 0.06669263 -0.13477124
0.02989529 0.05420462 -0.07222901 0.04634093 -0.057484366 -0.12740952 0.029606938 0.057712566
0.1762787 -0.067800306 -0.13384897 0.10498255 -0.099943645 -0.08652181 0.027015718 0.07225039
-0.13944368 -0.17511006 0.033963606 -0.13907571 -0.09101899 0.10748685 0.038804635 -0.14027318
0.056173645 0.039466765 -0.13010001 0.026536088 0.040353023 0.042435136 -0.1541466 -0.17716998
0.034729656 0.0506853 0.14901267 0.03822994 -0.10806837 0.02481818 0.07923558 -0.05494569
-0.1516115 -0.170967 -0.17392081 -0.016214028 -0.15157144 0.08947849 0.037268978 0.080630206
-0.16547798 0.038174536 -0.14257236 0.031648416 -0.12956353 0.06179614 0.056498304 0.04385126
0.09180585 -0.16473868 0.051514566 -0.050830662 0.017054835 0.05030625 0.06554011 0.07794039
-0.1451269 -0.14425139 -0.1333694 -0.14602487 -0.09369287 -0.15074678 0.0773562 -0.13224442
0.14365865 -0.15527043 0.044496067 0.043025423 -0.14395747 -0.02446864 0.11601641 0.13497075

critic.value_heads.value_heads.extrinsic.weight f4 [1, 128]
00000000: 7dcb 6dba bf37 4b3e fc87 d7ba 66b2 ef3d
00000010: c73f 423b 88c3 213b e697 923e 09ef 03bc
00000020: dd3c d23d 00eb 103e dfa1 fd3d 50bc 243d
00000030: 24cf 6a3e 1585 9ebc 39ba 493a 58ce c9bd
00000040: f430 ed3d 3989 58bb 9d83 03bd cf5d d7ba
00000050: f5ff 92bc 90a7 063e 36b5 f4ba 6990 fabd
00000060: 4f38 43bd 4c6a 83bb 29f5 52be 9cfb f2bb
00000070: 3855 9239 4422 20be 66d7 9bbd f825 f8bd
00000080: c28d ffba 6fb8 913d 9850 5b3e caa7 793e
00000090: e50d b73b f1d0 cd3e 9bdd 543e 6c2b 57bd
000000a0: d5fa 0d3e 3342 0e3e 65a1 e03d 6d28 ba3d
000000b0: d491 c83d 9d83 fa3d 982b b7bd bee3 2c3e
000000c0: 059a 5cba db58 393a a796 b2bb 7441 b8bd
000000d0: e857 193c 85b0 e73c 1f14 813a ca38 aabd
000000e0: 4ebd fbbc fb79 7a3c e548 563e ac42 abbd
000000f0: 8706 af3d 8eb8 7d3e c5a5 65bb 6d7d f73b
00000100: e3e9 0d3e 5acf 183e 0b7a d7ba e962 bd3d
00000110: 7f62 083d 3d87 f2bd a0a8 d8bc 7d48 853e
00000120: 7798 bbbc d502 b63a d41d d53d 691f 37ba
00000130: f285 11ba 032b 41bd 97a7 5d3e bb7c 763e
00000140: 7c31 8b3a 7a85 6ebb 8466 10be a03d 0fbe
00000150: 5ddb 1f3d c40f 31ba b9e6 c3bd e12a b6bc
00000160: 9dc1 2c3d 414d 6f3e 11c5 383e 139e 9bbb
00000170: 7e49 3a3d debc e9bd 7eb2 d9b9 f439 acbd
00000180: dbfc 9d3d 6e7f adbb 270e c23d 4f10 cbbb
00000190: d91c ad3e 8872 f5bd 7cea 2e3b cfe8 19bb
000001a0: a2e5 edbd d43b 313e 917e 443a 09ca ac3a
000001b0: 25f0 4439 8789 42bd 676c 22bd a45e e3bb
000001c0: d92a 453e 3c08 d93d d313 253e 9a6d c83d
000001d0: 9bc9 363e 1d00 393e 517d 203b 4cb5 563e
000001e0: 44f7 2e3c a8f9 ce3d 7f69 c9ba 90a2 6ebc
000001f0: 9777 193e bfce 833a baae b6bb 43dc 57be
-0.00090711546 0.19845484 -0.0016443725 0.11703949 0.0029640065 0.0024683196 0.28631514 -0.008052596
0.10265515 0.14152145 0.1238439 0.04021865 0.2293058 -0.019350568 0.0007695291 -0.0985381
0.11581603 -0.0033040775 -0.032107938 -0.0016431155 -0.017944315 0.13149858 -0.0018669728 -0.12234575
-0.047661122 -0.0040104743 -0.20601334 -0.007415248 0.00027910783 -0.15638071 -0.07609443 -0.12116617
-0.0019497203 0.07115256 0.21417463 0.24380413 0.005586373 0.40198472 0.20787661 -0.052531645
0.13865216 0.1389244 0.109682836 0.09089742 0.097934395 0.122321345 -0.08943862 0.16883752
-0.00084152847 0.00070704304 -0.005450088 -0.08996859 0.009359337 0.028282413 0.0009847915 -0.08311613
-0.030729916 0.0152878715 0.20926245 -0.08362326 0.08546167 0.24777433 -0.0035041433 0.0075527937
0.13858752 0.14922848 -0.001643957 0.09247381 0.03329706 -0.11842201 -0.026447594 0.26031867
-0.02289985 0.0013886342 0.1040608 -0.00069855765 -0.00055512704 -0.04716016 0.21645962 0.24071018
0.0010619606 -0.0036395476 -0.14101607 -0.13988352 0.03902756 -0.00067543634 -0.09565491 -0.022237243
0.04217683 0.23369314 0.18043925 -0.0047490685 0.045480244 -0.11412977 -0.00041522452 -0.08409491
0.07714244 -0.005294732 0.094753556 -0.0061970125 0.33811072 -0.11984736 0.0026690057 -0.0023484712
-0.116160646 0.17307979 0.00074956665 0.001318277 0.00018781477 -0.047494438 -0.03965416 -0.0069387723
0.19254626 0.10597274 0.16120844 0.0978653 0.17850344 0.1806645 0.0024488757 0.20967597
0.01067907 0.10106212 -0.0015366523 -0.014565125 0.14987026 0.0010056122 -0.0055750282 -0.21080117
