ml-agents-master/ml-agents/config/results/ppo/LineCreator/LineCreator-159017.pt (torch, 434231 bytes, 40 tensors)

network_body.vector_processors.0.normalizer.running_mean f4 [4]
00000000: a3e0 1e41 f746 5140 4111 07c1 dc3f d43f
9.929843 3.2699564 -8.441712 1.6581988

network_body.vector_processors.0.normalizer.running_variance f4 [4]
00000000: 7e36 c742 4b16 3b41 af9d 014a 38a9 c449
99.60643 11.692943 2.1236278e+06 1.611047e+06

network_body.linear_encoder.seq_layers.0.weight f4 [128, 4]
00000000: aa31 b8be 9514 ad3c bc15 cb3e 16a1 70bf
00000010: e25c 29be 6a79 cdbd d6f9 48bf 3255 b1be
00000020: 7665 8bbe bd2c 16be fdd6 a23e 0a6e fc3e
00000030: 3a9b 153f 8a2a de3d dc89 873e c936 14bf
00000040: 1ebf 0a3f 56c1 c1be 2503 33bf 4d09 323e
00000050: 7acf 173f 0cc4 663f e1fa 5dbe b3d7 9abd
00000060: 78ec 86bc a762 10bf 33c2 c2bc 088c 9bbd
00000070: 130c d9be b565 d4be c1d0 6c3e 0b53 37bf
00000080: d270 b5be c56e 243f 733b 62bc af3c 10bd
00000090: 1931 c4be a20a 913e 727b c6be f0d4 f8bd
000000a0: 49f2 293f 735f f73d 13ef 143e 32dd ba3d
000000b0: 34d9 283e 1796 4bbe 5d8a 81bb fba3 073f
000000c0: 561d 5cbf 5f97 f7be c6d1 ea3e ee5c e33e
000000d0: e734 7b3f ecec 90bf 7e81 10bb 72ae 86be
000000e0: 40a5 83bd 7a09 56bd 6a90 a13c 75ab 403e
000000f0: c0dc f7bd 7205 353f c118 5d3c 1f49 8bbb
00000100: e423 5dbf da2e ddbd dfaa 103f 02ac 803f
00000110: a764 12bf 89d5 10be 6845 11be 47a8 45be
00000120: 4364 813e 8e61 7ebd 9eb7 803f 6a73 a33e
00000130: 1b23 e6be 59f1 b3bc af3e 1f3e a968 6a3c
00000140: 9f0a cfbe a92a 8ebd 186a 2c3f b670 a0be
00000150: 9312 0f3f be0d 1fbf a088 953e 0b74 833e
00000160: 3498 823e 3349 03bf 387c 023e a569 dd3e
00000170: 2b0a 8a3e 0d8e 2ebf 1ece 0f3f 1fc2 0dbe
00000180: 395a df3d 8645 5d3f 93fe e83d 443d 5cbe
00000190: 0d52 9d3d d9e6 3cbf b180 763d 2494 5a3f
000001a0: 324b e3be 4bbd c5be ff12 4bbe 9c0a 0ebe
000001b0: 69c5 023e 6103 dcbe da65 14bf 016e ccbe
000001c0: b66c acbe 627b 0a3f 7496 7ebd 24c1 113d
000001d0: f445 7c3f 4155 a0bd 160d 04bf 5f59 7cbd
000001e0: da0f ebbe 2c0c 893e 0948 0b3e 8f7d 3cbe
000001f0: e198 e9be 08b5 1f3e 406b 933e 115a d23e
00000200: 914a b5bf c4d2 9b3d 4f06 10bf d928 923b
00000210: 780f b63e 5957 19bf af85 46bf 90ae dcbb
00000220: 91c1 6c3e 2609 f4bd a9ad b33e 7d4e 23be
00000230: 90b5 60ba 1aa9 64be 45c4 03bf 0189 0c3f
00000240: b533 c8be 2c06 383e f66e 33bd 522d 45bd
00000250: f1af c2be 8c28 d33d 69b0 c23e 82a9 1b3f
00000260: 9402 8cbf ae0d bdbe d084 c1bd 8b00 fdbe
00000270: feaa 353f 21a7 903e cb6d 05bd 921e 813d
00000280: 11dc 13bf 4133 a7be be5a f8bd 164d fb3e
00000290: 99c0 82be 234c eebe b5d6 173f ce66 eb3d
000002a0: f781 3fbe fcd5 0dbd ff80 2b3e d7f0 993d
000002b0: 7bff 12bf 26cd a93e ae32 85bd 9f6a 8c3d
000002c0: 02ab 37bf b151 8f3d 32de e6be fca7 93be
000002d0: b140 babe c222 dc3e 3761 5dbd 06c1 a43c
000002e0: f125 763e d5d2 b6be b5b7 e63d 221f 00be
000002f0: 66b5 54bd ed9a d3be f7cc 523f 0fd2 a6be
00000300: eb56 d13e f520 87bf 1675 fabe a837 f33e
00000310: c8b2 6bbe 7000 abbc 629d 09bf fd13 e7be
00000320: 6f43 57bf 4f1c d0be 5a3c 123e 003b 04bf
00000330: f7e4 30bf 6211 e2be 89ac f43d a171 f83d
00000340: f968 f73e 3018 0ebf 34e8 e6be 11eb 00bf
00000350: d674 6fbe ab8e 16bf bdb1 173e e132 513e
00000360: e89f be3d e3ed 57bd 2055 ca3e a929 ce3c
00000370: 9558 813f 252d c1be 1e97 98be e445 773f
00000380: 58e0 febe 9654 ac3c a8f6 2f3d 4d47 b7be
00000390: f890 2cbe bea0 05bf 4e73 f7bc cbf1 0bbf
000003a0: e9bf e5bd bfe6 e2be 8d14 3dbe 2de7 01bf
000003b0: 52f4 96bf b09e 2fbf 64eb 5a3d ce0e a83c
000003c0: 2d30 673f 1830 a2bf f6b8 58be 0da5 6fbe
000003d0: 623c c7bd be6c 39bf 7d7a 473e 2f57 2d3f
000003e0: 6b2b db3e b9b8 463f 350f 1abe 10f7 bb3a
000003f0: 1c6f 5b3e 1d18 7d3d 1482 923d 6d99 b0bd
-0.3597539 0.021127978 0.3966502 -0.939958 -0.16539338 -0.100329235 -0.7850622 -0.3463531
-0.27225846 -0.14665504 0.31804648 0.49302703 0.5843998 0.108479574 0.26472366 -0.57896096
0.5419787 -0.37842816 -0.69926673 0.1738636 0.5930096 0.90142894 -0.21677734 -0.075606726
-0.016470179 -0.5640053 -0.023774242 -0.07595068 -0.42392024 -0.41483846 0.23126508 -0.7161109
-0.35437638 0.6423152 -0.013808119 -0.035214122 -0.3831871 0.28328425 -0.38766056 -0.121499896
0.6638532 0.12078752 0.14544325 0.09124221 0.16489106 -0.19881473 -0.0039532618 0.5298459
-0.85982263 -0.48357674 0.4586317 0.44406837 0.981276 -1.1322303 -0.002204984 -0.26304966
-0.06428003 -0.05225513 0.019722182 0.18815406 -0.121026516 0.70711434 0.013494671 -0.00425066
-0.8638289 -0.10799952 0.5651073 1.0052493 -0.57184833 -0.14143957 -0.14186633 -0.19302474
0.25271806 -0.062104754 1.0056036 0.3192399 -0.44948658 -0.02196567 0.15551256 0.0143071795
-0.4043779 -0.069417305 0.67349386 -0.31335992 0.55887717 -0.62130344 0.292058 0.2567447
0.25506747 -0.5128357 0.12742698 0.43244663 0.26960883 -0.681855 0.56173885 -0.13843583
0.109058805 0.8643421 0.11376681 -0.21507746 0.076816656 -0.73789746 0.060181323 0.85382295
-0.44393307 -0.38620982 -0.19831465 -0.13871235 0.12770618 -0.42971328 -0.57967913 -0.39927676
-0.3367669 0.5409452 -0.062155202 0.035584584 0.9854424 -0.07828761 -0.5158247 -0.06160867
-0.4591053 0.267671 0.13601698 -0.18407272 -0.4562445 0.15596402 0.28792763 0.4108434
-1.4163381 0.0760856 -0.56259626 0.004460436 0.35558677 -0.59898907 -0.77547735 -0.0067346767
0.23120715 -0.119158074 0.3509343 -0.1594791 -0.0008571977 -0.22330132 -0.5147136 0.5489655
-0.3910195 0.17971104 -0.043806992 -0.048138924 -0.38024858 0.10310468 0.38025215 0.60805523
-1.0938287 -0.369245 -0.0944916 -0.49414477 0.7096404 0.2825251 -0.03257541 0.06304659
-0.5775767 -0.3265629 -0.12126683 0.4908225 -0.25537565 -0.46542463 0.5931199 0.11494218
-0.18701921 -0.0346279 0.16748427 0.0751664 -0.5742108 0.33164328 -0.06503807 0.06856274
-0.7174531 0.06998003 -0.45091397 -0.288391 -0.3637748 0.42995268 -0.05404779 0.020111572
0.24037911 -0.35707727 0.11265508 -0.12511876 -0.051930808 -0.41329136 0.82344 -0.32582137
0.40886626 -1.0556933 -0.48917454 0.475034 -0.23017418 -0.020874232 -0.5375577 -0.45132437
-0.8408727 -0.40646598 0.14280835 -0.51652527 -0.6909937 -0.44153887 0.11946971 0.12131048
0.48322275 -0.5550566 -0.45099032 -0.5035868 -0.23384413 -0.58811444 0.14813896 0.20429565
0.093078434 -0.0527171 0.3951807 0.02516635 1.0105158 -0.37729755 -0.29802793 0.9659102
-0.49780536 0.021036427 0.04295984 -0.35796586 -0.16852176 -0.521984 -0.030206349 -0.5466582
-0.112182446 -0.4431667 -0.18464871 -0.5074337 -1.1793311 -0.6860151 0.053447142 0.020514872
0.90307885 -1.2670927 -0.21164307 -0.23402806 -0.09728314 -0.7243155 0.1948032 0.67711157
0.42806563 0.77625614 -0.15044864 0.0014340598 0.21429104 0.061790574 0.07153717 -0.08623014

network_body.linear_encoder.seq_layers.0.bias f4 [128]
00000000: 9e2b 24be 5e48 b23d eaca f6bd c452 27be
00000010: 23cd 183d c7b8 d83d f2fa 5fbd e80e 02be
00000020: 637f 7abc 28ba 4cbc b53e 4dbd 35af 9cbd
00000030: b9a3 ab3b 49ff 34be 35ed a43d f72c 1b3e
00000040: dcb2 dabd 5414 12be 2c73 d03d 0e0d ac3c
00000050: 11c2 d6bd 8a9b e6bc 569f 6a3b 77ec b6bd
00000060: 9180 eebc 51c3 8cbd eb14 b6bd 27dc 893d
00000070: 1b2a 0d3e 0b0f ca3d 366d bd3b 2d5e 5abe
00000080: f0c9 5e3c a7ec 8abd cb31 67bd 6cb2 d1bd
00000090: 0356 9fbc 6d31 b8bd be2f 41be 491c 1b3e
000000a0: bd35 79be 348e 4cbd d173 17be 1422 fe3d
000000b0: 6cfa e03d e461 f53d d071 1bbe 37e1 43be
000000c0: ccff 5c3d 31d0 f7bc dfda 20be 3c26 df3d
000000d0: 4b75 c8bd bb65 c9bc 4868 71bd 6c62 92bd
000000e0: 09c8 22be 7a58 2cbe 1fbc 72be d1ab dfbc
000000f0: 8a4c 28be c653 c0bd 15b1 b43d a6cb 9d3c
00000100: a2f1 24be 3db5 03be 6b32 22be 67bb 60bd
00000110: f21e de3d dd7f cdbc f563 70bd 9694 26be
00000120: 36ec 83bd 3674 893d 5e5f f23d 5269 12bd
00000130: 371c 29be 11d6 323c 8df5 a63d d528 6ebe
00000140: 0a6f ef3c 4c8f 433c f9be fd3c 97b6 893c
00000150: 3e94 c2bd b6ea 533d d6be 46be b0d7 243d
00000160: 8371 9d3d 2a13 fbbd 6bef f6bd c096 a33d
00000170: 0b30 1b3d c4e8 98bd f9f0 6fbe 41e6 48be
00000180: 9ff3 2cbe 4852 1d3d b4b7 e03c d98a e13d
00000190: fa1a 18be 3afb 29be ee77 c4bd 271a 2ebe
000001a0: 79fc d0bd d4ea 36be 7c92 9e3c 00b4 c73d
000001b0: a7a6 f6bd 4700 10be 583d 1dbd 1e6b c2bd
000001c0: e113 873c a7bb 3cbc e466 b2bd 2241 a0b9
000001d0: af76 29be e0ed 26be 2c26 c3bd abd3 37bd
000001e0: 174a 683d 0f3b f43d 3bf3 a63c d0db 593c
000001f0: 7d3f 1bbe c9e3 19be 3687 16be 2c69 81bd
-0.16032264 0.08705209 -0.120504215 -0.16340166 0.03730501 0.105821185 -0.05468268 -0.12700999
-0.01528916 -0.012495555 -0.05010863 -0.076506056 0.005238023 -0.17675509 0.08053056 0.15153871
-0.10678646 -0.14265567 0.10178217 0.021002319 -0.10486234 -0.028150339 0.0035800538 -0.08931821
-0.02911404 -0.06873191 -0.088907085 0.06731444 0.13785593 0.098661505 0.005780841 -0.21324988
0.01359795 -0.06783419 -0.05644397 -0.102391094 -0.019450193 -0.08993802 -0.18865868 0.15147509
-0.24336906 -0.049940303 -0.14790274 0.12408844 0.10985264 0.11981562 -0.15180135 -0.19128881
0.053954884 -0.03025064 -0.15708493 0.108959645 -0.09787997 -0.024584642 -0.05893734 -0.07147679
-0.1589662 -0.16830626 -0.23704575 -0.027303608 -0.16435447 -0.093909785 0.08822838 0.019262146
-0.161078 -0.12862106 -0.15839545 -0.05486622 0.10845746 -0.025085384 -0.058689076 -0.16267619
-0.06441538 0.067116186 0.11834596 -0.035744973 -0.1651467 0.010915295 0.08152304 -0.23257764
0.029227752 0.01193602 0.030974852 0.016810698 -0.09500931 0.05173751 -0.19408736 0.040244758
0.07687666 -0.12259515 -0.12057384 0.07987738 0.037887614 -0.074662715 -0.23431768 -0.19619085
-0.16889809 0.038408548 0.027431346 0.11012811 -0.1485404 -0.16599742 -0.09593187 -0.17002164
-0.10204405 -0.17863017 0.019356959 0.09751129 -0.12043505 -0.14062606 -0.03838858 -0.09493087
0.016488971 -0.011519349 -0.08711031 -0.00030566106 -0.1654918 -0.1630168 -0.09528765 -0.044879597
0.056711283 0.11925327 0.020379653 0.013297036 -0.15160938 -0.150283 -0.14700016 -0.06318888

network_body.linear_encoder.seq_layers.2.weight f4 [128, 128]
00000000: 746c ebbc 35cb a8bd 555c 3e3d 784f 453e
00000010: 5275 06be c140 153d 9671 0c3d 2178 c9bb
00000020: ba27 ce3c e1f5 02be c53b 463d 4e58 66bd
00000030: 1a4e a7bc 92b8 6f3d 5fd5 abba 09e7 02bd
00000040: 8781 143e 7ad4 d7bd 2c72 26be ed40 a13b
00000050: 964c 513d 45f3 64bc 13eb c0bd 3a5f ddbd
00000060: 50f3 83bd b5ca 783d 8342 2e3c e4a1 f1bd
00000070: c852 4bbd 0a97 34be cd66 2ebb 7956 013d
00000080: 9088 80bd 789c f0bc d89a 8dbb a8c2 8d3e
00000090: f687 d0bc 3939 623d d8e9 ed3c 3e14 9bbc
000000a0: 1363 dcbd a1e0 af3d 615d 8d3d 251f c4bd
000000b0: fdda d1bd 1a34 783d b1c3 163d 6fc8 4a3d
000000c0: 0dad 233d dbe2 8ebc 2a49 14bd f600 603b
000000d0: b65a 96bc 26ac c5bd e64b 273c 7cf5 913e
000000e0: 47aa cf3d 8835 233e bdd1 a5bb 871e 62bb
000000f0: 2628 e0bd e3a5 5d3e 363a febd 26dd 1fbc
00000100: 43ab 873d 0ca3 223c f1eb 1e3c 7ff4 a63d
00000110: 4893 8a3d 8c16 b8bd af21 31be 92bb 3ebd
00000120: 1c5f a23d 4ea7 81bd fdfa 38bd deb1 a8bd
00000130: a1e9 8b3d 18ab 1c3d c666 0bbe beb2 cd3d
00000140: 9485 ebbd e05f ce3d 0abd e03d fc88 433e
00000150: 7225 29bd cfb9 8f3d 9333 793b 43ae 9fbd
00000160: d8b7 60bb ab35 45be 08c5 033d eaa5 c33d
00000170: c165 53be 7b8f d63d e669 cf3d 2581 a23e
00000180: 6e8b 18bd 55bb 84be fc8d 13be 95cd 9a3d
00000190: 6257 0bbd 0d30 e03d e1f1 233e d535 cebc
000001a0: afe3 003e 8408 173d daee a7bd e480 a7be
000001b0: 0331 2c3d fcbd ac3d 2269 87bc feea 32be
000001c0: d2ca df3d 4553 3a3e b0dc 7c3d 09a4 36be
000001d0: 968c 993c 0c45 86bd 95be 0fbc ec51 42bd
000001e0: c871 b33d fb48 33be 633f 19bd c159 523e
000001f0: 0d62 883d 6fd4 48be 0cbe a53c 37c3 933e
00000200: 1962 083e a7b7 a7bc 0f87 46bd 29fb 8cbd
00000210: f4b8 a23d eaaa 4dbd 0271 d03b 5917 9a3d
00000220: 0163 54bd 7973 3bbe e9e3 cb3d c704 b83c
00000230: 3db2 1ebd 7808 81bd b8be 3a3b c536 0bbe
00000240: 0720 c33d 0d24 a53c 79dd 05bc 6cc2 3a3d
00000250: c206 813d 2aba 873d 6354 a4bd 5193 26bd
00000260: fbde 38be 8dac a4bd affd 4bbd 8db5 dfbc
00000270: 957f 90bd cc09 2d3c 4e64 2d3d a354 06bc
00000280: 16a5 66bd 6c76 023d b89f 36bc a3b1 87bd
00000290: b683 30be 8913 02bd 6468 f0bd 0125 1e3e
000002a0: 04aa 13bd 9568 b23d 0f7c e0ba daaf 3ebd
000002b0: e496 d53d 178c 9b3b d51f 4abe 3fd1 51be
000002c0: 5fb5 843d 2ba9 87bd 1e7d d2bd 1756 09bc
000002d0: f8cf d0bc dab2 2ebe 9781 d63d 3687 21be
000002e0: 778f c73c 44c5 bd3c 5bfa 063d d28c ba3c
000002f0: 5df2 1d3e 8ed1 b13d 079c eabd bb3c 27bd
00000300: e3bf a0bd f4fc 07be 9a22 b93c b7db bdbd
00000310: e67f 15bd 165e 273c 8e26 f43a 5781 90bd
00000320: 747a 3c3e 3e9e 01bd 1c85 5bbd c4f6 4dbd
00000330: ac50 a33d b02a f83c 2011 2f3d 5f88 88bd
00000340: f20b 043d 0390 1a3d 09f9 6bbc 089e ec3c
00000350: 6e1a fb3b 4fad 89bc 90d6 98bd 9003 1dbe
00000360: 0b73 153e ab79 dd3d 0ea8 033d d4db cdbd
00000370: 7593 963c 76ea 063e 90db f0bb b772 813e
00000380: f2c0 73bd 8fc2 85bb 8874 4abd 6c61 1bbe
00000390: 88a1 babd 0e44 e3bd ee39 3b3d 2b4d 5bbc
000003a0: cd25 81bd c26e 773d 80ca 383d fb62 953b
000003b0: 87e8 60bc 6d9c 723d 85fa 393e e16c b0bc
000003c0: 2249 13be 95a5 f43d a910 eebb 8ff4 abbd
000003d0: b80e b83d 70b4 be3d 7aac 5cbd c6d3 fd3d
000003e0: 709c 923d ff6a 143d fa31 06be 52fa 633d
000003f0: 3f4e 64bc d4c8 843d 708e 17bc 41f6 7b3d
-0.028738238 -0.08241884 0.046474773 0.19268596 -0.13130692 0.036438707 0.03428801 -0.0061483537
0.025165427 -0.12789108 0.048396844 -0.056236558 -0.020422984 0.05852563 -0.0013109854 -0.031958614
0.14502536 -0.105385736 -0.1625449 0.00492107 0.05109843 -0.013974016 -0.09419837 -0.10809179
-0.064428926 0.06074019 0.010635975 -0.11798456 -0.049639493 -0.17635742 -0.0026611567 0.031576607
-0.06276047 -0.029371485 -0.0043214373 0.27687573 -0.025455456 0.055230353 0.02904217 -0.01893055
-0.107610844 0.085877664 0.06902576 -0.09576253 -0.10246847 0.060596563 0.03680772 0.049507555
0.039959956 -0.017442157 -0.036202587 0.003418026 -0.018353801 -0.09651975 0.010210967 0.28507602
0.101399 0.1593839 -0.005060403 -0.003450306 -0.10945158 0.21645312 -0.124134466 -0.009757316
0.066244625 0.009926569 0.0096998075 0.08152103 0.06766373 -0.089886755 -0.17298006 -0.0465656
0.07928297 -0.06330739 -0.045161236 -0.082370505 0.068316706 0.038249105 -0.13613424 0.10043858
-0.115000874 0.100768805 0.10973556 0.19095224 -0.041295476 0.07017862 0.0038025125 -0.0779691
-0.0034289267 -0.19258754 0.032170326 0.0955313 -0.20644285 0.104765855 0.101276204 0.31739154
-0.037242346 -0.25924173 -0.14409631 0.07558743 -0.03401888 0.10946665 0.16010238 -0.025172153
0.12586854 0.036873356 -0.08199854 -0.32715523 0.04203893 0.08434674 -0.016529623 -0.17472455
0.10927357 0.18195827 0.0617339 -0.17836012 0.018743794 -0.065561384 -0.008773466 -0.047441408
0.087619364 -0.17508309 -0.037413966 0.20542051 0.06659327 -0.19612287 0.020232223 0.28859875
0.13318671 -0.020473314 -0.048468646 -0.068838425 0.07945433 -0.050211824 0.006361128 0.075239845
-0.05185223 -0.18305768 0.0995558 0.022463216 -0.0387442 -0.063004434 0.0028495025 -0.13595112
0.09527593 0.020158792 -0.008170479 0.04559557 0.06300117 0.06627305 -0.08023908 -0.040667836
-0.1805381 -0.08040724 -0.04980248 -0.02730825 -0.07055584 0.010561418 0.042331986 -0.00819889
-0.056309782 0.031851217 -0.011146478 -0.066256784 -0.17237744 -0.03175691 -0.11738661 0.15443803
-0.03605081 0.08711354 -0.0017126816 -0.046554424 0.10429171 0.0047469246 -0.19738705 -0.20489977
0.06479906 -0.06624063 -0.102777705 -0.008382342 -0.025489792 -0.17060414 0.10473936 -0.15774235
0.024360402 0.023165353 0.0329536 0.022772226 0.15424486 0.086825475 -0.11455541 -0.0408294
-0.078490995 -0.13280088 0.022599507 -0.09270423 -0.036498927 0.010215303 0.0018627213 -0.070559196
0.18406087 -0.031645052 -0.05359374 -0.050284162 0.07974371 0.030293792 0.04274094 -0.06666636
0.032237954 0.037734997 -0.014402636 0.028883949 0.007663063 -0.016806273 -0.074627995 -0.1533339
0.14594667 0.10814222 0.03214269 -0.100516945 0.01838086 0.13175377 -0.0073503926 0.25282833
-0.05951018 -0.004082031 -0.04942754 -0.15173882 -0.09112841 -0.11096965 0.045709543 -0.0133850975
-0.06306038 0.06040836 0.045114994 0.0045589185 -0.013727314 0.05923121 0.18161972 -0.021536293
-0.14383367 0.11945645 -0.0072651696 -0.08396255 0.089871824 0.093117595 -0.053875424 0.12393908
0.07158744 0.036234852 -0.13105002 0.055658646 -0.013934671 0.064836174 -0.009250268 0.061514143

network_body.linear_encoder.seq_layers.2.bias f4 [128]
00000000: 3428 b3bd 1ddd b8bb e99f e2bd 20bd c7bd
00000010: d304 e8bd 3a7f 2fbd e2b0 043c 89c2 b0bb
00000020: 14e6 48bd 7255 27be 4e36 c9bd f500 343c
00000030: f1d7 1a3d f837 6fbd 3fbf 8e3d 5f0c aebc
00000040: 3a40 963d 408d 143e 22a2 93bc f435 ddbc
00000050: 9db8 f23d 095d 56bc 5cb6 0dbe bbac e3bc
00000060: f2f0 c4bd 299d 65bc 3048 023e c551 ba3c
00000070: a23d 843d 050c e9bc 951e 393e 2fda edbd
00000080: da4e 943d ba4e d3bd 86d1 013e fc0d c4bc
00000090: 80c3 063e fc63 bc3a 3d11 54bd d434 9f3b
000000a0: adf8 95bd 1757 55bd e612 1fbe f3ac 433d
000000b0: 01f0 2cbe 23f4 1f3d 0e88 673d 5620 5f3e
000000c0: fbed afbd 8850 3cbe 679e ca3d eec7 9a3c
000000d0: e016 643b 02e1 69bb 4e23 36bd da97 c3bd
000000e0: 161c dfbc cccb 123e c5cc 3f3d e563 0fbd
000000f0: b6c7 453d 46d8 9abe 8e3a 1c3d e739 cb3d
00000100: 9259 053c 312c 66bd 330b 3cbd a242 97bd
00000110: 2f92 3a3d f92d 30be 8c48 e83c 2902 3e3d
00000120: 6812 b2bc 0906 8f3d 4d60 cfbd e996 653d
00000130: 3e9f 59bd ee50 0a3e 0d64 a43d 4c9f 5cbd
00000140: f6a7 87bd 057b 23be 58de 5c3b 55a4 26be
00000150: f97e 06be be7d bb3d 3c00 753c 7fc3 1c3d
00000160: 405e 0abd a6cf 1f3e 2a6e cd3c b282 cb3c
00000170: ec83 46bc 4125 b5bd 5374 2dbe d95a 9fbc
00000180: 108b 46bd 64fe b1bb 074c 613d 6621 d1bc
00000190: 59ab 67bd c49b acbc 99e1 bfbc 8463 8c3d
000001a0: 911f 063e d588 b6bd c5e7 183d 86fc 87bd
000001b0: 98a4 f2bc b98c 803d d9c8 e8bd 6250 27be
000001c0: d43d 18bd 1f68 d5bd cd3f fabd 2280 14bd
000001d0: a431 2cbe 12c1 7fbe eb20 33bd 3831 97bd
000001e0: 1249 883c 684a 383d e2cf c63c dc0f 1f3c
000001f0: 8d4a d0bc 1c48 3d3d bba8 35be 3efb cd3d
-0.087479025 -0.005641593 -0.11065657 -0.097528696 -0.11329045 -0.042845942 0.008098813 -0.005394284
-0.049047545 -0.16341189 -0.09824811 0.010986556 0.037803594 -0.058402985 0.06970071 -0.021246133
0.07336469 0.14507008 -0.018021647 -0.027003266 0.118516184 -0.013083705 -0.13839096 -0.027792325
-0.09616269 -0.014014521 0.1272285 0.022744069 0.06457068 -0.028448114 0.18078072 -0.11613881
0.07241602 -0.1031775 0.12677583 -0.02393245 0.13160515 0.0014373059 -0.051774252 0.0048585925
-0.07322822 -0.05208501 -0.15534553 0.04777236 -0.16888429 0.039051186 0.056526236 0.21789679
-0.08590313 -0.18390095 0.09893494 0.018894162 0.0034803674 -0.0035687094 -0.044467263 -0.09550448
-0.027235072 0.14335555 0.046826143 -0.035007376 0.048286162 -0.3024313 0.03814178 0.09923153
0.008139031 -0.056194488 -0.045909118 -0.07385756 0.045549568 -0.17205037 0.028354906 0.04638878
-0.021737292 0.06983573 -0.1012579 0.056052122 -0.05313038 0.13507435 0.08026896 -0.053862855
-0.06623833 -0.15964897 0.0033701863 -0.16273625 -0.13134374 0.09154843 0.014953669 0.038272377
-0.03378129 0.15606555 0.025076944 0.024842594 -0.012116414 -0.08844996 -0.16938905 -0.0194525
-0.048472464 -0.005431937 0.055004146 -0.02552862 -0.056559894 -0.021070369 -0.023423003 0.068549186
0.13097979 -0.089128174 0.037330408 -0.06639962 -0.0296195 0.06276841 -0.11366434 -0.16339257
-0.03716834 -0.1042025 -0.122192 -0.03625501 -0.16815811 -0.24975994 -0.043732565 -0.073824346
0.016636405 0.044992834 0.024269048 0.009708371 -0.025426174 0.046211347 -0.17740147 0.10057686

distribution.log_sigma f4 [1, 2]
00000000: 0bc7 eebd 9aed bebd
-0.11659058 -0.09322663

distribution.mu.weight f4 [2, 128]
00000000: 3eda 053b 3e82 7e3b 5c90 03bc 03e8 0dbb
00000010: 8bb3 e4bb fc30 0a3c 02d4 033c a9e5 05bb
00000020: 366c 1fba 6d33 dabc 6b8e f6bb 56b8 bb3b
00000030: 811d 243c fe88 aebc 3f3e 413d 719a 36bc
00000040: dbb8 e53b 0d97 583a c4da 913b 62b5 d63b
00000050: e30c fa3c fa9a 893b f530 b2bb 9314 e43a
00000060: c309 88bb 5ae4 f13b 84a8 0f3a 7ff0 8e3c
00000070: 422a b03b 8785 26ba 1f98 9d3d 976b 00bc
00000080: b3a8 9eba beeb 34ba 1c60 153c 9c71 5939
00000090: 17b6 bb3d 1a7e 963b 5385 60bb fea8 673b
000000a0: 183d 17bc 8334 713c dce6 5abc ac5f 033c
000000b0: 9753 d9bc f006 183c a80f 96ba 0c04 363d
000000c0: e63b 45bc 3715 a4bc 470b 823b 68b9 aabb
000000d0: beb1 22bb 9a2e 29bb 6e67 43bb 7ca1 a6bb
000000e0: 39fb 413c f52b da3b b73b 36bc 7224 8d3b
000000f0: a88c 09bb 6d3c 9dbd 1fcb a63a 8ab7 0b3d
00000100: 28c3 b83b 8423 bdbb a0a7 703b 9d31 b73b
00000110: 1584 423c a628 c0bc f0cb 09bb 3bcb 623a
00000120: 48c3 ed3b 6f3d 853c 5063 323c ce34 2abc
00000130: ffd4 133b 0862 1c3d a518 de3b 9e78 b6b9
00000140: e1d0 a4bb 2c90 6cbc 4ce7 a9bb af37 3dbd
00000150: bbd3 56bb 27cf c73b a6ec 5ebb b62f 233b
00000160: 1e4e 1ebb 5ba9 8a3d 343f 073b 75cb 403b
00000170: bd66 323b 01f1 99bb d90a a2bc 24a9 1ebc
00000180: f69b 14bb 6bf1 d53b 3ff8 1d3c 4715 773c
00000190: cf6b d63b ebf6 693c 4975 653b c82b 773c
000001a0: c4f0 493d 7d1a febb 78bc 793b d949 80bb
000001b0: 9826 aaba 2e0d 283c dded e6bb b820 b0bc
000001c0: 138b f23a 1834 9cbb 4165 cebb 2e54 1b3c
000001d0: 008d d7bc 8f94 8abd c2ed 0bbc 9651 fa3a
000001e0: 3501 9739 2bf9 273d 2f7e 253c 9b0c eeba
000001f0: 13df ac3b a162 983c 7bbe 5fbc 3c64 563a
00000200: 8f98 c8bc f5d5 0b3a 85e6 47bb cc12 63ba
00000210: c5a6 10bc d1a4 af3a 593d 023b a50f 42ba
00000220: 62ec adba 99f7 cd3c 509a 42ba c154 0b3b
00000230: cfce f43c a0f4 b8bd 2e1d cbbd 7a40 e3bb
00000240: 307a f63a bd22 b5ba 85bb 843a 0fa5 4a3b
00000250: e6a0 1f3d 6353 42bb 7869 e73a 0f96 333a
00000260: 7f8b 21bb 3cc0 113b bc46 6f3b 8893 f3ba
00000270: e0b0 d2ba 30a4 be39 cdba 6a3d aa4b 66ba
00000280: f6e5 cab7 3e30 3e3b 65be 823a 78f8 0aba
00000290: 9944 9cbc 07d9 1b3b 9529 dfba fe18 0ebb
000002a0: cdc1 12bb cbc4 2c3b 743e 733b dcf9 ad3a
000002b0: 213c 8b3d fc00 a4ba cd95 8fba 4e28 713d
000002c0: 1486 e838 cf65 063c 4ec8 40bb ea82 85ba
000002d0: cba1 05ba 8923 abb9 4fe6 2bba 1afc adbb
000002e0: c32c 86bd 57b6 e83c 5f50 e1bd a311 a3ba
000002f0: d3d7 b63a 8984 8a3c 053a eab8 d823 843d
00000300: b436 3238 6251 f63a 716f 8739 3a5a c13a
00000310: d8e7 453d 76ad 543c bc8c b43a 7051 d3b8
00000320: 54c0 a93a c04a 0d3d 0084 123b bbaa c0ba
00000330: 0e95 a23a 060c a13d 18df 8f3a 00c2 01bb
00000340: 1758 283a e20a dc3b c715 f7b8 e267 a93c
00000350: d752 a6ba 1e10 8cbb 951b eaba 2763 5d3a
00000360: eb0c c5ba 6e2a 4e3d 5ef7 ac39 9929 a7b8
00000370: 3b35 62ba 88d9 b8ba 6607 e83b 8641 883b
00000380: 3539 1abb d06c 37b9 a9be 9e3c 6b32 9aba
00000390: 357e 0e39 cf7a 463b cdf5 30bb 1fcc a4bb
000003a0: 4334 8b3d e470 5eba 009d 283a b0d1 1fbb
000003b0: e160 af3a a1cb 343d a5bc dc3a 5833 6f3b
000003c0: f38b cc3c ba70 3739 0a27 19ba cf14 453d
000003d0: 53c8 8b3d 2e4d 913d 6434 62bb 4bde d7b7
000003e0: 46bd 85bb cb9e 863d 15da 80ba 31a4 3cb9
000003f0: d798 a23a 2b8d cebd 8b0f 4b3b 5438 43bb
0.0020424272 0.0038834955 -0.008030023 -0.0021653182 -0.006979411 0.00843453 0.008046152 -0.0020431078
-0.00060814933 -0.02663585 -0.0075243018 0.0057287617 0.0100168 -0.021305557 0.047178503 -0.01114522
0.007010562 0.00082622544 0.0044511277 0.0065523842 0.030523723 0.004199383 -0.005437965 0.0017401151
-0.0041515543 0.007381958 0.0005480128 0.017448662 0.0053761313 -0.00063522946 0.076950304 -0.007838151
-0.001210472 -0.00069015834 0.009117153 0.00020737055 0.0916559 0.004592669 -0.0034259155 0.003534853
-0.0092308745 0.014721992 -0.013360705 0.008018415 -0.026529117 0.009278998 -0.0011448758 0.044437453
-0.012038207 -0.020029647 0.0039686295 -0.0052100904 -0.002482518 -0.002581513 -0.0029816288 -0.0050851684
0.011839681 0.006658072 -0.011122636 0.004307323 -0.0020988379 -0.07677541 0.001272533 0.034110583
0.005638499 -0.005772056 0.0036721006 0.005590631 0.011872311 -0.023456883 -0.0021026097 0.00086514995
0.0072559454 0.016264645 0.010887936 -0.010388566 0.0022557375 0.038179427 0.00677784 -0.00034803612
-0.005029783 -0.01443867 -0.0051850434 -0.046195682 -0.003278001 0.0060976925 -0.0034015565 0.0024900264
-0.0024155448 0.06770583 0.0020637037 0.0029418145 0.0027221881 -0.0046979194 -0.019780563 -0.009683881
-0.0022675968 0.0065290234 0.009641706 0.0150807565 0.0065436135 0.014280061 0.0035012534 0.015086122
0.049301878 -0.0077546225 0.003810672 -0.0039150533 -0.0012981473 0.0102570485 -0.0070473985 -0.021499977
0.0018504582 -0.0047669522 -0.0062986915 0.009480519 -0.026312351 -0.067666166 -0.008540573 0.0019097801
0.00028801864 0.04100911 0.010100885 -0.0018161716 0.005275616 0.018601717 -0.013656254 0.0008178388
-0.024486808 0.0005334311 -0.003050239 -0.0008662164 -0.008828823 0.001340056 0.0019872992 -0.0007402844
-0.00132693 0.025142478 -0.0007423507 0.0021260234 0.02988377 -0.090310335 -0.09917675 -0.0069351764
0.0018804725 -0.0013819557 0.0010126686 0.0030921136 0.038971804 -0.0029651753 0.0017655334 0.00068506686
-0.0024649797 0.0022239825 0.0036510667 -0.0018583396 -0.0016074441 0.00036361953 0.057307053 -0.00087850785
-2.418736e-05 0.0029020454 0.0009974955 -0.0005301307 -0.019075679 0.0023780481 -0.0017025942 -0.0021682377
-0.0022393346 0.0026362415 0.0037116082 0.0013273316 0.06798578 -0.00125125 -0.0010954678 0.05887633
0.00011087596 0.008202984 -0.0029416266 -0.001018611 -0.00050976564 -0.00032642137 -0.0006557451 -0.005309594
-0.06551506 0.028407259 -0.11001658 -0.0012441169 0.0013949819 0.0169089 -0.000111687965 0.06452149
4.2489453e-05 0.0018792565 0.00025832237 0.0014751621 0.048316807 0.012980809 0.0013774852 -0.00010076433
0.0012950995 0.034495115 0.002235651 -0.0014699319 0.0012404041 0.078636214 0.0010976521 -0.001979947
0.0006421818 0.0067151645 -0.00011781934 0.020679418 -0.0012689483 -0.0042743823 -0.0017861003 0.0008445256
-0.0015033757 0.050333433 0.000329907 -7.970929e-05 -0.0008629148 -0.0014102915 0.00708096 0.0041582016
-0.0023532633 -0.00017492776 0.019378023 -0.0011764293 0.00013589191 0.0030285602 -0.0027001977 -0.005029216
0.067970775 -0.000848545 0.0006432086 -0.0024386458 0.0013380313 0.04413951 0.0016840888 0.003649911
0.024969077 0.00017494234 -0.0005842304 0.048115548 0.06825318 0.07094799 -0.003451609 -2.573351e-05
-0.004081401 0.06573256 -0.0009830619 -0.00017990243 0.0012405169 -0.100855194 0.0030984606 -0.0029788213

distribution.mu.bias f4 [2]
00000000: 2745 133e bcaf 1abe
0.14381848 -0.151061

critic.network_body.vector_processors.0.normalizer.running_mean f4 [4]
00000000: a3e0 1e41 f746 5140 4111 07c1 dc3f d43f
9.929843 3.2699564 -8.441712 1.6581988

critic.network_body.vector_processors.0.normalizer.running_variance f4 [4]
00000000: 7e36 c742 4b16 3b41 af9d 014a 38a9 c449
99.60643 11.692943 2.1236278e+06 1.611047e+06

critic.network_body.linear_encoder.seq_layers.0.weight f4 [128, 4]
00000000: f29f 9d3e 26a4 43be 297a 87bd cf5d 51be
00000010: 1b32 2d3f 586e 283f 3030 87be 05ae f6be
00000020: 7ba5 8dbe b787 dbbe e39a cfbe 1a1b 8dbe
00000030: 10ab 153c 2358 d13e 7fcf 803e e623 ed3d
00000040: 8875 5a3d 9ac8 133f c214 18be 66ea b3be
00000050: 0c1d b0bf 67be 4cbe 7f5a 8c3e 9f0f 9a3e
00000060: 5305 1dbf 0775 ae3e 8234 9b3d bd26 94be
00000070: fc99 15bf b448 adbd f428 433f 5945 b33f
00000080: 0174 f3be 15a3 d0be 0c17 29be ff3e 27be
00000090: ee26 e03e 6ea9 1f3f eb98 3a3e ee2f 163e
000000a0: ddd0 b5be 894f d53e 47af 14be fe1e 97be
000000b0: 92b3 fbbe 369d a73e 26ad ef3e 3d31 27bf
000000c0: 7d59 64bf acd4 71be 5d1b cebd 52a4 f73d
000000d0: 88a1 8dbf 0a76 6cbe eef5 12bf 51ce ef3e
000000e0: 2621 803d b2cd 093f 90f4 1cbe 0fc5 803e
000000f0: 5584 753c 5070 a0bf 61a8 0a3f 15c6 303f
00000100: f70a a63e 77c9 07be ac8a 8d3e 59eb 7c3d
00000110: 0965 b43e 5cb4 fb3d bd53 0cbe 6c38 c13c
00000120: a73b 2fbd c285 febe 8b2e fdbd a625 03bf
00000130: 095d b3be d833 883e 8bec 00bf b9de a73e
00000140: 0ac8 cdbf a8ae 043e b323 3f3e af72 06bf
00000150: a457 0bbf 09be a43e ba5b 88bd 394d 87bd
00000160: 6dbf 993d fc24 f8be 2680 bb3e fd9d 86bc
00000170: 6fd5 353e 6fea 51bf 61dc 56bf 85d3 50bf
00000180: 0020 20bd 6063 0fbf f65e be3e 4bdd 233f
00000190: 1089 06bf f8d2 70bd 4cc9 fdbe 0f09 c33e
000001a0: 584a 08bd 917a e9be 4126 173e 99d0 43bf
000001b0: 29ac 173d 6266 d3be 793e 573f 3d1a 05ba
000001c0: 55d3 d1bd 49aa 0c3f e099 b6bf 01b9 e8be
000001d0: 1948 1abf 969d bbbe bf7e 0a3c 3694 84be
000001e0: 4c2f dd3e 4847 9abe a60d 54be 2071 24bf
000001f0: b987 3cbc 0b55 1f3d 7011 b33e e3e2 b0be
00000200: 21cc a3bd 36c6 9b3e 8683 4fbe 2cf0 f8be
00000210: bab0 323f a309 6a3e f792 4a3f d128 973f
00000220: 9de2 373e 6166 85be b262 12bf 3658 5bbf
00000230: cc47 10bf fe87 05bf fe97 1dbe c057 31bd
00000240: e92b 8dbe 3cf0 63be 95ce d8bc 8058 7a3f
00000250: 3ee0 ddbe 9968 17bf 551e 133e bcd8 33bf
00000260: be9d 473f 381f 39be 8dff eabe 1e83 d03e
00000270: 9a49 fd3d 51c3 3fbf c102 3bbd 7e84 3ebf
00000280: d5e7 f4bc 87b6 d5be 4e82 6abe 88be b1be
00000290: 3a4a eb3e 1e82 7fbe f6b7 d8be 443e 073f
000002a0: fc57 c9be 7c0f 9dbb 3a70 bebd 7792 683f
000002b0: 933c bf3e 99bc 283e 591e c03d 551a 03bf
000002c0: 3175 f43c 2e17 bebb fee2 9b3e 2e88 043f
000002d0: f7de 193e 1c09 b23c 50d3 debc b85b a4bc
000002e0: 2c4a b1bd d76d f7be 7b4e 78bd 3148 0fbf
000002f0: 3c5b 8b3e 408b 0dbf ebb3 87bf a160 e7bd
00000300: 65e4 013e 2f72 213e 76ad 3f3f f1a3 1e3e
00000310: 4364 7b3f 4de8 233f 66a6 b23d 3496 d6bd
00000320: 8443 4dbe 3fa7 8fbd f926 33be e3bc c3bd
00000330: e4b1 b7be c0cd 52be 873c b03d 8379 a93d
00000340: b682 1dbf 09a9 cabe 6083 7b3d ebd2 7c3d
00000350: fc0c 2e3f babd 103f 646a 8c3e b591 673e
00000360: ab5f 0f3b 21c3 cebe 9722 96be 215b 09bf
00000370: afe8 d9be 2583 483c e0b3 bf3e d6df 0bbf
00000380: aa70 46bd 5d7d 1bbf 3223 f3be cacc 8cbe
00000390: 8746 8fbd 97e4 443f cded 2abd 6650 afbd
000003a0: b8ab 3fbe 1fd8 60be 8673 963d 42a2 893c
000003b0: 128f 65be d967 3bbe 17ec e9be 8d8c bd3e
000003c0: 4c75 29bf 901a 42be 4c30 3bbe 5e38 b4be
000003d0: f53f 35bd de2b 313e 2108 8cbe a275 9bbe
000003e0: ba83 17be 3b87 013f f9c1 b4bf d639 273f
000003f0: 19cd 99be c758 3bbe 9cd2 11bf 00d2 3cbb
0.3078609 -0.19105586 -0.06615097 -0.20445941 0.6765458 0.6579337 -0.26403952 -0.4817964
-0.27665314 -0.4287698 -0.40547857 -0.2755974 0.009135023 0.40887555 0.25158307 0.11579113
0.053334743 0.5772797 -0.14851668 -0.3513977 -1.3758864 -0.19994508 0.27412793 0.30090043
-0.6133625 0.3407366 0.075783744 -0.28935805 -0.58438087 -0.08461133 0.76234365 1.4005538
-0.4754944 -0.40749422 -0.16512698 -0.16332625 0.437797 0.62367904 0.18222396 0.14666721
-0.35510913 0.41662243 -0.14519988 -0.29515833 -0.4916044 0.3273713 0.4681179 -0.65309507
-0.8919905 -0.23616284 -0.10063813 0.120918885 -1.106492 -0.23091903 -0.5740651 0.46837094
0.062563226 0.5382949 -0.15327668 0.25150344 0.014985164 -1.2534275 0.54163176 0.6905225
0.3243024 -0.13260446 0.2764486 0.061747883 0.35233334 0.1229026 -0.13703819 0.023586474
-0.0427815 -0.49711424 -0.12362393 -0.5122932 -0.35031918 0.26602054 -0.50360936 0.3278711
-1.6076672 0.12957251 0.18665962 -0.52518743 -0.54430604 0.32176235 -0.066581205 -0.06606526
0.07507215 -0.48465717 0.36621207 -0.016432757 0.177572 -0.8199834 -0.8393002 -0.81572753
-0.039093018 -0.5601101 0.37181824 0.6400954 -0.5255289 -0.058794945 -0.4956764 0.3809285
-0.033274025 -0.45601323 0.14760686 -0.7649017 0.03702942 -0.4128905 0.840797 -0.0005077457
-0.102453865 0.54947335 -1.4265709 -0.45453647 -0.6026626 -0.36643666 0.00845307 -0.25894326
0.43200147 -0.30132508 -0.20708331 -0.64235115 -0.011506968 0.038899463 0.3497424 -0.345481
-0.07997919 0.3042466 -0.20265016 -0.48620737 0.69800913 0.22855239 0.791305 1.1809331
0.1795754 -0.2605467 -0.5718185 -0.85681474 -0.56359553 -0.5216063 -0.15390012 -0.043296576
-0.27572563 -0.22259611 -0.026465693 0.9779129 -0.43335146 -0.5914398 0.1436704 -0.70252585
0.7797507 -0.18078315 -0.45898095 0.40725034 0.12367554 -0.74907404 -0.045656923 -0.7442092
-0.029895702 -0.4174082 -0.2290127 -0.34715676 0.45955068 -0.2495198 -0.4232785 0.52829385
-0.3932494 -0.0047931056 -0.09298749 0.9084849 0.37350902 0.16478194 0.09380788 -0.51212054
0.029841037 -0.005801103 0.3044662 0.51770294 0.1502646 0.02173286 -0.027200371 -0.020063266
-0.08656725 -0.4832599 -0.06062172 -0.5596953 0.27218044 -0.55290604 -1.0601782 -0.112977274
0.12684782 0.15766214 0.74874055 0.15492226 0.9819986 0.6402634 0.08723144 -0.10477868
-0.20045286 -0.070143215 -0.17495336 -0.09557512 -0.35877907 -0.205863 0.08605295 0.0827513
-0.61527574 -0.3958209 0.061404586 0.061724585 0.6798856 0.565395 0.2742492 0.22614177
0.002187709 -0.40383247 -0.29323265 -0.53654677 -0.42560336 0.012238299 0.3744192 -0.5463842
-0.04844729 -0.60738164 -0.4748779 -0.27499992 -0.06995874 0.769113 -0.04173069 -0.08560257
-0.18717849 -0.21957444 0.07346253 0.016801003 -0.22417858 -0.18301333 -0.45687935 0.37021294
-0.66194606 -0.18955445 -0.18280143 -0.35199255 -0.044250447 0.1730189 -0.27349952 -0.30363184
-0.14796343 0.5059697 -1.4121696 0.65322626 -0.3003929 -0.18295585 -0.5696199 -0.0028811693

critic.network_body.linear_encoder.seq_layers.0.bias f4 [128]
00000000: abb6 3ebe 1a2b 04be c810 91be 9b33 313d
00000010: 3d75 31bd e2a7 8abd 8320 e5bd 2fdd 97bd
00000020: 2e62 1f3e 2b19 a93d bda0 0cbe a31c f1bd
00000030: d1c6 85be 4d9c 41be 3ab8 10be 1633 ac3d
00000040: fc50 bc3d 9a20 c1bd 4703 b4bd 62ce 55be
00000050: a97c 9fbd 8b8f 09bc 9aef ed3d a817 cabd
00000060: 2275 9cbd 7e25 94be 02f9 27be 1861 cfbc
00000070: da17 73be 6bda f0bd 72a9 75be 25b9 acbc
00000080: a08f 8dbe 5656 ac3b d423 bfbd 5fa2 3dbe
00000090: 7c2c 80be 8d82 bdbd 81e1 9abe 9c6f 07be
000000a0: 8efb cdbd 0a10 41be b123 1bbe 7e82 ebbd
000000b0: a7e7 17bd f70f b4bc ac1f d5bd 1f4d 0abe
000000c0: ed38 873d cb5b 013d f04f 40be 0f05 86bb
000000d0: bd32 75bb 5d78 3e3e ff01 cfbd 3d76 24be
000000e0: 1a9d d3bd 6aec 22bc f1c5 30bd c4ae 5cbe
000000f0: 5fec 91bd 785d 5ebe 708b 7cbe 49e9 41be
00000100: 2057 05be e188 2cbe 9bc2 3bbe 9765 a93d
00000110: a3e9 9cbd fb57 eabd 7b66 2dbe adc7 7bbe
00000120: 702b 26be c67a a9bc ed6e 2fbd c074 1d3e
00000130: eb2a 7cbe 9319 103e 4c88 43be d5b9 06bd
00000140: 3078 2cbd cdf4 cfbd 7d87 42be 1554 e23d
00000150: a0b9 1ebe c302 3cbe 23a1 69be a137 5bbe
00000160: c593 2ebe c589 b8bd 1d69 4cbd 6007 c7bd
00000170: 7c65 91be 6b9f 65bd 59a5 8abe 05d5 6cbe
00000180: fb34 363e d3a9 9cbd 8ac0 83be 8cfb a1bd
00000190: 2a9f 7fbd dc4b dabd 3e9b 0fbe bbb1 64bd
000001a0: 41dc d2bd 2ac0 f5bd 5769 1fbe 39a0 48be
000001b0: b69a 40be caf6 38be 341b b4bd 7204 4e3e
000001c0: 1db0 2b3e b6ef 47be b6d5 41be a108 5abe
000001d0: cf35 33be 9bf7 0c3d 31ce ea3d e377 50be
000001e0: 0394 3fbe 09d8 93be aec3 96be ce52 09be
000001f0: 8a3e eb3c fe5b 47bb 6116 41bd b987 c93c
-0.1862437 -0.12907067 -0.28333116 0.043262105 -0.043324698 -0.06770302 -0.11187842 -0.07415234
0.15564796 0.082567535 -0.13733192 -0.1177304 -0.26128247 -0.1890728 -0.14132777 0.08408181
0.09195134 -0.094300464 -0.087896876 -0.2087951 -0.07787449 -0.00839604 0.11617966 -0.09867793
-0.07639529 -0.28934854 -0.16403583 -0.025314853 -0.23739567 -0.1176041 -0.2399042 -0.021084378
-0.2764864 0.0052593155 -0.093330055 -0.18518971 -0.2503394 -0.09253416 -0.3025017 -0.1322617
-0.10057746 -0.18853775 -0.15150334 -0.11499499 -0.037086155 -0.021980269 -0.104064316 -0.13505982
0.066026546 0.03158168 -0.18780494 -0.0040899585 -0.0037414276 0.18600602 -0.101078026 -0.1606073
-0.10332699 -0.009944061 -0.04315752 -0.21551043 -0.07125162 -0.21715343 -0.24662566 -0.18936647
-0.13021517 -0.1684909 -0.18335955 0.0827133 -0.0766175 -0.11442562 -0.16933624 -0.24587889
-0.16227508 -0.020688426 -0.042830396 0.15376568 -0.24625747 0.14072256 -0.19094962 -0.032892067
-0.042106807 -0.10154114 -0.18996997 0.110511936 -0.15500498 -0.18360429 -0.22815375 -0.2140794
-0.17048557 -0.090106525 -0.04990493 -0.097182035 -0.2839774 -0.056060236 -0.27079275 -0.23128136
0.17793648 -0.07649579 -0.25732833 -0.07909307 -0.06240765 -0.10659 -0.14024064 -0.05583356
-0.10295916 -0.11999543 -0.15567528 -0.1959237 -0.18809018 -0.18062893 -0.08794251 0.20118883
0.167664 -0.19525036 -0.1892918 -0.21292354 -0.17500995 0.034415822 0.11465109 -0.20358233
-0.18708806 -0.2887576 -0.29446167 -0.13410494 0.028716344 -0.0030419822 -0.047140483 0.02460085

critic.network_body.linear_encoder.seq_layers.2.weight f4 [128, 128]
00000000: 8484 093e 2097 853d 38a2 5e3e a119 98bd
00000010: afd3 603d ef21 ce3d e8ef a53d e5ba dabd
00000020: 83d9 65bd 5b1f cdbd fe2c 07be c2e8 10bd
00000030: efd4 a73d 6406 f5bd 5076 0d3e dc5b 783d
00000040: 8a60 37be 9694 b4bb 1ee2 adbb 71cf 15bb
00000050: 626c c0bc 4d16 d53d 7e75 b83d 0709 923b
00000060: 6a68 b13d 682a efbb 721e 7ebd 6557 62bc
00000070: ec15 083e ee41 d43d 4b79 a4bd f844 3bbc
00000080: 3910 b63d 715e d6bd 0327 18be 16e4 8b3d
00000090: 76b0 023c b317 32bd bc8a 803d 3684 97bd
000000a0: a1f4 b7bc 64ce c5bd d651 b3bc ba87 253d
000000b0: 3602 e2bc bc15 abbd 895b 00be 31ce 153b
000000c0: 0e8f 32bd f412 edbc f1f9 ab3d d8f9 a93c
000000d0: 609b 2abd 9433 8f3d 8c6c 13be 75bc 89bd
000000e0: 799c 0dbe 96f4 9dbd 9cdc 3c3e 24b5 e8bd
000000f0: 786f 163e 77c5 813c 8763 b13b 59d2 823d
00000100: bc06 d93d 6a6f 813c c0d0 1dbd 00f4 71bd
00000110: 8702 0abe ae2c debd eb59 11be dfb5 2a3c
00000120: 4137 8ebd 0fdd 083d 20ee d0bd 2803 ba3d
00000130: cb55 213e 0b66 23be 0d0c 0d3e 814f 25bd
00000140: 3a20 f1bc 0f0d 9fbd 83ea 9bbd 5f26 5fbc
00000150: 55cf e53d 3d7a 38bd 507e b33c b506 cdbd
00000160: 4eb4 2ebd 9956 30bd fb2c 1f3e d17d 223d
00000170: 04f2 f43d 720b 363d 6228 40bb 42c5 203e
00000180: ffde b5bc 2f89 8fbc dfbf 273e 6204 cb3c
00000190: 0712 9ebd d7d4 9abd fa3e adbd 6374 64be
000001a0: 64a0 9e3d 1879 db3d 6600 f9bd d4da 9a3d
000001b0: 5999 1abc ee55 dd3d c975 1ebe 835d 7abd
000001c0: faf9 98bd ecbc 223e bcc5 2d3d 761a 693c
000001d0: 9059 af3c 100d 8e3d 4e8a 14be b305 603d
000001e0: 04e4 e439 bf3c 27b9 ab73 143e c14e b03d
000001f0: 12c5 bf3d 70a6 363e e76b 00bd 2b10 8dbc
00000200: 82aa 153c b3ce 0a3e c06a 9c3c 500f 1ebc
00000210: a115 c4bd 26ca 80bd cb8b 833d 31e1 73bd
00000220: a363 0bbc 256a 8ebd f207 68bc be41 cdbd
00000230: 7d58 f33d 24e0 963d 63e3 97bd f172 b33b
00000240: 5c04 ccbd acd5 833d 1a5a 40be 93e7 fdbb
00000250: 736b 973d 9185 9b3d 3ae8 98be 360a 133e
00000260: be6c 913c 8f07 383c f801 903d aa40 2fbd
00000270: 4915 f03d 0fd6 9abd 45a1 23be e723 e8bc
00000280: 09c8 fa3c 2f8a f3bc b6f0 ec3b b39a e4bc
00000290: 9af6 86bd b7ce edbc d4c2 9d3c 2f41 133d
000002a0: ba3c 9d3d 8f52 273d 756f 82bd efc6 463d
000002b0: aa79 61bc 22f5 83bd fc45 32bd 4668 c73b
000002c0: e31d 0abd c34b abbd 95d4 2cbe b8d5 63bd
000002d0: 7679 a3bc 1fda e2bd 5bb6 9fbd 2d54 0abe
000002e0: 674d fbbc 3eb8 be3d 3ee3 fdb9 ab0b 9ebe
000002f0: 0ba9 3dbd f6b9 b3bc 33bb 8f3c 42b8 f33d
00000300: 9533 debd 874e 543d 9b3c 91bd 4754 773d
00000310: 05f0 883d 2670 d03d 2c89 a33c 2e0e 243e
00000320: 4008 ce3d ab57 babd 4c05 e53d f98a 27bc
00000330: 6bf1 953d 4b63 4e3b 09fa f1bd 473d c33b
00000340: 34ea 333b d136 4bbe 2ba8 b73c b394 423d
00000350: aa3f 473d f87e 483d 5ab0 00bd 8b9d f7bc
00000360: 22ce b1bd 733a 87bd 9a4c 293d 75b9 c13d
00000370: 6c7f 0d3e 2f0f 423d ea2f 993d 276e 903c
00000380: aecb 29be 8166 c03c 0c26 38be 0993 563d
00000390: fda2 6ebd d202 a73d cb66 b2bd a2d1 85bc
000003a0: 078d e33c 7b17 8dbc bf47 a5bc e084 f5bd
000003b0: a3b5 4dbd 1dd9 053e dbaf b13d 166f 723e
000003c0: 0c53 11bd 6306 a4bd 9b15 2fbd 0868 86bd
000003d0: b45e 7bbd c59c 623d dfd8 553d 19c1 07be
000003e0: 2473 23bd 2de2 c73d 047f 79bd cb1e 95bd
000003f0: 1845 883d 77ce 83bd 81ac 85bd ae0b 293c
0.13429457 0.065229654 0.21741569 -0.07426763 0.054889377 0.10065066 0.08102399 -0.106801786
-0.05611564 -0.10015746 -0.13200757 -0.035378225 0.08194911 -0.119641095 0.13814664 0.06063448
-0.1790792 -0.005510877 -0.0053064963 -0.002285924 -0.023489181 0.10404644 0.09006785 0.0044566425
0.086624935 -0.0072987564 -0.062040754 -0.013814782 0.13289613 0.103641376 -0.08030947 -0.011430018
0.08889813 -0.10467232 -0.14858632 0.06830613 0.007976642 -0.043479633 0.062764615 -0.07398264
-0.022455515 -0.096585065 -0.021889608 0.040412642 -0.027588945 -0.08353755 -0.12534918 0.0022858495
-0.04359346 -0.028939702 0.08397282 0.020749018 -0.041652083 0.069922596 -0.14396876 -0.067253985
-0.13829221 -0.07712667 0.18443531 -0.11362675 0.1469096 0.015841229 0.005413476 0.06387777
0.105969876 0.015800197 -0.038529158 -0.059070587 -0.13477527 -0.10848366 -0.14194457 0.010419338
-0.069441326 0.033413943 -0.10201669 0.09082633 0.15755384 -0.15956895 0.13774128 -0.040359024
-0.029434312 -0.077661626 -0.07613089 -0.013619988 0.11221186 -0.04503845 0.021910816 -0.10011045
-0.04265242 -0.043051336 0.15544502 0.03967077 0.11960223 0.04444451 -0.0029320945 0.15700248
-0.02220106 -0.017521469 0.16381787 0.024782363 -0.07718282 -0.07560127 -0.084592775 -0.22310023
0.07745436 0.10716456 -0.12158279 0.075612694 -0.009435975 0.108074054 -0.15474619 -0.061124336
-0.07469554 0.1589238 0.042424902 0.0142275 0.021405011 0.06936085 -0.14505884 0.054692935
0.00043657434 -0.00015948991 0.14497249 0.08608771 0.0936376 0.17836928 -0.031352904 -0.017219624
0.0091348905 0.13555412 0.019093871 -0.0096472055 -0.09574438 -0.06288557 0.06423148 -0.05954093
-0.008507642 -0.06953839 -0.014162051 -0.10022305 0.11882112 0.0736697 -0.074164174 0.0054763486
-0.09961769 0.06437239 -0.18784371 -0.007748553 0.07393541 0.07593835 -0.29864675 0.14359364
0.017752048 0.011232271 0.070316255 -0.042786278 0.1172281 -0.0756036 -0.15979488 -0.028337432
0.030612962 -0.029728977 0.0072308434 -0.027905798 -0.06590004 -0.029029233 0.01925794 0.035950836
0.07677598 0.04085022 -0.06368915 0.04852956 -0.013761917 -0.0644324 -0.043523774 0.0060854284
-0.03371991 -0.0836406 -0.16877969 -0.05562374 -0.019955378 -0.110767595 -0.077984534 -0.13508673
-0.030676557 0.09312485 -0.0004842523 -0.30868277 -0.04630379 -0.021939259 0.017545318 0.11900379
-0.10849682 0.051832702 -0.07091638 0.060383108 0.06686405 0.101776406 0.01996287 0.16021034
0.10060167 -0.090987526 0.11182651 -0.010226005 0.073214374 0.0031492289 -0.118152685 0.0059582326
0.0027452828 -0.1984513 0.022419056 0.047505092 0.0486447 0.04894921 -0.031418182 -0.03022649
-0.08681895 -0.06602945 0.04133282 0.09459201 0.13818139 0.04737776 0.07479842 0.01763065
-0.16581604 0.023486378 -0.17983264 0.052386317 -0.058260906 0.08154835 -0.087110125 -0.016335312
0.027777208 -0.01722311 -0.020175813 -0.119882345 -0.05022205 0.13071103 0.0867612 0.23675188
-0.03547959 -0.08009031 -0.042745214 -0.06562811 -0.061369613 0.05532529 0.052208778 -0.13257255
-0.03990473 0.097599365 -0.060912147 -0.07281264 0.066538036 -0.064358644 -0.06527043 0.010317726

critic.network_body.linear_encoder.seq_layers.2.bias f4 [128]
00000000: 022e d9bd 026e 9bbc 1a0b 07be a1fa a9bc
00000010: 3549 4b3d 1475 b53c be4d 12bd f1b4 d8bd
00000020: a0c0 b6bd e968 07bd b149 f3bd 06c0 d3bd
00000030: 05a5 92bd 880d d13d 27a1 b53c d965 e8ba
00000040: 9df1 abbc 1a2e 11be ee8c 973d bd55 a4bd
00000050: 429f 19be b792 63bd 411b 17be 90c5 203d
00000060: 28ba 52bd e40f 55bc 2998 e7bc a5f7 2e3d
00000070: eb19 8f3c b3c0 26be 9a91 1b3d 5131 a73c
00000080: 690b 113d 46d0 113e ff2f a9bd cd4f 36bc
00000090: f636 4ebb ba09 32bd 22db 16bc 3fde fbbd
000000a0: fafd 613b 95fd 0a3b 6514 173d bcc9 f139
000000b0: 2e20 12be 9e4f fdbd d34b 03be bdeb a1be
000000c0: ab69 00be be9a 1c3d 6c4b 1bbb c8d0 ac3c
000000d0: 4a3a e2bd 5353 cd3c 836f 6dbd e609 5ebd
000000e0: 29b1 333d 9653 e2bd 5ac1 a1be 3ca2 2b3d
000000f0: 6cd4 8cbb 866d b23c ec1c 49bd cd11 303d
00000100: 6d74 0dbc a482 2a3c 9cee 30bd 8f8d 133c
00000110: 790c f63c 8fa9 eebd 94de 5f3d a375 943c
00000120: 5078 2cbe 6c9f 0fbc 169d 06be b93d 8e3d
00000130: 619f 12bd 22ca 8abd 518f fabd d476 bebb
00000140: 929f 3c3d 31df 613d fec9 0ebe e3ec 58bd
00000150: f70c 183c ad5d 11be 0092 4b3d 2b3e d2bd
00000160: 52f7 443d 06bd f1bb 7626 d2bd 4b00 d5bc
00000170: e836 02be f94c 043c 38af b7bd 747e a53d
00000180: a607 e53d c541 01bd c43d 18be 596c e9bd
00000190: 74ae b9bd 65cc 593d 7cf4 e2bd e501 f3bd
000001a0: 529c c33d 07f8 b43b eb1c aa3c 9f5c 02be
000001b0: a579 d039 d199 e1bd 8eb9 29be 5c90 dcbd
000001c0: fd03 3bbd d6ad cebd 63fe 543d 9ada f03c
000001d0: ca52 e1bd ad14 e6bd 9439 16bd f22c bfbc
000001e0: a6de 053e 840a 43bb 22cc 12be 8d53 a6bb
000001f0: 1e8a 9dbd 2ac5 a53c cf5d 1dbe ca3a 543d
-0.106044784 -0.018973354 -0.13187829 -0.020749392 0.049630363 0.022150554 -0.035718672 -0.10581387
-0.08923459 -0.033059034 -0.1187929 -0.1033936 -0.07160381 0.10207659 0.02217157 -0.0017730548
-0.020989234 -0.14177743 0.07399927 -0.08024166 -0.15002158 -0.05555984 -0.1475649 0.03925091
-0.051447064 -0.013004277 -0.028270798 0.04271664 0.017468413 -0.16284446 0.037980653 0.020409258
0.035411272 0.14239606 -0.08261108 -0.011127424 -0.0031465865 -0.043466307 -0.009207519 -0.122982495
0.0034483657 0.0021208276 0.036884684 0.00046117406 -0.14270088 -0.123687014 -0.12821893 -0.31625167
-0.12540309 0.03823351 -0.0023696078 0.021095648 -0.11046274 0.025064146 -0.057967674 -0.05420866
0.043870125 -0.11051099 -0.31592828 0.041902766 -0.0042977836 0.02178074 -0.049099848 0.042985726
-0.008633715 0.010407124 -0.043196306 0.009005918 0.030035244 -0.116534345 0.054655626 0.0181225
-0.1684277 -0.0087660365 -0.13145861 0.069453664 -0.035796527 -0.06776835 -0.12234367 -0.0058125053
0.046050616 0.055144493 -0.13944241 -0.052960288 0.009280435 -0.1419589 0.049699783 -0.10265764
0.048087426 -0.0073772697 -0.10261242 -0.026001116 -0.12716258 0.008074992 -0.08968967 0.0808076
0.111830994 -0.031556863 -0.14867312 -0.11397619 -0.090664774 0.05317344 -0.11081788 -0.11865596
0.095513 0.005522731 0.020765742 -0.12730645 0.00039763484 -0.11015666 -0.1657469 -0.10769722
-0.0456581 -0.1009175 0.052000415 0.029401112 -0.11002119 -0.11234412 -0.036676005 -0.023336861
0.13073215 -0.0029760906 -0.14335683 -0.005075878 -0.076923594 0.020235617 -0.15367816 0.051813878

critic.value_heads.value_heads.extrinsic.weight f4 [1, 128]
00000000: c4b8 febd c4df 44b8 b5d7 25be 3b0e 8cb8
00000010: d63e 073d 0e3e 91b8 3781 5aba 5c04 9fbd
00000020: 3b65 39bd acf1 42ba 44ea a4bd e2e4 a7bd
00000030: 15aa d8bc b5b0 4eba d2d2 603e 679c 1e3a
00000040: 6205 fa39 2923 28be cbed 323e 8bfb 15bb
00000050: a651 8ebd 07a6 b1ba c24f 43be b727 b33c
00000060: b190 ca37 ecdf e5b9 5fc7 e5b9 ce97 003d
00000070: 99a7 3b3c 2515 12bd b852 b83e ee66 d4ba
00000080: 0951 1539 9d02 073e 4158 b0bd 8178 883a
00000090: 39f2 15b9 bddb 03bb b216 8939 a6c7 8ebb
000000a0: cce5 133a 25fb 06bc 844d 0c3d f3c8 2cba
000000b0: 48ee 0abe 51b5 ddbd 54dc 6e3b 4736 f7bc
000000c0: 243d b8bd 0665 303d 03f0 433a cafa b239
000000d0: 89a3 49be 3c77 773c 327d 87ba 3e39 03ba
000000e0: 6fed c63c a4a4 ccbd e509 31bd 5f52 293d
000000f0: 43ba c33a 8d1a cfb9 4d91 c5b9 b6c4 2cbd
00000100: 4b0a 5938 49f2 253a 6142 87ba 5527 463d
00000110: 980c 4a3a fac9 12be 23b4 c23d 07e2 043a
00000120: 2fe7 6abe 9684 7a39 0cb1 3bbe d728 073e
00000130: c793 beba aa98 84bb 3075 36be ba39 cc39
00000140: 0e9f 9e39 e9cc cf3d a77f dbbd 9b21 54bd
00000150: 28c0 78b9 63d1 e2bd 36dd ae3d bea0 2cbe
00000160: 4fa5 783d 72fe 193a ebb7 8abd 780a 13ba
00000170: 381b d6bd 84c4 a137 fb74 26b9 8615 443e
00000180: 9b5b 0ebc 96c4 38bc 756a bfbc bc0f 54be
00000190: 707d 77bd 3d43 913d 71a6 34be a8a1 bd39
000001a0: 59aa fb3b 6745 35bb 700f fb3a 6348 b7bd
000001b0: b041 423a 02c5 19bd 553c b9bd 0844 91bd
000001c0: 1c8a e2b9 523e 42bd 00e6 02ba 8331 1fba
000001d0: 0b40 32be 143e e4bd 263f 93b9 bd1e 8d3c
000001e0: a438 ce3d f943 48ba 8f39 3fbe a50f 85ba
000001f0: 8b66 4fbd 4c6b 213a 6b83 1abe 7d4d 963d
-0.12437585 -4.693844e-05 -0.16195567 -6.678371e-05 0.03301891 -6.9256974e-05 -0.00083352946 -0.07764503
-0.045262557 -0.00074365246 -0.08052495 -0.08197953 -0.026448289 -0.0007884608 0.21955422 0.00060505274
0.00047687726 -0.16419663 0.17473523 -0.0022885527 -0.06949167 -0.0013553508 -0.19073394 0.021869523
2.4147654e-05 -0.00043845118 -0.00043826827 0.031394772 0.011453533 -0.035664696 0.3600061 -0.0016204992
0.00014239935 0.1318459 -0.08610583 0.001041189 -0.00014299982 -0.0020119988 0.00026147586 -0.004357296
0.00056418474 -0.008238588 0.034253612 -0.0006591223 -0.1356746 -0.10825599 0.0036447244 -0.030177249
-0.08996037 0.043065093 0.0007474424 0.00034137658 -0.1969129 0.015104111 -0.0010336994 -0.0005005783
0.024283139 -0.0999234 -0.043222327 0.04133832 0.001493283 -0.000395019 -0.00037683026 -0.042179786
5.1746418e-05 0.0006330354 -0.0010319465 0.048377354 0.0007707565 -0.1433486 0.095070146 0.0005069081
-0.22939752 0.0002389125 -0.18329257 0.13199173 -0.0014539891 -0.0040465193 -0.17818141 0.00038952922
0.00030254613 0.101465054 -0.10717707 -0.05178986 -0.00023722707 -0.110750936 0.085382864 -0.16858193
0.060704526 0.0005874402 -0.06773361 -0.0005609165 -0.1045441 1.9284205e-05 -0.00015874572 0.19148836
-0.008688833 -0.0112773385 -0.023366192 -0.20709127 -0.06042236 0.07092903 -0.17641617 0.00036169332
0.007680219 -0.0027659775 0.0019154381 -0.089493535 0.0007410301 -0.037541397 -0.090447105 -0.07093054
-0.0004320898 -0.047422715 -0.0004993379 -0.00060727465 -0.17407243 -0.11144653 -0.00028085074 0.017226571
0.10069397 -0.0007639523 -0.186743 -0.0010151757 -0.050634902 0.0006157651 -0.15089194 0.073389985
