ml-agents-master/ml-agents/config/results/ppo/LineCreator/LineCreator-120930.onnx (onnx, 71632 bytes, 9 tensors)

53 f4 [4]
00000000: d11a eb3c 031b 213c eaa6 7040 fb3f 2940
0.02869931 0.0098331 3.7601876 2.64453

54 f4 [1, 2]
00000000: 3ca1 b93c 5977 e83b
0.02265989 0.0070943055

distribution.mu.bias f4 [2]
00000000: f87a e03d 876d 3fbc
0.109609544 -0.011683828

distribution.mu.weight f4 [2, 128]
00000000: c814 23bd 62d0 023c 8671 7ebb 571e 963a
00000010: cd26 b53a d084 e539 f6ee c1bb ab19 86bb
00000020: 82e8 413d 3e82 ab3b 830d d8bc 789a 173b
00000030: ab28 b8ba 6073 563d 1b6f d23b ac87 c83a
00000040: a0f7 103a cc53 f5b9 ab12 98ba 7563 79ba
00000050: 4703 813c fdc5 c53c 02f6 063d b42e 903b
00000060: dee4 593b 94f8 2e3b 7dd2 a837 b8cd 27ba
00000070: 926d fd3b 1b57 ef3b aaf4 193b fbfc 86b7
00000080: b42e a5ba c7fb d23a e72f 9b3b c563 b3ba
00000090: f2f5 5c3b 4acc 4d3b d4be 913b d2bd b23c
000000a0: 88d6 103b 03ba a2bb 2d61 35b8 b9b8 a3b9
000000b0: 5a81 e63a 5f7d 7a3b 610a ce3a aa05 c23a
000000c0: 7fd6 bebc 05d2 18bd 3943 823d 774f 4dbb
000000d0: efe6 043c 4040 bfbc 056b eb3c eeef bc3a
000000e0: da87 99bb 2cc5 a23b 9bcd 423b bebf 103d
000000f0: 26c4 d83a a708 a7bd 93d0 db3c 44a3 553b
00000100: 9975 603a ae53 573a a82f 45bd 699b 113b
00000110: 1724 11bb 78a5 043c 3b3b 873b c732 cd3b
00000120: 4c19 033a 48b0 373b dd8f 0a3b 6bcc 553b
00000130: e50e 053b 638b dd3c 35ee 063d a332 67ba
00000140: 6bd0 683a 555e 863b a90b 16ba 1504 88bc
00000150: 9a10 15bd ca80 2bbb d698 ec3b f775 e9ba
00000160: 1510 e0ba c44d 23bb f319 a73b fda7 1d3b
00000170: f25e 923b 28f2 e139 642d 89bb 3acf b43b
00000180: d2c7 8e3d ab15 f63c aee1 8f3a a1d6 d03a
00000190: 1bca c138 6730 983b 253c 013b 4c82 66ba
000001a0: 17f3 933b 1e8d e738 557e 89bd f9ad 4ab7
000001b0: 3772 3fbb 2620 32bb c992 3f3a 2486 ef3a
000001c0: 4d91 adba a32f fe3b 9321 b039 af28 1fbb
000001d0: 71ac 463d d379 b2ba c20c 8c3b 54f0 c23a
000001e0: 9c38 89bd a3ed 5c3b eaf6 c83b 689c 263b
000001f0: e686 e9ba 4b96 823c f2c5 1f3a f0ed a83a
00000200: ecdd 003b b926 ccbb a86e 1d3c 6f3f c2b9
00000210: f5fc 64ba e3a7 67ba e7c4 213d cd60 9c3b
00000220: 7e35 37bd 14ac 80bb 5baf fcbb 49db 87bb
00000230: 8f25 ab3b 3c8e 8dbd 5028 e3bb 7645 e2ba
00000240: 8aba c93a 8129 01ba 87e5 dd3a 4669 9a39
00000250: c9f6 2a3d a203 aebb d560 8abc f88a adbb
00000260: 0f94 8cbb fdf2 49bb 97bd 06ba b03a 2f3a
00000270: 7106 7f3b 2e54 a1bb 793c aabb 0951 6e3a
00000280: 3404 ba3a a603 5dbb 6e54 c6bb 8a3a 133b
00000290: 9fff d7bb 7bcd 95bb dbf0 b3bb eeb1 96bc
000002a0: 4d41 99bb 8384 70bb 8cef c3b9 ad0e 69b9
000002b0: 6604 85ba fbf7 8bbb 5e7b 94ba 7c8e 33bb
000002c0: 30c2 dbbc 9bd6 933c 8992 8fbd 531d af3b
000002d0: 5cd4 0f3c c5e2 6bbc 8172 87bd be2f 87ba
000002e0: 91fb bb3b 3e18 26bb c2f2 62bb 4b93 2cbc
000002f0: 2719 e2ba 72e7 613d 4572 5ebc 950a caba
00000300: e193 8d3a efa5 0ebb e54c c33c 6f61 9dba
00000310: 92e5 903b 1312 e7bb 5b5d 77bb 3e08 723d
00000320: 692c afb9 6484 cdba 0c0a 05bb ee93 f139
00000330: e2fe 22bb c752 6abd f44a 7dbc fb2a 5f38
00000340: 63ec 4db9 4660 95bb f90a 58b9 d45a 283c
00000350: 4169 22bd a670 ca3a be29 673b 6692 74bb
00000360: c7e0 df38 bd6e 423b ee20 a5bb 685f 8bbb
00000370: 1191 38bb ca66 e6ba 79b1 ae3b 322f eabb
00000380: 518e 453d eb17 79bd fec8 20ba 798e 1dbb
00000390: 74bf d9ba 9934 d2bb 9293 caba 34a1 853b
000003a0: 6cc2 a2bb ade5 e2ba d71f ad3c 7ada f53a
000003b0: c1d8 51bd fec7 d7ba e25c c1ba bc3b dd3a
000003c0: c02a 263c d39b 43bb 1b3f 94ba 4079 86bb
000003d0: 5064 c9bd f2c1 a53a f5f8 7fbb 4b69 14bb
000003e0: 8827 db3c af15 43bb c833 a5bb b090 2abb
000003f0: c18f a03b 7988 a53d 1faa b539 18b4 3cbb
-0.03981474 0.007984253 -0.003882499 0.0011453134 0.0013820768 0.00043777237 -0.005918379 -0.0040924153
0.047340877 0.005234032 -0.02637363 0.0023132842 -0.0014050206 0.052356124 0.006421936 0.0015299222
0.0005530063 -0.00046792475 -0.0011602243 -0.00095134164 0.015748633 0.02414226 0.032949455 0.0044000987
0.0033247988 0.0026698457 2.0125177e-05 -0.0006401199 0.007734009 0.007304085 0.0023491778 -1.6091848e-05
-0.001260242 0.0016096764 0.004735935 -0.001368635 0.003371593 0.0031402283 0.0044477973 0.021819029
0.0022100527 -0.004966022 -4.3244265e-05 -0.00031227412 0.0017586157 0.00382217 0.0015719646 0.0014802713
-0.02329564 -0.037309665 0.06360478 -0.0031327882 0.0081116995 -0.023346066 0.028737554 0.0014414766
-0.004685384 0.0049673524 0.0029724601 0.03533911 0.0016537949 -0.08155947 0.026832854 0.0032598535
0.00085624453 0.00082140684 -0.04814115 0.0022217876 -0.0022146755 0.008096091 0.004126934 0.0062621566
0.0005001023 0.0028028656 0.0021142878 0.0032623063 0.0020303067 0.027044004 0.032942016 -0.0008819496
0.00088811544 0.0041006007 -0.00057237834 -0.016603509 -0.036392786 -0.0026169294 0.007220368 -0.0017811646
-0.0017094637 -0.0024918178 0.005099529 0.0024056428 0.004466885 0.00043095765 -0.004186319 0.0055178674
0.069717064 0.030039629 0.0010977292 0.0015933105 9.240602e-05 0.004644442 0.0019719687 -0.00087932195
0.0045150626 0.000110412235 -0.06713549 -1.2080644e-05 -0.0029212364 -0.0027179806 0.00073079445 0.001827423
-0.0013242156 0.0077571436 0.0003359435 -0.0024285724 0.048504297 -0.0013616629 0.004273982 0.0014872649
-0.067002505 0.0033710978 0.00613295 0.0025422815 -0.0017816692 0.015940806 0.0006094865 0.0012888294
0.0019663526 -0.006230202 0.009608902 -0.00037049825 -0.00087352033 -0.0008836968 0.03949442 0.0047722817
-0.04472875 -0.0039267633 -0.0077113337 -0.004146014 0.005222983 -0.06911895 -0.006932296 -0.0017263133
0.0015390676 -0.0004927144 0.0016929366 0.00029451604 0.04173926 -0.0053104917 -0.016891876 -0.0052961074
-0.004290111 -0.0030814998 -0.00051399454 0.00066844653 0.0038913751 -0.004923365 -0.005195197 0.00090910547
0.0014191926 -0.0033724098 -0.0060525453 0.0022465312 -0.0065917517 -0.0045716143 -0.0054913587 -0.01839539
-0.004676974 -0.0036700077 -0.00037371775 -0.00022226079 -0.0010148406 -0.004271505 -0.001132827 -0.002739816
-0.026825994 0.018046668 -0.07010371 0.005344072 0.008778658 -0.014397328 -0.06613637 -0.0010313911
0.005736776 -0.002534404 -0.0034629558 -0.010533164 -0.0017249928 0.055152364 -0.013577049 -0.0015414531
0.0010801518 -0.0021766385 0.023840377 -0.0012007187 0.004421898 -0.007051715 -0.0037744853 0.05908989
-0.0003341169 -0.0015679714 -0.0020300178 0.00046077318 -0.002487116 -0.05720785 -0.015459765 5.3207372e-05
-0.00019638384 -0.004558596 -0.00020603453 0.010275561 -0.03965116 0.0015444949 0.0035272683 -0.0037318706
0.00010675337 0.0029668056 -0.005039326 -0.0042533167 -0.0028162638 -0.0017578241 0.005331215 -0.0071467394
0.048231427 -0.060813826 -0.0006133466 -0.002404122 -0.0016612844 -0.0064149615 -0.0015455356 0.004078055
-0.0049670245 -0.001731088 0.021133346 0.0018757128 -0.051232103 -0.00164628 -0.0014752413 0.0016878764
0.010142028 -0.0029847517 -0.0011310311 -0.0041038096 -0.09833586 0.0012646301 -0.0039058302 -0.0022645767
0.026752248 -0.0029767563 -0.005041573 -0.0026026182 0.0048999493 0.08082671 0.0003464976 -0.0028793868

network_body.linear_encoder.seq_layers.0.bias f4 [128]
00000000: 3285 17bd 51cb b9bd b0cb ad3d ff06 9c3d
00000010: 04f3 11be cc57 ed3d ef20 803c ec2d 02be
00000020: 6b82 e1bd 37a0 cc3d eac3 92bc 6dfa 6e3d
00000030: 8a74 12b8 4ff6 103e 1e4c 87bc 8ca3 92bc
00000040: 1102 08be e00d 4fbd 545d 493d 83b8 a0bd
00000050: 24fc 283c beca d53c a48f 983d 0221 efbc
00000060: 7223 c4bd c456 1abe 9233 7a3d 3c4c 033d
00000070: 28c3 dc3c e986 063e 85fe c5bd 6235 f03c
00000080: bcd2 f1bc 4040 8c3c d337 4abd b7f2 1f3d
00000090: 4cfd 23be c90d 4bbe 7c59 9dbd c2ef fcbd
000000a0: 6c3b 1cbd 0611 02be b8a3 043e a0ff 3ebe
000000b0: af68 38be c780 bb3d 2dba ebbd c249 8fbd
000000c0: 93e1 873d 0e6b 45be bb68 48bd 1820 6fbd
000000d0: 888c 7a3d 6e78 aabd 29c8 5fbd a7f0 78bd
000000e0: f6a1 f13b 43ec 3dbe 0145 4d3b 5f3e dfbb
000000f0: e99a b3bd 52d5 9d3d b520 163e 08ae 96bc
00000100: 41e3 b9bc fce2 6abd 4f20 e6bd 6e20 d4bd
00000110: 4ec9 55bd 0c90 0dbc ac4b c63d d14d 74bd
00000120: 7f50 223c 8d07 6bbd 0783 d4ba 2630 37bd
00000130: 5296 18bc e35c 8c3d 2673 89bc 34b4 023e
00000140: 0186 0cbd ddec d53c 9556 13be bafb 1f3b
00000150: 8254 b5bd 99de 16be 312b b0bd f20f e4bd
00000160: 92f9 12be 2c01 1dbe fd0c f23c dc84 e8bd
00000170: 4d05 a2bd d7ff f2bc ee2b 703d cdc6 c2bd
00000180: 61da 16bd e9e9 dcbc 7ee8 69bd dabb 83bb
00000190: 4193 083e d45c c2bb c473 c0bd c1ad 84bd
000001a0: 5f8e 1fbe 5003 193d b433 273d 4171 b93b
000001b0: 6edc 9fbd 334b 81bd 7f6f 223d 3fcd 8c3d
000001c0: fd25 8cbd c018 4cbe a10c a1bd ab23 9d3d
000001d0: a38d adba f74c 8a3d 9555 15bd 8e48 e2bc
000001e0: f2ed d0bd dd40 7bbc 83b7 83bd d3ed a93c
000001f0: 0644 ebbd 580a 29bb e378 7fbe a4c7 2e3d
-0.03699226 -0.09071983 0.08486116 0.07618522 -0.1425286 0.115890115 0.015640704 -0.1271283
-0.110112034 0.09991496 -0.017915685 0.058344293 -3.4917648e-05 0.1415646 -0.016515788 -0.01790025
-0.13282038 -0.05055034 0.04916127 -0.07847693 0.010314021 0.026097652 0.07449272 -0.029190544
-0.09577073 -0.15072161 0.061084338 0.032055125 0.026948527 0.13137402 -0.096676864 0.02932233
-0.029519431 0.01712048 -0.049369644 0.03904983 -0.16014594 -0.19829477 -0.076830834 -0.12350418
-0.038142607 -0.12701806 0.12953079 -0.186522 -0.18008684 0.09155422 -0.115101196 -0.0699649
0.06634822 -0.1927912 -0.048928004 -0.058380216 0.061169177 -0.083237514 -0.054634247 -0.06077638
0.0073740436 -0.18547158 0.0031321647 -0.006812855 -0.08769781 0.07706703 0.14660914 -0.018393531
-0.02269137 -0.057345375 -0.11236631 -0.10357748 -0.052193932 -0.0086403005 0.09682402 -0.059644524
0.009906887 -0.057380248 -0.0016213366 -0.044723652 -0.009313183 0.06853654 -0.01677854 0.12764055
-0.034307484 0.026113922 -0.14388497 0.0024411515 -0.08854009 -0.14733352 -0.08601988 -0.11135854
-0.14353016 -0.15332478 0.029547209 -0.11353466 -0.07911167 -0.02966301 0.058635645 -0.095105745
-0.036829356 -0.026967006 -0.057106487 -0.0040201964 0.13337423 -0.005931476 -0.093970805 -0.064784534
-0.15581654 0.037356675 0.040820792 0.005659253 -0.078057155 -0.06313171 0.039657112 0.06875085
-0.06843183 -0.19931316 -0.07863737 0.07672819 -0.0013241064 0.06752961 -0.03645857 -0.027622487
-0.102016345 -0.015335289 -0.064314865 0.020743286 -0.11487584 -0.002579352 -0.24948458 0.04267086

network_body.linear_encoder.seq_layers.0.weight f4 [128, 4]
00000000: f113 45bd 959e e03e 096d d5bd 6a22 a23e
00000010: 20d5 06be e7df aa3e e85b c4be 5fa4 0b3e
00000020: 6bde 003e a2a8 3bbf d373 1e3d 814d 333d
00000030: e037 e5be c7e2 47be 116e 473e 14ba f5be
00000040: ce5a 74be d1c9 f9be 1f6a b3be 90f0 063f
00000050: 62ba 3bbe cd4b 383e bcb1 bcbb bc7b b83c
00000060: 222f 97be f519 b0be ca08 0fbf b698 be3c
00000070: 7d44 113c 3a5c 54bf 3b33 453f 6dac 32bf
00000080: b71d 713c 4880 4e3f 75a7 873d 74f3 153f
00000090: 3f3d 68bf 1ba8 32bd cc0d bb3d d558 46be
000000a0: 8806 58bf c01a 593f 9e50 62be 4bde a9be
000000b0: 7930 23bf 073d e23e 3559 5a3f e0e1 8d3e
000000c0: a5f1 0bbf d826 2dbd 5c30 89bf 9a2d 87be
000000d0: 09b8 19bf 0fe6 31be af72 5abc 5de7 31bd
000000e0: 12a2 813e d293 ac3d 05d1 cb3d a81f 1dbd
000000f0: c962 4bbf fa1d d8be 171c 733e 1096 113d
00000100: 50fc 18bf d791 fdbc a20f 48bf 9e77 843c
00000110: be7b c63d 7be1 9c3e c60f 99be d115 91bf
00000120: 6a85 133f 6e16 bc3f 191c b73d 5fe9 03bf
00000130: f01f 73bf 8b0d 2dbf 6eed 93be 4af9 653f
00000140: 77a8 073f c06a 17bf 5fef 52be 0f95 96be
00000150: ad91 be3d e6a5 da3c af3b 09bf 28c2 84bf
00000160: 7729 f43e 4a17 99bd 5673 fc3e 7f7b b43e
00000170: 3460 8f3e e870 7abe 1986 48bf d188 163e
00000180: 6a9b 893d 5a20 983e ccb3 d53d 2bf9 6a3f
00000190: 7d91 08bf bc77 133f b9d8 cabd bbb6 8b3e
000001a0: ccc8 81bf afa7 03bf b8cd 50be 7be6 9dbd
000001b0: fae6 d43e 43e3 373e 92f9 c43e 8b76 9dbe
000001c0: abab 223f 60a9 09bf 45d1 bf3e 24ce f13e
000001d0: c2d3 213f b551 553f 4dff 5c3e a6b0 8bbe
000001e0: 168e f33e 10cd 03be d399 1dbe 5de8 c43d
000001f0: feec 7e3e 8d9b 583f b3df 82be 6193 20bf
00000200: c14f 1f3f 0543 b0bc dcbe 0a3f 88f8 c1be
00000210: 0c85 a53e e0ae fcbe 6673 97bd 82b0 6bbf
00000220: 7dfa 94be 155a 4fbd fdd0 233f de1f b13e
00000230: 8085 b0bc 5f76 de3e df58 3ebc 47f4 f7be
00000240: c74a be3d 90b9 19be b3da 9e3d 7946 b93e
00000250: 0ae2 6f3e 8bd8 90be 9a8a 2c3e b0d4 243f
00000260: e9a3 7e3e 3fd6 49bf 83fa 36bc 5acd 323f
00000270: 6aa2 9e3d 7c82 c0be a9d0 143f 4615 c1be
00000280: e108 d4be 5c4e 9e3f 5642 cd3e e2a8 963e
00000290: 957b 4f3e 0c2b 003f 3ba8 debe f113 da3d
000002a0: f5cb d73e 1701 23bd f152 e1be be7c e3be
000002b0: fb70 05bf 9a23 5c3d d059 563c 8f40 7d3e
000002c0: 7592 db3d e996 3cbf 0c73 c63b 6182 103f
000002d0: e9aa debe c886 eabd 1fb5 653e b4f7 ccbd
000002e0: cc54 df3e 7da5 1f3f 27c8 593e 31da 5c3f
000002f0: 0b19 0e3f 85e4 54bc c9b2 a03c 9ac3 5ebf
00000300: 19ee 31bf 042f cb3e 9295 d73c 9294 a43d
00000310: 0e0b f9be 97a8 78bf de12 58be 7841 303f
00000320: 6cd6 f6be 7992 09bf 4847 55bd e1e0 c53e
00000330: 1a09 d4be 5815 173f f294 2e3f 36d6 1bbf
00000340: 88ba 9bbc af6b 143f aab3 6dbe 3bd3 2ebe
00000350: 4045 ec3d 5cac 48bf 4698 eabe 1b93 133f
00000360: dfb4 1abf 6c15 a6bd 1088 06be 53d3 173f
00000370: 9218 6d3e a79b c33e 5348 813e dc49 e9be
00000380: 13e0 343f aa08 28be a081 61bf 6236 4f3d
00000390: e256 b5be da70 f83e fbd9 5ebe 78d3 203e
000003a0: 0368 1fbf ad55 a0be f088 3cbe 0ae9 07be
000003b0: cf1f d1bd 88ce 803e 11af 75be 36a2 8abe
000003c0: 9faa 1c3f deb0 d43e 6169 783f 5fd3 00bf
000003d0: 7432 c13e d045 a4bc e72d b23e 9300 bcbe
000003e0: 2599 e2bc 42be 20be 3173 0e3e 6438 22bf
000003f0: c482 67bd 2e5f a2bd 1cff 453f f77d c63e
-0.04811472 0.43870988 -0.104211874 0.3166688 -0.13167238 0.3337395 -0.3835137 0.13636921
0.12584846 -0.7330419 0.038684677 0.043775085 -0.44769192 -0.19520102 0.19475581 -0.4799353
-0.23862764 -0.48786786 -0.350419 0.5271082 -0.18332818 0.17997666 -0.0057584923 0.022519939
-0.29528147 -0.34394804 -0.55872786 0.023266178 0.008866427 -0.82953227 0.77031296 -0.6979435
0.014716557 0.8066449 0.06623737 0.58574605 -0.90718454 -0.04361735 0.09133491 -0.19369824
-0.84384966 0.8480644 -0.22101066 -0.3317741 -0.6374584 0.44187185 0.8529237 0.2771139
-0.54665595 -0.042273372 -1.0717883 -0.2640198 -0.6004644 -0.17372917 -0.013333007 -0.043433536
0.25318962 0.08426632 0.09951977 -0.038360268 -0.7944761 -0.4221037 0.23741184 0.0355435
-0.5976 -0.03095333 -0.78148854 0.01617032 0.09691571 0.30640778 -0.29894847 -1.1334783
0.5762545 1.4694345 0.08940906 -0.5152797 -0.9497061 -0.6759879 -0.28892082 0.8983351
0.5299143 -0.5914726 -0.20599125 -0.29410598 0.09305129 0.026690435 -0.53606695 -1.0371752
0.47687885 -0.07475145 0.49306744 0.3525047 0.28003085 -0.24457133 -0.78329617 0.14700629
0.06719096 0.29712182 0.10434684 0.9178645 -0.53347 0.57604575 -0.09904618 0.2728785
-1.0139403 -0.5142774 -0.20390975 -0.07709976 0.4158247 0.17957787 0.38471657 -0.30754504
0.63543195 -0.5377407 0.37464347 0.47227585 0.6321374 0.833278 0.21581765 -0.2728321
0.4756934 -0.12871194 -0.1539071 0.09614632 0.24895093 0.8461235 -0.25561294 -0.6272488
0.6223107 -0.021516332 0.5419748 -0.37884927 0.3232807 -0.4935217 -0.073950574 -0.92066205
-0.29097357 -0.05062302 0.63990766 0.34594625 -0.021548033 0.43449685 -0.011617868 -0.48428556
0.092916064 -0.15012193 0.07756557 0.3618658 0.23426071 -0.2829021 0.16849747 0.64387035
0.24867214 -0.7884254 -0.011168125 0.6984459 0.07745822 -0.37599552 0.5813089 -0.37711543
-0.41413024 1.2367663 0.40089673 0.29425722 0.20261987 0.50065684 -0.43487725 0.10648335
0.42147794 -0.03979596 -0.44008592 -0.44431108 -0.5212552 0.05374489 0.013082936 0.24731658
0.10721294 -0.7366777 0.006056195 0.5644894 -0.4348977 -0.11451489 0.22432373 -0.10008183
0.43619382 0.6236189 0.21267758 0.86270434 0.5550696 -0.012993936 0.019616501 -0.87017214
-0.69503933 0.39684308 0.026316438 0.0803615 -0.48641247 -0.9713225 -0.21100947 0.688499
-0.48210466 -0.53739125 -0.052069932 0.3864813 -0.41413194 0.5901694 0.6819602 -0.60873735
-0.019009843 0.5797681 -0.23213068 -0.17072766 0.11536646 -0.78388 -0.458193 0.5764634
-0.6043224 -0.08109555 -0.13137841 0.5930683 0.23153904 0.3820469 0.25250491 -0.45564163
0.7065441 -0.16409555 -0.8808842 0.050588973 -0.3541785 0.485236 -0.2176284 0.15705669
-0.62268084 -0.31315365 -0.18411613 -0.13272491 -0.10211145 0.2515757 -0.23992564 -0.27076882
0.6119785 0.4154119 0.97035795 -0.50322527 0.37733805 -0.02005282 0.34800646 -0.36719188
-0.027660916 -0.15697578 0.1391113 -0.63367295 -0.056521192 -0.0792831 0.7734239 0.3876798

network_body.linear_encoder.seq_layers.2.bias f4 [128]
00000000: 7161 713b b015 e43b e148 c1bd 76a6 3b3c
00000010: addb 8c3c 2d90 2dbd e226 ce3d e756 103c
00000020: dccb 4dbc 59d4 8cbc fba7 ac3c 08b4 11bd
00000030: 6b9a ddba 8c0c 57bd d9ea a33c 6afd 363d
00000040: 720f dc3c 676e 40bc 1eaf 16bc a592 00bd
00000050: 500e 863d 22ed d63c e37c 583c 2352 3d3d
00000060: 3cdc b8bc 7c5f 0abd 6c22 95bc 9703 703d
00000070: b91c c33d eaab 5dbc ec32 42bc 93d9 fd3c
00000080: 0d4c ee3c 8e46 03bd 1d44 c93c efe3 643c
00000090: ac46 1cbc b6f7 efbc 572f e8bb 1699 a6bd
000000a0: a737 0cbd 6176 77bd 850f 153d fbe8 a9bc
000000b0: 571a 593b ef6e 043c 98de 803a 38b9 9ebc
000000c0: 9e2c e1bd 1bb7 abbd eb10 c9ba 4183 853d
000000d0: f635 cb3d 8c65 f6bd ae68 9cbd 9e74 95bc
000000e0: b313 893c a97c 883d 0bdf 35bd 9db2 143d
000000f0: fecb e53c 3e7d d6bd 22b6 ed3c 803e 22bd
00000100: 548d 0ebd f1c7 34bd dcb7 f7bd 9a43 91bb
00000110: 30cd 0b3d 50dd 9c3c 4487 a5bc 3414 0b3e
00000120: e1f2 743d a5c9 3f3d a97c 02bd 1992 a1bb
00000130: 54a9 c6bc 825d ecbd 6dab e73c 0422 8c3b
00000140: 617c 4d3c fa6b 0fbc 7ffb f3bc b2f4 d5bd
00000150: e445 eebd e580 b5bb ca7c b83d 5da6 2bbd
00000160: 9e8d dabb 5cfa 69bd 3167 ae3b 085c 92bd
00000170: 4f2d 05bc ddf3 293d bea1 92bd ac3a 84bc
00000180: 5815 b13d 6f6b 83bd c193 f83c f84a 8abc
00000190: f933 99bd e3ed 5dbd c71c f53c 3e12 023d
000001a0: 1691 01bc 2752 85bc c53e f9bd 5c7f b03c
000001b0: 9d93 0dbe 7176 1abd 2101 943c d712 353d
000001c0: 2670 dcbd a7e3 3b3d 5b0f 5b3d 02b0 9fbd
000001d0: e794 6cbc a895 333c 2ec3 77bd 3798 86bc
000001e0: 7d32 09be 8c3e d03c 7ef9 1b3d 95a9 93bc
000001f0: 3ea3 86bc e5d4 093e 9a83 9139 29b0 8d3c
0.0036831761 0.006960593 -0.09437729 0.011453262 0.017194593 -0.042373825 0.1006601 0.008809782
-0.012560811 -0.017191099 0.021076193 -0.03557208 -0.0016906982 -0.0525022 0.020009445 0.04467527
0.026862834 -0.011745072 -0.009197025 -0.03138985 0.06545699 0.02623612 0.013213369 0.04622091
-0.022565953 -0.033782467 -0.01820489 0.058597174 0.09526963 -0.013529757 -0.011852961 0.030987537
0.029088998 -0.032049708 0.024568612 0.013970359 -0.009538334 -0.029292922 -0.0070857215 -0.081346676
-0.03423276 -0.06041563 0.036391754 -0.020740977 0.0033127272 0.008083089 0.0009831963 -0.019375429
-0.10994838 -0.08384534 -0.0015340125 0.06519175 0.099224016 -0.12031087 -0.076371536 -0.018244084
0.016733026 0.06664402 -0.044402163 0.03630315 0.028051373 -0.10473107 0.029017512 -0.039610386
-0.03480275 -0.04413599 -0.12095615 -0.0044331076 0.03413123 0.019148499 -0.020206101 0.13581926
0.05980194 0.046823163 -0.031857166 -0.0049307463 -0.024250664 -0.11541273 0.028279984 0.004276516
0.012541861 -0.008753771 -0.029783009 -0.104470626 -0.11634424 -0.005539047 0.090081766 -0.041906703
-0.006669714 -0.057123527 0.00532236 -0.0714646 -0.008128478 0.04149233 -0.07159756 -0.016141258
0.08646649 -0.06416976 0.030343892 -0.016881451 -0.07480616 -0.054181945 0.029920949 0.03175568
-0.007908126 -0.016274525 -0.121701755 0.021545105 -0.13825841 -0.03771061 0.018066945 0.04420742
-0.10763578 0.045871403 0.05348144 -0.07797243 -0.014439798 0.010960974 -0.060488872 -0.016430004
-0.13398166 0.02542045 0.03807973 -0.018025199 -0.016435262 0.13460119 0.00027754606 0.017295914

network_body.linear_encoder.seq_layers.2.weight f4 [128, 128]
00000000: 905d 18be 57f2 ccbc db05 33be c707 533e
00000010: b468 b23d ce16 acbd 6f82 b63c d93b ec3d
00000020: 4f2f 43bd 6337 58bc b64a 3bbe bee7 63bd
00000030: 43f1 11be d675 ffb9 db66 d9bc 9347 30bd
00000040: 8a10 80bc cc0e cc3d ca78 9f3d ebe5 8a3c
00000050: a15c b4bd 47ae 8d3d 2efd cfbd cae1 36bd
00000060: a2fd 883d f71b 19bd 2782 8fbd 36ba 803d
00000070: b5e4 c2bd 0a69 39bd f03a 86bc 39e4 b73d
00000080: fc73 743d 6afc 973d 01ba d8bd e7b9 943d
00000090: 8cc4 1b3d 3ca0 4a3d 7feb 3dbd b182 073d
000000a0: 9b7d 333c fbbe cbbd fcdb 803d 8184 fd3c
000000b0: faf1 fd3b 2a86 d4bd 0daf 3cbe 9706 a73d
000000c0: b757 06be 165b 43bd f214 dabc 2ef3 ec3b
000000d0: 9b80 bfbd 9a09 923c 4e22 63bc 2958 f2bc
000000e0: ab37 29be d65f e23d c36d f83d 1f61 0dbd
000000f0: 0100 3fbb bbc5 693d 3be8 883e 6924 42be
00000100: 4b04 debc aa61 95bb 809c d93d 993e 463e
00000110: 0f72 8dbd 1ccd eebd 4e47 493c 3f6c 093e
00000120: a770 5b3c ca96 043e 1ba7 98bd 8226 de3d
00000130: 28b9 1c3b 23d4 51bd 9cbf 173d 1416 cdbd
00000140: d477 393e 3dfe 09bd 1821 86bd e8cb 73bb
00000150: f46f a9bd c53e 54bc fcfe 1abe f94f 5bbe
00000160: 3c2f ca3c be3f ab3d 1c23 49be f23b 983d
00000170: f729 363d 1f32 8f3d 1047 00be 63a1 1bbe
00000180: 9c5e d9bd 319f 823c 767f 413e 6b98 d0bd
00000190: 2620 4fbd 5836 a0bd b068 ee3c ac3e db3c
000001a0: 49a1 133b fbe3 943c c79f 963d 58dd a1bc
000001b0: 7262 3e3d 56e9 b7bc 2361 54be 5fa7 b4bd
000001c0: 2d9b 9a3d f553 09bd ea9e b3ba bf6f cf3d
000001d0: 3f2b 2fbe 176a 963c 0252 5d3c a8d6 073d
000001e0: 78b0 0a3d 4b3a 923d 4ac1 923d e5ac 40be
000001f0: 83f8 6fbc 3c38 b8bd f538 15be c993 8c3d
00000200: 92e5 9d3d b6a9 b5bc 2de6 69bd 86cb 173e
00000210: 64c8 40bd 42c5 3fbd a7fa f73d 3766 f23d
00000220: 7d36 0fbd c7f6 e3bd 99ba 77bd a75a fabd
00000230: 3a3d fcbd d52c 29be 4cdc 8abd 9544 e63c
00000240: 9b3b 4fbd e530 2e3e 7640 23be 5b12 403d
00000250: b6e7 65bd e342 0abe 4a50 3a3e e857 943d
00000260: 00d2 353c 2577 7c3d 9a34 eebc db17 e2bc
00000270: 206f d0bd 6a22 d5bd 9209 54be 0a63 323e
00000280: a5a3 bbbd fb65 4e3d 561e 89bd 8055 08be
00000290: b1f0 c9bd 634e 1ebd 0955 933d 9f57 ad3d
000002a0: 0099 553d 678e edbd 50a3 c8bd d6bc 153c
000002b0: 7048 d63d 21f5 05bc bb16 d3bd 97fc 5a3d
000002c0: 3bf3 49bc 6f5c f839 5b6f 40bd da04 a93d
000002d0: 088d 11be f24e 7dbc 2ad9 2f3d 246b a4bc
000002e0: cca7 d9ba 7c5a b43d 915b 7abc 6bdd 11bc
000002f0: 17fb 01bd 392d 92bd 00ba 523d 277c a6bb
00000300: 7fc2 30be 4901 b1bc 987c 16bd cec9 b6bd
00000310: 7f98 313d 829e 82bc ddc5 22be 9b43 d1bd
00000320: b05f 223d fb97 de3d c8b8 f9bd 713e c43d
00000330: 09dc 343d 791c c53d 7e88 1d3c a3cb babd
00000340: 70bd 073c 2354 1e3e b188 4fbe 8cde 763b
00000350: 2edc 543d 7c7b 013e 5b07 8b3d 9899 2c3e
00000360: 9c12 e13c d6b8 28bd 8de0 33bd 8a85 65bc
00000370: ea60 e1bd 859d ed3d 232a b13d c272 dabc
00000380: b47d 36be 6da0 833d 810e 703d 209b 03bd
00000390: 5e56 203b 7c8c 67bd 611c 9cbd 5331 3c3d
000003a0: 649b 023e 7ecb 19bb 27dd b33d d07f 04be
000003b0: f022 b3bc ddfe 08be d0f1 2b3d 81cc 0c3d
000003c0: 13c2 d1bd 09e4 863d 1f87 cfb8 07c6 1e3b
000003d0: 2a7b 14bd e971 d33b c2be bc3d 168c ec3b
000003e0: 82c5 6bbd 7cae 5cbd 1ff8 fcbb 0703 a03c
000003f0: 69c5 a33b 1909 cebc d257 573d c48b 9dbd
-0.14879441 -0.0250179 -0.17482702 0.20608436 0.08711377 -0.08402787 0.022278992 0.115348525
-0.04765254 -0.013196799 -0.18290219 -0.05564093 -0.1425219 -0.00048725185 -0.026538303 -0.04303701
-0.015632886 0.0996376 0.077867106 0.016955337 -0.0880673 0.069180064 -0.10155712 -0.044648923
0.066890016 -0.037380185 -0.070072465 0.06285517 -0.09516279 -0.04526619 -0.016385525 0.08979077
0.059680924 0.07421191 -0.105823524 0.072620206 0.03802924 0.049469218 -0.046367165 0.03308362
0.01095524 -0.09948536 0.06291959 0.030946972 0.007749793 -0.10377152 -0.18426152 0.08155554
-0.13119398 -0.04769429 -0.026621316 0.0072311377 -0.093507014 0.017826844 -0.013863159 -0.029583054
-0.16525142 0.110534355 0.121303104 -0.03451645 -0.002914429 0.057073336 0.26739678 -0.18959202
-0.027101656 -0.0045587616 0.10625553 0.19359817 -0.069065206 -0.11660215 0.012285067 0.13420199
0.013393558 0.12948146 -0.07453748 0.108471885 0.0023914073 -0.0512277 0.037047967 -0.10013977
0.18112117 -0.033689726 -0.06549281 -0.0037200395 -0.082733065 -0.012954419 -0.15136331 -0.21417226
0.024680726 0.08361767 -0.196423 0.07433309 0.044473615 0.06991982 -0.12527108 -0.15198283
-0.106137484 0.015945049 0.18896279 -0.101853214 -0.05056777 -0.07822865 0.029102653 0.026763283
0.0022526553 0.018175116 0.07354694 -0.019758865 0.046480604 -0.02245013 -0.2074018 -0.08820986
0.07549129 -0.033527333 -0.0013703976 0.10128736 -0.17106341 0.018361134 0.013508322 0.033163697
0.0338597 0.07140025 0.07165773 -0.18815954 -0.014646652 -0.08995101 -0.14572509 0.06864125
0.07709803 -0.022175651 -0.05710428 0.14823732 -0.047066107 -0.04681898 0.12108355 0.11835902
-0.034964073 -0.111310534 -0.060480688 -0.12224322 -0.123163655 -0.16521008 -0.067802995 0.028108874
-0.050593954 0.1701084 -0.15942559 0.046892505 -0.05612918 -0.13502078 0.1819469 0.07243329
0.011097431 0.061637063 -0.029077817 -0.027599266 -0.101774454 -0.104069546 -0.20706776 0.17420593
-0.09162072 0.050390225 -0.06695239 -0.13313866 -0.09860361 -0.038648974 0.071939535 0.08463978
0.052147865 -0.11599427 -0.097967744 0.00913926 0.10463035 -0.008176119 -0.1030707 0.053463545
-0.012326057 0.00047371114 -0.046981197 0.082528785 -0.14213955 -0.015460717 0.042931713 -0.02007062
-0.0016605793 0.08806321 -0.01528062 -0.008902888 -0.0317336 -0.07137532 0.051446915 -0.005080718
-0.17261694 -0.021607058 -0.036739916 -0.0892521 0.043358322 -0.015944723 -0.15895791 -0.10217973
0.039642036 0.10868832 -0.12193447 0.09582222 0.044155154 0.09624571 0.009615062 -0.09120872
0.0082849115 0.15461783 -0.20266987 0.003766927 0.051967792 0.12644762 0.06788512 0.16855466
0.027474694 -0.0411919 -0.04391532 -0.014008889 -0.11004813 0.1160231 0.08650615 -0.026666049
-0.1782139 0.06427083 0.058607582 -0.03213036 0.0024465541 -0.05653046 -0.076226 0.045945477
0.1275459 -0.0023467238 0.08782416 -0.12939382 -0.021867245 -0.13378473 0.041978657 0.034374718
-0.10242095 0.06586463 -9.8956974e-05 0.002422692 -0.03625027 0.006452788 0.09216072 0.007218848
-0.057561405 -0.05387734 -0.007720008 0.019532694 0.0049978984 -0.025150822 0.052573986 -0.07692674

network_body.vector_processors.0.normalizer.running_mean f4 [4]
00000000: bae0 1e41 0747 5140 b65d 00c1 2a2f 1840
9.929865 3.2699602 -8.022879 2.3778787
