ml-agents-master/ml-agents/config/results/ppo/LineCreator/LineCreator-499812.onnx (onnx, 71632 bytes, 9 tensors)

53 f4 [4]
0	0x40b6c8ac	5.711996
1	0x403951a6	2.8956084
2	0x4032a813	2.7915084
3	0x402333c3	2.5500343

54 f4 [1, 2]
0	0xbe30e834	-0.17276078
1	0xbe244734	-0.16042787

distribution.mu.bias f4 [2]
0	0x3b469bd2	0.0030305278
1	0xb98575d3	-0.00025455523

distribution.mu.weight f4 [2, 128]
0	0xbaba987f	-0.0014236121
1	0xba0890fc	-0.00052095926
2	0x3c2150e1	0.009845943
3	0x3d2395a2	0.039937623
4	0xbc066012	-0.008201616
5	0xbc774cec	-0.015094023
6	0x3ad01d73	0.0015877917
7	0xbb7df45b	-0.0038750384
8	0xbc60d8fd	-0.013723609
9	0x3d6f8a99	0.058481786
10	0x3a79d83c	0.00095308176
11	0xba415b66	-0.0007375985
12	0x3dd1e0c2	0.10247947
13	0x3c615604	0.013753418
14	0xbbbae2cb	-0.0057033054
15	0xbaf72387	-0.0018855192
16	0x3d9f9941	0.07792903
17	0x393beb64	0.000179214
18	0x39b534bd	0.00034562303
19	0x3d5d6c77	0.05405852
20	0xba89f852	-0.0010526276
21	0x3ceede2d	0.029158676
22	0xbb25553c	-0.0025227806
23	0xbbf8920a	-0.0075857686
24	0x3a81110d	0.0009847
25	0xba90d0bc	-0.0011048536
26	0x3c83c6d0	0.016086012
27	0xb8e47223	-0.00010893147
28	0xbc9de66a	-0.019274909
29	0xba55caa7	-0.0008155503
30	0x39b4b510	0.00034467177
31	0xbd68090b	-0.05664925
32	0xba8c0147	-0.0010681533
33	0x3bc928ae	0.0061388826
34	0xbd04c05b	-0.032410007
35	0xba9618d4	-0.0011451491
36	0xbb424df6	-0.002964852
37	0xbacd1495	-0.0015646393
38	0x3da160e0	0.078798056
39	0x3e047420	0.12934923
40	0xba68334e	-0.00088577427
41	0xba7def0e	-0.0009686806
42	0x3d1b7243	0.037950765
43	0xba29f61f	-0.0006483513
44	0xba22ca22	-0.00062099297
45	0x3a5a2661	0.0008321759
46	0x3972ab00	0.00023142621
47	0xbaf020e0	-0.0018320344
48	0x38ad1821	8.253777e-05
49	0xbbd02d5b	-0.006353063
50	0x3a32aaf9	0.0006815638
51	0xb9dc3af1	-0.00042005585
52	0xb9cd72d7	-0.0003918621
53	0xbbe5b054	-0.0070095453
54	0xbb9374b8	-0.004499998
55	0xbd19ad93	-0.03751905
56	0x3d0dd5a5	0.034627575
57	0xba708403	-0.0009174945
58	0xbb3c34e7	-0.0028718056
59	0xbb68361b	-0.003543264
60	0xbaf45ebb	-0.0018643955
61	0x3d277dd6	0.04089149
62	0x3c4bed42	0.012446703
63	0x3a9235fa	0.0011155002
64	0x3bad861c	0.005295528
65	0xbafca854	-0.001927624
66	0xba48744a	-0.0007646723
67	0xba31a826	-0.000677707
68	0xbaa6a90d	-0.0012715176
69	0xba653dc6	-0.00087448617
70	0xbc3fcc4b	-0.011706422
71	0x3dae7383	0.08518126
72	0x39cdb790	0.00039237412
73	0xbbb6f284	-0.0055831093
74	0x39afa850	0.00033504004
75	0xba46ea23	-0.00075879897
76	0x39a85338	0.0003210546
77	0xbca5865f	-0.020205675
78	0x3b711d53	0.003679116
79	0xbb0d39d4	-0.002154936
80	0xba765213	-0.0009396385
81	0x3c951f73	0.018203473
82	0x3b0fedf5	0.0021961902
83	0x3d159663	0.036520373
84	0xbb31e1d5	-0.0027142663
85	0xbb8c6e6b	-0.004285624
86	0x3d82c2b9	0.06384797
87	0x38b64a34	8.692258e-05
88	0x3b189caa	0.0023286738
89	0x3ce3082a	0.027713854
90	0xbb2fd2e4	-0.0026828581
91	0xbbcd5979	-0.0062667695
92	0x3d6ec7ff	0.0582962
93	0xba2f47bb	-0.0006686409
94	0x3cd1a419	0.025590943
95	0xba1478cb	-0.00056637515
96	0x3b1e82a2	0.002418675
97	0xbd7bb67b	-0.061453324
98	0xbd4a8432	-0.049442478
99	0xbc0a96e6	-0.008458829
100	0xba3626d2	-0.00069485337
101	0x3834e4d5	4.312846e-05
102	0x3de6e5a9	0.11274273
103	0xbaba2e74	-0.0014204518
104	0xb947bcae	-0.00019048408
105	0xba7fe107	-0.000976101
106	0x3d9bf190	0.07614434
107	0xba371f82	-0.0006985591
108	0xba969323	-0.0011487942
109	0xb9975406	-0.00028863567
110	0xb9c79492	-0.0003806693
111	0xbc1289a1	-0.008943946
112	0xb91a60bd	-0.00014722622
113	0xbb015248	-0.0019732881
114	0xbb5c718b	-0.0033637013
115	0x3b15b309	0.002284231
116	0xbaff193a	-0.0019462474
117	0x3d7ef764	0.06224765
118	0x38780103	5.912875e-05
119	0xbacb197d	-0.0015495267
120	0x3a08a81a	0.00052130374
121	0xbb8a788e	-0.004225797
122	0xba9fd331	-0.0012193677
123	0x3844d5c0	4.692911e-05
124	0x3cf197ca	0.029491324
125	0x3d38fd99	0.045163725
126	0x3a138f54	0.00056289625
127	0xba9446fe	-0.0011312661
128	0x3cfde6c8	0.030993834
129	0xba168c29	-0.00057429314
130	0xbc97f64a	-0.018550057
131	0x3d485a4b	0.048914235
132	0x3bdb463e	0.006691723
133	0xbb5e48f1	-0.0033917988
134	0xbbaf13ae	-0.005342922
135	0x3bb03f3d	0.0053786323
136	0xbd19a5a9	-0.0375115
137	0xbd997cd6	-0.07494514
138	0xbacc14a0	-0.0015570112
139	0xbb2003c5	-0.002441631
140	0x3d4abff7	0.04949948
141	0xbd160db9	-0.03663418
142	0xbd0c7433	-0.034290504
143	0xbb59478b	-0.0033154215
144	0x3cc6363a	0.02419578
145	0xbb4b9a4a	-0.0031067305
146	0xbad6d678	-0.0016390821
147	0xbe1e5c37	-0.15464865
148	0xbb307c5f	-0.00269296
149	0x3d4fb632	0.050710864
150	0xb995f315	-0.00028600605
151	0x3d1d9a69	0.038477335
152	0x3a37bf72	0.00070094236
153	0x3b039118	0.0020075496
154	0x3c1cbd78	0.009566657
155	0x3b6e2560	0.0036338195
156	0x3ca86aac	0.020558678
157	0x3a868730	0.0010263678
158	0xb8dca99b	-0.00010522009
159	0xbc7decad	-0.015498322
160	0xbaa07a07	-0.0012243398
161	0xbc0fec14	-0.008784313
162	0xbb70feeb	-0.0036773037
163	0xba9ae568	-0.0011817636
164	0x3c0317ea	0.008001307
165	0x3a9d0cd6	0.0011981975
166	0xbdea1fd6	-0.114318535
167	0xbd853457	-0.06504124
168	0x3b75c3fd	0.0037500851
169	0x3afbccd8	0.0019210828
170	0x3d62c659	0.05536494
171	0x3b276840	0.0025544316
172	0xbb8fad57	-0.0043846774
173	0x3b4e7e82	0.003150851
174	0xbac31856	-0.0014884572
175	0x3a695431	0.000890079
176	0x3a6c1520	0.00090058334
177	0xbd09447d	-0.03351258
178	0xbb3c75f9	-0.002875684
179	0xbb0f4fbb	-0.0021867591
180	0xbb5e74f9	-0.0033944233
181	0x3b5dfb42	0.0033871685
182	0x38b9371f	8.8317545e-05
183	0xbcb69521	-0.022287907
184	0xbba845b1	-0.005135261
185	0xba6dbb45	-0.0009068738
186	0xbb995a09	-0.0046799225
187	0xba2b6425	-0.0006538055
188	0x3b220c72	0.0024726656
189	0xbd1a4d70	-0.037671506
190	0xbc36acf0	-0.01114963
191	0xbb8020cc	-0.0039101597
192	0x3cb63930	0.022244066
193	0xbaa1fa08	-0.001235784
194	0x3a7e80d4	0.0009708528
195	0x3a907485	0.0011021054
196	0xba10478e	-0.00055038265
197	0xbac39537	-0.0014921789
198	0x3adac79f	0.0016691572
199	0xbd6b875a	-0.05750213
200	0xbac194a6	-0.0014769032
201	0xbcbe73df	-0.023248611
202	0xbb7a0910	-0.0038152374
203	0xba76ee06	-0.00094196235
204	0xba907720	-0.001102183
205	0xbde7bce5	-0.11315326
206	0xbd01f7cd	-0.031730462
207	0x3bc0a250	0.005878724
208	0x3a2524d6	0.00062997395
209	0xbcb83372	-0.022485469
210	0xbb03b0a8	-0.002009431
211	0x3d29a93b	0.041421156
212	0xbb06dc97	-0.002057826
213	0xbb4f092e	-0.0031591165
214	0xbd1161f7	-0.035493817
215	0xbb42f595	-0.002974843
216	0xb9a75523	-0.00031916154
217	0xbe06d42c	-0.13166875
218	0xbad82249	-0.001648971
219	0x3bac94bd	0.0052667544
220	0xbd2fe3ec	-0.042941973
221	0x3bd79aa9	0.006579716
222	0xbcd81c16	-0.02638058
223	0x3a2575bc	0.0006311794
224	0x3a134103	0.00056172925
225	0xbd655f45	-0.05599906
226	0x3d8e2a0e	0.06941615
227	0xbb5c6ec3	-0.0033635355
228	0xb9fa6a4e	-0.0004776292
229	0x39ffcaba	0.00048788433
230	0xbd406510	-0.04697138
231	0x3b0bf1af	0.0021353771
232	0x3aa6f9fb	0.0012739295
233	0xbaaa51ca	-0.0012994346
234	0xbdaf66d2	-0.08564533
235	0x3af74e2f	0.0018867905
236	0x3b5ab98b	0.0033374752
237	0x3b206655	0.0024475057
238	0x3b77b59e	0.0037797461
239	0x3c45aef8	0.012065642
240	0x3b9e8590	0.0048376992
241	0xba21e7ee	-0.0006176223
242	0xbb72efbb	-0.003706916
243	0x3abf879b	0.0014612557
244	0x3b634e48	0.003468411
245	0x3ded122a	0.1157573
246	0xbaa95506	-0.0012919016
247	0xba406e7e	-0.00073406834
248	0x39cb522a	0.00038780394
249	0xbb4a6af4	-0.0030886503
250	0x3a568f95	0.00081848475
251	0xba829ea9	-0.0009965497
252	0xbdf4f364	-0.119604856
253	0xbd48143b	-0.04884742
254	0x3b057a5b	0.002036712
255	0x3a12f3f0	0.00056058075

network_body.linear_encoder.seq_layers.0.bias f4 [128]
0	0xbe53b8d6	-0.20675978
1	0x3c591476	0.013249507
2	0xbea0e86d	-0.31427327
3	0xbd7788cd	-0.060433198
4	0xbe23e905	-0.16006859
5	0xbeb5c802	-0.35504156
6	0xbc1bdb70	-0.009512767
7	0xbe8d6ba7	-0.27621195
8	0xbc66a9b6	-0.014078548
9	0xbca37639	-0.019953834
10	0xbe30e3db	-0.1727442
11	0x3e5e3ac6	0.21702108
12	0xbd47ac9b	-0.048748594
13	0x3e2cf15a	0.16888943
14	0xbedc2d6a	-0.43003398
15	0x3c237ae2	0.009978028
16	0x3d2435ba	0.0400903
17	0xbe9c853a	-0.30570394
18	0xbe4f878f	-0.20266555
19	0xbe290ac7	-0.16508017
20	0x3e440f83	0.19146542
21	0xbe2fd9e0	-0.17172956
22	0xbe6eeb9e	-0.23332068
23	0x3cd82e99	0.026389407
24	0xbecca47d	-0.39969245
25	0xbe33931d	-0.17536588
26	0xbe6f3995	-0.2336181
27	0xbee40594	-0.44535506
28	0x3dcbf749	0.09959275
29	0xbdef21b9	-0.11676354
30	0xbe78c321	-0.24293186
31	0xbe807d9d	-0.25095835
32	0xbe710f2f	-0.23540948
33	0xbe2f41a7	-0.17114888
34	0x3bfefefe	0.0077818623
35	0x3bc02683	0.005863966
36	0xbe830596	-0.255902
37	0xbe048682	-0.12941936
38	0x3d1c21d9	0.038118217
39	0x3d2a0aaf	0.041514095
40	0xbd85afc9	-0.06527669
41	0xbe1c380f	-0.1525576
42	0xbebe43a0	-0.3716097
43	0xbe066d33	-0.13127594
44	0xbe6f27ba	-0.23354998
45	0xbe738fea	-0.23785368
46	0xbd96bad7	-0.073598556
47	0xbc28d51a	-0.010304714
48	0xbe1474f0	-0.14497733
49	0xbe6bf4a3	-0.2304254
50	0x3b9e9815	0.004839907
51	0xbdf0ab1e	-0.11751388
52	0xbdbf7674	-0.09348765
53	0xbe2da091	-0.16955782
54	0xbe54a981	-0.20767786
55	0xbe321ace	-0.17393038
56	0x3d831b60	0.06401706
57	0xbb501499	-0.0031750558
58	0xbe513b05	-0.2043267
59	0xbd0da2e9	-0.03457919
60	0xbce0328d	-0.027367854
61	0x3c592160	0.013252586
62	0x3d897fc7	0.06713825
63	0x3dbb2678	0.09138197
64	0x3e63978f	0.22225784
65	0xbd891630	-0.06693685
66	0xbe2e2113	-0.17004804
67	0xbeb4a1fb	-0.3527983
68	0x3dff232c	0.124578804
69	0xbe83f400	-0.25772095
70	0xbe2b81e8	-0.16748774
71	0xbdca38b5	-0.09874097
72	0xbe252a91	-0.16129519
73	0xbea74a36	-0.32673806
74	0xbd9c2c34	-0.076256186
75	0xbd19433a	-0.037417628
76	0xbea65edc	-0.32494247
77	0xbe1cf711	-0.15328623
78	0xbe511bde	-0.20420787
79	0x3d2c833f	0.042117354
80	0x3ba5f5a4	0.005064683
81	0x3cf44252	0.02981678
82	0x3c3d61dd	0.011558977
83	0xbec2825d	-0.37990084
84	0xbe16da1f	-0.14731644
85	0x3dde3084	0.10849097
86	0xbe688be7	-0.22709619
87	0x3d9fcd95	0.078028835
88	0xbd08b3f2	-0.033374734
89	0x3dbb7f99	0.09155197
90	0xbd9be0e0	-0.07611251
91	0xbdf1d8d2	-0.11808933
92	0x3d491cfe	0.049099915
93	0xbd734bd2	-0.05939848
94	0xbe4135c3	-0.18868165
95	0xbd528752	-0.051398583
96	0xbef308f6	-0.47467774
97	0xbe25dc15	-0.16197236
98	0xbec8688b	-0.3914226
99	0xbe1356f5	-0.1438864
100	0x3e1cf268	0.15326846
101	0x3dd2c0c2	0.10290672
102	0xbe5d0426	-0.21583614
103	0xbdc7c154	-0.09753671
104	0xbe1bb774	-0.152067
105	0x3d7a2fca	0.06108073
106	0xbdc6ab3b	-0.09700628
107	0xbe826045	-0.25464073
108	0xbe269c84	-0.16270643
109	0xbe57a231	-0.21057965
110	0x3d2d56c6	0.04231908
111	0xbdda6a03	-0.106647514
112	0xbe9037c8	-0.28167558
113	0xbdf70255	-0.12060992
114	0xbd7242fe	-0.05914592
115	0xbe737676	-0.23775658
116	0xbe8a5b4b	-0.27022776
117	0xbdd2e254	-0.10297075
118	0x3c8f0a6f	0.01746103
119	0xbe69b22f	-0.22821878
120	0xbdde37fb	-0.10850521
121	0xbe927a65	-0.28609005
122	0x3da04f1b	0.07827588
123	0x3e2120e9	0.1573521
124	0xbea2d0af	-0.31799838
125	0xbe85e2ef	-0.261497
126	0x3e43c8d0	0.19119573
127	0xbe80af46	-0.25133723

network_body.linear_encoder.seq_layers.0.weight f4 [128, 4]
0	0xbef1908d	-0.47180596
1	0xbe71762b	-0.23580234
2	0xbee00533	-0.43753967
3	0x3e9f40f3	0.3110424
4	0x3f1c5fbc	0.6108358
5	0xbe639615	-0.2222522
6	0xbea68f01	-0.32530978
7	0xbee691cb	-0.45033106
8	0xbf987c00	-1.1912842
9	0x3deb79f3	0.11497869
10	0xbe9719b9	-0.29511812
11	0x3f12b0cc	0.5730102
12	0xbe47922c	-0.19489354
13	0xbe1e3977	-0.15451609
14	0xbf3a418c	-0.72756267
15	0xbdaf61bc	-0.08563563
16	0x3e581d7b	0.21104996
17	0xbedcea2c	-0.4314741
18	0x3e72713f	0.23676012
19	0x3f53195c	0.8246057
20	0x3d59946b	0.053120058
21	0x3f0e15b5	0.5550187
22	0xbe160ce0	-0.14653349
23	0x3eaa902d	0.33313122
24	0x3b0e8160	0.0021744594
25	0xbc9475a9	-0.018122511
26	0xbcc2ff83	-0.023803478
27	0x3c87aa6b	0.016560754
28	0xbec0e1a0	-0.37672138
29	0xbf4abcf0	-0.79194546
30	0x3c64a48e	0.0139552485
31	0x3e0e7469	0.13911594
32	0x3c46594f	0.012106254
33	0xbaefe439	-0.0018302269
34	0xbbd769b6	-0.006573881
35	0x3a7b42f7	0.00095848687
36	0xbec71d3d	-0.38889495
37	0x3de8bcf6	0.113641664
38	0x3e0ed023	0.13946585
39	0xbebbd488	-0.36685586
40	0xbd0b8b86	-0.034068607
41	0x3e98bc00	0.29830933
42	0xbf81672e	-1.0109613
43	0xbea509c8	-0.32234025
44	0xbb9e26f2	-0.00482642
45	0x3e84d18c	0.25941122
46	0x3ed42d05	0.41440597
47	0x3dd32eeb	0.10311683
48	0xbcabbed2	-0.020965014
49	0x3d5b0299	0.053469274
50	0x3db09fa1	0.08624197
51	0x3db4b32f	0.08823239
52	0xbe38468e	-0.17995664
53	0x3d6f5bd5	0.058437187
54	0x3e756802	0.23965457
55	0xbd0ad881	-0.03389788
56	0xbe908b9b	-0.2823151
57	0x3f028025	0.50976783
58	0xbea80dea	-0.32823116
59	0xbe7e5d67	-0.24840318
60	0x3f041637	0.515964
61	0x3c86f4c1	0.01647413
62	0x3f21bf99	0.6318298
63	0x3ebdd3f3	0.37075767
64	0xbd13ae2f	-0.036054786
65	0xbdc198ca	-0.0945297
66	0xbe0f3617	-0.13985477
67	0xbe544b09	-0.20731749
68	0x3f34a220	0.70559883
69	0xbea91dcd	-0.3303055
70	0xbf70c9d8	-0.9405799
71	0x3ee0f762	0.43938738
72	0xbe9b8b8c	-0.30379903
73	0xbeb32c1f	-0.349946
74	0x3d124e60	0.035719275
75	0x3f749c6e	0.9555119
76	0x3cdd75dd	0.02703374
77	0xbdbdb925	-0.09263829
78	0xbea12386	-0.31472415
79	0x3cb99a70	0.02265665
80	0x3b7677ba	0.0037607984
81	0x3eb07dd5	0.34471002
82	0x3ece8a32	0.4033981
83	0x3ba58416	0.0050511463
84	0xbf04b0e4	-0.51832414
85	0x3f071ecc	0.5278137
86	0x3ecade43	0.39622697
87	0xbe078047	-0.13232528
88	0x3e95a4f6	0.29227418
89	0xbe398022	-0.18115285
90	0xbe1384e9	-0.1440617
91	0x3e90ac78	0.28256583
92	0x3e25786b	0.16159217
93	0x3eea8667	0.45805666
94	0xbe677c8c	-0.22606105
95	0xbf5528e8	-0.83265543
96	0x3dadee21	0.08492685
97	0x3ec5057c	0.38480747
98	0x3e78e1f5	0.24304946
99	0x3e972073	0.29516944
100	0xbe5f63bc	-0.2181539
101	0x3efcfb4c	0.49410474
102	0x3f4d65e1	0.8023358
103	0x3f3a9ed4	0.728986
104	0xbe37731f	-0.17915009
105	0x3cf25d1e	0.029585417
106	0x3e26ce1f	0.16289566
107	0x3d7a3f4c	0.06109552
108	0x3eeb6274	0.4597355
109	0xbe0a48de	-0.13504359
110	0xbe295c9c	-0.16539234
111	0x3cbf05e3	0.023318237
112	0xbd0b7e01	-0.034055714
113	0xbda2458a	-0.0792342
114	0xbd1b97a4	-0.037986413
115	0xbef0cc40	-0.4703083
116	0x3d3162dd	0.043307174
117	0xbf1af2d2	-0.60526764
118	0xbf2d1043	-0.6760294
119	0xbf513ec3	-0.8173639
120	0xbe6ed94f	-0.23325084
121	0xbf80cfc5	-1.0063406
122	0xbf486dc5	-0.78292495
123	0x3dcc79ac	0.099841446
124	0x3d0bbbf0	0.034114778
125	0xbfa98adb	-1.32455
126	0x3e85d88a	0.2614177
127	0x3e9a1394	0.30093062
128	0xbcd9c8a1	-0.026584925
129	0xb6f934bd	-7.426918e-06
130	0xbe3a28b6	-0.18179592
131	0x3d3450ae	0.044022255
132	0x3e762186	0.24036226
133	0x3f064034	0.52441716
134	0x3f0bb7cd	0.5457733
135	0x3ed243fa	0.41067487
136	0x3d9de6a0	0.07710004
137	0xbeeb3a00	-0.45942688
138	0xbebeb476	-0.37247056
139	0x3cbcf7cc	0.023067378
140	0x3b8c4ea5	0.004281836
141	0x3b91fa76	0.004454906
142	0xbd004a74	-0.031321004
143	0xbbb9ba98	-0.0056679957
144	0xbe15f3f6	-0.14643845
145	0xbdbee9a7	-0.093219094
146	0x3cd47a53	0.025937235
147	0xbdc985d4	-0.09839979
148	0x3d435e67	0.04769745
149	0xbd9015a3	-0.07035377
150	0xbe01a3cf	-0.12660144
151	0xbd66a2df	-0.05630767
152	0x3e628ee1	0.22124816
153	0x3f228a02	0.63491833
154	0x3eb496c6	0.3527128
155	0xbea1eb0c	-0.3162464
156	0xbc9cee05	-0.019156465
157	0x3eae9254	0.34096014
158	0x3dcd5311	0.10025609
159	0xbf0d8162	-0.5527555
160	0xbeca0f04	-0.3946458
161	0xbf81d993	-1.0144523
162	0x3e5f8c69	0.21830906
163	0x3ee66421	0.44998267
164	0xbfe7c493	-1.8106865
165	0xbd0d3b55	-0.03448041
166	0x3f98d02b	1.1938528
167	0x3cdd063d	0.026980514
168	0x3e7df728	0.24801314
169	0x3edd83d2	0.43264633
170	0x3e57e0e2	0.2108188
171	0x3f087b24	0.533129
172	0xbcbdb768	-0.023158744
173	0xbea8b1c9	-0.3294814
174	0xbf88fbda	-1.0701859
175	0x3cc2ce9b	0.023780158
176	0xbdb57d89	-0.088618346
177	0xbd7dda64	-0.06197585
178	0xbf10415a	-0.5634972
179	0x3edd2b27	0.43196985
180	0x3dbac88d	0.09120283
181	0xbf1d5da6	-0.6147102
182	0xbd6a7dac	-0.057248756
183	0xbed39061	-0.4132109
184	0xbe8dc04a	-0.27685767
185	0x3dba9c51	0.09111846
186	0xbf059dc8	-0.5219388
187	0x3ea53d64	0.322734
188	0x3af86411	0.001895072
189	0x3aa7ba40	0.0012796596
190	0x3cb95bb9	0.022626745
191	0xbc421dd8	-0.011847936
192	0x3dd69e58	0.104794204
193	0x3e543824	0.20724541
194	0x3eac8121	0.33692268
195	0x3ea80afc	0.3282088
196	0xbd437e2e	-0.047727756
197	0x3f1f362f	0.6219205
198	0x3f076f18	0.5290389
199	0x3eab8b9b	0.33504948
200	0xbf086a71	-0.53287417
201	0x3f373432	0.7156402
202	0x3f4f32c5	0.80936843
203	0x3e01a55f	0.1266074
204	0xbe8914d0	-0.2677369
205	0x3ed7ed81	0.4217339
206	0x3ee0bfd9	0.43896368
207	0x3dc8ef20	0.098112345
208	0x3f0883e6	0.5332626
209	0xbeffc2c1	-0.49953273
210	0x3df0b389	0.117529936
211	0xbf18125c	-0.59403014
212	0x3eb0ea35	0.34553686
213	0xbec5d359	-0.38637808
214	0x3d974c7d	0.07387636
215	0x3f2fbbfd	0.6864622
216	0x3dcd8d76	0.10036747
217	0x3d9ad451	0.075600274
218	0xbfc3e4d5	-1.5304209
219	0xbca5a948	-0.020222321
220	0x3f5b1199	0.85573727
221	0xbf200eb3	-0.6252243
222	0x3dee5d22	0.116388574
223	0xbf5c0b30	-0.8595457
224	0x3ecd80a3	0.40137205
225	0x3f1c7d55	0.6112874
226	0x3e5395c0	0.20662594
227	0xbf2fde86	-0.6869892
228	0xba2d547b	-0.0006612015
229	0xba90246d	-0.0010997184
230	0x3a6a98fa	0.0008949187
231	0x3b140ee0	0.0022591874
232	0x3c2b9d9a	0.010474587
233	0xbcdee4f6	-0.027208786
234	0xbd33c87e	-0.043892376
235	0x3cb2dab6	0.021832805
236	0xbe0f8abe	-0.1401777
237	0xbe17ce26	-0.14824733
238	0xbd96b2ef	-0.073583476
239	0xbe1a7d55	-0.15086873
240	0x3db25ab4	0.087087065
241	0xbe03cdc7	-0.12871467
242	0xbf1b9b9b	-0.6078431
243	0x3f11f9b3	0.57021636
244	0xbe4f0bd3	-0.20219354
245	0x3f2f26b9	0.6841846
246	0x3f58806b	0.8457095
247	0x3ed5dbf7	0.41769382
248	0xbf1379c9	-0.57607704
249	0x3e5f3ade	0.217998
250	0x3f07426d	0.5283573
251	0xbe556400	-0.20838928
252	0x3f4a94c3	0.7913324
253	0xbf949a38	-1.1609564
254	0xbe29fe1c	-0.16600841
255	0xbe63fd2d	-0.22264548

network_body.linear_encoder.seq_layers.2.bias f4 [128]
0	0xbd41682f	-0.047218498
1	0x3c7fa60e	0.015603555
2	0xbd235bb1	-0.039882366
3	0xbe2e11da	-0.16998997
4	0xbd71e862	-0.05905951
5	0x3cc073f9	0.0234928
6	0x3c93ef01	0.018058302
7	0x3bc9a53c	0.0061537307
8	0xbd0beeb7	-0.034163203
9	0xbe9a5653	-0.30143985
10	0x3c1249bf	0.008928715
11	0xbd2db7e0	-0.042411685
12	0xbd995cd1	-0.074884064
13	0xbe45c9d0	-0.19315267
14	0xbdc59423	-0.096473955
15	0xbda73aca	-0.0816551
16	0xbe851450	-0.2599206
17	0x3cc58bcc	0.024114512
18	0xbb9cd87c	-0.004786549
19	0xbdcdc01f	-0.1004641
20	0x3d205eb7	0.039152827
21	0xbe6940f2	-0.22778681
22	0xbc0438f3	-0.008070218
23	0xbddf712b	-0.10910257
24	0xbd042b7a	-0.032268025
25	0x3c1767b4	0.009241033
26	0xbe025e77	-0.12731348
27	0xbe078fd7	-0.13238464
28	0xbe6e5ab0	-0.23276782
29	0x3bf7c3ea	0.0075611966
30	0x3cf0792c	0.029354654
31	0xbd2290e9	-0.03968898
32	0xbaa09e9d	-0.0012254302
33	0xbd4cf056	-0.05003389
34	0x3bc2cebf	0.005945056
35	0x3c67cc02	0.01414776
36	0xbcbcdbdd	-0.023054058
37	0xbda3f6e7	-0.08006077
38	0xbe9516f0	-0.29119062
39	0xbedd62c8	-0.43239427
40	0xbcd0ef1f	-0.025504647
41	0x3d136149	0.03598145
42	0xbd4bad0e	-0.049725585
43	0x3d835924	0.064134866
44	0x3d03630c	0.03207688
45	0xbd2ab33c	-0.041674837
46	0xbc6f0e03	-0.014590743
47	0xbcbb4ce7	-0.022863818
48	0xbcc0cb40	-0.023534417
49	0xbe4412fb	-0.19147865
50	0xbab38efb	-0.0013699228
51	0xbd4c3a0b	-0.04986004
52	0xbc87d534	-0.016581155
53	0x397da189	0.00024188137
54	0x3cb40326	0.021974158
55	0xbe8428a3	-0.25812253
56	0xbe1d4d82	-0.15361598
57	0xbcb74c71	-0.022375317
58	0x3d2cfb02	0.042231567
59	0xbcb86f8e	-0.02251413
60	0xbb83f3d4	-0.0040268693
61	0xbea99da5	-0.33128086
62	0xbe1cf350	-0.15327191
63	0xbce48296	-0.0278943
64	0xbd800b33	-0.06252136
65	0x3bef81dd	0.007309182
66	0xba47ac69	-0.00076169387
67	0x3c67d623	0.014150175
68	0xbd4c35b7	-0.049855914
69	0xbd6acef8	-0.057326287
70	0xbbf57118	-0.0074902885
71	0xbde553ba	-0.1119761
72	0xbca7dfa3	-0.02049238
73	0xbeaa79ef	-0.33296153
74	0xbcc0b546	-0.023523938
75	0xbdb6e617	-0.08930605
76	0xbd471742	-0.048606165
77	0xbe8f8adb	-0.28035626
78	0xbdcfd344	-0.101477176
79	0x3d240bb0	0.04005021
80	0xba723761	-0.00092398195
81	0xbe74a2df	-0.23890255
82	0xbcb32c6f	-0.021871774
83	0xbdf4a742	-0.119459644
84	0xbc8265e5	-0.015917728
85	0xbd8ec152	-0.06970467
86	0xbdf667c4	-0.120315105
87	0xbce0c12b	-0.02743586
88	0xbd01c19d	-0.031678785
89	0xbe30eb0a	-0.1727716
90	0x3bad4504	0.0052877683
91	0x3d53b479	0.051685784
92	0xbe4723dc	-0.19447273
93	0xbd00c43e	-0.03143715
94	0xbe268fc1	-0.16265775
95	0xbc95ea1e	-0.018300112
96	0xbd92562d	-0.07145343
97	0xbe71181b	-0.23544352
98	0xbe1d30de	-0.15350673
99	0xbdc94fac	-0.09829649
100	0xbd56b833	-0.05242176
101	0x3bae0fe1	0.0053119515
102	0xbe2f942f	-0.17146371
103	0x3ac9872b	0.0015375366
104	0xbd983094	-0.074311405
105	0xbc4bf76c	-0.012449127
106	0xbe67cbe0	-0.22636366
107	0x3cafdd1c	0.021467738
108	0x3c52ce1a	0.012866521
109	0xbd96c173	-0.07361116
110	0x3d5389e7	0.051645186
111	0xbe1aab75	-0.15104468
112	0xbcfbcb2d	-0.03073653
113	0xbcf8de33	-0.03037939
114	0x3d7aa0e7	0.061188605
115	0xbc06daa2	-0.008230837
116	0x3cd9be72	0.02658007
117	0xbd8c0cbc	-0.068383664
118	0xbd687d8f	-0.056760367
119	0x3d4c5935	0.049889762
120	0xbc9f78ea	-0.019466836
121	0xbd58da16	-0.052942358
122	0xbc09bd94	-0.008407015
123	0xbd01c2c0	-0.03167987
124	0xbe159b07	-0.1460992
125	0xbe56b691	-0.20968081
126	0xbd3b564a	-0.04573659
127	0xbd2a06f9	-0.041510556

network_body.linear_encoder.seq_layers.2.weight f4 [128, 128]
0	0xbdda74a2	-0.10666777
1	0xbc97cd23	-0.018530434
2	0xbe563cc3	-0.20921616
3	0xbd12e351	-0.035861317
4	0x3d925724	0.07145527
5	0xbd19f909	-0.037591014
6	0xbd9db549	-0.07700593
7	0xbcd9eb1f	-0.026601372
8	0x3dd3a63b	0.1033444
9	0xbe0b07c1	-0.13577177
10	0xbe004b26	-0.12528667
11	0xbb8dce8a	-0.0043276
12	0xbc3f47b6	-0.011674812
13	0xbd331f89	-0.043731246
14	0xbe6c0743	-0.23049645
15	0x3c0ebcef	0.0087120375
16	0xbe44368c	-0.19161433
17	0xbe236bda	-0.15959111
18	0xbe11422c	-0.14185399
19	0xbdcce832	-0.10005225
20	0xbd88011c	-0.066408366
21	0xbe00650d	-0.12538548
22	0x3e2b64fe	0.16737744
23	0xbd3e244f	-0.046421345
24	0x3e0a9e94	0.13537055
25	0xbdbced69	-0.0922497
26	0xbe2cc76f	-0.16872953
27	0x3e08bfd7	0.13354431
28	0xbd4037d1	-0.04692823
29	0xbdb811db	-0.08987781
30	0xbd8686e8	-0.065687
31	0xbde267cf	-0.11054956
32	0xbe1ddec8	-0.15417016
33	0x3b96e4b1	0.004604899
34	0xbc1d18c6	-0.009588426
35	0x3d19d318	0.03755483
36	0xbe0581d7	-0.13037811
37	0xbe25ae9e	-0.16179892
38	0x3da6d7e9	0.0814665
39	0xbe8167b5	-0.25274435
40	0x3dbebd5a	0.0931346
41	0xbda43d5d	-0.080195166
42	0xbd11c8b3	-0.035591792
43	0xbd5aa737	-0.053382125
44	0xbe514458	-0.20436227
45	0xbe106b05	-0.14103325
46	0xbea9a160	-0.33130932
47	0xbdf38d1b	-0.11892148
48	0xbb2d965c	-0.0026487326
49	0xb9e9df97	-0.0004460781
50	0xbd9636f6	-0.07334702
51	0xbdcff34d	-0.10153828
52	0xbe9d1bd1	-0.30685285
53	0xbb9fb847	-0.0048742625
54	0xbe18c6b7	-0.14919554
55	0xbeacf6f8	-0.33782172
56	0xbe016721	-0.12636997
57	0xbcb94bd9	-0.022619175
58	0x3d25e5ef	0.040502485
59	0xbe4ab25f	-0.19794606
60	0xbddce416	-0.107856914
61	0xbe2cb86b	-0.16867225
62	0xbe5698f1	-0.2095678
63	0xbe965976	-0.29365128
64	0xbe02680e	-0.12735006
65	0xbe629473	-0.22126941
66	0xbda12a96	-0.07869451
67	0x3cbd0d68	0.023077682
68	0xbc6779d3	-0.014128166
69	0xbdb32010	-0.0874635
70	0x3e0cb664	0.13741452
71	0xbdf31a9e	-0.11870311
72	0xbd8bd18f	-0.068270795
73	0x3e160534	0.14650422
74	0xbe41f56c	-0.18941277
75	0xbb9a065b	-0.0047004647
76	0x3e6e67b9	0.23281755
77	0xbe2bde69	-0.16784061
78	0x3cbec0b4	0.023285247
79	0xbe0bcaf4	-0.13651639
80	0xbe39b58c	-0.18135661
81	0xbd86312e	-0.06552349
82	0x3dcce616	0.10004823
83	0x3e73b8b9	0.23800935
84	0xbbb5ec3d	-0.0055518434
85	0xbe2319e7	-0.1592785
86	0xbdc05ce6	-0.09392719
87	0xbe8408b0	-0.25787878
88	0x3c03fdee	0.008056147
89	0xbe1d9798	-0.1538986
90	0xbdc50031	-0.09619177
91	0xbd11579e	-0.03548395
92	0xbde6fff9	-0.11279292
93	0xbe84a039	-0.2590349
94	0x3dcc319c	0.099704
95	0xbe299e6f	-0.16564344
96	0x3dda6faa	0.106658295
97	0xbdfdd061	-0.12393261
98	0xbdac9584	-0.08426955
99	0xbe2b5b1e	-0.16733977
100	0xbe036e5d	-0.12835069
101	0xbdbe3208	-0.092868865
102	0xbe1f4faf	-0.1555774
103	0xbe03d85d	-0.12875505
104	0xbdb59518	-0.08866328
105	0xbdcf0c51	-0.10109771
106	0xbdf5eafa	-0.12007709
107	0xbd8b392a	-0.067980126
108	0x3e7b464b	0.24538533
109	0x3e40952d	0.18806906
110	0x3df1a7ba	0.117995694
111	0xbe60a258	-0.21936929
112	0xbe9ef4b5	-0.31046072
113	0xbdc443d7	-0.09583252
114	0xbe85b12e	-0.2611174
115	0xbdcae226	-0.09906416
116	0x3c84fc41	0.016233565
117	0xbda58137	-0.080812864
118	0xbe1f9c8e	-0.15587065
119	0xbe80491f	-0.25055787
120	0x3d400e09	0.046888385
121	0xbdab43de	-0.08362554
122	0xbe405487	-0.18782245
123	0xbd7cb2fe	-0.061694138
124	0xbd36fc3d	-0.044674147
125	0xbc8c8e80	-0.017157793
126	0xbe074dba	-0.13213244
127	0xbdb79f9e	-0.089659914
128	0x3dbf3ec1	0.09338141
129	0xbcf1d1aa	-0.02951892
130	0xbb153902	-0.0022769575
131	0xbcef5588	-0.02921559
132	0xbe4b4e67	-0.19854127
133	0xbdee1619	-0.116253085
134	0xbc98f2c6	-0.01867045
135	0xbd911d5f	-0.0708568
136	0xbc97e067	-0.01853962
137	0xbd4e31e9	-0.050340567
138	0xbdc3bb84	-0.0955725
139	0xbc43fa5d	-0.011961547
140	0x3e2bcc81	0.16777231
141	0x3d009b87	0.031398322
142	0x3e3ad9bf	0.18247126
143	0x3d7e807c	0.06213425
144	0xbdf22d04	-0.11824992
145	0xbd917106	-0.07101636
146	0x3c6c2fea	0.0144157205
147	0xbc58da18	-0.013235591
148	0xbe102f0c	-0.14080447
149	0x3d24e0d0	0.04025346
150	0x3e1bb931	0.15207364
151	0xbe18aa99	-0.14908828
152	0xbc2a9fe7	-0.0104141
153	0x3cbba324	0.02290494
154	0x3ca97491	0.020685466
155	0xbc9ae249	-0.01890673
156	0x3d810086	0.06298928
157	0x3e2df556	0.1698812
158	0x3d0c3aca	0.034235753
159	0xbc50695f	-0.012720435
160	0x3d8bdf8d	0.06829748
161	0x3d8c4e88	0.06850916
162	0xbc9c564e	-0.019084122
163	0x3b797f8e	0.0038070413
164	0xbe075e03	-0.13219456
165	0xbe47fe89	-0.19530691
166	0x3c66fe3e	0.014098702
167	0xbc152921	-0.009104044
168	0x3ce0abe3	0.027425712
169	0x3b7ebbb6	0.0038869209
170	0xbd377ca8	-0.044796616
171	0x3e71be24	0.23607689
172	0xbe15b9ce	-0.1462166
173	0xbc805906	-0.01566745
174	0x3d2b179f	0.041770574
175	0xbd49d572	-0.049275823
176	0x3dd9388e	0.1060649
177	0x3db87422	0.090065256
178	0xbba46018	-0.005016338
179	0x3e1c884c	0.15286368
180	0x3cf511f2	0.029915784
181	0xbdf5ca7f	-0.12001514
182	0x3cc0f457	0.02355401
183	0xbdb3a58c	-0.0877181
184	0xbd17a505	-0.03702261
185	0xbcd4546c	-0.025919162
186	0xbcd6c491	-0.026216777
187	0x3e36330e	0.17792913
188	0x3c5d63b1	0.013512538
189	0xbba55f70	-0.0050467774
190	0xbd2e63fa	-0.042575814
191	0xbda34740	-0.07972574
192	0xbd80ae2c	-0.06283221
193	0x3d8d72e4	0.06906679
194	0xbd8319a8	-0.06401378
195	0x3c7ded8d	0.015498531
196	0xbd012325	-0.031527657
197	0xbd894691	-0.067029126
198	0xbdb03bcf	-0.086051576
199	0xbd73bb20	-0.05950463
200	0xbcf8ac4c	-0.030355595
201	0xbaab76c4	-0.001308166
202	0xbe63704d	-0.22210808
203	0x3b8fcef2	0.0043886835
204	0xbd4c25a2	-0.049840577
205	0xbd732044	-0.059356943
206	0x3dc75bff	0.09734344
207	0x3ca37cda	0.019956995
208	0xbdf47ee8	-0.11938268
209	0x3cc8d982	0.024517778
210	0xbce6ce50	-0.02817455
211	0xbcaf9667	-0.021434022
212	0xbca9cd8a	-0.020727891
213	0xbc7299b2	-0.014807152
214	0xbe0cc5e1	-0.1374736
215	0x3cde6d81	0.027151825
216	0x3ce0c1e0	0.027436197
217	0xbd4d8d4f	-0.05018359
218	0x3deae16d	0.11468778
219	0xbdb5acfd	-0.088708855
220	0x3d63c0d7	0.05560383
221	0x3dc9cdda	0.09853716
222	0xbd99f80f	-0.075180165
223	0xbc208234	-0.009796668
224	0xbd18285d	-0.03714787
225	0xbc97102c	-0.018440329
226	0xbd6be184	-0.057588115
227	0x3de63755	0.112410225
228	0xbd8c5a4c	-0.0685316
229	0xbd16b457	-0.03679308
230	0xbc955955	-0.018231073
231	0xbd07745f	-0.033069964
232	0xbd0287e2	-0.03186787
233	0x3da2ed9d	0.079554774
234	0xbc15197f	-0.009100317
235	0xbdf21632	-0.1182064
236	0x3d3b0f32	0.04566879
237	0xbe25b197	-0.16181026
238	0x3d63fb9a	0.055659868
239	0xbda9887f	-0.08277988
240	0x3e18ca37	0.14920889
241	0xbb898f5b	-0.0041979975
242	0x3e28255c	0.16420501
243	0xbd805db2	-0.06267871
244	0xbe294248	-0.1652919
245	0xbd3256a4	-0.04353966
246	0x3c0c61f3	0.008568275
247	0x3c659cc2	0.014014425
248	0x3d90c8dc	0.07069561
249	0xbc040110	-0.008056894
250	0xbd73c8dd	-0.05951773
251	0x3d4e4942	0.050362833
252	0x3bd458b3	0.0064803003
253	0x3ca47c76	0.020078879
254	0xbdaee1dc	-0.08539173
255	0x3d84f2ee	0.06491648

network_body.vector_processors.0.normalizer.running_mean f4 [4]
0	0x4004666e	2.0687518
1	0x3cee573e	0.029094335
2	0xc10e3580	-8.888062
3	0x3f6e7799	0.9315124
