ml-agents-master/ml-agents/config/results/ppo/LineCreator/LineCreator-17739.onnx (onnx, 71632 bytes, 9 tensors)

53 f4 [4]
00000000: 68c8 c340 feec 3b40 d0ef 2f40 4cfc 1e40
6.1182137 2.9363399 2.749012 2.484149

54 f4 [1, 2]
00000000: 5060 b6bb 97d1 b13c
-0.0055656806 0.021706386

distribution.mu.bias f4 [2]
00000000: 0ed4 283d 38f5 2dbd
0.041217856 -0.042470187

distribution.mu.weight f4 [2, 128]
00000000: 01cb 83bc 2733 e93a 4389 823c ded9 8c3c
00000010: 3114 0b3c c0da 593c b77c 2abb fa42 31ba
00000020: 08a4 bb39 a47a d33c ea45 463a 7ae8 e2b9
00000030: 0551 6b39 1e36 063c ea31 9f3b 4df8 9d3c
00000040: 3ac0 863c 45d2 e8bb 6732 773c a482 1cba
00000050: b484 bb3b 944e 41bb 724c 21bb e997 adbc
00000060: db3c 85bb 9ea4 123c 964a dd3b 239e cabb
00000070: 3f76 de3a 2631 003b a89d bd3c e283 f53b
00000080: 80b1 fe3b 1a64 e7bb 1df1 0abc 6f82 483c
00000090: a655 f83c e215 f6b9 85e4 eabb 0fd8 0c3c
000000a0: 7a16 b13b 2f61 acbc 91bb 6f3b b92c 173c
000000b0: db41 6dbc 078e 403c 40a9 c63c 66d4 513b
000000c0: 2dbb 173b 3ad4 14ba 7397 9b3b d027 85bb
000000d0: c983 cdbb cf60 5bbb 8421 353c f12e c9bb
000000e0: 938a ab3c 937e ba3c a348 e0bb 8c08 b93b
000000f0: 915c b1bb 2f13 cf39 fa05 ca3b a74b 4f3c
00000100: 6e9b 0d3c b55c 943b 3906 303b 2cb7 973a
00000110: aeea 68ba 5248 9f3b b4d2 f53b 2504 edbc
00000120: 1cdf cf3b e910 af3b df5f 0bbb 08f2 74bb
00000130: ef59 a8bb 1ee1 03bc 88b7 e4bb 1782 c33b
00000140: d170 b33b fd93 f8bb e5fd 933b a644 af3a
00000150: 3e81 0c3d 798b 3a3b 50c3 3fbc 021d 883b
00000160: 10b6 c8bb fe48 f33b 10ec a7bb 9fc4 b239
00000170: a8e7 04bc 2717 b738 faff 80bc 8579 f3bb
00000180: 8762 463c 652e 1cbb 46fc 0e3c 926e d8b9
00000190: 8324 133c c377 41b8 52ab 293b f466 563c
000001a0: 13c8 25bc 343f 2bbb b47a b5bc ebc3 413c
000001b0: e7a2 0b3b ce5e 8fbb e57b 0abc b791 84ba
000001c0: 3e02 a5ba 53f5 7cb9 e364 f93b b346 2039
000001d0: 8bd0 c53a 650a 0eb9 b186 5cbc 84e8 3cbb
000001e0: 23f9 ae3c 5caa 313b 9d13 d03a 2382 403c
000001f0: 9489 4b3c 642c bfbc e855 76b8 d8e9 a5bc
00000200: e8cd 8c3c e2b5 ba3b eb8f abbc 92bb 993b
00000210: c12c b1ba 54bc 21b8 a632 f5bc c284 103b
00000220: af6d d7ba 9283 3939 abda 22bc 061a 90bb
00000230: 37bc 99b9 2084 19bc 1637 79bb 2297 ea3b
00000240: acbf 42bd fe7f 733a 6311 4d3b 93c2 aa39
00000250: 3e32 ccba 7b52 43bb c750 e0ba f385 073d
00000260: 4a15 b83c 5538 9cba 854f c33b c48b 83bb
00000270: f8f1 03bb 4636 9a3c 6d95 7ebc a4cc 8439
00000280: b3f2 3bbb 1879 1f3c 0498 c6bb 1e54 8ebb
00000290: 3d4d 5ebb f7f1 83ba d235 4f3c 0b21 eb3b
000002a0: 1a2f bcbb 9a60 18bc d40b f73b facf 2abb
000002b0: c065 ab3c 26a1 9f3b 4141 0d3b 3d6f aabb
000002c0: 5d2c 8a3b eb7f 02bc 6efb 51bb 941f 1a3b
000002d0: 35c9 513c e95e f93b 9437 e4ba 9594 963a
000002e0: 6dfa f83b 0a55 9bbc 8f52 47bc f512 923b
000002f0: 5872 db3a 1ffa 593b a8ac 543c a4cd 2c3c
00000300: ae5e 56bc 9ab8 98bb 60fd 163b ab8d 853b
00000310: b904 9abc 20aa 0b3b f82e 73bb bf2b dcbc
00000320: ac85 33b9 7531 0bbc a136 6ebb 599a 173b
00000330: 855a 59ba 6a74 3a3c 4dac 233b 830e 243c
00000340: 3dda 88bb eb3d 12bc 010b 56bb c11c b33c
00000350: 8050 6d3c 8c27 12bb fbfe 45ba ad6d b73b
00000360: 22dc b43a 1dbe 4b3c ca37 44bb 5f99 a7b9
00000370: 3b84 b03c 8c51 973b 7162 ab3c a09b f73b
00000380: 5c68 293c fa11 413b 6229 393c 688b 7e3b
00000390: c7aa 30ba 6f0f eeba b669 34ba a4e8 2bbc
000003a0: 066a 993c ec83 a53c 38cf 80bb dd7c 27bc
000003b0: e60d 30bc 1984 fdb8 dbb2 fabb 4344 dd3a
000003c0: 18ad 06ba c603 60bc b6a4 813b 6828 843c
000003d0: e1d6 0fbb 992a 90bc 25f2 8c3c 04b7 94bc
000003e0: bf9c d1bc 6b0b 65bc 45b3 6abc 7209 53bc
000003f0: c844 913c 9cf9 af3c 34ad 61bb 51d8 7db8
-0.01608801 0.0017791734 0.015934592 0.01719373 0.008488701 0.013296783 -0.0026014277 -0.00067619944
0.00035789632 0.025815316 0.00075635186 -0.00043279288 0.00022441529 0.0081916135 0.004858245 0.019283438
0.016449083 -0.007105144 0.0150877 -0.00059703947 0.0057226066 -0.00294963 -0.0024612215 -0.0211906
-0.0040660924 0.008950381 0.006753276 -0.006183402 0.0016972496 0.0019560545 0.023146465 0.0074925283
0.0077726245 -0.0070614936 -0.008480337 0.012238129 0.030314278 -0.0004693708 -0.007168355 0.008596434
0.0054042907 -0.021042434 0.0036580304 0.009226971 -0.014481033 0.011752612 0.024250627 0.0032017468
0.0023152337 -0.0005677376 0.0047482788 -0.004063584 -0.0062718135 -0.003347445 0.011055354 -0.006139629
0.0209401 0.022765433 -0.0068445965 0.005646771 -0.005412646 0.0003949641 0.0061652632 0.012652314
0.008643014 0.004527653 0.0026859178 0.0011574975 -0.00088850677 0.004860916 0.0075019244 -0.02893264
0.0063437354 0.005342592 -0.002126686 -0.0037375707 -0.005137674 -0.008049278 -0.0069798864 0.0059664357
0.0054760952 -0.007586001 0.0045163506 0.0013371899 0.034302942 0.002846448 -0.011704281 0.0041538486
-0.006125219 0.007424473 -0.0051245764 0.000340973 -0.008111872 8.7304325e-05 -0.01574706 -0.0074302577
0.012108452 -0.0023831364 0.008727139 -0.00041281112 0.008980873 -4.6126323e-05 0.0025889468 0.013086069
-0.010118502 -0.0026130201 -0.022153236 0.011826496 0.0021306814 -0.0043753153 -0.00845239 -0.0010114227
-0.0012589169 -0.00024123983 0.0076109036 0.00015285127 0.0015092058 -0.00013546048 -0.013459847 -0.0028825114
0.021359032 0.0027109599 0.0015874986 0.011749777 0.012422938 -0.023336597 -5.8730977e-05 -0.020253107
0.017188028 0.0056979517 -0.020942649 0.0046915496 -0.0013517366 -3.8560785e-05 -0.029931378 0.0022051786
-0.0016435887 0.00017691989 -0.00993983 -0.0043976335 -0.00029322665 -0.00936988 -0.0038027219 0.0071591297
-0.047546074 0.00092887867 0.003129088 0.00032569896 -0.0015578938 -0.00298038 -0.0017113917 0.03308673
0.022471089 -0.0011918644 0.005960407 -0.004014464 -0.0020133238 0.018824708 -0.015538556 0.0002532947
-0.0028678596 0.009733461 -0.006060602 -0.0043435236 -0.003392055 -0.0010066618 0.012647109 0.00717557
-0.0057429196 -0.009300375 0.007539252 -0.0026063905 0.020922542 0.0048715053 0.0021553787 -0.005201249
0.0042167143 -0.007965068 -0.0032040733 0.0023517357 0.012804319 0.007610191 -0.0017411583 0.0011488373
0.0075982125 -0.018961448 -0.01216568 0.0044578263 0.0016742451 0.0033260656 0.012980618 0.010547075
-0.013084097 -0.004660678 0.0023039207 0.004075726 -0.01880108 0.002131112 -0.0037106853 -0.026876329
-0.00017120567 -0.008495678 -0.003634848 0.002313277 -0.00082913815 0.011380294 0.0024974525 0.0100132255
-0.0041764067 -0.008925895 -0.0032660367 0.021864297 0.014484525 -0.0022301404 -0.00075529487 0.005597791
0.0013798515 0.012435463 -0.002994048 -0.00031966993 0.021547427 0.0046178754 0.020920964 0.0075563937
0.010339823 0.0029460178 0.01130137 0.0038840417 -0.0006739315 -0.0018162559 -0.0006882207 -0.010492478
0.018727314 0.020204507 -0.0039309524 -0.010222641 -0.010745501 -0.00012088585 -0.0076507158 0.0016881305
-0.00051374873 -0.013672775 0.0039564027 0.016132548 -0.0021948146 -0.017598437 0.017205307 -0.018153675
-0.025587438 -0.013979773 -0.014324968 -0.01288067 0.017732993 0.021481328 -0.0034435512 -6.052136e-05

network_body.linear_encoder.seq_layers.0.bias f4 [128]
00000000: ceed 82bd 91cb 1dbc c3cf 02bd baab afbc
00000010: 038a 863d 5589 5b3c 40bc 6ebb 8859 5ebd
00000020: a378 a5b8 eebc 10bd a1e7 3abd 0f37 65bb
00000030: d40f 29bd c786 a0bd e796 c2bc 6213 eabc
00000040: 96dc 33bd 5dce 01bd 5647 123d 7d93 8e3c
00000050: 4781 9fbc e1a6 073d cdb5 febc b289 89bc
00000060: 08ef 34bc ca62 2b3c 30a1 68bd 8de5 823c
00000070: ba9c 43bc f806 15bd 39a1 9fbc 1b2f ad3b
00000080: e393 bb3c ac31 ea3b 233d 14bd 573f 86b9
00000090: ccff 24bd 5474 60bd 8075 f7bb 9d1a febb
000000a0: 6f4c 503d 7ec3 a73c 3468 2b3d 9aea c6bc
000000b0: f638 2abd 94e9 9d3c a64c 26bd 8b94 cfbc
000000c0: 1dad 6abc cf14 02bd d817 9b3c a4d7 b73b
000000d0: b30e 49bd 3b4d 12bd 4ea6 a03b 50b4 e33c
000000e0: ad36 23bd d7d1 30bd f2b6 93bd 54a8 d6bc
000000f0: 6df9 abbb fc52 14bd fe8c e73c 937d 983c
00000100: 4bcd 873c bea4 a33c 5c76 823b b5a7 86bc
00000110: fe83 283b ae25 c8bc 1054 e2bc 23da b9bb
00000120: f032 fcbb 7dcd 5fbd 52b1 5bbd 24d5 91bd
00000130: 63d1 5cbc cb60 973c e222 1abc cfcb c4bc
00000140: 9a78 743c b74d 873c af08 013d 66b8 5a3a
00000150: a20a 9cbd 995d 143d 8766 64bc f2eb ecbc
00000160: 6b5d aa3a d0f5 9bbc 0e96 eebc e6c1 f43b
00000170: e42f cebc 677c bcbd 19f5 903a 4449 383c
00000180: f155 273c 2cec a8bc 015c 4ebd 24a9 8bbc
00000190: eb7e 7bbc fcab b73c 3eef 37bd 99fe fb3c
000001a0: d5ce 73bc e6b4 0dbd f972 50bd fcb3 913b
000001b0: c1f7 46bd 4131 e9bb 2ad6 25bd fe84 813c
000001c0: 4c1a 3b3c 4bba ca3b 10a9 cdb9 e819 92bc
000001d0: be62 3a3c 65e6 21bd 6f6a fe3c 7b97 56bc
000001e0: 9f06 323c ff6d 9b3b 0b2a c0bc db87 d9bc
000001f0: 863b ebbc 1e18 b0bc c3df 853b 67ef 9fbc
-0.06393014 -0.009631054 -0.03193642 -0.02144419 0.065692924 0.013399442 -0.0036428124 -0.054284602
-7.8902835e-05 -0.035336427 -0.045631055 -0.0034975444 -0.04127486 -0.07838207 -0.023753596 -0.028573696
-0.04391154 -0.031690944 0.035712563 0.017404312 -0.019470824 0.033118133 -0.031092549 -0.016789291
-0.011043318 0.010460565 -0.056794345 0.015978599 -0.011939222 -0.0363836 -0.019486057 0.0052851564
0.022897666 0.0071470346 -0.036191117 -0.00025605664 -0.04028301 -0.05479844 -0.007551849 -0.0077546374
0.050854143 0.02047896 0.041847423 -0.024281789 -0.04155823 0.019276418 -0.04060044 -0.025339385
-0.0143235 -0.031758126 0.018932268 0.005610423 -0.049086284 -0.035718184 0.0049026376 0.02779594
-0.039847065 -0.04316887 -0.072126284 -0.026203312 -0.0052482397 -0.036211953 0.028265473 0.018614566
0.016577384 0.019976016 0.0039813947 -0.01643739 0.002571344 -0.02443203 -0.027627975 -0.005671756
-0.007696502 -0.05463933 -0.053635903 -0.071207315 -0.013477656 0.018478772 -0.009407731 -0.024022965
0.014921332 0.01651655 0.031502422 0.00083435175 -0.076192155 0.036222074 -0.01394046 -0.028921101
0.0012997811 -0.019038111 -0.029124286 0.0074694036 -0.02516932 -0.09203415 0.0011059373 0.011247937
0.010213361 -0.020620428 -0.05038071 -0.017048426 -0.015350084 0.022420876 -0.044905894 0.03076105
-0.014880856 -0.034596346 -0.050890896 0.0044465046 -0.04857612 -0.007116467 -0.040487446 0.015810486
0.011419844 0.0061867586 -0.00039226608 -0.017834619 0.011376081 -0.039526362 0.03105661 -0.013097639
0.010865836 0.004743337 -0.023457548 -0.026554039 -0.028714906 -0.021495875 0.0040855124 -0.019523336

network_body.linear_encoder.seq_layers.0.weight f4 [128, 4]
00000000: accf 04bd 6d7a d73d 4375 2c3f 6cbd d93d
00000010: 48fe e83e 3313 a33e 253b 71be d3b5 3cbd
00000020: 629e 9d3e 212d 10be 4094 3e3f 7fd6 903c
00000030: 0d01 b4bf 3c4e ea39 2ed6 24bb e304 29bf
00000040: 2c5a a6be 7ee2 3bbe cd42 d93e 57d8 193f
00000050: ea13 e7be cf86 a73e fa62 ea3e ead6 1dbe
00000060: c4e8 6f3e a055 303f 0de1 bd3e 72af d8bd
00000070: 574f 943c 0e43 e9bd 8bc1 a73d 457c e6bd
00000080: 833a d53e abed c9bd dbcc c5be c31b 6c3f
00000090: a079 9bbe b631 2fbf 9e7f 05bf 6fb9 08bf
000000a0: 3557 523f d6dd 91bf 30b6 3e3e 5961 733e
000000b0: 1428 9dbd 2cea babe 4662 bf3d cfae 243c
000000c0: 9f16 56bf fe94 08be d479 103e 84fb 03be
000000d0: 7e02 3d3f 8b17 0b3b b423 a6be 4a22 5bbf
000000e0: 3780 93bf 5d38 f23e df39 18bd 77d2 b7be
000000f0: d832 45be 8636 0c3e d8b5 51bf 7003 4b3d
00000100: fae8 2cbe 683f d13e bc60 8bbf cb16 c1be
00000110: a65a 423f 4eba 32be 2e32 2f3f 1a40 2bbe
00000120: d93b e2be a323 2fbd 2281 083f d7da 0c3f
00000130: 2cdd 9abf cd6c aebc e360 bd3e f3ed bd3e
00000140: edd7 fd3e 357f 9b3e 92e1 2abe 8e3c 9e3e
00000150: 25da 2c3d 8e5c 44be fc3a 93bf e7d1 47bf
00000160: e849 b33e 0131 c7bf dac2 943e 41db cfbe
00000170: 715d debe 414a d5be aac5 cfbe f327 b5bd
00000180: 7a30 78bc 3431 e4be 83ec e9bd 2998 94be
00000190: 3569 763e 79d7 d039 e59a 973d 51bf 543f
000001a0: 96d0 4ebb 16bd 9ebe bec0 e03e 566b 00be
000001b0: 7b29 d8be c2ad 523e afc5 23bf a2aa b9bd
000001c0: 8c0a ac3e 22f3 cf3e e9e4 b13e d27a 7dbc
000001d0: 3e00 e0be 3343 1f3f dc63 093d 1426 0fbf
000001e0: 9ed6 bd3e ff40 c83e 282f 7ebe 27b0 5dbf
000001f0: de3f 1c3f 9f0c e1be 9dc4 023f 695e 503e
00000200: f7e9 613e b971 883f da5f b73e d789 293f
00000210: 240f be3e a7a7 a9be 80a9 1dbf 74cf 553f
00000220: dca2 f13d 67f4 963f 2f4f bc3d febb 87be
00000230: 941c 493f b868 efbe 3f71 9fbc 2fb5 103e
00000240: 6383 8bbd 6d72 f8be 0aba bc3f 1e88 ca3e
00000250: 4df9 853e 4836 ec3d 3328 04bf 906a 033e
00000260: 7ef9 da3e fabd fd3d cce7 68bd f2f8 e5bd
00000270: 3f9b 2e3e 01f1 3b3f 1a65 ccbe cc67 14be
00000280: 5d28 f4bd 548a 09be 1a3c 5b3e bb9c df3c
00000290: 5ccf 693e f5a8 2ebe 5e59 e63e 7c47 583f
000002a0: f94d 48bf 8141 b9bf caf2 11bf 3a89 c7be
000002b0: 0d5a 6c3e 9314 423f 19f8 47be 78a2 6f3c
000002c0: a3d3 37be 08c5 9abd 3635 dd3e dccb 23bf
000002d0: 6bac 29be 2dff 46bf fb76 843e 3d75 183e
000002e0: e8d1 f83e 13b9 a7bb 50ba 8c3d 3c37 773e
000002f0: d704 ad3e ab78 343f bed9 3b3f 4f5f 0a3f
00000300: 24f8 6ebf c618 823f 8d81 3dbc 0a7f c7be
00000310: c5b9 113e 0b9f 81be 333d f53e cc80 19bf
00000320: 82a9 4ebe 5bb9 bebe 6a9e 2a3f 8b01 493f
00000330: cb26 34bd 32e3 e13c ebb2 00bf 8971 14bf
00000340: e8e2 cb3c 0212 5cbe 60b5 55bf 9e34 80bd
00000350: a0c6 06be d22d 8c3f fa3a d23e c24f 7f3e
00000360: 0dab cfbd 082b 693e a757 d9be 6251 ce3e
00000370: ee97 c8be 6b29 e6be 6683 013f 4e15 4a3f
00000380: f90f f03e ec0c 9dbe 4b5c 06bf a4b9 53bd
00000390: 9d5d 8d3e ebc5 fbbd d030 c23d e1c5 50be
000003a0: 7254 05bf eeff ab3e bc9e 35bf e50f 81bf
000003b0: 9412 073f 0795 823e cafb 03bf 4948 8a3d
000003c0: e172 0c3e d316 1bbf 1a7f 6e3e 90a0 a93f
000003d0: 90b9 cf3e fb20 afbe 4f40 1bbe e2e9 86be
000003e0: ce6f 69bf bd5a 8dbe bbae 27bc 540a ea3d
000003f0: 1ee6 f73d 5638 29bc 9a06 513d 98ad 9b3e
-0.032424614 0.10521398 0.6736643 0.106318325 0.455065 0.31850585 -0.23557718 -0.04607184
0.307849 -0.14079715 0.7444496 0.017680405 -1.4062821 0.00044690247 -0.0025152075 -0.6602308
-0.3249067 -0.18348119 0.42433777 0.60095733 -0.4513238 0.32720038 0.45778638 -0.15414014
0.23428637 0.68880653 0.37085763 -0.105803385 0.018104238 -0.11389743 0.08191212 -0.11254171
0.41646203 -0.09859785 -0.38632855 0.9222986 -0.3036623 -0.6843523 -0.52147853 -0.5340795
0.8216432 -1.1395824 0.18624187 0.23767604 -0.0767366 -0.36506784 0.09344916 0.010051443
-0.8362827 -0.13338086 0.14108974 -0.12888914 0.7383193 0.002122375 -0.32449114 -0.85599196
-1.1523503 0.47308627 -0.037164565 -0.3590276 -0.19257677 0.13692674 -0.81918097 0.049563825
-0.16885749 0.40868688 -1.0888896 -0.37712702 0.7591957 -0.17453882 0.68435943 -0.16723672
-0.44186285 -0.042758595 0.5332204 0.55021423 -1.2098746 -0.021292115 0.3698798 0.37095603
0.495788 0.3037049 -0.16687611 0.30905575 0.042200226 -0.19175932 -1.1502376 -0.7805466
0.35017323 -1.556183 0.2905491 -0.40596965 -0.43430665 -0.41658214 -0.40580493 -0.0884551
-0.015148276 -0.4456879 -0.11422064 -0.2902234 0.24063571 0.0003983339 0.07402591 0.83104426
-0.0031557432 -0.31003636 0.4389705 -0.12540945 -0.42219147 0.20574096 -0.63973516 -0.09065749
0.33601797 0.40615183 0.34744957 -0.015471177 -0.43750185 0.6221191 0.0335425 -0.5591748
0.37077802 0.39112088 -0.24822676 -0.8659691 0.61034954 -0.43954942 0.5108126 0.20348515
0.22061907 1.0659705 0.35815316 0.6622595 0.37120926 -0.3313572 -0.6158676 0.83519673
0.11798641 1.1793336 0.091947906 -0.26510614 0.7855923 -0.46759582 -0.01946318 0.14131616
-0.068121694 -0.485248 1.4744275 0.39556974 0.26166764 0.11533791 -0.5162384 0.12833619
0.42768472 0.12389751 -0.056861684 -0.11229123 0.17051409 0.7341462 -0.39920884 -0.1449272
-0.11921761 -0.13431674 0.21409646 0.027296415 0.22833008 -0.1705664 0.44990057 0.84484076
-0.78243977 -1.4473115 -0.5701109 -0.38971883 0.23081227 0.75812644 -0.19528235 0.014626138
-0.17951827 -0.07557112 0.4320466 -0.6398294 -0.16569678 -0.7773312 0.25872025 0.14888473
0.48597646 -0.005118498 0.06871474 0.24142164 0.33792755 0.70496625 0.73379123 0.5405168
-0.9334738 1.016381 -0.011566532 -0.3896411 0.14231022 -0.25316653 0.47898254 -0.59962153
-0.2018185 -0.3725079 0.6664797 0.7851798 -0.04398231 0.027574155 -0.5027301 -0.5798574
0.02488847 -0.21491244 -0.8347988 -0.06260036 -0.13161707 1.0951483 0.4106062 0.24932769
-0.10140047 0.22770321 -0.42449686 0.40296465 -0.39178413 -0.44953474 0.50591123 0.7893876
0.46887186 -0.3067392 -0.5248458 -0.051690713 0.27610484 -0.12293609 0.094819665 -0.20387985
-0.5208198 0.33593696 -0.70945334 -1.0082976 0.5276272 0.25504324 -0.51556075 0.067520685
0.13715698 -0.605817 0.23290673 1.3252125 0.4057126 -0.3420485 -0.1516125 -0.26350313
-0.91186225 -0.2760829 -0.01023453 0.11427751 0.12104438 -0.010328373 0.051031686 0.3040588

network_body.linear_encoder.seq_layers.2.bias f4 [128]
00000000: 0942 80bd f398 babc 7d5f 093d f635 ac3c
00000010: 7f06 273c d168 9a3c c1c7 913c bb54 3ebd
00000020: 90d1 753b d63f a03c 1f7e 5d3c 3acc c63c
00000030: b3d5 293c 6075 4d3c 4907 97bc 9028 943c
00000040: 7865 233d 3709 aabc a67e 81bb f597 b9bc
00000050: 8c2c 023c e7ee 8abc 2a88 5dbb a9e5 67bd
00000060: f782 48bd fc40 ed3c 30ff 33bc 47e0 58bb
00000070: e95c acbc 91fd e1bc accc 0f3d 42e0 973c
00000080: 18a5 d03b 8f01 3abd 013a c8bc 8c09 e73c
00000090: a0ea 013d d506 b73c a010 56bd e6b2 623c
000000a0: 3eee b53c 2599 99bc cf7f 2fbd 324b 483c
000000b0: 4f1d 7cbd 12e5 953b 7d7c e63b 43d4 8f3c
000000c0: 59ea d8b9 0bc6 013d 196d 81bc c950 32bd
000000d0: bcb5 5fbd 8ba6 abbc cdc6 c83b 0003 6fba
000000e0: 57dd d03b 7082 c83c 8fd8 b7bc 5e3c 03b8
000000f0: 7249 1dbd f3a3 c3bc 7a40 06bd d142 29bc
00000100: 7272 d43c ead3 3c3a 497f 0cbd 4d6b fdbc
00000110: 9a11 b03c 7557 013d 3465 e63c 5bce a9bc
00000120: 42cd 4b3d 7b85 9a3c 1eb9 edbc 5ccf b7bb
00000130: 5586 a3bc 675e 10bd 048b 193c 5060 3f3c
00000140: 4057 a13b 5d24 91bb ec79 a43a 5369 c0bc
00000150: 3bef 1b3c 4f4a a2bc 08bd 0fbd 6a80 1ebd
00000160: 38b0 0637 dcb6 233c ee68 823b a81e d6bc
00000170: ce77 5dbd 2b5e 04bc 6286 6dbd efad 06bc
00000180: a3ca a1bc dbe7 c7bc 0963 77bb 0da0 8ebc
00000190: 1a05 853c 4dcc 81bc ab70 00bd 601d 7e3c
000001a0: 8ca5 85bd 7f91 00bd 4018 1cbd 3cad ae3c
000001b0: af6c 853c 366d 40bc 7c95 75bc 8456 7bbb
000001c0: 5896 f1bb acc6 e03c 8623 b33a b056 1abd
000001d0: 1024 b73c cca9 b73c 68a6 6abd 71d1 733c
000001e0: e474 0c3d df4b 32bb eae4 a13b 94bc ee3c
000001f0: aeca 65bc e38a 92bd c748 e4bc ec06 a9bc
-0.06262595 -0.02277801 0.03353833 0.021021824 0.01019442 0.018848808 0.017795445 -0.046467524
0.0037508942 0.01956169 0.013518839 0.024267305 0.010365891 0.012540191 -0.018436091 0.018085748
0.03989169 -0.020756347 -0.0039518652 -0.022655467 0.007945191 -0.01695962 -0.0033803084 -0.056615505
-0.048953023 0.028961651 -0.010986134 -0.0033092664 -0.021040397 -0.02758673 0.0351073 0.018539552
0.006367337 -0.045411643 -0.02444172 0.028202794 0.031717896 0.022342125 -0.05226195 0.013836598
0.02220833 -0.018749783 -0.042846497 0.012224959 -0.06155139 0.0045744264 0.007033883 0.017557269
-0.00041373333 0.03168301 -0.015799092 -0.043534074 -0.054616675 -0.020953437 0.0061272145 -0.00091175735
0.006374042 0.02447626 -0.02244213 -3.1289055e-05 -0.03840012 -0.023881888 -0.032776333 -0.010330872
0.025933478 0.00072032085 -0.034301076 -0.030934954 0.021492768 0.031577546 0.02812443 -0.02072828
0.049756296 0.018862477 -0.029018935 -0.005609436 -0.019961515 -0.03524628 0.009371523 0.0116806775
0.004923731 -0.0044293837 0.0012548543 -0.023487723 0.009517486 -0.019810824 -0.035092384 -0.038696684
8.0280515e-06 0.009992328 0.0039797937 -0.026137665 -0.054069333 -0.008079092 -0.057989486 -0.00822018
-0.019749945 -0.02440255 -0.0037748239 -0.017410303 0.016237784 -0.015844489 -0.03135745 0.015509933
-0.06525716 -0.031388756 -0.038109064 0.021322839 0.016287176 -0.011744788 -0.014989253 -0.0038351128
-0.0073726587 0.027438484 0.0013667203 -0.037680328 0.022356063 0.022419833 -0.057287604 0.014881478
0.034291163 -0.0027205867 0.0049406188 0.029142655 -0.014025373 -0.07155397 -0.027866734 -0.020633183

network_body.linear_encoder.seq_layers.2.weight f4 [128, 128]
00000000: 2cb3 003e 6d69 b9bd aff7 e3bd 8d32 4bbc
00000010: 1a5f d8bd a43e b93c d645 be3d 4949 543c
00000020: 5636 9ebc 433e 36bd f470 933c 2b5c 9bbd
00000030: 5dbe 323e 008e bebc d38d 4fbc 4efe 363d
00000040: 06fb 073e fe46 30bb 5a03 d7bd c7f4 873d
00000050: 2a3a 9c3d 3ba6 5ebc fe73 31be 0783 d3ba
00000060: a4b0 1d3d 9fc7 f7bd 3f91 f03d 2a68 a7bd
00000070: 529d b3bd 1266 1a3b 877c 3c3d 9600 f9bd
00000080: 0e8d 97bd a2f0 88bd addb d83c 1ac6 963d
00000090: 8132 723d 827b 263e 0b60 0b3e c126 ca3b
000000a0: c172 febc 826f c13d e491 bfbc 1fd0 b9bd
000000b0: 61e9 2d3e feaf e3bd c4d3 09bd 6293 c03c
000000c0: 625c 583d 30b9 e5ba 578c a6bd df45 97bc
000000d0: fad3 17bd 5c2e 5a3c 3b56 44bc 6fc5 6cbd
000000e0: 0b68 843d f924 f03c e622 913d 77a2 873d
000000f0: c519 12be 61a7 43be 6a5f 693d 38cd 95bb
00000100: e069 633c 960b 08bd 67b3 0bbd 65a0 84bd
00000110: 03c8 61be 5c0a 20bd 8772 aabd 4c74 cbbd
00000120: d841 68be a166 dd3d 5d02 c8bb def6 113e
00000130: 2173 463d 90f0 c63d 69e0 b33d 6b2a f5bc
00000140: 1f64 e9bc d7c0 f5bc e7a4 533d 1f05 67bd
00000150: ca79 b9bd 14e5 7ebd d663 92bd 3536 8e3d
00000160: be6c 65bb 1e0e 91bb d62b 01be f679 acbd
00000170: 77b4 42bc a418 2fbd 16af 113d 4862 febd
00000180: f964 6abe fb50 cc3c 11b6 81bc 2ba6 0bbe
00000190: b202 11bd 7160 c83d a4e9 aebc b785 e2bd
000001a0: 4ddc 583d 1f8a 9a3c 4eb3 0c3d de28 60be
000001b0: d1f2 95bb 22d3 083c 1faf b33d 9b8b 1d3e
000001c0: 756d bb3d 12c5 1d3d 407e b3bd ec7c 823d
000001d0: 5fc4 613d c8bd 38bd 73aa 5fbd f0c5 91bc
000001e0: ac17 cdbd a3ab 5abd 00f6 ba3d 60ab aabc
000001f0: 4138 48bd 7b1a 86bc 4435 703d 0179 0ebc
00000200: d614 853d 2178 b7bc 2b3d c53c dc6b 2bbd
00000210: 6729 0fbb 15ac 6bbc 90cd b23d aa4c 7fbd
00000220: e568 e23c 2fef b2bd 4634 07bd 64f6 07be
00000230: 639a edbd 86d8 583e 8d46 7a3d c970 e93c
00000240: ac57 43bd 9559 73bd 3caa 343e eb2f 923d
00000250: 49da 66be 8643 02be 3db1 203b c067 233e
00000260: e44c 8dbd 9076 c13d 982a 30bb 7d31 023e
00000270: 21db a83c bfbc d6bd 166c f93d 4117 d63a
00000280: 63d8 58ba dd12 563d 7893 a1bd f536 8fbd
00000290: 19df 0fbd 7af8 0f3e fb16 283c f168 9f3c
000002a0: edd1 853d ae26 d7bc a00c 393d 3670 82bc
000002b0: 37e3 e63d 7574 8abc d948 91bd c094 0d3e
000002c0: 1d82 b73d 46c1 72bd d5f1 96bd 4bb0 c5bd
000002d0: da68 a2bd 625f 3dbd cea4 4cbe bdf1 14bd
000002e0: d7b9 abbc 0750 17bc 4328 d8bc 9656 f13c
000002f0: 2ba7 7a3d 62c5 4d3d 5771 b33c f717 8e3d
00000300: 6371 ef3d 70d1 073d 8148 31ba 294b 66bb
00000310: d8fa 5e3e 397f 01be a623 2abc 23f3 06bd
00000320: ff72 00bd fa6c c2bd fd7a b6bd 4661 973d
00000330: d883 b3bd 32e0 153e a833 9c3d ceb9 3b3d
00000340: acf6 803c af8a 0a3e 0445 273d 1c78 86bb
00000350: 32e9 15bd ae0a 5bbe 5f7d 00be 51a2 a23c
00000360: e942 64bc c949 2bbc 0fe1 1f3e 85c6 0b3e
00000370: db72 cd3c efe6 163d cf8c 46bc 8c9f d53d
00000380: 804f 573d 7a76 50be 8e1b 8fbd fc6d b83b
00000390: 7720 fdbd e937 03be 36ab 99bd f425 71bd
000003a0: 7815 f0bd bac4 8fbd 6c71 eb3c 86cc c7bd
000003b0: 2341 913c 2387 9abc af5f 143d cd44 ddbc
000003c0: ddbc 9dbc ef57 0fbc 694f a9bd dd78 b8bb
000003d0: 4009 6dbd ee2c ad3d 20d6 e7bc ab90 d7bd
000003e0: 8b01 f83c 3931 46bd 3d30 e43d 404d bc3c
000003f0: a11f c83d d309 20be d9e5 e7bd d23e f83c
0.12568349 -0.090533115 -0.11131226 -0.012402189 -0.10565014 0.022612877 0.09290664 0.012956926
-0.019313019 -0.04449297 0.017998196 -0.07585939 0.1745543 -0.02326107 -0.012668091 0.044676118
0.13279352 -0.0026897783 -0.10498686 0.066384844 0.076282814 -0.013589437 -0.17329404 -0.0016137072
0.038498536 -0.120986216 0.117464535 -0.081741646 -0.08770241 0.0023559374 0.046017196 -0.12158315
-0.07399951 -0.06686522 0.026471937 0.073620036 0.059130196 0.16258052 0.13610856 0.0061691706
-0.031060578 0.094450966 -0.023384996 -0.09072899 0.16983558 -0.11117552 -0.03364922 0.023507778
0.052822478 -0.0017526504 -0.081322365 -0.018465934 -0.03706739 0.013316717 -0.01198345 -0.057805475
0.06465157 0.029314505 0.070867345 0.066227846 -0.14267643 -0.19106819 0.05697576 -0.004571583
0.013880223 -0.033214174 -0.03410664 -0.06475905 -0.22048955 -0.03907238 -0.083226256 -0.09934291
-0.22681367 0.108105905 -0.0061037974 0.14254329 0.04844964 0.097138524 0.08783037 -0.029927453
-0.028490124 -0.02999918 0.051670935 -0.05640137 -0.090564325 -0.062230185 -0.071479484 0.06943933
-0.0035007442 -0.0044267317 -0.12614378 -0.084217 -0.0118838465 -0.04274811 0.035567366 -0.124210894
-0.2289008 0.024940958 -0.015833886 -0.13637607 -0.03540296 0.0978402 -0.021351643 -0.1106066
0.05294447 0.01886469 0.034350686 -0.2189059 -0.004576065 0.008351119 0.08773636 0.15385287
0.09151737 0.03851802 -0.08764315 0.06371483 0.055118915 -0.045102865 -0.054605912 -0.01779458
-0.10014281 -0.05338634 0.09128952 -0.020833671 -0.048881773 -0.016370049 0.058644548 -0.008695842
0.06498115 -0.02239615 0.024077019 -0.04185091 -0.0021844746 -0.014384289 0.08730614 -0.062328972
0.027637908 -0.08737027 -0.033008836 -0.13277584 -0.116017126 0.21176347 0.06110244 0.028496163
-0.047691032 -0.059411604 0.17643064 0.07138046 -0.22544207 -0.1272107 0.0024519705 0.15957546
-0.06899431 0.09446442 -0.0026880857 0.12714191 0.020612301 -0.10485219 0.12178819 0.0016333835
-0.000827199 0.052264083 -0.078894556 -0.06992904 -0.035124872 0.1405963 0.010259385 0.01945922
0.06534181 -0.026263561 0.045178056 -0.015922647 0.112738065 -0.016901234 -0.07093973 0.13826275
0.08960364 -0.05926635 -0.073703445 -0.09652766 -0.07930155 -0.046233542 -0.19984743 -0.036363352
-0.020962639 -0.009235389 -0.026386386 0.029460233 0.06119458 0.050237067 0.02190463 0.06938165
0.11691549 0.03315872 -0.0006762818 -0.0035140014 0.21775377 -0.12646188 -0.010384476 -0.032946717
-0.03135967 -0.09493442 -0.08910177 0.073916 -0.087653816 0.14636305 0.0762704 0.045831494
0.015742622 0.13529466 0.040837303 -0.0041036736 -0.036599346 -0.21390793 -0.12547825 0.01985279
-0.013931968 -0.0104546035 0.15613197 0.13649948 0.025079181 0.03684133 -0.012118532 0.10430822
0.05256605 -0.20357695 -0.069876775 0.0056283455 -0.12359708 -0.12814297 -0.07503359 -0.058874086
-0.11722845 -0.070199445 0.028740607 -0.097558066 0.017731255 -0.018863266 0.036224063 -0.027010346
-0.019255096 -0.008748992 -0.082670994 -0.0056296424 -0.05787015 0.08455835 -0.028300345 -0.1052564
0.030274173 -0.048386786 0.11142013 0.022986054 0.09771658 -0.15628748 -0.11323137 0.030303393

network_body.vector_processors.0.normalizer.running_mean f4 [4]
00000000: f47e 4540 58ba 3cbe fdea 26c1 897a 7d40
3.0858736 -0.1843046 -10.43237 3.960604
