ml-agents-master/ml-agents/config/results/ppo/LineCreator/LineCreator-10853.onnx (onnx, 71632 bytes, 9 tensors)

53 f4 [4]
0	0x3dc42e1f	0.095791094
1	0x3d066ee8	0.032820612
2	0x4028ff1a	2.6405702
3	0x40115299	2.2706664

54 f4 [1, 2]
0	0x00000000	0.0
1	0x00000000	0.0

distribution.mu.bias f4 [2]
0	0x00000000	0.0
1	0x00000000	0.0

distribution.mu.weight f4 [2, 128]
0	0x3ccbcb06	0.024877083
1	0xbc2395e9	-0.009984472
2	0x3c7ac9e8	0.015306927
3	0x3c558aa0	0.013033539
4	0x3c4d2887	0.0125218695
5	0x39240a39	0.00015644067
6	0x3bc9b9f0	0.0061561987
7	0xbc1b0120	-0.009460717
8	0xbc884c94	-0.016638078
9	0x3d0083a7	0.031375553
10	0x391140a9	0.00013852365
11	0xb8d5a13b	-0.00010186663
12	0xbd15ac53	-0.036541294
13	0xbc267d64	-0.010161731
14	0xbc809442	-0.015695695
15	0xbce927af	-0.028461305
16	0xb9a9a278	-0.0003235524
17	0x3bf3c237	0.0074389237
18	0x3ccc72d4	0.024957098
19	0x3ccebbc3	0.025236016
20	0xbc304444	-0.010758463
21	0xbc8b1701	-0.016978743
22	0xbae8aa18	-0.0017750887
23	0xbb6734b2	-0.0035279212
24	0xbc769105	-0.015049224
25	0x3d263b87	0.040584113
26	0x3c650ad3	0.0139796315
27	0xbcaa8437	-0.020814998
28	0x3c2bcc0e	0.010485662
29	0x3bec1f72	0.007205897
30	0xbbd4c1b2	-0.006492817
31	0xbc871d6b	-0.01649352
32	0x3a46501b	0.0007565037
33	0xbc447607	-0.011991031
34	0xbc9c6d14	-0.019094981
35	0x3cd657b2	0.026164863
36	0x3b80208f	0.0039101313
37	0x3d1557eb	0.0364608
38	0xba2a9748	-0.0006507528
39	0xbbbc41eb	-0.0057451627
40	0xbac737fe	-0.0015199182
41	0xba339b25	-0.00068514264
42	0xbcfc0902	-0.030766014
43	0x3b8147b2	0.0039453143
44	0x3d093b99	0.033504102
45	0x3c25c012	0.010116594
46	0x3c26e3f7	0.010186187
47	0x3bcf92aa	0.0063346224
48	0x3cf3d1f7	0.029763205
49	0xbc1cb743	-0.009565177
50	0xbbc906dc	-0.006134851
51	0x3c1afc53	0.009459573
52	0x3cdb746a	0.026788909
53	0xbce1dbb0	-0.027570575
54	0xbbe2b428	-0.006918449
55	0xbb112c2e	-0.0022151577
56	0xbc830743	-0.015994674
57	0x3a7d87ed	0.00096714386
58	0x3b85eac3	0.0040868237
59	0x3af74c7d	0.00188674
60	0x3bb22c54	0.005437413
61	0xbb933bb4	-0.004493201
62	0xbcc8b13b	-0.024498573
63	0xbc791f68	-0.015205242
64	0xbc3165ff	-0.01082754
65	0xbc9054cf	-0.017618565
66	0xba449c12	-0.0007500063
67	0x3bdfb930	0.006827496
68	0x3a3de3e0	0.0007243734
69	0x3c22248f	0.009896412
70	0x3c3c70f3	0.011501539
71	0x3ce3fca3	0.027830428
72	0xbbb4d9a5	-0.0055191093
73	0x39a7d2f7	0.00032009903
74	0xbcdcec4f	-0.02696815
75	0x3bc262b3	0.005932176
76	0x3bc7d277	0.0060980874
77	0xbc7fe965	-0.01561961
78	0x3c247903	0.010038617
79	0xbcf79352	-0.030221615
80	0x3b48b6b3	0.0030626475
81	0xbc32205f	-0.010871976
82	0x3c933620	0.017970145
83	0xbc520c7f	-0.012820362
84	0xbd26e33e	-0.04074406
85	0x3c8f6ad1	0.017506989
86	0xbb941df8	-0.004520174
87	0x3c08f4a3	0.008359107
88	0x3bfd0fc0	0.007722825
89	0xbc8c1847	-0.01710142
90	0xbc804c57	-0.015661402
91	0x3c0a41c4	0.008438531
92	0x3c3cee74	0.011531461
93	0xbc83062a	-0.01599415
94	0xbc0d0346	-0.0086067375
95	0x3c03a722	0.008035453
96	0xbaba948b	-0.0014234943
97	0xbc55d56d	-0.013051373
98	0x3a05ebbc	0.00051086745
99	0xbcb6948b	-0.022287628
100	0xbd211179	-0.039323304
101	0xbca12a16	-0.019673388
102	0x38ecd290	0.00011292577
103	0xbc34ef8f	-0.011043443
104	0x3b313e0d	0.0027045042
105	0xbc2aa421	-0.010415108
106	0xbc4ed397	-0.012623689
107	0x3cee5933	0.029095268
108	0xbc140bfb	-0.0090360595
109	0xbc7377c5	-0.014860098
110	0xbb8fcd48	-0.004388485
111	0x3c5d0da5	0.013492023
112	0x3c39b8d4	0.01133557
113	0xbcc9cb26	-0.024633002
114	0xbcabd45f	-0.02097529
115	0x3c8d975a	0.017284084
116	0x3c3d98fd	0.01157212
117	0xbc4e3e08	-0.012588032
118	0x3b97ee4b	0.004636561
119	0xbc9449f3	-0.018101668
120	0x3cc73d9b	0.024321368
121	0xbc7f5e53	-0.0155864535
122	0xbc1a1e76	-0.0094066765
123	0xbb9f9c43	-0.004870923
124	0xbccc4705	-0.024936209
125	0x3ce7d050	0.028297573
126	0x3be9879d	0.007126762
127	0x3b0d2d62	0.0021541943
128	0x3c83b8c3	0.016079312
129	0x3c0c67c6	0.008569663
130	0x3c9b1cb5	0.018934587
131	0xbc645ffd	-0.013938901
132	0xbbdf9d77	-0.006824191
133	0xba413bc9	-0.00073712744
134	0xbbfa4975	-0.0076381513
135	0xbc0f9b1b	-0.008765007
136	0xbc22f433	-0.009945917
137	0xbc07f8fe	-0.00829911
138	0xbc6da0e8	-0.014503695
139	0xbb23e63c	-0.0025009057
140	0x3cad8291	0.021180423
141	0x3c01c0c6	0.007919496
142	0x3d5d16f0	0.053976953
143	0x3c7f22e8	0.015572287
144	0xbcb5bb3b	-0.022184005
145	0x3cbd4956	0.023106258
146	0xbcdb6880	-0.026783228
147	0xbca0b6a2	-0.019618336
148	0xbcb30937	-0.02185498
149	0x3bcbfd86	0.0062252907
150	0x3c746c42	0.014918389
151	0x3c67c5b2	0.014146255
152	0x3b8247f0	0.003975861
153	0xbc85bde3	-0.016325897
154	0xbd0406d3	-0.03223307
155	0xbbbc08ef	-0.0057383697
156	0x3c0af093	0.008480209
157	0x3b66cba8	0.0035216603
158	0x3c9e5d38	0.01933156
159	0xbcc02517	-0.023455186
160	0xbcbdc045	-0.02316297
161	0x3c4c198b	0.012457262
162	0xbd3f6cfe	-0.046734802
163	0xbc9ccc8f	-0.01914051
164	0x3c484b87	0.012225038
165	0xbc422963	-0.011850688
166	0xbafd28b5	-0.00193145
167	0x3cc203cb	0.02368345
168	0xbcf38b18	-0.029729411
169	0x3bc8c407	0.006126884
170	0x3be5710d	0.007002002
171	0x3cb0ba14	0.021573104
172	0xbc299082	-0.010349395
173	0xbc6baba0	-0.01438418
174	0xba48c99b	-0.0007659436
175	0xbc47893d	-0.012178716
176	0x3bf2d1c3	0.0074102595
177	0xbbf062f8	-0.0073360167
178	0xbce39d7a	-0.027785052
179	0x3cb311d9	0.021859096
180	0x3bd746a3	0.0065697
181	0xbcbb7546	-0.022883069
182	0x3a460064	0.0007553159
183	0xbcb1f207	-0.021721853
184	0x3c615b48	0.013754673
185	0xba31213b	-0.0006756966
186	0xbb99cfad	-0.0046939463
187	0x3c16f4cb	0.009213637
188	0xbca60c90	-0.020269662
189	0xbc3027bb	-0.01075166
190	0x3c428c64	0.011874292
191	0x3d1668e2	0.036721118
192	0xbc39afa2	-0.011333378
193	0xbc016257	-0.007896981
194	0x3c6b5a9b	0.014364864
195	0xbc39f67e	-0.011350272
196	0xbb30fb42	-0.002700523
197	0xba9885cb	-0.0011636553
198	0xbc59f0e8	-0.013302065
199	0x3ca23b02	0.019803528
200	0xbc67920f	-0.014133944
201	0xbc8089d2	-0.015690718
202	0xbb7d8aaf	-0.0038687398
203	0xbc8a27aa	-0.016864616
204	0x3c511fd8	0.01276394
205	0x3abd15c5	0.0014426043
206	0xbbd43bab	-0.0064768395
207	0x3c727e28	0.014800586
208	0x3a3eae7c	0.0007273925
209	0xbc2d0f3b	-0.010562713
210	0x3bd957d3	0.006632784
211	0xbc2b4704	-0.010453943
212	0xbc14ccfb	-0.009082074
213	0xbc0d20c3	-0.008613768
214	0x3bfb10d0	0.0076619163
215	0x3bebae70	0.0071924254
216	0x3c89f92d	0.01684245
217	0x3b22353b	0.0024750966
218	0xbb5f7c48	-0.0034101177
219	0x3c401d53	0.011725741
220	0xbc13cf5c	-0.009021606
221	0x3ccf4d3a	0.02530538
222	0x3c209f30	0.009803578
223	0xbc18a9cb	-0.009317826
224	0x3d296c6c	0.041363165
225	0x3cbfd227	0.023415638
226	0x3ce8797a	0.028378237
227	0x3bca43a5	0.0061726146
228	0xbcb11fae	-0.021621551
229	0xbcc9496e	-0.024571147
230	0x3ca26919	0.019825505
231	0x3c81e81b	0.015857747
232	0x3c938adc	0.01801055
233	0x3c09a635	0.008401443
234	0xbc2f71f9	-0.010708326
235	0x3c12f003	0.008968356
236	0xbc348bee	-0.01101969
237	0xbc9630e4	-0.01833386
238	0xbcba3bbb	-0.02273356
239	0x3c14537f	0.00905311
240	0x3d0f7ca6	0.035030983
241	0xbc100651	-0.008790568
242	0x3a9c74bd	0.0011936646
243	0x39c77908	0.00038046413
244	0xbcffe2f5	-0.031236151
245	0x3b890847	0.004181895
246	0x3c6b348b	0.014355789
247	0x3c7addad	0.015311641
248	0xbd31927f	-0.0433526
249	0xbc240869	-0.010011771
250	0xbc072a2c	-0.008249801
251	0xbb38df43	-0.0028209246
252	0xbb13d17f	-0.002255529
253	0xbb5cbecf	-0.0033683067
254	0xbcbf14ca	-0.023325343
255	0x3c8b40a4	0.016998596

network_body.linear_encoder.seq_layers.0.bias f4 [128]
0	0x00000000	0.0
1	0x00000000	0.0
2	0x00000000	0.0
3	0x00000000	0.0
4	0x00000000	0.0
5	0x00000000	0.0
6	0x00000000	0.0
7	0x00000000	0.0
8	0x00000000	0.0
9	0x00000000	0.0
10	0x00000000	0.0
11	0x00000000	0.0
12	0x00000000	0.0
13	0x00000000	0.0
14	0x00000000	0.0
15	0x00000000	0.0
16	0x00000000	0.0
17	0x00000000	0.0
18	0x00000000	0.0
19	0x00000000	0.0
20	0x00000000	0.0
21	0x00000000	0.0
22	0x00000000	0.0
23	0x00000000	0.0
24	0x00000000	0.0
25	0x00000000	0.0
26	0x00000000	0.0
27	0x00000000	0.0
28	0x00000000	0.0
29	0x00000000	0.0
30	0x00000000	0.0
31	0x00000000	0.0
32	0x00000000	0.0
33	0x00000000	0.0
34	0x00000000	0.0
35	0x00000000	0.0
36	0x00000000	0.0
37	0x00000000	0.0
38	0x00000000	0.0
39	0x00000000	0.0
40	0x00000000	0.0
41	0x00000000	0.0
42	0x00000000	0.0
43	0x00000000	0.0
44	0x00000000	0.0
45	0x00000000	0.0
46	0x00000000	0.0
47	0x00000000	0.0
48	0x00000000	0.0
49	0x00000000	0.0
50	0x00000000	0.0
51	0x00000000	0.0
52	0x00000000	0.0
53	0x00000000	0.0
54	0x00000000	0.0
55	0x00000000	0.0
56	0x00000000	0.0
57	0x00000000	0.0
58	0x00000000	0.0
59	0x00000000	0.0
60	0x00000000	0.0
61	0x00000000	0.0
62	0x00000000	0.0
63	0x00000000	0.0
64	0x00000000	0.0
65	0x00000000	0.0
66	0x00000000	0.0
67	0x00000000	0.0
68	0x00000000	0.0
69	0x00000000	0.0
70	0x00000000	0.0
71	0x00000000	0.0
72	0x00000000	0.0
73	0x00000000	0.0
74	0x00000000	0.0
75	0x00000000	0.0
76	0x00000000	0.0
77	0x00000000	0.0
78	0x00000000	0.0
79	0x00000000	0.0
80	0x00000000	0.0
81	0x00000000	0.0
82	0x00000000	0.0
83	0x00000000	0.0
84	0x00000000	0.0
85	0x00000000	0.0
86	0x00000000	0.0
87	0x00000000	0.0
88	0x00000000	0.0
89	0x00000000	0.0
90	0x00000000	0.0
91	0x00000000	0.0
92	0x00000000	0.0
93	0x00000000	0.0
94	0x00000000	0.0
95	0x00000000	0.0
96	0x00000000	0.0
97	0x00000000	0.0
98	0x00000000	0.0
99	0x00000000	0.0
100	0x00000000	0.0
101	0x00000000	0.0
102	0x00000000	0.0
103	0x00000000	0.0
104	0x00000000	0.0
105	0x00000000	0.0
106	0x00000000	0.0
107	0x00000000	0.0
108	0x00000000	0.0
109	0x00000000	0.0
110	0x00000000	0.0
111	0x00000000	0.0
112	0x00000000	0.0
113	0x00000000	0.0
114	0x00000000	0.0
115	0x00000000	0.0
116	0x00000000	0.0
117	0x00000000	0.0
118	0x00000000	0.0
119	0x00000000	0.0
120	0x00000000	0.0
121	0x00000000	0.0
122	0x00000000	0.0
123	0x00000000	0.0
124	0x00000000	0.0
125	0x00000000	0.0
126	0x00000000	0.0
127	0x00000000	0.0

network_body.linear_encoder.seq_layers.0.weight f4 [128, 4]
0	0x3eaf0068	0.34179997
1	0x3ced9235	0.029000381
2	0x3e507fcb	0.20361249
3	0x3ed757a5	0.42059055
4	0xbf83d8a2	-1.0300486
5	0x3f118249	0.56839424
6	0x3e9d5b1d	0.30733576
7	0xbf5878d0	-0.84559345
8	0xbf3e2c37	-0.74286216
9	0x3eaddea7	0.33958933
10	0xbd6c60d9	-0.05770955
11	0x3f2945d3	0.6612217
12	0x3f7a7039	0.9782749
13	0xbf0f84d2	-0.5606204
14	0xbf0a945a	-0.54132617
15	0xbed74436	-0.42044228
16	0x3e32eb01	0.1747246
17	0xbf1b60e4	-0.6069472
18	0x3f4db67e	0.80356586
19	0xbea5f8bd	-0.32416335
20	0xbed5045b	-0.41604885
21	0xbe74953c	-0.23885053
22	0x3e3869a0	0.18009043
23	0xbeee3193	-0.46522197
24	0xbeac2a49	-0.3362601
25	0xbdef81b6	-0.11694662
26	0x3ccf7bad	0.025327528
27	0x3ed2be1e	0.41160673
28	0x3f81fffd	1.0156246
29	0xbe40d45b	-0.18831007
30	0x3ef84fdc	0.48498428
31	0xbdc8d489	-0.09806163
32	0xbef9c75c	-0.48784912
33	0x3f517e3c	0.81833243
34	0x3f04f182	0.5193101
35	0xbdacb0ef	-0.08432185
36	0xbece19c3	-0.4025403
37	0xbf22e368	-0.63628244
38	0xbe15d258	-0.14631021
39	0xbd6e72a1	-0.058214787
40	0x3ee6f69a	0.45110017
41	0xbe67653c	-0.22597212
42	0x3fbcec6d	1.4759651
43	0x3f493046	0.78589284
44	0xbeebf7d5	-0.46087518
45	0xbec6195a	-0.38691217
46	0xbf54583a	-0.82947123
47	0x3f0d3d29	0.5517145
48	0x3db43c93	0.08800616
49	0xbefd5580	-0.49479294
50	0x3d13ae00	0.03605461
51	0x3f107165	0.56423026
52	0x3e351376	0.17683205
53	0xbe04e999	-0.12979735
54	0xbf937127	-1.1518906
55	0x3f5d9029	0.86548096
56	0xbe790df2	-0.24321726
57	0x3e9ff451	0.31241086
58	0x3f081634	0.5315888
59	0x3e89af27	0.26891443
60	0x3daebbef	0.08531939
61	0xbde5e28e	-0.112248525
62	0xbe8d5b12	-0.27608544
63	0xbe86bbf4	-0.26315272
64	0xbe3b7a1c	-0.183083
65	0xbee3ebf1	-0.44515947
66	0xbe64da10	-0.22348809
67	0xbcdf6efe	-0.027274605
68	0xbeffeff2	-0.4998775
69	0xbf06518d	-0.52468187
70	0x3f0d6da5	0.5524543
71	0xbbcfd416	-0.0063424213
72	0xbf012fbb	-0.50463456
73	0xbe97d0de	-0.2965154
74	0x3e682fec	0.2267453
75	0xbe7be23e	-0.24598023
76	0x3e4eef8e	0.2020857
77	0x3f8b5e27	1.0888108
78	0x3ed95529	0.42447785
79	0x3e0ca5b7	0.1373509
80	0xbf5b8713	-0.8575298
81	0xbf1a418a	-0.60256255
82	0x3ec8b796	0.39202565
83	0x3f2ce641	0.6753884
84	0xbf29fbaa	-0.66399634
85	0xbe83afe2	-0.25720125
86	0x3e5fac52	0.21843079
87	0x3e436887	0.19082843
88	0xbe2d23c9	-0.16908182
89	0x3da8d47a	0.08243652
90	0x3f8d793d	1.1052624
91	0x3f6f1cd7	0.9340338
92	0xbf965d9d	-1.1747319
93	0x3f06379c	0.52428603
94	0x3f147bf3	0.5800163
95	0x3f2cc388	0.67485857
96	0xbe2b76a2	-0.16744474
97	0xbf2df445	-0.6795085
98	0x3dc279ae	0.09495865
99	0xbf40c044	-0.75293374
100	0x3f06f5b5	0.5271867
101	0x3f53d1d6	0.8274206
102	0xbe6ba1aa	-0.23010889
103	0x3e93701d	0.28796473
104	0xbe5e7a96	-0.2172645
105	0xbf111d9e	-0.5668582
106	0xbe8460b1	-0.2585502
107	0xbe4ed564	-0.2019859
108	0xbfa5272e	-1.2902582
109	0xbeedc8be	-0.46442217
110	0xbe97d31c	-0.2965325
111	0x3f6bad9b	0.92061776
112	0x3e6da462	0.23207238
113	0xbf24aed6	-0.6432928
114	0x3de551d5	0.11197249
115	0x3f1e75d9	0.6189857
116	0x3e2d9d5f	0.16954564
117	0xbf41362d	-0.7547329
118	0xbeb6a2de	-0.35671133
119	0xbf7ab2fd	-0.97929364
120	0x3ee88cb9	0.45419863
121	0xbe70c24b	-0.23511617
122	0xbe9366df	-0.28789422
123	0x3f8ea37e	1.1143644
124	0x3ecb626b	0.39723524
125	0x3c993652	0.01870266
126	0x3f0295de	0.5100993
127	0x39ee00e3	0.00045395558
128	0xbd33626f	-0.043795045
129	0x3f0cf438	0.5506015
130	0xbf02838c	-0.50981975
131	0x3ecefa1d	0.40425196
132	0x3efad187	0.48987982
133	0x39be45e0	0.00036291685
134	0x3f2ffa16	0.68740976
135	0xbd1ec1aa	-0.03875891
136	0x3f2fe731	0.68712145
137	0xbee003a7	-0.43752787
138	0x3d8dfd2e	0.06933056
139	0xbeb891ca	-0.36048728
140	0xbf399d18	-0.7250533
141	0x3c76bd82	0.015059831
142	0x3e9bafd7	0.30407593
143	0x3eba4e8d	0.36388054
144	0x3eb36b63	0.35042867
145	0x3f0ec921	0.5577565
146	0xbf17206f	-0.59033865
147	0xbd853bb0	-0.06505525
148	0xbe20f9d4	-0.15720302
149	0xbe81033f	-0.2519779
150	0x3ded27a9	0.1157983
151	0xbe4a2524	-0.1974073
152	0x3ed03010	0.4066167
153	0xbf18bd4c	-0.59663844
154	0x3f547fa9	0.83007294
155	0x3e3eb14f	0.18622325
156	0x3e98317c	0.29725254
157	0x3f094d0f	0.5363321
158	0x3e81196d	0.2521471
159	0xbe4b8095	-0.19873269
160	0x3ed3f82e	0.41400284
161	0x3de3fefe	0.1113262
162	0x3ed2f66b	0.41203627
163	0xbeb30335	-0.34963384
164	0xbee6678e	-0.4500088
165	0xbda73f6f	-0.08166396
166	0xbd784dcb	-0.060621064
167	0xbf56debb	-0.8393361
168	0x3f1d2991	0.6139155
169	0x3ea3daaf	0.3200278
170	0xbf6a0dfd	-0.91427594
171	0xbe8bee53	-0.27330264
172	0xbedd9aae	-0.43282074
173	0x3e9e0fc4	0.30871403
174	0x3e613d50	0.21996045
175	0xbe630ea4	-0.22173554
176	0xbe9fbf90	-0.31200838
177	0x3e98ff77	0.29882404
178	0xbeabd82b	-0.3356336
179	0x3e5b6769	0.21426167
180	0xbd653643	-0.05595995
181	0x3efa7141	0.4891453
182	0x3f21c633	0.63193053
183	0x3eadae40	0.33922005
184	0x3f0debbb	0.5543782
185	0xbe5746bc	-0.21023077
186	0x3f173d38	0.5907779
187	0xbf8479f6	-1.034972
188	0xbe7df83e	-0.24801728
189	0xbdf2c5ea	-0.11854155
190	0xbee44325	-0.44582477
191	0xbe31d729	-0.17367233
192	0x3f0ae087	0.5424885
193	0x3f822683	1.0168003
194	0x3e9a93cb	0.30190882
195	0x3e187790	0.1488936
196	0x3e8e71c7	0.2782118
197	0x3f46ff84	0.77733636
198	0x3f0212c0	0.5080986
199	0x3fb2f999	1.3982421
200	0x3e9f32cd	0.31093445
201	0x3f201fad	0.62548333
202	0x3d1a9317	0.037737932
203	0x3ebd994c	0.3703102
204	0x3d9cdbdc	0.07659122
205	0x3f4fba7d	0.81143934
206	0x3d00e15b	0.031464916
207	0xbe08f9cd	-0.13376541
208	0x3e17405f	0.1477065
209	0x3f95304c	1.1655364
210	0x3e5874c4	0.21138293
211	0x3f18f83d	0.5975378
212	0xbed31c34	-0.41232455
213	0xbd67902d	-0.05653398
214	0x3f8bb5d1	1.0914861
215	0x3dc52597	0.0962631
216	0xbf22c22d	-0.6357754
217	0xbdea0c68	-0.114281476
218	0x3c485571	0.012227402
219	0xbe29ec73	-0.16594104
220	0xbe9f3e26	-0.31102103
221	0xbe9b45b7	-0.30326626
222	0xbd4096a6	-0.04701867
223	0x3e9a6b88	0.30160165
224	0x3e542971	0.20718934
225	0x3e698a0a	0.22806564
226	0x3f038ec4	0.5138972
227	0x3f1a8388	0.6035695
228	0xbc8de3a4	-0.017320462
229	0xbf11d41c	-0.5696428
230	0x3c31a1ca	0.010841796
231	0xbd940fcf	-0.07229578
232	0xbe7b25ea	-0.24526182
233	0x3e5b3c0d	0.21409626
234	0x3eba31da	0.3636616
235	0x3e334d34	0.1750992
236	0xbec7addf	-0.3899984
237	0x3f046668	0.5171876
238	0xbeb51059	-0.35364035
239	0xbd1e6c18	-0.038677305
240	0xbf138f44	-0.5764048
241	0xbe53f63a	-0.20699397
242	0xbf20fc77	-0.6288523
243	0x3eb70ce5	0.35752025
244	0xbe7a040d	-0.24415608
245	0xbf0967d4	-0.53674054
246	0x3e2a4b7b	0.16630356
247	0x3d33b826	0.04387679
248	0xbeebb92c	-0.46039712
249	0x3f6595b9	0.89681584
250	0xbd1fb934	-0.038994983
251	0xbe30907d	-0.17242618
252	0xbdaf13af	-0.08548676
253	0xbc413d75	-0.011794438
254	0x3a40b813	0.0007351648
255	0xbed7e36b	-0.42165694

network_body.linear_encoder.seq_layers.2.bias f4 [128]
0	0x00000000	0.0
1	0x00000000	0.0
2	0x00000000	0.0
3	0x00000000	0.0
4	0x00000000	0.0
5	0x00000000	0.0
6	0x00000000	0.0
7	0x00000000	0.0
8	0x00000000	0.0
9	0x00000000	0.0
10	0x00000000	0.0
11	0x00000000	0.0
12	0x00000000	0.0
13	0x00000000	0.0
14	0x00000000	0.0
15	0x00000000	0.0
16	0x00000000	0.0
17	0x00000000	0.0
18	0x00000000	0.0
19	0x00000000	0.0
20	0x00000000	0.0
21	0x00000000	0.0
22	0x00000000	0.0
23	0x00000000	0.0
24	0x00000000	0.0
25	0x00000000	0.0
26	0x00000000	0.0
27	0x00000000	0.0
28	0x00000000	0.0
29	0x00000000	0.0
30	0x00000000	0.0
31	0x00000000	0.0
32	0x00000000	0.0
33	0x00000000	0.0
34	0x00000000	0.0
35	0x00000000	0.0
36	0x00000000	0.0
37	0x00000000	0.0
38	0x00000000	0.0
39	0x00000000	0.0
40	0x00000000	0.0
41	0x00000000	0.0
42	0x00000000	0.0
43	0x00000000	0.0
44	0x00000000	0.0
45	0x00000000	0.0
46	0x00000000	0.0
47	0x00000000	0.0
48	0x00000000	0.0
49	0x00000000	0.0
50	0x00000000	0.0
51	0x00000000	0.0
52	0x00000000	0.0
53	0x00000000	0.0
54	0x00000000	0.0
55	0x00000000	0.0
56	0x00000000	0.0
57	0x00000000	0.0
58	0x00000000	0.0
59	0x00000000	0.0
60	0x00000000	0.0
61	0x00000000	0.0
62	0x00000000	0.0
63	0x00000000	0.0
64	0x00000000	0.0
65	0x00000000	0.0
66	0x00000000	0.0
67	0x00000000	0.0
68	0x00000000	0.0
69	0x00000000	0.0
70	0x00000000	0.0
71	0x00000000	0.0
72	0x00000000	0.0
73	0x00000000	0.0
74	0x00000000	0.0
75	0x00000000	0.0
76	0x00000000	0.0
77	0x00000000	0.0
78	0x00000000	0.0
79	0x00000000	0.0
80	0x00000000	0.0
81	0x00000000	0.0
82	0x00000000	0.0
83	0x00000000	0.0
84	0x00000000	0.0
85	0x00000000	0.0
86	0x00000000	0.0
87	0x00000000	0.0
88	0x00000000	0.0
89	0x00000000	0.0
90	0x00000000	0.0
91	0x00000000	0.0
92	0x00000000	0.0
93	0x00000000	0.0
94	0x00000000	0.0
95	0x00000000	0.0
96	0x00000000	0.0
97	0x00000000	0.0
98	0x00000000	0.0
99	0x00000000	0.0
100	0x00000000	0.0
101	0x00000000	0.0
102	0x00000000	0.0
103	0x00000000	0.0
104	0x00000000	0.0
105	0x00000000	0.0
106	0x00000000	0.0
107	0x00000000	0.0
108	0x00000000	0.0
109	0x00000000	0.0
110	0x00000000	0.0
111	0x00000000	0.0
112	0x00000000	0.0
113	0x00000000	0.0
114	0x00000000	0.0
115	0x00000000	0.0
116	0x00000000	0.0
117	0x00000000	0.0
118	0x00000000	0.0
119	0x00000000	0.0
120	0x00000000	0.0
121	0x00000000	0.0
122	0x00000000	0.0
123	0x00000000	0.0
124	0x00000000	0.0
125	0x00000000	0.0
126	0x00000000	0.0
127	0x00000000	0.0

network_body.linear_encoder.seq_layers.2.weight f4 [128, 128]
0	0x3d0c7d12	0.034298964
1	0x3dda2729	0.106520005
2	0x3d79dacd	0.06099968
3	0x3b8ab577	0.004233058
4	0xbc3805ca	-0.011231849
5	0x3e5a00d5	0.2128938
6	0xbdcf6c21	-0.10128046
7	0x3d4a34a7	0.04936662
8	0x3d1b7394	0.03795202
9	0xbe1086b5	-0.14113887
10	0x3e20335e	0.15644595
11	0x3d431dee	0.047635965
12	0xbcbf946c	-0.023386203
13	0x3c5d4d7a	0.013507241
14	0xbc62b872	-0.0138379205
15	0x3d9fbeb4	0.078000456
16	0x3dc7dcbb	0.09758898
17	0xbc61642d	-0.013756794
18	0x3d64c72e	0.055854015
19	0xbd83d057	-0.06436222
20	0xbd995d3c	-0.07488486
21	0xbccf9bb5	-0.025342802
22	0xbcd6dff4	-0.026229836
23	0x3c16d7dd	0.009206739
24	0x3e59c245	0.21265514
25	0xbddc5c70	-0.107598186
26	0xbd822220	-0.06354165
27	0xbd812df6	-0.063075945
28	0x3e208a12	0.1567767
29	0x3dcb0aa0	0.09914136
30	0xbd8e15f1	-0.06937779
31	0x3dc5f209	0.09665305
32	0xbb1d1e8b	-0.0023974504
33	0xbafc4fa7	-0.0019249812
34	0xbcb98b84	-0.022649534
35	0xbcf2b69e	-0.029628094
36	0xbd795c57	-0.060879078
37	0xbe23dfc6	-0.16003332
38	0x3cbf7bc9	0.023374455
39	0xbb10766e	-0.0022043246
40	0x3c84e7b2	0.016223762
41	0x3dd0d9c5	0.10197786
42	0x3dff55b6	0.1246752
43	0xbd2a66aa	-0.041601814
44	0xbc8f173d	-0.017467136
45	0x3d8afe16	0.06786744
46	0xbd4e031e	-0.05029594
47	0x3ca14891	0.019687923
48	0xba787199	-0.00094773766
49	0xbd521ea4	-0.051298752
50	0xbdad5347	-0.084631495
51	0x3d44072d	0.047858406
52	0x3d337194	0.04380949
53	0x3e06d2a8	0.13166296
54	0xbd708c51	-0.058727566
55	0x3d7e717d	0.06211995
56	0xbd9a6493	-0.07538714
57	0x3d7d6d3d	0.061871756
58	0x3db8905b	0.090119086
59	0x3dad23bb	0.08454081
60	0xbc9a203c	-0.018814199
61	0x3d43a9e7	0.047769453
62	0x3dcbf087	0.09957986
63	0x3e0ced05	0.13762291
64	0xbe014475	-0.1262377
65	0x3e14699a	0.14493409
66	0x3d851b4e	0.064993486
67	0x3d281ffc	0.041046128
68	0x3d45adce	0.048261456
69	0x3d2c27ac	0.04203002
70	0xbdd02add	-0.101644255
71	0x3cca836b	0.024720868
72	0x3e42df7d	0.19030567
73	0x3c681b96	0.014166733
74	0xbcf50a9d	-0.029912287
75	0x3df8cb4d	0.121481515
76	0x3cee31e6	0.029076528
77	0xbc223994	-0.009901423
78	0x3abb7708	0.0014302442
79	0x3d1b0151	0.037843052
80	0x3e0b51f5	0.13605483
81	0x3d303da3	0.04302753
82	0xbd716c05	-0.058940906
83	0xbd836f84	-0.06417754
84	0xbde10c96	-0.10988729
85	0xbd254c84	-0.040356174
86	0xbd8da84a	-0.06916864
87	0xbc207571	-0.009793625
88	0xbd64bc9b	-0.05584393
89	0x3d3a70ef	0.045517858
90	0x3d253427	0.04033294
91	0xbda3f280	-0.080052376
92	0xbcac7c21	-0.021055283
93	0xbd5f821d	-0.054567445
94	0xbd10c3f9	-0.035343144
95	0xbe0b575b	-0.13607542
96	0xbe04cfae	-0.12969849
97	0xbd93ecad	-0.07222877
98	0xbe1bdda6	-0.15221271
99	0x3d126ad9	0.03574643
100	0xbcab5ea6	-0.020919155
101	0xbc07c78c	-0.008287322
102	0x3e1127ef	0.1417539
103	0xbd2db88c	-0.042412326
104	0xbd8d1202	-0.068882
105	0xbdb29bb3	-0.087211035
106	0xbc7a1a59	-0.015265071
107	0x3dd2c334	0.10291138
108	0x3d5d2c25	0.053997178
109	0xbd898c85	-0.06716255
110	0xbdab7b84	-0.08373168
111	0x3e07e97c	0.13272661
112	0x3d342e58	0.04398951
113	0x3d7d2056	0.061798416
114	0xbdf24a1e	-0.11830543
115	0xb8e89439	-0.00011090231
116	0x3bdad0ab	0.006677707
117	0xbe4a7ce6	-0.19774207
118	0xbd7e84d7	-0.062138405
119	0x3d94ae64	0.07259825
120	0x3dfc8be2	0.12331368
121	0x3dd7fd4d	0.1054636
122	0x3d342eeb	0.043990057
123	0xbdb0f5e4	-0.0864065
124	0x3b44cfed	0.003003116
125	0xbe01da5d	-0.12680955
126	0xbcf5b057	-0.029991312
127	0xbe0dd562	-0.1385093
128	0xbd725dc2	-0.059171446
129	0xbe609525	-0.21931894
130	0x3d37f635	0.044912536
131	0x3dd25097	0.102692775
132	0x3d49101a	0.04908762
133	0xbc88dd38	-0.016707048
134	0x3e69d035	0.22833331
135	0xbda1d916	-0.07902734
136	0xbd1a6a61	-0.037699107
137	0x3df680f3	0.12036314
138	0x3e27fec6	0.16405782
139	0x3d7327fc	0.059364304
140	0xbe200fe7	-0.15631066
141	0x3cd7a8e3	0.026325649
142	0x3de7fde3	0.11327722
143	0x3d451e60	0.04812467
144	0x3e326f7a	0.17425337
145	0xbd572270	-0.052523077
146	0x3da6a20f	0.08136379
147	0xbdccfe77	-0.10009473
148	0x3d1f7060	0.03892553
149	0xbd98aa35	-0.074543394
150	0x3e3990eb	0.18121688
151	0x3d5fe2e0	0.054659724
152	0x3e210443	0.15724282
153	0xbc95c896	-0.018284123
154	0x3d8a17da	0.067428306
155	0xba59926a	-0.00082997105
156	0xbdc2af59	-0.09506101
157	0x3c905be1	0.017621936
158	0xbd279515	-0.04091366
159	0xbe03f1d1	-0.12885214
160	0xbd86c0c6	-0.06579737
161	0x3d9dff2f	0.07714688
162	0xbcb65aff	-0.022260187
163	0x3dbe5bd1	0.09294856
164	0xbd440f95	-0.047866423
165	0xbde5ccf7	-0.112207346
166	0xbd6adc30	-0.057338893
167	0x3d09f1de	0.03367793
168	0x3d8c8d44	0.06862882
169	0xbd7f65bc	-0.06235288
170	0xbdde04ec	-0.108407825
171	0xbcaad504	-0.020853527
172	0x3df1593a	0.11784597
173	0xbd12f1ea	-0.03587524
174	0xbd9e4caf	-0.0772947
175	0x3e1c7135	0.1527756
176	0x3cc6bb84	0.024259336
177	0x3d35f7bb	0.044425707
178	0xbd9c7549	-0.07639558
179	0xbda3c566	-0.07996635
180	0x3cb6e6a2	0.022326771
181	0x3dabd208	0.0838967
182	0xbd7d50bc	-0.061844572
183	0x3d0c9ed5	0.03433116
184	0x3c2d6e58	0.01058539
185	0x3d8a633d	0.067572095
186	0xbd24de82	-0.040251262
187	0xbd3a8615	-0.045538027
188	0x3c3a6057	0.011375508
189	0x3dfe98f0	0.12431514
190	0xbe624234	-0.22095567
191	0xbbc8178e	-0.0061063236
192	0xbd2cae06	-0.04215815
193	0xbda8ea71	-0.08247841
194	0x3e070869	0.13186802
195	0xbd0c55c1	-0.03426147
196	0x3d0c308a	0.034225978
197	0xbe02c7d9	-0.12771548
198	0x3a9727e0	0.001153227
199	0xbdcbdd37	-0.09954303
200	0x3c9507ac	0.018192135
201	0x3d96e744	0.07368329
202	0x3d62d6ab	0.055380505
203	0xbdb0e5a6	-0.08637552
204	0x3e0d4e97	0.13799511
205	0xbe1ec0d2	-0.15503243
206	0x3d732d95	0.059369642
207	0x3cd29976	0.025707942
208	0xbdea89a0	-0.11452031
209	0x3e14898a	0.14505592
210	0xbdd00448	-0.101570666
211	0x3df3b68d	0.11900053
212	0xbdacfdf6	-0.08446877
213	0x3e454f67	0.19268571
214	0xbe55a8fb	-0.20865242
215	0x3e2ea9aa	0.17056909
216	0x3c924605	0.017855654
217	0xbe3bf0f8	-0.18353641
218	0x3cb4d3b3	0.022073602
219	0x3d714981	0.05890799
220	0x3d7acf02	0.061232574
221	0x3dbbea0c	0.091755
222	0xbdd30b02	-0.10304834
223	0x3c523254	0.012829382
224	0x3d0ab572	0.033864446
225	0x3d547adb	0.051874977
226	0x3e1f04c5	0.15529163
227	0xbc0ba9dd	-0.008524385
228	0xbdf8a9d1	-0.12141765
229	0xbd104374	-0.03522058
230	0xbd84d62f	-0.06486165
231	0xbd870364	-0.065924436
232	0xbe29ad3c	-0.1656999
233	0x3b8d85c9	0.004318927
234	0xbca98fcc	-0.02069845
235	0x3dfaea12	0.122516766
236	0xbaf7a36d	-0.0018893309
237	0x3de18d74	0.11013308
238	0x3d19819b	0.037477117
239	0x3d201cf4	0.03909011
240	0xbd462f56	-0.048384987
241	0xbd0dd27e	-0.03462457
242	0xbd7aea1f	-0.06125843
243	0x3cc0b310	0.023522884
244	0xbce9a72e	-0.0285221
245	0xbcd534af	-0.026026098
246	0xbb2c11aa	-0.0026255646
247	0xbd95085f	-0.07276987
248	0x3d53b9a2	0.051690705
249	0x3ce9e4ca	0.028551478
250	0xbe3890e0	-0.18024015
251	0xbdf89bef	-0.12139117
252	0xbd934090	-0.07190049
253	0xbdcc3fa4	-0.09973076
254	0xbc8fc4e3	-0.017549938
255	0x3c9e0b6b	0.019292554

network_body.vector_processors.0.normalizer.running_mean f4 [4]
0	0x411edd46	9.929022
1	0x4051427a	3.2696824
2	0xc135a7a9	-11.353433
3	0x40994ed4	4.7908726
