ml-agents-master/ml-agents/config/results/ppo/LineCreator/LineCreator-76073.onnx (onnx, 71632 bytes, 9 tensors)

53 f4 [4]
000000 3c 36 14 3d c0 1f 4b 3c 85 c2 13 40 09 4a 29 40
       0.036184534 0.0123977065 2.3087475 2.6451437

54 f4 [1, 2]
000000 28 cd 21 bd 4c c3 46 bb
       -0.039502293 -0.0030328808

distribution.mu.bias f4 [2]
000000 c9 9f f8 3d d2 bd e7 bd
       0.121398516 -0.11315502

distribution.mu.weight f4 [2, 128]
000000 c5 b4 cd bc 6a b7 43 bb 12 eb 65 bc 1c 06 c1 bb
       -0.025110612 -0.0029863962 -0.014033096 -0.005890621
000010 47 48 1b bd 3a 11 3e ba 0e ed 14 bb cf 0d 53 38
       -0.037910726 -0.0007250492 -0.0022724303 5.031918e-05
000020 f6 54 29 3b f9 2d cd bc da bb 4f bb 34 3a fb 3b
       0.0025837994 -0.025046336 -0.0031697662 0.0076668505
000030 33 a8 9e 3c de bd 01 bc 6a c2 09 3d bc 22 06 bb
       0.019367313 -0.007918803 0.033632673 -0.002046748
000040 6b b7 ed 3b ec d2 38 3c 30 b6 b2 3a a9 9d 5a 3b
       0.007254531 0.011280756 0.0013634618 0.0033358133
000050 ad 99 cc 3c e5 59 f2 3a f0 c3 51 bb 8d 7d 6e 3b
       0.024975622 0.0018489925 -0.0032007657 0.0036390752
000060 4e b1 86 bb 48 16 88 3b 7b 1d 95 3c 1d 22 87 3a
       -0.004110492 0.0041530468 0.018202534 0.0010309849
000070 73 a7 ad 3c c2 e8 b5 ba 64 33 82 3d be 25 5f bc
       0.02119801 -0.0013878571 0.06357458 -0.013619838
000080 08 12 6f bb e6 f2 d3 ba 5d 76 f9 3c bd d8 ed 3a
       -0.0036479253 -0.0016170412 0.030451948 0.0018146258
000090 96 31 90 3d fb 68 16 b7 a4 d1 3f ba 1b 49 72 ba
       0.07040708 -8.965139e-06 -0.00073173107 -0.0009242461
0000a0 0f 1f bd ba 96 48 d4 3a 8c 01 20 bc 8a 75 52 bb
       -0.0014428812 0.0016195949 -0.009765994 -0.0032113516
0000b0 64 ff 39 bd 31 f0 09 bb 4f c8 72 bb bd 50 37 3d
       -0.045409575 -0.0021047706 -0.0037045663 0.044754732
0000c0 fe ef 9e bb 11 9c b8 bc d1 5f e7 3c e7 d8 84 ba
       -0.0048503866 -0.022535356 0.028243931 -0.0010135443
0000d0 22 25 51 b9 ea f1 87 bb 6e 40 9b ba 69 4c 8d bc
       -0.00019945626 -0.0041487115 -0.0011844763 -0.01724835
0000e0 ec c7 e3 bb c9 94 1b 3d 70 be 7c bb 9a 46 72 3a
       -0.006951323 0.03798369 -0.0038565658 0.0009242088
0000f0 58 dc 84 bb c1 ef bf bd cf 62 21 bb 79 8d e3 3c
       -0.0040545873 -0.09371901 -0.0024625545 0.02777742
000100 a0 6e 42 bb 73 98 54 bb ec 96 b8 b9 17 a6 29 ba
       -0.0029667988 -0.00324395 -0.0003520766 -0.00064715877
000110 9f 1d 0e bc d5 1f 76 bc b0 78 92 bb 9e fa 96 3c
       -0.008674054 -0.015022238 -0.0044699535 0.01843005
000120 55 5d b6 39 19 30 bb 3b 0f cf 3b 3b ee 9d a5 ba
       0.00034783283 0.005712521 0.0028657352 -0.0012635568
000130 b1 27 38 3a b5 22 a9 3c b8 47 c2 3c fd 4a 86 ba
       0.00070249574 0.020646432 0.023715839 -0.0010245737
000140 82 46 22 3b 42 6d 30 bc 8d d8 e5 3a d5 01 03 bd
       0.0024761264 -0.010768237 0.0017535851 -0.03198417
000150 83 dc 30 bb 8d 12 e3 3c e3 1a 47 bb ec de 66 bb
       -0.0026986904 0.027718807 -0.0030381016 -0.0035228087
000160 98 8a 0f ba 05 31 6a 3d 85 e3 96 bb 5e f9 44 bb
       -0.0005475669 0.057175655 -0.004604759 -0.003005586
000170 00 c3 e0 b9 86 51 3f bc 24 37 13 bd 48 0f 67 38
       -0.00042869896 -0.011677152 -0.035941258 5.5088924e-05
000180 13 9a 8e 3b fc fa e7 ba 2a 23 3c bc 78 ec ab 3a
       0.004351863 -0.00176987 -0.011482993 0.0013116738
000190 5e e9 89 3b 2e 1c 31 3b d5 50 1c ba 44 2c 07 3d
       0.0042087277 0.0027024853 -0.00059629726 0.0330012
0001a0 c0 f6 28 3d c5 ef 9f 3a a9 37 43 bb 25 51 1b 3b
       0.041250944 0.0012202194 -0.0029787815 0.002369949
0001b0 49 70 59 3b cd 67 fd bb 50 6f 99 bb cf 5c b3 bc
       0.00331785 -0.0077333213 -0.004682459 -0.02189484
0001c0 6e 2a 47 bb 6d ec 81 bb 11 4b 05 bc 32 6f 0d 3c
       -0.003039028 -0.0039649517 -0.008135573 0.008632468
0001d0 7b 98 07 bd fd a0 af bd 87 65 81 3b d7 cb d2 ba
       -0.0331044 -0.08575628 0.0039488706 -0.0016082478
0001e0 7b 6b 76 bb 17 96 07 3d 78 23 14 3b dc cc 81 ba
       -0.0037600684 0.03310212 0.0022604149 -0.0009902972
0001f0 13 68 0f 3b bc 57 a6 3c eb f4 5e bc c8 7b b3 3c
       0.0021882101 0.020305507 -0.013608198 0.02190961
000200 8f 8d 59 bd 7f cf 0e 3b 5a 26 82 bc 62 b9 c2 bb
       -0.053113516 0.0021791158 -0.015887428 -0.0059425095
000210 48 32 0c bd 58 49 b2 3b 95 d6 08 b9 24 91 d3 39
       -0.03422764 0.005440872 -0.00013049909 0.00040353194
000220 98 2d 2b bb 55 dc 8a 3c d4 b0 5e bb b6 d5 8d bc
       -0.0026119705 0.016950766 -0.003397991 -0.01731382
000230 e0 8e 16 bb 86 b6 94 bd 32 c7 b9 bd 94 03 3a bd
       -0.0022973344 -0.07261376 -0.090711966 -0.04541357
000240 3e 41 95 bb 2f 20 75 bb 8d ba 67 bb af e4 17 bc
       -0.0045548966 -0.0037403216 -0.0035358996 -0.009270831
000250 9c 07 21 bc f5 f1 cd 39 06 a3 16 3b 4e 6b 84 b8
       -0.009828474 0.0003928092 0.0022985353 -6.3142375e-05
000260 72 9d 2c 3a c1 2f 3d 3b 46 b7 73 bb 1c 17 c7 ba
       0.00065847405 0.0028867575 -0.0037188097 -0.0015189382
000270 df 7f be bc 5c 32 1c bc 82 9c d1 ba 17 ca 70 bc
       -0.023254333 -0.009533491 -0.0015992078 -0.0146966195
000280 31 81 a9 ba 0a 0c 4e bb 47 a7 c3 bb 27 69 ea ba
       -0.0012932179 -0.0031440281 -0.0059708687 -0.0017884121
000290 27 bb 1e bd 2c ba 54 38 76 b0 53 38 16 77 b1 b9
       -0.0387527 5.0718125e-05 5.0470662e-05 -0.00033848797
0002a0 bf 27 98 bb 5e ac a0 bb 16 20 36 3c e6 17 1d 3a
       -0.00464341 -0.0049033603 0.011116048 0.0005992636
0002b0 1d d1 3d 3d 29 ff 06 ba 86 5e 11 3a 7f 2e 96 3b
       0.046342004 -0.0005149716 0.0005545396 0.0045831795
0002c0 e6 5e d4 bb 5a 46 33 3c 45 9b 15 bd f0 47 1f bb
       -0.0064810393 0.010942066 -0.03652503 -0.0024304353
0002d0 a3 51 c9 39 e5 87 d6 ba e3 78 e4 bb 50 01 27 bd
       0.00038398532 -0.0016367404 -0.0069724186 -0.040772736
0002e0 ec 4b b5 bd 25 95 23 bc 44 ff d3 bd 96 74 1e b8
       -0.088523716 -0.009984289 -0.103514224 -3.7778715e-05
0002f0 83 6f 2f bb 0c 18 6f 3b da cb fa b9 84 1e 0b 3b
       -0.0026769347 0.003648284 -0.00047835597 0.0021227906
000300 80 ec d2 3b e9 3a bf 39 1e a2 5d ba a5 fd 5b bb
       0.0064368844 0.0003647425 -0.00084546383 -0.0033567932
000310 66 a5 34 bb 81 c4 93 3c 6a 4e 42 bb be cc 18 bd
       -0.0027564405 0.018038036 -0.002964879 -0.037304632
000320 9a 9c 21 bb 97 24 a5 3a 1a 5f 9b bb ea e3 81 ba
       -0.0024659992 0.0012599406 -0.0047415616 -0.0009909843
000330 ad da 8e bb d0 d3 b9 3c 7f c5 6f bc 32 df 3c 3b
       -0.0043595643 0.022684008 -0.014634489 0.0028819558
000340 9f b4 73 bb 7a 76 15 3c 15 a8 94 ba 8d 5c 22 3d
       -0.0037186516 0.009122485 -0.0011341596 0.039639045
000350 aa d3 6a 3b 2d 23 52 bd 90 63 59 bb 7d 44 16 3b
       0.0035831728 -0.051303077 -0.0033170916 0.0022929006
000360 d1 a3 36 3a 9b ee b8 bb 4e 43 89 ba 8a 60 35 39
       0.00069671596 -0.0056436784 -0.0010472329 0.00017297469
000370 1d f1 09 3b de 79 92 bc ad 9a a1 bb ff a9 aa 3b
       0.0021048256 -0.017880376 -0.004931769 0.0052082534
000380 a2 c1 48 ba 7e ff 30 ba 57 04 e2 bb da b3 14 3a
       -0.0007658248 -0.00067519385 -0.00689749 0.0005672552
000390 86 e5 fb ba 3c 0d e5 b9 ed db 1f bb 92 e8 fb bc
       -0.0019218184 -0.00043688144 -0.002439256 -0.030750547
0003a0 bf 24 46 3b 4c 51 fb ba 04 13 08 3b b3 0a 30 ba
       0.0030234305 -0.0019174009 0.0020763287 -0.00067154615
0003b0 ba cb da 39 94 10 70 bb e3 54 61 ba 6c bc f9 3b
       0.00041731988 -0.0036630975 -0.0008595718 0.0076213386
0003c0 ff 39 0b 3b dd 58 9b bb fd e5 4f 3b 8e 86 3f 3c
       0.0021244285 -0.004740818 0.0031722777 0.011689795
0003d0 c7 8d 1e 3d 1e 5d 70 3d 2e 2b 31 b9 1c b6 3d bb
       0.03870943 0.058682553 -0.00016896121 -0.0028947657
0003e0 0f b5 c4 bb 48 47 af 3c 53 a0 b8 b9 59 44 51 3a
       -0.006003029 0.021396294 -0.00035214666 0.0007982902
0003f0 08 63 16 3b 92 2d b3 bd 2e 46 ba 3b ba 73 2b bd
       0.002294721 -0.08748926 0.0056846356 -0.041858412

network_body.linear_encoder.seq_layers.0.bias f4 [128]
000000 d0 0d 07 be 9f 24 8f 3d 30 19 86 bd e8 48 e3 bd
       -0.13188863 0.06989407 -0.06547773 -0.1109789
000010 99 56 4d 3d 8e 3c 9f 3d 1f 85 4d bd b9 d0 88 bd
       0.050131414 0.07775222 -0.050175782 -0.06680436
000020 52 ed 35 bc a0 2b 5b bd e8 8f 56 bc d1 8a 69 bd
       -0.011103945 -0.0535084 -0.013095833 -0.05701715
000030 27 32 8b 3d 79 bd 0e be b5 7d 23 3d bf a5 07 3e
       0.06796675 -0.13939466 0.039914805 0.13246821
000040 53 8f e7 bc d4 bb 03 be d2 d0 0b 3e 7d 66 95 3d
       -0.028266585 -0.1286462 0.13653877 0.07294939
000050 cf da 05 bd 0e df d4 3c 49 9a 44 3d dc 59 1e bd
       -0.032679375 0.025985267 0.0479987 -0.038659915
000060 c0 59 78 bc 24 40 c4 bc d6 c5 d9 bd 54 ed ab 3c
       -0.015158117 -0.023956366 -0.10633437 0.02098719
000070 02 43 08 3e c2 ae 6d 3d 47 45 6e 3d e5 c7 26 be
       0.13306811 0.05802799 0.058171537 -0.16287191
000080 ab 25 0e 3b 33 27 ab bd d9 07 47 3c d3 60 49 bd
       0.0021689932 -0.08357086 0.012147867 -0.049164604
000090 40 8f cd bc b2 74 27 bd 03 4f 24 be 70 2d 0b 3e
       -0.025092721 -0.040882774 -0.16045766 0.13591552
0000a0 5b a5 57 be 37 98 ab bc 71 0a 05 be 99 56 e3 3d
       -0.21059172 -0.020946605 -0.12992264 0.111005016
0000b0 2e 9a ae 3d 8c f2 e0 3d 99 cd a9 bd b5 f6 f9 bd
       0.08525501 0.10983762 -0.08291168 -0.12205259
0000c0 de 4d 84 3d 5d 1f 87 bd 14 b4 e7 bd b3 82 05 3e
       0.064601645 -0.06597779 -0.11313644 0.13038139
0000d0 73 d4 bf bd da 7b 74 bd 7f 11 c0 bb 9b 41 07 bd
       -0.09366693 -0.059688427 -0.0058614607 -0.03302155
0000e0 a5 0c fb bd 5c c6 fd bd 26 dc 3d be 04 74 e9 3b
       -0.12258271 -0.1239135 -0.18541011 0.007124426
0000f0 90 c8 17 be 10 4d 41 bd 5c 08 83 3d 25 3b ce 3c
       -0.14822602 -0.047192633 0.06398079 0.025174687
000100 3b 13 a9 bd 64 a0 a3 bd dd 3a ea bd 49 82 1c bd
       -0.08255621 -0.079895765 -0.114370085 -0.038210187
000110 92 1c cb 3d 02 55 19 bd ff 2a 9f bc 6d 10 0d be
       0.09917559 -0.037434585 -0.019429682 -0.13775797
000120 38 3a 5e ba b9 de 65 3d 4f b5 e7 3d ac 8f 9e bd
       -0.0008477303 0.056120608 0.11313879 -0.07742247
000130 65 c1 06 be 80 f6 b1 3d 83 bf 9b 3d 85 b0 17 be
       -0.13159712 0.08689594 0.07604887 -0.1481343
000140 ee a6 cd 3b e0 26 48 bd 81 36 a3 3d 10 c1 a9 3d
       0.006276003 -0.0488652 0.0796938 0.08288777
000150 14 a2 ee bc cb a4 c6 3d df e3 33 be dd e4 64 3d
       -0.02913002 0.096994005 -0.17567395 0.055882324
000160 ad 80 86 3d 1c f1 f4 bd f0 ae c1 bd 0a 41 71 3d
       0.06567512 -0.119600505 -0.09457195 0.058899917
000170 53 b8 b2 3b be 3a 81 bc 55 3f 28 be f3 df 34 be
       0.005454102 -0.01577508 -0.16430409 -0.17663555
000180 fb ba 0e be ad 45 dc 3c da d0 09 3d 06 90 c0 3d
       -0.13938515 0.026888693 0.033646442 0.0940247
000190 31 e4 ba bd d4 54 e6 bd ca 89 8f bc a7 83 d7 bd
       -0.09125555 -0.112466484 -0.017521758 -0.105231576
0001a0 d2 e9 ac bd da 32 f3 bd e2 81 4a 3d a1 fa 9c 3d
       -0.08443035 -0.118749335 0.049440272 0.07664991
0001b0 9a 85 c8 bd fd 72 9d bd e5 b6 da bc d0 02 cb bc
       -0.097911075 -0.07687948 -0.026698539 -0.024781615
0001c0 a6 83 d7 3c 01 4e de 3c 1c ea 90 bd 96 e5 1d bb
       0.026307892 0.027136805 -0.07075903 -0.0024093143
0001d0 8f 76 e5 bd 2d b4 18 be 3d 4f 26 bd 9e 42 b3 bd
       -0.11204254 -0.14912482 -0.04060291 -0.087529406
0001e0 b0 e8 25 3d cc 2d 0c 3e 19 ff a6 3d 32 81 2a 3d
       0.04050511 0.13689345 0.08154125 0.041627117
0001f0 8a 10 f7 bd 14 28 dd bd 3f 59 a3 bd 4a 6b 1c bd
       -0.120637015 -0.1079866 -0.07976007 -0.038188256

network_body.linear_encoder.seq_layers.0.weight f4 [128, 4]
000000 f0 1f a9 be a1 e5 4e 3d 68 02 f2 3e 3f 61 78 bf
       -0.3303218 0.05051196 0.4726746 -0.97023386
000010 c3 74 3c be b0 23 f3 bd fa dd 4d bf 5f 78 b0 be
       -0.18403916 -0.11872041 -0.80416834 -0.34466836
000020 7c ad 5c be 96 71 b9 bd 54 cf a2 3e 8e 21 ed 3e
       -0.21550554 -0.09054868 0.31798804 0.46314663
000030 12 96 23 3f a8 8e 25 3e 98 ee a9 3e a3 0b 1e bf
       0.63900864 0.161677 0.33189845 -0.61736506
000040 cc 31 0e 3f 9c 0a bb be bd 27 36 bf 80 61 29 3e
       0.55544734 -0.36531532 -0.71154386 0.165411
000050 ff 4c 10 3f 2e bf 5f 3f f0 ea 8c be 26 7c 6f bd
       0.56367487 0.8740109 -0.27522993 -0.058468007
000060 65 31 3e bc f7 4a 0f bf 3c 0f 49 bd 5d a0 f2 bd
       -0.011608456 -0.5597376 -0.049086794 -0.11846993
000070 06 8d b9 be 16 7e b5 be 62 29 ac 3e 92 ce 4a bf
       -0.36240405 -0.35447758 0.33625323 -0.7922145
000080 f2 84 b3 be d0 45 25 3f 47 b3 0a 3c 7f 88 a1 bd
       -0.35062367 0.6455965 0.008465595 -0.07887363
000090 c6 34 da be 77 a8 78 3e 4f ab f4 be a6 19 93 bd
       -0.42618388 0.24283014 -0.47786948 -0.071826264
0000a0 88 2c 33 3f 4a e3 1d 3e 52 d2 2d 3e 58 58 cf 3d
       0.69989824 0.15418735 0.16974762 0.10124272
0000b0 73 7e 3d 3e 40 03 37 be ec d0 a0 bc f3 24 ff 3e
       0.18505268 -0.17872334 -0.019630872 0.49832878
0000c0 fe f9 4b bf e9 0f d8 be ab ae fe 3e 44 06 dd 3e
       -0.7967833 -0.42199638 0.49742636 0.43168843
0000d0 03 aa 82 3f 0b 0b 8c bf 0c 6a 6f 3d 00 b1 99 be
       1.0208133 -1.094087 0.058450744 -0.30017853
0000e0 60 8a da bd f8 d0 bc bd a2 51 9e bd e6 c6 7d 3e
       -0.10670924 -0.09219545 -0.07730414 0.24782905
0000f0 b6 18 12 be 35 b1 2f 3f 29 8a ab 3d d6 93 09 bd
       -0.14267239 0.6862977 0.08375961 -0.033588253
000100 88 ee 48 bf b0 0d fb bc 6e ce 1c 3f d6 70 6b 3f
       -0.7848897 -0.030646175 0.61252487 0.9196905
000110 ac 9e 0e bf 44 f9 02 be c1 73 13 be 91 e5 54 be
       -0.55710864 -0.127904 -0.14399625 -0.20790698
000120 b1 d0 93 3e 86 72 d6 bc 0e de 87 3f b7 c5 9c 3e
       0.28870156 -0.026177656 1.0614641 0.30619594
000130 fb e2 cb be 87 7f e6 3c db b4 7e 3e 88 07 22 bc
       -0.3982161 0.028136982 0.24873678 -0.009889491
000140 1c f9 aa be cd 11 8c ba 08 92 4b 3f f9 e5 bb be
       -0.3339318 -0.0010686457 0.795197 -0.36698893
000150 24 41 1d 3f c4 0f 11 bf 6c 7e a3 3e fc fa 8b 3e
       0.6142752 -0.5666468 0.3193239 0.27339923
000160 f7 bd 9a 3e 84 37 ef be 8b f8 c8 3d 57 11 e0 3e
       0.30223057 -0.46722043 0.09813031 0.4376323
000170 22 ba a3 3e 33 96 21 bf 6f df 25 3f 09 c9 35 be
       0.31977946 -0.6311981 0.6479406 -0.1775247
000180 03 9e fa 3d 40 99 60 3f 3d 80 61 3e 17 ef 96 be
       0.122371696 0.8773384 0.22021575 -0.29479286
000190 d5 65 fd 3d b9 0d 31 bf 24 c8 3a 3d 93 39 4f 3f
       0.123729385 -0.69161564 0.045601025 0.80947226
0001a0 ec 9d ed be 51 0a d0 be 55 11 7f be 59 42 12 be
       -0.46409547 -0.4063287 -0.24908955 -0.14283122
0001b0 84 c1 a0 3d 1d 3e f4 be c4 a4 1c bf eb fc d0 be
       0.0784941 -0.4770364 -0.6118891 -0.4081796
0001c0 32 0f af be 03 5e 09 3f 12 88 8d bd a0 39 c1 3c
       -0.3419128 0.53659075 -0.06910719 0.023587048
0001d0 44 2a 71 3f 20 2a f4 bd 1b d2 0c bf d0 9c 24 bd
       0.9420512 -0.11922097 -0.55008096 -0.04018861
0001e0 43 b8 d0 be e6 d0 a2 3e 35 e7 54 3e 65 be 76 be
       -0.4076558 0.31800002 0.20791323 -0.24096067
0001f0 c9 3f cf be 73 0a 52 3e ee 45 8c 3e ac fd c7 3e
       -0.40478352 0.20511799 0.27397102 0.39060724
000200 ca f5 b6 bf 30 91 82 3d 8b cc 1e bf d8 f2 17 3d
       -1.4293759 0.063753486 -0.6203086 0.03709683
000210 51 f9 ac 3e 64 9a 1d bf db 25 4b bf c5 33 e6 3b
       0.33783963 -0.61563706 -0.7935464 0.0070252144
000220 32 0a 97 3e 97 00 67 bd c8 a6 ec 3e a9 cb 55 be
       0.29499966 -0.056397047 0.46220994 -0.20878471
000230 cd 28 5e 3d 20 c9 2c be cc 7b 00 bf 9c 01 02 3f
       0.05423813 -0.16873598 -0.501889 0.50783706
000240 13 4d cb be 93 5c 31 3e 79 a1 92 bd d2 ab b5 bd
       -0.3970724 0.1732047 -0.07159705 -0.08870663
000250 67 f3 a8 be 74 2c 1c 3e 8a ac bf 3e a4 75 13 3f
       -0.329982 0.15251333 0.37436324 0.5760138
000260 b0 20 88 bf 82 3a ae be 4b bc 57 bd 2b 2d 06 bf
       -1.0634975 -0.34029013 -0.052669805 -0.5241267
000270 50 94 31 3f 05 38 89 3e 01 0f 40 bd 44 16 9a 3d
       0.6936693 0.26800552 -0.04688931 0.07523778
000280 ea 0d 0b bf fd d8 95 be 8d b3 11 be 2b 0d ea 3e
       -0.54318106 -0.2926711 -0.1422865 0.4571317
000290 47 c1 67 be 04 78 df be fd c5 30 3f cb ab b3 3d
       -0.22632323 -0.43646252 0.69052106 0.08773001
0002a0 3f ec 2b be 47 79 8d bc 54 9b 39 3e 70 6d eb 3d
       -0.1678934 -0.017269744 0.18125659 0.11495483
0002b0 72 9a 16 bf 4e 2b a3 3e d5 30 bc bd c3 49 96 3d
       -0.58829415 0.31868976 -0.091890015 0.07338288
0002c0 29 58 3e bf c1 6b 37 3d b0 a4 f8 be 2d 46 9b be
       -0.7435327 0.044780497 -0.48563147 -0.30326977
0002d0 28 b5 bf be 4d 3e d7 3e 1f 17 79 bd b0 c3 89 3b
       -0.374429 0.4203972 -0.060813066 0.004204236
0002e0 27 04 a0 3e 6a 3c 93 be b4 ca 29 3e 6c 23 2d be
       0.31253168 -0.2875703 0.16581231 -0.16908044
0002f0 9f 42 88 3c ef a7 b0 be 90 78 6d 3f eb 20 be be
       0.01663333 -0.34503123 0.9276209 -0.3713449
000300 be 36 d7 3e 8b a3 85 bf cd 34 fd be 26 d9 ed 3e
       0.42033952 -1.0440534 -0.49454346 0.46454734
000310 f0 81 89 be 4b b8 6c bd 16 aa 10 bf 43 95 ee be
       -0.26856947 -0.057792943 -0.5650953 -0.46598253
000320 8b 45 4b bf a7 ef b8 be da 49 46 3e 02 ce 11 bf
       -0.7940299 -0.3612034 0.1936411 -0.5695497
000330 d9 4b 2b bf 3b 07 d7 be ab 78 38 3e ef b8 e6 3d
       -0.6691261 -0.41997704 0.18014781 0.11265742
000340 8f fa f8 3e 2d 95 0d bf 2c c0 de be 55 43 0d bf
       0.4862866 -0.5530575 -0.4350599 -0.55180866
000350 cc f7 88 be 5f cc 1e bf da 9c 82 3d 70 ab 94 3e
       -0.26751554 -0.62030596 0.06377573 0.29037046
000360 59 b9 13 3e 8d bc 3d bb d8 26 08 3f a0 9f 0b bd
       0.14426173 -0.0028951496 0.5318427 -0.034087777
000370 a4 71 86 3f b9 6a ad be 95 cf 96 be fc 06 6a 3f
       1.050343 -0.33870485 -0.29455248 0.9141691
000380 19 04 eb be 24 17 6f 3d 30 35 cd 3d d3 e8 cc be
       -0.45901564 0.058371678 0.1001991 -0.4002138
000390 40 6f f8 bd 42 88 f3 be 92 a8 6c 3c 1e 75 14 bf
       -0.12130594 -0.47564894 0.014444487 -0.57991207
0003a0 2d 5c 68 bd 81 a7 c7 be e8 39 0f be bc 52 0a bf
       -0.05672853 -0.38994983 -0.13986933 -0.5403249
0003b0 cf d5 92 bf 04 01 28 bf c3 97 b3 3d 8a a2 65 3d
       -1.1471499 -0.6562655 0.087691806 0.056063212
0003c0 a0 a8 6b 3f e1 28 a0 bf 00 38 6a be 69 ff 68 be
       0.92054176 -1.2512475 -0.22872925 -0.22753681
0003d0 e4 29 49 bd 2b 5b 2d bf 93 69 37 3e 84 86 23 3f
       -0.049112216 -0.67717236 0.17911367 0.6387713
0003e0 cf de cd 3e a6 76 40 3f 88 c6 3f be b4 7c 09 bc
       0.40209052 0.75181043 -0.18728077 -0.008391548
0003f0 ac 88 60 3e 90 a2 89 3d 99 e1 26 3e ef cf 05 be
       0.21927136 0.067204595 0.16296996 -0.13067602

network_body.linear_encoder.seq_layers.2.bias f4 [128]
000000 d0 3b 6d bd f4 b9 71 3c 2f b8 00 be 8a e7 02 be
       -0.05791837 0.014753807 -0.1257026 -0.12783638
000010 c1 c8 99 bd ea 9b 80 bd 3b af 0e bc ba fd 15 bc
       -0.07508994 -0.06279738 -0.00870877 -0.009154731
000020 1e 5d c4 bd 58 88 21 be 77 d5 06 be 24 bc 01 bc
       -0.09588073 -0.15774667 -0.13167368 -0.007918391
000030 2b 05 aa ba c0 39 ba 3b 97 49 e5 3d 71 24 8d bc
       -0.0012971511 0.005683154 0.11195677 -0.01722929
000040 f1 13 cf 3d d0 ca 1e 3e bb f3 67 bd 66 37 b4 bc
       0.101112254 0.15507054 -0.056628924 -0.021999072
000050 a5 ce a0 3d f7 3c 7e bc 19 6e 06 be 16 1e 3b bd
       0.07851914 -0.015517465 -0.13127936 -0.04568299
000060 07 14 c1 bd 1a f2 14 bd 01 f5 fc 3d 13 93 dc 3b
       -0.09427648 -0.0363637 0.12351418 0.0067314
000070 18 d3 ad 3d c9 2b a1 bd 04 27 07 3e 52 ba 05 be
       0.084875286 -0.078696795 0.13198477 -0.13059357
000080 ad 07 be 3d 9d 63 06 be 63 08 f2 3d f1 c7 f7 bc
       0.09278808 -0.13123937 0.11818006 -0.030246707
000090 66 4f 03 3e 0a 8c ee bc e9 eb 84 bd 41 47 48 bd
       0.12823257 -0.02911951 -0.06490309 -0.048896078
0000a0 4c 0b aa bd 38 8c 92 bd 0e a6 1c be b8 07 85 3d
       -0.08302936 -0.07155651 -0.1529772 0.06495613
0000b0 72 ee 31 be 20 9e 30 3d f3 21 9c 3d c8 8b 42 3e
       -0.17376116 0.04311955 0.07623663 0.18998635
0000c0 28 88 bf bd f4 d7 30 be 99 95 e3 3d 2e b1 b3 3c
       -0.093521416 -0.1726988 0.11112518 0.021935072
0000d0 a9 1e ae 3c 81 85 f1 3c 80 40 c4 bd 21 c0 d5 bd
       0.021254854 0.029482605 -0.09582615 -0.10437036
0000e0 b4 ec 26 3d bc cd 08 3e ad 92 c7 3d de 4a 6e bd
       0.04075308 0.13359731 0.09744773 -0.058176868
0000f0 db f7 2b 3d c6 b4 4b be ec 99 47 3d e5 f0 4b 3d
       0.04198442 -0.19893178 0.048730776 0.04979028
000100 57 56 5f bc c1 db b6 bd 6b 31 58 bd 95 d9 e8 bd
       -0.013631425 -0.089286335 -0.052781504 -0.113696255
000110 af 55 80 3d 21 21 1f be ef c9 de 3c 68 53 7b 3d
       0.06266343 -0.15539981 0.027195899 0.06135884
000120 52 0e 5f bd 9d 6a 26 3d 23 b8 81 bd 63 ba 8f 3d
       -0.054457016 0.040629018 -0.063339494 0.07017972
000130 2d 13 c5 bd 20 c7 b2 3d 0d 43 b2 3d 67 02 39 bd
       -0.09622798 0.08729386 0.08704195 -0.045168307
000140 99 48 b9 bd c8 a1 1d be 0a f8 b2 39 9c 4c 02 be
       -0.0904705 -0.15393746 0.0003413561 -0.12724537
000150 57 86 08 be de fc e1 3d 64 f2 1e 3d 19 1e 94 3d
       -0.13332497 0.11034559 0.03880538 0.07232303
000160 64 8c 6f bd 57 5a dd 3d 35 41 72 3d 77 c7 1d 3d
       -0.058483496 0.108082466 0.059144218 0.038520303
000170 88 c8 87 bc a1 20 f7 bd 22 91 29 be 69 96 bc bc
       -0.016575113 -0.1206677 -0.1655927 -0.02302094
000180 26 d8 81 bd cd 10 ce bc 3b 0b 39 3d 05 b8 3f bd
       -0.06340055 -0.025154496 0.045176726 -0.046806354
000190 b3 54 b8 bd 0f e3 35 bd 74 a3 0a bd 5d 44 8c 3d
       -0.0900053 -0.044405993 -0.033847287 0.06848977
0001a0 c2 20 9c 3d cb 09 8f bd dd 98 8a 3d fb e0 e4 bd
       0.076234356 -0.0698429 0.067674376 -0.11175724
0001b0 34 0d 44 bd 61 32 a7 3d bc 94 fa bd 40 df 12 be
       -0.047864154 0.08163906 -0.122354 -0.14342976
0001c0 04 1c d9 bc 39 1e 14 be dd 4f 09 be 04 2e 64 bd
       -0.026502617 -0.14464654 -0.13409372 -0.055707946
0001d0 bd 5e 27 be 77 f9 5a be 8c 15 2e bd 08 33 5e bd
       -0.16344734 -0.21384226 -0.042501017 -0.054247886
0001e0 43 e2 1c bd b6 84 5c bc e3 0c 76 3c dc dc 64 3c
       -0.038301717 -0.013459375 0.015017721 0.013968673
0001f0 39 44 84 bd dd fd be 3d fe d4 36 be a4 37 e3 3d
       -0.06458325 0.09325764 -0.17854688 0.11094597

network_body.linear_encoder.seq_layers.2.weight f4 [128, 128]
000000 79 a8 c5 bc 46 f8 7b bd 09 78 54 3d 4c 60 4c 3e
       -0.024128186 -0.06151607 0.051872287 0.1995861
000010 5a 3d 26 be 20 fe 39 3d 7d 32 59 3d 8e 93 6f bb
       -0.16234341 0.045408368 0.053026665 -0.0036556455
000020 1d a7 7c 3d 50 68 0a be 4d 9c 68 3d 21 fd a8 bd
       0.06168281 -0.13516355 0.056789685 -0.082514055
000030 f4 c3 a3 ba fa 14 88 3d 44 e0 83 bc d0 72 53 bc
       -0.0012494312 0.06644626 -0.01609815 -0.012905791
000040 01 19 28 3e 30 62 ce bd d5 7e 1e be 93 5b 8a 3c
       0.16415788 -0.100773215 -0.1547807 0.01688937
000050 8a 18 6b 3d 9a 3e 84 3a b8 be e0 bd 6a db da bd
       0.05739645 0.0010089458 -0.10973877 -0.10686381
000060 36 e7 6a bd a4 37 e7 3c 38 ff 58 3b d1 98 ab bd
       -0.057349406 0.028224774 0.0033111107 -0.08378757
000070 9f 81 12 bd 8d 47 3e be dc e4 ab 3b 60 57 05 3d
       -0.035768148 -0.18581982 0.005245788 0.03255403
000080 44 bc ac bd 7b 18 70 bd cd c2 95 3b e7 f6 71 3e
       -0.08434346 -0.058617096 0.004570341 0.23629342
000090 4f 20 6d bd d6 70 83 3d 49 4a 27 3d 53 27 0e bc
       -0.05789214 0.06418006 0.04084233 -0.008676368
0000a0 b6 39 11 be e2 1c bd 3d 31 e8 94 3d 34 f2 d4 bd
       -0.14182171 0.092340246 0.072708495 -0.10397759
0000b0 19 28 92 bd 36 59 ac 3d 9d a0 07 3d 1a b6 5f 3d
       -0.07136554 0.08415453 0.033112157 0.054617025
0000c0 5a 6d 5e 3b 3a 57 6c 3c 2f d5 0e bd fb 65 43 3c
       0.003393969 0.014425093 -0.034871276 0.0119261695
0000d0 40 38 32 3c a3 a0 ec bd 1b 97 93 3c 71 80 73 3e
       0.010877669 -0.115540765 0.018016389 0.23779465
0000e0 26 2d d8 3d 40 d2 2d 3e 4d f6 03 3c 3a de c0 3c
       0.105554864 0.16974735 0.008054328 0.023543466
0000f0 aa 07 d7 bd 6f 15 4e 3e 38 0b 06 be 41 ef a1 3b
       -0.10499509 0.20125364 -0.13090217 0.0049418514
000100 7c 85 a2 3d 07 7a 41 3c c3 a7 e0 3c fc 67 be 3d
       0.079356164 0.011808879 0.027423745 0.09297177
000110 52 45 cb 3d ba 96 c3 bd f6 2f 2c be 90 e0 50 bd
       0.09925331 -0.09550233 -0.1681517 -0.05099541
000120 d1 39 b7 3d 01 72 8e bd 47 e7 1c bd 9b 88 6e bd
       0.089465745 -0.06955338 -0.0383065 -0.058235746
000130 4c 8b 9d 3d 45 22 44 3d f1 39 1b be 5b 41 dd 3d
       0.076925844 0.047884244 -0.15158822 0.10803481
000140 b1 ff 0b be bd 7d d5 3d 71 b7 fd 3d 9a eb 59 3e
       -0.13671757 0.10424373 0.12388504 0.21281281
000150 c4 80 fa bc d2 b8 ae 3d e7 bc bc ba 0d 4b 96 bd
       -0.030578978 0.085313454 -0.0014399559 -0.073385336
000160 7f 77 9b bc bd 23 1f be 77 26 5d 3d 81 d2 a4 3d
       -0.018977879 -0.15540977 0.05399176 0.08047963
000170 00 b7 47 be 98 04 e3 3d a8 55 af 3d c5 b3 9b 3e
       -0.19503403 0.110848606 0.085612595 0.3041059
000180 1e c9 dc bc 57 e3 80 be a9 60 0d be 2b 26 86 3d
       -0.026951369 -0.25173447 -0.13806404 0.06550249
000190 da da 61 bd 19 1b ee 3d dd ed 2d 3e c1 bc a9 bc
       -0.055140354 0.11626262 0.16985269 -0.020719888
0001a0 fc e6 0a 3e 8a 6a 2b 3d 0b b1 80 bd b0 e7 90 be
       0.13564676 0.04184965 -0.06283768 -0.28301764
0001b0 f5 22 ac 3d 21 c4 f7 3c c5 b0 52 bc 03 36 2b be
       0.08405105 0.030244889 -0.012859528 -0.16719823
0001c0 5d bc ba 3d e2 17 5e 3e bf 32 88 3d fd 45 4f be
       0.09117959 0.21688798 0.06650304 -0.20241542
0001d0 d2 b0 b3 3c 75 11 9e bd f0 ef 80 3b 17 ac 4a bd
       0.0219349 -0.077181734 0.003934853 -0.049480524
0001e0 7b 9c b7 3d 74 58 27 be b2 47 bc bc 70 53 26 3e
       0.08965393 -0.16342336 -0.022983406 0.16242766
0001f0 b5 00 69 3d d9 dc 6a be 82 3b a5 bc 06 f6 7c 3e
       0.05688544 -0.22935809 -0.020169977 0.24703225
000200 b3 3b 19 3e 34 ba be bc 77 a5 8c bd 9e 48 64 bd
       0.1496418 -0.023282148 -0.068674974 -0.055733316
000210 c2 2d af 3d 67 22 3a bd 65 85 b4 3b 85 5e b9 3d
       0.085536495 -0.045442965 0.005509066 0.09051231
000220 1b 6b 53 bd b6 49 42 be ac 93 bd 3d ea c9 bb 3c
       -0.051615816 -0.18973431 0.09256682 0.022923429
000230 d9 95 57 bd be f6 74 bd 17 6b 46 3b e5 5a fd bd
       -0.05263314 -0.059805624 0.0030276233 -0.123708524
000240 2d 68 9f 3d 98 d2 71 3c c8 bb 43 bc 98 b0 4a 3d
       0.07783542 0.014759682 -0.011946626 0.04948482
000250 ce e8 8f 3d b9 d9 60 3d 7f 6c af bd fc de 17 bd
       0.07026826 0.054895137 -0.08565616 -0.03707789
000260 b1 71 31 be 89 aa 8d bd 4a e7 65 bd 55 a0 e5 bc
       -0.17328526 -0.069172926 -0.056128778 -0.028030554
000270 00 b9 4a bd 59 11 30 3c 51 45 54 3d 99 42 0c bd
       -0.049492836 0.0107463235 0.051823918 -0.0342432
000280 73 af 69 bd 80 77 f5 3c ee a3 f6 bb 1b 85 4f bd
       -0.057052087 0.029964209 -0.007526866 -0.05066405
000290 17 c6 2b be 21 10 4f bd 3b a1 de bd 3b 0f 31 3e
       -0.16774784 -0.05055249 -0.10870596 0.17290966
0002a0 f7 cc 14 bd 4c 2e ae 3d 7d 41 ac bc 8a a8 02 bd
       -0.036328282 0.08504924 -0.021027321 -0.031899013
0002b0 67 2a d6 3d 13 6d e4 3c f1 27 48 be 3f 9b 4b be
       0.10457306 0.027884042 -0.19546486 -0.1988344
0002c0 c2 f1 a4 3d c4 8c 8a bd fb d6 b9 bd bd 19 82 bb
       0.08053924 -0.0676513 -0.090742074 -0.0039703534
0002d0 7c 28 b9 bc 1b d0 39 be 6f 26 d3 3d 02 1d 04 be
       -0.022602312 -0.18145792 0.10310065 -0.1290169
0002e0 0b d2 0d 3d 68 c2 0e 3d 13 43 25 3d 77 5f 53 3c
       0.03462414 0.03485337 0.04034717 0.012901179
0002f0 9c 1b 17 3e b3 de a5 3d c4 f2 de bd 25 52 12 bd
       0.14756626 0.08099117 -0.108861476 -0.03572287
000300 a1 4e 95 bd 3f 0e 06 be a4 fd 0c 3d cd f0 ce bd
       -0.07290388 -0.13091372 0.034421578 -0.10104523
000310 02 15 d2 bc 91 8c 89 3c b0 5d 77 bc ec 50 a5 bd
       -0.025644783 0.01679066 -0.01509802 -0.08072075
000320 09 e4 30 3e c6 82 d4 bc d5 7c 3e bd 45 b1 4b bd
       0.17274489 -0.025941264 -0.046505768 -0.049729604
000330 e0 d4 92 3d af a1 13 3d be 0d 50 3d f1 48 94 bd
       0.07169509 0.036042865 0.050794356 -0.07240475
000340 30 56 10 3d a2 e3 09 3d 49 e0 e6 bc 88 7b 87 3c
       0.035238445 0.033664353 -0.02818312 0.016538396
000350 24 c8 e6 ba ff 8c eb bc 8d 74 af bd dd e3 17 be
       -0.0017607254 -0.028753756 -0.08567152 -0.14833017
000360 b5 9f 15 3e a0 51 d9 3d 6a fb 23 3d f9 a8 ce bd
       0.14611705 0.10611272 0.04003469 -0.10090823
000370 22 fb 6d 3c 45 ae 09 3e 6f 8f 87 bc 11 80 6d 3e
       0.014525207 0.13445385 -0.016547887 0.23193385
000380 f3 05 40 bd 45 34 ec bb cd a4 5a bd df c7 10 be
       -0.046880674 -0.0072083795 -0.053379823 -0.14138745
000390 7e a9 bf bd fb 7e c4 bd 88 88 49 3d dc 88 14 bc
       -0.093585 -0.09594532 0.049202472 -0.009065833
0003a0 03 d6 68 bd bd 53 88 3d a0 c3 64 3d 0c c0 2e 3b
       -0.056844722 0.06656597 0.055850625 0.0026664762
0003b0 80 08 53 bc e9 9f c6 3d 3d f5 3c 3e 2f 2d f3 bc
       -0.0128804445 0.09698469 0.18452926 -0.029684631
0003c0 16 c9 14 be 3c d4 08 3e 4e eb 71 bc 17 4c ad bd
       -0.14529833 0.13362211 -0.014765574 -0.084617786
0003d0 be 65 b2 3d 5b fd a9 3d ab 37 71 bd 94 75 f3 3d
       0.08710812 0.08300277 -0.05889098 0.118876606
0003e0 1c 30 b9 3d 04 59 29 3d 5e 6e 11 be 2a 86 a5 3d
       0.09042379 0.041344658 -0.14202258 0.080822304
0003f0 62 fc f4 bc 91 f8 8c 3d c2 23 41 3b ed 15 9f 3d
       -0.029905502 0.06883348 0.0029470776 0.07767854

network_body.vector_processors.0.normalizer.running_mean f4 [4]
000000 96 e0 1e 41 d9 46 51 40 99 c7 2c c1 0a 24 50 40
       9.929831 3.2699492 -10.79873 3.2521996
