ml-agents-master/ml-agents/config/results/ppo/LineCreator/LineCreator-38822.onnx (onnx, 71632 bytes, 9 tensors)

53 f4 [4]
0	0x3d4f77e5	0.05065145
1	0x3c8e2afe	0.017354485
2	0x3fcbed53	1.5931801
3	0x3fc4ac99	1.5365173

54 f4 [1, 2]
0	0xbaf46b75	-0.0018647747
1	0x3cdaf120	0.026726305

distribution.mu.bias f4 [2]
0	0x3d68633b	0.05673526
1	0xbda921e2	-0.08258416

distribution.mu.weight f4 [2, 128]
0	0xbd03d8b2	-0.03218908
1	0x3bbcd829	0.005763073
2	0xbb856cdb	-0.0040718145
3	0x3bbae27e	0.0057032695
4	0xbce43572	-0.027857516
5	0x3dc2b046	0.09506278
6	0x3b8956da	0.0041912617
7	0x3c4ebc67	0.012618161
8	0xbd10b5d6	-0.035329662
9	0xbcadc286	-0.02121092
10	0x3ca69813	0.020336187
11	0xbbe4114e	-0.0069600707
12	0xbb220c3e	-0.0024726535
13	0x3c18bed8	0.009322844
14	0xbcbd1730	-0.023082346
15	0xbabaa968	-0.0014241161
16	0x3bd9d4ef	0.006647698
17	0xbce863f5	-0.028367976
18	0xbb852ba0	-0.0040640384
19	0x3c69de00	0.01427412
20	0xba2910df	-0.00064493524
21	0xbaf16780	-0.0018417686
22	0x3c8880a3	0.016662901
23	0x3b0138d4	0.001971771
24	0x3c3c1f92	0.011482136
25	0xbb48fb2c	-0.0030667288
26	0xba2d51a1	-0.000661159
27	0x3a9ea866	0.001210463
28	0x3d934ad8	0.0719201
29	0x3aba574e	0.0014216693
30	0x3bddf634	0.0067737345
31	0x3a7b66be	0.00095902
32	0xba80dd4a	-0.0009831574
33	0xbbb3ecd9	-0.005490881
34	0x3b8826ff	0.0041550393
35	0x3bc00488	0.005859915
36	0xbc88b015	-0.016685525
37	0x3b009bc8	0.0019624103
38	0x3ae8aa3e	0.0017750931
39	0x398f5707	0.00027339926
40	0xbad24ffe	-0.0016045568
41	0x3c9063d1	0.017625721
42	0xba06cfa6	-0.00051426364
43	0x3cb4e0b1	0.022079797
44	0x3c975a20	0.018475592
45	0xbb5fffbf	-0.0034179536
46	0xbcde30b4	-0.027122833
47	0xbb00bad9	-0.001964262
48	0xbcc396a1	-0.023875536
49	0xbcc39bfe	-0.023878094
50	0x3aad6bb6	0.0013230953
51	0x3ab7087b	0.0013964319
52	0xbb2f6c43	-0.002676741
53	0x3c1dea8a	0.009638438
54	0x3bee6251	0.007274904
55	0xbac4f951	-0.0015027915
56	0xbc9b9d65	-0.01899595
57	0x3c28cae6	0.010302281
58	0x3d2d7e9d	0.042357076
59	0xbc6e19d8	-0.014532529
60	0x3d24849d	0.040165532
61	0xbb85b90a	-0.0040808963
62	0x3c0c8169	0.008575776
63	0xbc92b6fe	-0.017909523
64	0xbaf6468d	-0.0018789336
65	0xbaab4ec0	-0.0013069734
66	0xbc1525fd	-0.009103295
67	0x3ae8164d	0.0017706841
68	0x3ab7c8e9	0.0014021668
69	0x3c94779d	0.018123442
70	0xbc38b7f2	-0.011274325
71	0x3cf8c7f7	0.030368788
72	0x3bdb33b2	0.006689512
73	0x3c7664fa	0.015038723
74	0xbcc30a7a	-0.023808707
75	0x3d19ef45	0.0375817
76	0x3bef0765	0.0072945827
77	0x3adfceef	0.0017075221
78	0x3b6217da	0.003449908
79	0x3b37e873	0.0028062135
80	0xbc240b23	-0.010012421
81	0x3c42a532	0.011880206
82	0x3c78978b	0.015172849
83	0x3bc79e18	0.0060918443
84	0xbc24d3b2	-0.010060238
85	0xbcdcfa0d	-0.026974702
86	0x3c292218	0.01032307
87	0x3c63d2c4	0.013905231
88	0xba98989f	-0.0011642164
89	0x3b18b9b8	0.0023304056
90	0x3b9e3d22	0.004829065
91	0x3c480612	0.0122084785
92	0xbb1cfa47	-0.0023952888
93	0x3c0be728	0.008538999
94	0x3c8605b2	0.016360138
95	0x3aa52f65	0.0012602626
96	0x3c422303	0.011849168
97	0xbcc5ff24	-0.024169512
98	0x3c0ecabe	0.00871533
99	0xbc0ff3de	-0.00878617
100	0xbb8cf06d	-0.004301122
101	0x3bbb0588	0.0057074465
102	0x3c36bf5a	0.01115402
103	0xbc0709f2	-0.008242117
104	0xbc8d2425	-0.01722915
105	0x3be2cc1a	0.0069213035
106	0xbb921a55	-0.0044587054
107	0x3c3447d7	0.011003456
108	0xbcd6e21d	-0.026230866
109	0xb9bea76a	-0.00036364357
110	0xbc3a8fae	-0.011386795
111	0xbc3c8ea0	-0.011508614
112	0x3cb093b6	0.021554809
113	0xb96ce2f3	-0.00022591259
114	0xbd3f79cb	-0.04674701
115	0xbbf51a82	-0.0074799666
116	0xbb030cf4	-0.0019996734
117	0xbbb2a79d	-0.00545211
118	0x3cb9e49f	0.022692023
119	0x3bc5e0d2	0.0060387636
120	0xbc191011	-0.009342209
121	0xba2fb7b8	-0.00067030964
122	0x3c31bb46	0.010847872
123	0xbc99a1d9	-0.018753933
124	0xbad2694a	-0.0016053107
125	0x3c399a16	0.011328241
126	0xbc18a8f0	-0.009317622
127	0xbc53aa42	-0.012919011
128	0x3cb1003a	0.021606553
129	0xbaa5a916	-0.0012638893
130	0xbaf8d2c3	-0.001898371
131	0xba2c0ff1	-0.0006563655
132	0xbc96e422	-0.01841933
133	0x3c400025	0.011718784
134	0xbbb944f5	-0.0056539723
135	0xbae6711e	-0.0017581319
136	0x3c3c9b75	0.011511673
137	0x3d6ffd77	0.058591332
138	0x39ff9b9b	0.00048753325
139	0xbcf95ba1	-0.0304392
140	0xbbb2776b	-0.0054463646
141	0xbad0428b	-0.0015888972
142	0x3d23e0cf	0.040009316
143	0x3d04e330	0.032443225
144	0x3b0e9c74	0.0021760734
145	0x3d20af5e	0.039229743
146	0xbaa3482d	-0.0012457423
147	0x3a0eff8f	0.00054549513
148	0xbb3b021e	-0.0028535197
149	0x3b739c2b	0.003717194
150	0xbb02d761	-0.0019964802
151	0x3b68b72d	0.0035509572
152	0xbb08b574	-0.0020860108
153	0xbb858e27	-0.004075784
154	0x3b30497e	0.0026899274
155	0x39101e84	0.00013744278
156	0x3cb61978	0.022228941
157	0x3b005786	0.0019583418
158	0x3c0163fa	0.007897371
159	0x3a8abe5b	0.0010585295
160	0xb991faa0	-0.00027843285
161	0xbadeaf8b	-0.0016989572
162	0x3a3e2323	0.00072531606
163	0xbb5f914d	-0.0034113706
164	0x3d9cde3d	0.07659576
165	0xbb6ed0f4	-0.0036440464
166	0xba452681	-0.0007520691
167	0xbbdff70a	-0.0068348693
168	0xb8c3cff8	-9.337062e-05
169	0xbd465933	-0.04842491
170	0xbb80cda4	-0.0039307643
171	0x39d4fc23	0.00040623648
172	0x3c739e33	0.014869261
173	0xbb8ce3cf	-0.004299618
174	0x3d0a6885	0.033791084
175	0x39b9a4a5	0.0003540862
176	0x3c638be3	0.013888332
177	0x3c88bc3b	0.016691318
178	0xba1976fd	-0.00058542175
179	0x3b4dcbe2	0.0031402041
180	0x3a182f9f	0.0005805436
181	0x3d3b7c9c	0.045773134
182	0x3b0f485c	0.0021863198
183	0xbb488384	-0.0030595968
184	0xbcde1130	-0.027107805
185	0xbc6e6da7	-0.01455251
186	0x3be8b5e1	0.00710176
187	0x3c72a19c	0.0148090385
188	0x3c4875c7	0.012235112
189	0x3b9d966d	0.004809192
190	0x3b3279d4	0.002723326
191	0xbc0b0515	-0.008485098
192	0xbbfc6ce7	-0.007703412
193	0xbb537db2	-0.0032270965
194	0xbba5cf9d	-0.00506015
195	0x3b1dcd11	0.0024078528
196	0xbb8193d8	-0.003954392
197	0x3becc31a	0.0072254064
198	0xbcb6e943	-0.022328025
199	0xbce2eb61	-0.027700128
200	0x3cdd9f9e	0.02705365
201	0x3b865391	0.0040993174
202	0x3cb55a4e	0.022137787
203	0x3a7203b0	0.0009232117
204	0xbb4072af	-0.0029365232
205	0x3cb8037e	0.022462603
206	0x3ae25ae6	0.0017269521
207	0x3c40414a	0.011734316
208	0xbb1a5c7a	-0.0023553655
209	0xbb004f9a	-0.0019578696
210	0x3b7f1447	0.0038921998
211	0xbbd727f3	-0.0065660416
212	0x3b0b6c03	0.0021274097
213	0x3d52b677	0.051443543
214	0x3a8b06ca	0.0010606882
215	0xbb5f997e	-0.0034118588
216	0x3d0562ec	0.032565042
217	0x3b61c9c0	0.0034452528
218	0xba0ec63c	-0.00054464093
219	0xb9fce58f	-0.0004823622
220	0x3cb77f67	0.022399617
221	0xbafcbc4a	-0.0019282189
222	0x3a3fe445	0.00073200866
223	0xbaf55cc7	-0.0018719666
224	0x3c913e37	0.017729862
225	0x3c371a8c	0.011175763
226	0xbb1c254e	-0.0023825946
227	0xbc61b90a	-0.013777027
228	0xbbaeb555	-0.005331675
229	0x3c8876dd	0.01665824
230	0xbb3bdae7	-0.0028664412
231	0xba8ebf9d	-0.0010890845
232	0x3d21e7db	0.039527755
233	0x3b821ac2	0.003970475
234	0xbbe0e62d	-0.0068633766
235	0xbba01888	-0.004885737
236	0x3d59cbb2	0.053172775
237	0x3d3ea286	0.046541713
238	0xbcb21d4d	-0.021742487
239	0x3d5c7d22	0.053830273
240	0x3b8ea990	0.0043537095
241	0x3b720b3b	0.0036932963
242	0xbd19d44e	-0.037555985
243	0xbbcc3bd1	-0.0062327166
244	0xb8e3f4ba	-0.000108697874
245	0x3b9df23c	0.0048201364
246	0xbcb0fc06	-0.02160455
247	0x3aa7900c	0.0012784018
248	0xba3afae1	-0.0007132721
249	0xba43e4da	-0.0007472761
250	0xbbd05432	-0.006357693
251	0xbd2a5e55	-0.04159387
252	0xbb9cd6b5	-0.0047863373
253	0x3c548ae3	0.012972566
254	0xbba5952c	-0.005053183
255	0x3c194a2a	0.009356061

network_body.linear_encoder.seq_layers.0.bias f4 [128]
0	0xbd9faa28	-0.077961266
1	0x3d69cd53	0.057080578
2	0x3ce171c1	0.027520062
3	0x3d646b09	0.05576614
4	0xbd377b1a	-0.044795133
5	0xbd747293	-0.05967958
6	0xbd9750fd	-0.07388494
7	0x3d9325c3	0.07184937
8	0xbd8a44db	-0.067514144
9	0xbd3df393	-0.04637487
10	0xbcba2897	-0.022724433
11	0x3cc80f4c	0.024421357
12	0x3d25c2f3	0.04046912
13	0xbcdd88aa	-0.027042706
14	0xbcbdc0e3	-0.023163265
15	0xbda36cf0	-0.079797626
16	0xbcf5e76c	-0.030017577
17	0x3cc1ee44	0.023673184
18	0x3b9e60b9	0.0048333076
19	0x3d9f9939	0.07792897
20	0xbd1be1b3	-0.03805704
21	0xbd60c926	-0.05487933
22	0xbd6f05bc	-0.058355078
23	0x3d5fbf03	0.054625522
24	0xbc5e1ffd	-0.013557431
25	0xbc96bcd9	-0.018400596
26	0xbdae8cd3	-0.08522954
27	0xbd64db6c	-0.05587332
28	0xbd18faf7	-0.037348714
29	0xbd12e327	-0.03586116
30	0xbd78ce4a	-0.060743608
31	0xbdb5c0b8	-0.08874649
32	0xbdb22df8	-0.08700174
33	0xbdc3de9a	-0.09563942
34	0x3d6ddc2a	0.058071293
35	0xbd2aaa47	-0.041666295
36	0xbd99d0f0	-0.07510555
37	0x3b4e091f	0.0031438542
38	0xbd8934db	-0.066995345
39	0xbd1bbc27	-0.038021233
40	0xbd99c09d	-0.07507441
41	0xbd8463a9	-0.06464321
42	0xbdbd562e	-0.09244953
43	0x3cd6741b	0.02617841
44	0x3c885139	0.016640292
45	0xbe09a1a2	-0.13440564
46	0x3c991845	0.01868833
47	0xbdab8916	-0.083757564
48	0x3b1b509f	0.0023699177
49	0x3d449b6e	0.04799979
50	0xbdbc151d	-0.091837145
51	0xbd6ff6a5	-0.058584828
52	0xbd800437	-0.06250804
53	0xbdc471fe	-0.09592055
54	0xbd625f28	-0.05526653
55	0xbce772f9	-0.028253065
56	0xbd8add4a	-0.06780489
57	0xbda67a07	-0.081287436
58	0x3bd70ada	0.006562573
59	0x3cedc536	0.029024702
60	0xbdc26399	-0.09491653
61	0xbd57ee32	-0.052717395
62	0x3d0c0cfa	0.034192063
63	0xbd881211	-0.06644071
64	0x3cbf68da	0.023365427
65	0xbdce7c60	-0.100823164
66	0x3d78e9e8	0.060769945
67	0xbd8c6ebc	-0.068570584
68	0xbc61bb39	-0.0137775475
69	0xbdb18b71	-0.086691745
70	0x3d8d18d9	0.06889505
71	0x3c77b901	0.015119792
72	0xbd2bfb43	-0.04198767
73	0xbd449086	-0.04798939
74	0x3befb5b1	0.0073153605
75	0xbda08404	-0.0783768
76	0xbda1779e	-0.07884143
77	0xbc6018e3	-0.013677808
78	0x3d619011	0.055069033
79	0xbd8dcd97	-0.06923979
80	0x3aeb3fb8	0.0017948067
81	0x3d8425d3	0.06452527
82	0x3c5d7b7e	0.013518212
83	0xbd74de72	-0.059782453
84	0x3d0055fa	0.031331994
85	0xbd5e90f3	-0.054337453
86	0x3c94faac	0.018185936
87	0xbda24175	-0.07922641
88	0xbcc19214	-0.023629226
89	0x3c03354f	0.008008315
90	0xbdf09174	-0.11746493
91	0x3c44d029	0.01201252
92	0x3d4ecf16	0.05049046
93	0xbd45b3ae	-0.04826706
94	0x3ccc0692	0.024905477
95	0xbd81f155	-0.063448586
96	0x3cc9b2fa	0.024621475
97	0xbd52ab42	-0.051432855
98	0x3d3a41e9	0.045473013
99	0x3cbf4b32	0.023351286
100	0xbd658c94	-0.05604227
101	0xbd01689d	-0.031593908
102	0xbd82ed5f	-0.06392931
103	0xbd4141a1	-0.04718173
104	0xbd95430b	-0.07288178
105	0xbd171fcc	-0.03689556
106	0xbbc1f624	-0.005919235
107	0xbd333a6d	-0.04375689
108	0xbd03ed27	-0.032208588
109	0xbd358c77	-0.04432341
110	0xbbcd9443	-0.0062737777
111	0x3be56bc5	0.0070013725
112	0xbbdf0e90	-0.006807156
113	0x3bceaa45	0.006306919
114	0xbd8a91d6	-0.06766097
115	0x3d95ce31	0.073147185
116	0x3d3f9bce	0.046779446
117	0xbd4005ee	-0.046880655
118	0x3bbfc461	0.0058522676
119	0x3cb65f5d	0.02226227
120	0xbcea01d4	-0.028565325
121	0xbd906d64	-0.070521146
122	0xbd23a445	-0.03995158
123	0xbd88d3f6	-0.06681053
124	0x3d16efcf	0.036849793
125	0x3d088786	0.03333237
126	0xbc849357	-0.016183538
127	0xbd5b7ec7	-0.0535877

network_body.linear_encoder.seq_layers.0.weight f4 [128, 4]
0	0xbeb3f815	-0.3515021
1	0x3ec6c7a0	0.38824177
2	0x3eb11877	0.34588978
3	0xbe13c78f	-0.14431594
4	0xbe94f71c	-0.2909478
5	0x3e0ba879	0.13638486
6	0x3e3c07e4	0.18362385
7	0x3e5d14a3	0.21589904
8	0xbf768424	-0.9629538
9	0xbeae3ac6	-0.34029216
10	0xbf781505	-0.96907073
11	0xbf2b541d	-0.6692522
12	0x3f1b18f6	0.6058496
13	0x3f509b93	0.8148739
14	0xbd75f8c1	-0.060051683
15	0x3e9e2fe2	0.30895907
16	0x3e626472	0.2210863
17	0xbe175035	-0.1477669
18	0xbdea7590	-0.114482045
19	0xbf7ab743	-0.97935885
20	0xbe00f951	-0.12595107
21	0xbd8df946	-0.06932311
22	0x3f4b640d	0.7944954
23	0xbc952cb0	-0.018209785
24	0x3e3dc20c	0.18531054
25	0xbe8fabe7	-0.2806084
26	0x3ea37832	0.3192764
27	0xbf5fc0aa	-0.8740336
28	0x3c187ba4	0.009306822
29	0x3f29d829	0.6634546
30	0xbdc4642c	-0.09589419
31	0x3e341720	0.17586946
32	0x3ea48695	0.32133928
33	0xbe91d5b1	-0.28483346
34	0x3f4dd38c	0.8040092
35	0x3f2fa8d9	0.68617016
36	0xbec2519a	-0.37952882
37	0x3f5786db	0.8419015
38	0x3eb9220a	0.36158782
39	0x3ec9f91c	0.39447868
40	0x3f158804	0.5841067
41	0xbe92cf78	-0.2867391
42	0xbf34fb12	-0.706956
43	0xbec555d8	-0.38542056
44	0xbdf27837	-0.118393354
45	0xbe7b34cf	-0.24531864
46	0x3f14e5af	0.5816297
47	0x3ea1cfaa	0.31603748
48	0x3f3cec21	0.73797804
49	0xbe9c5f7f	-0.30541608
50	0xbdcd5cd2	-0.1002747
51	0xbed66d2a	-0.4188016
52	0xbeffa9da	-0.49934274
53	0xbf048caf	-0.51777166
54	0x3f6a28a7	0.9146828
55	0xbe39a452	-0.1812909
56	0x3f06ccd6	0.52656305
57	0x3ec1fe45	0.37889305
58	0xbe2fcec4	-0.17168719
59	0xbe548554	-0.20753986
60	0xbef5ca82	-0.48006064
61	0xbec14031	-0.37744287
62	0x3f12be74	0.5732186
63	0x3d179630	0.037008464
64	0xbe09995a	-0.13437405
65	0x3f88044e	1.0626314
66	0xbed784ad	-0.4209341
67	0xbe9e4322	-0.30910593
68	0xbefb36f7	-0.49065372
69	0x3f418295	0.7558988
70	0xbd137f79	-0.03601024
71	0x3f81b821	1.0134317
72	0x3e8263f5	0.25466886
73	0x3e2b2fab	0.16717403
74	0xbe5409cd	-0.20706864
75	0x3ed556a3	0.4166766
76	0xbe938dfa	-0.28819257
77	0x3d711ba9	0.05886427
78	0x3ed3df53	0.4138132
79	0x3e84484a	0.25836402
80	0x3ed34d73	0.41270027
81	0xbdca2775	-0.09870807
82	0x3e2bf485	0.16792496
83	0x3f0bedeb	0.5465991
84	0xbe38584b	-0.18002431
85	0xbf075170	-0.5285864
86	0xbe99c3c0	-0.30032158
87	0xbe265296	-0.16242442
88	0xbf069e34	-0.5258515
89	0xbee3c80e	-0.44488567
90	0x3ca3f495	0.020014087
91	0x3d25302a	0.040329136
92	0x3f07d7da	0.5306374
93	0xbf1b1232	-0.6057464
94	0xbea68e7a	-0.32530576
95	0x3c9727ac	0.018451534
96	0x3ef5d788	0.48016
97	0x3e8d12ce	0.2755341
98	0x3f53eab4	0.82780004
99	0xbf2a75fa	-0.6658627
100	0xbece8cea	-0.40341884
101	0x3c121b64	0.008917663
102	0xbe785678	-0.24251735
103	0x3f1c8583	0.6114122
104	0x3ee1281e	0.4397592
105	0xbe66a97f	-0.22525595
106	0xbe829a73	-0.2550846
107	0x3eac4d1f	0.3365259
108	0xbeee0dea	-0.4649499
109	0x3e1e7dc4	0.15477663
110	0x3eac23a1	0.33620933
111	0xbf0aef87	-0.5427174
112	0x3eac70b0	0.33679724
113	0x3da0f6a4	0.07859543
114	0x3f1ad0b4	0.60474706
115	0xbea56868	-0.32306218
116	0xbec5ebd6	-0.3865649
117	0xbee5808e	-0.44824642
118	0xbe6e4a1a	-0.23270455
119	0x3ef12a1f	0.47102448
120	0xbdbcd317	-0.0921995
121	0x3d88a786	0.066725776
122	0xbc064075	-0.008194079
123	0xbdee4173	-0.11633577
124	0xbed5355b	-0.4164227
125	0xbf1d48f5	-0.6143945
126	0xbcd001e8	-0.025391534
127	0x3eaba9b5	0.33527914
128	0x3da20ebe	0.07912968
129	0x3f1aadcd	0.6042145
130	0xbe9a4cb7	-0.30136654
131	0x3e2dba35	0.16965564
132	0xbe639656	-0.22225317
133	0x3c12471a	0.008928085
134	0xbf024bfc	-0.5089719
135	0x3ea1d972	0.3161121
136	0x3f3dcdd9	0.74142224
137	0x3f2b0d8b	0.6681754
138	0xbe13872f	-0.14407037
139	0xbd909bc5	-0.07060961
140	0xbf04abcd	-0.5182465
141	0xbf146e20	-0.5798054
142	0xbf137690	-0.57602787
143	0xbe58c2ee	-0.2116811
144	0x3f1219ad	0.5707043
145	0x3e6ef485	0.23335464
146	0x3efdc142	0.49561507
147	0x3e65b9f6	0.2243422
148	0x3d2cbaff	0.04217052
149	0x3cdbec70	0.02684614
150	0xbe288ee3	-0.16460757
151	0xbe6421a6	-0.22278461
152	0x3efe0951	0.49616483
153	0xbf16fc6c	-0.58978915
154	0x3cf4a428	0.029863432
155	0x3e0af971	0.13571717
156	0xbe38ad44	-0.18034846
157	0xbf6e6b40	-0.931324
158	0x3cf27726	0.02959783
159	0x3f1c5a20	0.6107502
160	0x3d278958	0.040902466
161	0x3f113443	0.5672037
162	0x3eb63ce8	0.35593343
163	0x3eaeee43	0.34166154
164	0x3f742c69	0.95380265
165	0xbf556810	-0.8336191
166	0x3eef2866	0.4671051
167	0xbf17bcdc	-0.5927255
168	0x3ddc1f3e	0.107481465
169	0x3f8bf0c1	1.0932847
170	0xbed5c456	-0.41751355
171	0xbeab3d44	-0.3344518
172	0xbeda6e7d	-0.4266242
173	0xbf911797	-1.1335324
174	0xbf5ef9f3	-0.8710014
175	0xbd9795de	-0.07401632
176	0xbf652159	-0.8950401
177	0xbe9ac40c	-0.30227697
178	0xbe9c86d7	-0.30571625
179	0xbe0161e3	-0.12634997
180	0x3ec81a82	0.39082724
181	0xbf0c2254	-0.5473988
182	0x3e2b8e51	0.16753508
183	0xbf039b1b	-0.5140855
184	0xbe47b83a	-0.1950387
185	0xbd423936	-0.04741784
186	0xbd3d32f3	-0.046191167
187	0x3ee0f770	0.4393878
188	0xbf7cfadc	-0.9882028
189	0x3f047a9b	0.5174958
190	0x3e28bfa4	0.16479355
191	0xbeb95f0c	-0.36205328
192	0xbb3b7e22	-0.0028609117
193	0xbe6f8b0d	-0.23392887
194	0x3ca12baa	0.019674141
195	0x3edc96c8	0.43083787
196	0xbddd2612	-0.10798277
197	0x3eaf2478	0.3420751
198	0x3e8277ec	0.25482118
199	0x3d1caa13	0.038248133
200	0x3f145472	0.57941353
201	0xbe3a3add	-0.18186517
202	0x3f72ffc2	0.94921505
203	0x3e8b17bc	0.27166545
204	0xbe9decad	-0.30844632
205	0x3f0b6212	0.5444652
206	0x3e8db4e7	0.2767708
207	0xbea1b7d9	-0.31585577
208	0xbf580ec9	-0.8439756
209	0xbe55f5d2	-0.20894554
210	0x3ef42ddb	0.47691235
211	0xbf70435a	-0.9385277
212	0x3f9249bb	1.1428751
213	0xbe6e7ec0	-0.23290539
214	0xbe77ab25	-0.2418638
215	0x3e4af96b	0.19821708
216	0x3e3af52e	0.18257591
217	0x3ec3fa94	0.38277113
218	0x3fcd47ea	1.6037571
219	0x3dc552ab	0.09634908
220	0x3f184309	0.5947729
221	0xbf910710	-1.133028
222	0x3e9c5db0	0.30540228
223	0x3f7f16bf	0.9964408
224	0x3d84c776	0.06483357
225	0xbe6a7de3	-0.22899584
226	0xbe8486d5	-0.2588412
227	0x3f2b46be	0.6690482
228	0xbe8cefb2	-0.27526623
229	0xbf2122e1	-0.62943846
230	0xbdf2e2c4	-0.11859658
231	0xbe207be2	-0.15672258
232	0x3bbbaaf3	0.005727166
233	0xbdf58a65	-0.11989287
234	0xbf5ebaab	-0.8700358
235	0xbf7774d3	-0.96662635
236	0xbf0f6461	-0.5601254
237	0xbed5d796	-0.41766042
238	0x3b323928	0.0027194712
239	0xbc0d5703	-0.008626702
240	0x3c308d01	0.010775805
241	0x3e836e46	0.2567007
242	0xbf13cca3	-0.57734126
243	0xbf314a50	-0.69254017
244	0xbe7aef6b	-0.24505393
245	0xbeed5eaf	-0.463613
246	0xba2a3339	-0.0006492618
247	0xbb19f726	-0.002349326
248	0x3e06a0a0	0.13147211
249	0x3f7fa539	0.99861485
250	0xbeb921b8	-0.36158538
251	0x3f8d71dd	1.1050373
252	0xbf65f43d	-0.89825803
253	0xbf3db213	-0.74099845
254	0xbf3449f4	-0.70425344
255	0x3f07a011	0.52978617

network_body.linear_encoder.seq_layers.2.bias f4 [128]
0	0xbd58da2c	-0.05294244
1	0xbd79d7be	-0.060996763
2	0xbbbec556	-0.005821864
3	0xbd17a3a5	-0.037021298
4	0xbd8c8228	-0.06860763
5	0x3d64577c	0.055747494
6	0xbd3469a0	-0.044046044
7	0xbd240b9d	-0.040050138
8	0xbdac9e7b	-0.08428665
9	0xbd93ab0c	-0.07210359
10	0x3c5241a5	0.012833034
11	0x3d82af65	0.0638111
12	0x3ca506a6	0.020144772
13	0xbbdca401	-0.006733418
14	0xbdfab8c8	-0.122422755
15	0xbd505581	-0.050862793
16	0x3cfbbbe8	0.03072925
17	0xbd990f2e	-0.074735984
18	0x3d15aacf	0.03653985
19	0xbd845da4	-0.06463173
20	0x3d0aa4d1	0.033848587
21	0x3c49d89d	0.012319711
22	0xbd74c787	-0.059760597
23	0xbd820197	-0.063479595
24	0x3c74a185	0.014931087
25	0x3d20e7c7	0.03928354
26	0xbcb0ca22	-0.02158076
27	0xbd721e38	-0.05911085
28	0x3d0eff22	0.034911282
29	0xbdab7599	-0.08372039
30	0xbb900d66	-0.0043961285
31	0xbd3c4cb2	-0.04597158
32	0xbc18d1b3	-0.00932734
33	0x3d494660	0.04913938
34	0xbd8b89c1	-0.06813384
35	0x3b518f17	0.0031976157
36	0xbdcafb03	-0.09911158
37	0xbc06d1a8	-0.008228697
38	0x3c734344	0.01484758
39	0xbd25e80f	-0.04050451
40	0xbd993e8c	-0.07482633
41	0x3d9c3025	0.0762637
42	0xbd1a1695	-0.037619192
43	0xbd383354	-0.044970825
44	0xbd4432e5	-0.0479001
45	0xbd225412	-0.039630957
46	0xbda4a5a7	-0.08039408
47	0xbd10134e	-0.03517466
48	0xbda735d2	-0.08164562
49	0xbdd187af	-0.10230958
50	0xbd4a0b2a	-0.049327053
51	0xbd8a6350	-0.067572236
52	0xbd5330ee	-0.051560335
53	0xbc586ad1	-0.013209061
54	0x3c855fb9	0.016280996
55	0x3d24cc6c	0.040234014
56	0x3c9605a4	0.018313237
57	0x3d9df17f	0.07712077
58	0x3c8782ba	0.016541827
59	0xbdd0be3c	-0.10192534
60	0x3c8a499a	0.0168808
61	0xbd2a2a4c	-0.041544244
62	0xbd7cd8e5	-0.061730284
63	0xbc9a97b4	-0.018871166
64	0x3d39dd5c	0.04537712
65	0xba82b990	-0.0009973515
66	0xbd0bdf28	-0.034148365
67	0xbd0422c7	-0.03225973
68	0xbd0f6ecd	-0.035017777
69	0xbd3f9220	-0.046770215
70	0x3ce40303	0.027833467
71	0x3d933986	0.07188706
72	0xbd8daff5	-0.06918327
73	0xbd5ffbe0	-0.054683566
74	0xbdab1e3c	-0.08355376
75	0x3d79a054	0.060943916
76	0xbba4750e	-0.005018837
77	0xbd99c793	-0.07508769
78	0xbdcc351e	-0.09971069
79	0xbd9e6060	-0.07733226
80	0x3da0656a	0.07831843
81	0xbca605eb	-0.020266494
82	0xbd2bc159	-0.041932438
83	0x3d28f963	0.04125346
84	0xbd796e5c	-0.060896263
85	0xbd93cc36	-0.072166845
86	0xbd7fc5c5	-0.062444467
87	0x3c840299	0.01611452
88	0xbd97b20c	-0.074070066
89	0xbc830f42	-0.015998486
90	0xbd5ded6d	-0.054181505
91	0xbcd61b50	-0.02613607
92	0xbdb97ffb	-0.090576135
93	0xbd10c411	-0.035343233
94	0xbce1943a	-0.0275365
95	0xbce12f8c	-0.027488492
96	0xbd5e5585	-0.054280777
97	0xbd8614c8	-0.065469325
98	0x3c21ef75	0.009883751
99	0x3b4aaf3e	0.0030927206
100	0x3d1662ef	0.036715444
101	0xbdac580f	-0.08415233
102	0xb89f452b	-7.594594e-05
103	0x3d0bb546	0.034108423
104	0xbdb6a93e	-0.08918999
105	0xbd7f780d	-0.06237035
106	0x3ca9c2a2	0.020722691
107	0x3d88ad77	0.06673711
108	0xbe016d9d	-0.1263947
109	0xbdaa2605	-0.08308033
110	0x3d23d3ff	0.039997097
111	0xbda4ce81	-0.080472
112	0x3b363b3b	0.00278063
113	0x3c302497	0.010750911
114	0xbc030a32	-0.007998036
115	0x3c174d18	0.009234689
116	0xb90881ff	-0.00013018398
117	0xbd880074	-0.066407114
118	0x3d95752a	0.07297738
119	0xbd95a5e7	-0.07307034
120	0x3d06b129	0.032883797
121	0xbca0244a	-0.019548554
122	0x3c93a5ea	0.01802345
123	0x3d40c7e3	0.047065627
124	0xbd06a461	-0.032871608
125	0xbd5a7831	-0.05333728
126	0xbc8fcc9a	-0.017553616
127	0xbda64c36	-0.08120005

network_body.linear_encoder.seq_layers.2.weight f4 [128, 128]
0	0x3da50ac0	0.08058691
1	0x3df4c94d	0.119524576
2	0xbd3e9dec	-0.046537325
3	0x3cae3b75	0.021268586
4	0x3dfe7950	0.12425482
5	0x3d2cbee6	0.042174242
6	0x3d11b514	0.03557308
7	0xbc1be773	-0.009515631
8	0xbe2d54c4	-0.16926867
9	0xbdc49da9	-0.09600384
10	0xbd800851	-0.06251586
11	0x3d4c4ca9	0.049877796
12	0x3bcfb375	0.0063385316
13	0xbdc8ea5f	-0.09810328
14	0x3e0427c6	0.12905797
15	0xbdc9a3f6	-0.09845726
16	0x3e67ce46	0.22637281
17	0x3dc9bec7	0.09850841
18	0xbc51662e	-0.012780709
19	0x3d762c40	0.060100794
20	0x3d4f39c7	0.05059221
21	0x3de3eeca	0.1112953
22	0x3e50c62c	0.20388097
23	0x3d58a50a	0.05289177
24	0x3df22f4d	0.11825428
25	0xbd8c9e22	-0.06866099
26	0xbdf837df	-0.121200316
27	0x3be867a1	0.0070924317
28	0x3d427a98	0.047480196
29	0xbd89e973	-0.0673398
30	0xbdfe6666	-0.12421875
31	0xbc6681d7	-0.014069042
32	0xbd128456	-0.035770737
33	0xbd31cae7	-0.043406393
34	0x3dbee882	0.09321691
35	0xbd26930a	-0.04066757
36	0x3e34cae1	0.17655517
37	0x3db3139d	0.08743975
38	0xbe552b9d	-0.20817418
39	0xbce0b57c	-0.027430288
40	0xbe190f08	-0.1494714
41	0xbd9dac2f	-0.07698857
42	0x3d008290	0.031374514
43	0xbdade77e	-0.08491419
44	0xbcb57291	-0.022149356
45	0x3dfdc457	0.123909645
46	0x3c650b1a	0.013979698
47	0xbd45b458	-0.048267692
48	0x3dd96406	0.10614781
49	0xbd9cec88	-0.07662302
50	0xbdd751dc	-0.1051366
51	0x3d5443f3	0.051822614
52	0x3dc06e50	0.093960404
53	0xbced4277	-0.028962357
54	0xbd968512	-0.073496
55	0x3dd9b98c	0.106310934
56	0xbdacbd24	-0.08434513
57	0x3d3f8689	0.046759162
58	0x3d31fb73	0.04345269
59	0x3e357e31	0.1772392
60	0x3de43474	0.11142817
61	0x3d943bec	0.07237992
62	0xbe08a465	-0.13343962
63	0xbd6226e2	-0.055212863
64	0x3e14df99	0.1453842
65	0xbce46379	-0.027879464
66	0xbe0f1ead	-0.13976546
67	0x3b8f134b	0.0043663136
68	0x3dd4f6d0	0.10398638
69	0x3e52fc0d	0.20603962
70	0xbb8d13e8	-0.0043053515
71	0xbe039d98	-0.12853086
72	0x3e04b8f9	0.12961186
73	0xbcf9ab6d	-0.03047725
74	0x3cfe7549	0.031061785
75	0xbd68520b	-0.056718867
76	0xbd8c90dd	-0.06863568
77	0x3d833a3d	0.064075924
78	0x3d816113	0.063173436
79	0x3df1c623	0.1180537
80	0x3baf3383	0.005346717
81	0x3dbd900f	0.092559926
82	0xbe363f6f	-0.17797635
83	0xbe2b4a35	-0.16727526
84	0xbd6de485	-0.05807926
85	0xbd1100fb	-0.035401326
86	0x3d976308	0.073919356
87	0xbdd257e1	-0.10270668
88	0xbdcfd84d	-0.10148678
89	0xbabd43a8	-0.0014439719
90	0x3d58f9ab	0.052972477
91	0x3cbc6758	0.022998497
92	0xbe1f0038	-0.15527427
93	0x3dcd5804	0.10026553
94	0xbe348d64	-0.17632061
95	0x3e0039c8	0.12522042
96	0xbd6c03a8	-0.057620674
97	0x3d0317bb	0.032005053
98	0xbde0f7b6	-0.10984747
99	0x3d7d643a	0.06186316
100	0xbda96e49	-0.08272988
101	0xbd2bce41	-0.041944746
102	0x3ce24b49	0.02762379
103	0x3d7cae7c	0.06168984
104	0x3cb28ff5	0.02179716
105	0xbe3c426a	-0.1838471
106	0xbbf0a3ef	-0.007343761
107	0x3dc32474	0.09528437
108	0x3dc2ba8d	0.09508238
109	0x3e11fa36	0.14255604
110	0xbd8d8e51	-0.0691191
111	0x3dd20b03	0.102560066
112	0xbe064c43	-0.13115029
113	0x3ce5cee6	0.028052758
114	0xbd496b2c	-0.049174473
115	0xbdd32b1f	-0.10310959
116	0x3c31693b	0.010828312
117	0x3e120c43	0.1426249
118	0xbd3b9785	-0.045798797
119	0xbda7e934	-0.08198777
120	0xbd4ef4f7	-0.050526585
121	0xbda4477e	-0.080214486
122	0x3c7fbfae	0.015609665
123	0x3d6a2521	0.057164315
124	0x3d27856a	0.040898718
125	0xbcc2f1c7	-0.023796929
126	0xbbc58928	-0.006028313
127	0x3d8c126e	0.06839453
128	0xbd04aef7	-0.032393422
129	0xbde5e90a	-0.11226089
130	0xbd52dfcc	-0.05148296
131	0x3cc2612e	0.02372798
132	0xbda860e4	-0.082216054
133	0x3e0c28b0	0.13687396
134	0xbd885c5b	-0.066582404
135	0xbd0625a1	-0.03275073
136	0x3e386ee1	0.18011047
137	0xbd928d8b	-0.071559034
138	0xbda1f1e4	-0.07907465
139	0x3dadd0bd	0.08487079
140	0xbbd25fcb	-0.006420111
141	0xbda8df1f	-0.08245682
142	0xbd2e7c47	-0.04259899
143	0xbd975421	-0.07389093
144	0x3d6a524d	0.057207394
145	0x3d6e4efb	0.05818079
146	0xbdca9476	-0.09891598
147	0xbc2a0f4f	-0.010379626
148	0xbbd734b7	-0.0065675634
149	0xbd598d7e	-0.053113453
150	0x3d337831	0.043815795
151	0xbdb4d49b	-0.08829614
152	0x3dcc8870	0.09986961
153	0x3cfa003a	0.030517686
154	0xbe1b14b7	-0.15144621
155	0x3d804c27	0.06264525
156	0xbc88a7d6	-0.016681593
157	0xba18aa1c	-0.0005823688
158	0x3e248e67	0.16069947
159	0xbdc12c17	-0.094322376
160	0xbe2dca88	-0.16971791
161	0x3e284204	0.16431433
162	0xbd74a9f7	-0.059732404
163	0x3ccf8df7	0.025336249
164	0xbd07b853	-0.03313477
165	0x3d5317a2	0.05153621
166	0x3dcbc716	0.09950082
167	0xbd953bb7	-0.0728678
168	0x3c59916a	0.013279298
169	0xbd130762	-0.035895713
170	0xbe39c9a0	-0.1814332
171	0xbc78a382	-0.015175702
172	0x3de0f269	0.10983736
173	0xbcfcbdd2	-0.030852232
174	0x3c91f2d1	0.01781598
175	0xbae0e44c	-0.0017157882
176	0x3d7a965f	0.06117856
177	0x3e1f9bd5	0.15586789
178	0x3dcb9c3a	0.09941907
179	0xbd3f535b	-0.046710353
180	0xbe12ccc1	-0.1433592
181	0x3db61733	0.08891144
182	0x3c84d1df	0.016213356
183	0xbd1d9d45	-0.038480062
184	0xbaf593dd	-0.0018736083
185	0xbd37dae9	-0.044886503
186	0x3debcca8	0.115136445
187	0x3d58d591	0.052938048
188	0x3e223875	0.15841849
189	0x3e8ff0bd	0.28113356
190	0x3c897453	0.0167791
191	0x3bf9673e	0.0076111844
192	0x3da20aab	0.07912191
193	0x3ddc76c4	0.1076484
194	0x3d064e92	0.032789774
195	0x3e485f9b	0.1956772
196	0xbd240675	-0.04004522
197	0x3da5695d	0.08076737
198	0x3d33a71e	0.043860547
199	0xbd97605d	-0.07391427
200	0x3ce2ca59	0.027684378
201	0xbd9df3cd	-0.07712517
202	0xbc7c8701	-0.015413047
203	0x3d558b10	0.052134573
204	0xbe742019	-0.2384037
205	0xbcc2041e	-0.023683604
206	0x3db0dc53	0.086357735
207	0xbd2fa41c	-0.042881116
208	0xbddfd334	-0.10928956
209	0x3d1b7bcd	0.037959863
210	0xbc703cee	-0.014662964
211	0x3d760e80	0.060072422
212	0xbcc6227c	-0.024186365
213	0x3e54da57	0.20786415
214	0x3e250fd6	0.16119322
215	0x3d20391e	0.03911697
216	0x3d9dd31c	0.077062815
217	0x3be936e0	0.0071171373
218	0xbd5a3a26	-0.05327811
219	0xbc2e20a4	-0.010627899
220	0xbcd50c4f	-0.026006846
221	0x3d875c12	0.06609358
222	0x3ddc215a	0.10748549
223	0xbd8a9bd4	-0.06768003
224	0xbd65ca44	-0.0561011
225	0xbcd6184d	-0.026134634
226	0xbdf0c20f	-0.11755764
227	0x3d1c1ca8	0.038113266
228	0x3ddb52b7	0.10709136
229	0x3d2b0994	0.04175718
230	0xbdcd5655	-0.10026232
231	0x3d1e6fa4	0.038680688
232	0x3dfea350	0.12433493
233	0x3934a264	0.00017226633
234	0x3dad8c28	0.08473998
235	0x3c043116	0.008068344
236	0x3cd3a085	0.025833378
237	0xbe711326	-0.23542461
238	0x3d4ec163	0.050477397
239	0xbe5b1492	-0.21394566
240	0x3d8620b9	0.0654921
241	0x3c84bd6e	0.016203608
242	0x39da0c08	0.00041589164
243	0x3d0df28a	0.03465513
244	0x3d8e92cf	0.06961595
245	0xba0efe69	-0.000545478
246	0x3e685b29	0.22691025
247	0x380b199f	3.3164044e-05
248	0x3d54b71b	0.051932435
249	0xbc96da11	-0.018414529
250	0xbd600d13	-0.05469997
251	0x3d7fc0be	0.062439673
252	0x3ba3eed4	0.0050028358
253	0xbd82b374	-0.06381884
254	0x3ceaf3ac	0.028680645
255	0x3c4490a7	0.011997378

network_body.vector_processors.0.normalizer.running_mean f4 [4]
0	0x411ee01e	9.929716
1	0x4051462e	3.2699084
2	0xc1356b09	-11.338632
3	0x408f0243	4.469026
