ml-agents-master/ml-agents/config/results/ppo/LineCreator/LineCreator-1708.onnx (onnx, 71632 bytes, 9 tensors)

53 f4 [4]
00000000: 4324 773e 0a5a a93d 0a76 e140 04ad 5e40
0.24134926 0.08269127 7.045659 3.47931

54 f4 [1, 2]
00000000: 0000 0000 0000 0000
0.0 0.0

distribution.mu.bias f4 [2]
00000000: 0000 0000 0000 0000
0.0 0.0

distribution.mu.weight f4 [2, 128]
00000000: 27c6 3c3c 959b 8bba 362e 0abc 5aae 253d
00000010: 0585 1cbd 0299 aebc e6ad 063d b8ac cf3c
00000020: cdb3 82bc 7332 99b9 accf 94bc 260a 303d
00000030: 0d3b 9cbc 189b 36bc 0d75 5f3c 1728 af3c
00000040: 6abb 2a3c 570a 4eb9 86c5 13bc 2fa0 b5bb
00000050: 44cb b53c 5b90 adbc 0bb7 bdbc 93e9 f73b
00000060: fd81 77bb 4d07 9b3b a222 71bc b3ac 0ebd
00000070: f38c 123c 5b92 4e3c be22 cb3b 58fc 87bc
00000080: 0f86 b23c 2bec 243d 47a6 343c dbb0 be3c
00000090: d065 f7bb 28ff 393c 708b 28bc b8de 333d
000000a0: d5bf 133c beed 1c3d d3e7 b0ba c0cd 823c
000000b0: 3f34 f639 8f9f e6ba 8866 a03b 033f c9bc
000000c0: 0ba7 053c cb08 e83c 075e 8b3b e1f2 903a
000000d0: 5237 d639 f058 3abd e79f 23bc 858e bd3c
000000e0: 6801 fb3b 2db5 c83c 0a00 4cbc 008e fb3c
000000f0: 4229 653c ebcb 41bc 951e b53b 5d09 18bc
00000100: dd9f ed3b 8e39 9fba cc33 2abc 247b 9d3c
00000110: e548 a3bb 136c 34bc a717 dbbb 155b f8bc
00000120: 6c19 293c 4f70 2ebc e366 f1bb bb35 823c
00000130: 5613 9ebc 50ba 7abc 45ac 1a3c 12ee 60bc
00000140: 5fa1 d33b ebda 023b b9e2 213c e739 283c
00000150: a8e2 a3bb e06f 283c 0217 003c 0b01 92bc
00000160: f7fa ae3c 2daf 7e3c 009c eb3a 6bb6 213d
00000170: 8837 9d3c b760 53bc e284 533c 281c 5fbd
00000180: 8586 55bd 6bca 373c 1249 633b 0f32 a7bc
00000190: f7ef a73c e924 babc 623a cfbc f4d0 9dbb
000001a0: cafb eb3c adce 743a 9196 49bc 5bcf 30bd
000001b0: 786e 80bc 2c9d c03c 2700 64bc 90c4 813c
000001c0: 7f4f 25bc 20dc c1bb 031c 2dbc dc8e c1bb
000001d0: bca3 313b 98e2 eaba 5d1b 9c3c aff3 1ebd
000001e0: 476d 403b cbe8 8c3b 4f73 8a3b e869 f33b
000001f0: cfa0 da3c 3631 403c 4f27 a13c bb31 003b
00000200: 6699 afbb 175b c23c b317 a83c 53a2 cabb
00000210: b0a3 8abc 44b1 4a3c 4665 c93b d324 96bb
00000220: 22ab a1bc c18e a33b 3d0a 6abb 9ebd afbc
00000230: 99cb 47bc 479f 8f3c ff49 19bc 950e 07ba
00000240: 1755 a73c c2c7 bdbb 8bdc 533b 38ec e23b
00000250: fb9b bcbb 242d 10bb 9788 88bb db75 703b
00000260: 67e3 9bbb e3d2 2bbc ef44 6abc 24c8 973c
00000270: 769d c83b 19d8 98bc bc87 80bc d82c dbbb
00000280: 2fd6 fdbb 0bb1 8abc 0e0c 933b 100d 20bc
00000290: 80ef 0abd c54f e83c 33ea 69bc 44ce 90bc
000002a0: c2f5 ffbb 5f0b c8bb 426d 5dbc 936f c43a
000002b0: 325e 91bc 81e3 88bc c69d bbbc 449f 263b
000002c0: 3357 233c 180d 113d 078b babc 90ea 92bc
000002d0: ef7a 573c 6ce1 a03b 77ad d63c 7b49 f6bc
000002e0: 7f51 a33c 824d 173b 37c7 0cbd 281d 09bd
000002f0: c6ab abbc 1340 a4bc 30ef 303c 890e a03c
00000300: 26f9 0f3c c2fd 33bd 9344 22bd a90a aaba
00000310: 7dbf db3b f5e4 e43b 110f 46bc fdd6 5d3c
00000320: 4b83 813c 0ac5 d0bc 82f3 e1bb 0406 383a
00000330: 14eb 94bb cf49 5cbc a704 81bc fd7c 5d3c
00000340: ea40 dbbb 15ca d83c 40ec 38ba 8589 3ebb
00000350: a28b 6a3d c52e 7e3c 2d74 5f3c c735 4c3c
00000360: 97a8 2a3c 2b0f 253c 05b4 833c 602c 6d3a
00000370: be40 84bc c77b d0bb 6626 8d3b 9a2c 7ebc
00000380: 07b2 1dbc 61b7 953a 68c3 ebbb ad9b 22bc
00000390: 4576 f73b 7122 1a3d 2799 8f3c 6074 9a3b
000003a0: 4dfd 513c 3316 c2bb f32c d13b 50f2 753c
000003b0: 3559 06bd 2bb3 e5bb 400d efbb 07de 083c
000003c0: a70e acbb b5da ac3c c427 9c3b 37c3 4dbb
000003d0: 6701 57bc dfbb 413c c62d 19bd 55fd e7bc
000003e0: eb64 5bbb 3f84 febb 9d29 fcbc 9465 a7bb
000003f0: f89a 94bc 9869 e3bb 2b59 d63b 771f 983c
0.011521853 -0.0010651225 -0.008433869 0.040449478 -0.038212795 -0.021313194 0.032880686 0.025350913
-0.015954876 -0.00029220022 -0.018165432 0.04297843 -0.019071126 -0.011145376 0.013638747 0.021381421
0.01042066 -0.00019649543 -0.009019261 -0.005542777 0.022191651 -0.021186998 -0.02315857 0.007565686
-0.0037766688 0.004731095 -0.01471773 -0.034832668 0.008944738 0.012608136 0.00619921 -0.016599819
0.02179244 0.04026429 0.011025972 0.02327769 -0.007549979 0.011352338 -0.010287151 0.043913573
0.009017904 0.038312666 -0.0013496823 0.01596725 0.00046959703 -0.001759516 0.004895035 -0.02456618
0.008157502 0.028324505 0.0042531523 0.0011058712 0.00040858478 -0.045494974 -0.009986854 0.023139248
0.0076600797 0.024500454 -0.012451181 0.03070736 0.013986887 -0.011828403 0.0055273273 -0.009279576
0.007251723 -0.001214789 -0.010388326 0.019223757 -0.004983055 -0.011012095 -0.006686169 -0.030316869
0.010321002 -0.010646894 -0.0073670014 0.015894761 -0.01929633 -0.015303209 0.009440486 -0.013728635
0.006458446 0.001996691 0.009880715 0.010267711 -0.0050013848 0.010280579 0.0078179855 -0.017822763
0.021359904 0.015544695 0.0017975569 0.039480608 0.019191518 -0.012901477 0.0129101 -0.05447021
-0.05213024 0.011217694 0.0034681004 -0.020409612 0.020500166 -0.022722678 -0.025296394 -0.004816169
0.028806586 0.00093386584 -0.012303964 -0.0431665 -0.015677676 0.023512445 -0.013916052 0.015840799
-0.010089754 -0.0059161335 -0.010565761 -0.0059069227 0.002710565 -0.0017920313 0.019056017 -0.038806614
0.002936201 0.004300212 0.0042251716 0.0074283965 0.026688008 0.011730483 0.019672064 0.0019560892
-0.0053588627 0.023725076 0.020519113 -0.0061839013 -0.016923755 0.012371365 0.006146106 -0.0045820265
-0.019734923 0.004991383 -0.003571167 -0.021452721 -0.012194538 0.017532004 -0.009356021 -0.0005152014
0.020426316 -0.0057916353 0.0032327499 0.006925132 -0.005755899 -0.0021999562 -0.0041666734 0.003669134
-0.004757333 -0.010487291 -0.014298662 0.018528052 0.0061222864 -0.01865773 -0.015689723 -0.0066886954
-0.00774648 -0.016930124 0.004487521 -0.009768739 -0.03391981 0.02835835 -0.014277029 -0.01767648
-0.007811279 -0.006104871 -0.013514819 0.0014986865 -0.017745111 -0.016710045 -0.02290238 0.002542452
0.00996952 0.035412878 -0.022771372 -0.017934114 0.013151868 0.004909685 0.026205761 -0.030064335
0.019936321 0.002308697 -0.034369674 -0.03347507 -0.020955931 -0.020050084 0.010799214 0.01953818
0.008787429 -0.043943174 -0.03961618 -0.0012973148 0.006706177 0.0069853016 -0.012088553 0.013540027
0.015809676 -0.02548458 -0.0068954835 0.00070199394 -0.004544625 -0.013445332 -0.015749289 0.013518569
-0.006691088 0.026463548 -0.0007054247 -0.0029073667 0.05726207 0.01551408 0.013638538 0.012463993
0.0104161715 0.010074417 0.016077051 0.0009047445 -0.016144153 -0.0063624117 0.004307556 -0.0155135635
-0.009624965 0.0011422449 -0.007194925 -0.009924811 0.0075519406 0.037630502 0.017529083 0.00471358
0.012816739 -0.0059230565 0.006383532 0.015011385 -0.03279992 -0.007009884 -0.0072952807 0.008353717
-0.00525077 0.021100381 0.0047654826 -0.0031396875 -0.013122893 0.011824577 -0.03739717 -0.02831904
-0.00334769 -0.00776723 -0.030781562 -0.0051085446 -0.018140301 -0.006940078 0.0065413914 0.018569691

network_body.linear_encoder.seq_layers.0.bias f4 [128]
00000000: 0000 0000 0000 0000 0000 0000 0000 0000
00000010: 0000 0000 0000 0000 0000 0000 0000 0000
00000020: 0000 0000 0000 0000 0000 0000 0000 0000
00000030: 0000 0000 0000 0000 0000 0000 0000 0000
00000040: 0000 0000 0000 0000 0000 0000 0000 0000
00000050: 0000 0000 0000 0000 0000 0000 0000 0000
00000060: 0000 0000 0000 0000 0000 0000 0000 0000
00000070: 0000 0000 0000 0000 0000 0000 0000 0000
00000080: 0000 0000 0000 0000 0000 0000 0000 0000
00000090: 0000 0000 0000 0000 0000 0000 0000 0000
000000a0: 0000 0000 0000 0000 0000 0000 0000 0000
000000b0: 0000 0000 0000 0000 0000 0000 0000 0000
000000c0: 0000 0000 0000 0000 0000 0000 0000 0000
000000d0: 0000 0000 0000 0000 0000 0000 0000 0000
000000e0: 0000 0000 0000 0000 0000 0000 0000 0000
000000f0: 0000 0000 0000 0000 0000 0000 0000 0000
00000100: 0000 0000 0000 0000 0000 0000 0000 0000
00000110: 0000 0000 0000 0000 0000 0000 0000 0000
00000120: 0000 0000 0000 0000 0000 0000 0000 0000
00000130: 0000 0000 0000 0000 0000 0000 0000 0000
00000140: 0000 0000 0000 0000 0000 0000 0000 0000
00000150: 0000 0000 0000 0000 0000 0000 0000 0000
00000160: 0000 0000 0000 0000 0000 0000 0000 0000
00000170: 0000 0000 0000 0000 0000 0000 0000 0000
00000180: 0000 0000 0000 0000 0000 0000 0000 0000
00000190: 0000 0000 0000 0000 0000 0000 0000 0000
000001a0: 0000 0000 0000 0000 0000 0000 0000 0000
000001b0: 0000 0000 0000 0000 0000 0000 0000 0000
000001c0: 0000 0000 0000 0000 0000 0000 0000 0000
000001d0: 0000 0000 0000 0000 0000 0000 0000 0000
000001e0: 0000 0000 0000 0000 0000 0000 0000 0000
000001f0: 0000 0000 0000 0000 0000 0000 0000 0000
0.0 0.0 0.0 0.0 0.0 0.0 0.0 0.0
0.0 0.0 0.0 0.0 0.0 0.0 0.0 0.0
0.0 0.0 0.0 0.0 0.0 0.0 0.0 0.0
0.0 0.0 0.0 0.0 0.0 0.0 0.0 0.0
0.0 0.0 0.0 0.0 0.0 0.0 0.0 0.0
0.0 0.0 0.0 0.0 0.0 0.0 0.0 0.0
0.0 0.0 0.0 0.0 0.0 0.0 0.0 0.0
0.0 0.0 0.0 0.0 0.0 0.0 0.0 0.0
0.0 0.0 0.0 0.0 0.0 0.0 0.0 0.0
0.0 0.0 0.0 0.0 0.0 0.0 0.0 0.0
0.0 0.0 0.0 0.0 0.0 0.0 0.0 0.0
0.0 0.0 0.0 0.0 0.0 0.0 0.0 0.0
0.0 0.0 0.0 0.0 0.0 0.0 0.0 0.0
0.0 0.0 0.0 0.0 0.0 0.0 0.0 0.0
0.0 0.0 0.0 0.0 0.0 0.0 0.0 0.0
0.0 0.0 0.0 0.0 0.0 0.0 0.0 0.0

network_body.linear_encoder.seq_layers.0.weight f4 [128, 4]
00000000: d323 2bbd 2fa8 973e d5a3 6fbe f855 a43e
00000010: 0595 d33e c319 f4be bcd9 363f 98ab d3bc
00000020: 549c 29bf e2d0 79bf d2cc 293e fcdb 26bf
00000030: 0bb3 233f c427 e6be 3363 c2bd 13e0 d0bf
00000040: 068e fc3e a0fc c2be 98e3 bcbe bbe0 90bf
00000050: ad24 423e 1d7f 163e 56ce 18be 536c 07be
00000060: e310 b9be 84a3 5c3e 119c 04be 1d43 4ebe
00000070: 350e 86be 256c 3b3f 25ae a2bd 8dba 62be
00000080: dcf1 efbe 86a7 aebd 4724 26bf 082d fabd
00000090: 44d4 00bf 9e0a 81be c399 8ebf ed2a e3bd
000000a0: 43fc e7bc 2fe7 00bf f0c7 91be 9c48 20bf
000000b0: c10a 883d 2b76 06be 9573 8a3d 8c96 4f3e
000000c0: f348 17bf 5fc8 763c 9934 47bf f117 80bf
000000d0: ef7e d4be bd17 4fbf 87ea 32bf 0ff0 f33e
000000e0: b2c5 c6be 9df6 103f aacb 803d d6cd 0a3f
000000f0: 0dab 063f 983c d7be 2a8a 12bf f366 803e
00000100: 8f44 b5bd 9aec bcbe 369c 623e 14ac b4bf
00000110: 6b6c f4be 53cb 74be d5cc 6d3f 4bb1 d5be
00000120: 8500 8fbe 335b 08bf 60ca 55bf 8297 d0bd
00000130: ac79 c9bd 8698 8dbe 22d8 89bf 7fa7 03be
00000140: 2f07 693f 01f2 2d3e 8d3c aa3e afa5 b13e
00000150: bd5a 4d3f bce6 3f3e 0ba8 093f 14ad d23c
00000160: 99f3 67bd c551 2d3f e7dd c33e 4487 c6bd
00000170: 8687 9d3e 5f64 6b3d d474 37bd 2758 6dbe
00000180: 9ece 403d 0123 99bd 5db1 20bf 914f 93bd
00000190: 2313 0bbf d455 0fbf 176a c2bc c707 47bf
000001a0: cf74 cc3e 8b50 2bbf 89e1 c23e e8f1 0a3f
000001b0: 8b10 873c 8e6c 1fbc 6d4c cdbd cca5 b23e
000001c0: bd24 813e 1edd 2fbf 9320 3f3f 38e2 a4be
000001d0: 5aae 87be c8d8 613e f217 c1be 72c1 683f
000001e0: b95c a53e e550 843e feb5 483e b2c9 183c
000001f0: a5d8 7bbf 54bc d3be 1bd3 0fbf b6bc 3e3e
00000200: e674 c5be 2e0e bebd 0ed2 5f3f e665 6fbe
00000210: c75b 893e a6bf 373f 4cbc 18be cda3 ccbe
00000220: d1db d5be b3cb a1be d7df d73d 5285 6b3f
00000230: c52a a83e 4ed0 133f 43ca e33e 54bf d2be
00000240: e038 543e b636 a6be 1689 97be ee21 5a3f
00000250: 6c30 5b3d 8002 483f 0bd7 a13e 8aed 003f
00000260: f33f b03e 302f 963d 2cbf 823e 1f34 3d3e
00000270: ceee f33d 384e cc3d 77f3 993e 6ccc ab3e
00000280: c92e c63e 29bd edbc e1d2 3b3f 8909 3d3f
00000290: b2a9 e7be 8755 2f3f 2f54 58bf e1f9 9e3d
000002a0: 8718 db3d 127e 2dbf 01b4 59be 0b84 e5bd
000002b0: dbb7 ccbe 7686 2f3e cbb8 32bd 3196 1f3f
000002c0: d41f 843e b8a0 bb3f 195e 383e 432a d9be
000002d0: 4d89 49be 4b44 40bc e8d2 083f 9dde 6b3f
000002e0: 9720 8abe ed97 a13e f2ff 3d3d 45ee 5cbe
000002f0: 9903 a23e 630a f73c b43c 8b3e 8863 c83e
00000300: dc9b 673e 9cd9 08be 457a 1dbe 68ed 993e
00000310: 1696 973f 9c55 1ebf b7f0 2f3f 6662 9f3e
00000320: 9eda 5dbe fe09 413e d345 5a3e ba8f 19bf
00000330: da6d 363f 74ce b3be 5bc5 6abd dcf3 18be
00000340: a03d d6bd 35f2 8e3e 9b2b ca3e 647a 4cbe
00000350: 8ef3 c2be 1317 8f3f 3cf8 293f bbcb 943e
00000360: c617 be3e 160e 8dbd 8ccd 9cbf 173f 06bf
00000370: 3aba 123f bd13 f63e 2674 ea3e cade bdbe
00000380: ce10 1f3f 0d5c 42be 7662 bc3d 412c 3cbe
00000390: f7c1 023f 3269 6dbf 0f22 b9bd 1238 8dbf
000003a0: e3e3 4fbe 44ee a0be 2c99 8c3e f00d 87bd
000003b0: 299d f93e ba16 ad3e 9e98 46bd 01a4 533d
000003c0: 4711 933e b3d6 ac3d 8d24 00be 1f56 2e3f
000003d0: 63a3 21bf 59ac aabe 19cc bc3d 1d0b 783e
000003e0: 08a5 d63d d2ac 143f 421b 64be 95a7 08bf
000003f0: a32d 07bf f315 23be ee6a ccbe f730 c3bc
-0.04178221 0.296205 -0.2340234 0.3209684 0.4132463 -0.47675905 0.71425986 -0.025838658
-0.6625416 -0.97584355 0.16582039 -0.6517942 0.6394507 -0.44952214 -0.09491577 -1.6318382
0.49327105 -0.38083363 -0.3689239 -1.1318582 0.18959303 0.14696927 -0.14922461 -0.13224916
-0.36145696 0.21546751 -0.1295016 -0.20142789 -0.26182714 0.7321189 -0.07943372 -0.22141476
-0.46864212 -0.08528046 -0.64899105 -0.1221562 -0.5032389 -0.25203413 -1.1140674 -0.11092172
-0.02831853 -0.5035276 -0.28472853 -0.62610793 0.06642676 -0.13131015 0.06760327 0.20272273
-0.59095687 0.015062421 -0.7781463 -1.0007306 -0.41503093 -0.80895597 -0.6988911 0.47644088
-0.38822705 0.566263 0.06288846 0.5422033 0.5260475 -0.42038417 -0.5724207 0.25078544
-0.08850967 -0.36899263 0.22129902 -1.4115014 -0.47738966 -0.23905687 0.92890674 -0.41736826
-0.27930084 -0.5326416 -0.83511925 -0.10185148 -0.0983766 -0.2765543 -1.0769083 -0.12856863
0.91026586 0.16986848 0.33249322 0.3469672 0.8021658 0.18740362 0.5377204 0.025717296
-0.056628797 0.67702895 0.38255236 -0.096937686 0.3076746 0.05746877 -0.04478915 -0.23178159
0.047072046 -0.074773796 -0.62770635 -0.071929105 -0.54326075 -0.5599034 -0.023732228 -0.7774624
0.39932868 -0.66919774 0.38062695 0.5427537 0.01648738 -0.009730471 -0.10024343 0.34892118
0.25223342 -0.68696773 0.7465908 -0.3220384 -0.26500207 0.22055352 -0.3771358 0.90920174
0.32297304 0.25842968 0.19600675 0.009325432 -0.9837745 -0.4135462 -0.56181496 0.18626675
-0.3856575 -0.09280048 0.87429893 -0.23378715 0.26827833 0.7177681 -0.1491558 -0.3996872
-0.4176927 -0.31600723 0.10540741 0.92000306 0.3284513 0.5773972 0.4449025 -0.41161597
0.20724821 -0.32463616 -0.29596776 0.8520802 0.053512976 0.78128815 0.31609377 0.50362456
0.3442379 0.07333219 0.25536478 0.18476914 0.11910783 0.099758565 0.3006856 0.335544
0.3870757 -0.029020863 0.7336865 0.73842674 -0.45246655 0.6848988 -0.84503454 0.07762504
0.106980376 -0.67770493 -0.21260072 -0.11206826 -0.3998402 0.17141137 -0.043633264 0.6233855
0.25805533 1.4658422 0.18004645 -0.42415056 -0.19681282 -0.011735032 0.5344682 0.92136556
-0.2697799 0.31561223 0.046386667 -0.21575268 0.3164337 0.03015632 0.2719475 0.39138436
0.2261805 -0.13364261 -0.15378673 0.3006394 1.1842678 -0.6184938 0.68726677 0.3112976
-0.21665427 0.18851468 0.21315698 -0.59984934 0.7126137 -0.3511845 -0.05731712 -0.14936775
-0.10460973 0.27919164 0.39486393 -0.19968563 -0.38076442 1.1178917 0.663944 0.29061684
0.37127513 -0.06887452 -1.2250228 -0.5244002 0.5731541 0.48061934 0.4579174 -0.37084037
0.62135017 -0.18980427 0.091984674 -0.18376257 0.51077217 -0.9273864 -0.09039699 -1.1032736
-0.20301776 -0.31431782 0.2746061 -0.06594455 0.48752716 0.33806401 -0.04848539 0.05167008
0.2872412 0.08439388 -0.12513943 0.6810016 -0.63139933 -0.33334616 0.09218616 0.2422299
0.10480696 0.580762 -0.22276023 -0.5338071 -0.5280401 -0.15926342 -0.3992533 -0.02382706

network_body.linear_encoder.seq_layers.2.bias f4 [128]
00000000: 0000 0000 0000 0000 0000 0000 0000 0000
00000010: 0000 0000 0000 0000 0000 0000 0000 0000
00000020: 0000 0000 0000 0000 0000 0000 0000 0000
00000030: 0000 0000 0000 0000 0000 0000 0000 0000
00000040: 0000 0000 0000 0000 0000 0000 0000 0000
00000050: 0000 0000 0000 0000 0000 0000 0000 0000
00000060: 0000 0000 0000 0000 0000 0000 0000 0000
00000070: 0000 0000 0000 0000 0000 0000 0000 0000
00000080: 0000 0000 0000 0000 0000 0000 0000 0000
00000090: 0000 0000 0000 0000 0000 0000 0000 0000
000000a0: 0000 0000 0000 0000 0000 0000 0000 0000
000000b0: 0000 0000 0000 0000 0000 0000 0000 0000
000000c0: 0000 0000 0000 0000 0000 0000 0000 0000
000000d0: 0000 0000 0000 0000 0000 0000 0000 0000
000000e0: 0000 0000 0000 0000 0000 0000 0000 0000
000000f0: 0000 0000 0000 0000 0000 0000 0000 0000
00000100: 0000 0000 0000 0000 0000 0000 0000 0000
00000110: 0000 0000 0000 0000 0000 0000 0000 0000
00000120: 0000 0000 0000 0000 0000 0000 0000 0000
00000130: 0000 0000 0000 0000 0000 0000 0000 0000
00000140: 0000 0000 0000 0000 0000 0000 0000 0000
00000150: 0000 0000 0000 0000 0000 0000 0000 0000
00000160: 0000 0000 0000 0000 0000 0000 0000 0000
00000170: 0000 0000 0000 0000 0000 0000 0000 0000
00000180: 0000 0000 0000 0000 0000 0000 0000 0000
00000190: 0000 0000 0000 0000 0000 0000 0000 0000
000001a0: 0000 0000 0000 0000 0000 0000 0000 0000
000001b0: 0000 0000 0000 0000 0000 0000 0000 0000
000001c0: 0000 0000 0000 0000 0000 0000 0000 0000
000001d0: 0000 0000 0000 0000 0000 0000 0000 0000
000001e0: 0000 0000 0000 0000 0000 0000 0000 0000
000001f0: 0000 0000 0000 0000 0000 0000 0000 0000
0.0 0.0 0.0 0.0 0.0 0.0 0.0 0.0
0.0 0.0 0.0 0.0 0.0 0.0 0.0 0.0
0.0 0.0 0.0 0.0 0.0 0.0 0.0 0.0
0.0 0.0 0.0 0.0 0.0 0.0 0.0 0.0
0.0 0.0 0.0 0.0 0.0 0.0 0.0 0.0
0.0 0.0 0.0 0.0 0.0 0.0 0.0 0.0
0.0 0.0 0.0 0.0 0.0 0.0 0.0 0.0
0.0 0.0 0.0 0.0 0.0 0.0 0.0 0.0
0.0 0.0 0.0 0.0 0.0 0.0 0.0 0.0
0.0 0.0 0.0 0.0 0.0 0.0 0.0 0.0
0.0 0.0 0.0 0.0 0.0 0.0 0.0 0.0
0.0 0.0 0.0 0.0 0.0 0.0 0.0 0.0
0.0 0.0 0.0 0.0 0.0 0.0 0.0 0.0
0.0 0.0 0.0 0.0 0.0 0.0 0.0 0.0
0.0 0.0 0.0 0.0 0.0 0.0 0.0 0.0
0.0 0.0 0.0 0.0 0.0 0.0 0.0 0.0

network_body.linear_encoder.seq_layers.2.weight f4 [128, 128]
00000000: 7826 9ebd de4c d23c 8f3b 7ebe 1979 743d
00000010: 4bff b73c bcca 753d d10d 013e 57f1 0f3c
00000020: 3a8b 6ebd addc 5cbe aa71 673d 0780 a13d
00000030: 4fe0 b5b9 f52f 2cbd 3af3 05be fb18 c53d
00000040: 8c05 e23c 3764 b6bd d6ff 4bbe a44a 823d
00000050: 1c89 893d 019a 90bb 1a5d 363c 8a7a 1e3d
00000060: eebd fa3d 8d5c f8bd 3290 d33d cd28 ecbd
00000070: f7ac 453d 2f70 a7bd 5dc0 233d 389d 6fbd
00000080: ac67 e83d 52a7 753a 5f59 123d 918b 8c3d
00000090: 97f2 fc3d c489 7d3d e0b5 b1ba 5937 983d
000000a0: 957c a13d 82f7 8ebd 9da0 83bd 9ae9 c0bd
000000b0: d1d2 203e 47a7 7f3d b33f 82bd c2f2 2f3d
000000c0: 1b9f 3fbd 974b 0bbc 0ca3 e63c 906c cfbd
000000d0: 9105 c6bd 7a3c 3c3e fcfe f23a b638 34be
000000e0: 0ddc 9c3c 8c9a 613c c9ed 6ebe 1d16 cabd
000000f0: b9b0 e3bd ad5c 2d3d 3514 463d 5aaa b3bc
00000100: 1775 2ebe b411 7fbd cbc9 51be 64ee 7c3b
00000110: bb91 133d 325f acbd 7919 95bd b597 813d
00000120: f206 293e 9312 15bc 4178 cd3d 1af5 f93a
00000130: 5ef3 393e 0134 413d f799 bd3e 3151 4d3e
00000140: 0e99 a5bd c6cc 593b 265b 303d d6c7 babd
00000150: d30e 7bbd fe95 40be 1bbc b63d 3f7c 803d
00000160: 4c0f 4e3e f377 bc3c bcb8 883d d443 5ebd
00000170: 0caf b4ba 62b6 813d ee8d eebd ac20 4e3e
00000180: 459f f2bd 9b9b 483d 84a5 c2bd 92c6 383d
00000190: 135a 54bc 04ee 1d3d f36c 203d ab79 3dbd
000001a0: 6c96 97bd 33ff 80bd 62c6 3439 749f aa3b
000001b0: cb2a 59bd ea82 14be 7ca6 45bd 5566 37bd
000001c0: d589 5fbd 33e0 133e 8904 4f3d 3668 863d
000001d0: 322e 9abd 093e 94bd 7228 31be c96f 4e3b
000001e0: 3170 93bd 1846 fc3c e42a 8bbd f80c b1bd
000001f0: fe4e 11be f853 a43d a60d 56be 9d70 05bc
00000200: 74e9 6abd 9d5a 81bd 2b2e 3bbe 4259 0c3d
00000210: b1b6 dfbd c4c0 82bd a7da 4cbb 26b8 b3bc
00000220: 8e8c 673c 152f 74b8 c2e8 d83d 3796 48be
00000230: a46e 80bd 640b 15be 5003 fe3d 98af e0bd
00000240: 129e 363d b590 a33b 19a9 5f3d 8ef9 8c3d
00000250: a40b 4e3e fbf6 d13d 5e81 873d 0cc9 0e3e
00000260: 89dd 263d 7f08 b63d a3a8 283d bdb6 ab3c
00000270: 5d7e 023e 1e11 5cbc c31e 09be 51b7 9d3d
00000280: ed3b fe3c e61b 023e b40d 55bd ba8b 0cbe
00000290: 444d 13bd 5bf1 e33b 8bf0 06be e466 05be
000002a0: 6302 07bd 13e4 a93d 84ca a2bc cf36 09be
000002b0: ee35 79bc 483f 83bd c653 f0bb 04ba 3d3d
000002c0: bb8a 35bd 41b5 2b3d 35ff 9c3d 5a57 17bd
000002d0: 9e23 403e 9440 31bd cd84 f0bd da1d 323d
000002e0: eaf3 d1bd 97a8 be3c 6f33 c3bd 8e5e 92bd
000002f0: 595b a1bd f2e8 573c 15b9 503e 24b6 30be
00000300: 619b da3d e681 273d 164c 5bbd 2794 bfbd
00000310: d1ab f9bc 61d6 243d fa2f fb3b 26d1 38be
00000320: 2cac 0d3e 8a6b 17bd 45a1 163d 0fcc 443c
00000330: ca13 2ebd 3589 bcbc 857f 3c3e 3c19 a73d
00000340: 3ae7 babd 40c1 1ebd 73a8 69bd ebfb 08bd
00000350: daa3 073e 5e07 f0bd 1b00 243d 6bef c13d
00000360: 22e2 e6bd 6ee7 0c3e b612 a0bd b854 373b
00000370: bbbe 3abd 3f1d a0bd 826d ba3d 79b6 e0bc
00000380: 6ad6 abbc cddc 823c 0739 513d 4698 5a3d
00000390: eeac 95bd 670c 273d dd3c 68ba 5dc9 eebd
000003a0: 26fd 15bd f994 733d aac7 373d a569 3f3d
000003b0: 4b48 8d3c ef1d bcbc b441 64bd 27d6 a4bd
000003c0: 43dc 883b b411 013e 0f3d 6a3d 6d12 173d
000003d0: 5f29 043e e98c aa3c 7266 d5bc 2d98 d43c
000003e0: 12d8 803d 33a3 3a3e 5ee7 06be 8d1e 013b
000003f0: 6b41 edbb d779 c23d ee84 57bd 42cc 523d
-0.07722181 0.025671419 -0.24827407 0.0596858 0.0224606 0.060007796 0.12602927 0.008785567
-0.058238246 -0.21568556 0.056504883 0.078857474 -0.00034690133 -0.042037923 -0.13081065 0.09623905
0.027590536 -0.08905833 -0.19921812 0.06361893 0.06715605 -0.00441289 0.011130596 0.03869108
0.122432575 -0.12127028 0.103302374 -0.1153122 0.048260655 -0.08175694 0.039978374 -0.058499545
0.11347899 0.0009370941 0.035729762 0.06862558 0.12350958 0.06189896 -0.0013558231 0.07432432
0.0788509 -0.06980802 -0.06427119 -0.09419556 0.1570542 0.062415387 -0.06359806 0.04295612
-0.046782594 -0.008501909 0.028153919 -0.101281285 -0.096690305 0.18382445 0.0018539126 -0.17599759
0.019147897 0.013769757 -0.23332895 -0.09867499 -0.111176915 0.04232471 0.048359115 -0.021931816
-0.17036854 -0.062272742 -0.20487134 0.003859424 0.03602765 -0.084165946 -0.07280249 0.06327764
0.16506556 -0.009098667 0.10032702 0.0019070238 0.18159243 0.047168735 0.37031528 0.20050503
-0.080858335 0.0033233627 0.043055676 -0.09120147 -0.061293434 -0.18807217 0.08922597 0.06273698
0.20123023 0.023006415 0.0667586 -0.054263905 -0.0013785078 0.06333615 -0.11648165 0.20129651
-0.118467845 0.048976522 -0.09504226 0.045111246 -0.0129609285 0.038557068 0.039166402 -0.04625861
-0.074017376 -0.062986754 0.00017240041 0.0052069966 -0.053019326 -0.14503065 -0.048254475 -0.044775326
-0.054574806 0.14440994 0.050541434 0.065628454 -0.07528342 -0.07238395 -0.17300585 0.0031499735
-0.07199133 0.030795142 -0.0679529 -0.08645052 -0.1419029 0.08023828 -0.20903644 -0.008144525
-0.057351544 -0.06316111 -0.1827933 0.03426481 -0.109235175 -0.063844234 -0.0031258257 -0.021938395
0.014132632 -5.8217982e-05 0.1059127 -0.19588552 -0.06271103 -0.14555126 0.124029756 -0.10970992
0.04458434 0.0049916157 0.054604623 0.06883536 0.20121628 0.10252186 0.06616472 0.13943881
0.040738616 0.08888339 0.04117645 0.02096116 0.12743516 -0.013431815 -0.13390641 0.077009805
0.031034434 0.12705955 -0.05201502 -0.13725176 -0.035962358 0.006956262 -0.13177697 -0.13027531
-0.03296126 0.08295455 -0.019871958 -0.13399814 -0.015210612 -0.06408554 -0.0073342053 0.046319976
-0.044321757 0.041920904 0.076658644 -0.03694854 0.18763587 -0.043274477 -0.1174408 0.0434855
-0.10251601 0.02327375 -0.095312946 -0.07146941 -0.07878751 0.013178097 0.20383103 -0.17256981
0.106741674 0.040895365 -0.053539358 -0.0935443 -0.030477436 0.04024351 0.0076656314 -0.18048534
0.1383521 -0.03696779 0.036774892 0.012011542 -0.04249934 -0.023014644 0.1840802 0.0815911
-0.09126134 -0.038758516 -0.05704541 -0.033443373 0.13246098 -0.11720155 0.040039163 0.094694935
-0.112736 0.13760158 -0.07816069 0.002797408 -0.04559205 -0.07818078 0.09102918 -0.02743076
-0.020976264 0.015974427 0.051079776 0.053367876 -0.07308374 0.040783312 -0.0008859167 -0.11659501
-0.036618374 0.059468243 0.04486815 0.04673161 0.017246386 -0.022963492 -0.055726722 -0.08048659
0.004176648 0.1260441 0.057187136 0.036882807 0.12906407 0.020819144 -0.026049826 0.02595147
0.06291212 0.18226318 -0.13174197 0.0019702048 -0.0072404644 0.09495895 -0.052617006 0.051464327

network_body.vector_processors.0.normalizer.running_mean f4 [4]
00000000: 7fc9 1e41 5728 5140 e17a 0ec1 58f7 3840
9.924193 3.2680871 -8.905 2.8900967
