ml-agents-master/ml-agents/config/results/ppo/LineCreator/LineCreator-33383.pt (torch, 434231 bytes, 40 tensors)

network_body.vector_processors.0.normalizer.running_mean f4 [4]
000000 ab df 1e 41 b1 45 51 40 33 37 3f c1 91 63 af 40
       9.929606 3.2698786 -11.950976 5.480904

network_body.vector_processors.0.normalizer.running_variance f4 [4]
000000 79 34 c7 42 8d 14 3b 41 9d 18 22 48 52 89 91 47
       99.602486 11.692517 165986.45 74514.64

network_body.linear_encoder.seq_layers.0.weight f4 [128, 4]
000000 2d 8a 63 bd bd ef d4 be 46 01 b2 bc b2 85 88 3f
       -0.055551697 -0.41589156 -0.021729123 1.06658
000010 6a d6 8a be fc df cc 3e 7b d3 1b bf 75 36 af 3d
       -0.2711671 0.40014637 -0.6086957 0.08555309
000020 bf 42 31 be a7 6d c1 bd 71 ee 9b 3d b4 cc aa 3e
       -0.17310618 -0.09444743 0.076138385 0.333593
000030 71 3d 26 bf 7a 03 3d 3c 8c 62 36 bf aa 51 df 3e
       -0.649375 0.011536473 -0.7124412 0.43616992
000040 a9 6a 3d bf 53 f2 0e 3e c6 97 06 bf 3c 0b 75 3e
       -0.73990875 0.13959627 -0.5257534 0.23930067
000050 ed 85 86 3e fa d0 ba 3d e5 cb af bc d5 ad 64 3e
       0.26274052 0.0912189 -0.02145953 0.22331937
000060 40 33 1d bf 73 a0 38 ba 04 c5 4d bf 15 cd d7 3d
       -0.61406326 -0.0007042952 -0.80378747 0.10537163
000070 b2 54 61 3f ca 71 07 bf 2c e1 c9 3e de dd 3c be
       0.8801986 -0.52908003 0.39429605 -0.1844401
000080 68 32 2f bf 33 2e 7a 3e 91 c2 91 3c a9 4f 65 3c
       -0.6843629 0.24431686 0.017792972 0.013996043
000090 d9 d2 0d bf 5a 07 91 bb cd f7 d8 3d 64 d3 21 3f
       -0.55399853 -0.004425925 0.10594139 0.6321318
0000a0 6d b6 39 3e 56 16 7e 3e 3d 49 90 be 10 34 0d bf
       0.18135996 0.24813208 -0.28180876 -0.55157566
0000b0 b6 95 98 bf 09 64 1c 3f 89 e1 0c 3f 9c c8 79 3e
       -1.1920688 0.6109014 0.5503164 0.24392933
0000c0 f9 9b 2c bf 5b 84 70 3e 46 0b f2 bd 20 f0 b2 bd
       -0.67425495 0.2348799 -0.118185565 -0.087372065
0000d0 e7 80 d3 bd 8b d6 83 bf 7f 85 4a 3e 10 a3 ab 3d
       -0.103273205 -1.0299848 0.19777487 0.08380711
0000e0 5e 8e 6f be 0b 87 62 bd 13 c1 e9 be 13 a9 01 3f
       -0.23394153 -0.05530457 -0.45655116 0.5064861
0000f0 d6 33 3c 3f 0e 2b 52 3c 10 3f 25 3f a0 4f 41 be
       0.73516595 0.012827648 0.6454935 -0.18878031
000100 5b 8b cf 3d 4a d5 2d be be 23 2c 3f 70 90 be 3e
       0.10134002 -0.16975895 0.6724204 0.37219572
000110 2b 63 18 3f 74 be 06 bf ce 20 65 be 13 b3 87 bf
       0.5952632 -0.5263436 -0.22375795 -1.0601524
000120 7b 15 5a be d3 13 ba 3d 73 9d b1 be 56 ec 50 bf
       -0.21297257 0.090858124 -0.34690437 -0.8161062
000130 04 60 07 3f c2 61 26 bf 06 fd 23 bd 44 d7 e2 3e
       0.52880883 -0.64992917 -0.040036224 0.4430486
000140 7f 49 d7 be 28 0d bf be 49 5b d3 bc a5 d7 78 bc
       -0.4204826 -0.37314725 -0.025800364 -0.015188132
000150 b4 3c d4 3e 09 81 88 3e 56 5f 47 be aa b2 0e 3f
       0.41452563 0.26660946 -0.19469962 0.5574137
000160 15 08 06 bf 2b 30 91 be 9b ce a5 3f 17 ae 97 be
       -0.5235608 -0.28357062 1.2953676 -0.29625008
000170 e0 d2 77 3e d0 ca 11 bf 6b 0a 4e 3e c5 10 b4 3d
       0.24201536 -0.5695009 0.20121162 0.08792261
000180 96 d2 9a bf ab 9d 1c bf 0f 14 2a be a1 ae 42 3f
       -1.2095516 -0.6117808 -0.16609214 0.7604771
000190 30 e7 98 be 4f 1e 83 be 6d 46 21 bf 09 b6 7f 3e
       -0.29863882 -0.2560906 -0.62998086 0.24971785
0001a0 23 93 56 3d 5a 40 16 bf aa 40 2b 3f 63 90 43 bf
       0.052386414 -0.5869194 0.66895545 -0.7639219
0001b0 b1 fe d4 3e 62 39 a7 3f c3 64 86 3f 8d ab 21 3f
       0.41600564 1.3064387 1.04995 0.6315239
0001c0 4b 33 ac 3e 6e 9f de be c2 bc 7e bd 9f 5b cf 3d
       0.33632883 -0.4348101 -0.062191732 0.10124897
0001d0 ed 24 46 be b1 49 ef 3d 11 ba 46 3f 2a d4 37 bf
       -0.19350024 0.116839774 0.77627665 -0.7180811
0001e0 71 c0 13 bf e8 f0 0c be 08 9c 49 3d 4a 5d c7 3d
       -0.5771552 -0.13763773 0.04922107 0.0973459
0001f0 07 b4 86 3e af fa 84 3e 5e a3 29 be 67 06 e3 3e
       0.26309225 0.25972506 -0.16566226 0.44340822
000200 d9 e3 90 bf 91 76 07 3f 6e 95 91 3e 8a 8a 6f bd
       -1.1319534 0.5291529 0.28434318 -0.05848173
000210 d8 ea 85 be 82 68 09 3e 8d b4 30 3f 1d 84 6c bc
       -0.26155734 0.13418773 0.690255 -0.014435795
000220 72 3c 73 be d8 d9 d5 3e 57 25 97 3d 6a 5b 63 be
       -0.23753527 0.41767764 0.07380169 -0.2220284
000230 99 d8 2a be 94 55 d3 be 84 74 93 bf 03 da 1c 3f
       -0.16684188 -0.41276228 -1.1519933 0.6127016
000240 cb 8e ff be e4 01 ae bf f0 70 fb 3e b2 49 5e 3e
       -0.4991363 -1.3594327 0.49109602 0.217078
000250 ec d6 d5 bd 3d 37 f0 bd ef f9 59 3e 4d 47 3b 3f
       -0.10441384 -0.11729286 0.21286748 0.7315567
000260 77 66 57 3f 08 cb 05 3f bb 52 6b 3f 4e 6c 7e bd
       0.84140724 0.52262926 0.9192311 -0.062115006
000270 74 40 a8 be 61 18 c2 bd ff d9 4f 3e d1 aa 05 3d
       -0.32861674 -0.09477306 0.20298003 0.032633606
000280 0f d3 79 bd 64 57 05 be c4 6b 4b be 87 e1 0c 3f
       -0.060992297 -0.13021618 -0.19865328 0.5503163
000290 b1 89 25 3f 4f 36 43 bf c0 7b 95 3e 83 f2 43 be
       0.64663225 -0.76254743 0.29195976 -0.1913548
0002a0 d3 51 62 be 75 29 17 bf 73 34 3e 3f 25 ac 22 bf
       -0.22101526 -0.59047633 0.7429878 -0.6354392
0002b0 f8 ef 17 be d3 8a e2 be 2a d5 95 3e 8a cc 56 3d
       -0.14837635 -0.4424654 0.29264194 0.052441157
0002c0 20 24 b7 3e c2 81 00 3d 2b d5 02 3e 80 a9 a8 bc
       0.3576975 0.031373747 0.1277663 -0.020588636
0002d0 ce ee 59 bd b3 03 20 bf 16 6c 6d be ba 24 fd 3e
       -0.053206258 -0.62505645 -0.23185763 0.49442083
0002e0 49 b7 d1 be 74 51 a6 be 3a c5 04 3f 65 af 9f be
       -0.40960148 -0.3248402 0.51863444 -0.31188503
0002f0 cd 44 77 3f 49 3e 70 be 7f 58 29 3f 6b 7f 4d be
       0.96589357 -0.2346126 0.6615066 -0.20068137
000300 51 48 ce 3e bd a9 33 3f e1 33 10 3f 39 98 b1 bc
       0.40289548 0.70180875 0.5632916 -0.02167903
000310 22 8e c2 be 44 6c 90 bd 81 6f 61 3f 7d 5b c1 bb
       -0.37999064 -0.070519 0.88060766 -0.005900799
000320 f3 ff 2b 3f f5 de 26 be 48 b2 0d 3d c1 a2 84 3e
       0.6718742 -0.16295989 0.03459385 0.2590542
000330 fc 15 b6 3e c8 3d 01 3f 6c aa 51 be 73 7b f0 bd
       0.35563648 0.50484896 -0.20475167 -0.11742296
000340 a4 3a 31 bf 71 9a 6e 3f cb bc 9b be cc 05 9f 3b
       -0.69230103 0.9320441 -0.30417475 0.004852986
000350 68 12 90 3e e1 1a 77 3e 61 3b 7d 3d 3e 50 62 bd
       0.28139043 0.24131347 0.061824206 -0.055252306
000360 57 26 1c be 9d d7 39 3f e4 99 8c be 85 bf f7 3e
       -0.15249 0.72594625 -0.2746116 0.48388305
000370 80 c1 4d 3f 27 38 05 3f 02 43 dc 3e 93 c9 cd 3e
       0.8037338 0.52038807 0.43019873 0.4019285
000380 36 4d 4f 3e bc 95 a8 be 60 e6 83 be fc d6 b9 3d
       0.20244297 -0.32926738 -0.257617 0.09074208
000390 a9 48 d0 bc ab 6d b9 bd 60 ae c0 3b 98 00 19 bf
       -0.025425272 -0.09054121 0.005880162 -0.5976653
0003a0 39 07 ec bd 36 18 fc be 56 50 93 be c9 d6 d0 be
       -0.11524815 -0.4923722 -0.2877223 -0.40788868
0003b0 60 de ac 3f 56 53 21 3f 88 c6 0f 3e 6f 0f 79 3e
       1.3505363 0.63017786 0.14040577 0.24322294
0003c0 20 37 11 be fa 43 11 bc 90 d6 26 bf 13 d2 de 3d
       -0.14181185 -0.0088663045 -0.65171146 0.10879912
0003d0 57 01 33 bf e3 7b 12 3f 34 ab 0b 3f d5 49 8f bf
       -0.6992392 0.57220286 0.5455811 -1.1194407
0003e0 14 dd c1 bb 53 c3 17 bf 60 04 45 3e c5 ee 14 3f
       -0.005916247 -0.59282416 0.1923995 0.58176833
0003f0 bc 51 e4 bd e6 a9 29 bf a6 e3 76 be 5c 6b 0c 3f
       -0.11148402 -0.6627487 -0.24110278 0.5485132

network_body.linear_encoder.seq_layers.0.bias f4 [128]
000000 cb 81 71 bd d5 96 53 bd 2d 78 15 bd 76 23 50 bd
       -0.05896167 -0.051657517 -0.03649156 -0.05081507
000010 97 2b 51 bd cf b6 89 bd 81 8d 56 bd 21 79 01 3b
       -0.05106696 -0.06724321 -0.052381042 0.0019756036
000020 34 35 66 3c c0 b1 78 bd 7a 63 b4 bd 46 86 ca bb
       0.014050771 -0.06071639 -0.08808036 -0.0061805574
000030 e0 c1 82 bd 5b 0a ec bb 38 c6 76 bd af 5e 72 bd
       -0.06384635 -0.007203383 -0.06024763 -0.05917233
000040 4a 01 9e 3b 8c e0 f1 3c dc bc 53 bd c8 fa 58 bd
       0.004821931 0.029526018 -0.051693782 -0.05297354
000050 d2 4b fb bc 49 54 ad bd 95 25 9a bd 1e b0 19 3d
       -0.030675802 -0.08463342 -0.075266995 0.037521474
000060 1d 60 4f bd b8 d9 59 bd 04 9e 5f bd ad a7 8b bd
       -0.05062877 -0.05318615 -0.054594055 -0.06819091
000070 a0 e3 97 bc 3e 0d 50 bc 8d 5e 5c 3c af 4b be ba
       -0.018541157 -0.01269847 0.013450277 -0.0014518405
000080 a7 f9 18 bc 67 8f d8 bc da a4 df bc d6 3b 9c bd
       -0.0093368655 -0.026435567 -0.027300287 -0.076286
000090 35 63 89 bc f0 83 45 bd b5 44 05 bd a1 68 b5 3b
       -0.016770938 -0.04822153 -0.032536227 0.0055361544
0000a0 88 08 60 bd c2 b9 bf 3c 3e 6f 2f bb 1b d9 cd b9
       -0.054695636 0.023404006 -0.0026769186 -0.00039262403
0000b0 ea e7 20 3d fd 1e 92 bd 66 b6 2b 3c e5 87 4e 3c
       0.03928367 -0.07134817 0.010480499 0.012605642
0000c0 0a 5d dc 3c 7c 4d f5 bc 21 92 71 bd 97 5f 2d 3c
       0.026899833 -0.029944174 -0.05897725 0.010581872
0000d0 ce ec 0b bd 09 06 33 3d b3 de d8 bc f7 58 1d ba
       -0.03416138 0.043706927 -0.026473379 -0.00060023315
0000e0 15 41 7a bd 73 f9 e1 3c 3a 77 ec 3c 43 1f 32 3d
       -0.061097223 0.027584767 0.028865445 0.043486845
0000f0 ce 53 9c bd b9 e0 8c bc 02 e6 5e bd 8f 24 4a bd
       -0.07633172 -0.017197 -0.05441857 -0.04935127
000100 a9 84 8d bd e8 86 60 3d 37 70 cc 3c 85 2f 89 3d
       -0.069100685 0.054816157 0.024955852 0.06698517
000110 25 68 ac 3c 02 4c b5 bd 17 5a 84 bc cf b0 a8 bc
       0.021045754 -0.08852388 -0.01615624 -0.020592121
000120 c0 eb 85 bc 2c 6c be ba b8 7b 6e bd da ce 89 bd
       -0.016347766 -0.0014528087 -0.058223456 -0.06728907
000130 b9 53 8a bd 81 a6 3e 3d 74 4a 30 bd 32 21 84 bd
       -0.0675425 0.04654551 -0.043039754 -0.06451644
000140 e1 ef 25 bd 1a cd 7b bd 44 a7 71 bd 2e dd 35 bd
       -0.04051197 -0.061474897 -0.058997408 -0.044400387
000150 c0 82 e0 3c a1 e7 98 bd c8 66 1c bd e4 cb 10 bd
       0.027406096 -0.07466055 -0.038183957 -0.035350695
000160 0f db 7f 3c 1c 7a c5 bc e8 ed 74 bd d6 14 55 3d
       0.0156161925 -0.024106078 -0.059797198 0.052021824
000170 61 75 17 bd 31 59 9d 3d 31 bb a7 3c af 2c bd 3c
       -0.036977176 0.076830275 0.020475002 0.023092596
000180 11 33 a7 bc ce 54 ea 3c 33 ac 2e bd 53 5a ff 3c
       -0.020410093 0.028604891 -0.04264469 0.031171
000190 cb 11 d7 bc ad 22 62 bc fa 4b bf 3c 61 b8 6c bd
       -0.026253602 -0.013802213 0.023351658 -0.057793025
0001a0 a5 61 9c bd 99 92 1f 3c 95 ef df bc b6 30 ae bc
       -0.07635812 0.009739541 -0.027335921 -0.021263462
0001b0 34 3b 03 3a 42 6f 39 3d 4e c9 76 3c c0 12 52 bd
       0.00050060754 0.04527212 0.015062643 -0.051287413
0001c0 91 33 38 3b ba 42 e8 bb 0d e2 66 bb cf 4e 56 bd
       0.0028106908 -0.0070880326 -0.0035229952 -0.05232125
0001d0 ce 16 7f bd 33 96 7d bd 74 31 d4 ba 99 26 90 bd
       -0.062277608 -0.06191082 -0.0016189055 -0.07038612
0001e0 f6 5a 3a bd 19 75 d1 bc c5 c9 49 bd c7 21 0b bc
       -0.045496903 -0.025568532 -0.049264688 -0.00849194
0001f0 02 11 7f bd 71 6c 46 bd e7 1c 1f 3d 28 0a 68 bd
       -0.06227208 -0.04844326 0.038845923 -0.05665031

network_body.linear_encoder.seq_layers.2.weight f4 [128, 128]
000000 76 ae b5 3d ec 28 2b 3e 9a 08 86 3d 75 fe 70 3d
       0.088711664 0.16714829 0.06544609 0.05883642
000010 62 fd 3e bd 62 8b ae 3d 6f bf 47 3d d8 dc 83 bd
       -0.046628363 0.08522679 0.04876655 -0.06438607
000020 83 df 90 bc ea 4f 34 3e 38 cf ba 3d 2f 63 31 3e
       -0.017684704 0.1760861 0.09121555 0.17322992
000030 b7 ad 75 3d a1 05 e8 3c f0 88 8f bb 61 c3 e4 3d
       0.05998012 0.028322997 -0.004380338 0.11170078
000040 56 75 cd 3d 6f 0d a3 3d 31 2f 26 3d 8a c5 82 3d
       0.10032146 0.07961547 0.04057235 0.06385334
000050 1d 07 55 3d 02 03 8d 3c be d9 d7 3d 67 a0 76 bc
       0.052008737 0.017213348 0.10539578 -0.015052891
000060 78 49 b6 3c a9 43 e3 bb 91 80 56 bd aa 1b fd bd
       0.02225183 -0.006935556 -0.052368704 -0.12358792
000070 29 6e f1 bb 64 a7 c5 3d ad cc e8 bd 3e e1 2d 3d
       -0.0073678684 0.09651068 -0.11367164 0.042451136
000080 1d 03 70 bd 8f 27 30 be a4 59 de 3d 94 fd 6a bc
       -0.05859672 -0.1720259 0.10856941 -0.014342684
000090 87 18 02 3e 16 db 16 be f7 dd 79 bc 08 dc 05 3d
       0.12704669 -0.14732012 -0.015250674 0.03268054
0000a0 53 71 02 bd e4 08 10 bd ab f0 3a be 68 a5 86 bc
       -0.031846356 -0.03516473 -0.1825587 -0.016436294
0000b0 75 95 92 bd 6d 78 53 bc dc 9b db 3c d5 ba b5 3c
       -0.07157413 -0.01290713 0.026807718 0.022183815
0000c0 38 7f 83 3d 63 03 07 bd ca 87 ea 3d 27 8e 80 bd
       0.064207494 -0.032962214 0.11451681 -0.062771134
0000d0 2a 44 2e be b3 cd 09 3d a7 fe 52 3d 2c d2 0c be
       -0.1701819 0.033643436 0.051512387 -0.13752049
0000e0 62 32 a6 3d dd d6 7e bd a7 ab 53 3b ad 47 c8 bd
       0.081150785 -0.06221663 0.0032298358 -0.09779296
0000f0 9b b2 bf bc 0c 1d 42 3d 1a 6f 0d 3d 13 8c 5a 3e
       -0.023400595 0.047390983 0.034529783 0.21342497
000100 89 39 2d bd b2 3f be bd e6 78 cc 3b f2 eb ee 3c
       -0.042291198 -0.09289493 0.006239998 0.029165242
000110 b1 c0 82 bc 11 ad 21 3e a5 a6 a3 3c 71 ba 75 3c
       -0.015961023 0.15788676 0.019976923 0.014998064
000120 f0 2e 80 3d 00 3c 0d 3e 99 4b 49 3d 04 34 97 3c
       0.062589526 0.1379242 0.04914436 0.01845742
000130 ce ee a4 bd 63 ea 20 3d 46 bb 0b 3d 72 c4 93 3d
       -0.08053361 0.03928603 0.034114145 0.07215203
000140 0a 1f 67 3d b8 a9 b1 3d 07 e9 a8 bd dc f5 3c 3e
       0.056426086 0.086749494 -0.082475714 0.18453163
000150 c3 9e a8 bc 4a b5 17 be 8d 1b d8 3b 97 9b 18 3d
       -0.020583516 -0.1481525 0.006595081 0.037257757
000160 d0 11 11 bd 89 15 96 bd 21 34 bd 3d 7f d8 0e 3d
       -0.035417378 -0.07328326 0.092384584 0.034874436
000170 4f 76 27 3e 6d 51 10 3e f5 6e 50 be 45 d3 81 3c
       0.16353725 0.14093561 -0.20354827 0.015847811
000180 42 df cd 3d 2f 68 f6 bc 35 2f 1a 3e 93 12 db 3d
       0.10052349 -0.030078975 0.1505707 0.10696902
000190 9b 83 a2 3d dc 49 46 3e 4d 51 6e bd 69 ae 3b bd
       0.07935258 0.19364113 -0.058183003 -0.045820627
0001a0 84 60 20 be 9f 90 51 bd 1e fb 93 3c 24 cf 2c bd
       -0.15661818 -0.051163312 0.018064078 -0.042189732
0001b0 1f 1e 9e 3d 51 17 b2 bc 0f 21 d2 bb 61 85 45 bb
       0.07720589 -0.021739634 -0.0064126323 -0.0030139314
0001c0 76 8b 03 be 4c 71 02 3c 63 ab 1b bd e0 9c 4f 3e
       -0.12846169 0.007961582 -0.038005244 0.20274687
0001d0 65 9f 32 3e ea bf d5 3d ab 9a d2 bd 68 92 4f 3c
       0.17443617 0.10436995 -0.10283407 0.012669183
0001e0 5d c6 59 bd 31 41 67 bd 71 83 d3 3d cc a2 a4 bd
       -0.05316769 -0.056458656 0.10327805 -0.080388635
0001f0 94 2c 51 3e d7 9f 10 bd 80 03 83 bd 7b e1 92 3b
       0.20427161 -0.035308685 -0.06397152 0.004482446
000200 e2 9f f4 3c fb ff 2a 3d 78 7d 59 bd c5 81 af bd
       0.029861394 0.04174803 -0.053098172 -0.085696734
000210 8e 75 df 3c 8e 66 2b 3d f0 3e 63 bc 8c ae 90 3d
       0.027277734 0.04184585 -0.013869986 0.07064542
000220 3f ba 27 be b0 3e 45 bd a5 34 49 3d 6f b2 34 3d
       -0.16379641 -0.048155487 0.04912247 0.04411548
000230 a6 0f 7d 3a f6 f2 36 3d 38 36 12 3c 84 5d 88 3c
       0.0009653516 0.0446653 0.00892406 0.016646154
000240 32 dc 25 bd 0a db f0 3c 34 45 82 3c c1 66 18 bd
       -0.040493198 0.029401321 0.01590214 -0.03720737
000250 50 83 57 3e 10 e2 ec 3d 28 e3 84 3d c9 40 8b 3d
       0.21046185 0.115665555 0.06488639 0.06799466
000260 09 53 09 be 59 a8 bd bd 1a c3 c9 bd e2 b0 ab bc
       -0.13410582 -0.092606254 -0.09851666 -0.020958368
000270 27 6a e6 3d 8f 34 8b 3d af d8 29 3c dd 7c f9 bd
       0.11250716 0.06797134 0.010366603 -0.12182019
000280 a6 c1 6f be de 1d c8 bd 1c 00 91 bd 9f 02 83 3c
       -0.23413715 -0.09771322 -0.07080099 0.01599246
000290 16 de 64 3c ca 00 12 3c aa 3e c9 bd 19 d8 c8 3c
       0.013968965 0.008911321 -0.09826405 0.024517106
0002a0 b9 86 eb 3c 64 d2 66 be 44 a2 fc bd 9f c5 8d bc
       0.028750764 -0.22541195 -0.12335637 -0.017306147
0002b0 50 3a b2 bd 60 51 99 bd af 56 0f bd 96 6b fe bc
       -0.087025285 -0.07486224 -0.034994777 -0.03105716
0002c0 9c d3 e4 3c f4 a0 10 3d 45 d9 80 bc 34 db 67 3d
       0.027932934 0.035309747 -0.015728602 0.056605533
0002d0 22 bf 15 bc 3e f1 26 3b 01 60 e6 3d 0a fd 09 bd
       -0.009139808 0.0025473381 0.1124878 -0.033688582
0002e0 c5 e1 2a 3e 6c 35 aa 3d d8 0d 46 bd 59 43 86 bd
       0.16687687 0.08310971 -0.048353046 -0.06555814
0002f0 e0 f2 9a bd d1 9c fb bd 4a 84 ae bd bb bf 21 bd
       -0.07565856 -0.1228577 -0.08521326 -0.03948949
000300 1a 0a c3 3d e5 64 3e bc 56 36 5b 3d 82 aa 88 3d
       0.09523411 -0.011620735 0.053518616 0.06673147
000310 8c b6 cf bd 3f 73 b9 bd 4c 0e 57 be b2 bb 07 be
       -0.1014224 -0.090551846 -0.21001548 -0.13255194
000320 10 e1 ed 3d fd 27 2a bd c0 b7 86 bd 46 06 07 bc
       0.11615193 -0.041542042 -0.06578016 -0.008241242
000330 9e 2c f8 bd 3b 50 d1 3d 4f 91 36 3d a5 01 e2 bd
       -0.12117885 0.10220381 0.04457217 -0.1103547
000340 3a ff 39 bd c0 fc 10 bd fa 7d 37 3d 94 02 af 3c
       -0.04540942 -0.03539729 0.044797875 0.021363534
000350 99 37 59 bd a7 71 29 3d e1 5f fb bd c4 32 be 3c
       -0.053031538 0.041368153 -0.12274147 0.023217566
000360 fd 01 8c bd 0d db bf 3d d8 44 c0 bc cf 9c 77 bd
       -0.06836317 0.093679525 -0.023470327 -0.06045228
000370 1e 5e 18 be e2 ac 9c bd f8 17 58 bb 14 28 3e 3d
       -0.14879653 -0.07650162 -0.003297327 0.04642494
000380 c1 2b 17 3c 0f 63 a2 3d 8d de 23 3e f4 2d a5 bd
       0.00922674 0.0792905 0.16002865 -0.080654055
000390 e7 0f 2a be d6 80 f5 3c f6 95 aa bd a1 f5 a4 3c
       -0.16607629 0.02996866 -0.08329384 0.020136656
0003a0 7d e2 03 3e 3b d1 fc bc 5b ff f9 3d 31 ea 97 bc
       0.12879367 -0.030861488 0.12206908 -0.018544288
0003b0 43 5f 8b bd a4 58 13 3d 67 79 39 3d be 34 c5 3d
       -0.06805279 0.035973206 0.045281794 0.096292004
0003c0 6f d0 a3 bc 5c 6f c0 3d ce a8 6a 3d 4a 38 74 bc
       -0.01999685 0.0939624 0.05728989 -0.0149059985
0003d0 01 5d 3e bd 70 e1 87 bd bb 9c b6 bd 7b 40 f6 3d
       -0.046475414 -0.06634796 -0.08916613 0.120240174
0003e0 ad e0 a3 bd dd be ad 3d 78 87 93 3d 7b 39 00 bd
       -0.08001838 0.0848367 0.07203573 -0.031304818
0003f0 18 4d 04 bd fe fc 10 be 88 32 9e 3d 7c d9 9c bc
       -0.032300085 -0.14159009 0.07724482 -0.019146673

network_body.linear_encoder.seq_layers.2.bias f4 [128]
000000 c1 f3 3a bd 05 74 19 bc 44 c6 94 bd 69 9b de bc
       -0.045642618 -0.00936604 -0.07264379 -0.027173715
000010 f2 dc 3f 3c e7 da 3b bb 43 fa 72 bd c8 9e 74 3c
       0.011710392 -0.0028664412 -0.0593207 0.0149304345
000020 97 b6 84 bd 32 53 da bb a6 86 51 bd fc 01 0a bd
       -0.06480139 -0.0066627497 -0.0511538 -0.0336933
000030 d5 d2 a7 3c 44 52 fb bc 47 8a 80 3c f0 82 21 3b
       0.020486275 -0.030678876 0.015690936 0.0024644695
000040 49 70 e7 bc 2c e6 0c bd 07 46 da 3c b7 8d a6 bc
       -0.028251784 -0.034399197 0.02664472 -0.020331247
000050 39 f0 e4 bb 34 5f 49 bc f2 11 58 bd ee 37 1e 3c
       -0.0069866446 -0.012290765 -0.05275149 0.009656889
000060 dc 3e 6b 3c b1 d0 1f 3d 52 2e 3b bd aa 6a 9b 3c
       0.014358249 0.039017383 -0.04569847 0.01897176
000070 2c a5 14 3d 1c d6 40 3d ea 08 15 bd 4e f0 0e 3d
       0.036290333 0.04707919 -0.036385454 0.03489714
000080 56 bf 3e 3d 49 48 08 3c a6 86 1f 3d 2e 64 36 bc
       0.04656919 0.008318015 0.03894677 -0.011132283
000090 bf 62 a5 bd 8f 60 70 3c d2 82 02 bd 53 58 64 bd
       -0.08075475 0.014671459 -0.03186304 -0.055748295
0000a0 ce 91 59 3b ae a2 e0 bc bb d1 62 3a 54 8a e5 3a
       0.0033198479 -0.027421322 0.0008652468 0.0017512538
0000b0 d1 a1 55 bd 82 51 bf 3c 26 1d 43 bd 89 29 fe bc
       -0.052156273 0.023354296 -0.04763522 -0.031025665
0000c0 0a 4c 59 bd 39 60 5c bd f9 a5 db 3c 5b 27 96 bc
       -0.053051032 -0.053802703 0.02681254 -0.018329313
0000d0 a4 22 50 3c 32 86 72 3c 18 63 84 bd 25 86 ca 3c
       0.0127035715 0.0148025025 -0.06464213 0.024722168
0000e0 e9 07 a7 bd 86 c7 27 bd 8e 36 2f bd 85 0a d9 bb
       -0.081558056 -0.040961765 -0.042776637 -0.0066235685
0000f0 4b 9a 1f 3d 17 1b 53 bd f9 8b 72 bd 15 6f 8a bd
       0.038965505 -0.051539507 -0.05921552 -0.067594685
000100 10 2b 37 bb 52 30 8f bc 41 a2 82 bd af 02 65 bd
       -0.0027949251 -0.017479096 -0.06378604 -0.055910762
000110 40 61 26 3d 8b 5f 4e bd d7 f5 b5 bc 07 cf 94 3b
       0.04062009 -0.050384086 -0.022211952 0.004541281
000120 de 92 81 3c 8f b7 f9 bb ab 73 3f bc 44 19 51 3d
       0.015817102 -0.007620759 -0.011685292 0.051049486
000130 0d f2 c1 bc db 04 1a bd 3b dc 8f bd 8f 49 90 bd
       -0.02367499 -0.037602287 -0.070244275 -0.0704528
000140 53 3b ab 3c d6 61 a6 3b 99 4e 26 3d 79 95 74 bd
       0.020902311 0.005077581 0.0406023 -0.05971286
000150 c1 54 8a 3d 7e 96 9f bd 0d ec b9 b9 d6 48 62 3b
       0.06754447 -0.07792376 -0.0003546182 0.0034528277
000160 16 70 5a bd 11 e6 94 3d 7e bb 3f 3d 86 8e 88 bc
       -0.05332955 0.07270444 0.046809666 -0.016669523
000170 32 db 27 bd 3d 13 88 3c 66 a2 bf 3c 9f 6f 38 bd
       -0.040980525 0.016610736 0.023392867 -0.045028325
000180 b3 19 88 bd dd c0 09 3d c2 87 16 3c 8d 0c a7 bc
       -0.06645527 0.033631194 0.009187641 -0.020391727
000190 8d 6f 81 3d 3c fa 6a ba 3b 2a c2 3c 67 65 83 bc
       0.06320105 -0.00089636794 0.023701778 -0.016039563
0001a0 31 4d ed bb 6c 3c 1a bd 91 e5 53 bd df 23 37 3c
       -0.007241868 -0.03765528 -0.051732603 0.011177986
0001b0 82 e3 24 bd 2b d3 df bc 70 9d 0a bd 02 77 e2 bc
       -0.04025603 -0.027322372 -0.03384155 -0.027644638
0001c0 ad 9a ce 38 fb 62 3d bc 96 5e db bc 68 1d bc bc
       9.851656e-05 -0.011559243 -0.0267785 -0.02296324
0001d0 be ce 7a bd ee 66 3b 3c c0 6c a5 bd d5 bc 63 bd
       -0.06123232 0.011438115 -0.08077383 -0.055600006
0001e0 48 6d 6f bd ce 83 de 3c 3c 13 ef 3c 11 d4 3a 3d
       -0.058453828 0.027162459 0.029183976 0.0456124
0001f0 8e ce 5c bd 20 5e 01 3c d4 99 8e bc 19 43 11 bd
       -0.053907923 0.007895976 -0.017407335 -0.03546438

distribution.log_sigma f4 [1, 2]
000000 c5 04 a5 bc cd 30 87 3b
       -0.020143876 0.0041256906

distribution.mu.weight f4 [2, 128]
000000 42 e4 43 3c 02 15 73 bb b2 f7 bd 3c 74 13 16 3b
       0.011956276 -0.003709138 0.0231894 0.0022899779
000010 50 84 b0 ba c4 1c 8c bc 40 06 dc 3b 0f 44 12 bc
       -0.0013467167 -0.01710356 0.0067146122 -0.008927359
000020 ee fd 3e 3c ad b7 c3 ba 0a bc c4 3b 2e b1 7b ba
       0.011657221 -0.0014932059 0.0060038613 -0.0009601292
000030 c0 2b 92 ba 85 c0 80 3c 37 93 e9 37 3a ed 61 bc
       -0.0011151955 0.0157168 2.7844317e-05 -0.013789469
000040 fe 90 13 3a 11 5f f8 3a 03 4b fc ba 38 c3 7e 3c
       0.00056292105 0.001894923 -0.001924843 0.015549473
000050 01 0d 84 3a 8a 59 ac 39 9a 2c 03 3c b4 99 86 bb
       0.0010074676 0.00032873108 0.008006239 -0.0041076783
000060 b8 59 cc b9 33 64 3d bc 93 dd c8 3b 42 4c a3 3a
       -0.00038976758 -0.011559534 0.0061299293 0.001245864
000070 5d c6 cb b8 bc 2b fd ba 0e e5 11 3a e4 cf 2e bc
       -9.716742e-05 -0.0019315402 0.0005565443 -0.010669682
000080 4b b1 39 bd b6 15 65 bc 9c 25 c1 bc 3a 72 04 3a
       -0.045335095 -0.013982227 -0.023577504 0.00050524215
000090 52 ef 48 3c f6 ec 99 ba aa 14 d0 3a a3 e5 b6 3c
       0.01226409 -0.0011743593 0.0015875299 0.022326296
0000a0 1a 3a b7 3b aa 40 8f 3a 6d 87 ac ba 62 5a f0 ba
       0.005591643 0.0010929306 -0.0013162919 -0.0018337483
0000b0 d5 84 b8 3b a9 0d d7 3a 95 12 20 3c ce 16 00 bc
       0.005631069 0.0016407269 0.009770055 -0.007817937
0000c0 44 0f 11 3c 07 ae 31 3c 7c 56 57 bc b9 65 bd 3c
       0.008853737 0.010844714 -0.013143178 0.023119794
0000d0 49 f4 96 3a a0 01 86 bc 91 32 13 3c cf 6b a3 bc
       0.0011516894 -0.016358197 0.008984224 -0.019948868
0000e0 57 8d 94 3c 5e 1f b8 3b e3 45 0c 3c 4c af 89 bb
       0.018133802 0.0056189736 0.008561584 -0.004201805
0000f0 75 f2 e1 bb 77 67 8b 3c cf d7 96 ba a7 5c 1e 3c
       -0.006895358 0.01701711 -0.0011508408 0.009665645
000100 99 a5 4f bb a6 1b 71 3c 58 a4 f1 3b 48 27 ec 3b
       -0.0031684397 0.014716065 0.0073743276 0.007206831
000110 42 b9 0b bd d9 9b 50 3b bb 9d 56 3b bf 65 c2 3a
       -0.034112222 0.0031831174 0.0032747823 0.0014831348
000120 b9 ec 18 bb 9e 11 e5 3a 2d a3 3e bb c3 1c 8e bb
       -0.0023334457 0.0017476564 -0.002908896 -0.0043369248
000130 93 38 fa ba 3a fa 1d 3b 14 6e 0e 3c 69 74 2d 3c
       -0.0019090347 0.0024105445 0.008693237 0.010586836
000140 51 39 1c ba df c4 cf 39 55 c6 e6 ba 94 42 42 3a
       -0.00059594685 0.00039628797 -0.0017606715 0.00074104336
000150 b1 da 07 bd b9 fd a8 3c 24 fe a0 ba 0c 9d 94 ba
       -0.033167545 0.020628797 -0.0012282771 -0.0011338308
000160 2a 35 a8 3b 9c 7e c3 bb fd d7 c5 bb f9 50 65 3c
       0.005133291 -0.0059660207 -0.0060377107 0.013996356
000170 1a bb 65 3b 3e 5e 13 bb db 26 eb 3a 65 76 b4 3c
       0.0035054148 -0.0022486593 0.0017940657 0.022029111
000180 56 33 4b 3d 5e 69 e9 ba 8e e7 22 bb 21 63 61 bb
       0.049609505 -0.0017807891 -0.0024857256 -0.003439136
000190 75 08 a3 bc e6 cd 59 3b e5 b4 1f 3a b9 b0 49 3a
       -0.019901494 0.0033234297 0.0006092324 0.0007693875
0001a0 fc 8d a6 3b 1c 1f 78 3b 77 e1 45 3c b2 d4 1f 3a
       0.005082844 0.003786034 0.012077681 0.0006097063
0001b0 f7 b2 4c 3b ec 78 04 3b 33 e7 3e 3a dd 9a 89 3b
       0.00312346 0.0020213677 0.0007282376 0.0041993693
0001c0 98 c8 c5 3a 58 42 cd b9 5c fe cf 39 88 fe b1 3b
       0.0015089689 -0.00039150077 0.0003967163 0.005431954
0001d0 45 7e 9b 3c 27 0a 8b bb a3 fd 65 3c dc 17 b9 3b
       0.018981108 -0.0042431536 0.0140375225 0.005648596
0001e0 3e 5b 18 3c fc 09 90 bb 17 a6 8f bb 0f 40 6c bb
       0.009299098 -0.0043957215 -0.004383813 -0.0036048924
0001f0 e3 bd 34 3c c6 80 28 3b f3 52 31 3a b1 e5 19 3a
       0.011031601 0.002571152 0.00067643746 0.00058707135
000200 64 7a 1f bc 78 f2 89 bc f1 b6 2f bc d0 a3 b5 bb
       -0.00973377 -0.01683925 -0.010724769 -0.0055432096
000210 b3 3c 9f 3a ef 15 be bc 69 ed b9 bc 29 21 b4 3b
       0.0012148827 -0.023203818 -0.022696214 0.005497117
000220 73 2f 83 bc 5b 34 25 3a 0d e7 a4 bb 0b 9b 9b bb
       -0.016013836 0.0006302052 -0.005032426 -0.004748707
000230 a2 22 52 39 3c 81 7f bb f7 1d 4c 3b 7f 2d bd bb
       0.00020040062 -0.0038986942 0.003114579 -0.005773246
000240 57 a9 df 3a d2 09 f5 bb 52 5b 04 3c 80 32 17 3c
       0.0017064017 -0.0074779773 0.008078413 0.009228349
000250 53 0b 0a 3b c8 df 96 39 e7 5c 0d bc 80 25 1b 3b
       0.0021063879 0.0002877696 -0.008628107 0.0023673475
000260 ca 89 95 3b 58 c6 1e 3b 3e 58 2c bb d9 e8 1a ba
       0.004563545 0.0024227109 -0.0026297714 -0.0005909331
000270 c4 4e 2b ba d8 a8 88 3b c5 e9 08 bd 38 ad dc 3b
       -0.00065348693 0.0041705184 -0.033426065 0.0067345165
000280 a0 c3 dc bb 21 99 29 bc cc 18 35 bc f6 e4 40 3a
       -0.0067371875 -0.01035145 -0.011053275 0.00073583366
000290 8f f5 aa bc 7c 3d 3a 3b ec f3 e9 bc 07 dc 29 bc
       -0.020869045 0.0028417995 -0.028558694 -0.0103674
0002a0 e2 1c a6 3b 94 58 37 ba af 1e 04 38 1d 6e 12 b9
       0.005069361 -0.0006994095 3.149983e-05 -0.00013964665
0002b0 d5 01 9f bb 6d 67 cf b8 26 6c c8 bc 88 02 3d bc
       -0.0048525133 -9.889794e-05 -0.024465632 -0.011536248
0002c0 95 3d 6e bc a4 66 e1 bc d0 8a 41 3c 4f c0 6a bb
       -0.0145410495 -0.027514763 0.011812881 -0.0035820191
0002d0 0b b8 12 3a ee 06 e0 bb d9 a0 f7 bc e2 4e ff bb
       0.00055968825 -0.0068367636 -0.030228065 -0.007791386
0002e0 96 bf 0a bd 63 d1 4f bb 0d 08 04 bd cc 0e bb bb
       -0.033874117 -0.0031710498 -0.03223424 -0.005708551
0002f0 79 66 3b 3c 06 62 5d bc b3 dd c3 ba 76 b5 63 bc
       0.011438006 -0.01351214 -0.0014943391 -0.013898244
000300 40 63 b1 3a 72 76 4f 3b d6 e1 d5 bc 5b fc 0c bd
       0.0013533607 0.0031656292 -0.026108664 -0.034420352
000310 9c 7b 71 3c ab 32 c9 ba 7c 70 a8 bb 34 ed fb 38
       0.014738943 -0.0015350183 -0.0051403623 0.00012012795
000320 13 19 88 3a b3 c7 86 3a f9 53 29 bb 6d 5f 98 3c
       0.0010383449 0.0010282904 -0.0025837405 0.01860019
000330 fa 2a 5f bc 85 4b a0 bc cb 9b b1 bc e8 58 66 bc
       -0.013621086 -0.01956726 -0.021680733 -0.014059283
000340 7b 79 2f 3b ae 89 58 39 1b f6 71 3b a6 de 6f bc
       0.002677529 0.00020650655 0.0036920372 -0.014640486
000350 0f 0c d4 3c 99 45 27 bd 31 0c 29 3b 8d 85 47 3b
       0.025884656 -0.040837858 0.002579462 0.0030444593
000360 95 50 f2 bc 73 f1 f0 3b 5e a2 ad 3b 16 22 fe ba
       -0.02957944 0.0073530017 0.0052988967 -0.001938882
000370 51 d2 83 bb 92 cb a5 ba 93 73 c9 3a 78 f5 99 bc
       -0.0040228744 -0.001264917 0.0015369527 -0.018793806
000380 d1 5c 71 bd 4b 59 1d 3b e0 c9 a7 3a 3c df 94 bc
       -0.058926407 0.0024009522 0.0012801252 -0.018172853
000390 65 44 68 bb ed ee 95 3a 26 35 80 3c 37 20 fd 3a
       -0.0035441157 0.0011439003 0.015650343 0.0019311969
0003a0 78 39 9e 3b d3 02 00 bd 18 ca 3d bd c3 b2 61 3b
       0.004828628 -0.031252693 -0.04633531 0.0034438826
0003b0 01 c4 86 ba 6b 2a 12 bb 5f 52 fb bb a3 7a 64 39
       -0.0010281802 -0.0022303115 -0.0076697315 0.0002178946
0003c0 a4 0f ea 3a bc 4d 33 3b 2f de d0 bb 73 ab 86 bb
       0.0017857444 0.0027359566 -0.0063741426 -0.004109794
0003d0 da d9 62 bd 63 72 05 3b 9e cd df bc 18 4a 8f bc
       -0.05538354 0.002036237 -0.027319726 -0.017491385
0003e0 92 d8 48 bd c2 d2 7a 3c 31 e2 21 bb ba 0b 7a 3b
       -0.049034663 0.015309038 -0.002470147 0.0038153962
0003f0 42 89 a7 bc 8f 93 2c 3b aa 8b 86 3a 5c 07 9c 39
       -0.020451192 0.002633307 0.0010265012 0.00029760122

distribution.mu.bias f4 [2]
000000 7a 93 29 bd 41 8d 27 3d
       -0.04140041 0.040906195

critic.network_body.vector_processors.0.normalizer.running_mean f4 [4]
000000 ab df 1e 41 b1 45 51 40 33 37 3f c1 91 63 af 40
       9.929606 3.2698786 -11.950976 5.480904

critic.network_body.vector_processors.0.normalizer.running_variance f4 [4]
000000 79 34 c7 42 8d 14 3b 41 9d 18 22 48 52 89 91 47
       99.602486 11.692517 165986.45 74514.64

critic.network_body.linear_encoder.seq_layers.0.weight f4 [128, 4]
000000 e0 02 f5 3e d7 e5 a0 3e b2 3c d5 3e c4 3f 3c 3f
       0.47853756 0.31425354 0.4164787 0.735348
000010 ff 8d 3e 3f 65 ab bf 3d 6c 1b 79 3e 89 73 26 bf
       0.7443542 0.09358863 0.24326867 -0.6502004
000020 9f 37 2e 3f f6 c2 0e bf 2f 8e 8e 3e c9 f9 17 3d
       0.6805362 -0.55766237 0.27842852 0.037103448
000030 c9 e8 00 3e 88 00 ce 3f 38 30 4e 3f f2 fc 0e be
       0.125888 1.6093912 0.80542326 -0.13963678
000040 47 fe 97 bf d5 a4 6f bd 8f 2f 9f be 17 7b fb bf
       -1.1874474 -0.058506805 -0.31090972 -1.9646939
000050 a3 ad 57 3f 8a d5 6a bf ea 02 11 bf 01 2f e7 bd
       0.84249324 -0.91732085 -0.5664507 -0.11288262
000060 5c 2a b5 3e 34 10 97 be 02 6b 80 3d 65 c3 97 bf
       0.3538388 -0.2950455 0.0627041 -1.1856505
000070 33 af 79 bf e6 6b 01 3f 12 7c a6 be b5 79 fd be
       -0.9753296 0.50555265 -0.32516533 -0.49506918
000080 9f 60 2c be 5d 05 8b bd ee 74 10 3f 0d 85 41 3f
       -0.16833733 -0.06788132 0.5642842 0.75593644
000090 8a 9b bd 3e 84 10 dc 3d cc 3b ef bd e0 a2 37 be
       0.3703273 0.107453376 -0.11681327 -0.17933226
0000a0 d1 9e 08 3f f9 a0 af be 2d d7 73 bf cb 47 a9 bf
       0.53367335 -0.343025 -0.9525021 -1.3225034
0000b0 ae da a6 3d b4 50 7c 3e ce a5 ee 3c 75 4f f6 3d
       0.081471786 0.24640161 0.029131796 0.12026874
0000c0 e1 d1 a0 3d aa c5 2d be ab 88 a9 3d 6f bd 94 bd
       0.07852531 -0.16969934 0.082780205 -0.07262694
0000d0 61 1f bc 3e 58 9a 1c be 3d 00 97 3e 28 9f 2e 3f
       0.3674269 -0.15293252 0.2949237 0.68211603
0000e0 ce 5f 29 3f 6e a4 a4 3f b0 b7 96 bf 2a 0d ae 3d
       0.6616181 1.286268 -1.1774807 0.084986046
0000f0 93 bb 15 3e 04 e5 60 3e b2 9c f6 3e dc e9 53 3f
       0.14622335 0.21962363 0.48166424 0.82778716
000100 47 26 0e 3f e9 da 16 3e 1a 78 9e be 78 9b 57 3f
       0.55527157 0.14731945 -0.30951005 0.842216
000110 50 33 1b bf 1a 49 33 3e ab d9 9e 3e 26 e8 ab be
       -0.6062517 0.17508355 0.31025442 -0.33575553
000120 3f 5c f4 3e 0e ed 2b 3f ed 0f c5 3e 9e 51 d1 3e
       0.47726628 0.6715859 0.38488713 0.4088258
000130 94 5b dd 3e 69 17 b2 3e 4d 2c 0c be a0 02 e7 3c
       0.4323393 0.34783486 -0.13688774 0.028199494
000140 fd 30 0c 3e 6a 0b 93 3e 65 68 60 bf 84 f7 1e 3f
       0.13690563 0.28719646 -0.87659293 0.6209643
000150 e2 1c f3 3d 8b 99 d8 be e3 73 45 be 12 6a 30 3f
       0.11870743 -0.42304644 -0.19282489 0.6891185
000160 b5 ae aa be b0 26 95 be 74 fc 84 bf ca dc 53 bf
       -0.33336416 -0.2913108 -1.0389543 -0.8275877
000170 4f a9 cf bd c3 d1 0c be bc 75 85 bf 24 58 6a bf
       -0.10139715 -0.13751893 -1.0426555 -0.9154074
000180 b6 9a 4c 3e ad 2e 02 3e 52 ed cc 3d 0b 22 34 be
       0.19980893 0.12713118 0.10006203 -0.17591111
000190 47 15 5a bf 44 3d e9 3d 76 c3 5f 3e ac 1b 6c 3e
       -0.85188717 0.113886386 0.21851906 0.23057431
0001a0 05 6d 81 3f e4 52 fe be 58 eb 86 be 54 f0 c3 3e
       1.0111395 -0.49672616 -0.26351428 0.38269293
0001b0 96 31 a4 3c bf c8 f7 3d 59 4f 95 3e af c7 ab 3e
       0.020043176 0.12098836 0.291621 0.33550784
0001c0 5c 43 7b be 37 fe 59 3c 7b 70 03 3f c5 f0 be 3c
       -0.24537414 0.013305238 0.51343507 0.023308167
0001d0 a2 3d 24 3e 1d 07 62 bf 93 e0 c7 bd c1 f8 20 3f
       0.16039136 -0.88292104 -0.09759631 0.6287957
0001e0 1f 5d 85 be 9a 62 e8 3e b4 9a f5 be 17 00 d3 bc
       -0.26047608 0.45387727 -0.47969592 -0.025756879
0001f0 ae 77 97 3e 78 42 36 bf 7e f1 25 be 44 03 bc be
       0.29583496 -0.71195173 -0.16205403 -0.3672124
000200 ce 93 a3 3e 7d a2 91 be 94 13 e3 3e 5e f7 35 3f
       0.31948704 -0.2844428 0.44350874 0.7108058
000210 84 2a 24 bf 9a f1 9f 3e 9e 79 cb 3e b8 ba 69 bf
       -0.64127374 0.31239015 0.39741224 -0.91300535
000220 23 41 fc bd db b3 1d bd f4 4c d9 3e 2c 14 0f bf
       -0.12317111 -0.0385016 0.42441523 -0.55890155
000230 e7 b7 c9 3d 4e 0d 4a be 48 f3 c8 3e 44 e9 31 3e
       0.0984953 -0.19731638 0.3924811 0.1737414
000240 de 23 6e 3f 6c d1 87 be 0f 35 19 be d2 ba cf 3e
       0.9302348 -0.26526964 -0.14961646 0.4057222
000250 7e 4d f9 bd cd 4d 6b bb f0 88 e8 3e 9b af 32 be
       -0.121729836 -0.0035904527 0.45416975 -0.174498
000260 b4 f2 4b bd ef 84 c1 be 6e 8e 0c 3e a2 de a7 3e
       -0.049792007 -0.37796733 0.13726208 0.32787043
000270 ef 0f 47 3d b1 8e e9 3d 3a 40 26 be b4 35 9c be
       0.04859918 0.11404169 -0.16235438 -0.30509722
000280 a8 71 fd be c1 72 61 bf 4c 62 28 3f 2c 69 49 3e
       -0.49500775 -0.88065726 0.6577499 0.19669026
000290 f1 62 b6 3d b3 c5 87 3e 13 28 1a bf 96 6a f3 3e
       0.0890559 0.2651802 -0.602174 0.47542256
0002a0 1a 05 cb be cb cb b7 3e 6b 1e 89 bc 60 68 3b 3d
       -0.3965233 0.3589767 -0.016738137 0.045753837
0002b0 60 1c 2d 3f 37 df 67 3f f2 3c b4 3d 80 23 df 3c
       0.6762142 0.90574974 0.08800687 0.027238607
0002c0 1e 68 0a be c8 b7 04 be 48 fc 9e bd 33 08 12 bf
       -0.1351628 -0.12960732 -0.077629626 -0.5704376
0002d0 05 ab 88 be 5b 55 ee bd 45 f7 01 be e3 44 4a bf
       -0.26692978 -0.11637374 -0.12691982 -0.7901136
0002e0 0b ed 82 be a3 29 cd bc 9a 55 da be bd 24 28 bf
       -0.25571474 -0.025044268 -0.42643434 -0.6568106
0002f0 7c 12 aa 3e 59 84 7f be 46 3c 20 3f 60 20 55 be
       0.33217227 -0.2495283 0.6259197 -0.20813131
000300 3f 4e 01 bf d3 20 17 3e 5f 5b 20 bc ea a4 9a be
       -0.5051002 0.14758615 -0.00978741 -0.30203944
000310 29 8c f9 be 0b e5 bf 3e ec 51 5a bf cc 00 2e bd
       -0.48739746 0.37479433 -0.8528125 -0.04248123
000320 3f 63 d7 3d f0 7d 3e bf 1f e5 2b bf ae a7 69 bd
       0.105169766 -0.74410915 -0.67146486 -0.057044677
000330 cd 8d 8b be d9 52 1d be ab bf 08 bf 15 b4 31 bf
       -0.27256623 -0.15363635 -0.5341746 -0.6941541
000340 d3 13 77 bd fc 2a 32 3e 28 7e 14 bf 09 fa 01 be
       -0.06032164 0.1739921 -0.58005 -0.12693037
000350 c0 49 8d 3e 69 81 0a 3f de 52 8f 3e ce 01 a3 be
       0.2759533 0.54103714 0.2799291 -0.31837314
000360 03 db 59 be 98 a1 ab 3e c7 df 3c be 35 95 4f 3e
       -0.21274953 0.33521724 -0.1844474 0.20271762
000370 78 2c 54 bf 50 a0 71 3f 36 32 62 3e 8f 6c 0e 3e
       -0.82880354 0.9438524 0.22089466 0.139086
000380 36 f9 06 3d ff 4d 11 be c6 bb 3a bf 8b 4b d4 be
       0.03295251 -0.1418991 -0.7294277 -0.41463885
000390 87 cf 57 bc ca 80 b3 3e 58 0d a8 3d 89 2c b7 bb
       -0.013172037 0.35059196 0.0820567 -0.005590026
0003a0 16 4d 00 bd 35 51 2c 3e b2 70 17 3d f0 33 78 3e
       -0.031323515 0.16827853 0.03697271 0.24238563
0003b0 56 ec 5d 3f e3 a5 df bc e3 fd 23 bf 06 a8 f8 3e
       0.86688745 -0.02730078 -0.64059275 0.48565692
0003c0 08 4b b1 3d 1e 2a 3f 3e 8e 0d 04 bf 23 d6 55 be
       0.08656889 0.1866841 -0.5158318 -0.20882468
0003d0 b5 9e 65 3e fc ed 54 3f 69 03 48 be a7 a5 89 be
       0.22423823 0.83175635 -0.19532551 -0.26884195
0003e0 15 81 09 3f a8 48 c1 be af a8 b9 3b 8a a9 db 3e
       0.5371259 -0.37750745 0.0056658606 0.42902786
0003f0 89 f0 c8 be c5 4e 09 bf d4 95 0b 3e 55 e8 86 bd
       -0.39246014 -0.5363582 0.13631374 -0.065872826

critic.network_body.linear_encoder.seq_layers.0.bias f4 [128]
000000 96 b0 07 3d 98 92 9c 3c b4 73 16 bd 4f dd c3 3c
       0.03312739 0.01911287 -0.036731437 0.02390924
000010 c6 31 83 bd 24 ed 7f bc f0 47 1e 3d 9f 46 99 bc
       -0.06405978 -0.015620504 0.038642824 -0.018710433
000020 59 92 ac 3c 0a 06 49 bd d1 e3 6d 3a 7a df 35 bd
       0.021065878 -0.049078025 0.000907478 -0.044402577
000030 0b ed 27 bd 26 3d 25 bd 09 d7 e0 3c 81 79 a7 3c
       -0.040997546 -0.04034152 0.027446287 0.02044368
000040 d0 b7 4e bd cc 3d 3c bd 71 f1 0e 3d 35 26 66 bc
       -0.050468266 -0.04595737 0.034898225 -0.014047195
000050 de 5a cf 3c 3f ac 63 3c ae 95 86 bd fd b8 a2 ba
       0.025311884 0.013896047 -0.06571518 -0.001241475
000060 85 0b 1b bd 44 bf 84 3c 8d 31 b3 bc 43 ce 66 bd
       -0.037852783 0.016204484 -0.021874214 -0.05634905
000070 5b 0d 03 3c 1e 7b 8d bd 6e 50 54 bd 3a 90 73 3d
       0.00799879 -0.06908248 -0.051834516 0.059463717
000080 31 3e bb bd 7e 57 7a bd 32 26 0c bc 0b e8 e0 3c
       -0.091427214 -0.061118595 -0.008554028 0.027454397
000090 82 3b 17 3d cd 9f 13 3d fe 4c 1c 3d 8e d2 99 bd
       0.036921985 0.03604107 0.038159363 -0.07510863
0000a0 ee 5e 90 bd 5e 65 c7 bd 30 86 ce 3c e2 07 de 3c
       -0.070493564 -0.09736131 0.02521047 0.027103368
0000b0 47 9a de 3c db 4b 5e 3c d7 7f af 3c 4d 97 42 bd
       0.027173175 0.01356789 0.021423263 -0.047507573
0000c0 5b bd 34 bd 9c ab 8d bd b1 9b 2a bd 8b 1e e3 3b
       -0.044125896 -0.069174975 -0.041652385 0.0069311312
0000d0 c4 2c 46 bd c1 0e 38 bd c3 4d 84 3b 72 82 65 bd
       -0.048382536 -0.044935945 0.00403759 -0.056032605
0000e0 e3 89 80 bd d7 e3 4f bd ea 0f 38 3d 25 b6 83 bd
       -0.062763 -0.050754394 0.04493705 -0.06431226
0000f0 38 d6 18 bc 54 f1 5f bd 4e d4 f4 3c 66 93 b7 bc
       -0.0093284175 -0.054673508 0.029886391 -0.022409152
000100 c8 d7 3d bd 0f c5 a5 bc 0f 26 9c 3b 3c f3 9d bd
       -0.046348363 -0.020235566 0.004765279 -0.07712409
000110 e8 25 29 bd 5c f5 f3 3c be 9f 93 bd c9 23 cb 3c
       -0.041295916 0.029780082 -0.07208203 0.024797337
000120 91 4e 2d bb f1 83 64 bd 2b a9 4d bc 07 9b 31 3d
       -0.0026444534 -0.05578989 -0.01255254 0.043360736
000130 06 95 92 bd 64 27 47 3c c5 0d 82 bd 36 47 27 3d
       -0.0715733 0.012155388 -0.063502826 0.040839396
000140 ac 39 00 bd e9 6b 70 bd 7f 13 97 3c e1 79 5c bb
       -0.031305 -0.05869666 0.018441914 -0.0033641981
000150 c6 38 e7 3b fe 3a 4d bd 23 bf 90 bd b1 94 17 bd
       0.0070563285 -0.050105087 -0.070677064 -0.037007038
000160 60 58 c1 bb a8 a7 df 3c 64 d8 3e bd f8 59 55 bd
       -0.0059004277 0.027301624 -0.046593085 -0.052087754
000170 36 b1 13 3d 0d 3f 0f 3d a9 88 38 bd 4f e2 75 bd
       0.036057673 0.03497224 -0.045052204 -0.060030278
000180 68 a6 2e bd 03 a8 3e bd e4 df 3d bd d8 36 c9 bc
       -0.042639166 -0.046546947 -0.046356097 -0.024562284
000190 4a 64 67 bd 8e cf 53 bc ea 85 fa bb ce 51 05 3d
       -0.056492127 -0.012927903 -0.0076453583 0.03254872
0001a0 08 52 6d bd 44 24 d2 bd 2c 30 1d bd 6d 29 64 3c
       -0.05793956 -0.10260823 -0.03837602 0.013925892
0001b0 e6 6f 42 bd bd 60 3b bd 62 29 2f bd 53 ce d2 bc
       -0.047469996 -0.045746554 -0.042764075 -0.025733149
0001c0 4f a3 4f bd d7 26 f0 bd 3f 39 10 bd af 89 9e 3c
       -0.050692853 -0.11726158 -0.035210844 0.019352762
0001d0 0b 7f 9c bd 3c 75 a8 bc 51 c7 13 bd 7f a8 be 3a
       -0.07641419 -0.020563714 -0.036078755 0.0014546065
0001e0 ba 01 94 bd 5c f7 e1 bc 17 57 b0 3a 82 a0 6f bc
       -0.07226892 -0.02758377 0.0013453689 -0.01462567
0001f0 46 87 06 3a 65 6c 89 bd d6 1a 15 3d 1e 7e da 3a
       0.00051318516 -0.06710128 0.036402546 0.0016669666

critic.network_body.linear_encoder.seq_layers.2.weight f4 [128, 128]
000000 3c 14 48 bd c8 f2 c3 bd c5 3d f1 bd f3 a9 97 3d
       -0.048847422 -0.09567791 -0.1177936 0.07405462
000010 b2 37 fd bd 4a 72 6d 3d ee 18 92 bc 90 16 9c 3d
       -0.12364139 0.057970323 -0.017834153 0.07621491
000020 50 ea c7 bc ea dd 1e 3d 98 71 68 3d 3d df 8f 3d
       -0.024403721 0.038785852 0.056748956 0.07025001
000030 f9 0b a2 bd f6 66 23 be 86 29 b8 3d 25 e6 d9 bc
       -0.0791244 -0.15957245 0.08992295 -0.026599
000040 a7 32 8f bd ff 6c 23 be 75 7d 1e be 24 c4 67 3d
       -0.06992083 -0.15959547 -0.15477546 0.05658354
000050 01 a6 63 be 0f 99 8d be 09 b3 2b 3e c7 47 07 3e
       -0.22231294 -0.27655837 0.16767515 0.13210975
000060 f5 1f 9a bc 2a 9e e6 3c 7c dd 97 3d 98 33 d2 bd
       -0.018814066 0.02815159 0.07415292 -0.10263747
000070 30 2d d7 bb 78 33 86 bd 1d 38 86 3c 70 6c 2b bd
       -0.006566666 -0.06552786 0.016384179 -0.04185146
000080 d9 af ae 3c 33 2a 20 be 66 47 5f 3d ad 0b 8c 3c
       0.021324085 -0.15641098 0.05451145 0.017095411
000090 ca d4 c7 3d df a2 42 be ee 8a 74 bd 76 5b 80 bb
       0.09757383 -0.19007443 -0.059702806 -0.003917153
0000a0 a4 f2 24 bd 26 1f b9 bd 09 21 08 3e 94 f9 09 bc
       -0.040270463 -0.09039144 0.13293852 -0.0084213205
0000b0 a8 6e 8e 3c 91 d0 94 be ab 2a 3c 3c f5 43 6d 3d
       0.01738675 -0.29065374 0.011484782 0.057926137
0000c0 32 d5 98 3d dc 3f e0 bd 5f 42 d4 3d 07 09 a4 bd
       0.07462539 -0.1094968 0.10364222 -0.08009534
0000d0 cb 5b 2a 3d 59 29 9d bd 00 50 e5 bc 0d 32 e8 3d
       0.041591447 -0.07673902 -0.027992249 0.113376714
0000e0 f6 6a 21 3e 90 59 c6 bd 47 37 2f bd 0b 34 5f bd
       0.15763459 -0.096850514 -0.042777326 -0.05449299
0000f0 5a c0 48 3c c8 85 06 3c 3d d3 a0 3d 63 8d 55 3e
       0.012252891 0.008210607 0.078527905 0.20854716
000100 83 50 a6 bd 18 ea b4 bd 8c c4 47 be 07 d0 59 bd
       -0.08120825 -0.08833712 -0.1950857 -0.053176906
000110 bc c2 ed 3d 6d 52 39 3d 9f b2 46 3c 07 a0 9e 3d
       0.11609408 0.045244623 0.0121275475 0.077453665
000120 86 db 74 bd e7 cf 6c bd dc c9 14 3e c0 4d bd bd
       -0.059779666 -0.05781546 0.14530128 -0.09243345
000130 53 ad 42 bb 13 01 5e bd 20 cd ee bd 64 7f d6 bc
       -0.002970536 -0.054200243 -0.11660218 -0.026183791
000140 6b 6a c3 bc fa dc a8 3d c9 00 97 bd 2d f8 0f be
       -0.023854455 0.08245273 -0.07373197 -0.14059515
000150 9c 74 60 bd 69 ba 2c be 0d 66 b0 bc 4d 5b 7a bd
       -0.054798707 -0.16867985 -0.021533037 -0.061122227
000160 ff 77 e1 3d a2 54 93 3d 33 1a 1a bd 37 52 6b 3d
       0.110092156 0.07193877 -0.03762264 0.057451453
000170 47 fc 1f 3d 60 4c 93 bd 23 d6 6b bd 78 94 9c 3d
       0.03905895 -0.07192302 -0.057577264 0.07645506
000180 8f 40 6d 3e 49 be de 3c 23 fc 56 bd 2a 22 2d 3e
       0.23169158 0.027190344 -0.05248655 0.16907564
000190 e2 73 2b bc ca 21 04 3c 03 8d 15 be 84 94 21 bd
       -0.01046464 0.008064697 -0.14604573 -0.039448276
0001a0 30 2a 8d 3d a6 ee 13 bd 6d c9 ab 3d 46 b2 0c be
       0.06892812 -0.036116265 0.08388028 -0.13739881
0001b0 5c ae 41 3d 46 8b 61 3d 73 8f 47 bd 8d 7f 8f bd
       0.047285423 0.055064462 -0.04872079 -0.0700675
0001c0 9d 62 90 3c da 27 55 3c 01 c1 6e bc 56 6f 91 bd
       0.017625147 0.01300999 -0.014572383 -0.07101314
0001d0 36 c5 f6 3d 6f ce 54 be f8 8c 1c bd 58 27 0b be
       0.12049334 -0.20781873 -0.038220376 -0.13589227
0001e0 56 30 9c 3d ed 5f 18 be 9b 73 e3 3c d9 ad 28 be
       0.07626407 -0.14880343 0.027765086 -0.16472568
0001f0 92 fb d6 bd b5 ca 7c 3d b1 e9 93 bd 7d 63 69 bd
       -0.10497202 0.061716754 -0.072223075 -0.056979645
000200 4d 04 2d 3a a7 fe ec bd f4 28 ad bd 7a 66 47 bc
       0.0006600067 -0.115720086 -0.08455077 -0.012170428
000210 c2 d3 58 3e 6d 4b 91 3d c6 65 9a bc 80 56 61 3d
       0.21174529 0.070944645 -0.018847357 0.055014133
000220 eb de ca bc 0d 05 4e bd c2 99 d9 bd 33 b6 12 3c
       -0.024764499 -0.050297786 -0.1062503 0.0089545725
000230 10 df 01 bd 8f 2c 5b 3c 44 d5 ec bd 20 6e fc bd
       -0.03170687 0.013377323 -0.11564115 -0.12325692
000240 c9 1b 84 bd 17 d9 27 be 5e a9 cc bd fa 0c 8e 3d
       -0.06450612 -0.16391407 -0.09993242 0.06936069
000250 f9 0b 3e bd 37 33 13 bd f2 6b aa 3d 0d f5 1f be
       -0.046398137 -0.035937514 0.0832137 -0.15620823
000260 66 5a e7 3c 75 41 9b bd ab d3 34 bd 51 4f 6f bd
       0.028241348 -0.07580844 -0.044147175 -0.05842525
000270 e9 c7 67 bc 01 35 70 bd 10 4d 40 3e 85 77 17 bd
       -0.014146783 -0.0586443 0.18779397 -0.036979217
000280 77 40 7c bd c2 82 1f bd 3e 3e 83 bc 70 58 87 3c
       -0.061584916 -0.03894306 -0.01602089 0.016521662
000290 83 dc b0 3c c4 ce 0e 3e 5a c8 0a 3d 96 50 a4 bb
       0.021589523 0.13946062 0.033882476 -0.0050144894
0002a0 b1 8a a5 3d 47 dd f0 3c fd 7a 95 bc c9 fd b5 3d
       0.08083094 0.029402388 -0.018247122 0.08886296
0002b0 d3 ac 25 bd 7c 7a ae bd a4 5d 4a bc ad d1 33 bd
       -0.04044802 -0.08519456 -0.012351427 -0.043901134
0002c0 48 5f 57 3e 5c fd 54 3d 85 6e 33 bd 18 6a 16 bd
       0.2103244 0.051999435 -0.04380657 -0.036722273
0002d0 e6 3a b4 bd 07 39 85 bd ed 3a 69 bd 77 d3 a0 bd
       -0.088002965 -0.06505018 -0.05694096 -0.07852834
0002e0 ae db f7 3b 65 3f 60 3d fe ac b3 bd 10 1a ce 3c
       0.0075640297 0.054747958 -0.0877323 0.025158912
0002f0 01 2a 07 be 97 0e 8f bd 82 e7 e1 3b 40 9b 6a bd
       -0.13199617 -0.06985205 0.006894053 -0.057276964
000300 c5 f8 1d bc 0f 30 09 3e a9 0c 71 be 1c 54 93 bd
       -0.009641831 0.13397239 -0.23539986 -0.07193777
000310 83 d0 fe 3c b1 4a 5c 3c c3 51 33 3e a9 a6 ea bd
       0.031105286 0.013445542 0.17511658 -0.11457569
000320 70 4d 44 be 00 74 73 bd 0c 39 4b 3d 7c f1 ee bd
       -0.19170165 -0.059436798 0.04961495 -0.11667153
000330 32 eb d4 bd 48 e8 40 bd 71 89 bf bd c6 14 c2 39
       -0.103964224 -0.04709652 -0.09352387 0.0003701804
000340 2f c9 31 bd 3f dc d3 3d e2 3c 68 3d cf 5e 55 3d
       -0.043404754 0.10344743 0.056698687 0.05209237
000350 f5 98 c1 3d 14 02 9e 3e da b9 0c 3e 75 b5 0a be
       0.09453002 0.3086096 0.13742772 -0.13545783
000360 f5 f7 54 be 60 4a 3f be e5 b4 f4 ba ab eb c2 3d
       -0.20797713 -0.18680716 -0.0018669633 0.09517606
000370 c5 8e cf 3d f1 3f 0c be 09 ba b0 3d bd e3 d8 bc
       0.10134653 -0.13696267 0.086292334 -0.026475782
000380 5d 2b 2d be 8b 51 63 3d d1 78 de bb 81 59 17 be
       -0.16911073 0.055497687 -0.006789305 -0.14780237
000390 7e 9c ee 3d 60 49 df bd 1c f7 28 3d b1 a0 35 bc
       0.11650942 -0.10902667 0.041251287 -0.011085675
0003a0 94 95 ac 3d 22 d4 57 3d 5e a2 e7 3b 0d b1 3a 3c
       0.08426967 0.05269254 0.007068916 0.011394751
0003b0 47 83 0d 3e 04 16 a7 3d 92 92 ba 3d e8 e4 4e bd
       0.1381961 0.08158496 0.09109987 -0.05051127
0003c0 7b 9d 01 3b 66 d6 6e 3d d5 c1 ac 3d 04 b1 c4 bd
       0.0019777704 0.058309935 0.08435408 -0.096040756
0003d0 de 3c 51 bd 75 cc dd bd 37 14 c1 bc 93 7c 47 bc
       -0.051083438 -0.10830013 -0.02356921 -0.012175697
0003e0 ab b4 1e be 5e 3d f4 3c 42 d4 47 bd 8a aa b7 3d
       -0.15498607 0.029814418 -0.04878641 0.089680746
0003f0 86 2a 10 3d ac dc 20 bd 02 d8 99 3d 74 cd 1d bd
       0.035196804 -0.03927295 0.07511903 -0.038526013

critic.network_body.linear_encoder.seq_layers.2.bias f4 [128]
000000 16 b8 6e bd d6 a0 18 bd 93 c1 1a 3d 5f 00 1a 3d
       -0.058281027 -0.03726276 0.037782263 0.03759801
000010 ae d0 32 bd 4a 57 6b bd 94 85 e0 bc b2 aa 71 bd
       -0.043656044 -0.057456292 -0.027407445 -0.05900068
000020 70 e6 2f bd b4 77 27 bd 60 35 4b 3d a2 03 b8 37
       -0.04294437 -0.040885642 0.04961145 2.1936201e-05
000030 0f b9 18 3d 23 26 5e bd 55 08 b9 3c ea 52 23 3d
       0.03728586 -0.05423559 0.02258698 0.039873995
000040 22 09 48 3d dc 2c 3f 3d 29 c9 53 bd 3d 8a 32 bd
       0.048836835 0.04667364 -0.051705513 -0.043588866
000050 ca b6 0e 3d 14 75 f1 bc 2b ac 4c 3c ca 06 45 bd
       0.03484229 -0.029474773 0.01249222 -0.048102178
000060 75 ae 29 3d a3 20 4c bd c1 09 0c 3d 84 09 42 bd
       0.04142614 -0.049835812 0.03418899 -0.047372356
000070 67 67 18 3d af 9e 46 3d 94 f3 47 bd 49 68 43 bd
       0.037207987 0.048491176 -0.04881628 -0.047706876
000080 cb 50 23 3d d9 dc 3c bd 33 0b 52 bd b4 09 1f 3d
       0.039871972 -0.046109054 -0.05128021 0.038827613
000090 16 73 62 bd 3a 5c 76 bd 32 95 27 bd 38 15 3b 3d
       -0.055285536 -0.060146548 -0.040913768 0.045674533
0000a0 cc 98 63 bd 31 c1 e5 bc b2 0d 35 bd 06 fd 47 bd
       -0.05556564 -0.028046222 -0.044202514 -0.048825286
0000b0 ac 3e 31 3d 62 62 28 3d b1 88 68 bd a9 9e 3b bd
       0.04327266 0.04110945 -0.056770984 -0.045805607
0000c0 b6 4b 0f bd 39 5f 1b 3d 47 34 50 3d 09 04 24 3d
       -0.034984313 0.03793261 0.050831106 0.04004291
0000d0 8e 14 3d bd 1b 37 65 bd b4 6f 22 3d 71 ad 3e bd
       -0.04616218 -0.055960756 0.03965731 -0.046552125
0000e0 3d 57 26 3d a8 b1 17 3d 46 d8 52 bd d6 54 56 bd
       0.04061054 0.03703466 -0.051475786 -0.052327
0000f0 5b 3f 57 bd 97 e9 36 bd 57 50 62 3c b3 5a 2e bd
       -0.052550655 -0.044656362 0.0138131 -0.042566966
000100 0f ed 63 bd 18 81 49 bd 5d 33 5c bd 08 ad 3d bd
       -0.055646 -0.04919538 -0.05375992 -0.046307594
000110 d5 c9 3b 3d e9 36 2d bd 1c ae 1f bd 77 82 67 bd
       0.04584678 -0.042288695 -0.038984403 -0.056520905
000120 91 d3 56 bd c4 82 13 bd 2a b8 22 3d 74 bc 35 3d
       -0.05244786 -0.03601338 0.039726414 0.044369176
000130 51 ef 1b 3d b0 d7 36 bd d5 a9 2e bd c4 fd b7 3c
       0.038070027 -0.04463929 -0.042642433 0.022459872
000140 47 45 68 bd 6c cf 2d 3d 4d 26 1e 3d de 43 26 3d
       -0.056706693 0.04243414 0.038610745 0.040592067
000150 f2 29 34 3d 8d bd 6d bd 16 61 64 bd 7e 71 1e 3d
       0.043985315 -0.058042098 -0.05575665 0.038682453
000160 3d a0 37 bb 52 dc 49 bd 7f e7 0f 3d a9 cd 16 3d
       -0.0028019093 -0.04928238 0.03513288 0.036817227
000170 98 1a 2c 3d 02 61 6d bd eb 91 62 bd b2 8d 37 bd
       0.04201755 -0.057953842 -0.05531494 -0.044812866
000180 8e 11 43 bd 3f 35 43 3d 95 f6 16 3d f5 5e 67 bd
       -0.047624163 0.0476582 0.036856253 -0.056487042
000190 f8 79 14 3d f5 19 1d 3d 54 4a 3c 3d ad 80 06 bd
       0.03624913 0.038354833 0.045969322 -0.03283756
0001a0 cb 3d 1f 3d 91 05 6a 3d 1b cb 41 bd 8b 02 6d bd
       0.03887729 0.057134215 -0.047312837 -0.057863753
0001b0 a0 5c 21 3d 26 ed 6a bd a6 70 17 3d 02 e7 c3 3c
       0.039394975 -0.05735507 0.036972664 0.023913864
0001c0 9d 4a 6a bd 74 4e 3f bd ae 98 3a 3d d9 05 50 bd
       -0.057200063 -0.046705678 0.045555763 -0.050786827
0001d0 11 c3 13 bd b8 9a 46 bc 69 77 14 3d 80 8f 40 bd
       -0.0360747 -0.012121849 0.03624669 -0.047011852
0001e0 9d 02 1e 3d 8e 64 2a 3d 85 93 38 bd 7c a1 36 bd
       0.03857671 0.041599803 -0.04506256 -0.044587597
0001f0 02 56 34 3d ce 01 51 bd 12 d8 1a 3d 52 ad 12 3d
       0.044027336 -0.05102711 0.037803717 0.035809822
