ml-agents-master/ml-agents/config/results/ppo/LineCreator/LineCreator-89300.pt (torch, 434231 bytes, 40 tensors)

network_body.vector_processors.0.normalizer.running_mean f4 [4]
00000000: e220 0040 e2cd b0bd bb9d c3c0 c071 aa3f
2.002007 -0.08633019 -6.113004 1.3315964

network_body.vector_processors.0.normalizer.running_variance f4 [4]
00000000: 1d50 334a f569 3e49 cc96 124a b62a 5e49
2.9378632e+06 779935.3 2.401715e+06 909995.4

network_body.linear_encoder.seq_layers.0.weight f4 [128, 4]
00000000: 08b6 2e3e e98a dabe 24e2 363e c9b9 713e
00000010: 28fc 22be d2a7 eabe 1a85 85be ce22 c73e
00000020: d8e9 01be 5a2d 1bbc 4e65 643e 99a5 f53e
00000030: 37e7 c0be b230 e1be ef4c 0dbf 9a60 78be
00000040: bc54 b73d 40ad 3fbf 8a23 813f dfeb f53e
00000050: bf61 adbd 7133 be3f b9ce 9a3e 4715 0e3f
00000060: 719c aa3e bb40 2d3f f665 7bbf 4745 1dbf
00000070: 1769 90be 0846 07be d74c 163f 9c44 883f
00000080: dcc2 6e3f 0d37 28bf aee7 adbd f3aa 26be
00000090: 3b34 883e 0b38 723f 49e1 7c3e b3a3 05be
000000a0: dce3 36be 2fc5 313e 15b9 1e3e 792a 01bf
000000b0: df8c 46bf 98ca e5be 6559 b1bd 4fff fabd
000000c0: d9f9 39bd 8fa4 18bf 3074 27be 0a88 6dbd
000000d0: 0bf9 353f b003 aebe ef2f 44bf 127c 55bf
000000e0: 5ad5 323d b605 573e b493 edbd 6a52 a63e
000000f0: 4fd5 7f3d a2f6 46bf c905 1cbb 80b7 1f3e
00000100: 8c8b 53bd ed53 f03d bba6 223e 4fae f33e
00000110: fef0 3abd 6ba5 45bf 0e82 ad3e 0d86 403f
00000120: 3500 40be 6abb d1bc a6e0 c439 2f7b 87be
00000130: b6dd 98be 10ba f3be ca6a c93e b5c7 e43e
00000140: c890 18be 0bf5 883c 35c9 17be c834 493f
00000150: 8e9c eb3e e122 c03d 3445 a93f 83d4 913e
00000160: 8be9 8e3f 0ceb 843e 1745 973e e295 913e
00000170: 39f1 caba d15d 5d3e 5aee 0a3f c64f 2abf
00000180: 9117 82be ffef 25bf d541 4e3e 2e39 183d
00000190: 586c 08bf dacd 903e 5ece 79be d194 b53e
000001a0: 5b6d 74be 59d8 eebb b6da f6be 39c7 0bbf
000001b0: 1224 15bf 4dc1 edbe bdfd f0be d38d 4ebe
000001c0: 9996 ce3e 039b 7fbe 5b68 023e cb93 593e
000001d0: 5203 973e e069 f9be 6986 5fbf b345 513e
000001e0: b06b 8b3e 1ba7 f7be c714 b03e 0c58 003f
000001f0: cddc 8b3e 37f9 073e c97e 72bf 8ad5 22bd
00000200: 9025 5fbe a1af 3dbe 118a c5be f34f 593f
00000210: c6ef 083e 8ea9 e2bd 73ee a13d a00a 37bb
00000220: b3d3 3abf 5511 b8be 5e44 06be 421b 64bf
00000230: 344f 7dbe c5b9 3ebc 4f33 303f b515 043f
00000240: 8c02 823e 2813 ae3e 1046 c9be ae2b d83e
00000250: 4790 ef3d cc2d 72bd c110 d0be 9783 983b
00000260: 44f8 8c3d ba4c debe 8a51 c23d 0506 813c
00000270: 0f20 3b3f 41b3 0bbe 9b4c 06bf 0f1c c9be
00000280: fc64 fbbe f03f 36bf d12a 3d3e d304 9b3d
00000290: d850 03bf d58a c7be 6e8b de3c 20de 053d
000002a0: 3568 413c 6150 b73e f8ff 853f 2b0b 0ebe
000002b0: 301f c83e f3ec 7a3d bb75 ff3e 2740 2fbe
000002c0: c0d8 e8bd a173 15bf ef97 113f 066f 063e
000002d0: 4a58 7cbf 17e4 cebe c511 283f e2c7 213f
000002e0: b541 95bd c5b5 ebbe bcf6 d7bd bae5 833f
000002f0: e334 e7be 9560 b93e 4222 9f3d 8702 61bf
00000300: 3fc6 28be 7424 cabe 90ce ec3d 9347 9a3e
00000310: 58d5 bcbd d4d3 8e3e a0dd 02bf 013e 85be
00000320: 7bf3 b03e d461 8a3e 3523 50ba b249 e8be
00000330: 7c3d 263e 5533 6e3e 7962 ac3d 295e 903d
00000340: 7e71 ff3c 1caf 3a3f 79b3 403e 7054 853f
00000350: d631 08bf 7c56 cc3e e075 0ebc e20d aabe
00000360: ae48 b03d cea5 163e 4823 df3e cdb3 343f
00000370: cefb 1a3d 33b3 1a3e d195 debd 645f 42bf
00000380: cefc 563e 9927 743d 0c21 88bd 9aec 24be
00000390: eb10 a6bd ceb0 08bf a7e9 19bf bc85 b23e
000003a0: c4e9 2fbd 7662 efbe 9625 f43d 5a26 9e3d
000003b0: 8b0b ce3e 5288 11be fe1d e0be 9692 c7be
000003c0: 90a6 c13e a635 b53e 9d13 1b3f c967 da3e
000003d0: 7308 21be 7ed9 013f 9d65 483e f196 303d
000003e0: 51c4 d33d 03a0 a83c 6b16 de3d fe6e a33d
000003f0: 65ef 983e 4fb0 b23e fbce 93be 013b 993d
0.17061627 -0.42684105 0.17859703 0.23606028 -0.15916502 -0.45831162 -0.2607811 0.3889374
-0.1268686 -0.009471262 0.2230427 0.47977903 -0.37676403 -0.43982464 -0.55195516 -0.242556
0.08951709 -0.74873734 1.0088971 0.48031518 -0.08465909 1.4859449 0.30235842 0.55501217
0.3332248 0.67676896 -0.98202455 -0.61433834 -0.28205177 -0.13210309 0.58711 1.0645938
0.9326608 -0.65709 -0.08491455 -0.1627615 0.2660235 0.94616765 0.24695314 -0.13050728
-0.17860359 0.17360376 0.1550029 -0.50455433 -0.775587 -0.4488113 -0.08659629 -0.122557275
-0.04540429 -0.59626096 -0.16352916 -0.057991065 0.71083134 -0.33987188 -0.7663564 -0.8339244
0.0436605 0.20998272 -0.11600438 0.32484752 0.062459286 -0.7772008 -0.002380716 0.15597343
-0.051646754 0.117347576 0.15883915 0.47593924 -0.045639984 -0.7720553 0.33888286 0.75204545
-0.18750079 -0.025602061 0.0003755141 -0.2646117 -0.29856652 -0.47602892 0.39339286 0.44683614
-0.1489898 0.016718408 -0.14822848 0.7859616 0.4601788 0.093816526 1.3224244 0.28482446
1.1165022 0.25960577 0.295449 0.28434664 -0.0015483267 0.2161782 0.54269946 -0.66527975
-0.25408605 -0.6481933 0.201423 0.037163906 -0.5329032 0.28282052 -0.24395129 0.354651
-0.23869841 -0.0072889742 -0.48213738 -0.54600865 -0.58258164 -0.4643654 -0.47068587 -0.20171289
0.40349272 -0.24961476 0.12735121 0.21247785 0.2949472 -0.4871359 -0.8731447 0.20436744
0.27230597 -0.4836968 0.34390852 0.5013435 0.27316895 0.13278662 -0.9472471 -0.039754428
-0.21791673 -0.18524028 -0.385819 0.8488762 0.13372716 -0.11067496 0.07906809 -0.0027929917
-0.7297928 -0.35950723 -0.13112018 -0.8910409 -0.24737245 -0.011640971 0.6882829 0.5159562
0.25392568 0.3399899 -0.39311266 0.42220825 0.116974406 -0.059125707 -0.40637782 0.0046543586
0.068832904 -0.43417913 0.094882086 0.01574994 0.7309579 -0.13642599 -0.5246064 -0.3927922
-0.49100482 -0.7119131 0.18473364 0.075692795 -0.5129523 -0.38973108 0.027166095 0.032682538
0.01180463 0.35803512 1.046874 -0.13871448 0.39086294 0.06126113 0.4989451 -0.17114316
-0.11369467 -0.5837956 0.5687246 0.1312829 -0.9857222 -0.40408394 0.65652114 0.6319562
-0.07287923 -0.46037117 -0.10545108 1.0304482 -0.45157537 0.362065 0.07770206 -0.8789448
-0.16481875 -0.39480937 0.11562836 0.30132732 -0.092203796 0.27895987 -0.5111942 -0.26023868
0.3456076 0.27027762 -0.00079398166 -0.45368725 0.16234392 0.23261769 0.0841722 0.070492096
0.031182047 0.72923446 0.18818463 1.0416393 -0.53201044 0.39909732 -0.008695096 -0.33213717
0.086076126 0.14711687 0.43581605 0.70586854 0.037837796 0.15107422 -0.10868419 -0.75926805
0.20994875 0.059608076 -0.06646928 -0.16105881 -0.081086956 -0.5339478 -0.6012215 0.34867656
-0.042947546 -0.46754807 0.119212314 0.07722159 0.40243182 -0.14212158 -0.43772882 -0.38979024
0.3782239 0.35392493 0.605768 0.42657307 -0.1572588 0.5072249 0.19570012 0.0431127
0.10340179 0.020584112 0.1084412 0.079801545 0.29870144 0.34900138 -0.2886885 0.07481957

network_body.linear_encoder.seq_layers.0.bias f4 [128]
00000000: 599b b8bd 1dbf fdbd eed1 b6bd fc1c 84bd
00000010: f85b 50bd 4e15 52be 3509 263d 06c0 2bbd
00000020: 33a2 843c 6bcd 18bd 540c 403d fbd4 fbbc
00000030: 7ee3 28bd a325 093d 440c 5a3c ea00 39be
00000040: d8ba 77bc 476d e5bd fde0 f8bc 45c7 c43c
00000050: 8c09 973b 5f31 6dbb 98c7 08be ad3f 633c
00000060: 6171 49be 2d69 a5bb 07d7 873d 9eb7 ab3c
00000070: c9c1 bcbd 89da f33c 3a86 3cbd 432e 2c3d
00000080: 23d4 eebb bcf6 d8bd b6c3 58bd 0405 70bd
00000090: 9d4e 7cbd d190 963d 9270 8abe 902f 203d
000000a0: f0b6 f0bd eed2 4bbe 1fe1 5c3c b2d0 e3bc
000000b0: 4a87 c7bd 5ab1 30be 4c72 adbc f4c5 eb3c
000000c0: 3a2e 023c 5307 bf3d 7e92 033e aee2 edbd
000000d0: d507 81bc 8584 83bd c16a 04be f6ef 593d
000000e0: ba1f 14bb 748e bfba a8ef 0ebd 1138 603d
000000f0: 9526 24bd 0ac5 8ebd 63be 9bbd bdc8 56bd
00000100: a04d 373c d0e7 25be 175e dbbd ce4e 12be
00000110: 1f5a 04bd 0e8d 1ebe c26f 22bc c729 b6bd
00000120: 4f6b 91bb 8e23 413d 8d09 a73c cacb 30bd
00000130: 5728 303c 3734 333d f155 a33d 1928 c8bd
00000140: cfb7 6fbd c671 1abd 0a3d 093d 602f 2a3c
00000150: 77f9 22bc 1242 e9bd 0c1d 2bbd d055 183d
00000160: eb42 63bc fbc2 19be 54dd b93d 0341 cabc
00000170: 4861 3dbe 6ebf c3bb 1ef0 a83d de25 153d
00000180: e97c 0fbd 4038 0cbe 1ea7 b93c fe43 803d
00000190: 95f7 313c fd40 cfbd 7658 64bd b08b 7ebd
000001a0: 0633 b8ba 3df9 86bc aa78 fa3d d17c d0bd
000001b0: 4565 313d 6a80 42bb 5373 d63b e55e fbbd
000001c0: 94e0 0f3d 70fa 9d3c 3dde 4b3a cdec d239
000001d0: a231 a7bc 7792 98bd 0ca7 6dbc 9f02 28bd
000001e0: 1ae0 edbd 4c7f 2a3c b480 b2bd cc4f 2bbe
000001f0: 933c 16be 077f 363d 4217 3bbd 839a 8bbd
-0.09014005 -0.123899676 -0.0892676 -0.06450841 -0.05086896 -0.2051594 0.040536124 -0.041931175
0.016190624 -0.037305277 0.046886757 -0.030741205 -0.04123258 0.03348316 0.013308588 -0.18066755
-0.015120231 -0.112024836 -0.03038072 0.0240208 0.0046092924 -0.0036192758 -0.13357389 0.013870162
-0.19672157 -0.0050479383 0.0663281 0.020961579 -0.09216649 0.029767292 -0.046026446 0.042036306
-0.0072884723 -0.10593936 -0.05292102 -0.058598533 -0.06159841 0.0735184 -0.2703901 0.03910786
-0.117536426 -0.19904682 0.013481407 -0.027809475 -0.09742601 -0.17255154 -0.021172665 0.028780915
0.007945592 0.09327569 0.12848851 -0.11615501 -0.015750805 -0.064217605 -0.12931348 0.05320736
-0.0022601918 -0.0014614598 -0.034896523 0.05474097 -0.040075857 -0.06971176 -0.07604673 -0.052437533
0.011187941 -0.1620171 -0.107113056 -0.14287874 -0.03231251 -0.15483496 -0.00991434 -0.08894687
-0.004437841 0.04715305 0.020390296 -0.0431631 0.010751805 0.043750968 0.079753764 -0.09773273
-0.058524903 -0.03770616 0.033505477 0.010387272 -0.009947172 -0.11389555 -0.041775748 0.037191212
-0.013870935 -0.15015785 0.09075418 -0.024689203 -0.18494141 -0.005973748 0.08248924 0.036413066
-0.035031233 -0.13693333 0.022662695 0.062629685 0.010862251 -0.101198174 -0.055748425 -0.062144935
-0.0014053292 -0.016476268 0.12230046 -0.10180057 0.04330947 -0.0029678592 0.0065445094 -0.12273959
0.035126284 0.019284457 0.00077769515 0.00040230752 -0.020409409 -0.07449811 -0.014505159 -0.041018125
-0.116150096 0.0104063265 -0.087159544 -0.16729659 -0.14671545 0.044554736 -0.045676477 -0.0681658

network_body.linear_encoder.seq_layers.2.weight f4 [128, 128]
00000000: 1578 f43c f728 f0bd 1a57 033e 467a 08bd
00000010: e3be cc3d e6be dabc 493a fd3d e7ef 06be
00000020: e0f6 3b3c c6e0 b63b 885e e1bb 7160 f0bd
00000030: 9179 cfbd 384c 74bb a88a 9738 deb2 6b3d
00000040: 31b3 e9bc b3fa 163d 42e7 9a3d 5545 3d3d
00000050: f594 573d d96e 25bd a821 903c ab91 2abd
00000060: 56d1 89bd fb99 8b3d 6abc abbd 0221 883c
00000070: 9873 21be 5a14 003e 2cca 49bd 8908 f4bd
00000080: 5a2d 69bd e31f 76bd 0f77 0f3e aa51 6cbe
00000090: d830 bd3d 82fe 26bb 92b8 08bd 7159 273c
000000a0: ce92 eabd 2d18 a0bd 46b3 02bd 3778 9e3c
000000b0: 66c3 66bd b4c8 42bb b1c1 d5bd 042b f938
000000c0: 780a 533c ed5e 70bc cee9 febd 5052 efbd
000000d0: f2f6 253d 4fc0 70ba d337 23bd 8d92 a73c
000000e0: b61d 6a3d 8ac0 7dbd 8be4 2a3a 67b8 9bbc
000000f0: 17ac f3bd 2843 d83c 990d 86be bece 853a
00000100: ddda 713d 958f b4bd 5533 57bd 4ca1 873d
00000110: 3035 133d 0696 7fbc eaf2 36be f3c4 82bc
00000120: 39f4 3ebd 068f 60bd 38d5 e9bd a5ab 1f3e
00000130: d1c7 62bd 10a2 42bd 0bcd 87bd b7c4 39bc
00000140: dec7 0bbe bc1f c13d a328 a33c 6f93 853d
00000150: 51b2 32bd 5428 25bc 2807 ab3d 18cb 2dbe
00000160: 63ec 543d bd28 f43c b7ab d9b9 7169 4e3c
00000170: 7415 aebc 01dd 40bc 37a6 0ebe ebc1 6ebc
00000180: 0298 a9bd b809 193e 9154 99bd b10b 023d
00000190: a6b8 d83d caeb b4bc e913 8e3d 7f20 c03d
000001a0: 84bf 363d 0f6c a7bd eb63 2dbd a8aa 90bd
000001b0: cb19 5e3d 3c18 153d 2265 1bbe 43a7 8c3d
000001c0: eaf6 ebbc 4f12 1b3e 680e 2abc 25fb c3bd
000001d0: 2060 29bd 15ac d8bc c86e 3ebe 7cac c1bd
000001e0: d064 3abd c2a7 bbbc 19dc c8bc 0cca aebd
000001f0: 4288 db3d 995e 13bd c67d 49bd 885a 5a3d
00000200: 6141 9d3c 862a 72bd 13b5 f2bb c188 083d
00000210: d8cd 143d 1a8c 5bbd 1f79 8bbd e1e0 1b3d
00000220: ced6 4d3d 0545 0f3e fc52 d23d 5c66 0dbe
00000230: e825 e6bd e123 623c dbe0 80bd 3199 5ebd
00000240: 7d98 503d 4f94 cfbd 9985 1dbd 5662 9ebd
00000250: 4b66 593c 2c48 9ebd 82e6 8a3d 5ae5 bf3d
00000260: 0714 b43d 3a0e dfbd 42a0 43bd 3fdc e8bd
00000270: c48b 83bd f008 733c fb7c c8bc 3058 ccbd
00000280: ceed 0bbd 77cd f6bd 53cc 68bd 59a4 d73c
00000290: fa9c 5bbd 9a47 58bb 693b a93d f9f0 f53b
000002a0: 73d2 013d 5dff 133d 20b1 aebd 1bf2 c8bd
000002b0: c29d b33d 5e9a 6b3c eb4a 16be dd21 8bbd
000002c0: 5e92 393c 94bc ab3d 91be b23d 15b0 a53d
000002d0: ef42 763d d11d b83d e561 c73d 50a3 083e
000002e0: 43d8 16be a6a2 61bc bc8a a9bd 3368 b33c
000002f0: bea9 49be e1ff 9ebd e626 a13e d5d2 eabc
00000300: d454 25bd 5a8e 19be a661 783d b199 363e
00000310: fea2 553e b876 97bd d33e 08bd d471 d5bc
00000320: 8bb6 6a3d 2792 4cbd 7f66 7dbd b28a f6bd
00000330: e2cf 793d 6583 cabd 034b 06be 76ac 3abc
00000340: 7604 05be 1dec 0cbc 08d6 4d3e 142a 3abe
00000350: f976 323e efb6 89bd dca2 f8bb 27e4 71bd
00000360: d92c fa3c 0eec b4bd c7bd 04bb 5eaf fc3c
00000370: 3849 86bd 9621 2c3d c16d e7bd 41eb f03d
00000380: 73b6 d8bc 9bb5 383e 07e2 b5bc 21da fbbd
00000390: c969 f23d 734d 68be 2c93 52bd ec7e 3bbd
000003a0: 151b cbbd 002b 013d 8694 d5bc f127 26be
000003b0: 5b3f 293c c79e b93c 134b a3bd 226d 90bc
000003c0: 879a 373d 6659 9b3c 5372 b83b 6757 403e
000003d0: 8c4c 0f3e b2b7 15be 8bf4 f3bc 18bd c43c
000003e0: aa92 d3bc 5d9b f1bc a79e 8abc 6246 783a
000003f0: 5b3c fd3d d349 81bd 3427 37bc 5bbc dc3d
0.029842416 -0.117265634 0.12826195 -0.033319734 0.09997346 -0.026702356 0.12364633 -0.13177453
0.011472434 0.0055809943 -0.006877724 -0.11737145 -0.10130609 -0.0037276875 7.226068e-05 0.057543628
-0.028527828 0.03686018 0.0756364 0.0462087 0.05263229 -0.040388916 0.017594174 -0.041642826
-0.06729381 0.06816479 -0.083855465 0.016617302 -0.15766752 0.12507764 -0.04926507 -0.119156905
-0.056928016 -0.060089003 0.14010261 -0.23078027 0.09237832 -0.0025481288 -0.033379145 0.010214196
-0.11453782 -0.07817111 -0.03190925 0.019344432 -0.05633869 -0.002972168 -0.10437334 0.000118812575
0.012880914 -0.01467107 -0.124469385 -0.11685622 0.04051871 -0.00091839297 -0.03984816 0.020455623
0.05715724 -0.061951198 0.0006519041 -0.019008828 -0.11898058 0.02639921 -0.2618225 0.0010208709
0.059046615 -0.088164486 -0.05253919 0.06622562 0.035939395 -0.015599733 -0.17866102 -0.015963053
-0.046619628 -0.054823898 -0.114176214 0.15592821 -0.05536634 -0.047517836 -0.06630906 -0.011338404
-0.13650462 0.09429881 0.019916838 0.06522261 -0.043627087 -0.010080416 0.08350974 -0.16972005
0.05198325 0.029804582 -0.00041517403 0.012598381 -0.021250464 -0.011771441 -0.13930593 -0.014572601
-0.08280946 0.14945114 -0.07486833 0.03174943 0.10582094 -0.02208509 0.06937391 0.09381198
0.044616237 -0.081749074 -0.042331617 -0.070638 0.054223817 0.036400065 -0.15175298 0.0686784
-0.028804261 0.15143703 -0.010379411 -0.095693864 -0.041351438 -0.026449243 -0.18596947 -0.09456727
-0.0455063 -0.022907142 -0.024519013 -0.08534631 0.107193485 -0.035978887 -0.049192213 0.053308994
0.019196214 -0.059122585 -0.0074068396 0.033333544 0.03632912 -0.053600408 -0.068102114 0.038056258
0.05025368 0.13991173 0.10269734 -0.13808578 -0.11237699 0.0138024995 -0.06292888 -0.054345313
0.050926674 -0.101357095 -0.038457487 -0.077336 0.013269017 -0.077286094 0.06782247 0.09369917
0.087928824 -0.108913854 -0.047760256 -0.113701336 -0.064231426 0.014833674 -0.024473658 -0.09977758
-0.034162335 -0.12050908 -0.056835484 0.026323484 -0.0536165 -0.0033001662 0.08263285 0.007505533
0.03169484 0.036132205 -0.08529878 -0.09811803 0.08770324 0.014380066 -0.14677016 -0.06793568
0.011326401 0.08385578 0.08727754 0.080902256 0.060122427 0.08990062 0.09735469 0.13343549
-0.14730935 -0.013771689 -0.082784146 0.021900272 -0.19693658 -0.07763649 0.3147499 -0.028664986
-0.0403641 -0.14995709 0.06064 0.17832066 0.20862958 -0.07395691 -0.03326304 -0.026055254
0.057302993 -0.04994407 -0.061865326 -0.12038173 0.060989268 -0.09888343 -0.13114552 -0.011393657
-0.12989983 -0.008601216 0.20101178 -0.18180114 0.17428197 -0.06724345 -0.0075877737 -0.059055474
0.030538963 -0.08834086 -0.0020254718 0.03084534 -0.06556934 0.042024218 -0.11300231 0.11763621
-0.026454186 0.18038027 -0.022202505 -0.12297464 0.11836583 -0.22685795 -0.051409885 -0.04577534
-0.09917275 0.03153515 -0.026071798 -0.16226174 0.0103300465 0.022658719 -0.07973304 -0.017630164
0.044825103 0.018963527 0.005628863 0.18783341 0.13994044 -0.14620855 -0.029779693 0.024015948
-0.02582677 -0.029493028 -0.016921354 0.0009470937 0.123650275 -0.06312909 -0.01117878 0.107781135

network_body.linear_encoder.seq_layers.2.bias f4 [128]
00000000: f130 95bd 4433 35bd d0af bc3d 539f 063d
00000010: 37f4 5abd c401 6e3c 60ce ae3d e3f1 2bbe
00000020: 3d39 273d 70df 37bd 620a f03c a845 0e3c
00000030: d2fe 823d ee0a 553c 1cbd 1d3d 57d4 993b
00000040: 2333 65be 65d1 24bd 1873 063d 348e bf3c
00000050: 0337 563d fe8d 47be 297b e7bd 5f23 8c3d
00000060: 75b1 30be 7e29 8c3c 5f9e 23bd e095 f8bc
00000070: 1e81 063d 0e28 efbd 3067 663b 881d 4f3d
00000080: e4fc 23be a45c d13d a1a8 db3a aff0 c8bc
00000090: 59ce bdbc 21f3 743c 5a8b 6d3d 97cd 67bd
000000a0: 68cd 053d fcd3 c6bc 9fb0 b73d 467d e1bb
000000b0: 2c04 c43a e88e f5bd 4f16 23be 7b60 9fbd
000000c0: 03a3 05bd 7538 dabb 2f95 89bd ac55 09bb
000000d0: 89fd d2bc 7180 703d 05fc 1ebc dab9 3b3d
000000e0: e23e 83bc 1be8 943b bd0d 673c 5adb c33c
000000f0: a999 91bd 25e1 2dbc 45a8 0c3b 7d57 073c
00000100: e65e 0abd 90ab a2bb 2a34 0cbe c206 57bb
00000110: 6321 f6ba 493f 2cbd b332 d53d cb01 f9bd
00000120: 1925 30ba 82b9 4fbe ebc2 07bd fd24 873c
00000130: 4189 04be 3598 36bd 64e8 90bd 88fd a1bb
00000140: e55f c53c 7caa 4f3c 707a debd f748 973c
00000150: 7cd9 53be 530f 15bc e547 25be 0f87 433c
00000160: f9f7 9d3c 9e0b 3ebe 9d33 3bbd 44dc 9cbd
00000170: c2dd a4bd dea3 9d3c a823 b7bd 082e 3e3d
00000180: cd68 b23c 6de7 8bbd 5c3c df3c 1e07 7dbc
00000190: 1cfb 043d 65cd 67bd b497 15bd 01a4 98b9
000001a0: ed68 96bd 0a63 f73c eae4 073d 354a b0bb
000001b0: c51f 0bbe c9dc 8bbd d98e 923d ac73 03be
000001c0: f978 12bc 2a80 343c bfbf 6fbd 0e99 44bc
000001d0: f025 473d 6ec0 84bd 4932 61bd 3b54 84bc
000001e0: fa38 4d3d aa10 ccbd 173a c53a 4325 f7bc
000001f0: 5971 3bbe 4b00 aa3c b3fb 473a 65ab 3ebe
-0.072847255 -0.044238344 0.09213221 0.032866787 -0.053455558 0.014526788 0.08535457 -0.16791491
0.04082607 -0.04489082 0.029301826 0.0086835995 0.06396259 0.013003094 0.038510427 0.0046945023
-0.22382788 -0.040238757 0.032824606 0.023383237 0.052298557 -0.1948776 -0.11302788 0.06842684
-0.17255194 0.017109629 -0.039945956 -0.030344903 0.03283798 -0.11677562 0.003515672 0.050565273
-0.16014439 0.10222748 0.0016758629 -0.02452883 -0.023169683 0.014950545 0.057994224 -0.05659255
0.032666594 -0.024271004 0.08969235 -0.006881389 0.0014954857 -0.11990148 -0.15926479 -0.07782074
-0.032626163 -0.0066595622 -0.06717908 -0.0020955605 -0.02575566 0.05871624 -0.009703641 0.04583154
-0.016021196 0.0045442707 0.014102397 0.023908306 -0.071093865 -0.010612761 0.00214626 0.008260605
-0.03378191 -0.0049642995 -0.13691774 -0.0032810424 -0.001877826 -0.04205254 0.10410061 -0.12158545
-0.0006719395 -0.2028561 -0.033144873 0.01649713 -0.12942983 -0.04457875 -0.07075575 -0.0049435534
0.024093578 0.012674924 -0.10863197 0.01846741 -0.20688432 -0.009097892 -0.16140707 0.011934056
0.019283282 -0.18559119 -0.04570352 -0.076592 -0.080501094 0.019243177 -0.08942348 0.046430618
0.021778489 -0.0683125 0.027250461 -0.015443591 0.03246604 -0.056592364 -0.03652163 -0.00029113892
-0.07344232 0.030198593 0.033177294 -0.00537994 -0.13586338 -0.06829221 0.07156152 -0.12837094
-0.008939975 0.011016885 -0.058532473 -0.011999382 0.048620164 -0.064820156 -0.054979596 -0.016153445
0.050103165 -0.09964116 0.0015047219 -0.030169135 -0.18304957 0.020752093 0.00076287537 -0.1862007

distribution.log_sigma f4 [1, 2]
00000000: f351 193d bebd 003d
0.03743167 0.031430952

distribution.mu.weight f4 [2, 128]
00000000: ccfc 2dbb e5a7 01bc fbb3 663b 8fce 803a
00000010: 7f74 8c3a e6e1 e23b 9d4e f63c 8589 32be
00000020: 7bb2 c43c 32c8 d3bb 71ab 90bb 48af 243c
00000030: 0d0d 6a3b a9d6 4b3c 9a6b 423c 840f 9e3b
00000040: 949d abbd 6f83 653b 7f46 013c 388a 3a3c
00000050: 0676 9f3c 3d7e 3fbd 239b dcbc de22 c63c
00000060: e277 0bbd 7aae f53b 9ad2 df3a 368c 153c
00000070: 5ca0 233c 671f 34bd bc73 603c 4146 be3c
00000080: 7a56 38bd ff27 203b f0ea 953b dac3 b63b
00000090: 6e21 2dbb e489 063d 16db 99ba a076 583a
000000a0: 18b5 ab3c 3f7c 593c a389 69b9 8f3a 9e3c
000000b0: dd05 90ba 7ab5 1dbd 231a 30bd e482 9cbc
000000c0: c89d f6bc 2e8f c1bb 66a6 133c 06d1 a8ba
000000d0: 894a 3a39 d176 ae3c a6da c3bb 36d9 873c
000000e0: 8120 153b ea8c 823b a454 363c 8e75 093d
000000f0: aede 75bb 5fdb 75bc 8e59 4f3c 1545 a03b
00000100: 1869 d5bb 4e1e 893a a404 98bc 6bdc 013c
00000110: df44 793c 3173 9fbb 0c1e db3c a4c0 01bd
00000120: f17a 5fbc 06d1 29bd d2f6 fc37 9e8a e03a
00000130: 6ad9 e5bc fdcb e4bb 3591 b2bc 80ac f33a
00000140: 05fc 863c 2c0d 24bc 1567 4ebc 585b 263c
00000150: 4317 9dbd 6086 c73b c87b 13bd b34a 5d3c
00000160: 57a8 933c 6d15 6cbd d738 8dbb 1dd1 3dbb
00000170: c4fe eabb 82a5 f83b f585 d4bb 222f 993c
00000180: a104 3ebb 204e 443c 8dcb bc3b 2232 34bb
00000190: bc82 bc3a f034 9b3b 2363 3eba b77e cbbb
000001a0: 9603 d5bc c69b e63b e12c 333d c70b d33c
000001b0: 934a 05bd 75b8 30bc 4197 5e3c 639c f3bc
000001c0: 6b20 98bb 5f7e 833b b040 f5b9 c3e2 46bb
000001d0: 085f 393c 7820 e8ba 2b4d f9bb eb94 aabb
000001e0: ec11 9fbb 24bb f3bc 7b60 963c 7136 69ba
000001f0: 4b08 49bd a3a8 a03c 2870 923b 8cdf 49bd
00000200: b70e bf3a ab6f d6bb 30cd 6e3c 478c 003d
00000210: eea7 163d 1952 803b 4d3e 973c 9588 5237
00000220: 5c79 a23c 5c89 01bb f148 80bd c392 20bc
00000230: 3dd1 cb3b f21d 233c 1e90 803c 5fd4 f33b
00000240: ccfa f33c 9092 913b aabb 693c cf69 8d3c
00000250: ec43 883b 05c1 783c 6379 903c 2e74 9c3c
00000260: a89b dd3c 2337 e73b 488d c43b 5ea3 953c
00000270: 24f3 bd3b 7684 153d c54e b63b f6ba 47bd
00000280: 786a 813c 5e66 fa3c 4a7d 8a3b 5923 103c
00000290: 3951 a1bb 33ca 8a3a f430 b33c 4123 63bc
000002a0: d485 e13b b586 a53c 08bd 003d 4221 113c
000002b0: f250 1e3b 67dd 3e3c 013d 013c 2ebf 97bd
000002c0: 1a32 053c b23e 2e3a c675 95bb 6696 093c
000002d0: c3e6 90ba 726e 023c 9990 0b3c 7954 77bc
000002e0: 0dc1 f93b 100f 933c 186d 863b 7045 7c3d
000002f0: 8b1c 6d3c 2fa9 8ebc 88bf 593a 6f9f 453b
00000300: ec25 033d a445 843b 473a 1cbd f9d8 ab3b
00000310: 3b41 59bd 3225 353c a514 073d 28ec 113d
00000320: 2460 b53a d0de 0d3c 547a b03b 6dff b03a
00000330: 7561 a83c 2ac8 4e3c cfb9 a6bc 22b9 b7bb
00000340: f1b5 b83b a14e 8dbb 6bb7 1cbc 00aa 1db9
00000350: fb20 153c 4f69 7c3a a34d d63c 5dd4 6f3c
00000360: 3542 0b3c ebfc 2f3d e95c 4bba 0971 0dbd
00000370: b3e2 9cbc 2f25 db3b 1ece 083b 5556 1b3c
00000380: bba4 5a39 0d44 243d 77c4 f53a bf4b 83bb
00000390: 9b21 aaba 996c 73bd 3d15 51bc 95cb af3b
000003a0: ad99 cc3c 3709 443c ea3c 873d 552a fe3a
000003b0: 942f be3c 41bc 07bc 64ae 2b3c 1c89 5d3c
000003c0: 1566 15bb 4c27 043c 6790 a4bb da35 a5bb
000003d0: fbbf b03b dd55 cb3b 87ac 3eb9 8dd3 303a
000003e0: 743c e0bb 607b f73c f5b6 edbc eb29 053c
000003f0: 2c01 af3b 7a5a b3bd a1af 533a e456 0a3d
-0.0026548384 -0.007913564 0.0035202492 0.0009827184 0.0010715871 0.006923902 0.030066783 -0.17435272
0.024010887 -0.006463074 -0.0044149687 0.010051556 0.0035713345 0.012441316 0.0118664745 0.004823627
-0.08379665 0.0035020967 0.007890343 0.011385493 0.019465458 -0.04675125 -0.026929444 0.024186548
-0.034049876 0.007497606 0.0017076314 0.009127667 0.009986963 -0.04397526 0.013699468 0.023226859
-0.045004345 0.0024437902 0.004575126 0.0055775465 -0.002641763 0.032846346 -0.0011738266 0.00082574226
0.020960376 0.0132742515 -0.00022271885 0.019315032 -0.0010988076 -0.038503148 -0.042993676 -0.019105382
-0.030104533 -0.005906961 0.00901184 -0.0012879677 0.00017766109 0.02129689 -0.0059769927 0.016583066
0.002275497 0.0039840834 0.011128578 0.033559375 -0.003751676 -0.015005915 0.012655629 0.0048910477
-0.0065127723 0.0010461302 -0.0185569 0.007926087 0.015214174 -0.004866027 0.026747726 -0.031677857
-0.013640151 -0.041459106 3.0155676e-05 0.0017131155 -0.028057773 -0.006982325 -0.021797756 0.0018590838
0.016477594 -0.010012906 -0.012597819 0.010153614 -0.076704524 0.006089017 -0.03600672 0.013506579
0.018024607 -0.05763762 -0.0043097544 -0.0028963753 -0.0071714837 0.0075880894 -0.0064856955 0.018699232
-0.0028994458 0.011981517 0.00576157 -0.0027495702 0.0014382224 0.0047365353 -0.00072626973 -0.006210174
-0.026002686 0.0070376126 0.04374397 0.025762452 -0.032541823 -0.0107861655 0.013585866 -0.029737657
-0.0046425364 0.0040128673 -0.00046778237 -0.0030347563 0.011314161 -0.0017709872 -0.007608076 -0.0052057407
-0.0048544314 -0.029752322 0.018356552 -0.0008896357 -0.049080174 0.019611662 0.0044689365 -0.049285457
0.0014576529 -0.0065440736 0.014575288 0.03138378 0.036781244 0.003916037 0.018462325 1.2548776e-05
0.01983326 -0.001976571 -0.062639125 -0.009800616 0.0062200115 0.00995587 0.01569372 0.007441088
0.029782675 0.0044425204 0.014265934 0.017262368 0.0041584875 0.015182738 0.017636007 0.019098368
0.027051762 0.0070561334 0.0059982873 0.018266376 0.005796807 0.036503278 0.0055635893 -0.048762284
0.015797839 0.03056639 0.0042263614 0.00879749 -0.0049230126 0.0010588825 0.021873929 -0.013863386
0.0068824086 0.020205835 0.031430274 0.008858027 0.0024157134 0.011649466 0.00788808 -0.074095115
0.008129621 0.00066469156 -0.004561159 0.008397674 -0.00110551 0.0079609025 0.0085183615 -0.015095823
0.0076218904 0.017951518 0.0041023605 0.06158966 0.014472137 -0.017414657 0.00083064334 0.0030154844
0.032018587 0.004036622 -0.038141515 0.005244371 -0.053040724 0.011056231 0.032978673 0.035625607
0.0013837856 0.00865908 0.0053856764 0.0013503857 0.020554284 0.012620965 -0.020352272 -0.0056067863
0.0056369235 -0.004312352 -0.009565215 -0.00015036017 0.009102101 0.00096287293 0.026160067 0.014638034
0.008499672 0.04296581 -0.000775768 -0.034531627 -0.019151067 0.0066877822 0.0020874809 0.009481032
0.00020851467 0.04010396 0.0018750568 -0.0040068324 -0.0012979986 -0.05942974 -0.012761411 0.005364845
0.024975622 0.011965088 0.06603415 0.0019391278 0.023216046 -0.008284629 0.01047859 0.013521459
-0.0022796441 0.00806601 -0.005022097 -0.00504182 0.0053939796 0.006205304 -0.00018184083 0.0006745391
-0.006843144 0.030210197 -0.029017905 0.00812767 0.005340716 -0.087574914 0.0008075182 0.03377427

distribution.mu.bias f4 [2]
00000000: 5d1d ec3d 450c bfbd
0.11529038 -0.09328512

critic.network_body.vector_processors.0.normalizer.running_mean f4 [4]
00000000: e220 0040 e2cd b0bd bb9d c3c0 c071 aa3f
2.002007 -0.08633019 -6.113004 1.3315964

critic.network_body.vector_processors.0.normalizer.running_variance f4 [4]
00000000: 1d50 334a f569 3e49 cc96 124a b62a 5e49
2.9378632e+06 779935.3 2.401715e+06 909995.4

critic.network_body.linear_encoder.seq_layers.0.weight f4 [128, 4]
00000000: 0acf c23e b128 09be d4b4 983c 7db2 bd3e
00000010: 0e5e 323e a7ec 75be 2a93 993e f618 cf3c
00000020: 576f 55bf 6bdd a0be 9e00 4e3e 6643 d3be
00000030: 6eac f5be 81c6 0a3e d6f6 e3be f972 3b3e
00000040: 1eab ffbd 96a3 debe 9e30 c73c 7ff2 36be
00000050: bfd8 583e 9860 803e a3c4 ea3d 6fe3 cfbe
00000060: 450a 4f3e a0c2 f4bd b576 f33e 2544 1dbe
00000070: ea4a 063f c692 04be aa4a 5a3e d4b9 aebd
00000080: 2c35 6d3c 9cae 3dbe 1af3 17bf 17e8 363e
00000090: c801 3a3f cd57 8f3e cfa9 b4bc e3f4 bf3d
000000a0: d48a 53bf 93c0 153f 0dbc 483e 7767 65bf
000000b0: f258 35bf 5647 56be 125b 983e ce88 fc3e
000000c0: 4565 7fbf 4de2 593f d09f 89be 2d10 5bbf
000000d0: d47e 31bf 8537 7bbe 5b15 583f 75c1 2d3f
000000e0: a2d7 61bf fd31 87be 7848 bbbd bb6a 12bf
000000f0: 1781 493e a484 a33e 35b2 873e c16c 12bd
00000100: 1acc 793f e7be 463f d831 023f cc5a 80be
00000110: 151f 883e 9083 363f ec2b a2be a4c2 223f
00000120: c726 2a3e c4b9 1abf ae08 10bf 253c 253e
00000130: 2682 ac3e 7a1c b73c 543c de3e 2adf 47bf
00000140: c2e6 57be d058 ce3d b8bb 2dbe 8a26 a4be
00000150: 8029 fe3e e6c8 62bf adac 063e d073 0c3f
00000160: 4bbe d03e d32a 703e d278 683e f19d 28bf
00000170: eea8 fcbd e950 9e3e e9fc 443f 53aa 843d
00000180: c07e f23e 11cd b43e af85 a9be 6be9 a8be
00000190: 861d a03d 3db6 343f b890 83bd 8a20 8fbd
000001a0: f7bd 5dbe 1ff9 043e 0329 84be 3c72 20bf
000001b0: ac99 3b3f dd75 6c3d 5670 2bbf 55cf f1bc
000001c0: 8fe8 5d3e 9cb2 dbbd 9597 79bc 0c39 3bbd
000001d0: 6670 61bc c034 0e3f 3980 a9bd fdc9 05bf
000001e0: 411b 9fbd 7810 173f 251b af3e 4c35 593f
000001f0: a6de 7a3e 295c 813f 0f35 17bf 39d3 d5be
00000200: abf6 adbd f202 e93e bbd9 febb 8d0b 2a3e
00000210: dab2 dfbe c64a 7e3e 671d 353f 8d79 01bf
00000220: a94a 2c3b 2aa8 443f 80f4 a43e 5351 80be
00000230: 6a84 c1bf 928c 9c3e 07ec 0b3f 20e4 54bf
00000240: e89e c7bd 20a3 023e b407 9ebe f189 2dbe
00000250: bd7e 0cbe ae7b 4abf b899 e73c d01e bbbe
00000260: 81ae 863f 5143 59bf 1f14 56be 596e 483f
00000270: ab11 813f e405 5b3f c13b 00bf d10e 7dbf
00000280: 4e18 983f 9d1a b13e 3d43 22bf a488 4ebf
00000290: 46cf 5abe 6e11 e33e 8e0b 353f a334 843c
000002a0: 608b 7d3e 94bc e8bd f56d 233e 90a0 0dbf
000002b0: 58c6 9d3d 8a4e 9abe eca4 96bd 72df d1be
000002c0: 3430 3c3f ff14 40be 5461 f2be 4cba 613e
000002d0: 0e62 dc3c eef1 5a3e 36c4 053e f76f 7abe
000002e0: 75a1 c3be d7a9 05be 2255 0bbf c215 2a3f
000002f0: f964 3d3e 88d5 4dbf 5adf febd e910 0dbf
00000300: 5080 7bbf c134 30bf 2e7f 4e3f 3054 213f
00000310: 32ac babc bd5e a5be 8b1d 153f eaae 77be
00000320: 8745 5f3e 9238 da3e 37b2 963e eb7d 0d3e
00000330: 7141 1b3f 88fc babe faf5 25bf 9e5d 34bf
00000340: b45b 8f3c c0b8 3abf 25ff ce3e ec77 a9be
00000350: ad16 033f ed8b 123e 0810 29bf 3527 66bf
00000360: b710 44be f0d8 2dbf 3633 26bf 4528 8b3e
00000370: 0b85 e4be 04a7 343d 2008 923e 53ce 3ebf
00000380: 620b d83d 7585 423f ac63 df3e 103a 0abf
00000390: 56ff 863e e1ec 94bd f917 e43e e496 813d
000003a0: 9a0d 5ebf 9cfb 663e 0e3f 763f 9da8 063e
000003b0: fadf eb3d a38f fe3e 2d87 013f 98a8 ebbe
000003c0: f798 c23d ec80 613e ddde 06bf cba0 ae3e
000003d0: d350 40be 07b0 05bf ae64 92bf 8875 1c3f
000003e0: ad12 05bf 3545 b3bd c220 1abf 2489 a4be
000003f0: 925a 983e 2fe3 c0be b5af 10be b5c0 32be
0.38048583 -0.13394429 0.018640913 0.37050238 0.17418692 -0.24016057 0.2999509 0.025280457
-0.83373016 -0.31418929 0.20117423 -0.41262358 -0.47983116 0.13552286 -0.44524258 0.18305577
-0.1248381 -0.4348418 0.024315175 -0.17865942 0.21176432 0.25073695 0.11463287 -0.40603206
0.20218761 -0.11951184 0.47551504 -0.15358026 0.5245806 -0.12946615 0.21317545 -0.08531538
0.014478009 -0.1852364 -0.5935532 0.17861973 0.7265897 0.27996674 -0.022053627 0.0937288
-0.8263371 0.5849697 0.19602986 -0.89611 -0.70838845 -0.2092565 0.2975698 0.49323124
-0.997639 0.8511093 -0.2687974 -0.8557156 -0.6933415 -0.24532898 0.84407586 0.67873317
-0.88219655 -0.26405326 -0.09144682 -0.5719411 0.1967815 0.31937134 0.2650315 -0.035748247
0.9757706 0.77635044 0.50857306 -0.25069273 0.26586214 0.712945 -0.31674135 0.6357825
0.16616355 -0.60439706 -0.56263244 0.16136225 0.33693045 0.022352446 0.43405402 -0.78074896
-0.21084121 0.100755334 -0.1696614 -0.32060653 0.49641037 -0.88587797 0.13151808 0.54864216
0.40770182 0.23453836 0.2270234 -0.65866 -0.12336908 0.30921105 0.7694841 0.06477799
0.47362328 0.35312703 -0.33109805 -0.32990584 0.07818131 0.70590574 -0.06424087 -0.06988628
-0.21654497 0.12985657 -0.2581254 -0.6267431 0.7328136 0.05772959 -0.66968286 -0.029517809
0.21670745 -0.107274264 -0.015233894 -0.0457087 -0.013759708 0.5554924 -0.0827641 -0.52261335
-0.0776887 0.59009504 0.34200397 0.8484695 0.24498996 1.010625 -0.59065336 -0.41762713
-0.08494314 0.4551006 -0.0077774203 0.16605969 -0.4369114 0.24833211 0.7074799 -0.50576097
0.0026289618 0.768191 0.3221779 -0.25062045 -1.5118535 0.30575997 0.54657024 -0.8316059
-0.09747106 0.1275754 -0.30865252 -0.16947152 -0.13720222 -0.7909497 0.028271541 -0.36546946
1.0522004 -0.8486834 -0.20906113 0.7829338 1.0083517 0.85555863 -0.5009118 -0.98850733
1.1882417 0.34590617 -0.6338385 -0.8067725 -0.21368131 0.44349235 0.70720756 0.01613838
0.24760199 -0.113640934 0.15959914 -0.55323124 0.07703847 -0.30138046 -0.07355675 -0.40990788
0.7351105 -0.1875801 -0.4733988 0.22043723 0.026902225 0.21381351 0.1306313 -0.24456774
-0.3820912 -0.1305307 -0.5442678 0.6643945 0.1849555 -0.8040395 -0.12444945 -0.5510393
-0.98242664 -0.68830496 0.8066281 0.63019085 -0.022787187 -0.32298842 0.58248204 -0.24187818
0.21803866 0.42621285 0.29432842 0.13817565 0.6064673 -0.3652079 -0.64828455 -0.7045535
0.017499782 -0.72938156 0.40429035 -0.33099306 0.51206475 0.1431119 -0.66040087 -0.89903575
-0.19147001 -0.67909145 -0.6492189 0.2717916 -0.44632754 0.04410459 0.28521824 -0.74533576
0.10549046 0.7598489 0.4363073 -0.53994846 0.2636668 -0.072717436 0.4454954 0.06327608
-0.86739504 0.22556919 0.96189964 0.13150258 0.115173295 0.4971896 0.50596887 -0.46027064
0.09501832 0.22021836 -0.5268381 0.3410705 -0.18780832 -0.5222172 -1.1436975 0.6111684
-0.5198162 -0.087534346 -0.60206234 -0.3213588 0.297566 -0.37673327 -0.14129527 -0.17456324

critic.network_body.linear_encoder.seq_layers.0.bias f4 [128]
00000000: 8edc 5dbe 69c7 783d 86d1 b6bd 3803 d0bc
00000010: 8cae 123d 3e6d a9bd e2e3 063e cd93 4b3e
00000020: 91ee 5ebb c37a 0cbe aef6 e5bd 820d 81bd
00000030: 276d 2bbd 267b aabd cf70 d3bd debc e43c
00000040: 537f f43d c1c0 273d 5852 ae3d 586e a5bc
00000050: 0823 b8bc 78b3 2abe 67a0 103d c753 f8bd
00000060: 400e c83d 7ae2 833c b6be dfbd 3464 20be
00000070: 23ff 0d3e 5ed3 a23c ddc5 bfbd 27f5 923d
00000080: 518f 1c3e b7ad 853b 527d f3bb e689 9dbd
00000090: 6367 e0bd 1b65 513d e92e c13d 3df7 533e
000000a0: 867c dbbc 6e7c b23d 345d d5bd 491f 3c3d
000000b0: 6f3a a6bd c3e9 863c a8c2 f0bd f84e 9abb
000000c0: 191a 49be 411c 57be b398 1a3b da2a 293d
000000d0: bac2 9e3b 8a22 df3d 5f1d 0b3d f594 05be
000000e0: 5dc0 ad3d 4c60 5fbe 2d8d 4dbd b799 99bc
000000f0: cbe9 6e3c 3cce 87bc cfc5 8dbd 253e a8bd
00000100: dfa2 8dbd e691 9bbd 1f1f b8bd db1e c93b
00000110: ae1c 2ebd da12 16be 5523 5ebd c9a3 ef3d
00000120: abfb 813c 9137 563d 41d1 9e3d 4733 d63b
00000130: d4f9 febd 1c40 9a3d 3b07 8c3c 77ec a8bd
00000140: 4579 f23c 811e 4a3d ecf8 a03c a9d9 023e
00000150: 9214 65bc 5cbc 9f3d 0a83 7cbd 5c97 b7bb
00000160: 15ec 8f3c 62d3 bebd d56b 07bc 4a74 633e
00000170: 75f8 b7bd d077 ca3c 5893 81bc 8ed7 9dbd
00000180: 0f5a c93a 5245 863d 7cc2 353d 8def cebd
00000190: 4ccd f7bd ae77 0ebe 7290 1c3b 1983 05bd
000001a0: f3b9 e8bd b77e 18be b280 cb3b fdc0 09bd
000001b0: a74c 243d f15c 7a3e d387 c7bb 7725 da3c
000001c0: 4780 7abd fe16 10bd 4396 5cbe 93f9 993d
000001d0: 718b fcbd 7c35 433c 3df8 c3ba d9da 76bd
000001e0: 427f c8bd 8d11 9fbd 18ce dd3d e7e1 8ebd
000001f0: 247c ba3d 84c5 e5bd 05c0 b3bd 5366 c33d
-0.21666166 0.060737047 -0.08926682 -0.02539216 0.035810992 -0.082727894 0.13172868 0.198806
-0.0034016708 -0.13718705 -0.11228691 -0.063014045 -0.041852143 -0.0832427 -0.10324251 0.02792209
0.11938348 0.04095531 0.085117996 -0.020194218 -0.022477642 -0.16670024 0.03530922 -0.12125354
0.09768343 0.016099203 -0.10925047 -0.15663224 0.13866858 0.019876178 -0.09363911 0.07175665
0.15289046 0.0040795463 -0.007430711 -0.07692318 -0.109572195 0.051121812 0.094327755 0.20699783
-0.026792776 0.08715139 -0.10418168 0.045928273 -0.08116614 0.016468888 -0.11755878 -0.004709121
-0.19638862 -0.21006872 0.002358955 0.041300632 0.0048449906 0.1089526 0.033963557 -0.13045104
0.08483956 -0.21814078 -0.050183464 -0.018750055 0.014582108 -0.016577832 -0.069224946 -0.08214978
-0.06915831 -0.07596187 -0.08990311 0.0061377115 -0.04250782 -0.14655629 -0.054232914 0.117011614
0.015867075 0.052299086 0.07754756 0.0065368745 -0.12449995 0.07531759 0.017093292 -0.08248227
0.029598841 0.049345497 0.019649945 0.12778343 -0.013981955 0.077995986 -0.061648406 -0.0056027602
0.017568627 -0.09317662 -0.008265455 0.2221233 -0.08982936 0.024715334 -0.01581733 -0.077071294
0.0015361923 0.065561906 0.044374928 -0.101042844 -0.12099704 -0.13912842 0.0023889807 -0.032595728
-0.11363592 -0.14892088 0.00621041 -0.033631314 0.040112164 0.24449517 -0.0060891896 0.026629193
-0.06115749 -0.035178177 -0.21541695 0.07518306 -0.12331284 0.011914607 -0.00149513 -0.060267303
-0.097898975 -0.077670194 0.10830325 -0.06976681 0.09105709 -0.11219314 -0.08776859 0.09541001

critic.network_body.linear_encoder.seq_layers.2.weight f4 [128, 128]
00000000: c386 8abc a297 8bbc e780 5cbc 26d3 0bbe
00000010: 6078 483d 394b babd 3eb1 a13c bf92 37bc
00000020: ef50 fc3c 2f1a d43b bfa3 c93d 5272 813d
00000030: 614f 8a3e 20ce b13c e051 3f3d 17be f43d
00000040: 9533 b1ba dad4 9dbb b1b1 39bd e8fa 643d
00000050: e45b 7cbd edfa 2c3d 9ce2 6c3d f68d 3ebc
00000060: 65e7 433d a56a 05bc d949 033c ca8c 293e
00000070: 9c19 a73c 2126 a33b 7fb0 98bd 7a6a 4a3e
00000080: 11ae 0fbe 9dce a63c 27a7 d13c d656 1f3e
00000090: 2abe f4bd 12d5 3abd d01c a13d 8e9a eb3d
000000a0: f4b2 653d e472 b43c 36ad 4fbc f2ce 973e
000000b0: e610 f03d c208 a63d 3967 93be 249b a6bd
000000c0: 8787 363e 5794 aabc 2c34 773d f56a f43b
000000d0: c1f3 f0bb 418e 88bd 95bc e43d 8bf0 dcbd
000000e0: c6c1 3fbd 01a6 34bc da5b 3e3d 96f7 23bc
000000f0: dc21 8fbe 9fdc 16bc 815b 01be 5364 8d3d
00000100: 056a 2b3e 7380 423e ee11 a1be 665c 803c
00000110: 336d 26be fa87 003e df44 32bd 9d46 173e
00000120: 424f 69bd 5459 f53b 9a54 3e3e fd71 f4bd
00000130: 0ed8 1bbe 06e8 91bd c920 ccbd a273 8e3c
00000140: f80a 8c3d 89bc 8cbd 60af 9ebb 3309 e63d
00000150: 5450 d0bd 72be d83d e873 913d ae48 afbd
00000160: 9b57 7fbd bf32 c5bd 7d8b 303d ed51 423e
00000170: 753e 793d 34c2 8dbd 612a 563d 0c14 893a
00000180: 061a 473d 9aed d83d 97a1 f93d 166e cdbc
00000190: 162d 2fbe 57ea 37be be35 17be 9b49 01bc
000001a0: 7bf2 10bb acc9 1fbe eea8 273d 8d0f 8a3c
000001b0: ada5 543e 067f aabd 6cc9 d23d bde4 98bd
000001c0: 1e1b 363d 2d15 63be 9641 43bd b845 b3bd
000001d0: b413 183e cee1 5dbc 0e57 263d 1fe8 e53d
000001e0: 87ae 073d f52f c6bc 4af4 153e f391 06be
000001f0: cb0b 5f3e e9a6 eb3c b42b 113c 322f 88bd
00000200: 5b4a d0bd 2de4 123d 3be6 1a3d d364 213e
00000210: 4377 e0bd 5f9c 15bd bc26 09bd 377a bfbd
00000220: 16a3 fabc 1692 b3bd dade 01bd d6f5 5bbd
00000230: fae4 523d ff05 bdbd eaf4 cdbd 917b 4a3c
00000240: a6d8 053e 5663 1d3e cbef dc3d 4380 aabc
00000250: baba 0ebe c972 eb3d 1c82 16be f118 d33d
00000260: 9f0a 933d af56 803d 5e74 ca3d d5a7 8dbd
00000270: 7fee 1f3d 7597 753e a29f cc3c 9eae debc
00000280: 2f97 0fbe 8345 5ebc afe3 b73d 6b35 15bc
00000290: 0e9d 13be 56a9 1b3e 4304 4e3d 6596 9abb
000002a0: 0083 2c3d 45e4 923d 250d dc3d 4144 c33c
000002b0: c86e 63bc ee21 9dbc 5097 01be 1cef 51bd
000002c0: 7712 a93d b3e1 58bb 7feb eebd 4196 9ebd
000002d0: 819a bb3d c116 783c 68a5 2fbd dc48 28bc
000002e0: 48af c3bc 2ab8 683d f777 f5bd 6f0c 22be
000002f0: f32b f2bd cfcf 9d3c 49d2 863d 57bc 1fbd
00000300: f1bd 82bc aea1 15bd 2a1b 92bd da5d 09bd
00000310: 8981 99ba dd39 fa3c 462b f8bd 1a4f 0fbd
00000320: 3c39 b03c 9182 753d ae40 9d3d 999a fb3c
00000330: 3ff3 1b3d 3965 c53b d817 bfbd 046b b5bc
00000340: 34c8 623d 7677 debd 3b49 823d 5da8 f0bd
00000350: 1517 153e 80f2 dbbd df99 31bd 542f 38bd
00000360: 0a9b c2bd ef15 383d 5d2b 7fbd d587 243d
00000370: d7c2 ca3c 7bb5 89bd 83f7 18bd c214 21be
00000380: 34a4 2ebe 7e60 203d c3bc a2bc db26 3fbe
00000390: 954f 0d3d f67b ba3d 83e3 1fb9 aef3 dd3c
000003a0: b4d4 6ebd fdc0 b83d ed05 51bd ae7a c23c
000003b0: 05f9 563d 882d 123b 5b08 d3bc 5109 d63d
000003c0: d7e3 183e 8c84 14bd 8867 18be fbaf 1bbe
000003d0: 90e2 aabd 643e 833c abcb a8bd 7f79 de3c
000003e0: 43c3 2fbd dfa6 103d a627 6e3c 39e8 a23d
000003f0: aae0 ba3b 1ee9 96bd 6fb7 2b3d 27b0 053d
-0.016909963 -0.017040078 -0.013458467 -0.13654765 0.048942924 -0.09096379 0.019737836 -0.011204421
0.03080031 0.006472848 0.09845685 0.06320633 0.27013686 0.021704733 0.04670894 0.11950319
-0.0013519401 -0.0048166336 -0.045335475 0.055903345 -0.06161107 0.04223149 0.0578333 -0.011630526
0.047828097 -0.008143102 0.008013212 0.16557613 0.020397954 0.0049789106 -0.07455539 0.1976718
-0.14031245 0.020362193 0.0255924 0.15560469 -0.119503334 -0.045613356 0.07866824 0.11504088
0.056078866 0.02202744 -0.012675574 0.29650074 0.11721973 0.08107139 -0.2878969 -0.081350595
0.17825137 -0.020822687 0.06035249 0.0074590393 -0.0073532765 -0.06667758 0.11168782 -0.107880674
-0.046815656 -0.011025907 0.046474315 -0.01000776 -0.2795552 -0.009207874 -0.12632562 0.06903901
0.16739662 0.18994312 -0.31458992 0.015669059 -0.16252594 0.12551871 -0.04352271 0.1477303
-0.05696035 0.0074874554 0.1858696 -0.11935804 -0.15219137 -0.07124333 -0.09967191 0.017389122
0.068380296 -0.06871898 -0.0048426837 0.11232223 -0.101715714 0.105831996 0.071021855 -0.085587844
-0.062339406 -0.0962882 0.043101776 0.18976565 0.06085058 -0.06921807 0.05228651 0.0010458245
0.048608802 0.10592194 0.12189024 -0.025076907 -0.17107043 -0.17960487 -0.14766595 -0.007891084
-0.0022117186 -0.15604275 0.04093259 0.016853118 0.20766325 -0.08325009 0.102923244 -0.07465503
0.044459455 -0.22176047 -0.04766997 -0.08753532 0.14851266 -0.013542606 0.040610366 0.11225914
0.033125427 -0.02419279 0.1464397 -0.13141613 0.21781842 0.028766112 0.008860517 -0.06649627
-0.10170432 0.035862137 0.03781722 0.15761118 -0.10960247 -0.03652608 -0.033484206 -0.093494825
-0.030595344 -0.08768098 -0.03170667 -0.053701244 0.0514879 -0.09229659 -0.10056479 0.012358562
0.13070926 0.15369925 0.107879244 -0.020813113 -0.13938418 0.11496503 -0.1469807 0.103074916
0.0717976 0.062665336 0.098854765 -0.06916777 0.039045807 0.23983558 0.024978463 -0.027182873
-0.14022516 -0.013566378 0.08978974 -0.009106974 -0.1441538 0.15201315 0.050297033 -0.0047176355
0.04211712 0.07172445 0.107446946 0.023836257 -0.013881393 -0.019181218 -0.12655377 -0.051253423
0.08255475 -0.0033093512 -0.11666011 -0.077435024 0.09160329 0.015142144 -0.042882353 -0.010271277
-0.023887292 0.056816258 -0.11985772 -0.15825056 -0.11824789 0.01926413 0.065830775 -0.038997974
-0.015959712 -0.036531143 -0.071340874 -0.03353677 -0.0011711578 0.03054517 -0.12117629 -0.034987547
0.021511666 0.05993897 0.07678352 0.030713366 0.038073774 0.0060240296 -0.0933072 -0.022145756
0.05536671 -0.10862629 0.06361624 -0.11750863 0.14559586 -0.107396126 -0.043359634 -0.04496701
-0.095022276 0.044942793 -0.062297214 0.040168602 0.02475111 -0.06724068 -0.03734542 -0.15730575
-0.17054826 0.039154522 -0.0198654 -0.18667166 0.034499723 0.09105675 -0.00015248176 0.027093735
-0.05830832 0.090211846 -0.051031042 0.023740139 0.052483577 0.002230497 -0.02576082 0.10450996
0.14930664 -0.03625922 -0.14883244 -0.1520385 -0.083439946 0.016020961 -0.082419716 0.027157543
-0.042910825 0.03531539 0.01453582 0.07954449 0.0057030516 -0.07368682 0.041922983 0.032638695

critic.network_body.linear_encoder.seq_layers.2.bias f4 [128]
00000000: 2f74 223d dde7 623c 4cef 59bd 778d b5bd
00000010: a205 43bd d970 83bd 5cc3 60bd 4815 193e
00000020: f5cc 85bd 57aa 4cbd 44eb c53c 2aa8 a7bd
00000030: 5203 01be 5d10 12be 52c3 283c eec8 693d
00000040: 4a96 89bd bff4 74bd 683f fbbc 0594 d9bc
00000050: 2ef4 bcba 8aa2 8fbd 1db1 91bd e0e2 5d3c
00000060: c544 6fbd c676 be3d b2bf 82bd 7dee b8bd
00000070: 7abf 983c 9076 e93c 6886 73bd 0733 783c
00000080: e13f 883e 8994 1f3d e7be 36bd b77a 493e
00000090: 05b6 803d 1d3f c5bd 250c 193d 0557 683c
000000a0: 1f44 30bd e724 8abd 512c 90bd fe30 803d
000000b0: c25c 86ba ddff a73c 1224 cc3d d9be f03b
000000c0: aae7 c9bd a67d 04bd bd5b 743d be2d 99bd
000000d0: d7d9 563c 83af a5bb e240 c63c 2a5b e8bc
000000e0: 9a67 1e3c b19d 563e b99e 2ebe 33a4 1c3d
000000f0: b88a 00be e716 8fbd e27a 0cbe 5e03 093d
00000100: f7ca 083d 3b1d 66bd 2216 c83d 6473 843c
00000110: d225 2dbd d25b 96bd ae8a 053d 32b7 b03c
00000120: 00cb 85bd 12b3 84bd d8a8 06be ac58 99bb
00000130: 6a30 57bd 459e a63c da8f 51bd 2e4b d2bd
00000140: 4876 3e3d 05e0 a93d eea8 ccbd 4846 d63c
00000150: 5a5d ed3c e932 a13d c7b7 f13c 58ee ef3c
00000160: e3c3 933d 0dd7 8abd 3963 9bbd b94f c7bb
00000170: 51c5 96bc da85 543d a4d2 aebd a089 82bd
00000180: a956 86bd c39b 8fbd 5149 96bd 710b 7bbd
00000190: ea6e 32bd ef66 953d bd26 dcbd 3328 afbd
000001a0: 52f4 cabd bada 27bd d1b2 86bd 8d22 e7bd
000001b0: 48d6 593d 97cf 863e d42e 023d 6c6f b8bd
000001c0: 4227 903d 1e44 81bd 96b0 1d3d a89a 243d
000001d0: 5e49 84bd 04b1 253d 6e2d 86bd 9947 8b3d
000001e0: 16a1 6ebd f05f acbd 1df6 843d ccd9 d0bd
000001f0: 5702 493d 9b56 86bd 0c7b adbd a8d1 dbbd
0.039661583 0.013849226 -0.053206727 -0.08864873 -0.047612794 -0.06418008 -0.05487381 0.14949524
-0.06533233 -0.049967136 0.024160035 -0.081863716 -0.12598923 -0.14264055 0.010300474 0.057076387
-0.067181185 -0.05980372 -0.030669883 -0.026559839 -0.0014416033 -0.07013424 -0.0711386 0.013542861
-0.058415193 0.09299998 -0.06384219 -0.09029863 0.01864599 0.028498918 -0.05945435 0.015148885
0.26611236 0.038960014 -0.044615652 0.19675718 0.062847175 -0.096311785 0.037365098 0.014180903
-0.043033715 -0.0674532 -0.07039703 0.062593445 -0.0010251033 0.020507747 0.09967817 0.0073469696
-0.098586395 -0.03234639 0.0596578 -0.07479428 0.0131134605 -0.005056323 0.02420086 -0.028363783
0.009668255 0.20958592 -0.17052735 0.03824253 -0.12552917 -0.0698679 -0.13718751 0.033450477
0.033396687 -0.05618022 0.097698465 0.016168304 -0.042272396 -0.07341732 0.03260296 0.02157173
-0.0653286 -0.064794675 -0.13150346 -0.00467976 -0.052536406 0.02033914 -0.05116258 -0.10268246
0.04649952 0.082946815 -0.09993158 0.02615656 0.028975178 0.078710385 0.029506577 0.029288456
0.07215097 -0.06779299 -0.075872846 -0.0060825017 -0.018404635 0.051885463 -0.0853627 -0.06373906
-0.06559498 -0.07012131 -0.07338203 -0.06129021 -0.043562807 0.07295024 -0.10749576 -0.08552589
-0.09909882 -0.04098008 -0.06577075 -0.11285887 0.05318287 0.26330253 0.03178294 -0.09005627
0.07038738 -0.063118204 0.038498484 0.040186554 -0.06459306 0.04045202 -0.06551634 0.068007655
-0.058259092 -0.08416736 0.06492255 -0.101977915 0.049074497 -0.065594874 -0.08470735 -0.10733348

critic.value_heads.value_heads.extrinsic.weight f4 [1, 128]
00000000: 342d 0cbe 913b 143b 4a45 993c ddb1 873e
00000010: 1ed6 e93b 4c13 b03c c32d fe3d d06f 91be
00000020: eb6b 9d3d 7e59 753c 7c88 efbb be23 3f3e
00000030: c72c 063e 2a68 5f3e 7e25 b6b9 eaa2 3abd
00000040: 566e da3d 68b0 283c 2c2a f83a 260d 95ba
00000050: a541 c6bd 15e3 0b3e 57b8 8a3d 1cb1 cdbc
00000060: 2389 4b3d 49b4 6ebe 68d8 563e 982f a63d
00000070: f8ee dbbc 917b bebd 8361 2a3a 3377 20bd
00000080: d737 44be 2b9a c8bd 1c64 ff39 8c12 29be
00000090: e295 94bd 3989 a43d d949 21be 3538 f6bd
000000a0: 419c 3dba c7cd cb3d 025f 863d 143e 7dbe
000000b0: e6fc 19be b4b2 5bbd f286 26be bf26 2bbe
000000c0: bd57 de3d 0fbb 5c3d 5fac 46be c42e 9f3e
000000d0: 22af 4abe de92 81bd 6d1f 5cbd b698 6e3a
000000e0: 60bf 83bd c627 8dbe 500b 8f3d ea74 1abe
000000f0: 5238 0b3e 7410 fd3d f323 533e f87d c53a
00000100: f1f2 0fbe 7522 b83d c3d1 3dbe bad1 a5bd
00000110: f2fe 283a 4fe0 103e 0daa 35bd 6a39 70bd
00000120: 2c55 6d3d 995b 423e 2d17 423e df6d 91bd
00000130: f226 413e 0d4d d4bc 2eee 8fbb 7bde 993d
00000140: 3acb 47be ac8f eebd 7304 313e b1b6 aebd
00000150: 999f fcbd 99be 4cbe 931f 4dbd bfd2 a2ba
00000160: 342a 60be abb7 5b3d 2f58 643e 9c0d f2bc
00000170: 5eac a939 ebb4 f9bc cd50 003e d221 af3d
00000180: 0824 b53d 0995 0f3c 2cec bc3d e5aa c93d
00000190: 4311 0cba f6f3 33be d057 953d b7fc 513e
000001a0: 1e01 1b3e 05b9 533e 1a43 b73d 2b2b 4b3e
000001b0: ec5d a1bd b54f 61be 30d8 e8bd 0485 283d
000001c0: 1a61 08be 654c cd3d 77c8 f9bd e574 0ebe
000001d0: fc90 2a3c 52fe 99bd 81d0 7b3d 6fbe a9bd
000001e0: 413d da3a ac43 4a3d 9e19 f7bd b22b 993d
000001f0: eafd c8bd f243 383e 9bd4 4a3e ca0b beba
-0.13689119 0.0022618512 0.018709797 0.26502886 0.0071361205 0.021493576 0.12411072 -0.2840562
0.07686599 0.01497495 -0.0073099714 0.18665978 0.13103019 0.21817079 -0.0003474168 -0.045565523
0.10665576 0.010295965 0.0018933467 -0.0011371716 -0.096804895 0.13660844 0.06773441 -0.025108866
0.04969133 -0.23310961 0.2098099 0.081145465 -0.026847348 -0.09300912 0.0006499516 -0.039176177
-0.19161926 -0.0979503 0.00048711977 -0.16510981 -0.072551504 0.08033986 -0.15750827 -0.120224394
-0.00072330615 0.09951358 0.0656109 -0.24730712 -0.1503788 -0.05363722 -0.16262415 -0.16713999
0.108565785 0.05388933 -0.19401692 0.31090367 -0.1979337 -0.06326841 -0.053740907 0.0009101735
-0.06432986 -0.27569407 0.069845796 -0.15083662 0.13595703 0.12356654 0.20619182 0.0015067449
-0.14057519 0.08990947 -0.18537049 -0.08096643 0.0006446681 0.14148067 -0.044351626 -0.058648504
0.057942554 0.18980254 0.18954153 -0.071010344 0.18862513 -0.025915647 -0.004392407 0.07513138
-0.19511119 -0.11648497 0.17286853 -0.08530939 -0.12335128 -0.19994582 -0.05007894 -0.0012422426
-0.21891099 0.053641956 0.22299264 -0.029547505 0.00032362615 -0.030481776 0.12530823 0.085513726
0.08844763 0.00876356 0.09224734 0.09847049 -0.00053431484 -0.17573532 0.072921395 0.2050656
0.15137145 0.20676048 0.089483455 0.19840686 -0.07879242 -0.22003062 -0.113693595 0.04114248
-0.13318291 0.10024337 -0.12196439 -0.13911779 0.0104105435 -0.07519211 0.06147814 -0.082882755
0.0016650335 0.049380943 -0.12065433 0.07479037 -0.09814055 0.17994669 0.19807665 -0.0014499363
