ml-agents-master/ml-agents/config/results/ppo/LineCreator/LineCreator-10970.onnx (onnx, 71632 bytes, 9 tensors)

53 f4 [4]
000000 45 71 be 40 85 74 43 40 0a e0 22 40 fb 52 45 40
       5.951327 3.0539868 2.5449243 3.0831897

54 f4 [1, 2]
000000 00 00 00 00 00 00 00 00
       0.0 0.0

distribution.mu.bias f4 [2]
000000 00 00 00 00 00 00 00 00
       0.0 0.0

distribution.mu.weight f4 [2, 128]
000000 0b 7c 9c bc 41 fe 96 3c 39 38 22 3c ad 06 c9 3c
       -0.019102117 0.018431785 0.0099011 0.024539316
000010 3d 8d 06 bc c4 ba 4a 3c 57 f5 de 3c ff 97 66 bc
       -0.008212385 0.01237363 0.027216597 -0.014074325
000020 98 85 f8 bc 33 06 51 3c a1 b4 03 bd 0b e0 d6 bb
       -0.03033714 0.012757826 -0.032154683 -0.0065574697
000030 2f 32 d4 3a 73 76 6a 3c cc a7 99 3c 22 b3 70 3c
       0.0016189272 0.014310467 0.01875677 0.014691146
000040 19 d3 a5 bc 84 6a 3a bc 8a 30 0a 3d 83 24 b7 bc
       -0.02024226 -0.011377934 0.033737697 -0.022356277
000050 80 41 e7 bb cf e7 ce bc da 56 f3 3a e3 5b f5 3b
       -0.0070573688 -0.02525702 0.0018565312 0.0074877604
000060 b6 59 46 3c e5 60 a1 3c 6a 68 4c bc 9d e7 91 bc
       0.01210635 0.019699523 -0.012476066 -0.017810637
000070 f5 f6 f4 bc f4 1d 21 3c 5b e2 d2 3c 95 c6 31 bd
       -0.029902915 0.009833802 0.0257427 -0.043402273
000080 87 e7 d3 3a 70 36 84 3b 67 68 44 3b 37 9e 64 3c
       0.0016167023 0.00403481 0.0029969455 0.013953737
000090 21 ad c6 bc 45 95 5a 3b af 4f 85 bc 8b ea 00 3c
       -0.024252476 0.0033353132 -0.016273348 0.007868419
0000a0 16 84 2d bc ff 08 eb 3c 00 ed bb bb a7 47 9e 3c
       -0.010590574 0.028690813 -0.0057350397 0.019321276
0000b0 92 2c bf 3b 8d 41 8a bc 1f a3 be bb bf 77 36 bc
       0.0058341706 -0.01687696 -0.0058177854 -0.011136948
0000c0 7b dc f2 bb 54 a6 81 3b 06 48 02 ba a1 ec b7 3b
       -0.007411537 0.0039565954 -0.0004969839 0.005612925
0000d0 87 89 33 bc 02 87 8c bb a0 55 78 bc 00 a4 db bc
       -0.010958082 -0.004288555 -0.015157133 -0.0268116
0000e0 3d 0b 58 3d 91 b2 a9 ba 72 ad 11 3c 21 b8 bd 3c
       0.052745093 -0.0012946894 0.00889145 0.023159089
0000f0 fd dd 83 3c 3f e2 51 bc c5 0e a6 3c 9f 99 39 bc
       0.016097063 -0.012810289 0.020270715 -0.01132813
000100 e9 03 06 3d 1e b9 84 bc 5b a4 f6 bc 8e 3a 98 3a
       0.032718573 -0.016201552 -0.030107668 0.001161413
000110 23 96 51 bc e8 d0 7b 3c 24 4f 4c bb 11 d1 85 bc
       -0.012792143 0.015369631 -0.0031175101 -0.016335042
000120 82 ae c8 bb 47 eb 10 3c 53 41 43 3c 87 38 ad 3c
       -0.0061243186 0.008845157 0.01191743 0.021145118
000130 2f da ed 3c b2 f8 f3 3c 6a 2c 5b 3c 2d 29 b0 3c
       0.029034702 0.029781673 0.013377288 0.02150401
000140 17 be 24 3d f7 fb ad 3c 73 e7 64 3c 34 07 01 3c
       0.040220346 0.02123831 0.013971197 0.0078752525
000150 17 0c ef bb bd 3e b5 ba b5 76 51 3c ab cf 3f bb
       -0.0072951424 -0.0013827902 0.01278465 -0.0029268067
000160 49 04 9c bc 8d 13 06 3c 87 93 90 3a 8b 96 20 3b
       -0.019045012 0.008183372 0.0011030295 0.0024503793
000170 77 4c 52 bc fb 74 af 3c bd bc ab bc 5b e1 00 bb
       -0.012835613 0.021418085 -0.02096402 -0.0019665572
000180 ac 57 c0 bc b7 c6 c7 bc 99 3e 93 bc 3c 6b 08 bc
       -0.023479305 -0.024386747 -0.017974185 -0.008326348
000190 88 6a a8 3c f3 e6 8d bc 7f 36 17 3c f9 65 33 3c
       0.02055861 -0.01732204 0.0092293015 0.010949605
0001a0 5f fd 08 3d 1d de 9c bc 11 3b 38 bd 8b ed 62 3c
       0.03344476 -0.01914888 -0.044978205 0.01385058
0001b0 46 59 45 3c 82 30 32 3c 85 5b 51 bc a8 22 46 bc
       0.01204521 0.010875823 -0.012778168 -0.012093224
0001c0 cf 85 f2 bc aa e1 d2 bc ac fc ae 3c 15 b7 73 3c
       -0.02960482 -0.02574237 0.021360718 0.014875193
0001d0 52 40 88 bc e3 8f 49 bd de 1c 98 3b 95 21 f9 3c
       -0.016632233 -0.049209487 0.004642113 0.030411521
0001e0 e3 9e 84 3c 7b 92 d8 3b c6 a1 9f bb a1 ad 95 bc
       0.016189044 0.0066092587 -0.00487158 -0.01827127
0001f0 5b e4 77 3c f5 8d d2 3c 08 04 f7 3b 05 3c a2 bc
       0.015130128 0.025702456 0.0075383224 -0.01980401
000200 a3 be 74 bc b6 cc 8e bc b4 d0 35 bc b0 96 e9 3b
       -0.014938029 -0.017431598 -0.011097122 0.007128559
000210 27 14 17 3c a8 8e 5f bc a3 29 53 3c 0f a7 4b bc
       0.009221113 -0.013644852 0.012888345 -0.012429967
000220 43 ef 23 ba fc cf c6 3c ad 4c d5 bc 25 81 f3 3b
       -0.00062536093 0.024269097 -0.026037538 0.0074311667
000230 2c 7b 47 3c 81 47 31 bc d6 49 07 bc 89 b1 43 bc
       0.012175363 -0.0108202705 -0.00825735 -0.011944183
000240 c7 fe dc bc 92 61 d9 bb 4f bb 12 bd 52 e5 7d bc
       -0.026976956 -0.0066339457 -0.035823163 -0.015496569
000250 4e 6d 97 bc 31 77 8d 3c ab 0a cb 3c bd 0b 5c bb
       -0.018484738 0.017268749 0.02478536 -0.0033576332
000260 b7 c6 26 bc 3d e4 f1 3b c1 7c 43 3c 77 2d 65 bb
       -0.010179213 0.0073819445 0.011931599 -0.0034969726
000270 ff e7 80 3c 0f 1b c6 3c 6d 5d 66 3c e3 4c e2 bc
       0.015735624 0.024182824 0.01406036 -0.027624553
000280 ff 64 d3 3b 03 26 09 b9 0b e4 c7 bc 5c d7 ae 3b
       0.0064512487 -0.00013079499 -0.024400732 0.0053357314
000290 00 22 ea 3b 68 cf 35 bc 1e 02 aa bc e0 1a d7 bb
       0.0071451664 -0.011096813 -0.020752963 -0.006564483
0002a0 76 a8 39 3c 58 49 2c bd 7b 7f 75 3c 1f 7b 4b bd
       0.011331668 -0.042062134 0.014984007 -0.049677964
0002b0 95 58 16 3d 0f e9 54 bc ae f3 a0 bc e7 8b 47 3d
       0.036705572 -0.012995019 -0.019647446 0.048717406
0002c0 f2 d5 09 3c 23 9b 09 3c 91 d0 af bb c7 93 0e 3b
       0.008412825 0.008398804 -0.005365439 0.0021755563
0002d0 73 f3 a5 bc 72 74 0e bd 0f 0c 74 3c 54 79 c3 ba
       -0.020257687 -0.03477902 0.014895453 -0.0014913478
0002e0 7d c9 07 bc 4a 53 4e bc b7 1b 92 bc c6 72 1c bc
       -0.008287785 -0.0125931 -0.017835481 -0.0095488485
0002f0 90 b4 30 3b 83 99 57 bc 76 16 95 3c 70 2e 33 3c
       0.0026963092 -0.013159159 0.018199187 0.0109363645
000300 e0 31 55 bc df ae 6d bc 6f 0c a8 3c 28 a9 40 bc
       -0.013012379 -0.014507025 0.020513741 -0.01175908
000310 42 99 40 bc 33 a3 29 bd 8f ac 05 bd ee 19 94 bc
       -0.0117552895 -0.041415405 -0.032635268 -0.01807877
000320 3a 7f 0f bb 0c a8 08 3d 23 76 9c 3c 0a 4b e4 3c
       -0.0021895901 0.033363387 0.0190993 0.027867813
000330 83 d3 43 3b ff e0 b3 3c a4 d3 0b bc 0e c6 10 3d
       0.002988071 0.021957872 -0.008534346 0.03534513
000340 77 a1 32 3c 3e 93 3c bc f3 be 1b 3d 48 ac cc bc
       0.010902754 -0.011509715 0.0380239 -0.024984494
000350 75 53 4a 3c 14 00 9c bc 3f 24 0e 3c ad 62 77 3c
       0.012348999 -0.019043006 0.008675634 0.01509921
000360 73 ff 6d bc 9b 90 3f 3c 20 ec d1 3c e2 f3 0d 3c
       -0.014526236 0.0116921915 0.025625288 0.008664103
000370 ee 59 3b b9 7f a2 99 bc 06 e7 38 bc a0 1b eb 3c
       -0.00017867211 -0.018754242 -0.011285549 0.028699696
000380 3b 30 ee bc dd ee 1d bb 31 8e 33 bc 93 a5 66 bc
       -0.029075732 -0.0024098672 -0.010959194 -0.014077562
000390 ca 75 1c 3c 25 05 bf 3c 55 0b 04 3d 13 fa 66 3c
       0.0095495675 0.023317883 0.03223737 0.014097708
0003a0 d7 76 07 bb ec af c6 3c 39 75 43 bc fe 52 03 bc
       -0.00206702 0.024253808 -0.0119298035 -0.008015392
0003b0 eb d6 cf bc f8 b6 bb 3c 72 a3 29 3c a2 3f 0b 3b
       -0.025371036 0.022914395 0.01035391 0.0021247645
0003c0 02 62 bc 3c 43 04 3d bb 77 45 39 3b e3 d6 bf bc
       0.022995953 -0.0028841652 0.0028270164 -0.023417896
0003d0 3f 2b a6 3c 16 76 2e bc 08 38 84 3c 1e 90 03 3b
       0.020284293 -0.010648271 0.016139999 0.0020074914
0003e0 f7 f2 f0 bc 02 b2 35 3d db d6 12 bd b4 80 3e b9
       -0.02941273 0.044359215 -0.035849433 -0.00018167758
0003f0 8c dc 1d 3c aa 11 a1 3c 95 f7 b4 bb 67 9f 99 b9
       0.009635102 0.019661743 -0.005522678 -0.00029301198

network_body.linear_encoder.seq_layers.0.bias f4 [128]
000000 00 00 00 00 00 00 00 00 00 00 00 00 00 00 00 00
       0.0 0.0 0.0 0.0
000010 00 00 00 00 00 00 00 00 00 00 00 00 00 00 00 00
       0.0 0.0 0.0 0.0
000020 00 00 00 00 00 00 00 00 00 00 00 00 00 00 00 00
       0.0 0.0 0.0 0.0
000030 00 00 00 00 00 00 00 00 00 00 00 00 00 00 00 00
       0.0 0.0 0.0 0.0
000040 00 00 00 00 00 00 00 00 00 00 00 00 00 00 00 00
       0.0 0.0 0.0 0.0
000050 00 00 00 00 00 00 00 00 00 00 00 00 00 00 00 00
       0.0 0.0 0.0 0.0
000060 00 00 00 00 00 00 00 00 00 00 00 00 00 00 00 00
       0.0 0.0 0.0 0.0
000070 00 00 00 00 00 00 00 00 00 00 00 00 00 00 00 00
       0.0 0.0 0.0 0.0
000080 00 00 00 00 00 00 00 00 00 00 00 00 00 00 00 00
       0.0 0.0 0.0 0.0
000090 00 00 00 00 00 00 00 00 00 00 00 00 00 00 00 00
       0.0 0.0 0.0 0.0
0000a0 00 00 00 00 00 00 00 00 00 00 00 00 00 00 00 00
       0.0 0.0 0.0 0.0
0000b0 00 00 00 00 00 00 00 00 00 00 00 00 00 00 00 00
       0.0 0.0 0.0 0.0
0000c0 00 00 00 00 00 00 00 00 00 00 00 00 00 00 00 00
       0.0 0.0 0.0 0.0
0000d0 00 00 00 00 00 00 00 00 00 00 00 00 00 00 00 00
       0.0 0.0 0.0 0.0
0000e0 00 00 00 00 00 00 00 00 00 00 00 00 00 00 00 00
       0.0 0.0 0.0 0.0
0000f0 00 00 00 00 00 00 00 00 00 00 00 00 00 00 00 00
       0.0 0.0 0.0 0.0
000100 00 00 00 00 00 00 00 00 00 00 00 00 00 00 00 00
       0.0 0.0 0.0 0.0
000110 00 00 00 00 00 00 00 00 00 00 00 00 00 00 00 00
       0.0 0.0 0.0 0.0
000120 00 00 00 00 00 00 00 00 00 00 00 00 00 00 00 00
       0.0 0.0 0.0 0.0
000130 00 00 00 00 00 00 00 00 00 00 00 00 00 00 00 00
       0.0 0.0 0.0 0.0
000140 00 00 00 00 00 00 00 00 00 00 00 00 00 00 00 00
       0.0 0.0 0.0 0.0
000150 00 00 00 00 00 00 00 00 00 00 00 00 00 00 00 00
       0.0 0.0 0.0 0.0
000160 00 00 00 00 00 00 00 00 00 00 00 00 00 00 00 00
       0.0 0.0 0.0 0.0
000170 00 00 00 00 00 00 00 00 00 00 00 00 00 00 00 00
       0.0 0.0 0.0 0.0
000180 00 00 00 00 00 00 00 00 00 00 00 00 00 00 00 00
       0.0 0.0 0.0 0.0
000190 00 00 00 00 00 00 00 00 00 00 00 00 00 00 00 00
       0.0 0.0 0.0 0.0
0001a0 00 00 00 00 00 00 00 00 00 00 00 00 00 00 00 00
       0.0 0.0 0.0 0.0
0001b0 00 00 00 00 00 00 00 00 00 00 00 00 00 00 00 00
       0.0 0.0 0.0 0.0
0001c0 00 00 00 00 00 00 00 00 00 00 00 00 00 00 00 00
       0.0 0.0 0.0 0.0
0001d0 00 00 00 00 00 00 00 00 00 00 00 00 00 00 00 00
       0.0 0.0 0.0 0.0
0001e0 00 00 00 00 00 00 00 00 00 00 00 00 00 00 00 00
       0.0 0.0 0.0 0.0
0001f0 00 00 00 00 00 00 00 00 00 00 00 00 00 00 00 00
       0.0 0.0 0.0 0.0

network_body.linear_encoder.seq_layers.0.weight f4 [128, 4]
000000 93 78 8e bc e0 f7 c6 be ec 12 29 3f 00 19 34 bd
       -0.017391479 -0.3886099 0.660445 -0.043969154
000010 fd 14 c9 3c 8d a7 bd be f5 11 61 be 2b 7f 4c bf
       0.02454614 -0.37041894 -0.21979506 -0.7988154
000020 e7 00 3b 3e 6e a3 60 be 64 49 1c be f4 46 c0 be
       0.18262063 -0.21937343 -0.15262371 -0.37554133
000030 78 47 eb be 64 41 44 3f fc 16 ba bd ab a7 38 bf
       -0.45952964 0.7666228 -0.09086415 -0.7213084
000040 62 98 9d 3e 84 2e dd be cd 02 b7 be 63 0b b3 be
       0.3078032 -0.4319955 -0.35744324 -0.34969625
000050 2a 73 35 3f 0c a9 25 be 86 88 bb be 54 4b 46 3e
       0.7087885 -0.16177768 -0.36627597 0.19364673
000060 2a f2 80 bd 93 2f 30 be b0 5d 04 bf c9 4d 04 3f
       -0.06296189 -0.17205648 -0.51705456 0.5168119
000070 70 db 31 bf b5 5a 11 bd 05 2b 2c bf 09 a6 39 be
       -0.6947546 -0.035486896 -0.6725314 -0.18129744
000080 38 82 57 bf b1 ae 5d bd c6 4f 67 3f 16 80 37 bf
       -0.84183073 -0.054121677 0.903561 -0.7167982
000090 df 41 99 be 20 0c 13 3e 7f 46 ba 3d 3f 7e 31 be
       -0.29933068 0.14360094 0.09095477 -0.17333315
0000a0 60 00 c9 be 15 2c a5 be 67 4d 2b 3f 4b cf b5 bd
       -0.392581 -0.32260194 0.6691498 -0.088774286
0000b0 7f 7c f6 be 65 98 b1 3e a3 5a 0d 3f 55 e7 e9 3d
       -0.48141858 0.3468658 0.55216426 0.11421076
0000c0 c7 89 de be 11 0e 1a 3e 17 32 9e 3e 84 3a 95 3f
       -0.4346449 0.15044428 0.3089759 1.1658483
0000d0 d6 71 08 3f 13 74 b4 be 83 6a c4 3e ae 76 12 3f
       0.532987 -0.35244808 0.38362512 0.5721234
0000e0 9b 7e f1 3e fd d9 7f be eb 38 c2 be 02 94 9e bf
       0.47166905 -0.249855 -0.3793405 -1.2388918
0000f0 aa 1c f1 bd ce 3d 80 be 29 e6 11 be b7 5c dc be
       -0.11773045 -0.25047153 -0.14247955 -0.43039486
000100 e0 af 14 be c4 8c 20 bf 5f 71 8c 3e 17 f8 b1 3e
       -0.14520216 -0.6271479 0.27430245 0.3475959
000110 78 60 02 3f 23 61 c9 be ad fd 56 3f e3 bc dc bc
       0.5092845 -0.39331922 0.8398083 -0.026945537
000120 cd fb fb 3e f1 02 df 3e 58 28 71 3f 06 e8 32 3e
       0.49215546 0.43556932 0.94202185 0.17471322
000130 cf cd c2 3e 3e 13 70 be 02 ae 3a bf b9 a6 1d be
       0.38047644 -0.2344484 -0.72921765 -0.15395631
000140 65 e4 ab 3d 5e 00 9b bf 7b c0 21 3f 5f a7 ca 3d
       0.08393172 -1.2109487 0.63184327 0.09895205
000150 3e ee 65 be 79 fd 2b 3f 6f d5 4b 3f 70 6d 9c 3e
       -0.22454163 0.67183644 0.7962255 0.30552244
000160 39 61 e4 be 63 83 bf 3e 44 9d 74 3d 30 b2 94 3e
       -0.44605425 0.37404928 0.059720293 0.29042196
000170 89 e6 86 3e 2c 76 11 3f ef 72 30 bd ed d7 d1 3d
       0.2634776 0.5682094 -0.04307836 0.10246263
000180 02 71 90 3e a7 d8 2e 3f 17 28 1f be 2c e4 b9 be
       0.28211218 0.68299335 -0.15542637 -0.36306894
000190 3c a1 a0 be 1a aa 4c 3e 00 46 9a 3e 3f 14 44 3f
       -0.31373012 0.19986764 0.3013153 0.76593393
0001a0 a4 18 fb bd de bc 7a 3e e8 c1 36 bf f2 db 28 3f
       -0.12260559 0.2448611 -0.7138963 0.6596061
0001b0 56 5c 0b bf 56 a4 85 bd e4 c5 ab be ad c5 24 bf
       -0.5443777 -0.06525485 -0.33549416 -0.6436413
0001c0 25 f5 98 be 8f c8 22 3f 93 e9 9e be ad 93 68 3e
       -0.2987453 0.6358728 -0.31037578 0.22712584
0001d0 83 c9 28 3e dd ea 01 be 1e 18 b7 3e ce fd 45 3f
       0.1648312 -0.1268725 0.35760587 0.773404
0001e0 cb 5d 05 be 95 82 9c be f7 13 df be 33 09 02 3f
       -0.1302406 -0.30568376 -0.4356992 0.50795287
0001f0 00 0d 4d 3f 78 cc 85 be 82 6a 21 bf b1 9d 27 3f
       0.8009796 -0.2613256 -0.63053143 0.65474993
000200 e8 37 b6 3d 1b 8f 23 3f b6 5e 1f 3d 9b 51 5a bf
       0.08897382 0.63890237 0.038908683 -0.8528077
000210 49 18 f9 3d d4 b2 50 bf 31 27 aa be 30 ec fe 3e
       0.12162835 -0.8152287 -0.33233026 0.49789572
000220 26 51 23 3e c1 23 b9 bc 52 b0 8d be 14 12 7e 3f
       0.15948924 -0.022600057 -0.27673584 0.99246335
000230 88 44 a9 bd ce 2c 7e 3e d4 4a 90 bf 64 67 21 be
       -0.082650244 0.24821779 -1.1272836 -0.15762097
000240 81 c5 30 3e 16 b8 94 bd 30 16 83 3e 54 df a0 3d
       0.17262842 -0.07261674 0.25602865 0.078550965
000250 df af f9 3e 50 cd 4c bd 2a 79 2e bd 72 16 05 bf
       0.48766991 -0.05000049 -0.04259602 -0.51987374
000260 25 8b b2 3d 64 26 61 bf 92 98 01 3e a5 2b 2e 3f
       0.08717946 -0.87949204 0.12655857 0.68035346
000270 17 9b 0f be 4c fa 9a 3e 8e 30 18 bc bf a2 c5 3e
       -0.14024006 0.30269086 -0.00928892 0.38600728
000280 54 b4 58 bf 29 e7 b6 be 39 9a 0f 3e 1d 01 54 3f
       -0.8465016 -0.35723236 0.14023675 0.828142
000290 6e 2d b4 3e 41 8f 9c 3f 8b f9 81 bd 3e 72 e0 3d
       0.3519091 1.2231218 -0.06346425 0.1095929
0002a0 39 62 35 be e3 73 38 3f 8a 75 47 3f 4e 07 3a be
       -0.1771325 0.7205183 0.77913725 -0.18166849
0002b0 05 4f 2e 3e 75 4a 0f bf bc e3 9d be e6 f7 d7 3b
       0.17022331 -0.5597299 -0.3083781 0.006590831
0002c0 63 bf 42 be f3 8d 4b be c7 78 59 3e 8e fe 2b bf
       -0.1901832 -0.19878368 0.21237479 -0.67185295
0002d0 1d 0a 8b bd f2 13 5a 3e b9 dd c9 bf 27 1f af 3e
       -0.06789038 0.21296671 -1.5770789 0.34203455
0002e0 56 c4 f0 3e 72 5c 0e bf c6 75 19 bc 66 39 13 bf
       0.47024792 -0.5560981 -0.009366458 -0.5750946
0002f0 84 81 dd bd 0b 55 98 3e c3 96 12 3e c6 db 73 bf
       -0.10815719 0.29752383 0.14315324 -0.9525722
000300 cf fa 43 be ca 22 b0 bb c1 a3 a1 bd ee f0 77 3f
       -0.19138645 -0.005375241 -0.07892562 0.96852005
000310 62 3f 2e 3f b0 6e 14 be 7e 93 25 3f cc 1e 15 3f
       0.68065464 -0.14495349 0.6467818 0.5825012
000320 c3 14 af bd 1e 5a 4c 3f 3f 4f 49 be 80 dd 00 bf
       -0.08548882 0.7982501 -0.19659136 -0.5033798
000330 6b de 9b bd b3 96 89 3e d7 03 bb bd be cd 70 be
       -0.07610782 0.26872787 -0.09131592 -0.23515984
000340 14 ac dc 3e 52 89 8d be 84 7b 08 be 1a 62 f7 3d
       0.43100035 -0.2764383 -0.13328367 0.12079258
000350 88 35 be be 18 ed 17 3f 1a 46 88 be b1 42 0d bf
       -0.37150216 0.5934615 -0.26615983 -0.5517989
000360 27 8f c1 3e 19 19 17 3f c1 ca c3 be cc 6c e3 3c
       0.3780453 0.5902267 -0.38240626 0.02776184
000370 29 62 74 be ac e5 1f bf 66 dc 66 bf 89 ad 6a 3e
       -0.2386557 -0.62459826 -0.9018005 0.22917761
000380 55 e4 00 bf ee c7 47 3f 2c 02 55 3e d2 62 47 3e
       -0.5034841 0.78039443 0.2080161 0.1947129
000390 f1 5e 60 3f 23 2b a9 3d c7 f7 42 3e 41 4b e9 bd
       0.8764487 0.08260181 0.19039832 -0.11391307
0003a0 e7 99 77 3d b8 f3 e6 3e d2 fa eb be 2c db 79 be
       0.060449507 0.45107818 -0.46089798 -0.24400014
0003b0 ae cc 84 3e cb 09 ea 3d 39 48 68 3f 1a 70 6b bf
       0.25937408 0.11427649 0.90735203 -0.9196793
0003c0 c9 d4 6d be 85 8f ab 3e f6 3e 4e 3e 17 9e f8 be
       -0.23225702 0.33507934 0.20141205 -0.48558113
0003d0 17 be 1a 3f 59 38 33 be 58 a3 54 3e 18 14 ae be
       0.60446304 -0.17501964 0.20765436 -0.33999705
0003e0 97 05 a8 3d 27 4c 88 be a4 04 48 be 14 33 68 3e
       0.08204191 -0.266206 -0.1953302 0.22675735
0003f0 5a be 0b 3f 6d 7a b9 be d4 59 fe bd b9 92 32 3f
       0.5458733 -0.36226216 -0.12419477 0.6975513

network_body.linear_encoder.seq_layers.2.bias f4 [128]
000000 00 00 00 00 00 00 00 00 00 00 00 00 00 00 00 00
       0.0 0.0 0.0 0.0
000010 00 00 00 00 00 00 00 00 00 00 00 00 00 00 00 00
       0.0 0.0 0.0 0.0
000020 00 00 00 00 00 00 00 00 00 00 00 00 00 00 00 00
       0.0 0.0 0.0 0.0
000030 00 00 00 00 00 00 00 00 00 00 00 00 00 00 00 00
       0.0 0.0 0.0 0.0
000040 00 00 00 00 00 00 00 00 00 00 00 00 00 00 00 00
       0.0 0.0 0.0 0.0
000050 00 00 00 00 00 00 00 00 00 00 00 00 00 00 00 00
       0.0 0.0 0.0 0.0
000060 00 00 00 00 00 00 00 00 00 00 00 00 00 00 00 00
       0.0 0.0 0.0 0.0
000070 00 00 00 00 00 00 00 00 00 00 00 00 00 00 00 00
       0.0 0.0 0.0 0.0
000080 00 00 00 00 00 00 00 00 00 00 00 00 00 00 00 00
       0.0 0.0 0.0 0.0
000090 00 00 00 00 00 00 00 00 00 00 00 00 00 00 00 00
       0.0 0.0 0.0 0.0
0000a0 00 00 00 00 00 00 00 00 00 00 00 00 00 00 00 00
       0.0 0.0 0.0 0.0
0000b0 00 00 00 00 00 00 00 00 00 00 00 00 00 00 00 00
       0.0 0.0 0.0 0.0
0000c0 00 00 00 00 00 00 00 00 00 00 00 00 00 00 00 00
       0.0 0.0 0.0 0.0
0000d0 00 00 00 00 00 00 00 00 00 00 00 00 00 00 00 00
       0.0 0.0 0.0 0.0
0000e0 00 00 00 00 00 00 00 00 00 00 00 00 00 00 00 00
       0.0 0.0 0.0 0.0
0000f0 00 00 00 00 00 00 00 00 00 00 00 00 00 00 00 00
       0.0 0.0 0.0 0.0
000100 00 00 00 00 00 00 00 00 00 00 00 00 00 00 00 00
       0.0 0.0 0.0 0.0
000110 00 00 00 00 00 00 00 00 00 00 00 00 00 00 00 00
       0.0 0.0 0.0 0.0
000120 00 00 00 00 00 00 00 00 00 00 00 00 00 00 00 00
       0.0 0.0 0.0 0.0
000130 00 00 00 00 00 00 00 00 00 00 00 00 00 00 00 00
       0.0 0.0 0.0 0.0
000140 00 00 00 00 00 00 00 00 00 00 00 00 00 00 00 00
       0.0 0.0 0.0 0.0
000150 00 00 00 00 00 00 00 00 00 00 00 00 00 00 00 00
       0.0 0.0 0.0 0.0
000160 00 00 00 00 00 00 00 00 00 00 00 00 00 00 00 00
       0.0 0.0 0.0 0.0
000170 00 00 00 00 00 00 00 00 00 00 00 00 00 00 00 00
       0.0 0.0 0.0 0.0
000180 00 00 00 00 00 00 00 00 00 00 00 00 00 00 00 00
       0.0 0.0 0.0 0.0
000190 00 00 00 00 00 00 00 00 00 00 00 00 00 00 00 00
       0.0 0.0 0.0 0.0
0001a0 00 00 00 00 00 00 00 00 00 00 00 00 00 00 00 00
       0.0 0.0 0.0 0.0
0001b0 00 00 00 00 00 00 00 00 00 00 00 00 00 00 00 00
       0.0 0.0 0.0 0.0
0001c0 00 00 00 00 00 00 00 00 00 00 00 00 00 00 00 00
       0.0 0.0 0.0 0.0
0001d0 00 00 00 00 00 00 00 00 00 00 00 00 00 00 00 00
       0.0 0.0 0.0 0.0
0001e0 00 00 00 00 00 00 00 00 00 00 00 00 00 00 00 00
       0.0 0.0 0.0 0.0
0001f0 00 00 00 00 00 00 00 00 00 00 00 00 00 00 00 00
       0.0 0.0 0.0 0.0

network_body.linear_encoder.seq_layers.2.weight f4 [128, 128]
000000 13 65 3c bd 6f 82 cd bc 58 40 92 3d b4 c0 f1 bd
       -0.04599483 -0.02508661 0.07141179 -0.11804333
000010 9e 48 68 3b 9e 16 bf bb 7e b9 18 bd 74 f6 ad bd
       0.0035443674 -0.0058315536 -0.037286274 -0.08494273
000020 ca b7 fb 3d 37 43 f1 3d f6 c5 f1 bc 2f ab b2 3d
       0.12290914 0.11780398 -0.02951334 0.08724057
000030 22 e9 21 3c dc e8 28 bd f1 b9 6f bd e2 bc 43 3c
       0.009882243 -0.041237697 -0.058526937 0.011946889
000040 46 56 10 bd 2a 5d 9d bd 5f 5c 92 3d 12 00 94 be
       -0.035238527 -0.07683785 0.07146525 -0.28906304
000050 fc 52 85 3c 95 74 a1 bd 6e 2f 03 bd 9f 68 5b bd
       0.016274922 -0.078835644 -0.032027654 -0.05356657
000060 ef 55 8c 3c 09 f6 18 3d 17 e9 a5 bc 50 bd 9d 3d
       0.01713082 0.037344012 -0.020252747 0.07702124
000070 e9 9a 44 3e c2 6b 9a 3d ce 8a 20 3d 18 94 6c 3c
       0.19199719 0.075400844 0.039194874 0.014439605
000080 42 68 46 bd 3c 38 a7 3d f7 61 d8 3c 55 19 79 bd
       -0.04843927 0.08165023 0.0264139 -0.060815174
000090 1e 25 9a bc 70 9e 29 3d 3e 59 c5 bc d6 9f 8d bc
       -0.018816527 0.041410863 -0.024090406 -0.01728813
0000a0 ca 43 cf bc 7a 0e 27 be 1a 34 b1 3d e4 41 dc bc
       -0.025300879 -0.16314116 0.08652516 -0.026886888
0000b0 c3 9d e1 bd f4 7e f7 bc 14 10 65 3d 1c cf f5 bd
       -0.11016419 -0.030211903 0.055923536 -0.120023936
0000c0 71 ba ba 3d c5 9c c0 3c a0 5c a7 bc 29 66 50 3e
       0.09117592 0.023512254 -0.02042991 0.20351471
0000d0 84 6d 50 bb 9d 45 0e 3e 9b 5a c1 bc af cd a7 bc
       -0.0031803558 0.13893743 -0.023602774 -0.02048382
0000e0 52 cc f1 3d 47 62 fc 3a 42 4a a9 bd 79 00 85 be
       0.11806549 0.0019255363 -0.08266117 -0.25976923
0000f0 e5 e1 1a 3d a6 6f 7a bc ce 0e a3 bd 89 83 18 bc
       0.037813086 -0.015285408 -0.07961808 -0.009308704
000100 02 95 22 3d b3 81 7c bc da fc 1f bd d6 1f 63 bd
       0.039692886 -0.015411782 -0.039059497 -0.055450283
000110 2c 04 e8 3d 16 2f 69 bd 4c cd 9b bd 31 0e a2 bd
       0.11328921 -0.05692967 -0.07607517 -0.07912863
000120 af c3 20 bd f0 d0 de ba 13 fe be bd b6 e3 cb bd
       -0.03924912 -0.0016999524 -0.093258046 -0.09955542
000130 26 fe 2e 3e cb 95 9d 3d 52 8f 47 3d 58 c3 29 3d
       0.17089137 0.07694586 0.048720665 0.04144606
000140 d3 50 c7 bc 96 c7 11 bd 0d 1b 9c bd 6b ce a0 3d
       -0.024330532 -0.03559073 -0.07622347 0.07851871
000150 c3 b4 e7 3d 36 09 d9 3d 93 3e cd 3c e6 52 d3 3b
       0.113137744 0.1059746 0.025054252 0.0064490912
000160 d1 be a6 3d 3b 4e 8e bb 20 f1 85 bc fc cc f2 3d
       0.08141864 -0.004342822 -0.016350329 0.11855504
000170 e7 cd 1f bd 8f 5a 42 bd f1 e0 ff bb 8c 4f c2 3d
       -0.039014723 -0.047449645 -0.0078087975 0.094878286
000180 4b 75 19 be 12 f9 87 bc 65 43 c9 3d 4f 63 88 bc
       -0.1498615 -0.016598258 0.098273076 -0.016648917
000190 07 8d 81 bc db 4a 9c bc e6 83 ca bd 18 b4 da 3d
       -0.015814317 -0.019078663 -0.09888439 0.106788814
0001a0 db 3f 1a ba 62 d6 83 bd a4 0d 00 bd 8c f5 41 3d
       -0.0005884149 -0.06437375 -0.03126301 0.047353312
0001b0 18 f0 8b bc bc c0 0e be f4 e4 10 3e 61 e3 14 3e
       -0.017082259 -0.1394071 0.14149839 0.14539863
0001c0 16 55 2f bb f7 a8 d9 bc 23 da bd bd 15 d0 11 3e
       -0.0026753596 -0.026569827 -0.09270122 0.14239533
0001d0 f1 05 bf bd 09 cb 02 3d d3 fd 32 3d c1 2b ff 3d
       -0.09327305 0.03193191 0.043699097 0.12459517
0001e0 88 1f c6 bc 6a 5f 06 bd 3c f6 aa bd 82 25 ea 3b
       -0.024184957 -0.032805838 -0.08347747 0.0071455846
0001f0 27 41 e3 3d df c0 f5 3d 55 83 35 3d 06 11 7b 3d
       0.11096411 0.11999678 0.0443147 0.06129553
000200 6c 6b 08 3e 12 8e 00 3e 90 82 82 bb 35 d6 fb 3a
       0.13322228 0.12554196 -0.0039828494 0.0019213619
000210 b8 de 30 be 8e 09 90 3d b6 a2 3a 3d a1 35 f6 3c
       -0.1727246 0.070330724 0.04556533 0.03005487
000220 7b a9 91 3d 31 1c 38 ba 6f 06 2f bd 7f 35 fe 3d
       0.07112404 -0.0007023244 -0.042730745 0.12412547
000230 c0 70 13 3e 5f f9 0b 3d 52 14 06 be 92 ee cd 3d
       0.1439848 0.034173366 -0.13093689 0.10055269
000240 32 16 99 3d 5d a0 9c 3c 82 72 34 bc 19 d1 1f be
       0.074749365 0.019119436 -0.011013629 -0.15607108
000250 1e 51 0b 3d 89 7f 8d bc 00 f8 f3 3c 54 cb 20 3c
       0.034012906 -0.017272728 0.029781342 0.009814102
000260 e2 d3 77 3d e8 c9 4a bd bb 39 63 bd 72 f1 21 bd
       0.0605048 -0.04950896 -0.055474978 -0.0395369
000270 f3 02 ba bd 79 54 e7 bd 67 74 fa bc 9c ad 15 3e
       -0.09082594 -0.11295409 -0.030573083 0.14617008
000280 fd 73 85 3d 5c b9 a0 bd fb e0 31 be 64 73 06 bd
       0.06516264 -0.078478545 -0.1737098 -0.03282489
000290 e8 6b 8b bd 3c 8c f6 3d 13 3c c0 bc ed 81 ab bc
       -0.06807691 0.12038466 -0.023466146 -0.020935977
0002a0 24 ef 8e 3d 02 f2 cf 3d 0a 7d 96 3c 66 fb 75 3e
       0.06979206 0.10153581 0.01837017 0.24021682
0002b0 0d e0 fb bc ad b9 31 bd c6 df 61 bd 86 8f d4 bd
       -0.030746484 -0.043389965 -0.055145048 -0.103789374
0002c0 87 25 07 bc 42 d4 59 bd 4d c8 e4 bd 81 f8 4f 3e
       -0.008248693 -0.05318094 -0.11171017 0.2030964
0002d0 38 63 fe 39 fa ac 5b 3d 46 00 43 bd 1a 68 c6 bd
       0.0004852058 0.05363176 -0.047607683 -0.096878245
0002e0 6a 94 b0 bd 52 e7 a7 3c 08 8d 43 3e 3b 84 98 3d
       -0.08622058 0.020496044 0.19096768 0.07447096
0002f0 4a ce fb bd 3a ba ec bd ed 98 db bd 65 a3 29 bc
       -0.12295206 -0.115589574 -0.10722528 -0.010353898
000300 09 7b b7 bd f0 ea 2a bd 9d da b4 bd c4 84 17 3a
       -0.08959014 -0.04172796 -0.0883076 0.00057799765
000310 5d 7b fd 39 ee 04 44 3d 91 ea 62 bc fb d3 6f bd
       0.00048347833 0.047856264 -0.01384987 -0.05855177
000320 ff bf 94 3d ba 02 13 be 8e 3e 12 be 94 e0 61 3c
       0.07263183 -0.14356509 -0.14281675 0.013786454
000330 97 46 10 3d be 42 e6 3d 19 e5 61 3c 31 1e cd 3b
       0.03522357 0.11243199 0.013787531 0.0062597026
000340 00 79 87 3d f4 46 e4 bd 40 9c b7 3d e0 23 bf 3d
       0.06614876 -0.11146346 0.08965349 0.093330145
000350 73 45 e6 bd 37 b0 85 be 8b e2 9a bd ba 03 e9 3d
       -0.11243715 -0.26111004 -0.07562741 0.11377664
000360 7f 19 03 3d e1 0f a5 bc 81 48 b2 3c 58 17 5a 3d
       0.032006737 -0.020149173 0.021763088 0.05324492
000370 c0 bf 52 be 97 f7 07 3d 34 f0 e3 bc 2b a9 8b bd
       -0.2058096 0.033195104 -0.027824499 -0.068193756
000380 cf 96 4d bd fc bb 2d bd 96 92 1b bd 57 7f 00 bd
       -0.05019265 -0.042415604 -0.037981592 -0.03137144
000390 41 e1 43 3d 79 2f bc 3c d2 14 ba 3d 7b ec d1 bd
       0.04782224 0.022971855 0.090860024 -0.10250183
0003a0 ba d6 4b 3d 17 ae 03 be f9 d0 4c bc 80 34 d5 3d
       0.049765326 -0.12859379 -0.012500995 0.10410404
0003b0 34 18 0a be 8d 0e e3 bd c5 87 c5 3d e6 3c 06 be
       -0.13485795 -0.1108676 0.096450366 -0.13109168
0003c0 93 e5 e9 3b 1f c2 a3 3b 6c ed 4a bd 4c fc a2 3d
       0.007137963 0.0049975063 -0.04954283 0.07958278
0003d0 83 7f 0c 3b 2c 13 47 3d b2 b1 37 3e 12 e5 17 3d
       0.0021438308 0.048602268 0.17938879 0.037083693
0003e0 7d 9c 0c bd c4 37 ac 3c 4d 65 f5 bd 5c dc 12 be
       -0.034328926 0.021022685 -0.11982212 -0.14341873
0003f0 39 66 9a 3c 5e 50 6f 3d 48 e9 80 bc 83 a6 b2 bd
       0.018847572 0.058426253 -0.015736237 -0.08723166

network_body.vector_processors.0.normalizer.running_mean f4 [4]
000000 b8 3f 2e 40 81 a2 3a be 2d 22 33 c1 f1 bf 8a 40
       2.722639 -0.18226053 -11.195844 4.3359303
