ml-agents-master/ml-agents/config/results/ppo/LineCreator/LineCreator-225817.pt (torch, 434231 bytes, 40 tensors)

network_body.vector_processors.0.normalizer.running_mean f4 [4]
0	0x402a0446	2.6565108
1	0xbe149710	-0.14510751
2	0xc08ff756	-4.4989424
3	0x3feaf998	1.835742

network_body.vector_processors.0.normalizer.running_variance f4 [4]
0	0x4ae3b7f9	7.4618845e+06
1	0x49f48a2c	2.0032695e+06
2	0x4aee1cc2	7.802465e+06
3	0x49a79988	1.372977e+06

network_body.linear_encoder.seq_layers.0.weight f4 [128, 4]
0	0xbf47f55d	-0.7810877
1	0xbef30682	-0.47465903
2	0x3f184c44	0.5949137
3	0xbe8a98b5	-0.2706963
4	0x3de991bb	0.11404749
5	0xbd8a0224	-0.067386895
6	0xbdb7d701	-0.089765556
7	0xbe4bda00	-0.19907379
8	0xbecbb135	-0.39783636
9	0xbdb77aa6	-0.0895894
10	0x3e875c9b	0.2643784
11	0x3d392029	0.045196686
12	0xbed5646f	-0.41678187
13	0xbe860b80	-0.2618065
14	0xbe6ab1df	-0.22919415
15	0xbe91dcea	-0.28488857
16	0xbd1d5115	-0.038407404
17	0x3e6f5f8e	0.23376295
18	0xbec6b3ad	-0.38808957
19	0xbe97e4b6	-0.2966668
20	0xbefdba0f	-0.49556014
21	0x3e8fee91	0.281117
22	0xbe4541da	-0.19263402
23	0xbeb3a303	-0.35085306
24	0xbdcc3ccc	-0.099725336
25	0xbe65974a	-0.22420993
26	0x3de489ba	0.11159082
27	0x3e9ef14f	0.3104348
28	0x3e0ac8f4	0.1355322
29	0xbe95f461	-0.2928801
30	0xbed25b0c	-0.41085088
31	0x3f664535	0.8994935
32	0x3d8d9921	0.06913973
33	0xbe37cd5e	-0.17949435
34	0xbd5c830d	-0.053835917
35	0xbe2fe6b8	-0.17177856
36	0xbec1946e	-0.37808555
37	0xbea7dacb	-0.32784113
38	0x3f5224b8	0.8208728
39	0x3f3e41e5	0.743193
40	0xbf046ef2	-0.5173179
41	0x3eff492c	0.49860513
42	0xbf9e4a38	-1.23664
43	0x3e8932e9	0.26796654
44	0xbed8a814	-0.42315733
45	0xbf94535e	-1.1587942
46	0x3ec97946	0.39350337
47	0x3df50561	0.119639166
48	0x3e5b30d1	0.2140534
49	0x3e0db5e8	0.13838923
50	0xbc89acca	-0.016806025
51	0x3e1921f2	0.14954355
52	0x3d9f0318	0.07764262
53	0x3f054fe5	0.52075034
54	0xbcf3f358	-0.029779121
55	0xbedfdb79	-0.43722132
56	0x3e5c8338	0.21534431
57	0xbdee94e9	-0.11649496
58	0xbe18646e	-0.14882061
59	0xbe4968b3	-0.19668846
60	0xbf48097b	-0.78139466
61	0x3f5050d9	0.81373364
62	0x3ef37399	0.47549132
63	0x3db38405	0.08765415
64	0xbea408a5	-0.32037845
65	0xbe7d59f5	-0.24741347
66	0xbe46f914	-0.19430953
67	0xbd2a1889	-0.041527305
68	0xbde5d416	-0.11222093
69	0xbd516b65	-0.05112781
70	0x3cd5c818	0.026096389
71	0x3c04fba4	0.008116636
72	0xbe05a7ef	-0.13052343
73	0xbdc9c7af	-0.0985254
74	0xbcc8d63a	-0.024516214
75	0x3f6a2f63	0.91478556
76	0xbe3923d0	-0.18080068
77	0xbd5c7c42	-0.05382944
78	0x3d6b388e	0.05742698
79	0x3dbe072b	0.09278711
80	0x3e721a52	0.23642853
81	0xbf828048	-1.0195398
82	0xbec6d375	-0.38833204
83	0x3e961615	0.29313722
84	0x3f8757ae	1.0573633
85	0xbf23e4df	-0.64021105
86	0xbe468e11	-0.19390132
87	0x3d2f034d	0.042727757
88	0x3e1f6ea5	0.15569551
89	0x3e8479c1	0.2587414
90	0xbcbdcbbc	-0.023168437
91	0xbd8369ed	-0.06416688
92	0xbf2e29d0	-0.6803255
93	0x3d7b08b7	0.061287608
94	0x3e1d68c2	0.15371993
95	0xbe8b6419	-0.27224806
96	0x3e42664f	0.1898434
97	0x3ed1d56d	0.40983143
98	0xbcff2d20	-0.031149447
99	0xbcbb0a2c	-0.022831999
100	0x3ea26b30	0.31722403
101	0xbf3fca07	-0.74917644
102	0x3f0de3ef	0.55425924
103	0xbf4dccf9	-0.8039089
104	0xbec1139d	-0.37710276
105	0xbe0f3e14	-0.13988525
106	0x3e29fffe	0.1660156
107	0xbd0e7528	-0.034779698
108	0x3cce7c76	0.025205832
109	0x3ebe234a	0.37136298
110	0xbda712a3	-0.081578515
111	0xbe804aa6	-0.25056952
112	0xbe60ad37	-0.21941076
113	0xbee45c21	-0.4460154
114	0xbee3e4a5	-0.4451038
115	0xbe3e115f	-0.18561314
116	0x3f325eff	0.696762
117	0xbf41997f	-0.7562484
118	0xba9e6565	-0.0012084661
119	0x3e11a5ef	0.14223455
120	0xbe17a3bd	-0.14808555
121	0x3f20f807	0.6287846
122	0x3eccbb19	0.39986494
123	0xbeab7166	-0.33484954
124	0xbdae5bba	-0.08513589
125	0x3b5d7f16	0.0033797673
126	0x3dbbcb24	0.091696054
127	0x3adda45c	0.0016909945
128	0xbf56e135	-0.8393739
129	0x3f5f6b12	0.8727275
130	0x3e9f47a3	0.31109342
131	0x3eefa4fb	0.46805558
132	0x3f6c08c5	0.9220088
133	0xbf056483	-0.52106494
134	0xbea815b9	-0.32829073
135	0xbd47ef91	-0.048812453
136	0xbf09564a	-0.5364729
137	0x3f5b3c05	0.8563846
138	0x3e1f9a2e	0.15586159
139	0xbf3242df	-0.6963329
140	0xbea33688	-0.31877542
141	0xbe634082	-0.22192577
142	0x3fb33551	1.4000646
143	0x3dbbabe2	0.091636434
144	0xbeb2873e	-0.34868807
145	0xbe08351e	-0.13301513
146	0x3e4eea21	0.202065
147	0xbd600dd8	-0.054700702
148	0xbf4f1259	-0.8088737
149	0xbec7a9cc	-0.38996732
150	0x3f091386	0.53545415
151	0x3f27d6f0	0.65562344
152	0x3e38819b	0.1801819
153	0xbca66b20	-0.020314753
154	0x3c73a3ed	0.014870626
155	0xbd933e51	-0.0718962
156	0xbe8226c8	-0.25420213
157	0xbea4dfba	-0.3220194
158	0x3e2f5be6	0.171249
159	0x3e4fe01b	0.20300333
160	0x3f0aa889	0.54163414
161	0x3e9ce0d7	0.3064029
162	0x3f1f39d8	0.6219764
163	0xbf4cc17c	-0.79982734
164	0xbf43ea58	-0.76529455
165	0x3e886faa	0.26647693
166	0x3ea72877	0.3264806
167	0xbe17c035	-0.14819415
168	0xbe25d075	-0.16192801
169	0xbf3387a2	-0.70128834
170	0x3ec2045b	0.37893948
171	0x3e11b652	0.14229706
172	0xbb9b3ac4	-0.00473723
173	0x3d16b1b9	0.036790583
174	0xbec56c85	-0.38559356
175	0x3f21524f	0.6301622
176	0xbf142d18	-0.5788131
177	0x3f10d19e	0.5656985
178	0x3db11a58	0.08647603
179	0xbe8ec750	-0.27886438
180	0xbd788d42	-0.06068159
181	0xbf8882d8	-1.066493
182	0xbe4064be	-0.1878843
183	0xbe86a430	-0.2629714
184	0xbe9ed5f4	-0.31022608
185	0x3e10981a	0.14120522
186	0x3e8585f4	0.2607876
187	0xbe9e2f14	-0.30895293
188	0xbdf620ee	-0.120179996
189	0x3eb619a1	0.35566428
190	0xbe384f4e	-0.17999002
191	0xbf58d9d1	-0.8470736
192	0xbf0c5300	-0.5481415
193	0xbe51402a	-0.20434633
194	0xbeb7f8c3	-0.35931978
195	0x3ebcd2f8	0.36879706
196	0x3f1fbda7	0.6239876
197	0xbeb4bb47	-0.3529913
198	0xbe9c49d3	-0.30525073
199	0x3d9a1719	0.07523937
200	0x3c0de9c9	0.008661696
201	0xbb9c8946	-0.0047771065
202	0xbe0797b6	-0.13241467
203	0xbd850b11	-0.064962514
204	0x3ebbdc66	0.36691588
205	0xbe8c98c7	-0.2746031
206	0x3ea26d34	0.3172394
207	0xbe683d20	-0.22679567
208	0x3e9c25f2	0.304977
209	0xbf5221d1	-0.8208285
210	0xbec69e13	-0.38792476
211	0xbec80614	-0.39067137
212	0xbdcf4a9c	-0.101216525
213	0x3e2aaecc	0.16668242
214	0x3dd44333	0.1036438
215	0x3c146638	0.009057574
216	0x3de96be6	0.11397533
217	0x3f4d6ae3	0.8024122
218	0xbf387e5e	-0.7206782
219	0x3f1d78f4	0.61512685
220	0x3e98bb97	0.2983062
221	0x3ca10eae	0.01966032
222	0x3e71be37	0.23607717
223	0x3f91ba87	1.1385049
224	0x3ddc1bd6	0.10747497
225	0x3eda6563	0.42655477
226	0x3e2108d3	0.15726022
227	0xbf531e45	-0.8246806
228	0xbc256cc1	-0.01009673
229	0xbe3e50b7	-0.18585478
230	0x3e6ecd25	0.23320444
231	0xbf10c662	-0.5655271
232	0x3e582897	0.21109234
233	0x3e953ee5	0.29149547
234	0xbec9a9f9	-0.3938749
235	0xbeeb4bb6	-0.459562
236	0xbdbf0bdf	-0.09328436
237	0xbf7e4d9a	-0.9933716
238	0x3f198063	0.5996153
239	0xbe538f71	-0.20660187
240	0x3dbd683d	0.092483975
241	0x3e41220d	0.18860646
242	0xbf1b4486	-0.60651433
243	0xbe6745f8	-0.22585285
244	0xbe9d17c9	-0.3068221
245	0x3f6fde50	0.93698597
246	0xbe969389	-0.29409435
247	0xbed0b2a3	-0.4076129
248	0xbee30249	-0.4433768
249	0x3fa4e69e	1.2882879
250	0xbf24b940	-0.6434517
251	0xbfab1376	-1.3365314
252	0x3e9c799b	0.30561528
253	0x3d778897	0.060432997
254	0xbc6bd8ee	-0.014394982
255	0xbdc87c3a	-0.09789319

network_body.linear_encoder.seq_layers.0.bias f4 [128]
0	0xbe3ebeed	-0.1862752
1	0xbc0762d9	-0.008263313
2	0xbd843fe9	-0.064575024
3	0x3d843f19	0.064573474
4	0xbd8d878d	-0.0691062
5	0xbe5cf74a	-0.21578708
6	0xbd497622	-0.049184926
7	0x3cecb4d2	0.028894816
8	0x3db8efce	0.09030114
9	0xbd9f75f9	-0.077861734
10	0xbe0d4c79	-0.13798703
11	0xbd137b70	-0.03600639
12	0xbe74c69f	-0.23903893
13	0xbd8b2705	-0.06794552
14	0xbdcc84da	-0.09986277
15	0x3ca87495	0.020563403
16	0xbd9ff53e	-0.07810448
17	0xbe2d58a8	-0.16928351
18	0xbdb2ab23	-0.08724048
19	0xbe22a930	-0.15884852
20	0x3c1474cf	0.009061052
21	0x3dbd3e41	0.092403896
22	0xbdd4bf42	-0.10388042
23	0x3d3e3647	0.04643848
24	0x3c79b823	0.0152416555
25	0x3becf977	0.007231887
26	0x3ced1164	0.028938957
27	0xbe82e259	-0.25563315
28	0xbdd40ea3	-0.10354354
29	0x3da856d5	0.08219687
30	0xbde81234	-0.11331597
31	0xbe253d98	-0.16136777
32	0x3c7cb636	0.015424302
33	0x3dec3f45	0.11535505
34	0xbd2342c6	-0.039858602
35	0xbd1aac72	-0.037762113
36	0xbe0b904c	-0.13629264
37	0xbdfb7079	-0.12277312
38	0x3c1f1d12	0.009711521
39	0xbddde99a	-0.108355716
40	0xbdb81a87	-0.08989435
41	0xbd1277c2	-0.03575874
42	0x3da29bd0	0.07939875
43	0xbe73b9eb	-0.23801391
44	0x3d1a34a5	0.037647862
45	0xbd676684	-0.05649425
46	0xbe535fcf	-0.20642017
47	0xbe2242da	-0.15845814
48	0x3d69de3a	0.057096697
49	0xbd200641	-0.039068464
50	0xbcd08932	-0.025456045
51	0x3e88f5d4	0.26750052
52	0x3d4aecee	0.04954236
53	0xbeb27325	-0.34853473
54	0x3daaba17	0.08336275
55	0xbdf06db0	-0.11739671
56	0xbbe6672b	-0.0070313415
57	0xbdd0b618	-0.101909816
58	0x3d24bbee	0.040218286
59	0x3d920f1f	0.0713179
60	0xbe4ba06d	-0.19885416
61	0x3d0eda52	0.034876175
62	0xbd691a04	-0.056909576
63	0xbe2b5da8	-0.16734946
64	0x3d8c02d3	0.06836476
65	0xbe614754	-0.21999866
66	0xbd494e0a	-0.04914669
67	0x3ded38fd	0.11583135
68	0xbddb927e	-0.107213005
69	0xbe05ae9c	-0.1305489
70	0x3dbf485c	0.09339973
71	0xbe964c02	-0.29354864
72	0xbdeb0ce6	-0.114770696
73	0xbc110282	-0.008850696
74	0xbd979c22	-0.07402827
75	0x3da2c78e	0.07948218
76	0x3dc5ed7d	0.09664438
77	0xbd4addfd	-0.04952811
78	0xbe1a5465	-0.15071256
79	0xbd071a76	-0.03298422
80	0x3dc93b04	0.098257095
81	0xbd533dc7	-0.051572587
82	0xbd9de891	-0.07710374
83	0xbda54538	-0.08069843
84	0x3e08703a	0.13324061
85	0xbe18b36d	-0.14912196
86	0x3c458ca8	0.012057461
87	0xbda17e20	-0.078853846
88	0xbbc5d650	-0.006037511
89	0xbd81ac9d	-0.063317515
90	0xbe119c2f	-0.14219736
91	0xbe0107a4	-0.12600571
92	0xbe0a0f8a	-0.1348249
93	0xbc886ab6	-0.016652446
94	0xbe41f9fd	-0.18943019
95	0xbcdd62f3	-0.027024722
96	0xbda3fba3	-0.0800698
97	0xbc070faa	-0.008243481
98	0x3df9eb51	0.12203086
99	0xbe88bb7c	-0.2670554
100	0xbe1620f6	-0.14661011
101	0xbea98d3c	-0.33115566
102	0x3c8d2c86	0.017233144
103	0xbe0be63a	-0.13662043
104	0x3cb0dc0f	0.021589307
105	0xbe8ac4a1	-0.2710314
106	0xbe252f28	-0.1613127
107	0x3c7a3502	0.015271427
108	0xbd520a07	-0.051279094
109	0xbdf154ca	-0.1178375
110	0x3da1a3e3	0.07892587
111	0xbe334950	-0.17508435
112	0xbdc4f539	-0.09617085
113	0x3c867547	0.016413344
114	0x3e4b48e8	0.1985203
115	0xbe289069	-0.16461338
116	0xbea5a626	-0.32353324
117	0x3d7e510a	0.062089004
118	0x3cdb2ca6	0.026754688
119	0xbd1e1217	-0.03859147
120	0xbe53510b	-0.20636384
121	0xbd821b2a	-0.063528374
122	0xbe8e6d60	-0.27817822
123	0xbce88744	-0.028384812
124	0xbbefd991	-0.007319637
125	0xbc7bfa51	-0.015379504
126	0xbd4bd4d5	-0.04976352
127	0xbd208407	-0.03918841

network_body.linear_encoder.seq_layers.2.weight f4 [128, 128]
0	0xbd8848a8	-0.06654483
1	0x3aaf46a3	0.0013372492
2	0xbcaba48f	-0.020952491
3	0xbd044d73	-0.032300424
4	0x3d9898cb	0.07451018
5	0x3e009ef4	0.12560636
6	0xbdb5b484	-0.08872321
7	0x3d19272f	0.037390884
8	0xbde4f6cf	-0.111798875
9	0xbda50c13	-0.080589436
10	0x3db9564e	0.090496644
11	0xbd569449	-0.05238751
12	0x3d6ef5e8	0.058339983
13	0xbc962101	-0.018326284
14	0xbce76554	-0.02824656
15	0x3d1365a1	0.035985593
16	0x3e3221fd	0.17395778
17	0x3d2de593	0.042455267
18	0x3cce733f	0.025201438
19	0xbe405b48	-0.18784821
20	0xbe78860f	-0.2426989
21	0x3cb13007	0.021629347
22	0x3d83264d	0.0640379
23	0x3c66425b	0.014053906
24	0xbd78422a	-0.060609974
25	0x3df78285	0.120854415
26	0xbde2b582	-0.11069776
27	0xbd93c416	-0.07215135
28	0x3d050cfa	0.03248308
29	0x3e0e9df1	0.13927437
30	0xbdd73abe	-0.10509251
31	0x3c9925d3	0.018694794
32	0x3d47d2c2	0.04878498
33	0x3cae739b	0.02129536
34	0x3e74e2ed	0.2391469
35	0x3d675983	0.05648185
36	0xbdd4a379	-0.103827424
37	0xbd7517e4	-0.059837237
38	0xbdef8943	-0.116961025
39	0x3d8cd7af	0.06877076
40	0xbd9f57bd	-0.077804066
41	0x3d065e94	0.03280504
42	0x3def5e4f	0.1168791
43	0x3de121e2	0.10992791
44	0xbb91db16	-0.004451166
45	0xbce6c63c	-0.028170697
46	0x3d90852b	0.0705665
47	0x3df84f42	0.12124492
48	0x3df1ba13	0.11803069
49	0xbc4c4007	-0.012466437
50	0x3dc63adf	0.096791975
51	0xbc71b780	-0.014753222
52	0xbdb7673c	-0.08955237
53	0x3db06d28	0.0861457
54	0xbe162b54	-0.14664966
55	0x3d3a009a	0.04541073
56	0xbda333e0	-0.07968879
57	0x3e0f444c	0.13990897
58	0x3caa0768	0.020755485
59	0xbd57099b	-0.052499395
60	0x3c94f47b	0.018182984
61	0xbdea1213	-0.11429229
62	0xbde70f52	-0.11282219
63	0xbdc91537	-0.098184995
64	0xbd9f8c8e	-0.077904806
65	0xbd57ab8e	-0.05265384
66	0xbd089e62	-0.03335417
67	0xbcae0e2e	-0.021246996
68	0xbdc45975	-0.09587375
69	0x3c7942d2	0.015213685
70	0xbe1b784c	-0.15182608
71	0x3dd7f698	0.10545081
72	0xbbada5bb	-0.0052992976
73	0x3e360acb	0.17777555
74	0xbb46355b	-0.0030244205
75	0x3dfa0f81	0.122099884
76	0xbd769ee6	-0.06021013
77	0xbdcc5582	-0.09977247
78	0xbbb9a650	-0.005665578
79	0x3d925d05	0.07146648
80	0xbd327d42	-0.043576486
81	0xbe06e4e5	-0.13173254
82	0x3e3d079a	0.18459931
83	0xbc0c3f53	-0.00856002
84	0xbcde35ef	-0.027125327
85	0xbd1bdb12	-0.03805072
86	0xbccdb175	-0.025109032
87	0xbe1f8a07	-0.15579997
88	0xbd2b1c27	-0.041774895
89	0xbbb0bd9f	-0.0053936983
90	0x3cc6d452	0.024271164
91	0xbdb94732	-0.090467826
92	0x3df8e317	0.12152689
93	0xbd7e32d8	-0.062060207
94	0x3c6790bd	0.014133629
95	0x3de0d783	0.109786056
96	0xbe03ce5f	-0.12871693
97	0x3c3531ea	0.011059264
98	0x3d5ad36c	0.053424284
99	0xbd933277	-0.0718736
100	0x3bda3522	0.006659166
101	0x3dce2107	0.10064893
102	0xbdd949dd	-0.106097914
103	0xbd33acfe	-0.04386615
104	0xbd9bbfb3	-0.07604923
105	0xbd15b157	-0.036546078
106	0x3cd500dc	0.026001386
107	0x3df6a765	0.12043647
108	0x3d90296f	0.07039153
109	0xbb9d8398	-0.004806947
110	0x3e41d0ec	0.18927354
111	0xbdc852b3	-0.097813986
112	0x3d6ae41d	0.057346452
113	0x3e180d65	0.1484886
114	0x3cc52fcc	0.024070643
115	0x3d9e88b6	0.07740919
116	0xbd47e1d5	-0.048799355
117	0xbd313e53	-0.043272328
118	0xbcce57fc	-0.025188439
119	0x3c357522	0.01107529
120	0xbc40dd90	-0.011771575
121	0xbd61deb5	-0.05514403
122	0x3db42b27	0.08797293
123	0xbcb287ee	-0.021793332
124	0x3c3420bd	0.010994134
125	0x3a3c0e21	0.0007173736
126	0xbd5f51d1	-0.054521386
127	0x3a5ca51a	0.0008416936
128	0x3ba18460	0.0049291104
129	0xbcc17864	-0.023616977
130	0xbdfa45e4	-0.12220362
131	0xbe02ea19	-0.12784614
132	0x3e0c2201	0.13684846
133	0x3df3f998	0.119128406
134	0xbc578c13	-0.013155955
135	0x3b29cfe7	0.0025911273
136	0xbd805983	-0.06267073
137	0xbe3dc49d	-0.18532033
138	0xbd971bf6	-0.0737838
139	0xbe2c6654	-0.1683591
140	0x3da9698e	0.08272086
141	0x3d88b091	0.06674302
142	0xbd61d5b6	-0.05513545
143	0xbd769dd7	-0.06020912
144	0x3dd9c749	0.10633714
145	0xbe079ee6	-0.13244209
146	0xbda88292	-0.08228029
147	0xbd4f4e8c	-0.050612018
148	0xbe17a4b8	-0.14808929
149	0xbde8f8a6	-0.11375551
150	0x3d5b665b	0.05356441
151	0xbd89db06	-0.067312285
152	0x3d3fbd36	0.046811305
153	0xbd3479c5	-0.04406144
154	0xbce95a0a	-0.028485317
155	0xbcbd3cbc	-0.02310025
156	0xbe26898d	-0.16263409
157	0xbe8129f8	-0.25227332
158	0xbd3a1e3f	-0.045439
159	0xbdc4c308	-0.09607512
160	0xbc4d34da	-0.012524808
161	0xbba1c1c9	-0.004936431
162	0xbde652ee	-0.11246286
163	0xbdd2484d	-0.102676965
164	0xbcc3328a	-0.02382781
165	0xbe560eca	-0.20904079
166	0xbdb5e630	-0.088817954
167	0xbdfa4e61	-0.12221981
168	0x3d87c1fc	0.066287965
169	0xbdd02116	-0.10162561
170	0xbe8d2313	-0.27565822
171	0xbdd39f44	-0.10333112
172	0x3e2fa622	0.17153218
173	0xbe2a25f3	-0.16616039
174	0x3bce0a08	0.006287817
175	0xbd3ab796	-0.045585237
176	0xbd725f05	-0.05917265
177	0x3d0c7b05	0.034297008
178	0x3d055e29	0.0325605
179	0xbcea00e2	-0.028564874
180	0xbe580771	-0.21096589
181	0xbd9dc748	-0.077040255
182	0xbe0c9995	-0.13730462
183	0xbd190a86	-0.03736355
184	0x3e123e41	0.1428156
185	0x3d141cd1	0.036160294
186	0x3d17930d	0.037005473
187	0xbe81adda	-0.2532795
188	0x3d918def	0.0710715
189	0x3d87ac40	0.06624651
190	0x3c6f9e9e	0.01462522
191	0xbd2ad2e7	-0.04170504
192	0x3d7ce02d	0.06173723
193	0x3ba91038	0.005159404
194	0xbc15371b	-0.009107376
195	0x3e57474e	0.21023294
196	0xbdb3377a	-0.08750816
197	0x3e6cb02a	0.23114076
198	0x3a9826fb	0.0011608297
199	0xbdd95711	-0.1061231
200	0xbcd3b3ec	-0.02584263
201	0x3e1a0932	0.1504257
202	0xbc241b3a	-0.010016257
203	0x3df3d19f	0.119052164
204	0x3e4c8d4c	0.19975775
205	0x3ccaa520	0.02473694
206	0x3cad16b9	0.021129
207	0xbd5b6591	-0.05356366
208	0x3be9d987	0.007136527
209	0x3de22b58	0.110434234
210	0xbe06797b	-0.13132279
211	0xbd1d58fa	-0.038414933
212	0xbcc1f54e	-0.02367654
213	0xbddaf9e6	-0.106921956
214	0x3d2d1108	0.04225257
215	0x3ad8d278	0.0016542217
216	0x3d89c589	0.0672713
217	0xbd40f788	-0.047111064
218	0xbe25a90a	-0.16177765
219	0xbd677d4a	-0.05651597
220	0x3d458c7a	0.048229672
221	0xbdfcae23	-0.123379014
222	0xbcf8f153	-0.03038851
223	0xbb4a9c31	-0.0030915851
224	0xbd57d67d	-0.052694786
225	0x3e1670ae	0.14691421
226	0x3c98fefa	0.01867627
227	0xbd2bacdb	-0.041912895
228	0xbb77dc63	-0.003782057
229	0xbc9031bf	-0.017601846
230	0xbd313a1a	-0.0432683
231	0xbd69792b	-0.05700032
232	0x3bd11312	0.006380447
233	0x3dbd84b8	0.0925383
234	0xbdc907c1	-0.09815932
235	0xbd2455dd	-0.040120948
236	0xbe383402	-0.1798859
237	0x3e187387	0.1488782
238	0x3e26a958	0.16275537
239	0xbe054416	-0.13014254
240	0xbdbe4d2f	-0.09292065
241	0xbe31f425	-0.1737829
242	0xbdbf0f20	-0.09329057
243	0xbe2ed0c8	-0.17071831
244	0x3daadd2b	0.08342966
245	0xbcb7f77a	-0.022456873
246	0x3daf20ef	0.085512035
247	0xbd80899e	-0.062762484
248	0xbe24ae8a	-0.16082206
249	0xbeba5c84	-0.3639871
250	0x3e235e3e	0.1595392
251	0xbd64a126	-0.055817746
252	0xbdbb5821	-0.09147669
253	0xbdaa5b69	-0.08318216
254	0x3da3689f	0.07978939
255	0xbd1caec8	-0.038252622

network_body.linear_encoder.seq_layers.2.bias f4 [128]
0	0xbd67f646	-0.05663135
1	0xbd05dede	-0.032683246
2	0x3d7a7ad5	0.061152298
3	0xbe228375	-0.1587046
4	0xbdc964bb	-0.09833666
5	0xbc8de62a	-0.017321665
6	0x3c91c6cf	0.017794995
7	0xbe012711	-0.12612559
8	0xbccf70e2	-0.025322381
9	0x3d76adc2	0.060224302
10	0xbe9d2687	-0.30693457
11	0xbb85f2d3	-0.004087785
12	0x3d132741	0.035926107
13	0xbe8213dc	-0.25405777
14	0xbbb5a27c	-0.0055430513
15	0xbe389e92	-0.1802924
16	0xbd8d1ed6	-0.06890647
17	0x3dea502c	0.11441073
18	0xbdd331a6	-0.10312204
19	0xbe8aacf4	-0.27085078
20	0xbd9e67d8	-0.077346504
21	0xbbd2548d	-0.0064187706
22	0xbe540386	-0.20704469
23	0x3cb72a1f	0.022358952
24	0x3d0f64e9	0.035008345
25	0xbec0153a	-0.37516195
26	0xbe0ffc66	-0.14061126
27	0xba1bc5b5	-0.00059422414
28	0xbc9c6bf4	-0.019094445
29	0xbd032c9b	-0.03202496
30	0xbc86f1ea	-0.016472775
31	0xbdd93527	-0.10605841
32	0xbe374090	-0.17895722
33	0x3d9dbdc2	0.07702209
34	0xbe951dd6	-0.29124326
35	0x3ca78a47	0.020451678
36	0xbce1b34a	-0.027551312
37	0xbac90506	-0.001533658
38	0xbd4cc559	-0.049992893
39	0xbce99283	-0.028512245
40	0xbd86f4eb	-0.06589683
41	0x3a1f2705	0.0006071183
42	0xbd2123d8	-0.039340824
43	0x3e0c75fc	0.13716882
44	0xbeaac81b	-0.33355793
45	0xbd3c0431	-0.045902435
46	0x3dc4c166	0.096072
47	0xbdc0435e	-0.09387849
48	0xbd9cd19f	-0.076571696
49	0xbc8accf5	-0.016943434
50	0xbbfab401	-0.0076508527
51	0xbded8607	-0.11597829
52	0xbd067ff3	-0.032836866
53	0xbded4a50	-0.115864396
54	0xbc7d13f6	-0.015446654
55	0x3ddbde56	0.107357666
56	0x3c291348	0.010319538
57	0xbcb2991c	-0.021801524
58	0xbeb51748	-0.35369325
59	0xbe19cec1	-0.15020277
60	0xbd781d2f	-0.060574707
61	0xbe42d676	-0.19027123
62	0xbddf54d1	-0.10904849
63	0x3d9f2394	0.07770458
64	0xbec6db53	-0.38839206
65	0x3d383aa2	0.04497779
66	0xbdb398c6	-0.087693736
67	0xbdaea2ea	-0.08527167
68	0x3d2c1940	0.042016268
69	0x3cc23632	0.023707483
70	0xbec7891e	-0.389718
71	0xbe4b783a	-0.19870082
72	0x3c8caf42	0.017173413
73	0xbbcf8392	-0.006332823
74	0xbd7d5c7f	-0.06185579
75	0xbe19be15	-0.15013917
76	0xbcf94d4a	-0.030432362
77	0x3cba1343	0.022714263
78	0xbafcf9a4	-0.0019300473
79	0xbea1be39	-0.3159044
80	0xbe08d4d0	-0.13362432
81	0x3de0d343	0.10977795
82	0xbc9a0b3b	-0.018804183
83	0xbe15a287	-0.1461278
84	0xbd266632	-0.040624805
85	0xbe0a02bc	-0.13477606
86	0xbd2f38e3	-0.04277886
87	0xbd9bea0d	-0.07613001
88	0x3c991463	0.018686479
89	0xbd6921d1	-0.056917015
90	0xbe578b6e	-0.21049282
91	0xbe568c36	-0.20951924
92	0x3d88c8a1	0.06678892
93	0xbe66c969	-0.2253777
94	0xbd8ff174	-0.070284754
95	0xbd3042af	-0.043032344
96	0x3d84009f	0.06445431
97	0xbcfbb829	-0.030727463
98	0xbca45611	-0.02006057
99	0x3d157931	0.03649253
100	0xbc910756	-0.017703693
101	0x3acb722c	0.0015521697
102	0xbda02c96	-0.07821004
103	0xbc8d8ba8	-0.017278507
104	0x3c9b5ccd	0.01896515
105	0xbec7b1ee	-0.39002937
106	0xbca79e83	-0.020461326
107	0xbd5562a3	-0.05209602
108	0xbe0b69fd	-0.1361465
109	0xbd3c9be0	-0.04604709
110	0xbe3af84d	-0.18258782
111	0xbe80999d	-0.25117198
112	0xbba65b80	-0.0050768256
113	0x3dde407a	0.10852142
114	0x3d2791b0	0.040910423
115	0xbe1a9459	-0.15095653
116	0xbe88ded2	-0.26732498
117	0x3d7bb0e1	0.06144798
118	0xbec614f8	-0.38687873
119	0x3c9fe286	0.019517194
120	0xbcde6b39	-0.027150737
121	0x3c45f27f	0.012081741
122	0xbc53a84f	-0.012918546
123	0xbd4cb4ca	-0.0499771
124	0xbbb27d05	-0.0054470324
125	0xbd80dbba	-0.062919095
126	0x3d65c333	0.05609436
127	0xbaacdd2b	-0.0013188472

distribution.log_sigma f4 [1, 2]
0	0x3d81c6fd	0.06336782
1	0x3c599ccc	0.013282012

distribution.mu.weight f4 [2, 128]
0	0xbb6021a9	-0.003419975
1	0x3b97bcc4	0.004630657
2	0x3d44af0b	0.048018496
3	0xbd4416f8	-0.047873467
4	0xbd834a0f	-0.0641061
5	0xb9448972	-0.00018743219
6	0x3bae96d7	0.00532804
7	0x3c0d2212	0.00861408
8	0x3b0f1307	0.002183141
9	0x3d1bc8f6	0.03803345
10	0xbdc64c46	-0.09682517
11	0x3970df63	0.00022971402
12	0x3ca1c2f7	0.019746287
13	0xbd07dca0	-0.03316939
14	0x3c042291	0.008064882
15	0x3b862009	0.0040931744
16	0xbb6a131d	-0.0035716959
17	0x3c29305e	0.010326473
18	0xbc512d04	-0.01276708
19	0xbd83984a	-0.06425531
20	0x3adbdb35	0.0016773703
21	0x3b73be08	0.0037192125
22	0xbd796b0f	-0.060893115
23	0x3bcbe39e	0.0062222024
24	0x3b204de1	0.0024460482
25	0xbdf40703	-0.119154
26	0xbd1584e8	-0.036503702
27	0xbb4e1faa	-0.0031451979
28	0x3aacce37	0.0013184015
29	0xbb9d3410	-0.004797466
30	0x3af63376	0.0018783647
31	0x3c12675f	0.008935778
32	0xbd83940f	-0.06424724
33	0x3ae51596	0.0017477747
34	0xbd1e09f8	-0.038583726
35	0x3a3e7fbd	0.00072669593
36	0xbae45c7a	-0.001742258
37	0x3bf7ce88	0.0075624622
38	0x3c802a3b	0.015645137
39	0xbad8e09e	-0.0016546433
40	0xba87b54c	-0.0010353713
41	0x3b560c1f	0.0032661033
42	0xb966170d	-0.00021943096
43	0x3c70660f	0.01467277
44	0xbe93778e	-0.2880215
45	0x3b02fdc4	0.0019987682
46	0x3d3aa714	0.045569494
47	0xbaa56a68	-0.0012620213
48	0x3c8e9dcb	0.017409226
49	0xbaa02967	-0.001221937
50	0xbb2c9670	-0.0026334785
51	0xbba92d6a	-0.0051628845
52	0x3b310c9f	0.002701558
53	0x3a01a4f2	0.0004945538
54	0xbb072a25	-0.0020624485
55	0x3b018397	0.0019762272
56	0xba20de30	-0.0006136624
57	0xba640142	-0.0008697697
58	0xbe644378	-0.22291362
59	0xbb495fa8	-0.0030727182
60	0x3a833fed	0.0010013558
61	0x3bc9c89c	0.0061579477
62	0xbb318bfd	-0.0027091496
63	0x3bcdd837	0.0062818783
64	0xbe00829d	-0.12549825
65	0x3b182e80	0.0023221076
66	0x3bc7bcf4	0.006095523
67	0xbd1183e4	-0.03552617
68	0x3c3deb22	0.011591705
69	0x3c31e229	0.010857143
70	0xbe3bd979	-0.18344678
71	0xbd089c89	-0.03335241
72	0x3b97553e	0.004618316
73	0xbaa0c637	-0.0012266104
74	0x3c591241	0.013248981
75	0x3b2cf3a4	0.0026390338
76	0x3bd36f72	0.0064524943
77	0x3c866153	0.01640383
78	0xba98ea7e	-0.0011666564
79	0xbd8efaab	-0.06981405
80	0x3a9af357	0.0011821789
81	0x3d5f585a	0.054527618
82	0x3bca4a01	0.0061733727
83	0x3b824411	0.0039753993
84	0xbc007acc	-0.007841777
85	0xbbba2f52	-0.0056819106
86	0x3bbbd7fa	0.0057325335
87	0xbade21da	-0.0016947344
88	0xb98a40da	-0.0002636973
89	0xba87e47d	-0.0010367777
90	0xbc9d9607	-0.019236578
91	0xbc7ead0c	-0.015544187
92	0x3c194625	0.009355103
93	0xbd802c3f	-0.06258439
94	0xbbfe1001	-0.0077533727
95	0x3c408624	0.011750732
96	0x3bbfa049	0.005847965
97	0x3d58fab0	0.05297345
98	0xbbf1ffc5	-0.0073852264
99	0x3b34794f	0.0027538126
100	0x3a86cf4a	0.0010285166
101	0x3ba6df6d	0.0050925524
102	0xb87d332c	-6.0367558e-05
103	0x3b80aa82	0.003926576
104	0x3bdabf22	0.006675617
105	0xbe54dd40	-0.20787525
106	0x3bb4cda9	0.0055176807
107	0xbb42fa5f	-0.0029751284
108	0xbb46682c	-0.0030274494
109	0x3bce9ae6	0.0063050864
110	0x3ac5cdb6	0.0015091214
111	0xbd6bb602	-0.057546623
112	0x3adc9edd	0.0016832013
113	0x3d4e3365	0.050341982
114	0x3bd6d6da	0.006556374
115	0xbd6c3a4f	-0.057672795
116	0xbd2b568f	-0.041830596
117	0x3b951095	0.004549096
118	0xbe6b7c66	-0.22996673
119	0x3b7d2fb1	0.0038633163
120	0x3b822907	0.003972176
121	0xb90dd339	-0.00013525494
122	0xbb517e54	-0.0031966167
123	0x3c0c972d	0.008580965
124	0x3b7b1a71	0.003831532
125	0x3d24d92d	0.040246177
126	0x3c5e2151	0.013557748
127	0x3c8cadf9	0.0171728
128	0x39e4e74b	0.00043659876
129	0x3c9e3122	0.019310538
130	0xbd0688aa	-0.032845177
131	0x3d11ba79	0.035578225
132	0xbe02bcf1	-0.12767388
133	0x3ad46120	0.0016203262
134	0xbac9b88c	-0.0015390082
135	0x3c602d1a	0.013682628
136	0x3ad27151	0.00160555
137	0xbe10ef59	-0.14153804
138	0x3db339f9	0.08751292
139	0xbaea1460	-0.0017858855
140	0x3d56ab61	0.052409533
141	0xbd27acb5	-0.04093619
142	0x3b7fc0ef	0.003902491
143	0x3ca7aa68	0.020466998
144	0x3bbc3aaf	0.0057443003
145	0x3ccb68a8	0.024830177
146	0x3d88fe45	0.06689123
147	0xbbbe313b	-0.0058042086
148	0x3a895e3e	0.0010480357
149	0xbb899be1	-0.0041994904
150	0xbd9c3c94	-0.07628742
151	0xbb2632da	-0.00253599
152	0xbb223be4	-0.0024754936
153	0x3d82a6d8	0.06379479
154	0x3d0444ec	0.03229229
155	0x3b2b19c8	0.0026107896
156	0xbb059c0e	-0.0020387205
157	0x3a05e914	0.0005108279
158	0xbadba85a	-0.0016758547
159	0x3b1b8387	0.002372952
160	0x3ce138d3	0.027492916
161	0x3d02604b	0.031830113
162	0x3c04cdc6	0.008105701
163	0xbb9564d8	-0.0045591407
164	0x3a7ed400	0.00097209215
165	0xbb3922f1	-0.0028249586
166	0x3c0cdeb6	0.00859802
167	0x3bb3fdab	0.005492886
168	0x3782661f	1.5544761e-05
169	0xbbd66577	-0.0065428573
170	0x39add785	0.00033157706
171	0x3d0a29fb	0.033731442
172	0x3da91684	0.08256248
173	0x3b669e3f	0.0035189537
174	0x3d1623d2	0.036655255
175	0xb9ee2d6e	-0.00045428745
176	0x3c5dab9f	0.013529687
177	0xbaedba85	-0.0018137252
178	0xbb69082e	-0.0035557854
179	0x3c02feaa	0.007995287
180	0xba880e23	-0.001038019
181	0x3b148b4d	0.0022666038
182	0xba1172bb	-0.0005548407
183	0xba6094ba	-0.0008567084
184	0xba9d030e	-0.001197906
185	0x3cb260ec	0.021774732
186	0x3d2f1b9f	0.04275095
187	0x3c435313	0.011921662
188	0x3b87a817	0.004139911
189	0xbcab0d56	-0.020880383
190	0xbb07b58b	-0.0020707573
191	0xbb24bbf4	-0.0025136443
192	0xbb850046	-0.0040588705
193	0xbb0fff52	-0.002197225
194	0x3ad6b005	0.0016379362
195	0xbbb5626d	-0.005535415
196	0x3b9ca28c	0.0047801193
197	0x3b3fe33c	0.002927973
198	0x3c59788f	0.013273372
199	0x3d9953ea	0.074867085
200	0xbc64f2ef	-0.0139739355
201	0xbbe16255	-0.006878177
202	0x3a7c9137	0.0009634676
203	0xbad2b398	-0.0016075252
204	0xbb6846e1	-0.0035442638
205	0xbcce4759	-0.025180506
206	0x3b109485	0.002206118
207	0x3d243a86	0.040094875
208	0x3aa9593e	0.0012920273
209	0x3d523bd1	0.051326577
210	0xba509088	-0.0007956107
211	0x3afce59e	0.0019294505
212	0x3b34b548	0.0027573872
213	0x3ba72d16	0.00510181
214	0x3a5093a2	0.00079565693
215	0x3c09c1e1	0.008408041
216	0xbb457843	-0.0030131496
217	0x3a82c000	0.0009975433
218	0xb8867733	-6.4118205e-05
219	0x3b8159cc	0.003947472
220	0x3d5686fe	0.052374832
221	0xbc921735	-0.017833332
222	0xbded8066	-0.11596756
223	0x3bbab58f	0.005697913
224	0xbb846be7	-0.0040411833
225	0xbdc77808	-0.09739691
226	0x3b3c0c8a	0.0028693997
227	0x3ce49cb8	0.02790676
228	0xb8ca10c4	-9.6352334e-05
229	0x3cf9ad17	0.030478043
230	0xbb269137	-0.0025416145
231	0xbad11927	-0.001595293
232	0xbbb0313e	-0.005376964
233	0xbc1088c3	-0.008821669
234	0xbb19471e	-0.0023388336
235	0x3b2fb567	0.0026811005
236	0x3b35ba65	0.0027729508
237	0xbd183438	-0.037159175
238	0xbb26a806	-0.002542974
239	0x3d54bbbe	0.051936857
240	0x3821c33e	3.8567225e-05
241	0xbb374d5e	-0.0027969698
242	0xbb6b1b10	-0.0035874285
243	0xbc300e51	-0.010745601
244	0x3cb71989	0.022351043
245	0xbb3d6297	-0.0028897875
246	0xbc8a601d	-0.016891534
247	0x3aa8255d	0.0012828518
248	0xb9b1fbd3	-0.00033947694
249	0xbb008909	-0.001961293
250	0xba99c90f	-0.0011732894
251	0x3d0e15ac	0.034688637
252	0x3a052cec	0.0005080241
253	0xbe03ac79	-0.12858762
254	0x3b9a898f	0.0047161053
255	0x3cd6a7d2	0.02620307

distribution.mu.bias f4 [2]
0	0x3e29edde	0.16594645
1	0xbd8c55ef	-0.06852328

critic.network_body.vector_processors.0.normalizer.running_mean f4 [4]
0	0x402a0446	2.6565108
1	0xbe149710	-0.14510751
2	0xc08ff756	-4.4989424
3	0x3feaf998	1.835742

critic.network_body.vector_processors.0.normalizer.running_variance f4 [4]
0	0x4ae3b7f9	7.4618845e+06
1	0x49f48a2c	2.0032695e+06
2	0x4aee1cc2	7.802465e+06
3	0x49a79988	1.372977e+06

critic.network_body.linear_encoder.seq_layers.0.weight f4 [128, 4]
0	0x3f3784fa	0.7168728
1	0xbd5ba4f4	-0.05362411
2	0xbe4a2f08	-0.19744503
3	0x3f14fadc	0.5819528
4	0x3f12be66	0.57321775
5	0xbd403965	-0.046929736
6	0x3e8ac2f5	0.27101865
7	0x3ed64964	0.41852868
8	0x3e16dd46	0.14732847
9	0xbe527255	-0.20551427
10	0xbf3ef99c	-0.74599624
11	0xbec75025	-0.38928333
12	0xbeec465c	-0.4614743
13	0x3e44fd00	0.19237137
14	0xbe7ed8c3	-0.24887376
15	0x3c82bc87	0.015959037
16	0xbe345551	-0.1761067
17	0xbfdf1a84	-1.7429967
18	0xbf4945be	-0.78622043
19	0x3f1a37e6	0.60241544
20	0x3e29338f	0.16523574
21	0x3e294cf1	0.16533257
22	0x3fb3af8c	1.4037948
23	0x3e2ef4db	0.17085592
24	0x3ead24e7	0.33817217
25	0xbf382769	-0.71935135
26	0xbddccb06	-0.10780911
27	0x3cee95d3	0.029124176
28	0xbf58372b	-0.8445918
29	0xbf542500	-0.8286896
30	0x3e5ef27c	0.21772188
31	0xbec127ff	-0.37725827
32	0xbeefd102	-0.46839148
33	0xbeb02662	-0.34404284
34	0x3c4f4c38	0.012652449
35	0xbe3b8a72	-0.18314531
36	0xbe492e38	-0.19646537
37	0xbfac1aef	-1.344572
38	0x3f70b1e8	0.94021463
39	0x3f4e9052	0.80688965
40	0x3dabcded	0.083888866
41	0x3ea63eae	0.32469696
42	0xbf4db42e	-0.8035306
43	0xba9fb4e9	-0.0012184653
44	0xbef90cd3	-0.48642597
45	0x3ef07c3b	0.4696978
46	0x3e5967b6	0.21230969
47	0xbedbb31c	-0.42910087
48	0x3f5f121a	0.87136996
49	0xbf374729	-0.71592957
50	0xbf1d3cf7	-0.6142115
51	0xbbd6bc79	-0.0065532294
52	0xbe8edb3c	-0.27901638
53	0x3df28656	0.11842029
54	0x3f1f714f	0.6228227
55	0x3f08e2ba	0.5347096
56	0x3f5fa36e	0.8735875
57	0xbeb544f8	-0.3540418
58	0xbf08b3a1	-0.5339909
59	0x3eb92d27	0.3616726
60	0xbe4a7d56	-0.19774374
61	0xbe44fef5	-0.19237883
62	0x3f614ff8	0.8801265
63	0xbec188c6	-0.37799662
64	0xbe4977e5	-0.19674642
65	0x3d79204c	0.060821816
66	0x3f5510dd	0.83228856
67	0x3f1b1921	0.6058522
68	0x3f00da53	0.50333136
69	0xbfa759f4	-1.3074327
70	0xbe7272e1	-0.23676635
71	0xbdcf34eb	-0.10117515
72	0x3ed3d1df	0.41371056
73	0xbdcc7d4d	-0.09984837
74	0x3ef3153c	0.47477138
75	0x3e280f2a	0.16412035
76	0xbef1b8bc	-0.47211254
77	0xbf6b48cb	-0.9190795
78	0x3e9e0137	0.30860302
79	0xbf692b29	-0.9108148
80	0xbe0309e4	-0.12796742
81	0xbe0b7c14	-0.13621551
82	0x3d7d94ef	0.061909612
83	0xbe9d29cd	-0.30695954
84	0xbf052ffc	-0.52026343
85	0x3e845963	0.25849447
86	0x3e55de2c	0.20885533
87	0xbf338642	-0.70126736
88	0xbf03b801	-0.5145264
89	0xbf02ac88	-0.5104451
90	0xbfd5a557	-1.6691083
91	0xbea5d2c6	-0.3238737
92	0x3f9c2e77	1.220168
93	0x3f756001	0.95849615
94	0xbf82b44c	-1.0211272
95	0xbef7e081	-0.4841347
96	0xbed47906	-0.41498584
97	0xbf0f1b9e	-0.55901515
98	0x3f027733	0.50963134
99	0x3ed95693	0.42448863
100	0x3f032afa	0.5123745
101	0x3e68c226	0.22730312
102	0xbf1a57b0	-0.6029005
103	0xbe3557fd	-0.17709346
104	0xbf7ca28c	-0.98685527
105	0xbeb4282f	-0.35186908
106	0x3eaa7503	0.33292398
107	0x3dd14dea	0.10219939
108	0x3fbf7d67	1.4960145
109	0x3d8e422e	0.069462165
110	0x3e91cd76	0.28477067
111	0x3e04cab4	0.1296795
112	0xbf9ae363	-1.2100643
113	0xbdc35043	-0.09536793
114	0x3f2b10ac	0.66822314
115	0x3d855dc4	0.06512025
116	0x3e7c2783	0.24624448
117	0xbe803856	-0.2504298
118	0x3e172e7b	0.14763825
119	0x3d516a28	0.05112663
120	0xbe9b7613	-0.3036352
121	0x3e94e9bd	0.29084578
122	0xbdb19103	-0.08670237
123	0xbf90f2f9	-1.1324149
124	0x3ed988a9	0.42487076
125	0xbf8ec058	-1.1152449
126	0xbf292f4b	-0.6608779
127	0xbf66890c	-0.90052867
128	0x3e742c85	0.23845108
129	0xbe8d933c	-0.27651393
130	0x3eaf04a8	0.3418324
131	0x3f06aee8	0.52610636
132	0x3fbcffc2	1.4765551
133	0x3f10f023	0.5661642
134	0xbe894afd	-0.26815024
135	0xbf2bfe2e	-0.6718472
136	0xbee735d9	-0.4515827
137	0x3e91e884	0.28497708
138	0x3f9d4f05	1.228974
139	0x3f10900e	0.5646981
140	0x3e099ccd	0.13438721
141	0x3f2c7d80	0.67379
142	0xbebcf5e2	-0.36906344
143	0xbf13868b	-0.5762717
144	0x3dea09d9	0.114276595
145	0x3f00f7c4	0.5037806
146	0x3f9041f4	1.1270127
147	0xbcc592cf	-0.024117855
148	0x3ef87923	0.4852992
149	0xbd921acc	-0.07134017
150	0x3f14d6d5	0.5814031
151	0xbed975e1	-0.42472747
152	0x3da7fe92	0.08202852
153	0xbed0655a	-0.40702325
154	0x3f84bab4	1.0369477
155	0x3e155b96	0.14585719
156	0x3e562099	0.20910873
157	0xbf27fec7	-0.65623134
158	0xbe81309c	-0.252324
159	0xbecf0a38	-0.40437484
160	0xbee810a6	-0.45325202
161	0x3f1f7065	0.62280875
162	0x3decf81d	0.11570761
163	0xbebeecea	-0.37290126
164	0xbe64b973	-0.22336368
165	0x3f3b87a7	0.73253864
166	0x3ee69e14	0.4504248
167	0xbf03c3d4	-0.51470685
168	0x3f11dc03	0.56976336
169	0x3f5c9239	0.8616062
170	0x3fcf87de	1.6213338
171	0xbec330f6	-0.38123292
172	0x3e58a2b6	0.2115582
173	0xbe19d96d	-0.15024348
174	0xbf32dc49	-0.6986738
175	0xbdd6ea42	-0.104939
176	0xbf07cbf0	-0.5304556
177	0xbfa4e1ff	-1.2881469
178	0x3d81b8fa	0.063341096
179	0xbeab0ad4	-0.334067
180	0xbe45b1bd	-0.19306083
181	0xbfcdd59b	-1.6080812
182	0x3e34f1f5	0.17670424
183	0xbd9b6a0c	-0.07588586
184	0xbd3a1223	-0.045427453
185	0xbf93c59b	-1.1544679
186	0xbee9b1ba	-0.45643407
187	0xbdb5bb3f	-0.08873605
188	0xbf1f1ee1	-0.6215649
189	0xbec3782b	-0.38177618
190	0xbf287caa	-0.6581522
191	0xbf5abefd	-0.85447675
192	0x3ddc7ec5	0.10766367
193	0xbe2e139c	-0.16999668
194	0xbf080b5c	-0.53142333
195	0x3f213b11	0.62980753
196	0x3d1ddc82	0.03854037
197	0xbf7d6f68	-0.9899812
198	0x3dfd0361	0.1235416
199	0x3ee21e37	0.44163677
200	0xbee47061	-0.44616988
201	0xbeed8fd0	-0.46398783
202	0xbf506754	-0.81407666
203	0x3daf9d6e	0.08574949
204	0x3f3cf3f1	0.73809725
205	0x3ed06214	0.40699828
206	0x3e9198dd	0.28436938
207	0xbe8103e0	-0.2519827
208	0x3e2bbc67	0.16771089
209	0x3fc6000f	1.5468768
210	0x3eb567cc	0.35430753
211	0x3f1f4857	0.62219757
212	0x3e2cb082	0.16864207
213	0x3e130188	0.14356053
214	0xbe0c8f38	-0.13726509
215	0x3dfa30ec	0.12216362
216	0x3ef8de39	0.48607042
217	0xbf6ceb20	-0.9254627
218	0x3f7022dd	0.938032
219	0xbe31e985	-0.17374237
220	0xbe0f2d83	-0.13982205
221	0x3eacc211	0.3374181
222	0xbf1795db	-0.59213036
223	0x3f48ffaf	0.7851514
224	0x3f55e8d5	0.835584
225	0x3f055dc0	0.52096176
226	0xbf4011ed	-0.7502735
227	0x3f1e7d6e	0.6191014
228	0x3edd3e8d	0.43211785
229	0xbf290ff4	-0.6603997
230	0xbef3854d	-0.47562638
231	0x3defa747	0.117018275
232	0x3f790e74	0.9728768
233	0x3df17da0	0.11791539
234	0xbdda092b	-0.1064628
235	0xbebcd474	-0.3688084
236	0xbec12857	-0.3772609
237	0x3cd387ad	0.025821531
238	0xbcb234d4	-0.021753706
239	0xbf2ccb43	-0.6749765
240	0x3e0b08d3	0.13577585
241	0xbf2f53e5	-0.6848739
242	0x3eb3706f	0.35046718
243	0xbf6ab601	-0.91683966
244	0x3ef0b921	0.47016242
245	0x3d5e2510	0.054234564
246	0xbe90e708	-0.28301263
247	0x3f305a1b	0.6888749
248	0xbf634cbc	-0.8878896
249	0xbeb15b9a	-0.346402
250	0x3ef440d7	0.4770572
251	0x3d220c77	0.03956267
252	0x3eab085e	0.3340482
253	0x3f49ab20	0.7877674
254	0xbf0e4da8	-0.55587244
255	0x3d3bd40c	0.04585652

critic.network_body.linear_encoder.seq_layers.0.bias f4 [128]
0	0xbe4d6a5b	-0.20060103
1	0x3e83657d	0.25663367
2	0xbe7e1889	-0.24814047
3	0xbe4fbb7c	-0.20286363
4	0xbd6ff048	-0.05857876
5	0xbc97006a	-0.018432815
6	0xbd214092	-0.03936822
7	0xbc8663ad	-0.016404951
8	0x3dce9c14	0.10088363
9	0x3d838402	0.06421663
10	0xbe213626	-0.15743312
11	0x3da1c2ce	0.07898484
12	0x3d17cf48	0.037062913
13	0xbd04d956	-0.03243383
14	0xbe403aad	-0.18772383
15	0xbe116fe7	-0.14202844
16	0x3c4d041f	0.01251319
17	0x3e49579e	0.1966233
18	0xbde6391a	-0.1124136
19	0xbe22c5e5	-0.15895803
20	0x3d007271	0.03135914
21	0xbdbef38f	-0.09323799
22	0xbe3b792d	-0.18307944
23	0x3d96eb45	0.07369093
24	0xbdf33056	-0.11874454
25	0xbeaff78e	-0.34368557
26	0xbd772562	-0.060338385
27	0x3ee54b3b	0.4478396
28	0x3dc30cc9	0.09523923
29	0xbe4e3e94	-0.20141059
30	0x3d88c5d8	0.06678361
31	0x3ee6e455	0.4509608
32	0x3c8cab16	0.017171424
33	0x3da85d65	0.082209386
34	0x3d45487a	0.048164822
35	0xbdfb0e46	-0.12258582
36	0x3c194f33	0.0093572615
37	0x3c060c56	0.008181652
38	0xbd7bdcfa	-0.061490037
39	0xbe054ccf	-0.13017581
40	0x3d01d4ae	0.031696968
41	0x3d99a054	0.07501283
42	0x3eef01c7	0.46681044
43	0xbe46ebea	-0.19425932
44	0x3da7c2d9	0.08191461
45	0x3e5839e3	0.21115832
46	0xbdbe4ee2	-0.092923895
47	0xbd228a7a	-0.039682843
48	0xbe3f5245	-0.18683727
49	0xbdb700db	-0.0893571
50	0xbdf1c4f2	-0.118051425
51	0x3e2ea97b	0.17056839
52	0x3d09819b	0.033570867
53	0xbea90bc0	-0.33016777
54	0x3dec00c8	0.115235865
55	0xbe5d01a4	-0.21582657
56	0xbe5dc675	-0.21657737
57	0xbe605f37	-0.21911322
58	0xbd235df3	-0.03988452
59	0x3d16cf1d	0.036818612
60	0x3d28e1b4	0.041230872
61	0xbe764791	-0.24050738
62	0xbd08ed42	-0.03342939
63	0xbe3062fe	-0.17225263
64	0xbe022199	-0.12708129
65	0xbe05ca04	-0.13065344
66	0xbb325f8e	-0.00272176
67	0xbe007481	-0.12544443
68	0x3bedb675	0.0072544166
69	0x3dc356c1	0.09538031
70	0x3e29b1a3	0.1657167
71	0xbe08f44f	-0.13374446
72	0x3d0b72db	0.03404508
73	0xbe8a9a90	-0.27071047
74	0x3d78a8d3	0.06070788
75	0xbe8d7aae	-0.2763266
76	0x3cd3f194	0.02587203
77	0x3d16d3a8	0.036822945
78	0xbe6dd773	-0.23226719
79	0x3e3bb200	0.1832962
80	0xbe426dbd	-0.18987174
81	0xbe4f0515	-0.20216782
82	0x3bd3264f	0.0064437757
83	0xbe6a028e	-0.22852537
84	0x3df44f85	0.1192923
85	0xbe41c52d	-0.18922873
86	0x3cb1432e	0.02163848
87	0xbe192877	-0.14956842
88	0xbe391646	-0.18074903
89	0xbe1cfbfc	-0.153305
90	0xbe23bbef	-0.1598966
91	0xbe36e77d	-0.17861743
92	0x3d452750	0.048133194
93	0x3cf2bdb7	0.029631479
94	0xbea7eade	-0.32796377
95	0xbe5b9e90	-0.21447206
96	0xbe00fe0e	-0.12596914
97	0x3d8a9523	0.06766727
98	0xbe2436b4	-0.16036493
99	0xbec49ad6	-0.3839938
100	0xbc24b2db	-0.010052408
101	0x3dd1f239	0.102512784
102	0xbe5161bb	-0.20447437
103	0x3d0639a4	0.032769814
104	0xbdab15bb	-0.08353754
105	0x3e75da44	0.24009043
106	0xbe376c1e	-0.17912337
107	0x3da3229a	0.07965584
108	0xbe427330	-0.18989253
109	0x3e3405a8	0.17580283
110	0x3e3d0daf	0.18462251
111	0xbe89a133	-0.26880798
112	0xbe6add71	-0.22936036
113	0x3e5bd85b	0.21469252
114	0xbe2962c3	-0.16541581
115	0xbeb52340	-0.35378456
116	0xbdcf4f88	-0.10122591
117	0x3d0d98eb	0.034569662
118	0xbd6f093f	-0.058358427
119	0x3e60226e	0.21888134
120	0x3d625160	0.055253386
121	0xbe928708	-0.28618646
122	0xbe380e99	-0.17974319
123	0xbe3d26f1	-0.18471886
124	0xbd5edb0d	-0.05440812
125	0xbe01329c	-0.12616962
126	0x3d0ab634	0.03386517
127	0xbde8ec5b	-0.11373206

critic.network_body.linear_encoder.seq_layers.2.weight f4 [128, 128]
0	0xbe977a6e	-0.29585594
1	0xbc900e5b	-0.01758497
2	0x3e03617e	0.12830159
3	0x3dadc789	0.08485324
4	0x3d92ce30	0.071682334
5	0x3e11cd30	0.14238429
6	0xbe44fa49	-0.19236101
7	0xbd8a9e9a	-0.06768532
8	0xbdc1d65b	-0.09464713
9	0xbe0b0698	-0.13576734
10	0x3dd848c8	0.10560757
11	0xbdc543a3	-0.09632041
12	0xbe9226f3	-0.2854534
13	0x3d1c8457	0.038212147
14	0xbe789d3c	-0.2427873
15	0x3dd31cf0	0.10308254
16	0x3d4f1519	0.05055723
17	0xbee08bb7	-0.43856594
18	0x3e1d319d	0.15350957
19	0xbe4df878	-0.20114315
20	0xbc724f85	-0.014789467
21	0xbe72d001	-0.2371216
22	0xbcba9822	-0.02277762
23	0x3d3c26ad	0.04593532
24	0x3dd19aed	0.10234628
25	0x3d582c06	0.05277636
26	0xbb53961f	-0.0032285524
27	0xbecfea1d	-0.40608302
28	0x3e2710be	0.1631498
29	0xbda1a29c	-0.078923434
30	0xbd9e603e	-0.077332005
31	0xbe5e89e8	-0.21732295
32	0xbdec96c5	-0.115521945
33	0xbe315790	-0.17318559
34	0xbb21b9bc	-0.0024677357
35	0xbd77f403	-0.060535442
36	0xbc9251f7	-0.01786135
37	0x3d10d5d7	0.035360184
38	0x3e15800c	0.14599627
39	0xbcd93883	-0.026516205
40	0xbea24276	-0.3169133
41	0xbe7c9c47	-0.2466899
42	0xbd80cb5e	-0.06288789
43	0x3de89044	0.113556415
44	0x3dcd6661	0.10029293
45	0xbdff539b	-0.12467118
46	0x3db6fb97	0.08934706
47	0x3e14e32b	0.14539783
48	0xbdbc377e	-0.09190272
49	0x3d3552fe	0.0442686
50	0xb7fa27e3	-2.9820896e-05
51	0xbd4cb9e0	-0.04998195
52	0xbe865139	-0.26233843
53	0xbd9147c1	-0.07093764
54	0xbe3fe1fc	-0.1873855
55	0x3d1821c8	0.03714159
56	0x3dc6d83c	0.09709212
57	0xbdb3d540	-0.087809086
58	0xbe31ec90	-0.17375398
59	0x3de97730	0.11399686
60	0xbd8552cf	-0.06509935
61	0xbde142a5	-0.109990396
62	0x3dba3817	0.090927295
63	0xbdc6bc59	-0.09703893
64	0x3d9c62bb	0.07636019
65	0x3dc1fb47	0.094717555
66	0xbe195977	-0.14975534
67	0x3bdae2ff	0.006679892
68	0xbd03b0a3	-0.032150876
69	0x3c9d507e	0.01920342
70	0xbe268b69	-0.16264118
71	0xbc6e27cd	-0.014535856
72	0xbe6549d2	-0.22391441
73	0xbe3878c5	-0.1801482
74	0xbda3083b	-0.07960554
75	0xbe300d48	-0.17192566
76	0x3df7542c	0.120766014
77	0xbd01072a	-0.031500973
78	0x3d1f8418	0.038944334
79	0xbe4d8da5	-0.20073564
80	0xbdcad4b8	-0.09903854
81	0xbdb37a10	-0.08763516
82	0x3bb7c1bd	0.005607812
83	0xbe098984	-0.13431364
84	0xbcdb6419	-0.026781129
85	0xbde3ccbb	-0.111230336
86	0xbe087531	-0.13325955
87	0xbba05eab	-0.004894098
88	0x3dd7dcbc	0.105401486
89	0x3e5cd510	0.21565652
90	0xbd4990a0	-0.04921019
91	0x3d4f2777	0.050574746
92	0xbe14bd96	-0.14525446
93	0xbd5ec6fb	-0.05438898
94	0x3dc4092f	0.09572064
95	0xbdd13cff	-0.10216712
96	0x3d557d05	0.05212118
97	0xbdc391dd	-0.095493056
98	0xbd609d12	-0.054837294
99	0x3c9c414d	0.019074107
100	0x3d681bc2	0.056667097
101	0xbeded881	-0.43524554
102	0x3da0b42e	0.078468665
103	0xbdbc3171	-0.09189118
104	0xbd951f7f	-0.07281398
105	0xbdc9139a	-0.09818192
106	0x3d82cf6c	0.06387219
107	0x3ddf40c0	0.10901022
108	0xbd7fe625	-0.062475342
109	0xbe0cc3e1	-0.13746597
110	0xbdb84b05	-0.08998684
111	0xbea6d2c7	-0.32582685
112	0xbd1aa3a8	-0.03775373
113	0xbe50a090	-0.2037375
114	0x3aa4b894	0.0012567216
115	0xbdd0f941	-0.102037914
116	0xbd15d711	-0.036582056
117	0x3dcbc2f0	0.09949291
118	0xbe24d52c	-0.16096944
119	0x3c8fb7a3	0.01754362
120	0x3be07d46	0.0068508713
121	0xbcbeff4f	-0.0233151
122	0xbe1fb462	-0.15596154
123	0x3d76e1d8	0.060273975
124	0xb9b6f0b3	-0.0003489308
125	0xbde50ddd	-0.11184285
126	0xbddba228	-0.10724288
127	0xbcf57862	-0.02996463
128	0xbe835344	-0.25649464
129	0xbd601f4e	-0.054717354
130	0xbc9b8008	-0.018981948
131	0xbdc7c6bf	-0.09754705
132	0xbd778e1d	-0.060438264
133	0x3b1d3776	0.0023989356
134	0x3c0175b8	0.0079016015
135	0xbba7964c	-0.0051143523
136	0x3cd8b0ea	0.026451547
137	0x3d2696ec	0.040671274
138	0xba9f7b85	-0.0012167549
139	0xbe9209c7	-0.28523085
140	0xbcbbd54c	-0.022928856
141	0xbe1159d1	-0.14194418
142	0xbd82f906	-0.06395154
143	0x3c2087a8	0.009797968
144	0xbdf1fd65	-0.11815909
145	0xbcd95be7	-0.02653308
146	0xbde16662	-0.11005856
147	0xbe2e0db9	-0.16997422
148	0xbd105c23	-0.03524412
149	0xbdbf9a33	-0.09355583
150	0xbdd8454f	-0.105600946
151	0xbe76b52a	-0.24092546
152	0xbe775d77	-0.24156748
153	0xbde95158	-0.11392468
154	0xbde2beb2	-0.110715285
155	0xbd0f8f7b	-0.035048943
156	0xbea7eec9	-0.32799366
157	0x3cc6dfca	0.024276633
158	0x3d28888c	0.041145846
159	0x3c47780b	0.012174617
160	0xbd556761	-0.052100543
161	0xbe16250e	-0.14662573
162	0xbde5b392	-0.11215891
163	0xbd7821e5	-0.0605792
164	0xbde397d7	-0.111129455
165	0x3d0e6402	0.034763344
166	0xbe3c974f	-0.18417095
167	0x3dff6d90	0.12472069
168	0xbd2844ff	-0.041081425
169	0xbe4995a5	-0.19685991
170	0x3b0125f9	0.0019706471
171	0x3d78a50c	0.060704276
172	0xbdcf6b92	-0.10127939
173	0x3e6a4332	0.22877195
174	0x3d24e8b8	0.040261
175	0x3dbaded6	0.09124534
176	0xbdce895a	-0.100847915
177	0x3d13decc	0.036101148
178	0x3d2524af	0.040318187
179	0x3c970153	0.018433249
180	0x3dbd2d38	0.092371404
181	0xbd0b9a66	-0.034082793
182	0x3d380120	0.044922948
183	0xbe276290	-0.16346192
184	0xbe31d74e	-0.17367288
185	0xbd20bbdd	-0.03924166
186	0xbe4e9bdd	-0.20176645
187	0xbe2d051b	-0.16896479
188	0xbcd4c181	-0.025971176
189	0x3d573f7e	0.052550785
190	0xbdded9a8	-0.108813584
191	0xbde7eed3	-0.11324849
192	0x3d10f844	0.035393015
193	0xbe3c4eac	-0.18389386
194	0x3ccbb54e	0.024866726
195	0xbdcf7920	-0.10130525
196	0xbd082df5	-0.033246953
197	0x3db621e2	0.088931814
198	0xbd5c7f95	-0.05383261
199	0x3c63491a	0.013872409
200	0x3bec03f5	0.00720262
201	0xbdeebe55	-0.11657397
202	0x3d77b8f8	0.060479134
203	0xbdaf9bcd	-0.085746385
204	0x3cc33c48	0.023832455
205	0x3ddad6c4	0.106854945
206	0xbe0d15a0	-0.1377778
207	0xbe50e6ef	-0.20400594
208	0xbd1325af	-0.03592461
209	0xbd35c016	-0.04437264
210	0xbcc87ccb	-0.024473568
211	0xbd21b9ac	-0.03948371
212	0xbd703464	-0.058643714
213	0xbdaffd30	-0.085932136
214	0x3dc493ac	0.09598479
215	0xbe159507	-0.1460763
216	0x3daee62c	0.085399956
217	0x3c94cc2c	0.018163763
218	0x3d836688	0.06416041
219	0x3dd0fcb6	0.10204451
220	0xbe2231de	-0.15839335
221	0xbdfa76c3	-0.12229683
222	0x3c84d95d	0.016216928
223	0xbe20eb02	-0.15714648
224	0xbdd66f49	-0.10470445
225	0xbdd4eb8e	-0.10396491
226	0x3d1fb190	0.038987696
227	0x3dc036a9	0.093854256
228	0xbd9f5817	-0.07780474
229	0x3d896e6a	0.06710513
230	0xbcbcd3a6	-0.02305014
231	0xbdcf634a	-0.1012636
232	0xbe53a2fd	-0.20667644
233	0xbded31f4	-0.115817934
234	0x3da18b91	0.07887948
235	0xbd66359c	-0.05620347
236	0x3badc41f	0.0053029205
237	0xbe515387	-0.2044202
238	0x3d270f66	0.04078617
239	0x3c90ed6c	0.017691337
240	0xbd92492d	-0.071428634
241	0xbc49e241	-0.01232201
242	0xbdf08859	-0.11744756
243	0x3dcf5755	0.10124079
244	0xbd86fe01	-0.06591416
245	0xbde749d5	-0.11293379
246	0xbdadb51c	-0.084818095
247	0xbd84b802	-0.06480409
248	0x3dbee634	0.093212515
249	0x3e401bad	0.18760557
250	0xbe62223b	-0.2208337
251	0x3d669c96	0.056301676
252	0xbe585c85	-0.21129043
253	0xbde21f2e	-0.11041103
254	0xbd81c0f4	-0.06335631
255	0x39508e5f	0.00019889463

critic.network_body.linear_encoder.seq_layers.2.bias f4 [128]
0	0xbdbd5208	-0.09244162
1	0xbd847820	-0.064682245
2	0xbde36525	-0.11103276
3	0x3dcbaa50	0.09944594
4	0xbd4ea235	-0.05044766
5	0x3dc5fe73	0.09667673
6	0x3a8f153a	0.001091636
7	0xbd7c1c3a	-0.061550356
8	0x3e00abb6	0.12565503
9	0xbe0fb8e3	-0.14035372
10	0x3da8551c	0.08219358
11	0xbe3792be	-0.17927071
12	0xbd740dc6	-0.059583448
13	0xbe156f1b	-0.14593165
14	0x3ced7a96	0.028989118
15	0xbe645c2c	-0.22300786
16	0x3c82a78f	0.015949039
17	0xbcaf746e	-0.021417823
18	0xbd36cb09	-0.044627223
19	0x3de9942b	0.11405214
20	0xbe7dffb7	-0.24804579
21	0xbbf259ae	-0.0073959446
22	0x3dc922bc	0.09821078
23	0xbd50f196	-0.051011644
24	0x3d46a8b2	0.048500724
25	0x3dc9084c	0.09816036
26	0xbe05547b	-0.13020508
27	0xbdfad75b	-0.12248107
28	0xbdd3aefd	-0.10336111
29	0xbd0dfba9	-0.03466383
30	0xbe9c4699	-0.30522612
31	0xbde5ad79	-0.11214728
32	0x3d352475	0.04422422
33	0xbdb682e8	-0.08911687
34	0x3d720b49	0.059092794
35	0xbe1bba1f	-0.15207718
36	0xbd843806	-0.06455998
37	0x3d984341	0.07434703
38	0x3d40a015	0.047027666
39	0xbdc93057	-0.09823673
40	0x3de7580d	0.11296091
41	0xbdeb2452	-0.11481537
42	0xbaa6d42f	-0.001272803
43	0xbd90b482	-0.07065679
44	0xbe2987fc	-0.1655578
45	0xbdfc826c	-0.123295635
46	0xbd3517d6	-0.044212185
47	0xbd4969f6	-0.049173318
48	0xbd7c77bb	-0.06163762
49	0x39cdd87b	0.00039261937
50	0xbdc9282f	-0.098221175
51	0xbc268161	-0.010162682
52	0xbd70c2bc	-0.058779463
53	0xbe1cac6e	-0.15300152
54	0x3e1f133e	0.15534684
55	0xbe17780d	-0.1479189
56	0xbd78bc9d	-0.06072675
57	0x3e4e6ea7	0.20159398
58	0xbdac2402	-0.084053054
59	0x3e008f81	0.12554742
60	0x3db69677	0.08915418
61	0xbe645c70	-0.22300887
62	0xbe8df42e	-0.27725357
63	0xbdd85501	-0.10563088
64	0xbe0282ea	-0.12745252
65	0xbddb1aa4	-0.10698441
66	0xbddf907d	-0.10916231
67	0x3e1bb40d	0.15205403
68	0xbdf757f7	-0.12077325
69	0x3e08832b	0.13331287
70	0xbd0e5ea7	-0.034758236
71	0xbe40fe63	-0.18847041
72	0xbe22c518	-0.15895498
73	0xbdd56a92	-0.10420717
74	0x3d6527b3	0.055946063
75	0xbdee97b4	-0.11650029
76	0x3e49674b	0.1966831
77	0x3d996335	0.07489625
78	0xbe19d859	-0.15023936
79	0xbde6dcf1	-0.1127261
80	0x3d13b26f	0.03605884
81	0xbdc42e76	-0.09579174
82	0xbe2d8151	-0.16943862
83	0xbdc0912b	-0.094026886
84	0xbe704a44	-0.2346583
85	0xbdc974dd	-0.09836743
86	0xbe074f14	-0.1321376
87	0xbe212652	-0.15737274
88	0x3d65788c	0.056023166
89	0x3db760cd	0.0895401
90	0xbe08ea10	-0.13370538
91	0xbdfd5205	-0.123691596
92	0xbe3dcced	-0.18535204
93	0xbe02a953	-0.12759905
94	0xbe154cda	-0.14580098
95	0xbdda3533	-0.10654678
96	0xbe863783	-0.26214227
97	0xbe071e4e	-0.13195154
98	0xbd5b4fe1	-0.053542975
99	0x3e175d09	0.14781584
100	0xbc1b5854	-0.009481508
101	0xbd3637af	-0.044486698
102	0x3d6893bb	0.05678151
103	0xbe436b59	-0.19083919
104	0xbcdf91b6	-0.02729116
105	0x3e3a9209	0.1821977
106	0xbdb26315	-0.08710305
107	0x3e16c537	0.14723669
108	0x3e0079db	0.12546484
109	0xbe0ca3ea	-0.13734403
110	0x3b5d7dd4	0.0033796923
111	0xbda4f579	-0.08054633
112	0xbd1ec938	-0.038766116
113	0xbd5d59f3	-0.05404086
114	0x3bdf3233	0.006811404
115	0x3e0a59db	0.1351084
116	0x3d91b12d	0.07113872
117	0xbe2a09e3	-0.16605334
118	0xbe181452	-0.14851502
119	0x3b5df6d0	0.0033869036
120	0xbc51830e	-0.0127875935
121	0xbca9ddca	-0.02073564
122	0xbe050fdf	-0.12994336
123	0xbe096e69	-0.13421024
124	0x3b2a0a06	0.0025945916
125	0xbe2b3444	-0.16719157
126	0xbdb054c3	-0.08609917
127	0xbe0157ae	-0.12631103
