ml-agents-master/ml-agents/config/results/ppo/LineCreator/LineCreator-535054.onnx (onnx, 71632 bytes, 9 tensors)

53 f4 [4]
0.013644312 0.0046747974 4.391355 2.1953282
00000000: 648c 5f3c 0b2f 993b fb85 8c40 4280 0c40

54 f4 [1, 2]
-0.15651421 -0.10714483
00000000: 4345 20be c06e dbbd

distribution.mu.bias f4 [2]
0.049794912 -0.0027582466
00000000: c0f5 4b3d b3c3 34bb

distribution.mu.weight f4 [2, 128]
-0.013654625 -0.030960165 -0.0053793397 -0.018049385 -0.0022191224 0.003473854 -0.0072136545 0.005004991
-0.0071107587 -0.0026889201 -0.0056498544 0.19043566 -0.008685315 0.009217699 0.0042858464 -0.005825824
-0.0049240054 0.002888058 -0.0027459182 0.026368083 -0.012839349 -0.0063077225 -0.000934421 0.0025129814
-0.003908429 0.023815045 -0.0066639488 -0.0028355755 -0.045437332 0.019888606 -0.009122504 -0.0071607027
-0.0066701355 -0.01498934 -0.010555107 -0.0107919965 0.026856674 -0.021785298 -0.0003557309 -0.012363076
-0.058944084 -0.006481089 -0.0114696445 -0.0051253648 -0.001213395 -0.00807909 -0.0038971438 -0.004278837
0.0036230213 0.0007645048 -0.008095821 0.0030188314 -0.0030844286 0.00029724767 -0.008849343 -0.010976547
0.023201331 0.00018936224 0.00039804567 -0.0053671147 -0.0011383058 -0.0010788046 -0.00727018 0.0031916953
0.0001168009 -0.002862745 -0.032893274 -0.00094070355 -0.006937816 -0.015089825 -0.000657342 0.005375869
-0.014738125 -0.0025092945 -0.024771025 -0.032193523 -0.00939917 -0.009400253 -0.0033935192 -0.011864929
0.006950623 0.0020997135 -0.007405831 -0.0076872255 0.023619909 -0.07571799 -0.0053246017 -0.0023780707
-0.0059771147 0.0047326516 -0.039980587 -0.0055820346 -0.0100796195 0.021416146 -0.011486849 -0.0049336124
-0.0029567303 0.012148894 -0.0007196651 -0.0054619918 -0.011472248 -0.004574417 0.046235867 -0.008782685
0.012036946 -0.003433801 -0.019307736 0.022321863 -0.004515658 -0.014717024 -0.0050406577 -0.012289494
0.0014682793 0.022534922 -0.00322666 -0.010151333 -0.0017151122 -0.0033154797 0.0016416082 -0.0035243875
0.008215431 -0.00723948 0.0002636271 -0.0005632621 -0.0033128355 -0.0035510936 -0.0066263354 -0.009033312
0.0012842314 -0.2077724 -0.0054753884 -0.0023133764 -0.0018710949 -0.0014494316 -0.00090399693 -0.0039878525
-0.0015193733 -0.0021234495 -0.00032185737 0.002659876 0.0003572422 -0.005792414 -0.0010814423 -0.0010403814
-0.0019139292 -0.0074414443 -0.0014627274 0.022753527 0.0005429294 -0.0020850122 -0.0015764502 -0.00023023724
-0.00012896494 -0.044543505 -6.563575e-05 0.0005311827 0.030504381 0.007006807 0.00026849215 -0.0011230962
0.00032103492 -0.020221835 0.00069072325 0.0002175368 -0.12659921 -0.12525427 0.0015754995 0.00053199334
0.046541773 -0.0006467865 -0.0006019157 -0.0029067511 -0.0039872173 0.0002701059 -0.00068464724 0.0013551142
0.00036553395 -7.632693e-05 0.00032304655 -0.0012421007 -0.00096097693 -0.00093379 0.00019186568 0.00016402054
-0.0035347273 -0.001941726 -0.00063813373 -0.00070859364 -0.002191745 -0.0017961147 -0.0023043926 -0.0018588306
-0.0025864337 -0.001210749 0.025685018 0.0014093457 0.00014829618 0.00044517693 -0.0015358335 -0.0006419464
0.00064352155 -0.0024476878 0.020314645 0.013383661 0.0005211865 0.00037461086 -0.00054599874 0.0003031089
0.00047789115 -0.0031451774 -0.0013737823 0.0014046608 0.02000901 0.039317228 -0.0008402583 -0.0009236269
-0.001969736 -0.0017899808 0.022093091 -0.001313606 -0.00031101351 0.003763291 0.00050558825 -0.00096232415
0.0026664673 -0.0046603004 -0.0005903751 -0.00091096456 0.00074219337 -0.0018043785 -0.056240868 -0.0016977773
-0.0032890826 -0.0013805011 0.020650666 -0.016436603 -0.0012438531 7.3020754e-05 -0.00031936314 0.00065887533
0.000995579 -0.016159546 -0.0014610942 -0.00031149675 -0.0005463718 0.0029442718 -0.0030073537 0.0006670178
-0.0028908867 1.0138607e-05 -0.0012767285 -0.0013391507 -0.0007444512 -0.0020430333 -0.0010175275 0.0011420026
00000000: a6b7 5fbc 2ca0 fdbc 2c45 b0bb 4edc 93bc
00000010: b26e 11bb 99a9 633b 8560 ecbb e800 a43b
00000020: 5e01 e9bb 9838 30bb 6a22 b9bb 9101 433e
00000030: da4c 0ebc d505 173c 4970 8c3b 8ee6 bebb
00000040: 8d59 a1bb 9345 3d3b ddf4 33bb e101 d83c
00000050: 225c 52bc 03b1 cebb eff3 74ba d5b0 243b
00000060: 4712 80bb c517 c33c 415d dabb 10d5 39bb
00000070: 7f1c 3abd 6eed a23c 8e76 15bc 54a4 eabb
00000080: 2791 dabb d995 75bc 54ef 2cbc ead0 30bc
00000090: 8702 dc3c 1577 b2bc 6581 bab9 808e 4abc
000000a0: 5a6f 71bd 515f d4bb 2deb 3bbc adf2 a7bb
000000b0: c80a 9fba 295e 04bc 3967 7fbb 7c35 8cbb
000000c0: 3670 6d3b 0c69 483a 56a4 04bc 96d7 453b
000000d0: 2024 4abb e8d7 9b39 d6fc 10bc fad6 33bc
000000e0: b810 be3c 8a8f 4639 c9b0 d039 9fde afbb
000000f0: 3433 95ba ad66 8dba b13a eebb c32b 513b
00000100: 01f3 f438 e49c 3bbb 19bb 06bd 8c99 76ba
00000110: 9e56 e3bb 503b 77bc 7a51 2cba 0f28 b03b
00000120: 2d78 71bc fa72 24bb 9bec cabc 5bdd 03bd
00000130: fafe 19bc 8503 1abc ce65 5ebb 1f65 42bc
00000140: 0dc2 e33b 599b 093b 9dac f2bb 1fe5 fbbb
00000150: 8a7e c13c 0912 9bbd ff79 aebb 68d9 1bbb
00000160: acdb c3bb 5c14 9b3b afc2 23bd 80e9 b6bb
00000170: fd24 25bc ea70 af3c 5633 3cbc 24aa a1bb
00000180: b4c5 41bb 280c 473c e8a7 3cba 82fa b2bb
00000190: 18f6 3bbc fee4 95bb d261 3d3d 40e5 0fbc
000001a0: 9c36 453c 9f09 61bb 422b 9ebc 57dc b63c
000001b0: 16f8 93bb ac1f 71bc 1a2c a5bb e059 49bc
000001c0: 4773 c03a 289b b83c 5f76 53bb c751 26bc
000001d0: 9ecd e0ba 8548 59bb 3b2b d73a 69f9 66bb
000001e0: 049a 063c 2939 edbb 6e37 8a39 e1a7 13ba
000001f0: 281c 59bb 77b9 68bb bb21 d9bb 7500 14bc
00000200: a853 a83a 4ac2 54be e36a b3bb 049c 17bb
00000210: 873f f5ba dbfa bdba 35fa 6cba 88ac 82bb
00000220: b525 c7ba 9229 0bbb f7be a8b9 5051 2e3b
00000230: 3d4c bb39 4ace bdbb 2fbf 8dba 685d 88ba
00000240: cfdc faba 5cd7 f3bb fdb8 bfba 9b65 ba3c
00000250: 6053 0e3a b3a4 08bb e4a0 ceba d76b 71b9
00000260: c33a 07b9 4073 36bd eda5 89b8 113f 0b3a
00000270: 53e4 f93c 5b99 e53b 68c4 8c39 db34 93ba
00000280: 9450 a839 43a8 a5bc a711 353a 971a 6439
00000290: 39a3 01be a842 00be fe80 ce3a 7875 0b3a
000002a0: 96a2 3e3d 1b8d 29ba e1c9 1dba 317f 3ebb
000002b0: 34a7 82bb 009d 8d39 e679 33ba 169e b13a
000002c0: 23a5 bf39 b511 a0b8 935e a939 fccd a2ba
000002d0: 12ea 7bba 96c9 74ba 8d2f 4939 eefc 2b39
000002e0: e2a6 67bb 8381 feba 6e48 27ba eac0 39ba
000002f0: 61a3 0fbb 9c6b ebba 4b05 17bb 01a4 f3ba
00000300: 2881 29bb ffb1 9eba 6369 d23c cbb9 b83a
00000310: f47f 1b39 a366 e939 054e c9ba 4b48 28ba
00000320: 00b2 283a 6369 20bb e66a a63c 2547 5b3c
00000330: 3ca0 083a 6b67 c439 5b21 0fba 97ea 9e39
00000340: 778d fa39 521f 4ebb 7c10 b4ba 981c b83a
00000350: efe9 a33c 1a0b 213d c844 5cba 8d1f 72ba
00000360: b016 01bb ca9d eaba 92fc b43c 4e2d acba
00000370: 870f a3b9 8ca1 763b 7489 043a 7b44 7cba
00000380: e6bf 2e3b 6fb5 98bb 67c3 1aba cccd 6eba
00000390: c18f 423a e580 ecba d35c 66bd f487 deba
000003a0: a68d 57bb eef1 b4ba 962b a93c 0ea6 86bc
000003b0: c908 a3ba b822 9938 3270 a7b9 60b8 2c3a
000003c0: 167e 823a 0661 84bc 3082 bfba 6350 a3b9
000003d0: 643a 0fba aff4 403b 0617 45bb cfda 2e3a
000003e0: 0875 3dbb fc18 2a37 e657 a7ba 7186 afba
000003f0: 4627 43ba 69e4 05bb 8f5e 85ba 40af 953a

network_body.linear_encoder.seq_layers.0.bias f4 [128]
0.02888168 0.012486752 -0.09461024 -0.0636969 -0.2843153 -0.25617436 -0.16528954 -0.034625515
-0.0141521515 0.012615849 -0.039617408 -0.00072185573 -0.12155266 0.09360702 -0.10058694 -0.17809135
-0.043191344 0.012625359 0.0014710843 -0.097125255 -3.8398393e-05 0.0038735429 0.025674488 -0.011427501
-0.14720693 -0.17160207 -0.0010087709 -0.0011316465 0.018408298 -0.17068748 -0.010504692 0.06315083
-0.21506058 0.009739958 -0.124043755 -0.12382706 0.04278663 -0.014350099 -0.07011988 -0.08191441
0.09984457 -0.039664205 -0.30345586 -0.115814544 -0.24427803 -0.23794805 -0.21416266 0.029701421
0.060076173 0.0066230274 -0.110767774 -0.23010916 -0.21481368 -0.18150298 -0.014508039 0.008017936
-0.06679981 -0.18968478 0.012462726 -0.25704068 -0.22350283 -0.24709262 -0.017560376 -0.092641525
-0.17288083 0.007939147 -0.15492879 -0.14675348 -0.23026508 -0.06819899 -0.015661346 0.01588653
0.005041943 0.009995001 -0.11837479 -0.014575722 0.0010604026 -0.016440073 -0.011697541 -0.17742544
-0.013837681 0.023296205 -0.32417876 -0.0024217013 -0.25780153 -0.11572686 -0.116084926 0.014228609
-0.07170881 0.014873559 -0.18671577 -0.020232975 0.13035107 0.02231724 0.06687259 -0.11317795
-0.07332738 -0.023706 0.00063624413 -0.05080725 0.035017565 -0.22907831 -0.2107403 -0.22211407
-0.23260772 0.0047825687 -0.0043112473 -0.121173084 -0.0017277715 0.012442666 -0.23136374 -0.0072875447
-0.048820868 -0.09689997 0.0093540065 -0.20896676 0.022906743 -0.0082615735 -0.0016974161 -0.17270634
-0.039783154 -0.07733495 -0.0031093447 -0.11836815 -0.02051729 0.0045736283 -0.021878451 0.047214042
00000000: 4699 ec3c 3c95 4c3c 03c3 c1bd 8573 82bd
00000010: c691 91be 4929 83be a941 29be 7cd3 0dbd
00000020: 6dde 67bc b5b2 4e3c dd45 22bd eb3a 3dba
00000030: 9af0 f8bd 0ab5 bf3d 8700 cebd 945d 36be
00000040: 68e9 30bd 98da 4e3c 66d1 c03a 9be9 c6bd
00000050: f60d 21b8 44db 7d3b 4e53 d23c 6a3a 3bbc
00000060: 6abd 16be 74b8 2fbe bc38 84ba c153 94ba
00000070: 00cd 963c b3c8 2ebe df1b 2cbc 3955 813d
00000080: d738 5cbe 5894 1f3c a70a febd 0b99 fdbd
00000090: 0941 2f3d ad1c 6bbc 039b 8fbd bec2 a7bd
000000a0: 4f7b cc3d ef76 22bd 915e 9bbe 2d30 edbd
000000b0: 0524 7abe a7a8 73be 754d 5bbe 6550 f33c
000000c0: 6f12 763d fb05 d93b 37da e2bd bca1 6bbe
000000d0: 1ef8 5bbe ebdb 39be 20b3 6dbc a95d 033c
000000e0: 57ce 88bd ba3c 42be 7630 4c3c d69a 83be
000000f0: eddd 64be d905 7dbe c7da 8fbc d7ba bdbd
00000100: ac07 31be 3213 023c a7a5 1ebe 8b46 16be
00000110: 9cca 6bbe e9ab 8bbd 394c 80bc 7824 823c
00000120: e236 a53b 13c2 233c 7b6e f2bd 02cf 6ebc
00000130: 35fd 8a3a 55ad 86bc 0ba7 3fbc 04af 35be
00000140: 71b7 62bc afd7 be3c c2fa a5be 68b5 1ebb
00000150: 90fe 83be 3402 edbd efbd edbd 1d1f 693c
00000160: 12dc 92bd 3ab0 733c 6b32 3fbe a0bf a5bc
00000170: c07a 053e a5d2 b63c 7ff4 883d d7c9 e7bd
00000180: aa2c 96bd 1633 c2bc 9fc9 263a 431b 50bd
00000190: 946e 0f3d 8193 6abe 4ecc 57be df71 63be
000001a0: b830 6ebe 18b7 9c3b 5d45 8dbb 9829 f8bd
000001b0: 6476 e2ba 53dc 4b3c 9eea 6cbe 5bcc eebb
000001c0: 64f8 47bd 7e73 c6bd 8c41 193c 62fb 55be
000001d0: eca6 bb3c 8d5b 07bc d57b deba eed9 30be
000001e0: a9f3 22bd c961 9ebd 26c6 4bbb 006b f2bd
000001f0: e013 a8bc 60de 953b 703a b3bc 8363 413d

network_body.linear_encoder.seq_layers.0.weight f4 [128, 4]
-0.734158 0.35474154 0.73936576 0.4249887 -1.3448447 0.24823643 0.015552549 -0.014337184
-0.79052126 1.3730016 0.0077274847 0.11905059 -0.7256778 0.5326573 -0.9860295 -0.06934354
-1.0015054 -0.6495148 -0.44312957 1.6255971 -0.20053573 -0.28331092 -0.3209786 0.67949903
0.18449995 0.03837225 -0.7790808 0.00174313 -0.32341784 0.40057066 0.04916929 0.031705845
-0.43796104 -0.54338944 -0.39416295 -0.1644296 -0.6758243 -0.13493462 -0.0025791058 -0.011991439
0.83919585 0.40382355 0.6039822 0.316787 0.092376344 0.55073816 0.0046210526 0.0010635259
0.12563424 -0.3197783 -0.7702365 -0.28410703 -0.06771739 0.91985905 -0.32660347 -0.2499944
-0.82731915 -0.31621686 0.068068296 0.13064097 0.9434957 0.22522137 -0.32768366 0.4618968
-0.8676384 -0.02640728 0.09938797 0.10218076 -0.036828086 -0.3784306 -0.007022252 -0.0044069295
-0.38657454 -0.086922325 -0.007910586 0.0104367705 -0.06394517 1.1696497 -0.51213217 0.27482644
0.28950498 -0.091566324 0.003487181 0.009797058 -0.31630605 -0.7631987 -0.029281018 -0.0022953467
0.47266215 0.3144995 -0.021371737 -0.04148435 -0.21092188 0.72150356 -0.008051764 -0.0078062154
0.09263708 0.020701883 0.8202973 -0.15957533 -0.6536893 -0.81317544 0.26383817 -0.22138397
-0.11829007 0.46607712 0.008240262 0.010130213 0.73412734 -0.89782387 0.0048994976 -0.012925059
0.25622767 -0.77060497 -0.46714288 -0.20004798 -0.75880903 0.41283742 0.34537673 1.0007296
0.2804216 0.9246958 0.0047771027 -0.00147964 0.28110737 1.3348958 0.04730231 -0.08461858
0.11486474 -0.69492865 0.15595113 0.35873926 -0.4792738 0.09867356 -0.005622715 -0.0050935666
0.25149578 -0.0856165 -0.07444545 -0.21772169 -0.9916759 -0.31239745 -0.7397584 -1.1610246
-0.18534063 0.4769067 0.4516214 0.05122398 0.43197393 0.7497278 -0.015230808 0.0015912344
0.06160918 -0.0111996895 0.19513312 0.11268183 -0.5129039 -1.0806262 -0.33554322 -0.08833256
-0.22835755 0.49403048 0.24862587 -0.14611341 -0.24714646 0.12750933 0.3200704 0.15870288
0.39768505 -0.8887707 0.07258013 0.4029618 -0.7335013 -0.6879639 0.3562964 -0.4852797
0.23934387 -1.114879 -0.5191564 1.6004066 -0.34479058 -0.14688052 0.110849656 1.2042043
-0.2798012 -0.062916294 -0.050645974 0.47657293 0.14468516 0.581244 -0.08598741 -0.038273115
-0.18070014 -0.8274002 -0.45523494 -0.42361733 -0.3693797 -0.39185148 -0.0030820644 -0.010909993
0.0828491 -0.27903196 -0.42330712 -0.0012713708 0.46873736 -0.46481705 -0.70487547 0.19693947
-0.98552704 0.45467183 -0.43866864 0.29304284 -0.08830608 -0.5828229 -0.052734382 -0.19854526
-1.0807897 -0.19100928 -0.73280436 -0.42524862 0.123232245 0.0738026 -0.0022206318 -0.010264909
-0.0022524728 -0.80451095 0.37820938 0.17225441 0.2996795 -0.707698 0.3027092 0.47646084
0.02973933 -0.39109445 -0.0040548746 -0.014981731 0.71462846 -0.42258283 -0.008529409 0.5682902
-0.6307674 -0.81767344 -0.034137525 0.3468972 -0.9756395 -1.0245656 0.014954146 -0.29784113
1.0157495 0.25653467 -0.27178487 -0.12737934 -0.07142313 -0.5493355 0.04699937 -0.45713872
00000000: c7f1 3bbf afa0 b53e 1347 3d3f 1e98 d93e
00000010: df23 acbf b131 7e3e 1ed0 7e3c 82e6 6abc
00000020: 9a5f 4abf 84be af3f d736 fd3b ccd0 f33d
00000030: 05c6 39bf 3b5c 083f 6e6c 7cbf fc03 8ebd
00000040: 5431 80bf 9a46 26bf e1e1 e2be 9113 d03f
00000050: 3d59 4dbe 210e 91be 4f57 a4be a6f3 2d3f
00000060: 8eed 3c3e 382c 1d3d d771 47bf bd79 e43a
00000070: 0697 a5be 9917 cd3e bd65 493d fddd 013d
00000080: 6e3c e0be 921b 0bbf bacf c9be 3c60 28be
00000090: d202 2dbf 4d2c 0abe 3706 29bb be77 44bc
000000a0: 8ad5 563f f6c1 ce3e 949e 1a3f e831 a23e
000000b0: cf2f bd3d 2dfd 0c3f 336c 973b 0266 8b3a
000000c0: 43a6 003e fbb9 a3be 382e 45bf 7a76 91be
000000d0: 6aaf 8abd e27b 6b3f 9238 a7be 88fe 7fbe
000000e0: 30cb 53bf 2de7 a1be 6467 8b3d bfc6 053e
000000f0: ef88 713f 6ea0 663e 27c6 a7be bd7d ec3e
00000100: 8d1d 5ebf 1454 d8bc ec8b cb3d 2544 d13d
00000110: 0cd9 16bd a8c1 c1be eb1a e6bb 0168 90bb
00000120: 19ed c5be 5504 b2bd 679b 01bc fdfe 2a3c
00000130: aff5 82bd 15b7 953f 181b 03bf 0db6 8c3e
00000140: ff39 943e 2087 bbbd 3089 643b d783 203c
00000150: def2 a1be fd60 43bf bfde efbc 876d 16bb
00000160: c600 f23e 1406 a13e c813 afbc 7eeb 29bd
00000170: e8fb 57be 75b4 383f 8ceb 03bc 48cb ffbb
00000180: 82b8 bd3d ff96 a93c 01ff 513f b767 23be
00000190: 2f58 27bf 442c 50bf cc15 873e 7bb2 62be
000001a0: 1042 f2bd a9a1 ee3e 2a02 073c 31f9 253c
000001b0: c5ef 3b3f c9d7 65bf f78b a03b a0c3 53bc
000001c0: 4630 833e 5e46 45bf 5a2d efbe 61d9 4cbe
000001d0: 4f41 42bf 6d5f d33e 38d5 b03e e817 803f
000001e0: 6c93 8f3e ddb8 6c3f 3e89 9c3b 7bf0 c1ba
000001f0: 4eed 8f3e dedd aa3f 11c0 413d 824c adbd
00000200: 343e eb3d d8e6 31bf a7b1 1f3e acac b73e
00000210: 6063 f5be 5d15 ca3d c13e b8bb efe7 a6bb
00000220: 0ec4 803e b457 afbd db76 98bd 6ff2 5ebe
00000230: 79de 7dbf 8ff2 9fbe ce60 3dbf 749c 94bf
00000240: efc9 3dbe 1d2d f43e ec3a e73e 3cd0 513d
00000250: b02b dd3e 29ee 3f3f a48a 79bc f790 d03a
00000260: e859 7c3d e77e 37bc fad0 473e bbc5 e63d
00000270: ac4d 03bf f651 8abf 52cc abbe b4e7 b4bd
00000280: 90d6 69be 90f1 fc3e c897 7e3e c19e 15be
00000290: f613 7dbe ce91 023e 44e0 a33e 0283 223e
000002a0: 609d cb3e 7a86 63bf e4a4 943d 0251 ce3e
000002b0: bec6 3bbf 671e 30bf 7b6c b63e 9576 f8be
000002c0: 8f16 753e 5bb4 8ebf 6fe7 04bf 20da cc3f
000002d0: 6488 b0be d967 16be 2505 e33d 5e23 9a3f
000002e0: 1a42 8fbe 42da 80bd 2772 4fbd 5e01 f43e
000002f0: 5928 143e 68cc 143f 2b1a b0bd 45c4 1cbd
00000300: 7509 39be 80d0 53bf 8e14 e9be 5fe4 d8be
00000310: 561f bdbe c2a0 c8be 76fc 49bb d4bf 32bc
00000320: caac a93d 47dd 8ebe b6bb d8be 20a4 a6ba
00000330: 58fe ef3e 80fc edbe b872 34bf 80aa 493e
00000340: 804b 7cbf bfca e83e 2d99 e0be b609 963e
00000350: d1d9 b4bd e233 15bf 0200 58bd 734f 4bbe
00000360: 5157 8abf f097 43be 1199 3bbf 30ba d9be
00000370: 3061 fc3d d125 973d 0588 11bb 262e 28bc
00000380: 399e 13bb 6ef4 4dbf a9a4 c13e 7663 303e
00000390: 976f 993e b22b 35bf b3fc 9a3e adf2 f33e
000003a0: e59f f33c 883d c8be c1de 84bb ef75 75bc
000003b0: e4f1 363f c75c d8be efbe 0bbc 777b 113f
000003c0: f979 21bf 0c53 51bf cad3 0bbd 839c b13e
000003d0: 83c3 79bf f724 83bf 3c02 753c a27e 98be
000003e0: 1404 823f 8358 833e 6327 8bbe bb6f 02be
000003f0: 4a46 92bd 40a1 0cbf 6982 403d 160e eabe

network_body.linear_encoder.seq_layers.2.bias f4 [128]
0.017259767 -0.12722352 0.03479012 -0.14012657 -0.013848925 -0.09916675 -0.02646333 -0.14605431
0.017009882 -0.026673703 0.022926072 -0.0031819378 -0.053458717 -0.11652173 -0.08116653 -0.036105253
-0.025215998 -0.22970657 0.014854367 -0.2075765 0.030450324 -0.02782081 -0.041777663 0.011580066
-0.016705409 -0.13108703 -0.008754076 0.027062984 0.06807681 -0.1756669 -0.00835086 0.024243219
-0.0100161405 -0.15643002 -0.006880569 0.04426826 -0.23113413 -0.20217328 -0.06801785 0.022037972
-0.07261445 0.016942756 -0.0038425708 -0.00028042935 -0.16087714 0.056755465 -0.060202025 -0.0023599449
-0.039701764 0.008497892 -0.021493612 -0.061709564 -0.047905456 -0.05044821 0.01739412 -0.032160647
-0.06740309 -0.048906017 -0.013101701 0.021356879 0.0040172306 -0.059505068 -0.07919989 -0.06230547
0.0082168225 0.003102813 -0.12385479 0.019483987 -0.024401143 0.032474384 -0.018393809 0.027978655
-0.003290031 -0.046714667 -0.0059196055 -0.103243686 0.030368222 -0.0332782 0.04363266 -0.019601425
-0.008678259 0.0056454334 0.012592482 -0.045856837 -0.1546769 0.09611848 0.0210655 0.02955862
-0.04886076 -0.0012669002 -0.14723699 0.0004264206 0.019568766 -0.10074149 0.008334737 -0.010153047
0.015450549 -0.19672714 -0.049441352 -0.08513359 0.0288287 -0.020782148 -0.074437894 -0.05459049
-0.17109452 -0.046455864 0.066135 -0.18924466 -0.059428424 -0.03304396 -0.0030373684 0.0061506205
-0.039340395 -0.17696196 -0.0065913917 0.012714438 0.016463991 -0.031202678 -0.019761479 -0.04821183
-0.082055695 0.0152373705 -0.09045409 -0.03776113 -0.059521828 0.034853682 -0.026059404 -0.03811562
00000000: 5b64 8d3c e246 02be 1680 0e3d 577d 0fbe
00000010: 9ae6 62bc f017 cbbd a0c9 d8bc 438f 15be
00000020: 4f58 8b3c cf82 dabc 75cf bb3c 0f88 50bb
00000030: 87f7 5abd f2a2 eebd a33a a6bd 1ae3 13bd
00000040: c891 cebc 3338 6bbe bb5f 733c ef8e 54be
00000050: f572 f93c 78e8 e3bc 0e1f 2bbd 51ba 3d3c
00000060: c8d9 88bc ae3b 06be 426d 0fbc 31b3 dd3c
00000070: db6b 8b3d 06e2 33be 0cd2 08bc b799 c63c
00000080: bd1a 24bc 312f 20be 6576 e1bb a352 353d
00000090: 6dae 6cbe 8306 4fbe f14c 8bbd fa88 b43c
000000a0: e2b6 94bd 89cb 8a3c a4d3 7bbb 9706 93b9
000000b0: fabc 24be 6b78 683d 6696 76bd 4ea9 1abb
000000c0: 519e 22bd be3a 0b3c 5f13 b0bc 2bc3 7cbd
000000d0: 8338 44bd c8a2 4ebd 1d7e 8e3c e2ba 03bd
000000e0: a20a 8abd ad51 48bd 84a8 56bc 9ff4 ae3c
000000f0: f9a2 833b 96bb 73bd 8d33 a2bd 0534 7fbd
00000100: da9f 063c 9058 4b3b 95a7 fdbd e29c 9f3c
00000110: e8e4 c7bc dc03 053d 9dae 96bc 7e33 e53c
00000120: 909d 57bb e157 3fbd 40f9 c1bb 6d71 d3bd
00000130: c7c6 f83c b94e 08bd 29b8 323d 2b93 a0bc
00000140: 422f 0ebc 54fd b83b b350 4e3c 61d4 3bbd
00000150: 9f63 1ebe c4d9 c43d 8e91 ac3c eb24 f23c
00000160: 3822 48bd 1e0e a6ba 4bc5 16be 3491 df39
00000170: ad4e a03c 8e51 cebd 6c8e 083c f758 26bc
00000180: 4d24 7d3c d772 49be 0483 4abd 855a aebd
00000190: 2a2a ec3c 533f aabc e572 98bd 479a 5fbd
000001a0: 6733 2fbe 8148 3ebd c971 873d 5ac9 41be
000001b0: 386b 73bd 1a59 07bd 960e 47bb 258b c93b
000001c0: 6523 21bd 8435 35be 9afc d7bb 3850 503c
000001d0: 7edf 863c c29c ffbc d3e2 a1bc c579 45bd
000001e0: d10c a8bd 2aa6 793c fe3f b9bd 6aab 1abd
000001f0: 29cd 73bd bcc2 0e3d 887a d5bc 201f 1cbd

network_body.linear_encoder.seq_layers.2.weight f4 [128, 128]
0.029050529 0.11643812 0.03956085 -0.06378582 0.027127834 -0.05760856 -0.037490215 0.215317
0.08440405 -0.08826182 -0.09671942 0.12598045 0.006485332 -0.009998404 -0.09100615 0.04394779
0.027482085 -0.03871983 -0.05886873 -0.07439467 -0.11774922 0.04746206 -0.008670961 -0.02650353
0.019372253 0.03849154 0.05544725 0.039275475 -0.033615492 0.04555989 0.19959643 -0.070301734
-0.0029510402 0.013783347 0.10258647 -0.14904319 -0.15406832 0.23660566 -0.04910467 0.033246715
0.062433727 -0.09882565 -0.092805944 0.1208365 -0.114329986 -0.025148394 0.042389542 -0.019881105
0.03939162 0.07610723 -0.036193382 0.013890447 0.14236656 -0.018481642 0.001681841 0.18498978
0.09386945 -0.030491099 0.09096591 -0.10864232 -0.0518522 -0.14156166 -0.022824252 -0.040321946
-0.077761814 -0.00149395 0.12162469 0.10428612 -0.14109853 0.16228697 -0.009228067 0.13152634
-0.12028228 0.0075317705 -0.10008636 0.003257671 0.11898775 0.010114401 0.098983675 0.019988002
0.028463846 -0.044037893 0.06646713 0.011160835 0.050139718 -0.025649335 0.017446492 -0.09205131
0.00342295 0.15846218 -0.020330807 -0.060581855 -0.008589511 0.042273127 0.12815571 -0.09285873
0.16100076 -0.017173419 -0.04473764 -0.10525235 0.06270788 0.03570124 0.021504404 0.027923662
-0.03755933 0.14872134 -0.16489919 0.037690464 -0.119087875 0.0071707102 -0.055323806 -0.013932145
-0.17104597 -0.041224916 -0.06909309 0.16823018 0.0025992412 -0.13875176 0.050034113 0.051797427
0.03980708 -0.028875683 -0.035762064 -0.11115335 0.19745228 -0.054271862 0.0010034214 -0.017101947
-0.20266885 -0.08734483 0.067384325 -0.06990712 0.19271825 0.38288647 -0.07637294 -0.11987749
0.018478941 0.020350374 -0.18016808 -0.045315016 0.02246899 -0.11195786 0.042620093 0.13996
0.0036187363 -0.014360461 -0.060762007 0.10150207 0.00283534 -0.037167493 -0.13100763 -0.04908441
-0.180827 0.05199482 -0.0045328806 -0.06498824 -0.02733575 0.29673186 -0.021668049 -0.12053716
0.1388326 0.014863296 -0.006228905 0.070531614 -0.05624562 0.04650035 -0.060619615 -0.0040747332
-0.11627091 -0.022070026 0.1088137 -0.01691241 0.17285365 0.21243365 0.33474442 -0.036559638
-0.069940016 -0.06947 0.10184372 0.13384861 0.18963379 -0.010243706 -0.079378806 0.029256355
-0.12921864 0.11917 -0.05808934 0.38087282 0.14428113 0.1264665 -0.006199843 -0.043189332
0.11808656 -0.008120989 0.18924254 -0.07915428 0.1454151 -0.058226243 0.016632551 0.046261054
-0.24209651 0.03801318 -0.035317264 -0.24615112 -0.011754302 0.024827473 -0.072474755 0.3373138
0.017332029 -0.078211606 0.34592217 -0.09719508 0.18286376 -0.085101016 0.09102931 0.012292031
-0.3386518 -0.07962718 0.227696 -0.10660315 -0.15315151 -0.07691375 -0.08012941 0.018172683
0.034672357 0.087281086 -0.04408694 -0.140104 -0.07591987 0.16429949 0.26626804 0.2109337
0.06517366 -0.16738439 0.055501536 0.10978923 -0.019583385 0.017668415 0.2644091 -0.0015744315
-0.061883386 -0.1067459 -0.027337424 0.2689581 -0.08024483 -0.06732553 0.0081103295 0.12932025
-0.05790799 0.037886858 -0.08929346 -0.049441125 0.07616044 0.019896375 0.029352877 0.0027230023
00000000: 60fb ed3c 1c77 ee3d 8f0a 223d 24a2 82bd
00000010: 313b de3c f4f6 6bbd 578f 19bd 0f7c 5c3e
00000020: 08dc ac3d 9dc2 b4bd d514 c6bd 0501 013e
00000030: e882 d43b 59d0 23bc 6f61 babd 9902 343d
00000040: 1c22 e13c af98 1ebd 5620 71bd 3c5c 98bd
00000050: 8126 f1bd 9467 423d a510 0ebc ee1d d9bc
00000060: 8fb2 9e3c 4ea9 1d3d a81c 633d 52df 203d
00000070: 66b0 09bd 029d 3a3d 0263 4c3e 5bfa 8fbd
00000080: 3d66 41bb 8cd3 613c db18 d23d c79e 18be
00000090: 16c4 1dbe c148 723e fa21 49bd b52d 083d
000000a0: 82ba 7f3d 1a65 cabd 0b11 bebd 2079 f73d
000000b0: d725 eabd 0104 cebc a8a0 2d3d b3dd a2bc
000000c0: 1b59 213d 1bde 9b3d 833f 14bd c294 633c
000000d0: 8ac8 113e d066 97bc 3871 dc3a f66d 3d3e
000000e0: a03e c03d 78c8 f9bc 564c ba3d dd7f debd
000000f0: f962 54bd 8af5 10be edf9 babc a028 25bd
00000100: 9641 9fbd a5d0 c3ba 5e16 f93d f693 d53d
00000110: 227c 10be 8e2e 263e 5131 17bc d7ae 063e
00000120: 8e56 f6bd 12cd f63b 14fa ccbd a67e 553b
00000130: d9af f33d dfb6 253c f4b7 ca3d e1bd a33c
00000140: 032d e93c 1461 34bd eb1f 883d efdb 363c
00000150: 4e5f 4d3d 8e1e d2bc f2eb 8e3c 6685 bcbd
00000160: 9253 603b e943 223e cb8c a6bc ae24 78bd
00000170: 05bb 0cbc 9626 2d3d 403b 033e b82c bebd
00000180: 62dd 243e 45af 8cbc d13e 37bd 8b8e d7bd
00000190: fd6c 803d 773b 123d 012a b03c 2ac0 e43c
000001a0: d0d7 19bd 684a 183e 55db 28be 5161 1a3d
000001b0: 58e4 f3bd 47f8 ea3b 379b 62bd a743 64bc
000001c0: ad26 2fbe 75db 28bd ae80 8dbd 8844 2c3e
000001d0: 0858 2a3b f114 0ebe 92f0 4c3d 8a29 543d
000001e0: c00c 233d b28c ecbc 3e7b 12bd 5ea4 e3bd
000001f0: ee30 4a3e 2c4c 5ebd 3c85 833a 6219 8cbc
00000200: 6c88 4fbe d9e1 b2bd cb00 8a3d 772b 8fbd
00000210: ef57 453e b209 c43e 6a69 9cbd 5482 f5bd
00000220: 2661 973c d4b5 a63c fb7d 38be 3d9c 39bd
00000230: e310 b83c 2a4a e5bd 6892 2e3d ad51 0f3e
00000240: 5228 6d3b 2448 6bbc 95e1 78bd 51e0 cf3d
00000250: 1dd1 393b f13c 18bd dd26 06be bc0c 49bd
00000260: b72a 39be 85f8 543d 8f88 94bb 8e18 85bd
00000270: 39ef dfbc 3ded 973e 3181 b1bc 30dc f6bd
00000280: 222a 0e3e 2f85 733c d81b ccbb e172 903d
00000290: cf61 66bd 2777 3e3d 464c 78bd 5785 85bb
000002a0: 711f eebd 33cc b4bc b8d9 de3d e58b 8abc
000002b0: 8c00 313e 3588 593e 9f63 ab3e 8fbf 15bd
000002c0: b63c 8fbd 4a46 8ebd 7193 d03d 9c0f 093e
000002d0: 5c2f 423e 38d5 27bc 5b91 a2bd 06ab ef3c
000002e0: e451 04be 670f f43d 16ef 6dbd c301 c33e
000002f0: 6fbe 133e 6f80 013e 0d28 cbbb 4ce7 30bd
00000300: 5ed7 f13d e60d 05bc ccc8 413e a41b a2bd
00000310: b2e7 143e a47e 6ebd fd40 883c 3b7c 3d3d
00000320: 26e8 77be b5b3 1b3d d6a8 10bd 0a0f 7cbe
00000330: 1e95 40bc fc62 cb3c a56d 94bd 65b4 ac3e
00000340: e6fb 8d3c 682d a0bd b61c b13e 370e c7bd
00000350: a340 3b3e 7149 aebd 936d ba3d 8464 493c
00000360: c563 adbe 9313 a3bd 2429 693e c152 dabd
00000370: c0d3 1cbe f584 9dbd e31a a4bd e1de 943c
00000380: 9a04 0e3d 6dc0 b23d 8294 34bd 6c77 0fbe
00000390: e07b 9bbd 203e 283e 4954 883e 01ff 573e
000003a0: c579 853d d066 2bbe 9455 633d 2dd9 e03d
000003b0: 566d a0bc 5abd 903c a160 873e 285d ceba
000003c0: 6f79 7dbd 989d dabd bcf2 dfbc e0b4 893e
000003d0: 6757 a4bd f8e1 89bd 30e1 043c 876c 043e
000003e0: ee30 6dbd 402f 1b3d 7ddf b6bd c782 4abd
000003f0: 01fa 9b3d b9fd a23c 7275 f03c 6674 323b

network_body.vector_processors.0.normalizer.running_mean f4 [4]
9.929861 3.2699609 -4.500961 1.4464309
00000000: b6e0 1e41 0a47 5140 df07 90c0 a624 b93f
