ml-agents-master/ml-agents/config/results/ppo/LineCreator/LineCreator-350966.pt (torch, 434231 bytes, 40 tensors)

network_body.vector_processors.0.normalizer.running_mean f4 [4]
00000000: a3e0 1e41 f346 5140 c96d c5c0 01d0 7f3f
9.929843 3.2699554 -6.1696515 0.99926764

network_body.vector_processors.0.normalizer.running_variance f4 [4]
00000000: 0c3b c742 0516 3b41 edee 3f4b d452 154a
99.615326 11.692876 1.2578541e+07 2.446517e+06

network_body.linear_encoder.seq_layers.0.weight f4 [128, 4]
00000000: 5dd1 4c3f 2e53 41bf e71b 02bd faee 143d
00000010: 84ed 0fbd 278e 923f 7c2d 77bf 6a00 31bf
00000020: ba15 2fbf dbb9 d43d 1044 0cbf 463a 88be
00000030: e07a 2c3f 2a2c 7bbf 1d70 6abf 4231 5fbd
00000040: 1e56 97be d07f ffbe 6614 a23e 1221 df3e
00000050: a777 24bd caa4 37be cf5b 123f 5ae2 833e
00000060: 3d76 043e 2469 b6be 3456 2b3c 6490 8fbc
00000070: 6369 d83e 28c8 933e 1231 c0bc e0cc 813c
00000080: 1f98 93bd 7bca ebbe a632 f0be a52f 1cbd
00000090: 2754 42bf 6307 bdbc 0fb7 223e 15bd 31bf
000000a0: 11ff e43e 97bd 703e 95d5 143f 13ad 1f3f
000000b0: 1292 e7be 9d3c 0c3e a810 ddbe 4239 063f
000000c0: b6ce e53e 6404 793e 6687 a7be c7b3 3f3e
000000d0: 4b65 97bd 2769 423e 15fa 3abe 01f9 2bbe
000000e0: c7af 03be a966 cd3e 8582 b0be 6e02 bebe
000000f0: 99a9 84be b805 13bf ef66 c23d 3b46 d4bd
00000100: 1747 3dbd 903c 2f3f b104 8b3e dafe 273e
00000110: 390d 11be 208a 0c3f a8f3 b83d 8d98 f33d
00000120: c86b 283e 5b57 a13d 5fed 8a3d fa78 fe3d
00000130: cd32 77be ddad 62be b11f 1abd 88f6 d23f
00000140: 511e 91be fb0b 39bf 5eb1 203f 6ba9 07be
00000150: 1556 38bf c40d 88be f505 b7bc d476 99be
00000160: 24c6 28bf 6b63 bfbe 43a2 8cb8 ef44 273c
00000170: 2e2f febd 5780 25bf aa89 ecbe e8f8 d23d
00000180: d8b7 7cbf 82aa 2ebd 9663 58be 987c 4b3f
00000190: 1240 37be fc1e c23d 277e 8bbc 9a3e b6bd
000001a0: 93ee 433f c6a8 333f 67d7 be3e 803c eb3e
000001b0: 1025 3d3f ea92 473e 1432 7e3c 8036 8f3d
000001c0: 8dcd da3c 0925 6e3f 0d2c 493f 0f1d 18be
000001d0: 9f4b 9dbe 093e 34bf adf9 123e dcc9 40bf
000001e0: 17c8 88bf 3feb 10bf 5dc2 d43e ff26 f63e
000001f0: 9eeb 6c3f 8041 813e a1e5 59be eb4d babd
00000200: 2b95 b13e dee1 283f 4126 eabd 4d99 39be
00000210: d40e 2a3c ea7b e0bf 5b06 03be c339 80bd
00000220: 4f36 8ebd ac57 efbd 66c8 2c3f 8c50 22bf
00000230: 67da d33e c51b 3dbe db17 66be 2466 a5be
00000240: ed18 79be 5c71 893e 3adf 633e f413 f43e
00000250: b3ce ba3e db98 d3be 37e8 24bf b653 aabe
00000260: e9d6 b2bc 4fc3 9b3d 8f66 40be 8a5a bc3e
00000270: 68ba 443f 4923 09bf 54c5 87bf 75e1 9e3d
00000280: 7ad7 40be ec9a b23e b698 5a3e a905 063d
00000290: 9155 403f eed3 183e 55f4 d0be dfb7 96be
000002a0: d5a6 453e a516 ae3e 714d 26be c441 273f
000002b0: 439a ce3e 3b01 56be cfd0 733c ef06 e63d
000002c0: 57b2 87bc c4c4 cf3e 17e6 46be 743a ccbd
000002d0: d5b8 273f 279e 883f e9ea 15bf 0a5e b53e
000002e0: f72f 47bf 3bf1 fd3c 1c71 2f3e b1f1 4f3d
000002f0: d93e b13e c676 d93e 1ae3 f2bb 6fc5 06be
00000300: d033 88be 2239 a1bd 3de5 1d3e 1aa3 773e
00000310: 166f 16be b9dc 823d a0fd a6bd e151 b2bd
00000320: c842 8cbe 73e7 ab3e 6d00 17bc f9fd 9ebc
00000330: 0895 d73e 8f33 39bf 621b a43c 32b2 03bf
00000340: 8ed8 1bbf 7794 0bbe 8225 2e3d 8379 81be
00000350: 6c0b 253e 999b 24bf 0d80 f6bd e87a f4bd
00000360: 9884 63be a403 0b3f a230 06bf 9cf0 47be
00000370: c3e3 7abe a66a a33e 0869 8cbe 190c cd3d
00000380: 2154 1fbf fbb1 67be e700 a5bb 9de0 5b39
00000390: c4f7 f63e 4b22 eabe 44e2 8c3e 04da b33f
000003a0: ebaa eb3e 46c1 1ebf 3a85 0abf 442c a0be
000003b0: deb1 0bbf 48ef cdbe ebdb bdbd 0d04 f6bd
000003c0: acfb 44bf 4bba 8fbf 33ab 803d 6b38 02bd
000003d0: ca31 0abe 690d 42ba 2d5b f73c 312e cc3e
000003e0: 8d19 173e 0495 70be 328e 313f 811d 023e
000003f0: e92d 1b3f 1f1e f1be ff36 343f 9c4b 01bf
0.80006963 -0.7551755 -0.03176489 0.03636072 -0.035138622 1.1449631 -0.9655378 -0.69141257
-0.6839253 0.103870116 -0.54791355 -0.2660696 0.6737499 -0.98114264 -0.9157732 -0.054490335
-0.2955789 -0.499022 0.31656188 0.43579918 -0.040153172 -0.17933956 0.5717134 0.2575863
0.1293573 -0.3562709 0.010457564 -0.017524906 0.42267904 0.28863645 -0.023460899 0.015844762
-0.07206749 -0.46052918 -0.46913642 -0.038131375 -0.75909656 -0.023074811 0.15890144 -0.6942914
0.4472585 0.23509823 0.581384 0.62373465 -0.4522863 0.13694997 -0.4317677 0.5243112
0.4488427 0.24318081 -0.32720488 0.18720923 -0.07392367 0.18985425 -0.18259461 -0.16794206
-0.12860022 0.40117386 -0.34474578 -0.3711123 -0.25910643 -0.574306 0.09492289 -0.10364958
-0.046210375 0.68451786 0.27152017 0.16405812 -0.141652 0.5489826 0.09030849 0.11894331
0.16447365 0.0787799 0.06783556 0.12425418 -0.24140473 -0.22136636 -0.03762788 1.6481485
-0.28343442 -0.72283906 0.6277064 -0.13248222 -0.7200635 -0.26573002 -0.022341708 -0.2997347
-0.6592734 -0.37380537 -6.705944e-05 0.010209306 -0.124113426 -0.64648956 -0.4619878 0.10301381
-0.98718023 -0.042643078 -0.21131739 0.7948699 -0.17895535 0.09478566 -0.017027928 -0.08898659
0.7653591 0.701794 0.37273714 0.45944595 0.7388468 0.19489637 0.015514869 0.06992817
0.026709342 0.9302526 0.7858284 -0.14854835 -0.30721757 -0.7040716 0.14353056 -0.7530801
-1.0686063 -0.5660896 0.41554537 0.48076627 0.92547023 0.25245285 -0.21279003 -0.09096893
0.3468412 0.65969646 -0.114330776 -0.18124886 0.010379512 -1.7537816 -0.12795393 -0.06261017
-0.06943952 -0.11686644 0.67493284 -0.63404155 0.41377565 -0.18467624 -0.22470038 -0.3230449
-0.24325915 0.268443 0.22253123 0.47671473 0.36485824 -0.41327557 -0.6441683 -0.3326699
-0.021830993 0.076056115 -0.18789123 0.36787826 0.76846933 -0.53569466 -1.0607095 0.07757846
-0.18832198 0.3488382 0.21347317 0.03272024 0.75130564 0.14924595 -0.4081141 -0.29437158
0.19301923 0.3400165 -0.16240479 0.65334725 0.40352067 -0.20898907 0.014881327 0.11231791
-0.016564531 0.40579808 -0.1942371 -0.099720865 0.65516406 1.0673264 -0.5856157 0.3542331
-0.77807564 0.030998817 0.17132992 0.050767604 0.3461826 0.4247343 -0.0074123265 -0.13161252
-0.2660203 -0.07872225 0.15419479 0.24183312 -0.14690813 0.06389756 -0.08153844 -0.087070234
-0.273947 0.3357502 -0.00921641 -0.019408213 0.4210589 -0.723443 0.020032588 -0.5144378
-0.6087731 -0.13630854 0.04251624 -0.2528802 0.16117638 -0.64299923 -0.120361425 -0.11937505
-0.22218549 0.5430243 -0.5241796 -0.19525379 -0.24500947 0.31917304 -0.27423882 0.10012073
-0.62237746 -0.22626488 -0.005035508 0.00020969142 0.48235905 -0.45729288 0.27516377 1.4050908
0.46028838 -0.6201366 -0.5410954 -0.31283772 -0.5456828 -0.4022162 -0.09270462 -0.120124914
-0.7694652 -1.1228727 0.06282654 -0.031792086 -0.13495556 -0.0007402511 0.030194843 0.3987899
0.1475584 -0.23494345 0.693576 0.12706567 0.6061693 -0.47093293 0.7039642 -0.50505996

network_body.linear_encoder.seq_layers.0.bias f4 [128]
00000000: 8972 ce3d c5b9 6a3d e097 57bd 591a 2cbe
00000010: 2e6e 1cbe ce9f 9d3c 5db4 debc 4365 a83d
00000020: c429 273d 6913 08be a00c 0dbe 0c88 eabd
00000030: e726 d73d 9409 77bd ee62 25be 53ae 00be
00000040: 6eb6 4abd 1b4e 0dbe 1c3f d43a e616 67bd
00000050: 2d71 11be 1035 bdbd bb3c fb3c c00c 1fbe
00000060: e25c 4dbe e17e 27be e932 fdbd 8b82 b6bc
00000070: fb9f e8bd d704 2fbe a2a1 31be b01f 1d3e
00000080: 9fae 17bd 842c 77be 4f99 54be c198 22bd
00000090: 5212 53bd 1e55 36be c309 e9bd e3ef cf3c
000000a0: 42d3 1ebe 7e79 b63d 0813 efbd 1798 f33d
000000b0: 5b09 d0bd de24 a63a e1ba 26be 4d7f 863d
000000c0: 8dca 2d3b e98b 8abd 95b6 b9bc 27f7 49be
000000d0: d67d ccbd fdad 823d 106b e43d 57b4 893d
000000e0: 2541 0f3c d9e6 1dbe b3ed 1ebe 793b 37be
000000f0: 79b3 28be 70b5 aa3c 9f14 acbd e085 cbbd
00000100: cffa dfbd 8084 27be 3133 35be 1fac 183e
00000110: 2bfc 9a3d e0b0 34be df01 64bd 1607 acbe
00000120: f6f9 8f3d 8672 80be 940f bcbd 8cbb f4bd
00000130: 277d dfbd c060 3ebe 65dd 953b 2da9 84be
00000140: adb1 26be 7538 4cbd 9da6 16bc 3be4 04be
00000150: 2b0e 80be c898 e53c dae2 afbd ab28 f13d
00000160: f10d 12be d74f 0cbd 6ded 633d 1320 003b
00000170: 15e7 e63c faad 1fbd 1370 5cbe 4570 36bd
00000180: 8cc5 d5bd 81cd 78be 106d d1bd 8233 d9bd
00000190: 37ec 1dbe 908d 033b d9e0 c6bd 1a52 4ebc
000001a0: c64a 3cbe 6acb 98bc a96c d93d 27ea 50be
000001b0: 1cba f8bd f7f8 873d 627e 89be 7827 16be
000001c0: 582d 41be d461 cfbc 8d59 32be eb9a acbd
000001d0: 9e64 f3bd 058e 7dbe 5d43 86bd 83b1 713d
000001e0: a316 073e f282 eabd 22f3 08be 1db7 72be
000001f0: 52b9 72be 458f e7bd 4404 533d ba88 2ebe
0.100804396 0.05730607 -0.052635074 -0.16806926 -0.15276405 0.01924124 -0.027185613 0.08222439
0.040811315 -0.13288654 -0.13774347 -0.1145173 0.10505467 -0.06031187 -0.1615102 -0.125665
-0.049490385 -0.13799326 0.0016193124 -0.056418322 -0.1420333 -0.092386365 0.030668607 -0.15532207
-0.20054963 -0.16356994 -0.12363226 -0.022279045 -0.11358639 -0.1709169 -0.17346814 0.15344119
-0.037031766 -0.24138075 -0.20761608 -0.03969646 -0.051531143 -0.17805907 -0.11378815 0.025382942
-0.15510276 0.089098915 -0.11673552 0.11894243 -0.101580344 0.0012675782 -0.16282226 0.065672494
0.0026518435 -0.06764967 -0.02267007 -0.19723187 -0.09984939 0.06380842 0.11153233 0.0672385
0.008743559 -0.15420093 -0.15520363 -0.17893781 -0.16474713 0.02083847 -0.08402371 -0.09937644
-0.1093651 -0.16359138 -0.17695309 0.14909409 0.075676285 -0.17645597 -0.055665847 -0.33599156
0.07030098 -0.25087374 -0.09182659 -0.11949834 -0.10912543 -0.18591595 0.0045735114 -0.2591032
-0.16278715 -0.04985853 -0.009194997 -0.12977688 -0.2501081 0.028026953 -0.085881904 0.11775335
-0.1426313 -0.03425583 0.05564635 0.0019550368 0.02818636 -0.038984276 -0.21527128 -0.044540662
-0.1043807 -0.24297144 -0.1022588 -0.106055275 -0.1542214 0.0020073391 -0.09710855 -0.012592817
-0.18387899 -0.018651683 0.106164284 -0.20401822 -0.121448725 0.06639283 -0.26854235 -0.14663494
-0.18864954 -0.025315203 -0.17416973 -0.08427986 -0.118844256 -0.24761207 -0.06555817 0.05900718
0.13192229 -0.11450757 -0.13373998 -0.23702665 -0.23703507 -0.11306623 0.05151774 -0.17044345

network_body.linear_encoder.seq_layers.2.weight f4 [128, 128]
00000000: a617 523d 8792 ecbc 3924 7fbd 1c5c 03bd
00000010: 5658 2abd 8417 a13c 5789 14be 5dfb 29bd
00000020: f83c b9bd ea88 43bd 3caf df3d cc27 973d
00000030: ad9c d93d ac2c 413a 3b77 07bc 1b94 0a3e
00000040: 9815 11be d7a8 41be 725a d6bd 8ced fcbd
00000050: f1f4 e9bd 5693 a6bd c416 42bd b17e 703d
00000060: 3654 263d 9a61 42bd 5b69 b4bc cbbd a63d
00000070: baab 45bd 0e07 f63d c59a 2fbe aada 4fbd
00000080: ea2b a2bd c5df 41be 114c c13c 72c8 503c
00000090: b4d5 13bd 2b55 78bd 9508 2b3d 69d9 643e
000000a0: 2a70 8dbd e818 16bd ced6 9d3d 8bc1 32be
000000b0: b564 063e 610e 40be af7e 77bd ee8d 2abd
000000c0: 41a0 80bd a700 53be 7308 583e f778 ca3d
000000d0: 330a 89bd ec9c 3d3c 4547 0fbd fed1 c8bc
000000e0: 9eb6 bb3d 8441 a23c d509 a0bb ceab 45bc
000000f0: cb27 ad3d e32d 81bd bd54 e53b 0155 f7bc
00000100: 68e6 fdbc 7a30 2d3c 356e bd3d e272 173d
00000110: 6bf8 443e 2a9b 8b3b ef4f 98bd c394 98bd
00000120: 2377 9b3d 4ccf 1a3e c1a9 e4bd f047 00bd
00000130: dd5c 923d 8d9a a6bd 25d3 55bd 7721 d63d
00000140: 297c aa3d 92ef bc3b 1f4e bdbd e7df 26be
00000150: e022 06bd e269 10be 39b4 c6bd 72b9 4b3c
00000160: 095c dabc 495f 293e cf35 c83c 905d 3c3e
00000170: 5db7 e7bc 49c1 74bd 322d 473d 70de 4dbd
00000180: 8387 96bb d98b c23d 567c 98bd b936 a2bd
00000190: 7964 a03d 98b0 973c 2dbb 5ebd 0e2d 523c
000001a0: 90a0 233d 46c2 c33c 73fd 093e 0d98 063e
000001b0: 1a2f a23b a2d7 2a3d 5845 1b3d 0d30 90bd
000001c0: e3b9 3c3e dd60 d53d cfea 033d fc69 67bd
000001d0: 14c6 7c3d 24df 383c 3afb c23d 3cf7 303c
000001e0: 660e 62bb 8bb0 82bd 3f67 933e 5fcf 1abd
000001f0: 0181 a6bc d29f 223c a1f8 1bbe dfef 45be
00000200: 5d67 6a3e 3c53 673e 1db4 a2bd ac22 69bd
00000210: 153e 18be bbec f2bd d22d 5cbd 412c c23d
00000220: 983d 54bc 464c 97bd 47d0 9abe 359f 93bd
00000230: 6ba3 8abc 8c2b 2bbd 0bff e1bd c41e 18be
00000240: e285 e5bd 7ec7 f4bd 10b4 933d f00c 6bbe
00000250: 7e3a 49bd 19bb c4bb 1731 d7bc 8507 d1bc
00000260: 9e2a e5bd 0e67 aabd c574 37be 50c3 47bc
00000270: a0f7 77be a3b4 fcbd 83d6 3ebe ae37 853d
00000280: 5846 933b f5e0 143e d1d2 99be 4cf8 063e
00000290: 8fd9 d2bd c637 e6bd 0824 9cbe 6a4c 08bd
000002a0: 2f51 25be 00aa ec3d 81c6 d0bd 6986 1b3c
000002b0: 08e9 1f3d e0d3 30bd d8f9 16be 8123 09bd
000002c0: 06ea 49bd 49aa 3abc b5f9 46bd 2e9e 3abe
000002d0: f951 94bd 2a31 893d f5f7 183e 395e eb3c
000002e0: cf89 00bd 1945 42be 9c9e 72bc f785 063c
000002f0: 4fb8 103d 5d10 2c3c 8472 a1be a5ef 17be
00000300: 7081 a4be 1fc1 07be 2f37 553b 6472 6c3e
00000310: 3884 4f3d c9df 3ebe fb92 dabd 2e37 84bd
00000320: 442e e13d b9f2 713c 2aaa f5bd db5a 89be
00000330: edf9 f8bd b65e 0cbe 754d 25bd c64a 56be
00000340: fb44 ebbd 0089 053d 9bd3 efbd 1eb5 b33d
00000350: 0dc8 d3be c6fd 083d b18a 69bd 9043 a23e
00000360: e9b1 42be 43b0 0e3d 607f b83d b7a9 36bd
00000370: 5afb 913c c0bc 09be 7dcb 6abe 1e9d c83b
00000380: 9ef2 53bd eaf6 68be dc42 56be 0df7 7abe
00000390: c6b7 6d3d 986c 6a3b e0dc 3cbd f1f2 c33c
000003a0: dfb2 b4bd 96cf 25be 3a16 f83d 285f 89bd
000003b0: 4742 8ebd a20a 6d3d c2bf febd 18c9 01bd
000003c0: 4db6 ddbd 3501 21be ea5f 7abe bd04 413e
000003d0: 6810 9bbd ae08 21be 790c 32be 71cf 04be
000003e0: 22f4 7a3e d1c2 b0bd bd63 a5bd 1863 8b3d
000003f0: a8ce a1bd dc48 2ebc a6a5 e53d c208 5fbd
0.051292084 -0.028878463 -0.062290404 -0.032070264 -0.04158815 0.019664533 -0.14505516 -0.041499484
-0.09044832 -0.047737993 0.10922095 0.073806375 0.10625587 0.00073690224 -0.008268173 0.1353306
-0.14168394 -0.18912064 -0.1046647 -0.12349996 -0.11423672 -0.08133571 -0.047384992 0.058714572
0.040607654 -0.04745636 -0.022022894 0.08141669 -0.048259474 0.12013064 -0.17148884 -0.050745644
-0.07918532 -0.18933018 0.023595842 0.012743102 -0.036092475 -0.060628098 0.04175623 0.2234856
-0.06906159 -0.036644846 0.07706986 -0.17456643 0.13124354 -0.18755485 -0.06042355 -0.04163926
-0.06280566 -0.20605718 0.21096973 0.098863535 -0.066913985 0.011573058 -0.034980077 -0.024514195
0.09165691 0.01980663 -0.0048839846 -0.012064887 0.084548555 -0.0630758 0.006998627 -0.0301919
-0.030993655 0.01057064 0.09249536 0.036974795 0.19235389 0.0042604404 -0.07437121 -0.07450249
0.07591083 0.1511814 -0.111651905 -0.031318605 0.071466185 -0.08134947 -0.052203316 0.10455602
0.08324463 0.0057658637 -0.09243416 -0.1629635 -0.032748103 -0.14102891 -0.097023435 0.01243435
-0.026655214 0.16540255 0.02443972 0.18395066 -0.028285677 -0.059754644 0.048627086 -0.05026096
-0.004593791 0.0949933 -0.0744559 -0.07920594 0.07831664 0.018516824 -0.054377723 0.012828125
0.039948046 0.023896348 0.1347559 0.1314394 0.0049494626 0.04170955 0.03790793 -0.07040415
0.18430285 0.10418866 0.032206353 -0.05649756 0.06171234 0.01128367 0.09520574 0.010801133
-0.0034493445 -0.06381329 0.28789708 -0.03779542 -0.020325186 0.009925799 -0.15231563 -0.19329785
0.22890992 0.22590345 -0.0794451 -0.05691783 -0.14867432 -0.11861559 -0.053754635 0.09481097
-0.012954138 -0.07387595 -0.30237028 -0.07208101 -0.016923627 -0.041789576 -0.11034974 -0.14855486
-0.11207177 -0.119521126 0.072120786 -0.22954154 -0.049128048 -0.006003749 -0.026268525 -0.02551628
-0.11189769 -0.08320437 -0.17915638 -0.012192562 -0.24215555 -0.12339141 -0.18636517 0.06504761
0.0044944696 0.1453894 -0.30043653 0.13180655 -0.10295402 -0.11241107 -0.3049624 -0.033276
-0.1614425 0.115558624 -0.101941116 0.009492495 0.039040595 -0.04317081 -0.14743745 -0.033481125
-0.049295448 -0.011393138 -0.048577983 -0.18224403 -0.072421975 0.066988304 0.14938338 0.028731452
-0.031381425 -0.18971671 -0.014808323 0.008210651 0.03533202 0.010501948 -0.3153268 -0.14837511
-0.32130003 -0.13257264 0.0032534113 0.23090512 0.050663203 -0.18640055 -0.106725655 -0.06455837
0.109951526 0.014767342 -0.11995347 -0.2682713 -0.121570446 -0.13708004 -0.040357072 -0.20926961
-0.11487766 0.032601357 -0.117102824 0.0877478 -0.41363564 0.033445142 -0.057017032 0.3169217
-0.1901318 0.034836065 0.0900867 -0.044595446 0.01782005 -0.13450909 -0.22929187 0.0061222455
-0.05174505 -0.2275044 -0.20923942 -0.24508305 0.058036588 0.0035770293 -0.04610908 0.023919554
-0.088231795 -0.16192469 0.121136144 -0.06707603 -0.06946235 0.05787147 -0.12438919 -0.03168592
-0.10825787 -0.15723117 -0.24450651 0.18849464 -0.075714886 -0.15725967 -0.1738757 -0.12969758
0.24507192 -0.08630908 -0.08075664 0.0680601 -0.07900745 -0.010637488 0.112132356 -0.05445171

network_body.linear_encoder.seq_layers.2.bias f4 [128]
00000000: 2511 83bd 38fc 123e c4dc 30bd 0bde d23d
00000010: 1378 243d 96bb 02bd 394c 56be 5aa6 56bd
00000020: 883c 003c 841f 143c ae2b afbc 5a9e 7b3d
00000030: 1ae4 ecbc f177 1dbe 277b 00bd 1ff5 55ba
00000040: 3f56 d03a 5d38 a1be 9ad3 73bd 5a25 4a3e
00000050: 5367 c03d e6e6 ffbd 6671 283e f50b bebd
00000060: 5daf 37bd 1436 863a cfca 3e3d 9e6f 0a3e
00000070: d5bd a43b 4379 e5bd d06a f7bc a461 0d3e
00000080: b7a8 2ebd 136f 12bd ca2e 943d 85d5 5fbc
00000090: 5804 683d aef2 c23c 4433 a6bb d66a da3b
000000a0: 0fdf 423d 3bc0 ebbd d3fe 88bc f767 f0bd
000000b0: 7c40 90be 769c 763e f137 dbbc cba0 1c3c
000000c0: 0c17 8e3a a24f 933c 337d e0ba b740 32bd
000000d0: debd d2bc 6d73 ef3c e6b2 83bd 98df 13be
000000e0: bc54 89bc 8fc0 693c 3057 bfbc 50c6 4fbd
000000f0: b563 1dbc a29f b23d 17f7 103e 557b 5d3d
00000100: 9375 e53b a7a1 87bd ccbf e43d 4557 833d
00000110: 1d62 02bd 6519 22be 416f e7ba 66d9 5b3d
00000120: 8ee4 e0bc c857 573d 5ef9 3abd c869 053d
00000130: c46a 8dbc 3a84 ddbc 5c15 c83b 107a a4bc
00000140: a6c9 823c f0c2 283c 61fd 5eba c43a d6bd
00000150: 32ba c9bd a41d eebc 59ee c1ba e28a fdb9
00000160: a2b1 97bd 05e9 c1bd 745f 2e3d d9a1 9abc
00000170: d076 bf3a 1ffe c5bd 849f 85bc e5cf ce3c
00000180: 343b cb3d 2dce 1e3d fc02 403d 2338 52be
00000190: efab 283b 817b 613d 496c 113c f4e2 04bd
000001a0: dfc9 b23b 0ed1 12bd 83ba 91bc 8546 85bd
000001b0: c9fb b2bc d501 09be 996a 6abc 99a6 a1be
000001c0: 6b7d e53c 753b 95bc 3ec9 0e3d f9a4 5b3d
000001d0: 7a0b 583b cab6 34be 4437 07bd 9f6d cbbd
000001e0: 84cf 0ebd 5bb6 79bd f43b 283d 5535 a9bc
000001f0: 47b0 ab39 5561 363d bce8 1abd dd00 61bd
-0.063997544 0.14354026 -0.04317929 0.102962576 0.040153574 -0.031917177 -0.20927514 -0.05240474
0.007826932 0.009040717 -0.021383133 0.061430313 -0.028917361 -0.15377785 -0.031367447 -0.0008161831
0.0015894844 -0.31488314 -0.05952797 0.19740811 0.093947075 -0.12495212 0.16449508 -0.092796244
-0.044844974 0.0010239505 0.046580132 0.13519141 0.0050275126 -0.112047695 -0.0302023 0.13806778
-0.042641368 -0.03575046 0.07235487 -0.013661747 0.056644768 0.02379736 -0.0050720293 0.006665568
0.047576007 -0.115112744 -0.016723072 -0.1173858 -0.28174198 0.24083123 -0.026760073 0.00955982
0.0010840609 0.017982308 -0.0017127156 -0.043518748 -0.025725301 0.029229844 -0.064306065 -0.14440763
-0.016764037 0.014267101 -0.023357004 -0.050726235 -0.009606292 0.08721854 0.14156757 0.054072697
0.0070025413 -0.066226296 0.11169395 0.0641313 -0.03183185 -0.1583 -0.0017657058 0.053674124
-0.027452733 0.05257395 -0.04564797 0.032571584 -0.017262824 -0.02704059 0.006106062 -0.020077735
0.015965294 0.010300383 -0.00085063843 -0.104604274 -0.09849967 -0.029066868 -0.0014795765 -0.00048359396
-0.07406928 -0.09468273 0.0425715 -0.018876003 0.0014607552 -0.096676104 -0.016311415 0.025245616
0.099234015 0.038770843 0.046877846 -0.20529227 0.0025737246 0.055049423 0.008875915 -0.032443002
0.005456194 -0.0358439 -0.017789131 -0.06507591 -0.021848576 -0.13379605 -0.014307641 -0.31572416
0.028013906 -0.018216828 0.03485989 0.053624127 0.0032965825 -0.17647853 -0.03301169 -0.09933018
-0.03486587 -0.060964923 0.0410728 -0.020655314 0.00032746998 0.044526417 -0.03781961 -0.054932464

distribution.log_sigma f4 [1, 2]
00000000: d2a8 11be 39d4 7abe
-0.14224556 -0.24495019

distribution.mu.weight f4 [2, 128]
00000000: b2ee b9b9 a92a 883d eed6 cf3c 9d3b 0a3d
00000010: ae25 243d cb6f 113a 6650 2a3c ccaf 1a3c
00000020: 7bce 073a 8568 4c39 f219 243c 93c6 a439
00000030: aa20 9838 6b42 b13d 7f23 103d 2b23 433b
00000040: 0ded 0c3b c3c8 8b3c b421 adbb 3c72 4d3d
00000050: d8c3 2f3d 4656 7bbe 67d1 ea3b 6bfc f73c
00000060: 52f6 063d d8fd bb3a e81a e73c 5cae 3a3d
00000070: 4534 b4b9 713b 5b3a 06de 30bc a6ac 6b3c
00000080: 624a ea3c 95ac 313a d66a 1f3d ee4b 11bd
00000090: 020e 313b 3aca db3a 9b19 ce38 eb16 2e3b
000000a0: 3e21 89ba d727 ac3c 15ab f939 c539 14bd
000000b0: 2ce9 58be a5ba a53d 71d3 2f3b 404f ce3a
000000c0: 877d 0d3d 0dd0 303c 5788 98ba b4ed f93c
000000d0: 98d5 2b3b b075 e53b dec4 c6ba 124b a0ba
000000e0: 7dce 923a 55a3 91b9 0e19 063a e09c b7b9
000000f0: ab26 c53a b7dc f4bb 00f6 853c 70b5 7b3c
00000100: 9cc4 bc3a e1a4 70bb f274 1d3d 6130 cf3b
00000110: c97d 163d 316b a1bb d5a3 fd3a 103d 0f3c
00000120: 5bbe 483a d3df b03a 8b3f 6ab9 6290 c83b
00000130: 8a35 1a3a 7ebe 013b 88b1 0a3d 204b d13c
00000140: 086c 033c 9968 bf38 8f3b 173c 409e 053d
00000150: 5e20 bf3c 3e47 f13c bbfa c93c 04eb f83b
00000160: 7e94 143d 549c 80bb 0c7f ef3c a42d 003b
00000170: 9a1e 453b 87d0 02bc a41a 97b9 bd9b d73c
00000180: 1a39 d63c 5f21 fb3c 61fb aabc 8217 8fbe
00000190: e93e 2e3b 00a6 ff3b b89f ce3a 077a 0bbd
000001a0: 4520 063b 57d2 883a 248c ba39 1dc5 d1bd
000001b0: 81e0 c23c e8b3 1dbb dce9 603a 2db8 01be
000001c0: 7465 243c 7a83 1c3b 7d1e 33b9 583e 5f3b
000001d0: f234 e939 e0d2 88be be5a c13a 55bf 833b
000001e0: 88a2 fe3c 87d8 f5ba bdc8 273b 3b26 3c3b
000001f0: a4ee bfbc c7ff 0c3c 19e5 4838 40bc a63a
00000200: 4030 363a 50a3 5fbd 97d1 61bc 1242 1bbd
00000210: 3795 32bc 8965 97bb bcdc ea3d 40c1 f13b
00000220: f60b 3ebb f93a 06bb 3ca9 703b 1507 96ba
00000230: e35b 3f3a 9765 303d cd5e 55bc 5089 d23c
00000240: 818d 233b d2a7 8b3d e049 77ba 4e58 07be
00000250: 60a8 a73c 4eb4 c3bc 20d2 f7bc a56d 82bc
00000260: 605c 93bc 5e8c 31bb 7702 deba 22a1 09bc
00000270: d0af 9abb 46ab 443b d89b 96bc 3b96 cbbd
00000280: 2fca 6cbc b867 ceba 407a dfbb 9f17 9dbd
00000290: ace0 623b dcef 02b7 d359 c9bb a601 263b
000002a0: 91f3 0cbb 615a c6bc f692 813a 340b 4dbc
000002b0: 0c8e b03d b05c d3bd a2da d1b9 03c9 4eba
000002c0: 2fb6 8fbc 70a9 7b3b 5c04 a438 6c94 83bc
000002d0: 2b08 0d3b 943f 8a3c f50e 0dba e2c4 b03a
000002e0: f8d8 163a 5ef7 1bba 3b9f 553b 8952 c13a
000002f0: e61a a2ba e2dd dbbd c3d3 d83c ca5a 923c
00000300: ae88 753a 77e8 bdbb 0863 993c 4ede ba3b
00000310: a510 37bc a582 a8b9 11bc 403a d9be a23c
00000320: a077 25ba 5b70 8e3a 103b 0dbb b1e3 a23b
00000330: 8f22 2c3a 6eaf 8fba fe99 84bc fae6 4ebc
00000340: 5402 bf3b 0ae5 95b9 ca7b 1e3c 4569 50bc
00000350: 509e f2bb a42d 5ebc 40b7 163d d621 043c
00000360: 20f9 4fbc 5ed7 08bb 8819 4ebc 97e7 aaba
00000370: abff 553b 1b17 08bc 515a 42bb 85cb 25bb
00000380: 40cb 973c c4ef d9bb 5728 81bd 4049 2b3d
00000390: d81f 093b ec0b ee3b bc98 5f3a 0cbf 53bb
000003a0: c848 30b9 1e82 a23b f4de 6bbb 58bf cabc
000003b0: 3379 22bc 29e7 013b 908c 0639 030d 963d
000003c0: dc4e 06be 6729 c13a 0ee0 29bb f748 0e3b
000003d0: d76b 0439 e60b 8f3c 778d 12bb 6689 003c
000003e0: 72c4 81bc 34f1 6d39 a4ab 8eb9 1948 e5ba
000003f0: f960 adbd 3626 933b ff7f 47ba 0ec7 28ba
-0.00035463792 0.06648762 0.025371041 0.033748258 0.040074997 0.00055479695 0.010395145 0.009441327
0.00051806093 0.00019493893 0.0100159515 0.00031428467 7.254009e-05 0.08655246 0.0351901 0.00297756
0.0021503598 0.017063504 -0.0052835587 0.05015777 0.04291138 -0.2454463 0.007166076 0.03027173
0.032949753 0.0014342619 0.028211072 0.04557644 -0.0003437122 0.00083630445 -0.010795122 0.014384424
0.028599922 0.0006777731 0.038920246 -0.035472803 0.0027016406 0.0016768642 9.827615e-05 0.0026563953
-0.0010462177 0.02101509 0.00047620447 -0.036187906 -0.21182698 0.0809224 0.002682891 0.0015740171
0.03454354 0.010791791 -0.0011637312 0.030508853 0.002621984 0.007002555 -0.0015164872 -0.0012229404
0.0011200454 -0.00027778247 0.0005115428 -0.0003502136 0.0015041431 -0.0074726003 0.016352654 0.015363082
0.0014401856 -0.003671937 0.038441606 0.006322906 0.03674105 -0.0049261083 0.0019351194 0.008742586
0.00076577597 0.0013494439 -0.0002233965 0.0061207274 0.0005882612 0.001979738 0.033860713 0.025548518
0.008021362 9.1270726e-05 0.0092305085 0.032621622 0.023330864 0.029452916 0.02465569 0.0075963754
0.036274426 -0.0039248858 0.029235385 0.0019558454 0.0030078054 -0.007984287 -0.00028820813 0.026319379
0.026150275 0.030655561 -0.02087182 -0.27947623 0.002658779 0.007801771 0.0015764153 -0.03405192
0.0020466011 0.0010438663 0.00035581097 -0.102426745 0.023788692 -0.0024063531 0.00085797696 -0.12667914
0.010033954 0.0023882077 -0.00017082128 0.003406426 0.0004448067 -0.26723385 0.0014751775 0.0040206113
0.03108336 -0.0018756547 0.0025601827 0.002870931 -0.023429222 0.008605904 4.789708e-05 0.0012720898
0.0006949939 -0.054599106 -0.01378288 -0.037904806 -0.010899833 -0.004620258 0.11467883 0.0073777735
-0.0028998828 -0.0020481928 0.0036721965 -0.0011446202 0.0007299764 0.043065634 -0.013023091 0.025700241
0.002495617 0.068191186 -0.00094333105 -0.1321728 0.02046603 -0.023889687 -0.030251563 -0.015921423
-0.017988384 -0.0027091722 -0.001693799 -0.008400233 -0.0047206655 0.0030009313 -0.018384859 -0.099407636
-0.014452501 -0.0015747463 -0.0068199933 -0.07670521 0.0034618778 -7.80445e-06 -0.006144741 0.0025330572
-0.0021507482 -0.024213018 0.0009885717 -0.012514878 0.08620843 -0.10320413 -0.0004002648 -0.00078882294
-0.017542927 0.0038400553 7.8209414e-05 -0.016061984 0.002151976 0.01687602 -0.0005380952 0.001348641
0.0005754377 -0.00059496413 0.003259613 0.0014749329 -0.0012367635 -0.1073568 0.026468163 0.017865557
0.0009366375 -0.0057955342 0.01872398 0.0057027703 -0.011173402 -0.00032140795 0.0007352243 0.019866394
-0.0006312076 0.0010867225 -0.0021550097 0.0049709906 0.0006566429 -0.0010962316 -0.01618671 -0.012628311
0.005829135 -0.00028590142 0.009673068 -0.012720411 -0.007404126 -0.013560686 0.036795855 0.008064708
-0.012693673 -0.0020880322 -0.012579329 -0.001303899 0.003265361 -0.00830629 -0.0029655884 -0.002529831
0.018529534 -0.0066508967 -0.06306522 0.041817904 0.0020923521 0.007264605 0.0008529534 -0.0032309918
-0.00016811781 0.004959359 -0.0035991045 -0.024749443 -0.009916591 0.001982162 0.000128316 0.073267005
-0.1311602 0.001473707 -0.00259209 0.002171097 0.00012628674 0.017461728 -0.0022362152 0.007845258
-0.015840743 0.00022691936 -0.00027212233 -0.00174928 -0.08465762 0.004490639 -0.00076103205 -0.0006438353

distribution.mu.bias f4 [2]
00000000: 445c 263e 92d8 30be
0.16246134 -0.17270115

critic.network_body.vector_processors.0.normalizer.running_mean f4 [4]
00000000: a3e0 1e41 f346 5140 c96d c5c0 01d0 7f3f
9.929843 3.2699554 -6.1696515 0.99926764

critic.network_body.vector_processors.0.normalizer.running_variance f4 [4]
00000000: 0c3b c742 0516 3b41 edee 3f4b d452 154a
99.615326 11.692876 1.2578541e+07 2.446517e+06

critic.network_body.linear_encoder.seq_layers.0.weight f4 [128, 4]
00000000: 1b0b 1d3f 4230 3bbe 4468 153e a130 c33e
00000010: a2b6 e53d e81b 9bbd c7bb 663e 4b10 36bf
00000020: 07be 84bf 1aec 03bf 2fac 85be 231f e7bd
00000030: 6ce3 44bc a8f7 da3e b54f 16bf e21c 63bf
00000040: ef28 a43f 7467 683e 7d2d 9dbd 88ad c2bd
00000050: 4a87 513e fc2f 6a3f 3689 34be bb85 17be
00000060: da6f 17bf 1103 88bf d66e 073b dfb0 18bc
00000070: 47e2 56bf c261 d03d 52c6 0f3e 209c 6a3e
00000080: 9112 cfbe 7e9a 1d3f 678d 45bf ae2d 48bf
00000090: 12a0 bcbe 2a51 cebe 61c2 313f 2bad 593e
000000a0: 04e9 97bc 5277 11bf 96e9 9f3e da7a 2f3f
000000b0: 655d 043f c53c e33e 1a45 973d e644 0a3e
000000c0: 4eeb b13e 0102 003f 2697 27be 5baf 66be
000000d0: 7b02 e8be d7c8 af3e 2d05 9c3e 0a66 d43e
000000e0: e44a c93d 9d17 303e ad5c 293f 9bd4 c83e
000000f0: 3f4b 3c3f e937 d93c 2d37 e93d 134b 213f
00000100: 4371 0b3f e8c2 29be d5bc 70be ee9e 77be
00000110: daa4 0fbf 1a69 6dbf 3647 80be 15fe 8d3e
00000120: a64a b73e 52d1 253d a479 4dbd 9105 7abe
00000130: 4685 543e dd31 9ebe b0fd 513e 3ebb 8ebe
00000140: 59c1 28bf 85e2 0b3e 308e 163f 82fb 943d
00000150: 9122 71bf bea8 17bc e4e6 27bc bcbb 41be
00000160: 35af f0be 9776 6dbf 87ec 1abf 37e0 6ebf
00000170: fcc1 7fbd 84c5 f63e 371a a13e 3e2d 5d3e
00000180: 8e22 883e 3ba4 233f 6519 673d 7ca4 9f3d
00000190: 50a0 42bf 6fe4 f43e 175f 9e3c 9e3d 9b3e
000001a0: af15 41bf ed94 67bf 32bb b63e d052 b13e
000001b0: b5b2 043d 0987 b13d a0dc b8be d4d7 8ebe
000001c0: ab57 9fbe 799b a9be ffad f5be a857 a3be
000001d0: 09c0 c73e c60e 62bf f257 e13d 2b24 0c3f
000001e0: 8f44 3dbf 4443 fbbd 31f3 193f dcaf 0dbf
000001f0: c46b bdbd 83e0 07bf a879 6abe a433 76be
00000200: b8fa bc3c 06f6 c23f 3a25 893d 9ca7 1c3c
00000210: 654d 84bf 28a3 05bf 059b 403c 5d62 863e
00000220: 8224 4d3f 9ff8 d63e f034 61bd 1896 03bf
00000230: 4b1c 3cbf 19eb e9be f62c 8f3e 56cb 03bf
00000240: f603 a13f 53a3 433e 9451 ccbc b083 07bd
00000250: dff6 243f 3e30 94be c9ae 6d3e e2a4 9ebe
00000260: c50c 9abd 4bc1 a3be 110b bf3d 9bc2 03bf
00000270: b2fc 23bf 7f61 c33e 7b10 1a3e 154d 083f
00000280: ee02 04be 6432 05bf 44cf 02bf 9e56 b93e
00000290: b9da 93be fc95 563e a7f0 60bf 11b0 153f
000002a0: d87e 093f bed8 acbd e40b 04bf 5a2e 3e3f
000002b0: 82da bfbd aa1d 32bf f3e3 083f 9185 403f
000002c0: 8a38 bc3e edf9 e3be 9a96 a73e eaff 9c3e
000002d0: e5d7 333d 9a44 87bd bd94 11be 2133 293e
000002e0: 9ff3 e63e f944 24be 15f6 873e 7137 e9be
000002f0: a8e4 9c3f 77ec 993e b170 91bf 606f ecbe
00000300: 20fe 9c3f 39e1 2d3f 3224 5abd dbbf d5bc
00000310: b3af 563d 9dc7 12bf 6bde b23d f416 323e
00000320: 0753 e4be e3b3 8abe f721 203f 7829 3e3f
00000330: 9202 dcbd c868 10be d98d 3fbf 88ce 44be
00000340: 54df 8c3e 0beb cb3e ee9d 993d ae49 d43d
00000350: 6fe3 0f3f 3f31 6c3e c4d7 a6be cc24 89be
00000360: e304 033d bb0f 0c3f 6c78 383f dd2d b33e
00000370: 394b 65bf dc51 b53e e219 1e3e 2616 2a3f
00000380: df7b 36bf dcb4 863e dfc1 b43e 58a8 1cbf
00000390: b1fb 493f 9403 4a3f 0b4a a2be bd6e a9be
000003a0: 009e 70be 2987 e0be 5f9c c8be a081 683d
000003b0: be0a edbe cf3c d5be 0a8a a53d 1e74 17bf
000003c0: d664 f23d f4e6 e5be 5501 273e 2abe 283e
000003d0: 1f06 c4bd 553a 313e e435 c43c cc8b 61bc
000003e0: b310 98be 6d27 39bd cc00 26bd e0cc 4b3e
000003f0: c002 a2be 5f34 0abf 8910 503e 0f20 9c3e
0.6134507 -0.18280128 0.14590555 0.38123038 0.11216475 -0.07573682 0.22532569 -0.7111861
-1.0370492 -0.5153214 -0.26107928 -0.11285236 -0.012017112 0.42767072 -0.58715373 -0.88715947
1.2824992 0.22695714 -0.07674692 -0.09505755 0.20461765 0.9147947 -0.17630467 -0.14797108
-0.59155047 -1.0625936 0.0020665429 -0.009319513 -0.8393902 0.10174896 0.14040497 0.2291112
-0.40443853 0.6156386 -0.7716889 -0.781947 -0.36840874 -0.40296298 0.69437224 0.21257465
-0.018543728 -0.56822693 0.312329 0.6854683 0.5170501 0.443823 0.07386227 0.13502845
0.34749836 0.5000306 -0.16366252 -0.2252783 -0.45314392 0.34332916 0.304727 0.414841
0.098287374 0.17196508 0.66157037 0.39224705 0.73552316 0.026515918 0.11387477 0.6300518
0.544697 -0.16578257 -0.23509534 -0.2418172 -0.5611092 -0.927385 -0.2505433 0.27732912
0.3579914 0.040482827 -0.050164834 -0.24416186 0.20753965 -0.30897418 0.2050693 -0.2787723
-0.65920025 0.13660629 0.5881071 0.07274534 -0.9419337 -0.00925654 -0.01024792 -0.18919271
-0.47008672 -0.9275908 -0.6051716 -0.93310875 -0.062440857 0.48197567 0.31465313 0.2159929
0.26588863 0.6392247 0.056420702 0.07795045 -0.7602587 0.4783053 0.019332452 0.30320448
-0.7542371 -0.9046162 0.35689694 0.34633493 0.03239699 0.08668334 -0.36105824 -0.2789904
-0.31121573 -0.3312643 -0.4798431 -0.31902814 0.390137 -0.8830379 0.11003102 0.5474269
-0.7393274 -0.12268689 0.60136706 -0.55346465 -0.0924907 -0.5307695 -0.2289797 -0.24043137
0.02306877 1.523133 0.066965535 0.009561446 -1.0336119 -0.5220208 0.01175571 0.2624692
0.8013383 0.41986558 -0.054982126 -0.514009 -0.7348067 -0.45687178 0.2796399 -0.5148214
1.2579334 0.19105272 -0.024941243 -0.03308457 0.64439195 -0.28943056 0.23211206 -0.3098517
-0.07521967 -0.31983408 0.093282826 -0.5146882 -0.6405746 0.3816032 0.1504535 0.5324262
-0.12891743 -0.52030015 -0.5109751 0.36198896 -0.2887781 0.20955652 -0.87867206 0.5847178
0.53709173 -0.08439778 -0.51580644 0.74289477 -0.09367849 -0.69576514 0.5347282 0.75203806
0.36761886 -0.44526616 0.32732087 0.30663997 0.043907065 -0.066048816 -0.14216895 0.1652341
0.45107743 -0.16041936 0.26554933 -0.4555011 1.225728 0.3006322 -1.1362516 -0.46178722
1.2265053 0.6792179 -0.053257175 -0.02609246 0.052413654 -0.57335836 0.08733829 0.17391568
-0.44594595 -0.27090368 0.62551826 0.74282026 -0.10742678 -0.14102471 -0.7482582 -0.1921941
0.27514136 0.3982776 0.07500826 0.10365616 0.5620641 0.23065661 -0.3258649 -0.26785886
0.031987082 0.547115 0.7205875 0.34995928 -0.89567906 0.35414016 0.15439561 0.66440046
-0.7128276 0.2630986 0.35304162 -0.6119437 0.78899676 0.7891171 -0.31697115 -0.330923
-0.23497772 -0.4385312 -0.39181802 0.056764245 -0.46297258 -0.41647956 0.080829695 -0.59161556
0.11835639 -0.44902766 0.16309102 0.16478792 -0.0957148 0.17307408 0.023951478 -0.01376624
-0.2970024 -0.045203615 -0.040528104 0.19902372 -0.31642723 -0.5398616 0.20318808 0.3049321

critic.network_body.linear_encoder.seq_layers.0.bias f4 [128]
00000000: e059 39be cd83 8bbd 4c8b 94be d82b 65bd
00000010: 03d1 f93d 4879 52be 19df e7bd d045 78be
00000020: 0911 863d d24b 85be a711 0ebe 2ac1 5bbc
00000030: 2860 623e 44cb 03be ca5c a0be 2529 64be
00000040: f67d 343c f99b 0cbe 3f5d fa3c 6c14 713e
00000050: 50cb 60bc 09af 693c 2d68 90bd 6772 33be
00000060: 06cc 68bc 8faa abbe 7955 2cbe e069 64be
00000070: 9ddb 65be 2150 aabe 00b3 a13d 98bf 003e
00000080: 01c7 eb3d ed04 6bbe 1a60 213e 8496 02be
00000090: 86e7 1e3d 7db1 ccbd dd8e 8b3d 39f9 40be
000000a0: 8aa3 afbd 7e41 10be 45b1 15be d1f2 e3bd
000000b0: 7aa4 c5bd 79a4 91be bb34 cbbd 86a1 abbc
000000c0: 51d4 44bd 43fd 00be 829d 3dbe 2802 f3bd
000000d0: 57c4 1d3e 3b48 86bb 2f9d 4fbe 8561 50be
000000e0: ea12 db3d ae80 b53d f52c 0ebe 7508 2abd
000000f0: 4912 59be fab5 703e 2fc5 21be 4edb b2bd
00000100: 6154 1cbe bcaa 57be 7d9a 38be 8fe6 c6bc
00000110: 929c 6c3e 8563 66be db6e 17be 4efe 5bbd
00000120: 9551 21be 0ee3 83bd 586a 55bd 1375 853e
00000130: 9980 633c d613 1bbe 59c5 ebbd 75ba 84be
00000140: 7127 6cbe 8111 1cbc f5c2 17be 076e 31be
00000150: bbb5 a9bd c302 83be d6b0 5a3e 594f 73bc
00000160: a46b d4bc 21d9 aabd 09bc 4bbe 8033 b8bd
00000170: 4f41 3bbe bad9 e0bc a93c 10be 92a2 153e
00000180: 37ff 73be 686d febd ea5f d8bd 3485 12be
00000190: d028 bfbd f80c 02be 3d0d 07be 80bb 19be
000001a0: 0e44 7f3e f930 363e 83a3 aabe 921a 823e
000001b0: 3f7a b3bd c006 0fbe 00eb fcbc 9651 02be
000001c0: b7d4 8e3c bd93 d3bd 6b56 1fbe a5f6 3dbe
000001d0: b1a8 14be 17ed 08be 8abb 4abe 2417 d4bb
000001e0: 03c0 d6bd 2f74 21be 8477 5abe 8695 8fbe
000001f0: 69fc 10be 222c 0cbd c4af 23be 0fb0 fdbc
-0.18100691 -0.068122484 -0.29012525 -0.055950016 0.12198069 -0.20554078 -0.113218494 -0.24245381
0.06546218 -0.2603441 -0.13873921 -0.013412753 0.22106993 -0.12870508 -0.31320792 -0.2228132
0.01101636 -0.13731374 0.030562041 0.23542947 -0.0137203485 0.014262923 -0.0705112 -0.1752411
-0.014208799 -0.33528563 -0.1682948 -0.22306013 -0.22447057 -0.33264259 0.0789547 0.12573087
0.11512566 -0.22951098 0.15759316 -0.1275273 0.038795017 -0.09994791 0.068143584 -0.18845071
-0.085761145 -0.14087483 -0.14618404 -0.11130298 -0.09650512 -0.28445795 -0.09922167 -0.020951044
-0.048054043 -0.12596612 -0.18517116 -0.11865646 0.15406929 -0.004097966 -0.20274805 -0.20349701
0.10696967 0.08862434 -0.13884337 -0.04151197 -0.21198381 0.23506919 -0.15797876 -0.08733235
-0.15266563 -0.21061224 -0.18027683 -0.02427986 0.23106602 -0.22498901 -0.14788382 -0.05370932
-0.15753777 -0.064397916 -0.05210337 0.26065883 0.013885641 -0.15144286 -0.115122505 -0.25923505
-0.2306192 -0.009525658 -0.14820464 -0.17327128 -0.082866155 -0.25588045 0.2135652 -0.014850461
-0.025930233 -0.08342195 -0.19895948 -0.08994198 -0.18286632 -0.02744757 -0.1408564 0.14612797
-0.23827825 -0.12423211 -0.10565169 -0.14308625 -0.09333956 -0.1270026 -0.13188644 -0.15012932
0.24928305 0.17792119 -0.33327875 0.25410897 -0.08763551 -0.13967419 -0.030873775 -0.12726435
0.017435415 -0.10330913 -0.1556031 -0.18551119 -0.14517476 -0.13371693 -0.19798103 -0.006472485
-0.10485842 -0.15766977 -0.21334654 -0.28043765 -0.14158787 -0.034221776 -0.15985018 -0.03096774

critic.network_body.linear_encoder.seq_layers.2.weight f4 [128, 128]
00000000: 1394 233d 6cbe 0a3d ceb3 833d eabb 903d
00000010: 4c53 703d 2d03 97bd c166 b43c f9b0 5c3c
00000020: 50e6 a5be 6a76 703d 815e a03d 9c79 c13b
00000030: ee06 19be 1b62 9fbc f8b0 cd3d c0e0 973d
00000040: f5d7 123e dc0e fb3c 97ab d5bd ee7d 40be
00000050: 206a 18be d04f 3a3e d61c eabd b491 313a
00000060: 4534 9b3d b996 7a3d 6861 18be 2a23 663d
00000070: baa7 11bd e76e 59be 7c52 b9bd ce16 fd3d
00000080: 195c 2b3d ee8f d53b f483 cd3c fb24 9a3d
00000090: 586d 29be e2d4 dbbc 042b 28bd d367 d63c
000000a0: 4091 6c3d 5e3e a3bc 5ec3 633e 9374 c1bc
000000b0: a4e7 14be 88c1 a43c 25b9 bb3c d1a8 bb3d
000000c0: 1498 f03d f2b3 0b3e d4b4 033e 210e 053d
000000d0: d658 75bd 99c5 84bd 56fb 17bd 080d 7e3d
000000e0: b9e6 643d 2b23 9fbd ffe4 ec3d 0f33 cd3d
000000f0: bb24 f43d 7928 0ebe 8a86 0b3e 1c1a 10be
00000100: 8d53 ec3d 1006 103d 9871 a93d e4af bcbd
00000110: 369c abbd 4e24 a0bb 296d 10be b08b 07be
00000120: 8d7c 8fbc 0329 e5bd 4fbd 58bd 6215 ecbd
00000130: 1fa0 f33d d9e3 90bd 73ac c4bd 904d e5bd
00000140: 24a7 c6ba c9ad 03be a6dd 65be 3564 753d
00000150: 1e9d 443d 1a23 7f3d c6e0 92bd 7a40 48be
00000160: 2778 8cbd f18c 22bd 4003 b13d 6f79 54bd
00000170: 0423 cb3c e56d d0b9 4449 0f3c 6a06 dcbd
00000180: 9baf 723e cd72 44bd 1235 79bd 34ff aebd
00000190: 7a0a f23d f54e 9dbd e211 3e3d d194 fc3d
000001a0: 1667 8e3c b751 553d 7a80 ddbd 4cb2 703d
000001b0: 9539 603c b431 113e 1bb5 98bd c972 1d3d
000001c0: a3ce 523c ef28 8e3d bac2 1abd 48f0 bd3d
000001d0: b24f cebd 6167 bbbd e157 5e3d 4aee 6d3d
000001e0: 1938 553d d31f 90bd 70c3 033d 3a2b 813e
000001f0: c587 c33b d283 bdbd 6df7 223e 2abb 873c
00000200: 440c abbd 420b 90bd 4849 63bd aa4c fe3d
00000210: 37cc ca3d ecfe 1d3e 9482 fcbc ff79 93bd
00000220: 8f19 943c 38ba ebbd 9eb7 b63c bfde cc3d
00000230: 1694 f13d c040 983d 7a04 96bd e2ef 623d
00000240: d0e7 bebd 0f31 76bd ea3b d93d caff 29bd
00000250: ddf6 a0bc 4c76 b0bc 0ad3 38bd 2bd4 103d
00000260: 705e 59bb 9dd1 21bd f314 eebd 81a7 d5bd
00000270: 4afd b2bd 8076 2fbd b5a1 033e 3c3d 233e
00000280: 3847 54bd 85c8 d9bd 4b0c 2f3b 1184 e73d
00000290: cddd 503d 1e7b aabc af52 86bd 4200 fe3b
000002a0: b002 f4bd ce93 6b3d 8193 16bd 3bb8 1abd
000002b0: 188c d9bd dc8b f8bd d0a3 9b3d 1039 263e
000002c0: de76 843d d027 b03d 78e5 a63d 3186 0abe
000002d0: d8d3 b3bb 8b12 853d 6302 febc 272a 4b3d
000002e0: 5174 19be 51b5 0bbd f755 fa3b 6b98 48bd
000002f0: 31a6 6fb9 4dc6 1fbe eb4d e2bd 0e8e d53c
00000300: 83b9 34bd a3e2 013d eb21 e4bd 6ac8 573d
00000310: ed43 61bd eae6 ef3c e4bc 8abd f5e2 ae3c
00000320: 96f3 b2bd a225 f6bc e2e2 0fbd 06ce 953d
00000330: c0b9 503d ea35 f4bd a3db 64bd 42bc b0bb
00000340: ab9d 16be e354 14bd b329 c63d f8de 673e
00000350: 4d04 e43a a571 253d fe04 bfba 6929 ff3d
00000360: 1df1 7ebd b6e8 56bc 387e 1fbe d990 b2bd
00000370: 1772 e93d 2698 fdbd 8e6e 2a3d 2b74 29bc
00000380: c47a 00bd 82c3 9c3d 1fcf 5fbd 38dd 1e3d
00000390: 9b80 5dbd d52a aaba bf7c 843c 06de a43d
000003a0: bd3c 57bc 000b f4bd 3886 37bd bb83 ecbc
000003b0: b8d8 503d a95b 5bbd c7ff c7bd a756 953d
000003c0: d49f 7dbd 6662 30bc 1da7 6b3d 8408 26be
000003d0: 572d 593d a136 a53d a22f 2dbe 6798 86bd
000003e0: 62da 2c3c 0c02 a6bd 62b9 a23d acf0 9ebd
000003f0: ca72 7a3d 775f 073b 7ba1 65bd a410 88bd
0.039936136 0.033873007 0.064307794 0.07067092 0.058673188 -0.073736526 0.022021653 0.013469928
-0.32402277 0.05870668 0.07830525 0.0059043895 -0.1494405 -0.01945596 0.1004352 0.074159145
0.14340194 0.030646734 -0.10433119 -0.18798038 -0.14884233 0.18194509 -0.11431281 0.00067737256
0.07578329 0.061178897 -0.14880908 0.05618588 -0.035560347 -0.21233712 -0.09048936 0.12357865
0.041835878 0.006517402 0.025087334 0.07526585 -0.16545618 -0.026834909 -0.041056648 0.026172554
0.05775571 -0.0199272 0.22242495 -0.023615157 -0.14541489 0.020111814 0.022915432 0.091630585
0.117477566 0.13642862 0.12861949 0.032484178 -0.059899174 -0.06483001 -0.037104927 0.062024146
0.055884097 -0.0777038 0.11567115 0.10019504 0.11921068 -0.13882627 0.13625541 -0.1407246
0.115393735 0.03516203 0.082736194 -0.09213236 -0.08379404 -0.0048871404 -0.14104141 -0.1323688
-0.017515445 -0.11189463 -0.052914914 -0.11527516 0.11895775 -0.070747085 -0.096032046 -0.111964345
-0.0015156013 -0.12859263 -0.22447833 0.059910018 0.0480014 0.062289335 -0.071717784 -0.19555846
-0.06858855 -0.039685193 0.08643198 -0.05187362 0.02479697 -0.0003975473 0.008745495 -0.10743411
0.236998 -0.047961045 -0.060841627 -0.0854477 0.118184045 -0.076810755 0.046403773 0.12333072
0.01738314 0.052079882 -0.108155206 0.058763787 0.013685604 0.14179116 -0.07456418 0.038439546
0.012866649 0.06941401 -0.037783362 0.09274346 -0.100737944 -0.09150577 0.054283027 0.05808858
0.052055452 -0.0703732 0.032168806 0.25228292 0.0059671127 -0.09253658 0.15914698 0.016568739
-0.08351949 -0.07033397 -0.05548981 0.12416966 0.09902232 0.15429276 -0.030823983 -0.07201003
0.018078594 -0.11510128 0.022304352 0.10003423 0.11795823 0.07434225 -0.073250726 0.05540455
-0.093215585 -0.06010538 0.10607131 -0.041503705 -0.019648964 -0.021540783 -0.045123138 0.03535859
-0.0033167861 -0.039506543 -0.116250895 -0.104323395 -0.08739717 -0.04283762 0.12854655 0.15941328
-0.051825732 -0.10633949 0.0026710208 0.113044865 0.050992776 -0.02081066 -0.065587394 0.0077514956
-0.11914575 0.057514004 -0.036761764 -0.037773352 -0.10622424 -0.12136051 0.07599604 0.16232705
0.064679846 0.08601344 0.081492364 -0.13527752 -0.0054879 0.064976774 -0.031006997 0.049600746
-0.14985777 -0.034108464 0.0076396423 -0.048973482 -0.00022854727 -0.1560299 -0.11050018 0.026068714
-0.04412223 0.03171028 -0.11139282 0.052681364 -0.05499642 0.029284913 -0.06774309 0.021348456
-0.087378666 -0.030047242 -0.03512848 0.073146865 0.050958395 -0.11924346 -0.055873524 -0.005393536
-0.14708583 -0.036213767 0.09675922 0.2264365 0.0017396301 0.040391583 -0.0014573631 0.1245907
-0.062241662 -0.013117006 -0.15575492 -0.08719034 0.11398714 -0.12382536 0.04160934 -0.010342638
-0.03136708 0.07654478 -0.054640885 0.03878519 -0.054077726 -0.0012982736 0.016172765 0.0805016
-0.01313704 -0.119161606 -0.044805735 -0.028871408 0.05098793 -0.05355421 -0.097655825 0.07291918
-0.061920002 -0.0107656475 0.05753242 -0.16214186 0.053021755 0.0806706 -0.16912702 -0.06572037
0.010550113 -0.08105859 0.07945515 -0.07760748 0.061144628 0.0020656267 -0.056062203 -0.06643799

critic.network_body.linear_encoder.seq_layers.2.bias f4 [128]
00000000: 3d4b d0bd 50ab 18bb ff10 d0bd 527d 303d
00000010: 12d4 dbba 17ad c6bd b6d0 b83c 95ff 11bd
00000020: 5ddd ee3c 28cd d53c 7777 d6bd 8713 ddbd
00000030: c6f1 93bd b848 2dbc d4f0 5fbd 8b95 76bd
00000040: e18d a1bd 5844 933c ec8d b8bd 34e5 3e3d
00000050: 65b5 cebd 958d 17bd a765 1f3d a175 c2bc
00000060: 7d60 b9bd 4c3b 7abd 2414 bbbd 0056 313d
00000070: 8e3c 31bd b072 d4bb 5c31 b1bd 08ee b23c
00000080: 3abd 92bd 2f03 b0bd e469 0fbd 2e79 663c
00000090: fa63 b8bc e361 1c3c 9962 353c fe16 acbd
000000a0: f666 1cbd 91d4 4e3c 1c32 873c 6e1e 213d
000000b0: a638 ddbd 209c dbbd 7bb1 05bd f5af adbd
000000c0: 1aff c9bd 65a8 c83c ea1b bdbc fd1f 56bd
000000d0: 008d 753b 965f 89bd 89d1 cabd 4c79 7dbd
000000e0: 4a86 71bd eea8 f4bd 322a 253d ce54 823d
000000f0: fec3 ecbc e3b0 a0bd 9259 b33b 8aa6 debc
00000100: 7d5c cebd 11bd 8fbc 9810 e2bd c19f 90bd
00000110: 47f8 8abd d8fe e2bc 2ec3 85bc 791e 47bd
00000120: 11bd 28be a163 bcbb 819d 1a3d 526f 7c3c
00000130: 9f93 783b a272 19bc 26a0 dfbc b7bc e6bc
00000140: 81a4 63bb 2a1a 913b c034 893c f15c cd3b
00000150: a3ba 05be c822 4dbd 4e68 fabc 815a 613c
00000160: eaea 0f3d 0e21 bbbb 641c b0bd dbaa d6bb
00000170: 37b5 bdbc 09a1 28bd a144 4b3d edd2 663d
00000180: 427b dbbd ea01 4cbc 6108 d6bc 2f09 83bd
00000190: 7442 5ebd 2545 073d d44c e8bd 72d9 db3c
000001a0: d4ca 1abd 2290 f5bd 9088 debd d571 e4bd
000001b0: 66fb 323d f18f b0bb fbee 28be 5398 05bc
000001c0: 23d3 32bd ff60 a4bd d66c 90bc 5f87 bdbd
000001d0: 1e96 363c 387f 58bd 45f6 3f3d ed02 b3bd
000001e0: 3922 e1bd 3c4f eebc 2ced 99bc bbe3 42bd
000001f0: 1901 56bd 2feb 2b3d b7bc 5ebd 8895 ab3b
-0.101706006 -0.002329547 -0.10159492 0.043088265 -0.0016771576 -0.09700983 0.022560459 -0.035644133
0.029158289 0.026098803 -0.10472005 -0.1079474 -0.07223849 -0.0105764195 -0.05467303 -0.06020121
-0.078883894 0.017976925 -0.090114444 0.046605304 -0.10093192 -0.037000258 0.038915303 -0.02373773
-0.09051607 -0.061091706 -0.09134701 0.043294907 -0.04327064 -0.0064833984 -0.08651993 0.021842018
-0.07164998 -0.08594357 -0.035013095 0.014066977 -0.02250861 0.009544822 0.011070871 -0.08402823
-0.03818413 0.012623922 0.016503386 0.03933566 -0.108018205 -0.10723138 -0.03263996 -0.08480827
-0.0986311 0.02449436 -0.0230846 -0.0522766 0.0037468076 -0.06707685 -0.09903247 -0.061883256
-0.05896596 -0.11946283 0.040323444 0.063638315 -0.02890205 -0.078462385 0.005473324 -0.027179021
-0.100762345 -0.017546209 -0.11038321 -0.07061721 -0.067856364 -0.02770941 -0.01632842 -0.048613045
-0.16478373 -0.0057491814 0.037747864 0.0154074 0.0037929786 -0.0093657095 -0.027298044 -0.028166158
-0.0034735503 0.004428168 0.016748786 0.006267183 -0.13059478 -0.050081998 -0.030567314 0.013754488
0.03513614 -0.0057107275 -0.08599165 -0.0065511293 -0.023157699 -0.0411692 0.049625997 0.0563535
-0.10716869 -0.012451628 -0.026127042 -0.06398236 -0.054262593 0.033024926 -0.11342779 0.026837084
-0.03779109 -0.11990382 -0.10865891 -0.11154524 0.043696783 -0.005388253 -0.16497414 -0.008153993
-0.043658387 -0.08026313 -0.017630022 -0.092543356 0.011144189 -0.0528557 0.04686572 -0.087407924
-0.109928556 -0.029090516 -0.01878985 -0.047580462 -0.05224714 0.041972335 -0.05437919 0.0052363314

critic.value_heads.value_heads.extrinsic.weight f4 [1, 128]
00000000: b8f7 4fbd 11be 403a 9f9f 62bd 6830 a4b9
00000010: ca0b 003a e48e 8abd cf47 8a38 831e ca37
00000020: 764b 003d 3577 b13c 4e9b 5abd 3a1e 93bc
00000030: 4d6f 5f3d b678 1cbc 1ebb 53bc f33a ecbc
00000040: 62db e2bd 7c8c 54bc 56e5 8ebd 2631 a4bb
00000050: 476e 723b fce7 0a3e d7a5 62b9 3e2f 48bc
00000060: b5ac 3cbd 81a4 a8bc 3589 b7bc cac0 63b9
00000070: 2843 a4bc ca90 a439 64b4 77bd 7a0b 263d
00000080: 2294 b0bc 01e4 26bd edcb 453a 4f8f 97b7
00000090: 959a fbb9 3013 bebd 0b99 7bba f321 20be
000000a0: b94c 42b9 87d4 19b9 af83 f83c df39 0f3d
000000b0: 970b 2ebd 8340 d9bd f6f1 8d3a 0012 1e3c
000000c0: a2b3 fdbd 56c4 8bb9 4080 613c 73a9 90bd
000000d0: 014a 093d c7ef 643c 27d2 2dbd 309a debc
000000e0: 36c2 27ba 1492 e5bd 8caf b9bb 8d7c e33d
000000f0: c173 0d39 58f0 2abd df98 a3b8 d82f d9b8
00000100: 6cf1 ebbd a1b3 54b9 9027 ddbd 7130 afbc
00000110: c7b9 4bbc 78b2 9638 4715 13ba cb74 153b
00000120: a55b 4d3e 77e8 bcb9 ea12 b23a f71d 4f3a
00000130: 4ca2 85b9 a35e 0abd 4f51 d23c 7338 bdb7
00000140: 9114 7dbc a7a8 843b 6774 53bc ccae 4ebc
00000150: 2a81 803c 0559 8d39 75e1 093d 4cfc e2b8
00000160: a92d 5838 6e62 8bb9 a957 3cbd 1c3c 7139
00000170: 4226 283a 9322 b0bd bc48 d83d 9c88 903d
00000180: 854f d1bd 3fe5 aa3d 17cf b43d a5f1 1cbd
00000190: d5ed 3b3c 4437 c8b9 6a23 a4bd 2a33 463d
000001a0: d0da c93a c510 6d3a 5ab9 e8bd 9b1b a1bd
000001b0: 3fe0 a13d 90be 85bc 10d9 db3a cff0 5cbc
000001c0: 463b 09bc 34ef c0bc 82f6 98b8 b801 f9bc
000001d0: 43d3 04b9 3db7 d4bc 8af2 d0bb fc48 32bd
000001e0: bc6c b9bd 76ed 0839 1616 f8bc c271 55bc
000001f0: ce46 92bc e8fa 4d3c 0ab0 7dbc a8e4 ddbc
-0.050773352 0.0007352541 -0.055328008 -0.00031316583 0.0004884569 -0.067655355 6.593728e-05 2.4094485e-05
0.031321965 0.021663288 -0.053370766 -0.01795875 0.054549504 -0.009550264 -0.01292303 -0.028836703
-0.11077 -0.012972947 -0.06977336 -0.0050107418 0.0036992 0.13565058 -0.0002161482 -0.012218295
-0.046063144 -0.020586254 -0.022404293 -0.00021720227 -0.020051554 0.00031388394 -0.06047477 0.04053829
-0.02155501 -0.040744785 0.0007545341 -1.8067336e-05 -0.00047989623 -0.092810035 -0.00095976953 -0.1563795
-0.00018529863 -0.0001467039 0.03033623 0.0349673 -0.04249152 -0.10608008 0.0010829556 0.009647846
-0.12387778 -0.00026658428 0.013763487 -0.0706357 0.03351784 0.013973183 -0.042436745 -0.027173132
-0.0006399484 -0.11209503 -0.005666679 0.111077406 0.0001348993 -0.041733116 -7.80092e-05 -0.00010356278
-0.11520657 -0.00020284812 -0.107985616 -0.021385403 -0.0124344295 7.1858e-05 -0.00056107756 0.002280521
0.20054491 -0.00036031354 0.0013585959 0.00079008884 -0.00025488657 -0.03378166 0.025673537 -2.2556842e-05
-0.015446798 0.0040484252 -0.01290617 -0.012614917 0.01568659 0.0002695994 0.03366228 -0.00010823514
5.1540937e-05 -0.00026585482 -0.045982037 0.00023005944 0.0006414392 -0.086003445 0.10560748 0.07057306
-0.10220245 0.083445065 0.08828562 -0.038316388 0.011470278 -0.0003818815 -0.08014567 0.048388638
0.0015400294 0.00090433314 -0.11363478 -0.078665935 0.079041 -0.016326219 0.0016773064 -0.013485148
-0.008375948 -0.023551561 -7.2938405e-05 -0.030396327 -0.00012667202 -0.025966281 -0.006376569 -0.043526635
-0.090539426 0.00013058432 -0.030283969 -0.01302761 -0.017856028 0.012572028 -0.0154838655 -0.02708657
