ml-agents-master/ml-agents/config/results/ppo/LineCreator/LineCreator-31866.onnx (onnx, 71632 bytes, 9 tensors)

53 f4 [4]
0	0x40ba8a80	5.8294067
1	0x403870eb	2.881892
2	0x401f1f35	2.4862797
3	0x3fea5836	1.830817

54 f4 [1, 2]
0	0x3c8ed5f7	0.01743601
1	0x3772e84c	1.447841e-05

distribution.mu.bias f4 [2]
0	0xbc950fd3	-0.018196022
1	0x3d9f0ceb	0.07766136

distribution.mu.weight f4 [2, 128]
0	0xba108433	-0.0005512863
1	0xbc6b0490	-0.0143443495
2	0xbb07f8f6	-0.0020747758
3	0x3c4baf2d	0.012431902
4	0x3b6ce783	0.0036148734
5	0xbac53be6	-0.0015047758
6	0x37e544b6	2.7330923e-05
7	0xbcab8d1b	-0.020941308
8	0xbb2a08d8	-0.0025945213
9	0xbc02e914	-0.0079901405
10	0x3b85fbfa	0.004088876
11	0x3be31786	0.0069302944
12	0xb9f73391	-0.0004714993
13	0xbbbc5014	-0.0057468507
14	0xbc27bc97	-0.010237834
15	0x3cfde696	0.030993741
16	0x3ca2c2e5	0.019868324
17	0xbb422497	-0.002962386
18	0xbafe9fe1	-0.001942631
19	0x3b0cb451	0.0021469782
20	0x3d1ab3ea	0.037769236
21	0xbc1b5d3d	-0.009482679
22	0xba8845ae	-0.0010396743
23	0xbb89abee	-0.004201404
24	0x3a19b9d2	0.0005864176
25	0x3c0b88f3	0.008516538
26	0xbb0c9bca	-0.0021455162
27	0x3cfa7cf4	0.03057716
28	0x3d57cd3c	0.05268596
29	0x3c3aaf06	0.011394268
30	0xbd355f43	-0.0442803
31	0x3d046f3e	0.03233265
32	0x3b00e786	0.0019669249
33	0x3bed10bf	0.0072346623
34	0xbcbcd14f	-0.023049025
35	0xb99e52b2	-0.0003019772
36	0x3b758c6a	0.0037467727
37	0x3c0049fd	0.00783014
38	0xbb35e9b1	-0.00277577
39	0xbc638f08	-0.013889082
40	0x3ccb9b67	0.024854375
41	0x3cb5649b	0.022142699
42	0x3b5b547a	0.00334671
43	0x3cd6b86c	0.026210986
44	0xbc8edd8c	-0.017439626
45	0xbcfc782d	-0.030819023
46	0xbbb9a303	-0.0056651845
47	0x3ab08158	0.0013466282
48	0x3be4c3ef	0.006981365
49	0xbbc46e2a	-0.005994578
50	0x3cac78aa	0.02105363
51	0xbc5b9008	-0.013401039
52	0x3ca28e50	0.01984325
53	0x3b8e95f4	0.004351372
54	0xbbf8a0bc	-0.0075875204
55	0x3cc29ee4	0.023757406
56	0x3b89b8fa	0.004202959
57	0x3c17ea8c	0.009272229
58	0x3843e4e1	4.6704783e-05
59	0xbb300781	-0.0026859941
60	0x3c0a5f67	0.008445597
61	0x3caffa05	0.021481523
62	0x3bb2b621	0.0054538404
63	0xbc601114	-0.013675947
64	0x3cabee61	0.020987691
65	0x3bf1b085	0.007375779
66	0x3ba409e0	0.00500606
67	0x3d5a074d	0.05322962
68	0xbafc6ae8	-0.0019257935
69	0xbbe2a592	-0.00691671
70	0x3cdc680e	0.026905086
71	0x3b3cacfc	0.002878963
72	0xbd2a3a9e	-0.041559808
73	0x3c17c171	0.009262429
74	0xbb6c7a1f	-0.0036083532
75	0x3c5d2100	0.013496637
76	0xbb00eb54	-0.0019671516
77	0xbb5fb358	-0.0034133997
78	0xbb60b8e9	-0.0034289903
79	0x3cd88aff	0.026433466
80	0x398d3d77	0.0002693941
81	0x3bb2f004	0.005460741
82	0x3d277641	0.04088426
83	0xbc4ffdb0	-0.012694761
84	0xbc34ff1c	-0.011047151
85	0x3b50c85a	0.00318577
86	0x3c4219f6	0.01184701
87	0x3c25c590	0.010117903
88	0xbc775ea6	-0.01509825
89	0x3aaeb13c	0.0013327966
90	0xbcb85f77	-0.022506459
91	0x3ab67f78	0.0013923487
92	0x3cdac86e	0.0267069
93	0xbcb0cd64	-0.021582313
94	0x3ba39c85	0.004993024
95	0xbc26dcd5	-0.010184486
96	0x3ae36291	0.0017348101
97	0x3958d7ca	0.00020679753
98	0x3c4e4d2f	0.012591644
99	0xbc09263d	-0.008370933
100	0x3d5ddc20	0.054165006
101	0x3c34bd0b	0.0110313995
102	0xbc641ec2	-0.013923349
103	0x3bc4eddd	0.006009801
104	0x3b6f1e14	0.0036486434
105	0x3ce054b4	0.02738414
106	0x3c034ba5	0.0080136405
107	0xbc699d8e	-0.014258755
108	0x3cccf99b	0.025021365
109	0xbc570732	-0.013124274
110	0xbb8a3d3b	-0.004218725
111	0xbc089cab	-0.008338134
112	0xb980ef36	-0.00024592289
113	0x3b6a4a18	0.003574973
114	0xbb9ed777	-0.0048474628
115	0xbc27b1fe	-0.010235308
116	0x3bae79ee	0.0053245937
117	0x3ccf6bbb	0.025319925
118	0x3b723c9b	0.0036962393
119	0x3c38e89a	0.011285925
120	0xbbfd4256	-0.007728855
121	0xba1fce82	-0.0006096141
122	0x3b29f4cd	0.0025933266
123	0x3bf467e1	0.0074586724
124	0xbbbf41b5	-0.0058366903
125	0xbc45cce2	-0.012072774
126	0x3b8690ee	0.0041066324
127	0x3d495b76	0.04915949
128	0xbaaaa4a6	-0.001301904
129	0x3c938550	0.018007904
130	0xba0092cc	-0.0004904687
131	0xbbdec14b	-0.0067979447
132	0x3b30e9cd	0.0026994825
133	0xbbf2515e	-0.0073949536
134	0x3c89f133	0.016838646
135	0x3c99829c	0.018739037
136	0x3b8111ed	0.0039389045
137	0xbb9ff27b	-0.004881201
138	0xba8194c4	-0.0009886255
139	0x3c83fe7f	0.016112564
140	0xba8fbf99	-0.0010967135
141	0xbc2ade30	-0.01042895
142	0xbc1dc8c5	-0.009630387
143	0x3bfedc6f	0.0077777426
144	0x3c18cd92	0.0093263555
145	0xbc166fff	-0.009181975
146	0xbb138b17	-0.0022513324
147	0x3af46885	0.0018646872
148	0xbcf0db10	-0.029401332
149	0x3a10fb47	0.00055306073
150	0xbaed3102	-0.001809627
151	0xba2c7c77	-0.0006579826
152	0xbd996d51	-0.074915536
153	0xbd2315fc	-0.039815888
154	0x3a243c5c	0.0006265098
155	0x3b8ff32a	0.004393001
156	0xbd179617	-0.03700837
157	0xbb882993	-0.0041553467
158	0x3bdb90fb	0.0067006326
159	0xbc3c6c26	-0.011500394
160	0xba8d5299	-0.0010782062
161	0x3c8274fe	0.015924927
162	0xbb3bfae8	-0.0028683487
163	0x3ccfd4d0	0.025370032
164	0xb95e10fc	-0.00021177897
165	0x3aac89eb	0.0013163661
166	0xbd0fe545	-0.035130758
167	0xbc2eaa6f	-0.010660752
168	0xbc9fdd5b	-0.01951473
169	0xbd41e7d6	-0.047340237
170	0xbb49bcc1	-0.0030782672
171	0xbb801e9c	-0.003909899
172	0x3abf6ada	0.0014603988
173	0x3cdec0db	0.02719157
174	0xbbc80be2	-0.006104932
175	0x3c03a1b9	0.008034163
176	0xba9b4f24	-0.0011849147
177	0x3be4bc47	0.006980452
178	0x3bbaf6f0	0.005705707
179	0xbb94d919	-0.0045424816
180	0x3cbaa55e	0.022783931
181	0xba66e0cd	-0.00088073016
182	0x3b8a62f3	0.0042232214
183	0xbc8e95a2	-0.017405335
184	0xbac1cfe2	-0.0014786685
185	0x3a3e8d9e	0.00072690274
186	0xb890ce45	-6.904876e-05
187	0x3913b42a	0.00014086129
188	0xbc00c307	-0.007858998
189	0x3cceb6cb	0.025233647
190	0xbb3bc9b5	-0.0028654162
191	0x3b78984f	0.003793258
192	0xbd2f9814	-0.042869642
193	0xbcbc39c1	-0.022976758
194	0xbad2af0c	-0.0016073897
195	0x3d74bc7b	0.05975006
196	0xba693dc6	-0.00088974496
197	0x3c03e5b1	0.008050368
198	0x3d1beea0	0.038069367
199	0xbc70ed2e	-0.014704986
200	0x3cec25e0	0.028826654
201	0x3c4e05d1	0.012574629
202	0xbc23b189	-0.009991058
203	0x3bbb4b0f	0.005715735
204	0x3a6ecb95	0.00091093156
205	0x3b2426ac	0.0025047464
206	0xbbe88112	-0.0070954645
207	0xbd0df68a	-0.034658946
208	0x3965ecd6	0.0002192737
209	0xba804598	-0.0009786366
210	0xbd8fa1ce	-0.07013284
211	0x3b85c87a	0.0040827366
212	0x3b818614	0.003952751
213	0xb99fb74b	-0.00030463407
214	0xbbd9a605	-0.0066421055
215	0xbc5ed7d0	-0.013601258
216	0x3c64fcb0	0.013976261
217	0xba77b4e5	-0.00094492576
218	0x3bb341a8	0.0054704733
219	0xbb8038d5	-0.003913025
220	0xbc9be670	-0.01903078
221	0xbcd8e6a8	-0.026477173
222	0xba8d83d6	-0.0010796736
223	0xba71663f	-0.0009208656
224	0xbb8c0a89	-0.004273717
225	0xba45577e	-0.0007527991
226	0xbd209e4e	-0.03921347
227	0x3d072dc0	0.033002615
228	0xbc8aa0cb	-0.016922375
229	0xbc8b4722	-0.017001692
230	0x3a5ba9e9	0.00083795056
231	0x3b7e91ab	0.003884415
232	0x383cb0a8	4.4987217e-05
233	0xbbad98a7	-0.0052977386
234	0x3c04435e	0.008072702
235	0x3c2eb626	0.010663545
236	0xbd7ada0f	-0.061243113
237	0xbcbfd25f	-0.023415742
238	0xbb9ad45e	-0.004725023
239	0xbaada795	-0.0013248796
240	0xbae6231a	-0.0017558069
241	0xbb87f768	-0.004149366
242	0xbb291093	-0.0025797233
243	0x3bf68d52	0.007524171
244	0xbb2e21b6	-0.0026570386
245	0xbd124302	-0.035708435
246	0xbceda548	-0.029009476
247	0x3b6eccd1	0.0036437998
248	0xbc318a03	-0.010836127
249	0xb966ebb7	-0.0002202232
250	0x3b2bdbbb	0.00262235
251	0xbb1c3c49	-0.0023839644
252	0x3b58cfeb	0.0033082913
253	0xbd104ae3	-0.035227668
254	0x3ccba103	0.02485705
255	0xbcbcfd90	-0.023070127

network_body.linear_encoder.seq_layers.0.bias f4 [128]
0	0x3d929162	0.07156636
1	0x3cc79f02	0.024367813
2	0x3d89f5a4	0.06736305
3	0xbe0fff67	-0.14062272
4	0xbd830735	-0.06397859
5	0x3d4cb6fc	0.049979195
6	0xbd94ca9d	-0.07265208
7	0xbd75b334	-0.059985355
8	0xbae5fd66	-0.0017546832
9	0x3cb8a1c8	0.02253808
10	0x3dcedb16	0.10100381
11	0xbd8c78f9	-0.06859011
12	0xbdbf0965	-0.09327964
13	0x3d378e8a	0.04481367
14	0xbbfc4636	-0.0076987995
15	0x3bfd2eec	0.007726541
16	0x3d020737	0.03174516
17	0x3d15f453	0.03660996
18	0x3d279014	0.040908888
19	0xbccff78b	-0.025386592
20	0xbda1072e	-0.078626975
21	0xbd339476	-0.043842755
22	0x3d595e78	0.053068608
23	0xbc8b35e6	-0.016993474
24	0xbd91ad59	-0.071131416
25	0x3c27f6d2	0.010251718
26	0xbcc27323	-0.023736542
27	0xbd8881be	-0.06665371
28	0xbd741a6f	-0.05959552
29	0xbc96beea	-0.018401582
30	0xbd3eeeed	-0.046614576
31	0xbd774590	-0.060369074
32	0x3a32d75b	0.00068222516
33	0xbd592c49	-0.05302075
34	0x3ddd088a	0.10792644
35	0x3c19e995	0.009394069
36	0x3bd6c39a	0.0065540792
37	0x3d67c57d	0.056584824
38	0x3d4f2f94	0.050582483
39	0x3bb8cde9	0.005639781
40	0x3bbe9033	0.0058155297
41	0x3d019496	0.031635843
42	0xbd6ed17a	-0.05830524
43	0xbd329df3	-0.043607663
44	0x3dbc8318	0.09204692
45	0x3cb53956	0.022122066
46	0xbd6ad64a	-0.05733327
47	0x3e091afc	0.133892
48	0xbca98834	-0.02069483
49	0xbbf672b2	-0.007520997
50	0xbdc97779	-0.09837241
51	0x3da2e5dc	0.079539984
52	0xbd6f6762	-0.058448203
53	0xbd8c08b1	-0.06837595
54	0x3ca24308	0.019807354
55	0xbd9c25b1	-0.076243766
56	0xbd1de95a	-0.03855262
57	0xbe0c391f	-0.13693665
58	0xbba758c1	-0.005107016
59	0xbc4bb1f2	-0.012432562
60	0xbc51f691	-0.012815134
61	0xbcf68902	-0.030094627
62	0x3d92dda2	0.07171179
63	0x3c56d0bf	0.013111292
64	0xbda64723	-0.08119037
65	0x3d4eb7ff	0.05046844
66	0xbc9e3928	-0.019314364
67	0xbcf62a9a	-0.03004961
68	0x3c1cc228	0.009567775
69	0x3d54458f	0.05182415
70	0x3ddc17a4	0.107466966
71	0xbcf3231e	-0.029679831
72	0x3d59fcab	0.05321948
73	0xbdd554f6	-0.10416596
74	0xbaabc57d	-0.0013105121
75	0x3da9bc63	0.08287885
76	0xbcc799f9	-0.024365412
77	0x3cf51698	0.029918
78	0xbde765dc	-0.11298725
79	0x3cbca63c	0.023028485
80	0x3d2c3d98	0.042050928
81	0xbc5484ea	-0.012971142
82	0xbd554221	-0.05206502
83	0xbd548314	-0.05188282
84	0x3c02b9e0	0.007978886
85	0x3d12015b	0.035645824
86	0x3d9f6b2f	0.077841155
87	0xbd571bce	-0.05251675
88	0x3d05037a	0.03247402
89	0xbcc0baa9	-0.023526506
90	0xbd952105	-0.072816886
91	0x3dcf2b04	0.101156265
92	0x3d9c083c	0.07618758
93	0xbd990c69	-0.0747307
94	0x3cf08177	0.029358609
95	0x3e263b8c	0.16233653
96	0x3d807238	0.062717855
97	0xbd1ef162	-0.03880442
98	0x3cc32166	0.023819637
99	0xbd55717c	-0.05211018
100	0xbdb06e5c	-0.086147994
101	0xbd09ebf0	-0.033672273
102	0xbc500c6a	-0.012698272
103	0xbdd82b1f	-0.105551
104	0x3c63ebc9	0.013911196
105	0x3cf470b3	0.029838895
106	0xbd1007b0	-0.03516358
107	0x3c0b2c49	0.008494445
108	0xbd86720e	-0.06564723
109	0x3c995226	0.01871593
110	0x3dc1ecd1	0.09468997
111	0x3dc20297	0.0947315
112	0xbdee439e	-0.11633991
113	0xbcf6a01f	-0.030105649
114	0xbc770214	-0.015076179
115	0x3d4bc8c3	0.04975201
116	0xbc5a045e	-0.013306705
117	0xbd0bd1b3	-0.03413553
118	0xbcd5c6fe	-0.026095863
119	0x3d4106bf	0.047125574
120	0xbd8381db	-0.06421252
121	0xbda160fd	-0.07879827
122	0xbd99a76d	-0.07502637
123	0xbde6875d	-0.11256287
124	0x3c3b689b	0.011438514
125	0x3d4789e9	0.048715506
126	0x3b9cac33	0.00478127
127	0xbdab089e	-0.08351253

network_body.linear_encoder.seq_layers.0.weight f4 [128, 4]
0	0x3dbbe72d	0.09174953
1	0x3e912d01	0.28354648
2	0xbfd280b4	-1.6445527
3	0x3ec04f65	0.37560573
4	0xbea85845	-0.32879844
5	0xbeb9a1ac	-0.36256158
6	0xbf8a2ccb	-1.079492
7	0xbda20692	-0.079114094
8	0xbe856d28	-0.26059842
9	0x3e9f76b8	0.31145263
10	0x3f016d08	0.50556993
11	0x3f47aec2	0.78001034
12	0x3e4b35ab	0.19844691
13	0xbe04762a	-0.12935701
14	0x3e952207	0.29127523
15	0x3d5d1f0b	0.053984683
16	0x3e5b9eb9	0.21447267
17	0x3f2f8212	0.68557847
18	0x3e6f1556	0.23347983
19	0xbe5fb1bf	-0.21845149
20	0x3e8c766e	0.27434105
21	0x3f341cd2	0.70356476
22	0xbe428afc	-0.18998331
23	0x3f3efc4e	0.74603736
24	0xbdcc044a	-0.099617556
25	0xbe268d90	-0.1626494
26	0x3f8e0a1b	1.1096834
27	0x3eed724c	0.46376264
28	0x3cdf17e2	0.027233068
29	0x3ee9edbc	0.4568919
30	0x3e7f2639	0.24916925
31	0xbf0313c1	-0.5120202
32	0x3edc660d	0.4304661
33	0xbe2a513d	-0.16632552
34	0xbf515fee	-0.81787
35	0xbebf5ac2	-0.3737393
36	0xbdc65c6e	-0.09685598
37	0x3e5f16e0	0.2178607
38	0xbe8c45a7	-0.2739689
39	0xbf2af592	-0.6678096
40	0xbe9535d6	-0.29142636
41	0x3e8deb25	0.27718464
42	0xbd67424b	-0.056459706
43	0x3f58c6b8	0.8467822
44	0x3de605c7	0.11231571
45	0x3f0a1da8	0.539515
46	0xbec6536d	-0.38735524
47	0xbf5c0fa2	-0.85961354
48	0x3edda292	0.43288094
49	0xbe483002	-0.19549564
50	0xbe9c3c1f	-0.3051462
51	0xbcbe125a	-0.02320211
52	0xbef108e1	-0.47077087
53	0xbf057941	-0.52138144
54	0xbf174d4b	-0.59102315
55	0xbf46bcca	-0.7763182
56	0xbf52688a	-0.82190764
57	0x3e34ba64	0.17649227
58	0xbebd5c26	-0.36984366
59	0xbe84c25f	-0.25929543
60	0xbf30b07b	-0.6901929
61	0xbf1690ad	-0.5881451
62	0xbf9715e7	-1.1803559
63	0xbf40dc6c	-0.7533634
64	0x3dc15f94	0.09442058
65	0xbf49834d	-0.78715974
66	0xbd78d780	-0.06075239
67	0x3e9f43a3	0.3110629
68	0x3baab976	0.005210097
69	0x3e9047ec	0.28179872
70	0x3e4a707e	0.19769475
71	0x3ecda316	0.40163487
72	0x3c5d1cae	0.013495607
73	0xbe9912d1	-0.29897168
74	0xbeccdbc9	-0.40011433
75	0xbe4837f0	-0.19552588
76	0xbdd18eeb	-0.102323376
77	0x3e2be09c	0.167849
78	0x3e14ad1c	0.14519161
79	0x3f1765ea	0.59139884
80	0xbe8f38ee	-0.2797312
81	0x3e92170b	0.28533205
82	0x3ed608ba	0.41803533
83	0xbe95e70e	-0.29277843
84	0xbe3b9f86	-0.18322572
85	0x3f42c405	0.7608035
86	0x3eb30af6	0.349693
87	0x3be52e0d	0.006994015
88	0x3e5b3e51	0.2141049
89	0x3db7576a	0.0895222
90	0xbea26fb7	-0.31725857
91	0x3c29d226	0.010365045
92	0x3f0ab0c8	0.54175997
93	0xbee042bf	-0.43800923
94	0x3effdbcc	0.4997238
95	0x3f0f1ac9	0.55900246
96	0xbd3ce590	-0.046117365
97	0xbea07f58	-0.31347156
98	0xbc225871	-0.009908781
99	0xbfa20097	-1.265643
100	0xbf11ea88	-0.5699849
101	0xbf19366d	-0.5984867
102	0xbf89df04	-1.0771184
103	0xbf26d4d3	-0.65168494
104	0xbc1c1f68	-0.009528972
105	0xbe5a90d9	-0.21344317
106	0xbecffb6e	-0.40621513
107	0x3ed62464	0.4182464
108	0x3df36234	0.11883965
109	0xbf1ac6e3	-0.6045973
110	0x3f08bd0b	0.53413457
111	0x3dc48a57	0.09596699
112	0xbf35fc8a	-0.7108847
113	0x3e4e368a	0.20137993
114	0x3e54cb49	0.20780672
115	0xbf760ada	-0.9611031
116	0xbec7beed	-0.39012852
117	0x3c6d3557	0.014478049
118	0xbea77cdb	-0.32712445
119	0xbce8474f	-0.028354315
120	0x3f1eed0d	0.6208046
121	0xbe2e03bb	-0.1699361
122	0x3edd5b03	0.432335
123	0x3d999679	0.074994035
124	0x3e79ae5a	0.24382916
125	0xbe99c1fe	-0.30030817
126	0x3ec76660	0.38945293
127	0x3ebc0c74	0.3672825
128	0x3e92d7f8	0.28680396
129	0x3e657674	0.22408468
130	0x3e76c8c4	0.24100024
131	0x3f2cf2dd	0.6755808
132	0xbef9902b	-0.48742804
133	0x3e742868	0.23843539
134	0xbd997a60	-0.07494044
135	0xbed60cd4	-0.41806662
136	0xbcfdf870	-0.031002253
137	0xbecf72d8	-0.40517306
138	0xbf9030e9	-1.1264926
139	0x3f0be9a4	0.5465338
140	0x3e861c66	0.2619354
141	0x3eca1ba8	0.39474225
142	0xbdb73578	-0.08945745
143	0xbec0a0cd	-0.3762268
144	0xbeb2e893	-0.34943065
145	0xbf0a912f	-0.5412778
146	0xbedf0418	-0.4355781
147	0xbf315ac3	-0.69279116
148	0xbdbcabd7	-0.09212463
149	0x3ea71c81	0.32638934
150	0xbf5f63c6	-0.8726162
151	0x3eac67b7	0.33672878
152	0xbe39f44e	-0.18159601
153	0xbec16b0c	-0.37776983
154	0xbf649e91	-0.89304453
155	0xbec73908	-0.389107
156	0xbc18b2a8	-0.009319939
157	0xbf18fd01	-0.59761053
158	0xbe38a155	-0.18030293
159	0x3e89ef3e	0.2694034
160	0x3f643b6f	0.8915319
161	0x3f5163ba	0.81792796
162	0xbf361ad5	-0.7113469
163	0x3d9cf8ae	0.076646194
164	0x3f0e5a0c	0.5560615
165	0xbdd0d80f	-0.1019746
166	0xbbbae319	-0.0057033417
167	0xbdafd6c6	-0.08585887
168	0x3ea50128	0.32227445
169	0x3e866061	0.26245406
170	0x3dcf5bd0	0.10124934
171	0x3e6e696d	0.23282404
172	0xbdcd6fbe	-0.10031079
173	0x3da47e02	0.080318466
174	0x3f0b4446	0.5440105
175	0x3e63ab09	0.22233213
176	0xbdf5f364	-0.12009314
177	0xbf55bc3a	-0.83490336
178	0xbf8ee063	-1.1162227
179	0xbea2b094	-0.31775343
180	0xbeb6b56f	-0.35685298
181	0x3d9f7685	0.07786278
182	0x3e646dba	0.22307482
183	0x3f7e007c	0.9921949
184	0xbdf228f0	-0.118242145
185	0xbe082073	-0.13293628
186	0x3ed1ec93	0.41000804
187	0xbe1245a3	-0.14284377
188	0xbea03a7e	-0.31294626
189	0x3e0deb57	0.13859306
190	0xbec3c55b	-0.38236508
191	0x3f8b66ad	1.0890709
192	0xbea90750	-0.33013391
193	0xbe895580	-0.26823044
194	0xbf00b3f0	-0.5027456
195	0xbee3c74f	-0.44487998
196	0xbf3409a2	-0.703272
197	0xbebc7f7b	-0.3681601
198	0xbdc0a283	-0.09405997
199	0xbe8e696c	-0.27814806
200	0xbe62f1f4	-0.2216261
201	0xbebca9f2	-0.36848408
202	0xbd0b2a11	-0.033975665
203	0xbf135f47	-0.57567257
204	0xbcf52fc6	-0.029930007
205	0xbf2edb67	-0.6830353
206	0xbef00479	-0.46878412
207	0x3f4f36fe	0.80943286
208	0xbe80d25a	-0.25160486
209	0xbddd37a5	-0.10801629
210	0xbe6a1d9a	-0.22862855
211	0xbec26e2b	-0.37974676
212	0xbf27bc5d	-0.65521795
213	0xbd68516d	-0.05671828
214	0xbf13ebc1	-0.57781607
215	0xbdf128c8	-0.117753565
216	0x3f54a768	0.8306794
217	0xbec05f56	-0.37572736
218	0x3ee7e331	0.4529052
219	0x3ee4ccb3	0.44687423
220	0xbe0efbb8	-0.1396321
221	0x3cd52005	0.026016245
222	0x3e765b7c	0.24058336
223	0x3ddc86e1	0.107679136
224	0x3eaf08a5	0.34186283
225	0x3eaae6fa	0.33379346
226	0x3f181286	0.59403265
227	0x3e2e5dd7	0.17027985
228	0x3eed5b06	0.46358508
229	0xbba7ce19	-0.0051210043
230	0x3f8ca98c	1.0989242
231	0xbf11beaf	-0.56931585
232	0xbed324a6	-0.41238898
233	0x3e89ee5f	0.26939675
234	0xbe2dadc3	-0.16960816
235	0x3e44b876	0.19210991
236	0x3f1de968	0.61684275
237	0xbe8a9b16	-0.27071446
238	0xbf3cd8bf	-0.7376823
239	0x3ed09447	0.40738127
240	0x3ef891d3	0.48548755
241	0x3ea6f3ac	0.32607782
242	0xbecf9237	-0.4054124
243	0xbf880cd5	-1.0628916
244	0xbed50327	-0.41603968
245	0x3eee545f	0.46548745
246	0xbeee86f7	-0.46587345
247	0xbf4ce5d1	-0.8003817
248	0x3e7c04e0	0.24611235
249	0xbf4856ce	-0.78257453
250	0x3cfc99bb	0.030835023
251	0x3e955a18	0.291703
252	0xbdb2ec36	-0.0873646
253	0xbf2375a7	-0.638514
254	0x3e481c28	0.19541991
255	0x3e814ba7	0.2525303

network_body.linear_encoder.seq_layers.2.bias f4 [128]
0	0xbd478309	-0.04870895
1	0x3d1ceac5	0.03830983
2	0xbce44442	-0.02786458
3	0xbda930eb	-0.082612835
4	0x3be86330	0.007091902
5	0xbd85e4c9	-0.06537778
6	0x3bd6094a	0.006531869
7	0x3d598237	0.0531027
8	0x3cea5f82	0.028609995
9	0xbd30f507	-0.043202426
10	0xbcef02c3	-0.029176122
11	0x3c912669	0.01771851
12	0xbd225a63	-0.03963698
13	0xbd8cca29	-0.068744965
14	0xbc956714	-0.018237628
15	0x3b4bb98e	0.003108594
16	0x39c7e419	0.00038126184
17	0xbccfe280	-0.025376558
18	0x3d0a6fc4	0.033797994
19	0xbb31c9b0	-0.0027128272
20	0xbdfcee10	-0.12350094
21	0xbc068060	-0.008209318
22	0xbd625b49	-0.055262838
23	0x3cb09835	0.021556953
24	0xbdeadaec	-0.11467537
25	0xbdab388b	-0.08360394
26	0x3c913f3d	0.01773035
27	0xbd34c16a	-0.044129767
28	0xbdb211b3	-0.08694782
29	0xbd593c36	-0.053035937
30	0x3d1c3a50	0.03814155
31	0xbde77ff4	-0.11303702
32	0xbd5de4b1	-0.054173175
33	0x3ccd5cb7	0.025068624
34	0xbd781e85	-0.06057598
35	0x3d7ae3ef	0.06125253
36	0xbd197ed8	-0.037474483
37	0xbc96d9ad	-0.018414343
38	0xbd82c419	-0.06385059
39	0xbcfc6192	-0.030808244
40	0xbd2f05e4	-0.042730227
41	0xbdf40a35	-0.11916009
42	0xbd87ce61	-0.066311605
43	0xbd494893	-0.049141478
44	0x3bc6f171	0.0060712625
45	0x3d6edf2a	0.058318295
46	0xbd4242ec	-0.047427103
47	0x3c95981f	0.018261014
48	0xbcbe52ac	-0.02323278
49	0x3d1a6cb5	0.037701327
50	0xbc369f56	-0.011146387
51	0xbbfa64ce	-0.0076414114
52	0x3cd68526	0.026186537
53	0xbaca6930	-0.0015442725
54	0xbc782272	-0.015144931
55	0xbd891594	-0.06693569
56	0x3aa7841c	0.001278046
57	0xbd10dfd0	-0.035369694
58	0xbd241f9a	-0.0400692
59	0xbc03b521	-0.00803879
60	0xbd2a95e2	-0.041646846
61	0x3d193023	0.037399422
62	0xbd94e46d	-0.07270131
63	0x3ba56be4	0.005048262
64	0xbda712ce	-0.081578836
65	0xbda56831	-0.080765136
66	0xbcd2c2b9	-0.025727617
67	0x3d771198	0.060319513
68	0xbd39c069	-0.045349512
69	0x3d8e6f7c	0.06954858
70	0x3d1ab3a4	0.037768975
71	0xbd9edd6a	-0.07757075
72	0x3da3d072	0.07998742
73	0x3ccc3af8	0.024930462
74	0xbd077837	-0.03307363
75	0xbd01d9e5	-0.03170194
76	0xbc2a9393	-0.010411161
77	0x3c6c8ef8	0.014438383
78	0xbd763a8b	-0.060114425
79	0xbdd3172b	-0.10307153
80	0xbd8a6be1	-0.067588575
81	0xbbfc8d4d	-0.007707274
82	0xbe024b7f	-0.12724112
83	0xbd4de2c3	-0.050265085
84	0xbc632ca6	-0.0138656255
85	0xbd34aea2	-0.044111855
86	0xbd91f739	-0.07127232
87	0xbdbda0d5	-0.09259192
88	0x3d5036e1	0.050833587
89	0x3c699ecb	0.014259051
90	0x3b10407a	0.0022011087
91	0xbda5bcfd	-0.08092687
92	0xbd3bcf78	-0.045852154
93	0xbd2b49b8	-0.04181835
94	0xbd89a169	-0.0672024
95	0x3bf92d84	0.007604303
96	0xbdb0432f	-0.08606564
97	0xbcd31cfb	-0.025770655
98	0xbdc7cb09	-0.09755523
99	0x3d81dc33	0.06340828
100	0xbd949c5e	-0.07256387
101	0xbd7b2628	-0.061315686
102	0xbc786b54	-0.015162308
103	0xbbaec07f	-0.005333006
104	0xbd95687b	-0.07295319
105	0xbd58685b	-0.052833896
106	0x3d4f0e15	0.05055054
107	0x3d84d1c6	0.064853236
108	0xbe310630	-0.17287517
109	0xbd5c336e	-0.053759985
110	0xbd877fc4	-0.06616166
111	0xbd736065	-0.0594181
112	0xbd32e2a9	-0.04367319
113	0xbd260017	-0.04052743
114	0xbcee7378	-0.029107794
115	0x3a28fde7	0.0006446526
116	0xbc941f2d	-0.018081272
117	0xbdf1517d	-0.11783121
118	0xbe16ce5f	-0.14727162
119	0xbd02a8c7	-0.03189924
120	0xbd836d21	-0.06417299
121	0xbc027ec6	-0.007964795
122	0x3b07667c	0.002066045
123	0xbda86356	-0.08222072
124	0x3c4685ed	0.012116891
125	0xbda3a784	-0.079909354
126	0x3da54481	0.08069707
127	0xbdb272a9	-0.08713276

network_body.linear_encoder.seq_layers.2.weight f4 [128, 128]
0	0xba953ecd	-0.0011386514
1	0x3be48614	0.006973991
2	0xbdd97dd0	-0.106197
3	0x3d9e2d0c	0.07723436
4	0x3e16c49c	0.14723438
5	0x3ddb4110	0.10705769
6	0xbcef24ef	-0.029192416
7	0x3dffc9f1	0.12489689
8	0xbdcec0e8	-0.10095388
9	0x3dbc0e05	0.091823615
10	0xbe221516	-0.15828356
11	0x3da7a570	0.081858516
12	0xbdab52eb	-0.08365425
13	0x3df7acb3	0.12093487
14	0x3d2823eb	0.04104988
15	0xbcef1284	-0.029183634
16	0x3cc9413e	0.024567243
17	0x3e17007e	0.14746282
18	0x3d8f1456	0.06986301
19	0x3dda23cf	0.10651361
20	0xbdc09529	-0.0940345
21	0xbd2fa852	-0.042885132
22	0xbc88f92d	-0.016720379
23	0xbd4ec886	-0.050484203
24	0xbd9f0efb	-0.07766529
25	0x3e8c6feb	0.27429137
26	0xbd7334cc	-0.059376523
27	0x3d3e55f4	0.04646869
28	0xbd4f67f1	-0.050636236
29	0xbddccd56	-0.10781352
30	0x3de14fc0	0.11001539
31	0x3d78ae51	0.060713116
32	0x3da1bee8	0.078977406
33	0x3dd0f9aa	0.1020387
34	0xbd38b9ca	-0.045099057
35	0x3c8b69ee	0.017018285
36	0xbdb1d33c	-0.08682868
37	0x3d8710f1	0.06595028
38	0xbdb43f60	-0.0880115
39	0x3e4b31d6	0.1984323
40	0xbd1f7f3e	-0.038939707
41	0xbca8018c	-0.02050855
42	0xbe4de892	-0.2010825
43	0x3ccf7cca	0.025328059
44	0x3e441a7a	0.19150725
45	0xbd07f35a	-0.033191063
46	0x3dd62c3f	0.10457658
47	0xbcb5d70c	-0.022197269
48	0x3bf8e0fb	0.007595179
49	0xbd3606cf	-0.044440087
50	0xbdd269e3	-0.102741025
51	0x3e1b418f	0.15161727
52	0xbdd47a18	-0.1037485
53	0xbdaf7a35	-0.08568231
54	0xbd676cc6	-0.05650022
55	0x3d3bba24	0.045831814
56	0x3d8516ac	0.06498465
57	0x3cbf845d	0.023378545
58	0xbe49ddc4	-0.19713503
59	0xbc5f8243	-0.013641897
60	0xbe15668d	-0.14589901
61	0xbd8b83e1	-0.06812263
62	0xbc35a1ff	-0.011085986
63	0xbe224243	-0.1584559
64	0x3bf3cc2b	0.00744011
65	0xbd97f3ed	-0.07419572
66	0xbdaab565	-0.083353795
67	0xbe0baa48	-0.13639176
68	0x3d3d29c0	0.046182394
69	0x3b09b95a	0.002101502
70	0x3cc454e4	0.02396626
71	0x3e32450f	0.17409156
72	0xbd6551ea	-0.055986322
73	0x3e099196	0.13434443
74	0xbdf4d32b	-0.119543396
75	0xbd8bacaa	-0.068200424
76	0x3daa16ae	0.08305107
77	0x3cb1d0a5	0.021705935
78	0xbd97d9ab	-0.07414564
79	0x3e00862d	0.12551184
80	0xbc8a9921	-0.01691872
81	0xbd67a866	-0.05655708
82	0x3d8e8d97	0.069606
83	0xbdfa017f	-0.122073166
84	0x3c85f04a	0.01634993
85	0xbe097941	-0.13425161
86	0x3cbe6678	0.02324222
87	0xbc9de02f	-0.019271938
88	0x3d2d61b6	0.042329513
89	0xbda496e2	-0.08036591
90	0xbd4426b6	-0.04788848
91	0xbd3a462c	-0.045477077
92	0x3d691117	0.056901064
93	0x3e549978	0.20761669
94	0x3bab5776	0.005228932
95	0xbd50f734	-0.051017
96	0xbc898029	-0.016784744
97	0x3e04f038	0.12982261
98	0xbdc863cb	-0.09784659
99	0xbd6c6c3d	-0.05772041
100	0xbc1a6e41	-0.009425701
101	0xbd05c3cf	-0.03265744
102	0xbe043506	-0.12910852
103	0xbdedf59a	-0.116191104
104	0xbd2940d9	-0.04132161
105	0xbcafa4f8	-0.021440968
106	0xbcce8e84	-0.025214441
107	0xbdeca575	-0.11554996
108	0x3d1c899c	0.038217172
109	0xbd551ecb	-0.05203132
110	0x3dda4cb5	0.10659162
111	0x3d628e13	0.055311274
112	0xbdab7473	-0.0837182
113	0xbdb35c10	-0.08757794
114	0x3cfa2d71	0.030539246
115	0xbd769658	-0.060201973
116	0x3d0b7d3c	0.03405498
117	0x3d968cf1	0.07351101
118	0xbcb235c5	-0.021754155
119	0xbe317ce5	-0.173328
120	0x3c1446d6	0.009050092
121	0x3d0ee678	0.03488776
122	0x3c5b17a7	0.013372338
123	0x3d8b28ef	0.06794917
124	0xbbc0846a	-0.00587516
125	0x3ca87ad3	0.02056638
126	0x3cb1791f	0.0216642
127	0x3e07a74c	0.13247412
128	0xbde2fef8	-0.11083788
129	0x3da1c4a5	0.07898835
130	0x3e76023c	0.2402429
131	0x3e169338	0.14704597
132	0xbdbd28db	-0.09236308
133	0xbc8627a5	-0.016376326
134	0xbdae83fd	-0.085212685
135	0xbcf7e101	-0.030258657
136	0xbdcca847	-0.09993034
137	0x3cbf1977	0.023327572
138	0x3df0588d	0.1173564
139	0xbd0dee88	-0.03465131
140	0x3d8afd78	0.067866266
141	0xbe17552f	-0.14778589
142	0xbe331e12	-0.1749194
143	0x3e363eb0	0.17797351
144	0x3d8532ff	0.06503867
145	0x3e213db7	0.15746199
146	0xbc4843ba	-0.0122231785
147	0xbe33258d	-0.17494793
148	0x3be5ec84	0.0070167203
149	0x3d83629f	0.06415295
150	0xbe04e090	-0.12976289
151	0xbc6ccb0f	-0.01445271
152	0xbcbbb065	-0.02291126
153	0x3d95a481	0.07306767
154	0xbda68d1a	-0.08132382
155	0x3e10b135	0.14130099
156	0xbe17ecdd	-0.1483645
157	0xbd8937aa	-0.0670007
158	0xbd9f08cf	-0.07765352
159	0xbcc7db5f	-0.024396596
160	0x3e0b8ace	0.13627169
161	0xbcb4df88	-0.022079244
162	0x3dafdc47	0.085869364
163	0x3de2eabb	0.110799275
164	0x3e828bc0	0.25497246
165	0xbd1a2c7a	-0.037640072
166	0xbd7067ba	-0.05869267
167	0xbbd2eca9	-0.0064369035
168	0x3de21bcb	0.11040457
169	0x3d11abcd	0.035564233
170	0xbce86aaa	-0.028371174
171	0xbe0ad195	-0.13556512
172	0xbd19fc35	-0.03759404
173	0xbde69ed6	-0.11260764
174	0xbe31449f	-0.17311333
175	0x3cb7c28e	0.022431638
176	0x3d1cc616	0.038274847
177	0xbd350d65	-0.044202227
178	0x3aa8c27e	0.0012875346
179	0x3d84dea1	0.064877756
180	0x3d762bf8	0.060100526
181	0x3dd1309f	0.10214352
182	0x3dd3703d	0.10324142
183	0xbdc8c605	-0.09803394
184	0xbd9c5468	-0.07633287
185	0xbd855890	-0.065110326
186	0x3deac989	0.11464221
187	0xbca21997	-0.019787593
188	0xbc2829d9	-0.0102638835
189	0x3dd7d269	0.105381794
190	0x3d9b0aba	0.07570405
191	0xbda936c3	-0.08262398
192	0xbc6c0ae3	-0.0144068925
193	0x3d54e297	0.051973905
194	0x3d5cc968	0.053903013
195	0xbd1b6191	-0.037934843
196	0x3d0656aa	0.032797493
197	0x3e438447	0.19093429
198	0xbd828bce	-0.06374322
199	0xbcf5a964	-0.029987998
200	0xbc1a095e	-0.009401647
201	0x3cd5efd9	0.026115345
202	0xbe35f126	-0.17767772
203	0xbe3e5fcc	-0.18591231
204	0x3c3ecfff	0.01164627
205	0x3d61f015	0.0551606
206	0x3d2a7142	0.041611917
207	0x3d18fc3e	0.037349932
208	0x3cde5d56	0.027144115
209	0xbd0d9ecd	-0.034575272
210	0xbe06a9f5	-0.13150771
211	0xbd9dce9c	-0.07705423
212	0x3d8a45b6	0.067515776
213	0x3e224abb	0.1584882
214	0x3a8e986e	0.0010879168
215	0xbd63ae8c	-0.055586383
216	0xbdcef385	-0.101050414
217	0xbdd9cb9b	-0.10634538
218	0xbd511fdd	-0.051055778
219	0x3c26bed7	0.010177336
220	0xbdff5de2	-0.124690786
221	0xbe282174	-0.16419011
222	0x3d486aeb	0.04893009
223	0x3db1a2b4	0.08673611
224	0xbd87f50e	-0.06638537
225	0xbc876994	-0.016529836
226	0xbb775dac	-0.0037745042
227	0x3d8f5a41	0.069996364
228	0x3cc6a8b1	0.02425036
229	0xbdc901ea	-0.09814818
230	0x3bd17bb7	0.006392922
231	0x3df69ec7	0.12042003
232	0xbd058796	-0.032600008
233	0xbd66a60d	-0.056310702
234	0xbc8d0f34	-0.017219163
235	0xbd2165dc	-0.03940378
236	0x3bbf8147	0.0058442685
237	0x3c6e348a	0.0145388935
238	0xbdaae945	-0.08345274
239	0x3bd795b4	0.0065791253
240	0xbd4829b5	-0.0488679
241	0xbd370ebd	-0.04469179
242	0xbd16efee	-0.03684991
243	0x3be5d9e8	0.007014502
244	0x3d470964	0.04859294
245	0xbe84d47e	-0.2594337
246	0x3c17ef11	0.0092733065
247	0xbca686ce	-0.020327952
248	0x3dc07971	0.09398163
249	0xbe389134	-0.1802414
250	0xbc02c85f	-0.0079823425
251	0xbc708b11	-0.0146815935
252	0xbdc5bd3b	-0.096552335
253	0x3d8c75e5	0.06858424
254	0xbe118ee2	-0.14214662
255	0x3d2dcb18	0.042430013

network_body.vector_processors.0.normalizer.running_mean f4 [4]
0	0x40045791	2.0678446
1	0x3f18092d	0.59389
2	0xc13c34d3	-11.762897
3	0x40b8358b	5.756536
