ml-agents-master/ml-agents/config/results/ppo/LineCreator/LineCreator-508356.onnx (onnx, 71632 bytes, 9 tensors)

53 f4 [4]
0	0x40b8650f	5.7623363
1	0x4037fb8f	2.874729
2	0x40a31f46	5.0975676
3	0x401a142c	2.4074812

54 f4 [1, 2]
0	0xbea33497	-0.3187606
1	0xbe73bab8	-0.23801696

distribution.mu.bias f4 [2]
0	0x3db5a4bb	0.088693105
1	0xbd8a517c	-0.06753823

distribution.mu.weight f4 [2, 128]
0	0xbbd41243	-0.0064719035
1	0xbd1b68e6	-0.037941836
2	0xbac1a3df	-0.0014773569
3	0xbbd2dff1	-0.0064353873
4	0x3bac2b9b	0.0052542216
5	0xbbb327ed	-0.005467406
6	0xbd3e49cb	-0.046457093
7	0xbbbfac5f	-0.0058494057
8	0xbbeac348	-0.0071643926
9	0xbd773bd4	-0.06035979
10	0xbae9fb27	-0.0017851338
11	0xbba25176	-0.0049535586
12	0xbae215dc	-0.0017248946
13	0xbc167c6d	-0.009184939
14	0x3cf40934	0.029789545
15	0xbbd9b243	-0.006643565
16	0xbb4ddc1d	-0.0031411715
17	0xbc01c0ae	-0.007919474
18	0x3db2fd26	0.087396905
19	0x3aa894be	0.0012861711
20	0x3bac34d3	0.0052553206
21	0x3b2f0394	0.0026705014
22	0xbbe70fc2	-0.007051439
23	0xbb8272f4	-0.0039809886
24	0x3a22fc21	0.00062173797
25	0x3c2cebf2	0.010554301
26	0xbc8c378a	-0.017116327
27	0x3b3484c5	0.0027544957
28	0xbb9cedce	-0.0047890907
29	0xbafea332	-0.0019427298
30	0x3cd70494	0.0262473
31	0x3b40f863	0.0029444925
32	0xbc11ab1c	-0.008890893
33	0xbb68f4dd	-0.003554634
34	0xbb34723e	-0.0027533914
35	0xbd3a1936	-0.0454342
36	0xbb005d0f	-0.0019586717
37	0xbc7697ae	-0.015050812
38	0xbb9dbeaf	-0.004813991
39	0xbbfc7a20	-0.007704988
40	0xbe2b5194	-0.16730338
41	0xbbff469d	-0.0077904
42	0x39b637c3	0.0003475529
43	0x3ad65708	0.0016352842
44	0xba8a440e	-0.0010548846
45	0xbbbab7e4	-0.005698191
46	0x39da61d5	0.0004165309
47	0xb9399906	-0.0001769998
48	0xbbd10e34	-0.006379867
49	0x3ca3b8ea	0.019985635
50	0x3b7816a8	0.00378553
51	0xbc4a617f	-0.012352346
52	0xb9db9f56	-0.0004188965
53	0x3d392d46	0.04520919
54	0x3e047248	0.1293422
55	0x3d2899d2	0.04116232
56	0xbb6473f9	-0.0034859164
57	0x3b1e35d1	0.0024140964
58	0x3d2bf9a9	0.04198614
59	0x3c93f52f	0.018061249
60	0xbbfee625	-0.0077789
61	0x3baa9347	0.005205545
62	0xbbfbd8a9	-0.00768574
63	0x3c98546e	0.018594947
64	0xbd142644	-0.036169305
65	0x3a4e5e4c	0.00078723277
66	0xbadcb16f	-0.0016837547
67	0x3d6b0ee3	0.057387244
68	0xbbb67a05	-0.005568745
69	0xbb93e3fb	-0.0045132614
70	0xb9adc124	-0.00033141032
71	0x3be4e38e	0.0069851344
72	0xbc0cb52a	-0.008588115
73	0xbbf21577	-0.0073878127
74	0xbb8b067b	-0.004242716
75	0xbb6de31a	-0.0036298693
76	0xbbf1ac60	-0.007375285
77	0xbba4dbba	-0.0050310763
78	0xbbfbbbf3	-0.0076823174
79	0xbc529b8f	-0.012854471
80	0xb9d8649a	-0.00041273684
81	0x3cc89221	0.024483742
82	0xbb75b10d	-0.0037489564
83	0x3b7ff798	0.003905749
84	0x3ced9fd1	0.02900687
85	0xbb6f96eb	-0.003655846
86	0x3d746fd4	0.05967696
87	0xbc957e64	-0.018248744
88	0xbd971ead	-0.07378898
89	0xbb299427	-0.002587566
90	0xbbcc2e1d	-0.006231083
91	0x3a50f989	0.0007971754
92	0x3c1ca8bc	0.009561714
93	0x3d93a72a	0.072096184
94	0xbb8e7039	-0.004346874
95	0x3c3f53f2	0.011677729
96	0x3d3dde97	0.046354856
97	0xbb37097e	-0.0027929242
98	0x3e241353	0.16022997
99	0xbc8c7e7f	-0.017150162
100	0xbbbd5ab2	-0.005778634
101	0xbae372c3	-0.0017352927
102	0xbaed0e59	-0.0018085941
103	0xbbf64b08	-0.0075162686
104	0xbc1276b2	-0.008939432
105	0xbbd7745e	-0.0065751513
106	0x3a24ec6a	0.0006291332
107	0x3c9beea1	0.019034686
108	0xbbd24d55	-0.00641791
109	0x3b884a97	0.0041592824
110	0xbb7b9264	-0.0038386816
111	0xbb0e80a1	-0.002174415
112	0x3cc8ec65	0.024526784
113	0x3984d0ee	0.00025332667
114	0xbc09be3d	-0.008407173
115	0xbc29da1d	-0.010366944
116	0xbc288043	-0.010284486
117	0x3bbd796d	0.0057822973
118	0xbbc7eed4	-0.0061014686
119	0xbbbfae29	-0.005849619
120	0xbbbdfc1c	-0.005797876
121	0xbc0e3fbb	-0.008682187
122	0xbc28ad9c	-0.010295298
123	0x3cdf156d	0.027231896
124	0x3b2744db	0.0025523219
125	0x3d5801e9	0.052736197
126	0xbb96064d	-0.004578388
127	0x3b3abff6	0.0028495765
128	0x39cd8b19	0.00039204283
129	0xbd84b550	-0.06479895
130	0xbbec217e	-0.007206141
131	0xbb38252e	-0.0028098333
132	0xba03fd1a	-0.00050349685
133	0x3b31b0c4	0.0027113417
134	0xbe41f9db	-0.18942969
135	0xbb2deef2	-0.0026540128
136	0xbb299d98	-0.0025881287
137	0x3cf4669b	0.029834082
138	0x3b845a78	0.004039105
139	0x3b166ad6	0.0022951863
140	0x3900f7ee	0.00012299392
141	0xbbde0a25	-0.0067761117
142	0xbd1adc14	-0.03780754
143	0xbae10aa5	-0.001716931
144	0xbb7b739a	-0.0038368464
145	0xba1c3e8f	-0.00059602497
146	0xbd2ba8cc	-0.041909024
147	0xbaa0e24d	-0.0012274474
148	0x3b5651b8	0.0032702517
149	0x3b2fa332	0.0026800153
150	0x3d32d41b	0.04365931
151	0x3b457e01	0.0030134919
152	0x3b911f03	0.0044287457
153	0xbc4d211e	-0.012520103
154	0x3d6490d6	0.05580219
155	0x3b8ec947	0.00435749
156	0xbb05867f	-0.0020374355
157	0x3bb8537b	0.005625186
158	0xbd406023	-0.046966683
159	0x3bbf43e2	0.0058369497
160	0xbaae87c7	-0.0013315611
161	0x3b2d21fb	0.002641796
162	0xbb2c88f0	-0.0026326738
163	0xbde0e9f5	-0.10982124
164	0x3b509bf1	0.003183123
165	0xbd8a4d2e	-0.06753002
166	0x3ac0a3d9	0.0014697268
167	0xbbf5519b	-0.007486535
168	0xbd854e8f	-0.065091245
169	0xbac183ff	-0.0014764069
170	0x3c159b83	0.009131315
171	0x3b97d3c9	0.004633401
172	0x3bb26e61	0.005445287
173	0xba45e27b	-0.0007548702
174	0x3bbdaed5	0.005788664
175	0x3bb8be8e	0.0056379503
176	0x3b04a5d8	0.0020240452
177	0xbd2ae1f0	-0.041719377
178	0xbba576b5	-0.0050495514
179	0x3bd51599	0.006502819
180	0x397e9268	0.00024277868
181	0xbc642944	-0.013925854
182	0xbd91dd39	-0.07122273
183	0xbe129f55	-0.14318593
184	0xbb84beda	-0.0040510716
185	0x3b2f5ff3	0.002676007
186	0xbcbec87d	-0.02328896
187	0xbdaf534f	-0.08560812
188	0x3ce7e15b	0.0283057
189	0x3dab5cec	0.08367333
190	0xbb702908	-0.003664555
191	0xbc84768e	-0.016169813
192	0xbe0428d4	-0.129062
193	0xbdb84b73	-0.08998766
194	0x385df098	5.2914576e-05
195	0xbd70987d	-0.058739174
196	0x3b92837a	0.0044712396
197	0x3c07170b	0.00824524
198	0xb9c9b306	-0.0003847109
199	0xbe07c91b	-0.1326031
200	0x3ce2e2e8	0.027696088
201	0xbabdc25f	-0.0014477483
202	0x3b0257dd	0.0019888796
203	0xbb9c56ca	-0.0047710882
204	0xbb7fbbfa	-0.0039021955
205	0xbb71ed3b	-0.0036915082
206	0xbb7b8699	-0.0038379787
207	0x3c816b05	0.015798101
208	0x3c9f8726	0.019473623
209	0x3d5caa04	0.053873077
210	0xba8b7508	-0.0010639736
211	0x3b922642	0.004460127
212	0x3d300e8f	0.042982634
213	0xbd7ac795	-0.061225493
214	0xbd376e56	-0.04478296
215	0xbd261161	-0.040543918
216	0xbce4daa3	-0.027936285
217	0x3b6a605b	0.0035762999
218	0xbb0eb6ee	-0.0021776515
219	0x3ba09e9c	0.00490172
220	0x3b472f7c	0.0030393293
221	0xbbe365a2	-0.006939606
222	0x3a0fe98e	0.00054898195
223	0xbdcd38df	-0.10020613
224	0x3dc923f5	0.098213114
225	0x3bbc638e	0.0057491725
226	0xbd6b291e	-0.05741226
227	0x3d2b033c	0.04175113
228	0xbb24aca3	-0.0025127314
229	0x3b59396e	0.0033145803
230	0x3b07b1bc	0.0020705303
231	0x3a92fbd0	0.0011213962
232	0xbb86d581	-0.004114807
233	0x3b2525c7	0.002519952
234	0xbb96df74	-0.0046042744
235	0xbcbafe66	-0.022826385
236	0x3bfd7b6c	0.0077356603
237	0x3b9fe5c0	0.0048796833
238	0xbba4acc0	-0.005025476
239	0xbbd5e357	-0.006527345
240	0xbac9a671	-0.0015384686
241	0x3ac15a12	0.0014751574
242	0xbb6fdd45	-0.0036600393
243	0xbb193664	-0.0023378367
244	0xbb154caa	-0.002278129
245	0x3b9d20ff	0.004795193
246	0x3af66b33	0.0018800258
247	0xbafaf8c1	-0.0019147621
248	0xb8bf7966	-9.130202e-05
249	0xbac18c8b	-0.0014766617
250	0xbbb20f6b	-0.005433967
251	0xbd7eb5e4	-0.062185183
252	0x3bb247df	0.0054406966
253	0xbd1e13a6	-0.038592957
254	0x3b2c9df9	0.0026339276
255	0x3b7fbccd	0.0039022446

network_body.linear_encoder.seq_layers.0.bias f4 [128]
0	0xbeab572d	-0.33464947
1	0xbe928a82	-0.28621298
2	0xbdb102d8	-0.086431205
3	0xbd9b2f02	-0.075773254
4	0xbd6bfa2a	-0.057611622
5	0xbdcb38b3	-0.09922924
6	0xbea2f4c9	-0.3182738
7	0xbde3daf5	-0.11125747
8	0xbdb64537	-0.088999204
9	0xbea94ca4	-0.33066285
10	0xbd8e73ca	-0.06955679
11	0xbe9216da	-0.2853306
12	0xbe5c0d8c	-0.21489543
13	0x3d864520	0.06556153
14	0x3e984bd2	0.29745346
15	0x3e0c2268	0.13685
16	0xbe0980e6	-0.13428077
17	0xbdbf04e8	-0.09327108
18	0x3e551cc4	0.20811754
19	0x3c4f4ad4	0.012652118
20	0x3dd7046c	0.1049889
21	0x3cd222d6	0.025651377
22	0xbe213d1a	-0.15745965
23	0xbde11cdc	-0.109918326
24	0xbebde9f4	-0.37092555
25	0x3d2a1f56	0.04153379
26	0xbe894282	-0.26808554
27	0x3d1c4b06	0.038157485
28	0x3dbad620	0.09122872
29	0xbdf1b6b8	-0.11802429
30	0xbe3fbd0c	-0.1872446
31	0xbdbc4320	-0.091924906
32	0x3ce9c264	0.028535075
33	0x3e7462b6	0.2386578
34	0xbe058364	-0.13038403
35	0xbe5777c8	-0.21041787
36	0xbe85b45e	-0.26114172
37	0x3e8cf767	0.27532503
38	0x3be97020	0.007123962
39	0xbead9b87	-0.3390772
40	0x3ebe8f91	0.37218907
41	0xbe7bde94	-0.24596626
42	0x3d15cdd7	0.036573257
43	0xbe38a54d	-0.18031807
44	0xbd5e5fea	-0.05429069
45	0xba36727b	-0.0006959808
46	0xbd9e6181	-0.07733441
47	0x3df262ca	0.11835249
48	0xbe8b3ef0	-0.27196455
49	0x3acc697d	0.0015595403
50	0xbe4996ae	-0.19686386
51	0xbbd7c1d1	-0.006584384
52	0x3dc485de	0.09595846
53	0xbe82edc6	-0.25572032
54	0xbd85451c	-0.06507322
55	0xbe8d23ca	-0.27566367
56	0xbe1b3d39	-0.15160073
57	0x3e075a3e	0.13218018
58	0xbe584d83	-0.21123318
59	0xbe08b82e	-0.13351509
60	0xbda3c525	-0.07996587
61	0x3dd03ce0	0.10167861
62	0xbc58cd39	-0.013232523
63	0xbdf33d3a	-0.118769124
64	0xbd7b39c0	-0.06133437
65	0xbee1ded8	-0.4411533
66	0xbdb317f6	-0.087448046
67	0x3cb472bf	0.022027371
68	0xbddcfa3e	-0.107899174
69	0x3e3126ca	0.17299953
70	0xbe1b0987	-0.15140353
71	0xbe1b097d	-0.15140338
72	0xbe497a81	-0.19675638
73	0xbe4af889	-0.19821371
74	0xbde927e3	-0.11384561
75	0x3daab65e	0.08335565
76	0xbe853c7b	-0.26022705
77	0xbda9e4d7	-0.08295601
78	0xbd803a5f	-0.062611334
79	0xbe331822	-0.17489675
80	0xbe6204f4	-0.22072202
81	0x3e69656d	0.22792597
82	0xbce6bedb	-0.028167179
83	0xbbd3f9a3	-0.006468968
84	0xbd613896	-0.054985605
85	0xbd509f5c	-0.050933227
86	0x3d30ed7e	0.04319524
87	0xbe2fbdcb	-0.17162244
88	0xbdf59b8b	-0.11992558
89	0xbd4153c0	-0.04719901
90	0xbeae0b27	-0.33992884
91	0xbd465685	-0.048422355
92	0xbea1c5d1	-0.31596234
93	0xbd1413a4	-0.036151543
94	0xbd88c32e	-0.066778526
95	0x3db3e6c5	0.0878425
96	0xbe2bee97	-0.16790234
97	0x3c8376bf	0.016047833
98	0x3d999408	0.07498938
99	0x3d9ff204	0.07809833
100	0xbe3016b7	-0.17196165
101	0xbb25ae66	-0.0025280952
102	0xbb06b9f0	-0.0020557605
103	0xbd2be2aa	-0.04196421
104	0xbe2fca71	-0.17167069
105	0xbd28760f	-0.041128214
106	0xbd9ca112	-0.07647909
107	0xbe889064	-0.2667266
108	0xbe9cfd04	-0.30661786
109	0xbd9389e0	-0.07204032
110	0xbd0a5115	-0.033768732
111	0xbe02a1a2	-0.1275697
112	0xbe72ccb7	-0.23710905
113	0x3bf741a3	0.0075456663
114	0x3d7f8ec5	0.062392015
115	0x3d39b0d1	0.04533464
116	0xbe177bb6	-0.14793286
117	0xbe60cfa0	-0.21954203
118	0xbd417ae2	-0.04723633
119	0xbe557ec5	-0.2084914
120	0xbcb1759b	-0.021662524
121	0xbd6725dd	-0.056432594
122	0x3c5e54ac	0.013569992
123	0xbe344e52	-0.17608002
124	0xbe657417	-0.22407566
125	0xbc94486a	-0.018100936
126	0x3d50f5ba	0.051015593
127	0xbd743e4c	-0.059629723

network_body.linear_encoder.seq_layers.0.weight f4 [128, 4]
0	0xbe0ac48d	-0.1355154
1	0x3e511264	0.20417172
2	0x3d80dfc9	0.06292684
3	0x3f58ff58	0.84764624
4	0x3decc766	0.1156147
5	0x3d806226	0.0626872
6	0xbc23e1f7	-0.010002605
7	0x3ef76627	0.48320124
8	0x3e575797	0.21029507
9	0x3c39bffc	0.011337277
10	0x3d7ed288	0.062212497
11	0xbe4661c7	-0.19373237
12	0xbe2b98d2	-0.16757515
13	0x3e0b2d62	0.13591531
14	0x3e45923f	0.1929407
15	0xbe368c89	-0.17827047
16	0xbde69945	-0.112597026
17	0xbe51033a	-0.20411387
18	0x3f08db36	0.5345949
19	0x3fc53aea	1.5408604
20	0xbe067ec9	-0.13134302
21	0xbce696be	-0.028148051
22	0x3f017818	0.50573874
23	0xbec4e10b	-0.38452944
24	0xbbe349aa	-0.0069362717
25	0x3f228f5c	0.635
26	0xbe1e8e30	-0.15483928
27	0xbea57b5a	-0.32320672
28	0xbe1c23f0	-0.15248084
29	0x3e2870ec	0.16449326
30	0x3e5df608	0.21675885
31	0xbe6d41e6	-0.2316967
32	0xbf0f0548	-0.55867434
33	0x3dda0519	0.106455036
34	0x3ef87534	0.4852692
35	0xbdaf813a	-0.0856957
36	0x3fc5c68c	1.5451217
37	0x3f7cd116	0.9875654
38	0x3ece9820	0.40350437
39	0x3dbbd283	0.09171011
40	0x3f249f95	0.64306
41	0x3f92f094	1.1479669
42	0xbf11f938	-0.570209
43	0xbeeb849b	-0.45999607
44	0xbd6e6b8d	-0.058208037
45	0x3f124f1a	0.5715195
46	0xbe8839eb	-0.26606688
47	0xbe993d24	-0.2992946
48	0x3d1ea50b	0.038731616
49	0x3e842a87	0.25813696
50	0x3db14e8f	0.08657562
51	0x3f545827	0.8294701
52	0x3dee0a9b	0.116231166
53	0xbd237e9f	-0.039915677
54	0xbe0be90d	-0.1366312
55	0x3da07612	0.0783502
56	0x3f6aa782	0.91661847
57	0xbe4f515e	-0.20245883
58	0xbefaf3ed	-0.49014226
59	0x3d29a6aa	0.04141871
60	0xbea1dfbf	-0.31616017
61	0x3f512407	0.816956
62	0x3f4d3449	0.80157906
63	0xbf6f9621	-0.93588454
64	0x3ec6df1d	0.38842097
65	0x3e6cfd7a	0.23143569
66	0xbe56df60	-0.20983648
67	0x3ebae73f	0.36504552
68	0x3c917456	0.017755669
69	0x3caa26c7	0.020770444
70	0xbe61ec44	-0.22062784
71	0x3f1c6507	0.61091655
72	0x3ea39ef5	0.31957212
73	0xbe029763	-0.12753062
74	0xbf2917cc	-0.66051936
75	0xbf423667	-0.7586426
76	0x3cf8464c	0.030306958
77	0xbc260880	-0.0101338625
78	0xbd1779d5	-0.036981422
79	0xba3e43a3	-0.00072580035
80	0x3e45d922	0.19321111
81	0x3e0928b7	0.13394438
82	0xbea75e2f	-0.32689044
83	0xbe6279b7	-0.22116743
84	0xbe6358f1	-0.22201897
85	0xbf589e43	-0.8461649
86	0x3e7b03d8	0.24513185
87	0x3d2d388f	0.042290267
88	0xbf4651db	-0.7746865
89	0xbf268491	-0.6504603
90	0x3e236771	0.15957429
91	0x3f191814	0.59802365
92	0xbe1b3019	-0.15155067
93	0xbc40fa1b	-0.01177838
94	0x3e219820	0.15780687
95	0x3c83ead1	0.01610318
96	0xbde6b0fc	-0.11264226
97	0x3e45bfaf	0.19311403
98	0x3ed1ce85	0.40977874
99	0x3ead9a2b	0.33906683
100	0x3d38a321	0.045077447
101	0xbdbc3fc4	-0.0919185
102	0xbdc1aba0	-0.09456563
103	0x3e2ace4b	0.16680257
104	0xbf897d43	-1.0741352
105	0x3e50d26f	0.20392774
106	0xbe1bbba6	-0.15208301
107	0xbec5eb4f	-0.3865609
108	0x3e952d14	0.29135954
109	0x3d87abec	0.06624588
110	0xbe854d6e	-0.26035637
111	0xbe5ab193	-0.21356802
112	0x3e2cae0e	0.16863272
113	0xbe8205b1	-0.25394967
114	0xbf0ff194	-0.56227994
115	0x3f1439ad	0.57900506
116	0xbeac5b9f	-0.3366365
117	0xbe0d7e27	-0.13817655
118	0x3e227c74	0.15867788
119	0xbee3c956	-0.44489545
120	0xbf2b4400	-0.66900635
121	0x3ec9e460	0.3943205
122	0x3eeff737	0.46868297
123	0x3e6c391c	0.2306866
124	0x3e5b71d4	0.2143014
125	0x3e8769f8	0.26448035
126	0xbe9acfc9	-0.30236652
127	0x3e865894	0.26239455
128	0x3e579bc0	0.21055508
129	0x3c8b924a	0.01703753
130	0xbe5d3e44	-0.21605784
131	0xbc510c32	-0.012759255
132	0x3e2a6580	0.16640282
133	0x3e791484	0.24324232
134	0xbf35e704	-0.71055627
135	0xbf22ff39	-0.6367069
136	0x3f085857	0.53259796
137	0xbdadceb5	-0.08486692
138	0xbd919272	-0.0710801
139	0xbcfcdb0a	-0.030866165
140	0xbf2b4bec	-0.6691272
141	0xbde06b25	-0.10957936
142	0x3efe8b19	0.49715498
143	0xbd674dea	-0.05647079
144	0xbe91cbc2	-0.28475767
145	0xbe13c740	-0.14431477
146	0x3e2354fe	0.1595039
147	0xbe82637d	-0.2546653
148	0x3eb0c172	0.34522587
149	0xbc6ab169	-0.014324524
150	0xbed3b52d	-0.41349164
151	0xbe323de6	-0.17406425
152	0xbba750ce	-0.005106068
153	0x3c0886ac	0.0083328895
154	0xbc91a7d3	-0.01778022
155	0x3bf9d100	0.0076237917
156	0x3f1ef7be	0.62096775
157	0xbe687e07	-0.22704326
158	0x3e153fa3	0.14575057
159	0xbe838ae3	-0.256919
160	0x3ea5c13d	0.32373992
161	0xbdaa8877	-0.0832681
162	0xbea90ec0	-0.33019066
163	0xbe4a3a2c	-0.19748753
164	0xbc5a5625	-0.0133262025
165	0xbf10d91f	-0.565813
166	0xbe228515	-0.1587108
167	0x3eb3bf30	0.35106802
168	0x3f1b6d2e	0.6071347
169	0x3e29c4b6	0.16578946
170	0xbf0931fc	-0.53591895
171	0x3f894023	1.0722698
172	0xbde16223	-0.11005046
173	0x3e5dd1d3	0.21662073
174	0x3f2869d2	0.6578647
175	0x3de2cd86	0.11074357
176	0xbe164ef0	-0.1467855
177	0x3d07b127	0.03312793
178	0x3e01b4af	0.12666582
179	0xbd5b1fe4	-0.05349721
180	0x3c753527	0.014966286
181	0x3cb65646	0.022257935
182	0x3b46ccdc	0.0030334508
183	0xbca77a31	-0.020444008
184	0xbe270c15	-0.16313203
185	0x3bb516b8	0.00552639
186	0x3e5277c1	0.20553495
187	0x3ba1238a	0.0049175667
188	0x3e1d6252	0.15369537
189	0x3db908ae	0.09034859
190	0xbe44c4f4	-0.19215757
191	0xbe6a3fae	-0.22875854
192	0xbe5c5a3c	-0.21518797
193	0x3e56ef91	0.20989825
194	0x3eb45c60	0.35226727
195	0x3d65b3a3	0.056079518
196	0x3ed244a2	0.41067988
197	0xbec40a04	-0.3828889
198	0xbef7e842	-0.48419386
199	0xbde30471	-0.110848315
200	0xbe0b74e1	-0.13618805
201	0x3e95db7e	0.29269022
202	0x3e55cdc0	0.20879269
203	0xbe958d4a	-0.29209358
204	0xbbd89951	-0.0066100736
205	0xbbc395aa	-0.005968769
206	0x3b92a18a	0.0044748234
207	0xbbfb081d	-0.0076608793
208	0x3f4262cb	0.75931996
209	0x3e0ff731	0.1405914
210	0xbf348f1f	-0.70530885
211	0xbc87367b	-0.01650547
212	0xbee81af7	-0.45333073
213	0x3d4c04fd	0.049809445
214	0x3ee69df6	0.4504239
215	0xbeb4b19f	-0.35291764
216	0x3ebf9c7c	0.37424076
217	0x3e944d9b	0.28965458
218	0x3f0038bb	0.50086564
219	0xbf1d6601	-0.6148377
220	0xbeec31cd	-0.46131745
221	0xbe76a454	-0.24086124
222	0x3e8e6c4e	0.27817005
223	0xbf036679	-0.51328236
224	0xbdc1557c	-0.09440133
225	0x3f0b0b04	0.54313684
226	0x3f292be5	0.660826
227	0xbd8282f7	-0.06372636
228	0x3e389d3f	0.18028735
229	0x3c96027c	0.018311732
230	0xbe3e9e5b	-0.18615095
231	0xbd6093e2	-0.054828532
232	0xbfa2979f	-1.2702521
233	0x3d456886	0.048195384
234	0x3e052989	0.13004126
235	0xbe43d7f6	-0.19125351
236	0xbea1f6af	-0.31633517
237	0x3ccbc1ea	0.024872739
238	0x3eab6f07	0.33483145
239	0xbd2dfaf5	-0.04247566
240	0x3ed34102	0.41260535
241	0x3dc6151b	0.09671994
242	0xbe144104	-0.14477926
243	0x3f43fd06	0.7655796
244	0xbe999996	-0.2999999
245	0x3ed2c923	0.4116908
246	0x3ec25455	0.37954965
247	0xbf5a3c50	-0.8524828
248	0xbbedb68c	-0.0072544273
249	0xbc217d7a	-0.009856576
250	0x3c86f285	0.016473064
251	0xbc007fab	-0.007842938
252	0x3e09282d	0.13394232
253	0xbf23ecf6	-0.6403345
254	0x3e799d3d	0.24376388
255	0x3dfe68f5	0.12422363

network_body.linear_encoder.seq_layers.2.bias f4 [128]
0	0xbd9a4e33	-0.075344466
1	0xbeaa7d58	-0.33298755
2	0xbdaffc98	-0.085931
3	0xbd8fcad4	-0.07021108
4	0xbc6e2105	-0.01453424
5	0x3bc1d46c	0.0059152152
6	0xbe8d541d	-0.27603236
7	0xbd498145	-0.049195547
8	0xbc99a768	-0.018756583
9	0xbdfb25ca	-0.12263067
10	0xbd20d0a3	-0.03926147
11	0xbd0381b5	-0.03210612
12	0x3af44e07	0.0018638977
13	0x3c0e8a94	0.008700032
14	0xbe266206	-0.1624833
15	0xbd4eee11	-0.050520007
16	0xbb8f31fe	-0.004369973
17	0xbc949a77	-0.01814006
18	0xbe119212	-0.14215878
19	0xbd771eeb	-0.06033222
20	0xbab55832	-0.0013835488
21	0xbc88dc6d	-0.01670667
22	0xbe72b787	-0.23702823
23	0xbdb925bc	-0.090404004
24	0xbcbea0c3	-0.023270017
25	0xbe48abf8	-0.19596851
26	0xbe7a811e	-0.24463317
27	0xbbb1b1bb	-0.0054227985
28	0x3cc9313c	0.02455961
29	0x3c7ee184	0.015556697
30	0xbe5534d3	-0.20820932
31	0x3cba0c8e	0.022711065
32	0x3b49b645	0.0030778807
33	0xbd113cef	-0.0354585
34	0xbd0b8980	-0.034066677
35	0xbf0f278f	-0.55919737
36	0x3c2862b7	0.010277442
37	0xbe35cd64	-0.17754132
38	0xbda7ad21	-0.081873186
39	0xbd1e9e77	-0.038725343
40	0xbf1caf72	-0.6120521
41	0xbbad8ee4	-0.005296575
42	0xba7ccb75	-0.00096433546
43	0xbce1f12c	-0.02758082
44	0xbd03402d	-0.032043625
45	0x3d85c2f0	0.06531322
46	0xbc17a75d	-0.009256211
47	0xbc4db031	-0.012554214
48	0x3ac58114	0.0015068376
49	0xbd089a30	-0.03335017
50	0x3bde6066	0.006786394
51	0xbe3fc060	-0.18725729
52	0xbd33c7d5	-0.043891747
53	0xbd32f3cf	-0.043689545
54	0x3d99eba4	0.07515648
55	0x3e035908	0.12826931
56	0xbc65de5b	-0.014030064
57	0xbd910e39	-0.07082791
58	0x3e271e95	0.1632026
59	0xbd8c5fc1	-0.06854201
60	0xbe9af605	-0.30265823
61	0xbe61356b	-0.21993034
62	0xbd90a514	-0.07062736
63	0x3da5c533	0.080942534
64	0xbe540b45	-0.20707424
65	0xbd09cc06	-0.033641838
66	0xbd0b0386	-0.033938907
67	0x3dab5cc3	0.08367302
68	0xbce10a1b	-0.027470639
69	0x3ce0b4d8	0.027429983
70	0xbd2d604d	-0.042328168
71	0xbd965dd3	-0.07342114
72	0xbe9796b1	-0.29607156
73	0xbd92e14e	-0.0717188
74	0xbc957641	-0.018244864
75	0xbcff949e	-0.031198796
76	0xbd9b0580	-0.075694084
77	0x3c3f242c	0.011666339
78	0xbb03ecc5	-0.002013014
79	0xbe79f48a	-0.2440969
80	0xbe5aadc1	-0.21355344
81	0xbe0ef420	-0.13960314
82	0xbd1b11f6	-0.037858926
83	0x3cffa383	0.031205898
84	0xbddc7c9f	-0.10765957
85	0xbe19b108	-0.15008938
86	0xbe23db3f	-0.16001604
87	0xbe5e4955	-0.21707661
88	0xbf2b66e3	-0.6695387
89	0xbc3b57c7	-0.011434502
90	0x3c182843	0.009286943
91	0xbe21c5a9	-0.15798058
92	0xbea88d8b	-0.3292049
93	0x3dd3eccf	0.10347902
94	0xbd52ddb6	-0.05148097
95	0xbf0da7cd	-0.5533417
96	0xbe266402	-0.16249087
97	0xbb67c055	-0.0035362442
98	0x3e4a48a1	0.19754268
99	0xbe8c9025	-0.27453724
100	0x390bbbfa	0.000133261
101	0xbc5b5f69	-0.013389447
102	0xbd0ccb10	-0.034373343
103	0xbdf28b28	-0.11842948
104	0xbdb09e8b	-0.0862399
105	0x3d72f6a6	0.059317254
106	0xbd06932f	-0.03285521
107	0x3ca8d5bd	0.02060973
108	0x3cdd57f0	0.02701947
109	0xbd25460c	-0.040350005
110	0x3ce28b4f	0.027654318
111	0x3ca96e63	0.02068252
112	0x3dd6d340	0.104895115
113	0xbd207aaf	-0.0391795
114	0x3cb3d7b4	0.021953441
115	0x3d2aa3b2	0.04166002
116	0xbb2c2e22	-0.0026272614
117	0xbd06fca9	-0.0329558
118	0xbcac15e7	-0.021006538
119	0xbd0d45d8	-0.034490436
120	0x3c82908f	0.015938072
121	0xbd7863da	-0.0606421
122	0xbc758975	-0.014986386
123	0xbd285abb	-0.041102152
124	0x3d198f39	0.037490103
125	0xbe45effc	-0.19329828
126	0xbdf17328	-0.117895424
127	0xbbb48539	-0.0055090454

network_body.linear_encoder.seq_layers.2.weight f4 [128, 128]
0	0xbd12af06	-0.035811447
1	0x3b91ba9b	0.004447294
2	0xbda9064f	-0.082531564
3	0x3d6f468e	0.058416896
4	0xbdc12e3a	-0.09432645
5	0x3d54d1b1	0.05195779
6	0xbdcff969	-0.10154993
7	0x3dc2a571	0.09504212
8	0xbe1fc4bb	-0.1560239
9	0xbc484454	-0.012223322
10	0xbd54eb7f	-0.0519824
11	0x3ba6f544	0.005095156
12	0x3d2117f4	0.039329484
13	0xbdc935c3	-0.09824707
14	0x3e121da7	0.14269124
15	0x3d9e9e6e	0.07745062
16	0x3c5754a9	0.013142743
17	0xbe1097a5	-0.14120348
18	0xbdd51ceb	-0.10405906
19	0x3d7d4d91	0.06184155
20	0xbe2c69f8	-0.16837299
21	0x3dbb7a78	0.091542184
22	0x3d9e8a5c	0.07741234
23	0x3c5f889e	0.013643412
24	0xbcd21b56	-0.0256478
25	0xbe030b07	-0.12797175
26	0x3c2381f8	0.009979717
27	0xbc95597e	-0.01823115
28	0x3c0d1472	0.008610832
29	0xbd17765a	-0.036978103
30	0xbdcf9a97	-0.101369075
31	0x3dab8817	0.083755665
32	0xbc82a641	-0.015948417
33	0x3c032700	0.008004904
34	0xbe094417	-0.1340488
35	0x3e200f5b	0.15630858
36	0xbda3efa6	-0.08004694
37	0xbdcd21e7	-0.10016232
38	0xbc737829	-0.014860191
39	0xbe436c66	-0.1908432
40	0xbd0b017d	-0.033936966
41	0xbc8c06f0	-0.017093152
42	0xbce70b32	-0.02820358
43	0xbdefa04d	-0.11700497
44	0x3d1fe96e	0.039040975
45	0xbc1ff838	-0.00976377
46	0xbdd6dda8	-0.10491496
47	0x3dde820f	0.108646505
48	0x3d43fc89	0.04784826
49	0xbdd034e4	-0.10166338
50	0xbbf6979b	-0.007525397
51	0x3c6da291	0.014504091
52	0xbe58013e	-0.21094224
53	0xba845555	-0.0010096232
54	0xbdd05587	-0.10172563
55	0x3dd75924	0.10515049
56	0xbd04b2d4	-0.032397106
57	0x3dcf455c	0.10120651
58	0xbb32191a	-0.0027175606
59	0x3b7c7ffa	0.0038528428
60	0x3dda1588	0.10648638
61	0x3df0d37f	0.1175909
62	0x3d935d9a	0.071955875
63	0x3d4b5c70	0.049648702
64	0xbce24bdd	-0.027624065
65	0xbc0d6a5a	-0.008631313
66	0xba357259	-0.0006921641
67	0x3d8860f1	0.06659115
68	0x3d7c94d8	0.061665386
69	0x3d9b48fc	0.0758228
70	0xbdf66e22	-0.12032725
71	0x3d230b9b	0.03980599
72	0x3db6c8ca	0.08925016
73	0x3dcaf770	0.09910476
74	0xbdceca8b	-0.10097226
75	0x3a5db9e2	0.00084581797
76	0xbd13cbb8	-0.036082953
77	0xbde38ff4	-0.11111441
78	0x3d39b6c2	0.045340307
79	0xbba51852	-0.0050382996
80	0x3d543a64	0.0518135
81	0xbc9862ba	-0.018601764
82	0x3e39aaac	0.18131512
83	0xbd0bfcf9	-0.0341768
84	0xbd107e53	-0.035276722
85	0x3e37e177	0.17957102
86	0xbd359d41	-0.044339422
87	0xbc1a1e25	-0.009406601
88	0xbd1af794	-0.037833765
89	0x3dc9ff72	0.098631755
90	0xbc1c6ceb	-0.009547452
91	0xbca4cf71	-0.020118447
92	0xbd41e303	-0.047335636
93	0x3cad3c56	0.021146934
94	0xbc9fe350	-0.01951757
95	0xbae96512	-0.001780661
96	0x3d16aeab	0.03678767
97	0xbdedede7	-0.11617642
98	0x3e185dec	0.14879578
99	0x3d57a87a	0.052650906
100	0x3d89e3a1	0.0673287
101	0xbda44fab	-0.08023008
102	0x3d699f72	0.057036825
103	0x3cec840c	0.028871559
104	0x3dbeb646	0.0931211
105	0x3d146bd7	0.036235657
106	0x3db20acb	0.08693465
107	0xbe03390d	-0.12814732
108	0xbd47742e	-0.048694782
109	0x3e00f82d	0.12594672
110	0xbcd706c0	-0.026248336
111	0xbd882736	-0.06648104
112	0xbd6df376	-0.05809351
113	0xbdced184	-0.10098556
114	0xbdf71c8a	-0.1206599
115	0xbca14dc6	-0.019690406
116	0xbd89cd3a	-0.06728597
117	0xbdccbf3a	-0.09997411
118	0xbb47caed	-0.0030485943
119	0xbdc599e3	-0.09648492
120	0xbd972503	-0.07380106
121	0x3db71604	0.08939746
122	0xbdbe2679	-0.09284682
123	0xbd8f603f	-0.07000779
124	0x3ddd1f87	0.10797029
125	0x3d99433e	0.074835286
126	0x3e134e68	0.14385378
127	0xbd9a1a99	-0.07524604
128	0xbe189e1e	-0.14904067
129	0x3d19935e	0.037494056
130	0xbe31e8ca	-0.17373958
131	0xbe1a7d28	-0.15086806
132	0x3d461265	0.048357386
133	0xbe87223d	-0.2639331
134	0xbd9ea1d0	-0.07745707
135	0xbdfcc8e7	-0.123430066
136	0xbe398217	-0.18116032
137	0xbe0d34d7	-0.13789688
138	0xbde181b9	-0.11011071
139	0xbe3f6e30	-0.18694377
140	0xbe948726	-0.2900936
141	0xbd3b13e1	-0.045673255
142	0x3d0d3b53	0.034480404
143	0xbf3d078d	-0.73839647
144	0xbd8262bd	-0.06366489
145	0xbda3817a	-0.0798368
146	0xbc7d6af5	-0.015467395
147	0xbd69a19a	-0.05703888
148	0xbe1757ff	-0.14779662
149	0x3bbb3d69	0.005714108
150	0x3e93cac9	0.2886565
151	0xbd87e45c	-0.06635353
152	0xbd93aea4	-0.072110444
153	0x3c15bbdc	0.009139027
154	0xbe0076da	-0.12545338
155	0x3d7856eb	0.060629766
156	0xbdb01a19	-0.08598728
157	0xbda556cf	-0.08073198
158	0xbe9df845	-0.30853477
159	0xbe2eb279	-0.1706027
160	0xbd85f596	-0.065409824
161	0xbe8348fd	-0.25641623
162	0x3e3de35e	0.18543765
163	0xbe2198eb	-0.1578099
164	0xbdbac70f	-0.09119999
165	0xbe2b9ccd	-0.16759034
166	0x3df6c637	0.12049525
167	0xbd0a21d2	-0.03372366
168	0xbe36ef03	-0.17864613
169	0x3db3ee19	0.08785648
170	0xbd7c4b67	-0.061595347
171	0xbe5e5129	-0.21710648
172	0xbe2f99ec	-0.1714856
173	0x3d8d1099	0.068879314
174	0xbbda3f2b	-0.0066603622
175	0xbe153d12	-0.14574078
176	0xbd0b3da5	-0.033994336
177	0xbca75a3b	-0.020428767
178	0xbd5402e8	-0.051760584
179	0xbe2a7765	-0.16647108
180	0x3d2d115d	0.042252887
181	0xbe79fe29	-0.2441336
182	0xbe8a4028	-0.27002072
183	0xbe1aa460	-0.15101767
184	0xbea7a238	-0.3274095
185	0xbdf304ba	-0.11866136
186	0xbc966e35	-0.018363098
187	0xbe6e3cec	-0.23265427
188	0xbd2ebafc	-0.04265879
189	0xbea2f26a	-0.31825572
190	0x3c72dd4d	0.01482327
191	0xbc79c125	-0.015243803
192	0xbd922967	-0.07136803
193	0xbe1be3d8	-0.15223634
194	0xbd50d4d3	-0.050984215
195	0xbcf0f42d	-0.029413307
196	0xbc20a0c6	-0.009803956
197	0xbd9d6eda	-0.07687159
198	0x3e547129	0.20746292
199	0xbd56c94b	-0.05243806
200	0xbd477373	-0.048694085
201	0xbe3867bc	-0.18008322
202	0xbd189705	-0.0372534
203	0xbc861999	-0.016369628
204	0x3dc3f6b5	0.0956854
205	0xbdaca29b	-0.08429452
206	0xbc94559e	-0.018107232
207	0x3e34ee99	0.17669143
208	0xbe3666b5	-0.17812617
209	0x3d343f4e	0.044005685
210	0xbea60a64	-0.32429802
211	0x3e76de96	0.24108347
212	0xbd0c3445	-0.034229536
213	0xbe212f16	-0.15740618
214	0xbd9f3aa9	-0.077748604
215	0x3e49178c	0.19637889
216	0xbd377844	-0.04479243
217	0xbe35903d	-0.17730804
218	0xbe7d05e3	-0.24709277
219	0xbee2e59b	-0.443158
220	0xbc0c1c1d	-0.008551625
221	0xbe864c90	-0.26230288
222	0xbe30128b	-0.17194574
223	0xbce758c1	-0.028240563
224	0x3c842d0b	0.01613476
225	0x3dfd53f9	0.12369532
226	0xbd495e9a	-0.049162485
227	0x3c7d3755	0.015455087
228	0xbea32310	-0.31862688
229	0x3dd51dde	0.10406087
230	0x3e008676	0.12551293
231	0x3d6a100b	0.057144206
232	0x3e2b8af5	0.16752227
233	0x3d070b29	0.032969628
234	0xbda7187c	-0.08158967
235	0xbdc2a639	-0.09504361
236	0xbe06f04b	-0.13177602
237	0xbbca1762	-0.006167338
238	0xbe062dc6	-0.13103399
239	0xbe4e7477	-0.20161615
240	0xbe4565ea	-0.19277158
241	0xbe22e43d	-0.15907378
242	0xbf0c5cee	-0.548293
243	0xbe5bba92	-0.2145789
244	0xbe8e0d77	-0.27744648
245	0xbe84b7af	-0.2592139
246	0xbe0d3f14	-0.13793594
247	0x3ba37a42	0.0049889395
248	0x3bf29a62	0.007403658
249	0x3d0c1c32	0.034206577
250	0x3d6d757d	0.057973374
251	0x3e1d178d	0.15341015
252	0xbdb108d0	-0.08644259
253	0x3de61e92	0.112362996
254	0xbd2efa9b	-0.042719465
255	0xbef1641e	-0.47146696

network_body.vector_processors.0.normalizer.running_mean f4 [4]
0	0x3fc1fe54	1.515574
1	0x3cd20a61	0.025639715
2	0xc0497676	-3.1478553
3	0x3fb9c761	1.4513971
