ml-agents-master/ml-agents/config/results/ppo/LineCreator/LineCreator-414114.pt (torch, 434231 bytes, 40 tensors)

network_body.vector_processors.0.normalizer.running_mean f4 [4]
000000 a3 e0 1e 41 f3 46 51 40 51 54 92 c0 28 a2 46 3f
       9.929843 3.2699554 -4.5727925 0.7759118

network_body.vector_processors.0.normalizer.running_variance f4 [4]
000000 13 3c c7 42 95 16 3b 41 d6 24 a6 4b 3f 31 2f 4a
       99.61733 11.693013 2.1776812e+07 2.8703518e+06

network_body.linear_encoder.seq_layers.0.weight f4 [128, 4]
000000 36 67 49 3f 30 bd 44 bf 29 5d b7 bc cf 2e 1b 3d
       0.7867311 -0.7685118 -0.02238329 0.037886437
000010 f6 93 07 bd ec d0 92 3f 19 73 7c bf 4a e5 2c bf
       -0.03310009 1.1470008 -0.98613125 -0.6753737
000020 f0 85 2f bf 4a 38 d1 3d a3 ce 0f bf dd ea 7f be
       -0.6856375 0.102158144 -0.5617468 -0.24991937
000030 fb df 2a 3f 07 c7 7c bf 26 60 6a bf d0 aa 49 bd
       0.6674802 -0.9874119 -0.9155296 -0.049235165
000040 e1 6a 9a be 2a 4a 01 bf e8 8f a2 3e 30 e7 d5 3e
       -0.30159667 -0.5050379 0.31750417 0.41777945
000050 ff c4 a1 bc c2 c0 22 be a3 8f 15 3f a3 76 7c 3e
       -0.019747255 -0.15893844 0.584223 0.24654631
000060 1e f4 16 3e 8a 2b ad be 1f ba 2d bb c7 76 f0 bb
       0.14741561 -0.3382228 -0.0026508642 -0.007338378
000070 41 5e d0 3e 81 bd 8b 3e 89 8f 67 bc 5a 68 66 3c
       0.4069691 0.27293018 -0.014133343 0.014062965
000080 d9 5e ae bd e3 7b f2 be 71 ca ed be 4c 43 0c bd
       -0.085141845 -0.47360143 -0.46443513 -0.034243867
000090 e9 f8 44 bf 80 cd 08 bd 9d b4 26 3e a1 48 2f bf
       -0.76942307 -0.033399105 0.16279836 -0.684702
0000a0 3e c2 e0 3e 36 44 68 3e 3b fe 18 3f b9 c6 1b 3f
       0.43898195 0.2268227 0.59762925 0.608501
0000b0 df 63 ef be 04 33 f9 3d 2e 13 d7 be 70 4e 05 3f
       -0.46755883 0.121679336 -0.4200682 0.5207281
0000c0 8a 6a e3 3e 25 3c 74 3e c4 28 a6 be 55 c5 43 3e
       0.4441722 0.23851068 -0.32452977 0.19118245
0000d0 6c 36 5c bd c6 0a 57 3e 62 9d 5d be ec e3 03 be
       -0.05376284 0.21000203 -0.21642068 -0.12879914
0000e0 cd 17 fc bd 4e 38 d0 3e 71 18 bb be 52 d2 b5 be
       -0.12309227 0.40667957 -0.36542085 -0.35512024
0000f0 a6 eb 6e be 67 6c 0c bf 6d 36 b8 3d f9 d7 af bd
       -0.2333208 -0.5485291 0.08994756 -0.085861154
000100 80 68 11 bd 33 fa 31 3f cc 25 8f 3e ea 98 1c 3e
       -0.03550005 0.695224 0.27958524 0.15292707
000110 d0 0b 01 be 52 8a 10 3f fc 90 a7 3d 7e 59 03 3e
       -0.12602162 0.5646106 0.081819504 0.12827107
000120 5c c7 20 3e c1 11 92 3d 3e 4b a7 3d 6e 9e d4 3d
       0.1570105 0.071322925 0.08168648 0.103817806
000130 9b 7e 7b be 83 f9 66 be 0f d6 13 bd 56 a0 d3 3f
       -0.24560015 -0.22556119 -0.036092814 1.6533306
000140 91 78 8b be 54 39 36 bf ee 73 23 3f 5f 6b fe bd
       -0.27240422 -0.71181226 0.6384877 -0.12422823
000150 e0 a9 33 bf f7 6c 7d be 5d 9a fa bc ca a9 8e be
       -0.70181084 -0.24748598 -0.030591184 -0.27863914
000160 c0 12 2b bf 2b fc c3 be 9d 76 2b 3c 4b 73 82 3a
       -0.66825485 -0.38278326 0.010465291 0.0009952573
000170 51 4a 12 be b2 4c 2a bf f6 4d e7 be 8d 03 ce 3d
       -0.14286162 -0.6652328 -0.45176667 0.10059271
000180 d9 65 7f bf 1d 88 59 bd 8f 19 55 be cf 66 4b 3f
       -0.9976478 -0.053108323 -0.20810531 0.7945375
000190 bb 8f 3a be 27 80 bb 3d 28 4c 9d bc 6d 82 cc bd
       -0.18218891 0.091553025 -0.019201353 -0.09985814
0001a0 3a 18 44 3f 5f d2 33 3f f9 73 c0 3e a5 49 e6 3e
       0.76599467 0.70242876 0.3758848 0.4497806
0001b0 e8 02 37 3f 06 0e 2f 3e 90 a5 ea 3c 97 a6 40 3d
       0.7148881 0.17095193 0.0286434 0.047033872
0001c0 78 3a 35 3d 0f a2 72 3f fa dd 4c 3f 51 74 1d be
       0.044245213 0.9477853 0.8002621 -0.15376402
0001d0 3a 46 a3 be 27 3b 37 bf a2 2a 13 3e 6a 11 3f bf
       -0.31889516 -0.71574634 0.14371732 -0.74635947
0001e0 b7 b0 89 bf 69 bc 12 bf cf 1e da 3e fc ec ee 3e
       -1.0757054 -0.5731874 0.4260163 0.4666518
0001f0 c7 f3 6d 3f d3 51 83 3e 35 b1 5f be 2d 3d 98 bd
       0.929501 0.25648364 -0.21844943 -0.07433543
000200 42 8a b2 3e 53 5c 29 3f 7e 14 f9 bd 28 7b 29 be
       0.34871107 0.661565 -0.12162112 -0.16550887
000210 db b4 7b bb 9c 4d e2 bf 3c 31 11 be 74 4d 5d bd
       -0.0038407359 -1.7679935 -0.14178938 -0.054028943
000220 f0 f0 95 bd f2 11 f7 bd 19 c2 2f 3f 8e f2 22 bf
       -0.07321346 -0.1206397 0.68655545 -0.6365136
000230 73 2d d4 3e d7 75 3c be 74 6f 79 be cf 3b 99 be
       0.41440925 -0.18404327 -0.24358922 -0.29928443
000240 fc f0 83 be 64 0d 82 3e 14 75 6d 3e 4d 87 f1 3e
       -0.25769794 0.2540084 0.23189193 0.4717354
000250 9f 9b b9 3e e7 cb d4 be d1 15 27 bf 20 73 a3 be
       0.36251542 -0.41561815 -0.65267664 -0.3192377
000260 eb e2 03 bd 8f 88 86 3d 60 69 3c be 5b fe bc 3e
       -0.032198828 0.06569015 -0.18399572 0.36912808
000270 8b e1 44 3f 25 fc 08 bf 9a 36 88 bf 33 9e b5 3d
       0.7690665 -0.5350974 -1.0641663 0.08868065
000280 b5 7a 36 be e4 c8 b7 3e 26 85 65 3e b1 85 00 3d
       -0.17820247 0.35895455 0.22414073 0.031377498
000290 49 eb 3f 3f e9 2a 17 3e ec 37 d8 be 08 9e 8d be
       0.7496839 0.14762463 -0.42230165 -0.2765963
0002a0 76 b4 2e 3e e7 9d a2 3e 3e 80 11 be 36 06 24 3f
       0.17061028 0.31761095 -0.14209077 0.6407198
0002b0 dd 0c ca 3e a0 1b 5f be 16 1b d6 3c 53 d2 e2 3d
       0.3946294 -0.21787882 0.026135962 0.110752724
0002c0 51 c9 f1 bc aa 24 c9 3e be 65 4f be 3a 53 ba bd
       -0.02951494 0.39285785 -0.20253655 -0.090979055
0002d0 17 04 26 3f d2 c3 87 3f 5c d5 14 bf b7 bc b6 3e
       0.6484999 1.0606635 -0.5813806 0.35690853
0002e0 7a 18 45 bf 92 6c 20 3d 50 96 2c 3e 56 0c 47 3d
       -0.76990473 0.03916604 0.16854215 0.04859575
0002f0 6d 6f bc 3e 88 a6 e4 3e 7b 7b 7c bc fe b9 c2 bd
       0.3680376 0.44658303 -0.015410299 -0.095081314
000300 71 cf 89 be 61 a7 a7 bd 73 d9 28 3e a8 87 6e 3e
       -0.26916078 -0.08186222 0.164892 0.23293936
000310 d1 5d 02 be 09 fb aa 3d 16 41 d8 bd a0 c8 7d bd
       -0.127311 0.083486624 -0.10559289 -0.06195891
000320 d3 5a 89 be ee cf ae 3e c2 74 bb bc 34 db a5 bb
       -0.26827106 0.34143013 -0.022882823 -0.0050615314
000330 ed ac d5 3e 8e 27 3a bf e3 3c a3 3c 26 a6 01 bf
       0.41733494 -0.72716606 0.019926494 -0.5064415
000340 47 86 19 bf 05 4c 02 be c3 85 4d 3d cd 25 7f be
       -0.59970516 -0.12724312 0.050176393 -0.24916764
000350 36 98 1e 3e 43 38 26 bf 41 95 ef bd d4 d6 e3 bd
       0.15487751 -0.649296 -0.1169839 -0.111249596
000360 8a a7 5f be e9 fa 0b 3f c6 5b 09 bf 71 91 36 be
       -0.21841255 0.54679734 -0.5365566 -0.17828919
000370 35 ea 80 be 8a f2 9f 3e 42 a7 8b be 0f dc d4 3d
       -0.25178686 0.3123973 -0.27276045 0.10393535
000380 c0 e4 20 bf 5e f2 6d be db f8 8f bb 16 98 b5 bb
       -0.62849045 -0.23236987 -0.0043936796 -0.0055418117
000390 a4 05 eb 3e ff 13 f6 be 36 ef 96 3e 11 83 b2 3f
       0.4590274 -0.4806213 0.29479378 1.3946248
0003a0 5d fe ea 3e 7c 17 1f bf 0d d0 0e bf af 6c 97 be
       0.4589719 -0.6214521 -0.5578621 -0.29575107
0003b0 8e 95 06 bf 4c b8 c3 be 09 50 ea bd 8d 2e db bd
       -0.5257195 -0.38226545 -0.11441047 -0.10702238
0003c0 72 8f 45 bf 37 04 90 bf 3e ce 82 3d 70 1b 1f bd
       -0.77172005 -1.1251286 0.06386994 -0.038844526
0003d0 13 d2 14 be 29 1a 36 bc 01 b6 0e 3d d9 49 cc 3e
       -0.14533262 -0.0111146355 0.03484154 0.3990009
0003e0 86 d4 23 3e 98 da 63 be 56 c4 36 3f 8d cf ff 3d
       0.1599904 -0.22251356 0.71393335 0.12490759
0003f0 90 12 1a 3f ca 54 f3 be 99 ed 35 3f 0a bc 00 bf
       0.60184574 -0.47525626 0.7106567 -0.50286925

network_body.linear_encoder.seq_layers.0.bias f4 [128]
000000 be 80 b4 3d 55 59 72 3d 20 9b 5e bd 26 7b 32 be
       0.08813618 0.059167225 -0.054347157 -0.1742979
000010 7e 41 22 be 7f b4 1e 3d c2 8d 25 bc 36 e5 89 3d
       -0.15845296 0.038746353 -0.0101045985 0.06733172
000020 7c b2 e4 3c 7d 0f 12 be f3 69 15 be a5 14 04 be
       0.02791714 -0.14263721 -0.14591198 -0.128985
000030 7f 47 ce 3d 40 79 2a bd 9e 52 20 be fb 89 ce bd
       0.100722305 -0.04161954 -0.15656516 -0.100849114
000040 4e 4b 21 bd af 9c fa bd 18 9a b1 bb 5a 39 76 bd
       -0.039378457 -0.12236916 -0.0054199807 -0.06011329
000050 4d c2 06 be 5c eb 99 bd df be b3 3c 7d 76 31 be
       -0.13160057 -0.07515594 0.0219416 -0.17330356
000060 41 48 57 be 41 8c 2a be 4d 09 fc bd df 3c 36 bd
       -0.21023656 -0.16655065 -0.123064615 -0.044491645
000070 4b de c6 bd c6 33 3a be a6 80 38 be dc fb 20 3e
       -0.09710368 -0.18183812 -0.18017825 0.15721077
000080 12 fe 11 bd 02 25 82 be da 4c 58 be 80 39 21 bd
       -0.03564269 -0.2541886 -0.21123067 -0.039361477
000090 66 89 85 bd b3 c1 38 be 03 a5 fc bd 81 ff d2 3c
       -0.06520347 -0.1804264 -0.12336161 0.0257566
0000a0 ce 11 15 be 8a 3f b3 3d 06 45 0d be f4 1e e2 3d
       -0.14557573 0.087523535 -0.13795862 0.1104106
0000b0 0a e0 e8 bd a0 82 a0 bb 81 25 1f be 71 27 b1 3d
       -0.11370857 -0.004898384 -0.1554165 0.08650101
0000c0 21 23 61 b9 98 9c 45 bd 3d 39 85 bc 27 8d 4d be
       -0.00021470759 -0.048245043 -0.016262645 -0.20073377
0000d0 f1 08 bb bd 56 e8 6b 3d c3 a7 eb 3d 03 16 7a 3d
       -0.09132565 0.05759462 0.115066074 0.06105615
0000e0 03 85 60 3b 43 a2 34 be cf 40 20 be f9 02 24 be
       0.0034258969 -0.17640023 -0.15649723 -0.16016759
0000f0 3f 06 2b be fe 22 39 3c 68 c0 93 bd ec f0 d3 bd
       -0.16701601 0.011299847 -0.07214433 -0.103486866
000100 26 43 cd bd fc 07 3d be 43 e9 31 be 4c 83 18 3e
       -0.10022573 -0.18460077 -0.17374139 0.14893836
000110 ad 9a 93 3d dc ab 21 be 4b 73 76 bd 55 63 be be
       0.072072364 -0.15788215 -0.060168546 -0.3718516
000120 27 d8 b1 3d 83 ec 7a be 2b d2 96 bd 23 7a ee bd
       0.08683806 -0.24504285 -0.07364305 -0.116443895
000130 5a a0 cf bd ea fd 3e be 57 b8 e7 3b 0d 98 83 be
       -0.101380065 -0.18651548 0.0070715356 -0.25701943
000140 a4 7a 35 be 25 98 4f bd b0 72 99 3b f2 9c fb bd
       -0.17722565 -0.050682206 0.0046828613 -0.12285794
000150 7f 11 88 be 24 f7 fe 3c b2 cc 9a bd bd ca e1 3d
       -0.26575848 0.031123705 -0.07558574 0.110249974
000160 68 49 1c be 83 40 75 bc 3f eb 2c 3d fa 05 be 3a
       -0.15262377 -0.014968994 0.042216536 0.0014497631
000170 e6 42 fb 3b eb a5 19 bd 1f 8a 6f be 9c 34 28 bd
       0.007667887 -0.037511747 -0.23392533 -0.041065797
000180 55 43 c7 bd f8 e2 87 be 8e ef f1 bd 73 f3 d1 bd
       -0.097296394 -0.2654035 -0.118132696 -0.102515124
000190 90 ea 1d be 99 81 4b 3b 83 9f ec bd 9a 16 02 3c
       -0.1542151 0.0031052588 -0.11553862 0.007939959
0001a0 d6 e9 37 be e9 ff 5e bc f2 91 bd 3d 00 63 53 be
       -0.17960295 -0.013610818 0.092563525 -0.20643234
0001b0 1c 5d d6 bd 8a ec 83 3d 50 26 8a be 07 e6 14 be
       -0.10466978 0.064416006 -0.26982355 -0.14540873
0001c0 23 68 43 be 23 b5 1e bd 61 c9 2f be 59 ed 9a bd
       -0.19082694 -0.038746964 -0.17166664 -0.07564802
0001d0 65 9a 09 be 61 b4 88 be 88 d1 a9 bd d8 81 88 3d
       -0.13437803 -0.26700118 -0.08291918 0.06665391
0001e0 5e b4 01 3e 70 b7 e3 bd 0f ba fc bd 5b 3d 71 be
       0.12666461 -0.11118972 -0.12340175 -0.23558562
0001f0 6e 96 84 be 3d fd d0 bd 06 37 9f 3c 91 77 26 be
       -0.2589602 -0.10204551 0.019435417 -0.16256548

network_body.linear_encoder.seq_layers.2.weight f4 [128, 128]
000000 0c e7 85 3d 4b a0 a5 3b 93 33 4d bd d0 98 7e bc
       0.06538209 0.005054509 -0.050098013 -0.015539363
000010 b1 88 09 bd 13 14 c0 3c 9d d0 23 be df 1e f2 bc
       -0.033577625 0.023447072 -0.15997548 -0.029555736
000020 43 5f a8 bd b2 1b 74 bd 7c 2d f0 3d 6b da 97 3d
       -0.08221295 -0.059596725 0.117274255 0.07414707
000030 a0 5d e3 3d 70 22 37 bb f1 8f 02 bc 0c 9f 03 3e
       0.11101842 -0.002794411 -0.007968889 0.1285364
000040 4b 6c 0c be 51 af 42 be 26 08 cb bd a6 e2 e9 bd
       -0.13713185 -0.1901219 -0.099136636 -0.11420183
000050 07 2a ed bd f6 a9 c0 bd 9e fd 9f bc 29 aa 7c 3d
       -0.11580282 -0.094074175 -0.019530114 0.061685715
000060 62 d4 23 3d fc e0 76 bd b8 99 70 bc f4 0c b5 3d
       0.039997466 -0.060273156 -0.014685087 0.08840361
000070 d2 4e 4a bd cc 2a de 3d d4 17 27 be 64 ae 39 bd
       -0.049391575 0.108480066 -0.16317683 -0.045332327
000080 a2 09 a9 bd dc c9 46 be 54 30 87 3c fd ec 22 3c
       -0.082537904 -0.1941294 0.016502537 0.009944198
000090 bd 42 ca bc a9 43 37 bd a5 94 29 3d 7c 4b 73 3e
       -0.024690026 -0.04474226 0.041401524 0.23759264
0000a0 77 10 8d bd 68 91 df bc a6 de a1 3d 86 76 21 be
       -0.06887906 -0.027291015 0.07903795 -0.1576787
0000b0 9d c5 03 3e d6 75 3b be d0 4b 74 bd 87 b9 37 bd
       0.12868352 -0.1830667 -0.059642613 -0.044854667
0000c0 fe 05 59 bd aa dc 5a be f7 1d 31 3e 6b ec ad 3d
       -0.05298423 -0.21373239 0.17296587 0.08492359
0000d0 28 89 a0 bd a3 7f 84 3c 62 7b be bc 66 2b b1 bc
       -0.078386605 0.016174143 -0.023252193 -0.02162714
0000e0 b3 c0 95 3d a3 5b 07 3d d6 5d d5 3b b0 2f a2 bc
       0.07312145 0.033046376 0.0065114303 -0.01979813
0000f0 5a f5 94 3d 3c de 5a bd b0 9e 14 3c b6 f4 11 bd
       0.072733596 -0.053434595 0.009071037 -0.035633765
000100 54 7e fa bc 85 5c b0 3c 6b fe c2 3d 6a ff 33 3d
       -0.030577816 0.021528492 0.095211826 0.043944754
000110 d1 f7 55 3e b4 d5 27 bc e4 a9 62 bd bc 16 9c bd
       0.20895316 -0.010243822 -0.0553378 -0.07621524
000120 c7 a1 8f 3d f1 da 17 3e 61 b4 e5 bd 99 24 3a bd
       0.070132785 0.14829613 -0.11216045 -0.04544506
000130 80 a3 9e 3d a3 67 c9 bd c3 b3 22 bd 9f ce cd 3d
       0.07746029 -0.0983422 -0.039722215 0.100491755
000140 99 9c ae 3d 78 1a fc 3c ae 47 af bd 02 9c 23 be
       0.085259624 0.03077434 -0.08558594 -0.15977481
000150 a4 a9 b5 bc 67 e6 09 be 32 9d 4f bd c8 4b ed 3c
       -0.022175618 -0.13466798 -0.050687023 0.0289668
000160 b1 7c 18 bd fa f3 28 3e f3 89 02 3d c4 6b 44 3e
       -0.03722829 0.1649932 0.03186984 0.19181734
000170 9a f5 30 bc 92 d2 4a bd 4e 9e 6c 3d e5 59 46 bd
       -0.0108007435 -0.04951722 0.05776816 -0.048425574
000180 5b 35 49 bc e9 98 c7 3d 7c f7 87 bd 81 0f 94 bd
       -0.012280787 0.09745962 -0.06639001 -0.0722952
000190 34 8d 96 3d 15 29 70 3d 1f 6e 4b bd 27 16 82 3c
       0.07351151 0.05863293 -0.049665567 0.015879704
0001a0 52 d7 0e 3d e0 46 f0 3c 48 7a 1c 3e 95 09 fc 3d
       0.034873314 0.02933067 0.15281022 0.12306515
0001b0 fe d8 8d bb 7c b7 4f 3d 82 cf e7 3c 06 b2 b1 bd
       -0.004328846 0.050712094 0.02829719 -0.086765334
0001c0 82 f2 37 3e 45 dc e4 3d e0 33 0e 3d e5 67 6f bd
       0.17963603 0.111748256 0.03471744 -0.05844869
0001d0 2e 12 58 3d a1 2f fd 3b d6 a6 da 3d fa 85 aa 3c
       0.052751713 0.007726625 0.10676353 0.020815838
0001e0 ac e0 2b 3c c8 35 94 bd 80 36 95 3e b3 58 53 bd
       0.010490578 -0.072368205 0.29143143 -0.051598262
0001f0 e0 85 1b bc 65 60 4c 3c 70 2c 0b be f1 4c 4a be
       -0.0094923675 0.012474154 -0.1359117 -0.19755913
000200 04 43 65 3e dc ec 6a 3e 20 2d a8 bd 77 c4 80 bd
       0.22388846 0.22941917 -0.08211732 -0.06287473
000210 bb 6e 0a be b3 61 dc bd 14 a0 36 bd 99 88 b6 3d
       -0.13518803 -0.10760822 -0.044586256 0.08912773
000220 98 ed a2 bc 7e 4a a2 bd 90 e4 8f be 50 63 ad bd
       -0.019888684 -0.079243645 -0.28104067 -0.08466208
000230 0e d3 d9 bc bc fe 44 bd 4c f2 de bd 92 07 14 be
       -0.026589897 -0.048094496 -0.10886058 -0.14456013
000240 5c c5 ca bd 76 55 ee bd 48 da 9d 3d ea 6d 75 be
       -0.099009246 -0.11637394 0.077076495 -0.2396771
000250 8f 4b 40 bd f8 4b 00 bc 61 ff 32 bc a5 b7 06 bd
       -0.04694706 -0.007830612 -0.010925145 -0.03288998
000260 e9 e4 fb bd 66 a6 a5 bd e8 30 27 be b2 2e 28 bc
       -0.122995205 -0.080883786 -0.1632725 -0.010265039
000270 65 aa 75 be e4 e3 03 be 60 8b 2d be a4 44 6b 3d
       -0.23990782 -0.12879902 -0.16947699 0.057438508
000280 60 35 43 3b f8 2c 13 3e 1f 7f 9b be d5 a6 05 3e
       0.0029786453 0.14372623 -0.30370423 0.13051923
000290 19 48 bd bd 57 ff e6 bd d9 e9 9f be f8 7a 2a bd
       -0.09242267 -0.11279171 -0.312331 -0.04162118
0002a0 43 23 1c be 22 c3 e5 3d f4 79 e1 bd 19 26 0f 3c
       -0.15247826 0.11218859 -0.11009589 0.0087371105
0002b0 1a 9d 05 3d 95 4d 62 bd 12 66 0d be 34 0c 10 bd
       0.032620527 -0.05524977 -0.13808468 -0.035167888
0002c0 e4 93 15 bd 49 48 a0 bc 7d 8f a9 bd 4b 71 3f be
       -0.036517993 -0.019565718 -0.08279321 -0.18695562
0002d0 2e 3c 96 bd 5a 78 84 3d d5 b2 13 3e 77 a1 9b 3c
       -0.07335697 0.06468268 0.14423688 0.01899789
0002e0 b0 6b 89 bc 73 34 3e be a5 9c 77 bc 20 3c b0 3b
       -0.016774982 -0.18574695 -0.015113031 0.005378261
0002f0 de 6f 28 3d d4 2b 21 3c 11 40 9d be e2 dd 19 be
       0.04112231 0.00983711 -0.3071294 -0.15026048
000300 5d 57 9f be 16 af 03 be 0a 7e c7 3b 5e 8f 68 3e
       -0.3112134 -0.12859759 0.006088023 0.2271094
000310 d8 4b 5a 3d 93 12 40 be 55 b2 e0 bd 88 69 87 bd
       0.053294986 -0.18757086 -0.10971514 -0.06611925
000320 7b d2 dd 3d a3 00 77 3c 65 2f ed bd 45 a6 86 be
       0.108311616 0.015075835 -0.115813054 -0.2629873
000330 f2 e3 f8 bd 95 fd 08 be 47 8d 15 bd 6d 96 52 be
       -0.12152852 -0.13377984 -0.036511686 -0.20565195
000340 ae 81 fe bd c0 dd 18 3d f4 e2 ca bd 47 c2 ca 3d
       -0.12427078 0.037320852 -0.09906569 0.09900337
000350 33 e5 cb be 2b 6c 32 3d 52 30 56 bd 9d 2c a0 3e
       -0.39823303 0.04356019 -0.052292176 0.31284037
000360 23 21 48 be 8d 64 0c 3d 81 4d b2 3d 1d bc 2d bd
       -0.1954389 0.03427558 0.08706189 -0.042415727
000370 3b fa e1 3c 9b c0 14 be d8 72 53 be 90 38 83 ba
       0.02758514 -0.14526598 -0.20649278 -0.0010011364
000380 66 d6 58 bd 81 8e 6c be 6a b7 5b be 1d 14 7b be
       -0.05293884 -0.23101236 -0.21456686 -0.24519391
000390 0c eb 6b 3d 36 ef 58 3d 73 95 53 bd 26 9a f0 3c
       0.057597205 0.052962504 -0.051656198 0.029370379
0003a0 e3 59 ac bd 4b 81 15 be 5c 15 f6 3d 0b db 8d bd
       -0.08415582 -0.14600103 0.12015793 -0.06926545
0003b0 64 96 82 bd 2a 74 8e 3d 2e a1 02 be 65 4d e1 bc
       -0.06376341 0.0695575 -0.12756798 -0.027502725
0003c0 ab 61 e6 bd ba f7 06 be fd ad 6e be a4 76 41 3e
       -0.112490974 -0.13180438 -0.23308559 0.18892914
0003d0 50 39 a4 bd bc 16 26 be 53 b7 24 be e2 20 f0 bd
       -0.08018744 -0.1621961 -0.16085558 -0.11725022
0003e0 fc d4 7a 3e a8 6a b7 bd 9e ee 8c bd a8 78 83 3d
       0.2449531 -0.0895589 -0.0688145 0.06419498
0003f0 1e 8e ac bd c8 74 0b bc 7b 2a df 3d c4 15 5e bd
       -0.08425544 -0.00851173 0.108967744 -0.054219976

network_body.linear_encoder.seq_layers.2.bias f4 [128]
000000 90 fd 66 bd ec f7 11 3e 5e 50 0b bd 1e fa e0 3d
       -0.05639416 0.14254731 -0.03401219 0.10985206
000010 fb bd 26 3d 98 16 e1 bc ac 89 68 be ba 57 a0 bd
       0.040708523 -0.027476594 -0.22708768 -0.078292325
000020 d7 58 09 3c 50 5f 22 ba f4 6a 99 bc 97 52 49 3d
       0.0083829975 -0.0006194012 -0.018727757 0.04915103
000030 30 fd a9 bc e6 c2 31 be 53 a1 f9 bc dc e4 c6 bc
       -0.020750612 -0.17359504 -0.030472433 -0.02427905
000040 34 93 e4 bb 2e dd aa be 2f 44 62 bd 06 e4 50 3e
       -0.006975556 -0.33371872 -0.055240806 0.20399484
000050 4c a5 a9 3d 19 24 03 be aa 03 21 3e 6a f2 b3 bd
       0.08283481 -0.12806739 0.15724054 -0.08786471
000060 12 98 25 bd 7b 0b 06 bc 33 0b 25 3d 2b 28 0b 3e
       -0.04042823 -0.008181448 0.040293884 0.13589542
000070 3f f7 7a 3a cc 26 e8 bd f7 7f ce 3b c6 be 0d 3e
       0.00095735857 -0.11335525 0.0063018757 0.13842306
000080 e9 4f 19 bd ed 3d 05 bd db 19 96 3d 05 c5 a9 bc
       -0.037429724 -0.03252976 0.0732915 -0.020723829
000090 c1 ba 59 3d d5 29 91 3c a7 b5 66 3b b4 b4 7f bc
       0.053156618 0.017720142 0.0035203488 -0.015607048
0000a0 b7 34 50 3d 0a cf ea bd bb 66 24 bc 77 87 e9 bd
       0.050831523 -0.11465271 -0.0100342585 -0.11402791
0000b0 26 00 96 be 63 d8 81 3e 1b 9a bc bc 2c e2 25 3c
       -0.29296988 0.25360402 -0.023022702 0.010124724
0000c0 22 a0 b9 3b 96 9c aa 3c 69 93 09 bc ce 37 18 bd
       0.0056648413 0.02082662 -0.008396962 -0.037162594
0000d0 6f fb 9d bc fe ac a5 3a 70 cf 80 bd 9c 8e 10 be
       -0.019284932 0.0012640057 -0.062895656 -0.14116901
0000e0 ea b1 85 bc c7 23 76 3b fa d0 10 bc fe 6a 7d bd
       -0.016320188 0.0037557946 -0.008838886 -0.061869614
0000f0 e1 6a a2 bb 45 b4 ae 3d 9e a6 fe 3d dc e1 d7 3c
       -0.0049565886 0.085304774 0.124341235 0.026352815
000100 b1 61 99 3c d3 b5 85 bd 45 5f ce 3d 1f f9 0d 3d
       0.01872334 -0.06528821 0.10076765 0.03466141
000110 09 6a f5 bc d6 18 18 be 39 e1 99 3b b1 41 03 3d
       -0.029957788 -0.14853224 0.004696038 0.03204507
000120 ce 1f 13 bd d5 7e 84 3d 3f fe 37 bd ea 0b 19 3d
       -0.035919003 0.06469504 -0.044920202 0.037364878
000130 11 6e 56 bc d3 33 c7 bc 01 d2 3b 3c 1f 70 b1 bc
       -0.013087765 -0.024316704 0.011463643 -0.021659909
000140 32 e9 4e bb b7 b9 b4 3c ef e5 ff bc da 43 c6 bd
       -0.00315721 0.022061212 -0.03123757 -0.096809104
000150 a0 24 c6 bd a9 97 be bc 53 04 89 bc 1f 47 f6 bc
       -0.096749544 -0.023265677 -0.016725695 -0.03006321
000160 92 5c 91 bd 5e 67 b4 bd c3 13 4a 3d 4e 2c d4 bc
       -0.070977345 -0.08808778 0.049335252 -0.025900032
000170 b5 77 c4 3b 8d eb cf bd e5 c6 42 bc aa 80 da 3c
       0.0059957155 -0.101523496 -0.01188824 0.02667268
000180 a1 0b b2 3d a4 52 22 3d 61 06 1c 3d 83 9a 5a be
       0.08693624 0.039629593 0.03809202 -0.21348004
000190 14 0c fc 3b e3 ac 31 3d 8d 94 53 3c 86 c8 55 bd
       0.0076918695 0.04337777 0.012913835 -0.052193187
0001a0 f3 96 c8 3b 4e 0e cd bc 29 c1 9a bc 3f 79 8d bd
       0.00612151 -0.025031235 -0.018890934 -0.069078915
0001b0 be 82 71 bc 7b 73 04 be f7 96 c8 bc 5b fb ae be
       -0.014740644 -0.12934677 -0.024486048 -0.34176144
0001c0 43 77 e0 3c 98 15 b3 bc 3a bd 05 3d c9 38 47 3d
       0.027400618 -0.021860883 0.032651164 0.04863814
0001d0 5c 0f 51 3b ed 16 3d be 86 ce 01 bd b6 6a cc bd
       0.0031900024 -0.18465777 -0.031691097 -0.09981291
0001e0 cf 5c e4 bc f7 6f 5a bd 69 5e fe 3c 40 54 a3 bc
       -0.027876286 -0.053329434 0.031050878 -0.019937634
0001f0 fb 3b b4 bb 24 1a 3d 3d 2b c3 14 bd 20 73 56 bd
       -0.0055003143 0.046167508 -0.03631894 -0.052355886

distribution.log_sigma f4 [1, 2]
000000 cf f2 15 be 38 42 70 be
       -0.14643405 -0.2346276

distribution.mu.weight f4 [2, 128]
000000 c3 eb 44 3b bc 36 09 3d ed d8 cf 3c 2a a2 2e ba
       0.0030047751 0.033499464 0.025371993 -0.00066617376
000010 cd ab 1e 3d 6d 1a d0 b9 29 56 7e 3c 3c d5 74 3b
       0.03873806 -0.0003969254 0.015523472 0.0037358543
000020 b0 72 bb 38 8e 7c bc b9 6c 28 5c 38 2d e8 0f 3a
       8.938217e-05 -0.00035950955 5.2489733e-05 0.0005489614
000030 67 35 c0 ba 41 84 b0 3d df 27 0e 3d d4 f5 ed 3b
       -0.0014664353 0.086189754 0.034705993 0.007261971
000040 5d 25 d6 3b e3 f7 93 3c 8c 40 12 ba 7b 0e 78 3d
       0.006535216 0.018062538 -0.0005579076 0.060560685
000050 4d 74 52 3d 9a 6c 75 be 95 d1 57 3c 1e 04 f1 3c
       0.051380444 -0.2396721 0.013172527 0.029420909
000060 f3 12 00 3d 48 1c 41 3a bf a6 f5 3c 88 7e 32 3d
       0.03126807 0.000736658 0.029986737 0.0435777
000070 60 e1 80 bb 36 af b5 3b 38 99 1f bd e7 24 d8 3c
       -0.003933117 0.0055445684 -0.03896448 0.026384784
000080 51 1a ec 3c 6e 96 b5 3a de 09 1c 3d e1 a1 b1 bc
       0.028821142 0.0013854036 0.038095348 -0.021683635
000090 4f 72 c3 3b 06 f9 6b 3b 8d 67 18 bb 0e 00 6d bb
       0.0059645544 0.0036006584 -0.002325508 -0.0036163363
0000a0 f1 1c 7c ba 7a 07 c7 3c c5 e8 11 ba 75 46 ee bc
       -0.000961735 0.024295557 -0.00055659964 -0.02908633
0000b0 0a b0 58 be ca 7b b3 3d d7 ae ed 39 89 49 12 3b
       -0.21160904 0.08763845 0.00045334428 0.0022321662
0000c0 33 ba 03 3d 05 ba 07 3a 47 b6 bb 3a e2 84 f4 3c
       0.032159995 0.00051775604 0.0014321291 0.02984852
0000d0 cd 06 a4 3b f2 ef 0e 3c 27 31 44 3a 48 8d 2f 3b
       0.0050056935 0.0087242 0.0007484131 0.002678709
0000e0 27 12 3e 3a 42 00 b8 3b 71 c3 f5 3a f2 0e 0e 3c
       0.000725063 0.005615265 0.0018750263 0.008670555
0000f0 af 87 b3 39 7a db aa 3b 1f 8c d2 3c 38 96 a3 3c
       0.00034242633 0.005214152 0.02570158 0.01996909
000100 42 3f 66 bb ca 0a 0d bb 82 4c 4a 3d e0 42 90 39
       -0.003513292 -0.0021521323 0.04938937 0.00027515646
000110 b5 71 14 3d 87 27 53 3a c5 e7 b5 3a d7 61 4d 3c
       0.036241252 0.0008054901 0.0013878277 0.012535534
000120 b4 8f 0a 3b d8 01 54 bb ec 4a 8d 39 d3 87 76 bb
       0.0021142783 -0.0032349732 0.00026949437 -0.0037617579
000130 aa 0d 18 3b d0 91 5a ba 05 b0 03 3d c3 b0 d8 3c
       0.0023201504 -0.0008337768 0.032150287 0.026451474
000140 df 4e df ba 72 86 54 bb 28 58 d8 3b a4 ea 01 3d
       -0.0017037055 -0.0032428768 0.006602306 0.03171791
000150 00 60 ce 3c d3 ca ef 3c a5 ec 16 3d ef 92 84 3b
       0.02519226 0.029271519 0.036846776 0.004045836
000160 71 19 13 3d a7 2f 8a b7 77 63 ed 3c 79 0c d8 3a
       0.035912935 -1.6473072e-05 0.028978093 0.0016483209
000170 e8 3c 93 bb 1d 6c 6d bb 51 28 ed 38 71 47 c6 3c
       -0.0044933446 -0.003622777 0.0001130855 0.024203988
000180 52 32 09 3d 18 1c ef 3c 75 a2 df bb 4d 62 8e be
       0.033495255 0.0291882 -0.0068247863 -0.27809373
000190 12 2e 1c ba c4 45 e2 3b 5d 10 88 3a 18 dc a7 bc
       -0.0005957793 0.0069052894 0.0010380853 -0.020490691
0001a0 e1 b2 eb 39 72 84 b9 3a fb df 82 ba 33 66 c1 bd
       0.00044955968 0.0014153852 -0.0009984964 -0.09443321
0001b0 2a b4 c0 3c e6 bd 18 3b 11 1b 90 3b fc 85 e9 bd
       0.023523409 0.0023306548 0.004397758 -0.114025086
0001c0 db 7f cb 3c 66 41 94 3b d3 ba a2 3a d7 87 13 b9
       0.02484124 0.0045243977 0.0012415297 -0.00014069617
0001d0 7d 54 86 3b 83 8f 86 be a4 ff 5f b9 41 5c ff 3b
       0.0040994273 -0.26281366 -0.00021362171 0.00779298
0001e0 ce ff f4 3c b7 f6 fe b9 72 55 9f 37 cc 3b 6d 3a
       0.029907133 -0.00048630472 1.8994066e-05 0.0009049743
0001f0 df cc 1b bc 59 07 c6 b9 af 87 a6 38 c1 68 f1 b9
       -0.009509294 -0.00037770977 7.94077e-05 -0.0004604515
000200 0b bf 4e 3b 23 20 74 bd 8e c0 68 bc 97 da 01 bd
       0.0031546976 -0.05960096 -0.014206065 -0.031702604
000210 4c 7d 7b bc 08 6d d3 3a c6 05 f2 3d 6c c3 b1 3b
       -0.015349697 0.0016130516 0.118175074 0.0054249074
000220 fb 7f 29 3b 43 da d3 3a d2 33 4e 3b e9 72 ca 3a
       0.0025863636 0.001616307 0.0031463993 0.0015445623
000230 d5 67 cd ba b2 38 07 3d a2 65 85 bc ea a0 90 3a
       -0.0015671203 0.033013053 -0.016283814 0.0011034284
000240 33 ef ef 3b 2c 8d 21 3d 3b f1 a6 bb 1d 77 11 be
       0.007322216 0.039441273 -0.005094675 -0.14205594
000250 53 ff c1 3b 9a 14 3b bd 62 7a ea bc 34 fb 7c bc
       0.0059203296 -0.045673944 -0.02862281 -0.015440751
000260 c7 7c 92 bc d0 5e 84 3b 58 8d 82 bc d8 dc 82 bc
       -0.017881764 0.004039623 -0.015936539 -0.015974447
000270 42 45 42 bb fb f8 69 3b 35 39 4f bb 96 1b dc bd
       -0.0029643332 0.0035701382 -0.0031619791 -0.10747449
000280 f7 69 7d bc a2 a6 1d 3b 3a 2f 1e bc b8 aa b2 bd
       -0.0154671585 0.002405562 -0.009654814 -0.08723968
000290 76 79 eb 3b df da d1 3b 96 5c 78 ba 37 9c 96 bb
       0.00718611 0.0064042653 -0.00094742456 -0.004596259
0002a0 ee e2 07 ba cd 15 2f bc 43 67 63 bb 39 35 d9 bb
       -0.00051836565 -0.01068635 -0.0034699 -0.006628659
0002b0 46 3b 96 3d 16 a5 dc bd c5 7c 52 3b c9 9d 9d 3b
       0.07335524 -0.10773675 0.0032117825 0.004810069
0002c0 f7 4d a9 bc 6b 8d 82 3b e8 80 9e 3a 64 cd 74 bc
       -0.02066706 0.0039841435 0.001209286 -0.014941547
0002d0 4f ec d9 3b ee 84 d7 3a 68 1a 06 ba c5 72 18 ba
       0.0066504846 0.0016442814 -0.0005115629 -0.0005815442
0002e0 f9 75 7f 3a b1 a4 91 3b 16 ed 8d 3a 24 55 d4 3b
       0.00097450573 0.0044446816 0.0010828103 0.006479876
0002f0 c1 12 2a 3b fd 10 ef bd 82 ae 8a 3c 25 75 8a 3c
       0.002595112 -0.11673162 0.016928915 0.016901562
000300 d8 24 43 bb 57 0f 94 bb a3 e3 1f 3a 5e 37 e6 b8
       -0.00297766 -0.00451843 0.0006099289 -0.000109775676
000310 71 eb 6f bc 28 4b c0 ba f4 af 50 3b db 86 b4 3c
       -0.014643536 -0.0014670836 0.0031843157 0.02203696
000320 16 ee 4c 3b d3 45 a4 bb bd 54 cc 3a d4 f8 86 bb
       0.003126984 -0.0050132065 0.0015589219 -0.004119018
000330 58 12 15 3b 68 26 40 3b 72 f0 88 bc 6a 2c a7 bb
       0.002274653 0.0029319767 -0.016716216 -0.00510173
000340 60 e2 8d b9 63 44 a4 ba 71 8e e9 3b 95 6e 55 bc
       -0.00027062278 -0.0012532588 0.007127576 -0.013026853
000350 0e c1 06 bc a1 30 73 bc ab 40 0d 3d f5 f8 84 3b
       -0.008224739 -0.014843137 0.0344855 0.0040579983
000360 e1 05 69 bc 34 df a7 ba b4 a9 53 bc f3 05 9a 3b
       -0.014222593 -0.0012807609 -0.012918878 0.0047004162
000370 f5 90 c0 bb 85 2a 30 bb 4d 22 53 3a 2d 02 16 bb
       -0.005876655 -0.0026880812 0.00080541224 -0.002288948
000380 80 f9 c6 3b 58 90 02 bc e8 87 8f bd 06 e0 05 3d
       0.006072223 -0.007968985 -0.07008344 0.03268435
000390 02 c0 ae 3a 61 72 4e 3c 0f c0 8c 3a f1 b3 3b bc
       0.0013332369 0.012600512 0.001073839 -0.011456476
0003a0 ba 92 26 3b 41 b4 a0 ba e1 81 9c 3a f9 44 1c bd
       0.0025417046 -0.0012260751 0.0011940562 -0.038151715
0003b0 ed 9c 1a bc f5 b4 0f 3a 67 5d b8 3b b3 79 6f 3d
       -0.009436828 0.0005481982 0.005626369 0.05846567
0003c0 bf 07 11 be 34 46 d8 3b 69 25 7b 3b 5e 22 58 3b
       -0.14163111 0.0066001657 0.0038321859 0.0032979469
0003d0 be 7b 8e 3b 03 35 9c ba a0 a5 a1 3a 22 ac 11 3c
       0.0043482473 -0.0011917654 0.0012332685 0.008891137
0003e0 9e 8d 89 bc 6b 3e 7e bb 7f 1f 40 3b af 71 83 3b
       -0.016791161 -0.0038794528 0.0029315648 0.004011355
0003f0 f2 56 c0 bd a2 e8 1d 3b 0b 1d 48 ba e2 a2 1c b9
       -0.093915835 0.0024094959 -0.0007633722 -0.00014937998

distribution.mu.bias f4 [2]
000000 f2 6f 22 3e ba c5 34 be
       0.15863016 -0.17653552

critic.network_body.vector_processors.0.normalizer.running_mean f4 [4]
000000 a3 e0 1e 41 f3 46 51 40 51 54 92 c0 28 a2 46 3f
       9.929843 3.2699554 -4.5727925 0.7759118

critic.network_body.vector_processors.0.normalizer.running_variance f4 [4]
000000 13 3c c7 42 95 16 3b 41 d6 24 a6 4b 3f 31 2f 4a
       99.61733 11.693013 2.1776812e+07 2.8703518e+06

critic.network_body.linear_encoder.seq_layers.0.weight f4 [128, 4]
000000 4d f7 11 3f 71 79 67 be 54 e7 26 3e 9a 03 a5 3e
       0.57017976 -0.2260492 0.16299182 0.3222931
000010 fe e9 f8 3d 2f ea 87 bd 86 b3 6d 3e 6e 3b 36 bf
       0.121540055 -0.06636464 0.23213014 -0.7118443
000020 57 74 85 bf e2 57 05 bf bd 01 8a be 4f 0e ef bd
       -1.0426129 -0.52087224 -0.2695445 -0.11672651
000030 25 d7 52 bc 91 88 da 3e 36 01 15 bf b4 9a 6c bf
       -0.012868677 0.42682317 -0.5820497 -0.9242356
000040 4b b5 a2 3f 19 ce 5c 3e a5 b7 84 bd 2e d6 d0 bd
       1.2711576 0.21562995 -0.0648034 -0.101971015
000050 d5 56 4f 3e 01 a4 69 3f d3 4b 44 be 5f 5e 12 be
       0.20247968 0.91265875 -0.1916955 -0.14293812
000060 c4 a8 15 bf 80 1f 87 bf a1 01 1f bc 74 48 b8 3b
       -0.5846064 -1.0556488 -0.009704978 0.0056238715
000070 5e 88 5a bf d7 32 b3 3d 55 f1 15 3e af 68 5b 3e
       -0.8536433 0.08749931 0.14642842 0.21426652
000080 4f 9a d7 be f3 56 19 3f e1 1a 3e bf 30 9e 50 bf
       -0.42109916 0.598983 -0.74259764 -0.81491375
000090 55 2e c4 be a0 de d5 be 2b f5 30 3f a2 27 65 3e
       -0.383166 -0.41771412 0.69124097 0.223784
0000a0 d5 c5 4a bd e0 63 19 bf 30 49 a5 3e cf b5 29 3f
       -0.049505074 -0.5991802 0.322824 0.6629304
0000b0 b9 cd f7 3e 9e 53 d2 3e f2 e0 ac 3d 7c 20 c4 3d
       0.4839914 0.4107942 0.084413424 0.095765084
0000c0 8f be b2 3e 78 6b 00 3f 58 fa 1d be bd 51 5c be
       0.3491101 0.50163984 -0.1542753 -0.21515556
0000d0 ab 6c f6 be ca 5f a1 3e 0c 74 a0 3e bc 5e c4 3e
       -0.48129782 0.31518394 0.31338537 0.38353527
0000e0 61 16 ac 3d 32 7e 21 3e 3f 2d 29 3f d7 62 cf 3e
       0.08402706 0.15770796 0.66084665 0.40505096
0000f0 22 a2 2b 3f cf c6 1d bd 6c 5a 0a 3e c2 1b 06 3f
       0.6704427 -0.038519677 0.13511056 0.52386105
000100 2f 46 0b 3f f9 6c 2a be 26 42 7f be d9 96 6a be
       0.54403967 -0.16643132 -0.24927577 -0.22909106
000110 e8 f3 18 bf 59 b6 76 bf b9 6f 5e be b9 13 74 3e
       -0.5974717 -0.9637199 -0.21722306 0.23835649
000120 8b 6d d0 3e 3d 57 b7 3d d3 43 93 bd f1 31 23 be
       0.40708575 0.08952186 -0.07190671 -0.1593702
000130 00 a6 69 3e 80 a2 93 be 7c c2 49 3e 99 e4 85 be
       0.2281723 -0.28834915 0.19703096 -0.2615097
000140 0b 05 2a bf 11 d4 06 3e 6a a1 15 3f 84 15 9b 3d
       -0.66413945 0.13166834 0.58449423 0.07572463
000150 5b 9f 63 bf 8d fe 31 3d 87 eb 12 bd 4b 90 fd bd
       -0.8891503 0.04345565 -0.035869148 -0.12381037
000160 2f 5c eb be 64 ce 6a bf e7 8a 1b bf ff a4 73 bf
       -0.45968768 -0.9172118 -0.60758823 -0.9517364
000170 af f6 7f bd f0 be f6 3e 70 06 9c 3e cf 1c 6d 3e
       -0.062491115 0.4819255 0.3047366 0.23155521
000180 40 ff 81 3e ef 94 20 3f 1d 08 75 3d 7c 14 60 3d
       0.25390053 0.62727255 0.05982219 0.054707035
000190 3f 1a 4c bf 07 f5 e1 3e 9f 6b 18 3d aa 8f 84 3e
       -0.7972755 0.44132254 0.03721201 0.25890857
0001a0 9d e6 40 bf e9 65 67 bf d9 1b b4 3e 52 f5 b4 3e
       -0.7535189 -0.9038988 0.35177496 0.35343415
0001b0 df 64 19 3c 2f 68 82 3d 21 17 b7 be 90 aa 99 be
       0.009362428 0.06367528 -0.35759833 -0.3001294
0001c0 7a 5e a8 be 32 a1 b2 be c6 1d f0 be 00 ec ae be
       -0.3288458 -0.34888607 -0.46897715 -0.3416443
0001d0 b6 dd b1 3e 10 ff 6c bf 10 89 05 3e 5e e0 00 3f
       0.34739465 -0.92576694 0.13040566 0.5034236
0001e0 d2 52 41 bf 5b d8 0d be ab 5a 17 3f 39 a6 0d bf
       -0.75517 -0.13852064 0.59122723 -0.5533176
0001f0 74 a5 bc bd 8d c7 07 bf 91 47 60 be e3 91 65 be
       -0.09211245 -0.53038865 -0.219023 -0.22418933
000200 00 4d 36 3d db b3 c5 3f 74 b1 83 3d 1a 0c 52 3c
       0.044507027 1.5445513 0.06430331 0.012820268
000210 a1 90 89 bf e8 26 10 bf d1 7f f2 3c 1a fe 49 3e
       -1.0747262 -0.56309366 0.029601963 0.19725838
000220 69 51 5b 3f ca 4c f3 3e a1 09 73 bd b6 a1 e8 be
       0.856711 0.47519523 -0.059335355 -0.45435876
000230 18 e4 3a bf 06 7b e7 be a7 56 8f 3e 61 a6 04 bf
       -0.73004293 -0.45211047 0.27995798 -0.51816374
000240 8a 4d 9e 3f 9e f9 2d 3e 57 19 e1 bc 70 ee ce bc
       1.2367413 0.16989753 -0.027477903 -0.02526018
000250 dd ae 29 3f c7 c1 8a be 17 18 66 3e 72 fb 90 be
       0.66282445 -0.27100965 0.22470127 -0.28316838
000260 76 ec 4e bd 52 1d 97 be 16 c3 c1 3d 05 fd fb be
       -0.050518475 -0.29514557 0.09461038 -0.49216476
000270 3b ac 2f bf f6 04 ac 3e 9b 34 2c 3e 95 a4 f9 3e
       -0.6862218 0.33597535 0.16816942 0.4875838
000280 d3 46 04 be 92 43 05 bf 3a 38 03 bf 37 28 b8 3e
       -0.12917642 -0.5205623 -0.5125767 0.35968181
000290 45 6e be be f3 e6 01 3e d3 0a 50 bf 6f df 01 3f
       -0.37193504 0.12685756 -0.81266516 0.5073156
0002a0 81 22 05 3f 9d bb cf bd 53 9e 00 bf bf 2e 39 3f
       0.52005774 -0.10143206 -0.50241584 0.72336954
0002b0 b0 67 f7 bd 1a 0f 39 bf df 77 0a 3f fd 2b 3c 3f
       -0.12080324 -0.7228867 0.5408916 0.7350462
0002c0 12 67 b2 3e 9c ca ed be 70 3f aa 3e a2 f0 98 3e
       0.3484426 -0.4644364 0.33251524 0.29871088
0002d0 e0 aa 3e bc 43 dd f8 bd aa 04 fb bd 0d 39 a6 3d
       -0.011637419 -0.12151577 -0.12256749 0.0811635
0002e0 2c 47 ec 3e ab 9f 19 be 96 82 85 3e 9b f1 e1 be
       0.4614805 -0.15002315 0.26076192 -0.44129643
0002f0 5b 45 9b 3f 46 6f 93 3e 66 16 90 bf d2 14 ef be
       1.2130541 0.28795832 -1.1256835 -0.46695572
000300 8a fa 9c 3f 37 da 2d 3f dc 38 4a bd 9d bd c9 bc
       1.2263958 0.67911094 -0.04937063 -0.024626547
000310 7b 8b c9 3c 05 e5 19 bf 04 4f c5 3d 3b d2 05 3e
       0.024602642 -0.6011508 0.09634212 0.13068478
000320 33 8c f2 be 67 ec 98 be 6c ff 20 3f 0d 52 3a 3f
       -0.4737259 -0.2986786 0.6288974 0.7278145
000330 ee f3 f9 bd d5 5f 1f be db 6c 3e bf 16 5c 4a be
       -0.12204729 -0.15563901 -0.7438485 -0.1976169
000340 ef 16 84 3e 83 23 c3 3e 2a 84 ac 3d ec 0f b6 3d
       0.25798747 0.3811303 0.08423646 0.088897556
000350 8c 55 0b 3f 4f fe 59 3e 87 d6 a3 be e8 aa 91 be
       0.5442741 0.21288417 -0.3199961 -0.28450704
000360 ac 56 ef 3c 37 5a 0b 3f df 99 37 3f ef a3 b9 3e
       0.029216133 0.5443453 0.71719164 0.36257884
000370 a5 87 74 bf 10 e0 96 3e 75 d0 33 3e 45 4d 18 3f
       -0.9551948 0.2946782 0.17559989 0.59492904
000380 fa 42 34 bf 46 26 8b 3e 6d 6f b4 3e c7 62 1d bf
       -0.704147 0.27177638 0.3524126 -0.6147885
000390 f0 67 46 3f 9d 70 46 3f d0 6b 9f be ad 3f ae be
       0.77502346 0.77515584 -0.31136942 -0.34032956
0003a0 d5 2d 8c be b2 57 f4 be ec 8d bb be 65 d0 b7 3c
       -0.27378717 -0.47723156 -0.36631715 0.022438237
0003b0 fa 45 e4 be 6e 79 cc be 25 c6 ad 3d d4 91 10 bf
       -0.44584638 -0.39936393 0.08485059 -0.56472516
0003c0 8c bc e8 3d 8c 50 e8 be 99 9f 24 3e 07 d6 2e 3e
       0.113640875 -0.45373952 0.16076507 0.17073832
0003d0 f2 0d e0 bd 01 37 23 3e 33 66 e9 3c 33 e1 a4 bc
       -0.1094016 0.15938951 0.028491115 -0.020126915
0003e0 03 7a b2 be 30 18 c6 bd 73 1c 80 bc e0 66 0b 3e
       -0.34858713 -0.09672582 -0.015638566 0.13613462
0003f0 a1 61 af be 26 e3 10 bf a4 d1 58 3e de 88 8a 3e
       -0.34254172 -0.565966 0.21173722 0.27057546

critic.network_body.linear_encoder.seq_layers.0.bias f4 [128]
000000 f2 0d 64 be 5a 5a 72 bd 45 4e 97 be 13 71 68 bd
       -0.22270945 -0.059168197 -0.29551902 -0.05674846
000010 ff 24 e3 3d 4a c8 54 be 2f 68 d9 bd cf 17 83 be
       0.11091041 -0.20779529 -0.106155746 -0.25604102
000020 39 b9 49 3d f0 6f 8c be e2 9c 2c be 1e fc 35 bd
       0.049248908 -0.27429152 -0.16856721 -0.04442989
000030 03 f0 63 3e d1 5b 1f be b0 5b a7 be 7c 11 92 be
       0.22259526 -0.15562369 -0.3268714 -0.28528965
000040 e3 b4 2c 3c 92 59 31 be cf a5 9e 3d fb 7a 82 3e
       0.010541174 -0.17319325 0.07746469 0.25484452
000050 c6 98 95 bc 36 a1 80 3d 87 82 78 bd de 70 33 be
       -0.018261325 0.062807485 -0.060671356 -0.17523524
000060 4d d2 ce bc 10 35 be be e4 9f 2b be 51 cb 7b be
       -0.025246764 -0.37149858 -0.16760212 -0.24589278
000070 1e c7 77 be 66 8f bf be 4e e6 83 3d aa 7c 01 3e
       -0.24197051 -0.37414092 0.064404115 0.12645212
000080 96 8b 0a 3e 39 9c 89 be af 74 57 3e 54 ed fb bd
       0.1352981 -0.26877 0.21040605 -0.12301126
000090 2c 56 98 3c 80 f9 a8 bd 6b 8a bb 3d ad 73 6e be
       0.018595777 -0.08250713 0.091572605 -0.23286314
0000a0 be c0 b0 bd 7f 5a 5f be 53 4d 27 be 1b ca 0c be
       -0.08630513 -0.21811865 -0.1633809 -0.13748972
0000b0 4a 7a eb bd 6e 95 ac be 3a 07 b7 bd 95 9a 0a bd
       -0.11497934 -0.33707756 -0.08936925 -0.033838827
0000c0 15 f7 44 bd 3a 6e 1c be d3 fa 58 be ab 83 08 be
       -0.0480872 -0.15276423 -0.21189432 -0.13331477
0000d0 53 68 0d 3e f3 86 af bc c1 40 52 be 59 95 85 be
       0.13809328 -0.021426653 -0.20532514 -0.26090506
0000e0 93 df eb 3d 74 c6 99 3d 83 57 34 be e5 ba ce bc
       0.11517253 0.07508555 -0.17611508 -0.025235603
0000f0 4d bb 5d be 9a 96 63 3e 54 50 53 be 0f e1 e5 bd
       -0.21653481 0.22225419 -0.20636111 -0.11224567
000100 54 9a 21 be c5 a1 53 be 17 ee 1c be 1f f4 5b bd
       -0.15781528 -0.20667179 -0.15325199 -0.05369961
000110 1b 95 6b 3e 06 02 79 be 89 e5 31 be ff ff 81 bd
       0.23006098 -0.24317178 -0.17372717 -0.063476555
000120 af 21 2a be 0a fc 5a bd 9c 82 4b bd 38 31 92 3e
       -0.16614412 -0.05346302 -0.049685106 0.28553176
000130 b7 af c2 3c 04 74 1f be 60 7a ca bd bf 42 90 be
       0.023765428 -0.155716 -0.098866224 -0.28175923
000140 4a e6 81 be 27 a8 b3 bc d2 98 33 be 62 e0 4a be
       -0.2537101 -0.021930767 -0.17538765 -0.19812158
000150 cb 7c dc bd 46 11 82 be af 11 6b 3e c6 79 d9 bc
       -0.1076599 -0.25403804 0.22955965 -0.026547324
000160 77 7e 25 bd e3 07 ea bd 62 26 6b be 0a a1 fc bd
       -0.04040381 -0.114272855 -0.2296386 -0.12335403
000170 21 e5 89 be e1 86 6e bd 84 4f 31 be 24 c9 1d 3e
       -0.26932624 -0.0582341 -0.17315489 0.1540876
000180 ab f1 97 be 0d cb fa bd f5 31 ea bd 42 69 48 be
       -0.29676566 -0.1224576 -0.1143531 -0.19571403
000190 f6 d7 ca bd 70 3f 0e be 23 e7 14 be a8 59 25 be
       -0.099044725 -0.13891387 -0.14541297 -0.16147482
0001a0 64 35 94 3e 8b 7b 3a 3e 14 97 cd be a5 9c 8b 3e
       0.28946984 0.1821119 -0.40154326 0.27267948
0001b0 45 b0 c1 bd 25 4b ec bd 53 2e 56 bd 9b 75 29 be
       -0.09457449 -0.1153777 -0.052290272 -0.16548769
0001c0 f0 9b cc 3c 78 17 a1 bd de 53 27 be ef 60 4f be
       0.0249767 -0.078658044 -0.16340587 -0.20251821
0001d0 57 90 23 be ea 08 02 be 1b 66 6c be 9b 62 f0 bb
       -0.1597303 -0.12698713 -0.23085825 -0.0073359734
0001e0 5e c4 01 be 68 90 24 be e7 1f 61 be a9 4a a2 be
       -0.12672564 -0.16070712 -0.21984826 -0.31697586
0001f0 93 59 24 be a6 1b 6a bd 54 68 14 be 39 4d 7d bc
       -0.16049795 -0.057155274 -0.14492923 -0.015460306

critic.network_body.linear_encoder.seq_layers.2.weight f4 [128, 128]
000000 60 f3 16 3d d2 94 16 3d f3 70 a9 3d 01 a2 94 3d
       0.036853194 0.03676302 0.082734965 0.07257462
000010 16 a2 58 3d 37 17 8a bd 79 13 12 3d b2 cf 0c 3c
       0.052888952 -0.06742709 0.0356631 0.00859444
000020 84 9c 9a be 5c 2b 7b 3d 84 4d 93 3d 04 88 40 3c
       -0.30197537 0.061320648 0.07192519 0.011751179
000030 79 f6 05 be 15 7b dc bc b1 3c ce 3d 8f 04 8c 3d
       -0.13082303 -0.026914159 0.1007017 0.06836807
000040 b8 f8 32 3e 37 dd cc 3c 37 ba c9 bd dd 45 3b be
       0.17477691 0.025007827 -0.09849971 -0.1828837
000050 86 ca 14 be 9a e8 3c 3e ef ba e9 bd 3a b2 63 bb
       -0.14530382 0.18448105 -0.11412608 -0.0034743682
000060 24 2b b5 3d fa 00 81 3d 92 4b 21 be de d5 94 3d
       0.08846119 0.062990144 -0.15751484 0.072673544
000070 b8 c2 30 bc 91 41 5e be 1d ab af bd 95 e2 21 3e
       -0.010788612 -0.21704699 -0.08577559 0.1580909
000080 d0 1c ed 3c 86 f5 19 3b 4a e1 e0 3c 0e 30 a0 3d
       0.028944403 0.002349229 0.027451176 0.07821666
000090 27 5b 2c be 6a ff c9 bc 45 30 1d bd e7 8c b8 3c
       -0.16831647 -0.024657924 -0.03837611 0.022528125
0000a0 8b dd 5e 3d 04 ca 9d bc 95 f0 5f 3e b8 84 03 bd
       0.0544105 -0.019261368 0.21869119 -0.032108992
0000b0 9d 84 17 be a3 35 c5 3c 6e c5 d3 3c 76 5d d4 3d
       -0.14796682 0.024073428 0.025850978 0.10369389
0000c0 68 d1 0d 3e ea 34 15 3e 78 fc f2 3d 7e f6 1c 3d
       0.13849413 0.14570966 0.11864561 0.03832101
0000d0 78 f3 59 bd a8 fc dc bc 13 ac 18 bd f3 8f 6c 3d
       -0.053210706 -0.026975945 -0.037273478 0.05775447
0000e0 05 b7 75 3d 41 a1 23 bd 7c 9b e9 3d 79 da d0 3d
       0.059988994 -0.039948706 0.114066094 0.1019792
0000f0 84 a9 ff 3d 6d 0e fd bd a9 27 08 3e 9b 98 15 be
       0.124835044 -0.12356267 0.13296379 -0.14608996
000100 14 15 f3 3d 01 87 1e 3d 77 9b ac 3d c7 a1 ba bd
       0.11869255 0.03870297 0.0842809 -0.09112888
000110 da 5d a2 bd ab 1e 3f bc 65 1e 1a be b3 51 d0 bd
       -0.07928057 -0.011665027 -0.15050657 -0.10171833
000120 91 14 4b bc c3 12 c5 bd d6 22 49 bd 87 94 dc bd
       -0.01239504 -0.09622719 -0.049105488 -0.10770517
000130 1f a1 fa 3d b4 f1 53 bd 7c 64 b9 bd b9 cb fc bd
       0.12237763 -0.051744178 -0.09052369 -0.123435445
000140 b0 62 3e bc df 35 bf bd 58 85 5e be 53 86 82 3d
       -0.011620209 -0.09336447 -0.21730554 0.063732766
000150 64 88 5b 3d 75 19 82 3d 1a 2e a0 bd dc 55 25 be
       0.05359687 0.06352512 -0.07821293 -0.16146034
000160 8c 24 e9 bc 75 38 21 bd df 57 b0 3d f2 17 83 bd
       -0.02845981 -0.039360482 0.0861051 -0.064010516
000170 8b 99 1c 3d de be b2 bb 0a c1 a4 3b 91 f3 d2 bd
       0.038232367 -0.005454882 0.005027895 -0.10300363
000180 22 32 7d 3e 09 24 36 bd 35 10 4f bd e0 f0 73 bd
       0.24726155 -0.04446796 -0.050552566 -0.05955589
000190 9c 29 e7 3d 92 f7 93 bd f6 0b 27 3d ed d2 f5 3d
       0.11287233 -0.07224955 0.04078289 0.120031215
0001a0 b4 f5 29 3c a4 c7 53 3d 9f db e9 bd 39 25 87 3d
       0.010373522 0.051704064 -0.114188425 0.065988965
0001b0 43 9e 99 3c 79 3c 07 3e 93 2a 88 bd bc 63 06 3d
       0.018752223 0.13206662 -0.066487454 0.032809958
0001c0 79 ac 88 3c 76 0f 8e 3d 14 b5 0b bd 78 ba b2 3d
       0.016683804 0.06936543 -0.034108236 0.08726972
0001d0 7b 57 87 bd ab 06 bb bd 2a 20 45 3d 02 59 7d 3d
       -0.066084825 -0.09132131 0.048126377 0.061852463
0001e0 92 74 6b 3d 1b 55 9b bd 23 e5 ed 3c de 54 80 3e
       0.057484217 -0.07584592 0.029039925 0.2506475
0001f0 15 af 25 3d 57 0b bb bd 6b 75 25 3e 1b b6 98 3c
       0.040450174 -0.09133022 0.16158073 0.018641522
000200 01 29 92 bd 9e 97 8b bd 40 ad 83 bd 9b 15 eb 3d
       -0.07136727 -0.06816028 -0.06429529 0.1147873
000210 33 47 c2 3d 1d 05 15 3e 1b 8d 0f bd bb b5 77 bd
       0.094862364 0.14552732 -0.035046678 -0.060476046
000220 dc ee c2 3b 6e 4a d7 bd cc 89 19 3d 76 2e e4 3d
       0.0059488844 -0.10512243 0.03748493 0.11141674
000230 64 b7 d7 3d 9f ba b7 3d 5b 7a 7b bd 7c d7 7d 3d
       0.10533026 0.08971142 -0.061395984 0.06197308
000240 a8 cb dc bd 82 fa 85 bd 8e 9a d0 3d de 35 18 bd
       -0.10781032 -0.06541921 0.10185729 -0.037160747
000250 90 14 33 bc c9 e4 c4 bc 6a f8 5c bd 51 6a 3d 3d
       -0.010930195 -0.024034875 -0.053947844 0.04624397
000260 47 5d a7 3b d3 d2 27 bd 28 6a d5 bd 9d 39 e9 bd
       0.005107555 -0.040972542 -0.10420638 -0.11387942
000270 1c 00 c7 bd 13 70 22 bd 3b d7 08 3e 78 ba 11 3e
       -0.09716818 -0.039657664 0.13363354 0.14231288
000280 e4 1c 3e bd d3 2f d9 bd 59 33 97 3a 1f 37 ee 3d
       -0.04641427 -0.10604825 0.0011535689 0.11631607
000290 e4 f4 54 3d 6a 84 84 bc 88 39 83 bd 90 13 80 3c
       0.05199136 -0.016176421 -0.064074576 0.015634328
0002a0 91 2a 02 be 38 2c 5c 3d 65 41 2d bd 49 23 b7 bc
       -0.1271155 0.053753108 -0.042298693 -0.022355692
0002b0 36 9d be bd 73 dc 00 be 5e 8d a3 3d a7 19 1e 3e
       -0.09307329 -0.12584095 0.07985948 0.15439473
0002c0 ef 4a 5a 3d c2 ff c6 3d ad 23 c5 3d 70 38 13 be
       0.05329412 0.09716751 0.09625945 -0.14376998
0002d0 eb 09 4f 3b 4e 3e 50 3d c7 f7 a3 bc 36 dd 6a 3d
       0.0031591605 0.05084067 -0.02001561 0.05733987
0002e0 81 b3 15 be 7b 86 4d bd 0b 07 1b 3a b8 80 44 bd
       -0.14619257 -0.05017708 0.000591383 -0.04797432
0002f0 e1 28 09 3c 13 41 1c be 21 24 e4 bd b5 43 2b 3d
       0.008371563 -0.15259199 -0.111397035 0.041812617
000300 4e 4e 16 bd 42 b6 15 3d 22 df da bd 77 14 88 3d
       -0.03669577 0.036550768 -0.106870905 0.06644528
000310 b0 55 52 bd a0 3d 37 3d 75 28 54 bd 23 10 0e 3c
       -0.05135125 0.044736505 -0.051796395 0.0086708395
000320 09 db a2 bd 20 88 25 bd 4e 6a f6 bc e2 4d 83 3d
       -0.07951934 -0.040413022 -0.030079987 0.06411339
000330 9c 65 59 3d b7 29 01 be 5f 53 5e bd 78 63 3d 3c
       0.053075418 -0.12613569 -0.054278728 0.01155936
000340 70 aa 06 be 36 13 42 bd ea 79 d7 3d 7e 95 70 3e
       -0.13150954 -0.047381602 0.105213 0.23494527
000350 4f cd df bb d0 57 4d 3d 59 23 32 bc 4a 94 e4 3d
       -0.0068298946 0.050132573 -0.010872685 0.111610964
000360 58 5b 9a bd 6e df 22 3a 5f ec 12 be f2 6c b0 bd
       -0.07536954 0.0006213103 -0.14347981 -0.0861453
000370 2a 81 dc 3d 05 a4 de bd 00 27 0e 3d f7 58 8e bb
       0.107668236 -0.10871128 0.034705162 -0.0043441015
000380 53 b4 1c bd 70 34 a1 3d eb 8e 88 bd f5 06 f5 3c
       -0.038257908 0.0787133 -0.066678844 0.029910544
000390 0f fa 29 bd e9 29 bc 3b e4 60 fc 3c 74 4f 9a 3d
       -0.04149824 0.005742301 0.03080792 0.07534686
0003a0 ea 9d 6d bc 93 80 eb bd 22 21 37 bd 84 dd e0 bc
       -0.014502982 -0.11499133 -0.044709332 -0.027449377
0003b0 a8 61 6d 3d bc 5c 54 bd 74 19 b0 bd 98 3d b2 3d
       0.05795446 -0.05184625 -0.08598605 0.08703154
0003c0 59 c7 76 bd 2f 33 00 bc a4 44 85 3d 60 65 2c be
       -0.060248706 -0.007824703 0.06507233 -0.16835546
0003d0 cf 84 2d 3d 2e 79 a1 3d 02 2c 21 be d4 a8 72 bd
       0.042362984 0.07884441 -0.15739444 -0.05924304
0003e0 75 0b 86 3c 70 60 b4 bd 20 ac bb 3d 31 d1 9c bd
       0.016362885 -0.088074565 0.091636896 -0.076570876
0003f0 56 ef 4c 3d b2 c1 7a 3c 7d de 48 bd 42 1c 87 bd
       0.050032936 0.01530497 -0.049040306 -0.065971866

critic.network_body.linear_encoder.seq_layers.2.bias f4 [128]
000000 2d fa ca bd 44 43 1b 3a 9f c8 c6 bd 14 6c 37 3d
       -0.099109985 0.0005922804 -0.09706234 0.044780806
000010 63 39 14 3a 94 76 bb bd 36 2d c2 3c be ca 9b bc
       0.0005654303 -0.09153476 0.023703199 -0.019017573
000020 68 48 a3 3b 8d b0 e9 3b 36 ec d4 bd 34 85 bd bd
       0.0049829967 0.007131642 -0.10396616 -0.09253922
000030 68 77 a1 bd 9b 5b 15 3c 76 bd 25 bd 19 0d 4e bd
       -0.07884103 0.009116079 -0.040463887 -0.05030546
000040 42 d3 a2 bd b1 c6 0f 3d 65 d9 b0 bd 69 96 dd 3c
       -0.079504505 0.035101596 -0.08635215 0.02704926
000050 3e 79 ec bd 7c 5c 86 bd fd cb d6 3c 97 b0 0d bc
       -0.115465626 -0.06560609 0.026220316 -0.008648059
000060 f6 54 a6 bd 9e 30 61 bd b9 f3 ac bd e9 11 e5 3c
       -0.08121674 -0.054978006 -0.08444924 0.027962642
000070 50 62 08 bd 7e a4 ab bb c0 53 9f bd 3d c2 81 bb
       -0.033296883 -0.005238115 -0.07779646 -0.0039599226
000080 4d fd 70 bd be 69 a1 bd 5a d3 9e bc de 9e 76 3a
       -0.058835316 -0.07881497 -0.01938789 0.00094078283
000090 c3 df 2a bd d5 66 2b 3c 61 ab 2b 3c 3d 01 88 bd
       -0.041717302 0.010461529 0.010477872 -0.06640861
0000a0 6e 45 e4 bc 1d 8b c1 3b bd 78 8d bb 62 3b 7e 3c
       -0.027865138 0.005906476 -0.0043173716 0.015517088
0000b0 84 07 e5 bd 52 36 d4 bd c2 1b a1 bd 9a b0 ce bd
       -0.11183074 -0.10361923 -0.078666225 -0.10092278
0000c0 a4 36 bf bd 27 8d dc 3a 53 a0 2a bd 56 d2 48 bd
       -0.09336594 0.0016826735 -0.041656803 -0.049028717
0000d0 c6 33 b8 bc 52 32 c0 bd 73 6a ba bd 1d c0 4f bd
       -0.022485625 -0.09384598 -0.09102335 -0.050720323
0000e0 f1 4e 82 bd d7 d7 ef bd 01 30 3c 3d e3 46 ea 3c
       -0.06362713 -0.1171109 0.045944218 0.028598255
0000f0 6b 98 cc bc d4 66 91 bd bc 04 bd 39 54 bd f1 bc
       -0.024975022 -0.07099691 0.00036052417 -0.029509224
000100 92 40 c9 bd c0 24 b1 bc 9e b4 da bd 2c b0 73 bd
       -0.09826769 -0.02162397 -0.10678981 -0.059494182
000110 94 b3 6c bd 35 e5 73 bc a5 c6 33 bd 0d 64 61 bd
       -0.057788447 -0.01488619 -0.043890614 -0.055027056
000120 d6 e7 48 be e0 2c 14 bd 93 ea b4 3c 98 81 33 3a
       -0.19619688 -0.03617561 0.02208451 0.0006847619
000130 00 54 6e bb d5 b7 4f bb e7 c3 62 bd e9 b4 0c bd
       -0.0036365986 -0.0031695266 -0.05536261 -0.034352217
000140 69 19 e4 bb d7 33 b7 bb 1d 8e f4 3c ba 08 98 3c
       -0.006961037 -0.0055908966 0.029852921 0.018558849
000150 89 ed 17 be 5c 61 c2 bc e9 b6 5e bd 55 fd 1a 3c
       -0.14836706 -0.023728065 -0.054373655 0.009459813
000160 fe 11 e8 3c 7b 24 65 3a 55 fe a3 bd ba f4 5f bc
       0.028328892 0.0008741093 -0.08007494 -0.013669187
000170 33 98 aa bc f1 92 22 bd f2 fb 9d 3c 23 db e5 3c
       -0.020824527 -0.039690915 0.019285176 0.028058594
000180 de 59 d4 bd 18 a7 35 bd 9c ee 4a bd 58 c5 63 bd
       -0.10368703 -0.044348806 -0.049543962 -0.055608124
000190 d5 87 65 bd bb 7b 05 3d 1d db e1 bd ea 51 f2 3b
       -0.056037743 0.0325887 -0.11028121 0.007395019
0001a0 b2 2f 11 bd 9f 96 1b be b9 7c d7 bd fc 84 dc bd
       -0.035445876 -0.15194176 -0.10521836 -0.10767552
0001b0 ff 95 69 3c 7b 4f 93 3c 7d c3 50 be 91 64 04 3c
       0.014256953 0.017982235 -0.20387073 0.0080806175
0001c0 9d 44 a8 bd 9d f0 88 bd db 20 98 bb 52 b5 b1 bd
       -0.08216212 -0.06686518 -0.0046425886 -0.08677162
0001d0 21 23 3d ba 3e 51 39 bd 27 1e 80 3d b4 9e a8 bd
       -0.00072150124 -0.045243494 0.06255751 -0.08233395
0001e0 d3 b9 da bd 39 34 0f bd be 7d 3d bc b1 d4 10 bd
       -0.106799744 -0.034961913 -0.011565624 -0.03535909
0001f0 7b 4b a8 bd 16 23 22 3c 35 de 49 bd eb d1 33 3c
       -0.08217522 0.00989606 -0.04928418 0.010975341
