ml-agents-master/ml-agents/config/results/ppo/LineCreator/LineCreator-500578.pt (torch, 434231 bytes, 40 tensors)

network_body.vector_processors.0.normalizer.running_mean f4 [4]
0	0x40048a29	2.0709326
1	0x3ceea3c0	0.029130816
2	0xc10e3ec0	-8.89032
3	0x3f6e23ce	0.93023384

network_body.vector_processors.0.normalizer.running_variance f4 [4]
0	0x4b791fd7	1.6326615e+07
1	0x4a801765	4.1972985e+06
2	0x4a6de3a3	3.8975768e+06
3	0x4a46b509	3.2556182e+06

network_body.linear_encoder.seq_layers.0.weight f4 [128, 4]
0	0xbef1908d	-0.47180596
1	0xbe71762b	-0.23580234
2	0xbee00533	-0.43753967
3	0x3e9f40f3	0.3110424
4	0x3f1c5fbc	0.6108358
5	0xbe639615	-0.2222522
6	0xbea68f01	-0.32530978
7	0xbee691cb	-0.45033106
8	0xbf987c00	-1.1912842
9	0x3deb79f3	0.11497869
10	0xbe9719b9	-0.29511812
11	0x3f12b0cc	0.5730102
12	0xbe47922c	-0.19489354
13	0xbe1e3977	-0.15451609
14	0xbf3a418c	-0.72756267
15	0xbdaf61bc	-0.08563563
16	0x3e581d7b	0.21104996
17	0xbedcea2c	-0.4314741
18	0x3e72713f	0.23676012
19	0x3f53195c	0.8246057
20	0x3d59946b	0.053120058
21	0x3f0e15b5	0.5550187
22	0xbe160ce0	-0.14653349
23	0x3eaa902d	0.33313122
24	0x3b0e8160	0.0021744594
25	0xbc9475a9	-0.018122511
26	0xbcc2ff83	-0.023803478
27	0x3c87aa6b	0.016560754
28	0xbec0e1a0	-0.37672138
29	0xbf4abcf0	-0.79194546
30	0x3c64a48e	0.0139552485
31	0x3e0e7469	0.13911594
32	0x3c46594f	0.012106254
33	0xbaefe439	-0.0018302269
34	0xbbd769b6	-0.006573881
35	0x3a7b42f7	0.00095848687
36	0xbec71d3d	-0.38889495
37	0x3de8bcf6	0.113641664
38	0x3e0ed023	0.13946585
39	0xbebbd488	-0.36685586
40	0xbd0b8b86	-0.034068607
41	0x3e98bc00	0.29830933
42	0xbf81672e	-1.0109613
43	0xbea509c8	-0.32234025
44	0xbb9e26f2	-0.00482642
45	0x3e84d18c	0.25941122
46	0x3ed42d05	0.41440597
47	0x3dd32eeb	0.10311683
48	0xbcabbed2	-0.020965014
49	0x3d5b0299	0.053469274
50	0x3db09fa1	0.08624197
51	0x3db4b32f	0.08823239
52	0xbe38468e	-0.17995664
53	0x3d6f5bd5	0.058437187
54	0x3e756802	0.23965457
55	0xbd0ad881	-0.03389788
56	0xbe908b9b	-0.2823151
57	0x3f028025	0.50976783
58	0xbea80dea	-0.32823116
59	0xbe7e5d67	-0.24840318
60	0x3f041637	0.515964
61	0x3c86f4c1	0.01647413
62	0x3f21bf99	0.6318298
63	0x3ebdd3f3	0.37075767
64	0xbd13ae2f	-0.036054786
65	0xbdc198ca	-0.0945297
66	0xbe0f3617	-0.13985477
67	0xbe544b09	-0.20731749
68	0x3f34a220	0.70559883
69	0xbea91dcd	-0.3303055
70	0xbf70c9d8	-0.9405799
71	0x3ee0f762	0.43938738
72	0xbe9b8b8c	-0.30379903
73	0xbeb32c1f	-0.349946
74	0x3d124e60	0.035719275
75	0x3f749c6e	0.9555119
76	0x3cdd75dd	0.02703374
77	0xbdbdb925	-0.09263829
78	0xbea12386	-0.31472415
79	0x3cb99a70	0.02265665
80	0x3b7677ba	0.0037607984
81	0x3eb07dd5	0.34471002
82	0x3ece8a32	0.4033981
83	0x3ba58416	0.0050511463
84	0xbf04b0e4	-0.51832414
85	0x3f071ecc	0.5278137
86	0x3ecade43	0.39622697
87	0xbe078047	-0.13232528
88	0x3e95a4f6	0.29227418
89	0xbe398022	-0.18115285
90	0xbe1384e9	-0.1440617
91	0x3e90ac78	0.28256583
92	0x3e25786b	0.16159217
93	0x3eea8667	0.45805666
94	0xbe677c8c	-0.22606105
95	0xbf5528e8	-0.83265543
96	0x3dadee21	0.08492685
97	0x3ec5057c	0.38480747
98	0x3e78e1f5	0.24304946
99	0x3e972073	0.29516944
100	0xbe5f63bc	-0.2181539
101	0x3efcfb4c	0.49410474
102	0x3f4d65e1	0.8023358
103	0x3f3a9ed4	0.728986
104	0xbe37731f	-0.17915009
105	0x3cf25d1e	0.029585417
106	0x3e26ce1f	0.16289566
107	0x3d7a3f4c	0.06109552
108	0x3eeb6274	0.4597355
109	0xbe0a48de	-0.13504359
110	0xbe295c9c	-0.16539234
111	0x3cbf05e3	0.023318237
112	0xbd0b7e01	-0.034055714
113	0xbda2458a	-0.0792342
114	0xbd1b97a4	-0.037986413
115	0xbef0cc40	-0.4703083
116	0x3d3162dd	0.043307174
117	0xbf1af2d2	-0.60526764
118	0xbf2d1043	-0.6760294
119	0xbf513ec3	-0.8173639
120	0xbe6ed94f	-0.23325084
121	0xbf80cfc5	-1.0063406
122	0xbf486dc5	-0.78292495
123	0x3dcc79ac	0.099841446
124	0x3d0bbbf0	0.034114778
125	0xbfa98adb	-1.32455
126	0x3e85d88a	0.2614177
127	0x3e9a1394	0.30093062
128	0xbcd9c8a1	-0.026584925
129	0xb6f934bd	-7.426918e-06
130	0xbe3a28b6	-0.18179592
131	0x3d3450ae	0.044022255
132	0x3e762186	0.24036226
133	0x3f064034	0.52441716
134	0x3f0bb7cd	0.5457733
135	0x3ed243fa	0.41067487
136	0x3d9de6a0	0.07710004
137	0xbeeb3a00	-0.45942688
138	0xbebeb476	-0.37247056
139	0x3cbcf7cc	0.023067378
140	0x3b8c4ea5	0.004281836
141	0x3b91fa76	0.004454906
142	0xbd004a74	-0.031321004
143	0xbbb9ba98	-0.0056679957
144	0xbe15f3f6	-0.14643845
145	0xbdbee9a7	-0.093219094
146	0x3cd47a53	0.025937235
147	0xbdc985d4	-0.09839979
148	0x3d435e67	0.04769745
149	0xbd9015a3	-0.07035377
150	0xbe01a3cf	-0.12660144
151	0xbd66a2df	-0.05630767
152	0x3e628ee1	0.22124816
153	0x3f228a02	0.63491833
154	0x3eb496c6	0.3527128
155	0xbea1eb0c	-0.3162464
156	0xbc9cee05	-0.019156465
157	0x3eae9254	0.34096014
158	0x3dcd5311	0.10025609
159	0xbf0d8162	-0.5527555
160	0xbeca0f04	-0.3946458
161	0xbf81d993	-1.0144523
162	0x3e5f8c69	0.21830906
163	0x3ee66421	0.44998267
164	0xbfe7c493	-1.8106865
165	0xbd0d3b55	-0.03448041
166	0x3f98d02b	1.1938528
167	0x3cdd063d	0.026980514
168	0x3e7df728	0.24801314
169	0x3edd83d2	0.43264633
170	0x3e57e0e2	0.2108188
171	0x3f087b24	0.533129
172	0xbcbdb768	-0.023158744
173	0xbea8b1c9	-0.3294814
174	0xbf88fbda	-1.0701859
175	0x3cc2ce9b	0.023780158
176	0xbdb57d89	-0.088618346
177	0xbd7dda64	-0.06197585
178	0xbf10415a	-0.5634972
179	0x3edd2b27	0.43196985
180	0x3dbac88d	0.09120283
181	0xbf1d5da6	-0.6147102
182	0xbd6a7dac	-0.057248756
183	0xbed39061	-0.4132109
184	0xbe8dc04a	-0.27685767
185	0x3dba9c51	0.09111846
186	0xbf059dc8	-0.5219388
187	0x3ea53d64	0.322734
188	0x3af86411	0.001895072
189	0x3aa7ba40	0.0012796596
190	0x3cb95bb9	0.022626745
191	0xbc421dd8	-0.011847936
192	0x3dd69e58	0.104794204
193	0x3e543824	0.20724541
194	0x3eac8121	0.33692268
195	0x3ea80afc	0.3282088
196	0xbd437e2e	-0.047727756
197	0x3f1f362f	0.6219205
198	0x3f076f18	0.5290389
199	0x3eab8b9b	0.33504948
200	0xbf086a71	-0.53287417
201	0x3f373432	0.7156402
202	0x3f4f32c5	0.80936843
203	0x3e01a55f	0.1266074
204	0xbe8914d0	-0.2677369
205	0x3ed7ed81	0.4217339
206	0x3ee0bfd9	0.43896368
207	0x3dc8ef20	0.098112345
208	0x3f0883e6	0.5332626
209	0xbeffc2c1	-0.49953273
210	0x3df0b389	0.117529936
211	0xbf18125c	-0.59403014
212	0x3eb0ea35	0.34553686
213	0xbec5d359	-0.38637808
214	0x3d974c7d	0.07387636
215	0x3f2fbbfd	0.6864622
216	0x3dcd8d76	0.10036747
217	0x3d9ad451	0.075600274
218	0xbfc3e4d5	-1.5304209
219	0xbca5a948	-0.020222321
220	0x3f5b1199	0.85573727
221	0xbf200eb3	-0.6252243
222	0x3dee5d22	0.116388574
223	0xbf5c0b30	-0.8595457
224	0x3ecd80a3	0.40137205
225	0x3f1c7d55	0.6112874
226	0x3e5395c0	0.20662594
227	0xbf2fde86	-0.6869892
228	0xba2d547b	-0.0006612015
229	0xba90246d	-0.0010997184
230	0x3a6a98fa	0.0008949187
231	0x3b140ee0	0.0022591874
232	0x3c2b9d9a	0.010474587
233	0xbcdee4f6	-0.027208786
234	0xbd33c87e	-0.043892376
235	0x3cb2dab6	0.021832805
236	0xbe0f8abe	-0.1401777
237	0xbe17ce26	-0.14824733
238	0xbd96b2ef	-0.073583476
239	0xbe1a7d55	-0.15086873
240	0x3db25ab4	0.087087065
241	0xbe03cdc7	-0.12871467
242	0xbf1b9b9b	-0.6078431
243	0x3f11f9b3	0.57021636
244	0xbe4f0bd3	-0.20219354
245	0x3f2f26b9	0.6841846
246	0x3f58806b	0.8457095
247	0x3ed5dbf7	0.41769382
248	0xbf1379c9	-0.57607704
249	0x3e5f3ade	0.217998
250	0x3f07426d	0.5283573
251	0xbe556400	-0.20838928
252	0x3f4a94c3	0.7913324
253	0xbf949a38	-1.1609564
254	0xbe29fe1c	-0.16600841
255	0xbe63fd2d	-0.22264548

network_body.linear_encoder.seq_layers.0.bias f4 [128]
0	0xbe53b8d6	-0.20675978
1	0x3c591476	0.013249507
2	0xbea0e86d	-0.31427327
3	0xbd7788cd	-0.060433198
4	0xbe23e905	-0.16006859
5	0xbeb5c802	-0.35504156
6	0xbc1bdb70	-0.009512767
7	0xbe8d6ba7	-0.27621195
8	0xbc66a9b6	-0.014078548
9	0xbca37639	-0.019953834
10	0xbe30e3db	-0.1727442
11	0x3e5e3ac6	0.21702108
12	0xbd47ac9b	-0.048748594
13	0x3e2cf15a	0.16888943
14	0xbedc2d6a	-0.43003398
15	0x3c237ae2	0.009978028
16	0x3d2435ba	0.0400903
17	0xbe9c853a	-0.30570394
18	0xbe4f878f	-0.20266555
19	0xbe290ac7	-0.16508017
20	0x3e440f83	0.19146542
21	0xbe2fd9e0	-0.17172956
22	0xbe6eeb9e	-0.23332068
23	0x3cd82e99	0.026389407
24	0xbecca47d	-0.39969245
25	0xbe33931d	-0.17536588
26	0xbe6f3995	-0.2336181
27	0xbee40594	-0.44535506
28	0x3dcbf749	0.09959275
29	0xbdef21b9	-0.11676354
30	0xbe78c321	-0.24293186
31	0xbe807d9d	-0.25095835
32	0xbe710f2f	-0.23540948
33	0xbe2f41a7	-0.17114888
34	0x3bfefefe	0.0077818623
35	0x3bc02683	0.005863966
36	0xbe830596	-0.255902
37	0xbe048682	-0.12941936
38	0x3d1c21d9	0.038118217
39	0x3d2a0aaf	0.041514095
40	0xbd85afc9	-0.06527669
41	0xbe1c380f	-0.1525576
42	0xbebe43a0	-0.3716097
43	0xbe066d33	-0.13127594
44	0xbe6f27ba	-0.23354998
45	0xbe738fea	-0.23785368
46	0xbd96bad7	-0.073598556
47	0xbc28d51a	-0.010304714
48	0xbe1474f0	-0.14497733
49	0xbe6bf4a3	-0.2304254
50	0x3b9e9815	0.004839907
51	0xbdf0ab1e	-0.11751388
52	0xbdbf7674	-0.09348765
53	0xbe2da091	-0.16955782
54	0xbe54a981	-0.20767786
55	0xbe321ace	-0.17393038
56	0x3d831b60	0.06401706
57	0xbb501499	-0.0031750558
58	0xbe513b05	-0.2043267
59	0xbd0da2e9	-0.03457919
60	0xbce0328d	-0.027367854
61	0x3c592160	0.013252586
62	0x3d897fc7	0.06713825
63	0x3dbb2678	0.09138197
64	0x3e63978f	0.22225784
65	0xbd891630	-0.06693685
66	0xbe2e2113	-0.17004804
67	0xbeb4a1fb	-0.3527983
68	0x3dff232c	0.124578804
69	0xbe83f400	-0.25772095
70	0xbe2b81e8	-0.16748774
71	0xbdca38b5	-0.09874097
72	0xbe252a91	-0.16129519
73	0xbea74a36	-0.32673806
74	0xbd9c2c34	-0.076256186
75	0xbd19433a	-0.037417628
76	0xbea65edc	-0.32494247
77	0xbe1cf711	-0.15328623
78	0xbe511bde	-0.20420787
79	0x3d2c833f	0.042117354
80	0x3ba5f5a4	0.005064683
81	0x3cf44252	0.02981678
82	0x3c3d61dd	0.011558977
83	0xbec2825d	-0.37990084
84	0xbe16da1f	-0.14731644
85	0x3dde3084	0.10849097
86	0xbe688be7	-0.22709619
87	0x3d9fcd95	0.078028835
88	0xbd08b3f2	-0.033374734
89	0x3dbb7f99	0.09155197
90	0xbd9be0e0	-0.07611251
91	0xbdf1d8d2	-0.11808933
92	0x3d491cfe	0.049099915
93	0xbd734bd2	-0.05939848
94	0xbe4135c3	-0.18868165
95	0xbd528752	-0.051398583
96	0xbef308f6	-0.47467774
97	0xbe25dc15	-0.16197236
98	0xbec8688b	-0.3914226
99	0xbe1356f5	-0.1438864
100	0x3e1cf268	0.15326846
101	0x3dd2c0c2	0.10290672
102	0xbe5d0426	-0.21583614
103	0xbdc7c154	-0.09753671
104	0xbe1bb774	-0.152067
105	0x3d7a2fca	0.06108073
106	0xbdc6ab3b	-0.09700628
107	0xbe826045	-0.25464073
108	0xbe269c84	-0.16270643
109	0xbe57a231	-0.21057965
110	0x3d2d56c6	0.04231908
111	0xbdda6a03	-0.106647514
112	0xbe9037c8	-0.28167558
113	0xbdf70255	-0.12060992
114	0xbd7242fe	-0.05914592
115	0xbe737676	-0.23775658
116	0xbe8a5b4b	-0.27022776
117	0xbdd2e254	-0.10297075
118	0x3c8f0a6f	0.01746103
119	0xbe69b22f	-0.22821878
120	0xbdde37fb	-0.10850521
121	0xbe927a65	-0.28609005
122	0x3da04f1b	0.07827588
123	0x3e2120e9	0.1573521
124	0xbea2d0af	-0.31799838
125	0xbe85e2ef	-0.261497
126	0x3e43c8d0	0.19119573
127	0xbe80af46	-0.25133723

network_body.linear_encoder.seq_layers.2.weight f4 [128, 128]
0	0xbdda74a2	-0.10666777
1	0xbc97cd23	-0.018530434
2	0xbe563cc3	-0.20921616
3	0xbd12e351	-0.035861317
4	0x3d925724	0.07145527
5	0xbd19f909	-0.037591014
6	0xbd9db549	-0.07700593
7	0xbcd9eb1f	-0.026601372
8	0x3dd3a63b	0.1033444
9	0xbe0b07c1	-0.13577177
10	0xbe004b26	-0.12528667
11	0xbb8dce8a	-0.0043276
12	0xbc3f47b6	-0.011674812
13	0xbd331f89	-0.043731246
14	0xbe6c0743	-0.23049645
15	0x3c0ebcef	0.0087120375
16	0xbe44368c	-0.19161433
17	0xbe236bda	-0.15959111
18	0xbe11422c	-0.14185399
19	0xbdcce832	-0.10005225
20	0xbd88011c	-0.066408366
21	0xbe00650d	-0.12538548
22	0x3e2b64fe	0.16737744
23	0xbd3e244f	-0.046421345
24	0x3e0a9e94	0.13537055
25	0xbdbced69	-0.0922497
26	0xbe2cc76f	-0.16872953
27	0x3e08bfd7	0.13354431
28	0xbd4037d1	-0.04692823
29	0xbdb811db	-0.08987781
30	0xbd8686e8	-0.065687
31	0xbde267cf	-0.11054956
32	0xbe1ddec8	-0.15417016
33	0x3b96e4b1	0.004604899
34	0xbc1d18c6	-0.009588426
35	0x3d19d318	0.03755483
36	0xbe0581d7	-0.13037811
37	0xbe25ae9e	-0.16179892
38	0x3da6d7e9	0.0814665
39	0xbe8167b5	-0.25274435
40	0x3dbebd5a	0.0931346
41	0xbda43d5d	-0.080195166
42	0xbd11c8b3	-0.035591792
43	0xbd5aa737	-0.053382125
44	0xbe514458	-0.20436227
45	0xbe106b05	-0.14103325
46	0xbea9a160	-0.33130932
47	0xbdf38d1b	-0.11892148
48	0xbb2d965c	-0.0026487326
49	0xb9e9df97	-0.0004460781
50	0xbd9636f6	-0.07334702
51	0xbdcff34d	-0.10153828
52	0xbe9d1bd1	-0.30685285
53	0xbb9fb847	-0.0048742625
54	0xbe18c6b7	-0.14919554
55	0xbeacf6f8	-0.33782172
56	0xbe016721	-0.12636997
57	0xbcb94bd9	-0.022619175
58	0x3d25e5ef	0.040502485
59	0xbe4ab25f	-0.19794606
60	0xbddce416	-0.107856914
61	0xbe2cb86b	-0.16867225
62	0xbe5698f1	-0.2095678
63	0xbe965976	-0.29365128
64	0xbe02680e	-0.12735006
65	0xbe629473	-0.22126941
66	0xbda12a96	-0.07869451
67	0x3cbd0d68	0.023077682
68	0xbc6779d3	-0.014128166
69	0xbdb32010	-0.0874635
70	0x3e0cb664	0.13741452
71	0xbdf31a9e	-0.11870311
72	0xbd8bd18f	-0.068270795
73	0x3e160534	0.14650422
74	0xbe41f56c	-0.18941277
75	0xbb9a065b	-0.0047004647
76	0x3e6e67b9	0.23281755
77	0xbe2bde69	-0.16784061
78	0x3cbec0b4	0.023285247
79	0xbe0bcaf4	-0.13651639
80	0xbe39b58c	-0.18135661
81	0xbd86312e	-0.06552349
82	0x3dcce616	0.10004823
83	0x3e73b8b9	0.23800935
84	0xbbb5ec3d	-0.0055518434
85	0xbe2319e7	-0.1592785
86	0xbdc05ce6	-0.09392719
87	0xbe8408b0	-0.25787878
88	0x3c03fdee	0.008056147
89	0xbe1d9798	-0.1538986
90	0xbdc50031	-0.09619177
91	0xbd11579e	-0.03548395
92	0xbde6fff9	-0.11279292
93	0xbe84a039	-0.2590349
94	0x3dcc319c	0.099704
95	0xbe299e6f	-0.16564344
96	0x3dda6faa	0.106658295
97	0xbdfdd061	-0.12393261
98	0xbdac9584	-0.08426955
99	0xbe2b5b1e	-0.16733977
100	0xbe036e5d	-0.12835069
101	0xbdbe3208	-0.092868865
102	0xbe1f4faf	-0.1555774
103	0xbe03d85d	-0.12875505
104	0xbdb59518	-0.08866328
105	0xbdcf0c51	-0.10109771
106	0xbdf5eafa	-0.12007709
107	0xbd8b392a	-0.067980126
108	0x3e7b464b	0.24538533
109	0x3e40952d	0.18806906
110	0x3df1a7ba	0.117995694
111	0xbe60a258	-0.21936929
112	0xbe9ef4b5	-0.31046072
113	0xbdc443d7	-0.09583252
114	0xbe85b12e	-0.2611174
115	0xbdcae226	-0.09906416
116	0x3c84fc41	0.016233565
117	0xbda58137	-0.080812864
118	0xbe1f9c8e	-0.15587065
119	0xbe80491f	-0.25055787
120	0x3d400e09	0.046888385
121	0xbdab43de	-0.08362554
122	0xbe405487	-0.18782245
123	0xbd7cb2fe	-0.061694138
124	0xbd36fc3d	-0.044674147
125	0xbc8c8e80	-0.017157793
126	0xbe074dba	-0.13213244
127	0xbdb79f9e	-0.089659914
128	0x3dbf3ec1	0.09338141
129	0xbcf1d1aa	-0.02951892
130	0xbb153902	-0.0022769575
131	0xbcef5588	-0.02921559
132	0xbe4b4e67	-0.19854127
133	0xbdee1619	-0.116253085
134	0xbc98f2c6	-0.01867045
135	0xbd911d5f	-0.0708568
136	0xbc97e067	-0.01853962
137	0xbd4e31e9	-0.050340567
138	0xbdc3bb84	-0.0955725
139	0xbc43fa5d	-0.011961547
140	0x3e2bcc81	0.16777231
141	0x3d009b87	0.031398322
142	0x3e3ad9bf	0.18247126
143	0x3d7e807c	0.06213425
144	0xbdf22d04	-0.11824992
145	0xbd917106	-0.07101636
146	0x3c6c2fea	0.0144157205
147	0xbc58da18	-0.013235591
148	0xbe102f0c	-0.14080447
149	0x3d24e0d0	0.04025346
150	0x3e1bb931	0.15207364
151	0xbe18aa99	-0.14908828
152	0xbc2a9fe7	-0.0104141
153	0x3cbba324	0.02290494
154	0x3ca97491	0.020685466
155	0xbc9ae249	-0.01890673
156	0x3d810086	0.06298928
157	0x3e2df556	0.1698812
158	0x3d0c3aca	0.034235753
159	0xbc50695f	-0.012720435
160	0x3d8bdf8d	0.06829748
161	0x3d8c4e88	0.06850916
162	0xbc9c564e	-0.019084122
163	0x3b797f8e	0.0038070413
164	0xbe075e03	-0.13219456
165	0xbe47fe89	-0.19530691
166	0x3c66fe3e	0.014098702
167	0xbc152921	-0.009104044
168	0x3ce0abe3	0.027425712
169	0x3b7ebbb6	0.0038869209
170	0xbd377ca8	-0.044796616
171	0x3e71be24	0.23607689
172	0xbe15b9ce	-0.1462166
173	0xbc805906	-0.01566745
174	0x3d2b179f	0.041770574
175	0xbd49d572	-0.049275823
176	0x3dd9388e	0.1060649
177	0x3db87422	0.090065256
178	0xbba46018	-0.005016338
179	0x3e1c884c	0.15286368
180	0x3cf511f2	0.029915784
181	0xbdf5ca7f	-0.12001514
182	0x3cc0f457	0.02355401
183	0xbdb3a58c	-0.0877181
184	0xbd17a505	-0.03702261
185	0xbcd4546c	-0.025919162
186	0xbcd6c491	-0.026216777
187	0x3e36330e	0.17792913
188	0x3c5d63b1	0.013512538
189	0xbba55f70	-0.0050467774
190	0xbd2e63fa	-0.042575814
191	0xbda34740	-0.07972574
192	0xbd80ae2c	-0.06283221
193	0x3d8d72e4	0.06906679
194	0xbd8319a8	-0.06401378
195	0x3c7ded8d	0.015498531
196	0xbd012325	-0.031527657
197	0xbd894691	-0.067029126
198	0xbdb03bcf	-0.086051576
199	0xbd73bb20	-0.05950463
200	0xbcf8ac4c	-0.030355595
201	0xbaab76c4	-0.001308166
202	0xbe63704d	-0.22210808
203	0x3b8fcef2	0.0043886835
204	0xbd4c25a2	-0.049840577
205	0xbd732044	-0.059356943
206	0x3dc75bff	0.09734344
207	0x3ca37cda	0.019956995
208	0xbdf47ee8	-0.11938268
209	0x3cc8d982	0.024517778
210	0xbce6ce50	-0.02817455
211	0xbcaf9667	-0.021434022
212	0xbca9cd8a	-0.020727891
213	0xbc7299b2	-0.014807152
214	0xbe0cc5e1	-0.1374736
215	0x3cde6d81	0.027151825
216	0x3ce0c1e0	0.027436197
217	0xbd4d8d4f	-0.05018359
218	0x3deae16d	0.11468778
219	0xbdb5acfd	-0.088708855
220	0x3d63c0d7	0.05560383
221	0x3dc9cdda	0.09853716
222	0xbd99f80f	-0.075180165
223	0xbc208234	-0.009796668
224	0xbd18285d	-0.03714787
225	0xbc97102c	-0.018440329
226	0xbd6be184	-0.057588115
227	0x3de63755	0.112410225
228	0xbd8c5a4c	-0.0685316
229	0xbd16b457	-0.03679308
230	0xbc955955	-0.018231073
231	0xbd07745f	-0.033069964
232	0xbd0287e2	-0.03186787
233	0x3da2ed9d	0.079554774
234	0xbc15197f	-0.009100317
235	0xbdf21632	-0.1182064
236	0x3d3b0f32	0.04566879
237	0xbe25b197	-0.16181026
238	0x3d63fb9a	0.055659868
239	0xbda9887f	-0.08277988
240	0x3e18ca37	0.14920889
241	0xbb898f5b	-0.0041979975
242	0x3e28255c	0.16420501
243	0xbd805db2	-0.06267871
244	0xbe294248	-0.1652919
245	0xbd3256a4	-0.04353966
246	0x3c0c61f3	0.008568275
247	0x3c659cc2	0.014014425
248	0x3d90c8dc	0.07069561
249	0xbc040110	-0.008056894
250	0xbd73c8dd	-0.05951773
251	0x3d4e4942	0.050362833
252	0x3bd458b3	0.0064803003
253	0x3ca47c76	0.020078879
254	0xbdaee1dc	-0.08539173
255	0x3d84f2ee	0.06491648

network_body.linear_encoder.seq_layers.2.bias f4 [128]
0	0xbd41682f	-0.047218498
1	0x3c7fa60e	0.015603555
2	0xbd235bb1	-0.039882366
3	0xbe2e11da	-0.16998997
4	0xbd71e862	-0.05905951
5	0x3cc073f9	0.0234928
6	0x3c93ef01	0.018058302
7	0x3bc9a53c	0.0061537307
8	0xbd0beeb7	-0.034163203
9	0xbe9a5653	-0.30143985
10	0x3c1249bf	0.008928715
11	0xbd2db7e0	-0.042411685
12	0xbd995cd1	-0.074884064
13	0xbe45c9d0	-0.19315267
14	0xbdc59423	-0.096473955
15	0xbda73aca	-0.0816551
16	0xbe851450	-0.2599206
17	0x3cc58bcc	0.024114512
18	0xbb9cd87c	-0.004786549
19	0xbdcdc01f	-0.1004641
20	0x3d205eb7	0.039152827
21	0xbe6940f2	-0.22778681
22	0xbc0438f3	-0.008070218
23	0xbddf712b	-0.10910257
24	0xbd042b7a	-0.032268025
25	0x3c1767b4	0.009241033
26	0xbe025e77	-0.12731348
27	0xbe078fd7	-0.13238464
28	0xbe6e5ab0	-0.23276782
29	0x3bf7c3ea	0.0075611966
30	0x3cf0792c	0.029354654
31	0xbd2290e9	-0.03968898
32	0xbaa09e9d	-0.0012254302
33	0xbd4cf056	-0.05003389
34	0x3bc2cebf	0.005945056
35	0x3c67cc02	0.01414776
36	0xbcbcdbdd	-0.023054058
37	0xbda3f6e7	-0.08006077
38	0xbe9516f0	-0.29119062
39	0xbedd62c8	-0.43239427
40	0xbcd0ef1f	-0.025504647
41	0x3d136149	0.03598145
42	0xbd4bad0e	-0.049725585
43	0x3d835924	0.064134866
44	0x3d03630c	0.03207688
45	0xbd2ab33c	-0.041674837
46	0xbc6f0e03	-0.014590743
47	0xbcbb4ce7	-0.022863818
48	0xbcc0cb40	-0.023534417
49	0xbe4412fb	-0.19147865
50	0xbab38efb	-0.0013699228
51	0xbd4c3a0b	-0.04986004
52	0xbc87d534	-0.016581155
53	0x397da189	0.00024188137
54	0x3cb40326	0.021974158
55	0xbe8428a3	-0.25812253
56	0xbe1d4d82	-0.15361598
57	0xbcb74c71	-0.022375317
58	0x3d2cfb02	0.042231567
59	0xbcb86f8e	-0.02251413
60	0xbb83f3d4	-0.0040268693
61	0xbea99da5	-0.33128086
62	0xbe1cf350	-0.15327191
63	0xbce48296	-0.0278943
64	0xbd800b33	-0.06252136
65	0x3bef81dd	0.007309182
66	0xba47ac69	-0.00076169387
67	0x3c67d623	0.014150175
68	0xbd4c35b7	-0.049855914
69	0xbd6acef8	-0.057326287
70	0xbbf57118	-0.0074902885
71	0xbde553ba	-0.1119761
72	0xbca7dfa3	-0.02049238
73	0xbeaa79ef	-0.33296153
74	0xbcc0b546	-0.023523938
75	0xbdb6e617	-0.08930605
76	0xbd471742	-0.048606165
77	0xbe8f8adb	-0.28035626
78	0xbdcfd344	-0.101477176
79	0x3d240bb0	0.04005021
80	0xba723761	-0.00092398195
81	0xbe74a2df	-0.23890255
82	0xbcb32c6f	-0.021871774
83	0xbdf4a742	-0.119459644
84	0xbc8265e5	-0.015917728
85	0xbd8ec152	-0.06970467
86	0xbdf667c4	-0.120315105
87	0xbce0c12b	-0.02743586
88	0xbd01c19d	-0.031678785
89	0xbe30eb0a	-0.1727716
90	0x3bad4504	0.0052877683
91	0x3d53b479	0.051685784
92	0xbe4723dc	-0.19447273
93	0xbd00c43e	-0.03143715
94	0xbe268fc1	-0.16265775
95	0xbc95ea1e	-0.018300112
96	0xbd92562d	-0.07145343
97	0xbe71181b	-0.23544352
98	0xbe1d30de	-0.15350673
99	0xbdc94fac	-0.09829649
100	0xbd56b833	-0.05242176
101	0x3bae0fe1	0.0053119515
102	0xbe2f942f	-0.17146371
103	0x3ac9872b	0.0015375366
104	0xbd983094	-0.074311405
105	0xbc4bf76c	-0.012449127
106	0xbe67cbe0	-0.22636366
107	0x3cafdd1c	0.021467738
108	0x3c52ce1a	0.012866521
109	0xbd96c173	-0.07361116
110	0x3d5389e7	0.051645186
111	0xbe1aab75	-0.15104468
112	0xbcfbcb2d	-0.03073653
113	0xbcf8de33	-0.03037939
114	0x3d7aa0e7	0.061188605
115	0xbc06daa2	-0.008230837
116	0x3cd9be72	0.02658007
117	0xbd8c0cbc	-0.068383664
118	0xbd687d8f	-0.056760367
119	0x3d4c5935	0.049889762
120	0xbc9f78ea	-0.019466836
121	0xbd58da16	-0.052942358
122	0xbc09bd94	-0.008407015
123	0xbd01c2c0	-0.03167987
124	0xbe159b07	-0.1460992
125	0xbe56b691	-0.20968081
126	0xbd3b564a	-0.04573659
127	0xbd2a06f9	-0.041510556

distribution.log_sigma f4 [1, 2]
0	0xbe30e834	-0.17276078
1	0xbe244734	-0.16042787

distribution.mu.weight f4 [2, 128]
0	0xbaba987f	-0.0014236121
1	0xba0890fc	-0.00052095926
2	0x3c2150e1	0.009845943
3	0x3d2395a2	0.039937623
4	0xbc066012	-0.008201616
5	0xbc774cec	-0.015094023
6	0x3ad01d73	0.0015877917
7	0xbb7df45b	-0.0038750384
8	0xbc60d8fd	-0.013723609
9	0x3d6f8a99	0.058481786
10	0x3a79d83c	0.00095308176
11	0xba415b66	-0.0007375985
12	0x3dd1e0c2	0.10247947
13	0x3c615604	0.013753418
14	0xbbbae2cb	-0.0057033054
15	0xbaf72387	-0.0018855192
16	0x3d9f9941	0.07792903
17	0x393beb64	0.000179214
18	0x39b534bd	0.00034562303
19	0x3d5d6c77	0.05405852
20	0xba89f852	-0.0010526276
21	0x3ceede2d	0.029158676
22	0xbb25553c	-0.0025227806
23	0xbbf8920a	-0.0075857686
24	0x3a81110d	0.0009847
25	0xba90d0bc	-0.0011048536
26	0x3c83c6d0	0.016086012
27	0xb8e47223	-0.00010893147
28	0xbc9de66a	-0.019274909
29	0xba55caa7	-0.0008155503
30	0x39b4b510	0.00034467177
31	0xbd68090b	-0.05664925
32	0xba8c0147	-0.0010681533
33	0x3bc928ae	0.0061388826
34	0xbd04c05b	-0.032410007
35	0xba9618d4	-0.0011451491
36	0xbb424df6	-0.002964852
37	0xbacd1495	-0.0015646393
38	0x3da160e0	0.078798056
39	0x3e047420	0.12934923
40	0xba68334e	-0.00088577427
41	0xba7def0e	-0.0009686806
42	0x3d1b7243	0.037950765
43	0xba29f61f	-0.0006483513
44	0xba22ca22	-0.00062099297
45	0x3a5a2661	0.0008321759
46	0x3972ab00	0.00023142621
47	0xbaf020e0	-0.0018320344
48	0x38ad1821	8.253777e-05
49	0xbbd02d5b	-0.006353063
50	0x3a32aaf9	0.0006815638
51	0xb9dc3af1	-0.00042005585
52	0xb9cd72d7	-0.0003918621
53	0xbbe5b054	-0.0070095453
54	0xbb9374b8	-0.004499998
55	0xbd19ad93	-0.03751905
56	0x3d0dd5a5	0.034627575
57	0xba708403	-0.0009174945
58	0xbb3c34e7	-0.0028718056
59	0xbb68361b	-0.003543264
60	0xbaf45ebb	-0.0018643955
61	0x3d277dd6	0.04089149
62	0x3c4bed42	0.012446703
63	0x3a9235fa	0.0011155002
64	0x3bad861c	0.005295528
65	0xbafca854	-0.001927624
66	0xba48744a	-0.0007646723
67	0xba31a826	-0.000677707
68	0xbaa6a90d	-0.0012715176
69	0xba653dc6	-0.00087448617
70	0xbc3fcc4b	-0.011706422
71	0x3dae7383	0.08518126
72	0x39cdb790	0.00039237412
73	0xbbb6f284	-0.0055831093
74	0x39afa850	0.00033504004
75	0xba46ea23	-0.00075879897
76	0x39a85338	0.0003210546
77	0xbca5865f	-0.020205675
78	0x3b711d53	0.003679116
79	0xbb0d39d4	-0.002154936
80	0xba765213	-0.0009396385
81	0x3c951f73	0.018203473
82	0x3b0fedf5	0.0021961902
83	0x3d159663	0.036520373
84	0xbb31e1d5	-0.0027142663
85	0xbb8c6e6b	-0.004285624
86	0x3d82c2b9	0.06384797
87	0x38b64a34	8.692258e-05
88	0x3b189caa	0.0023286738
89	0x3ce3082a	0.027713854
90	0xbb2fd2e4	-0.0026828581
91	0xbbcd5979	-0.0062667695
92	0x3d6ec7ff	0.0582962
93	0xba2f47bb	-0.0006686409
94	0x3cd1a419	0.025590943
95	0xba1478cb	-0.00056637515
96	0x3b1e82a2	0.002418675
97	0xbd7bb67b	-0.061453324
98	0xbd4a8432	-0.049442478
99	0xbc0a96e6	-0.008458829
100	0xba3626d2	-0.00069485337
101	0x3834e4d5	4.312846e-05
102	0x3de6e5a9	0.11274273
103	0xbaba2e74	-0.0014204518
104	0xb947bcae	-0.00019048408
105	0xba7fe107	-0.000976101
106	0x3d9bf190	0.07614434
107	0xba371f82	-0.0006985591
108	0xba969323	-0.0011487942
109	0xb9975406	-0.00028863567
110	0xb9c79492	-0.0003806693
111	0xbc1289a1	-0.008943946
112	0xb91a60bd	-0.00014722622
113	0xbb015248	-0.0019732881
114	0xbb5c718b	-0.0033637013
115	0x3b15b309	0.002284231
116	0xbaff193a	-0.0019462474
117	0x3d7ef764	0.06224765
118	0x38780103	5.912875e-05
119	0xbacb197d	-0.0015495267
120	0x3a08a81a	0.00052130374
121	0xbb8a788e	-0.004225797
122	0xba9fd331	-0.0012193677
123	0x3844d5c0	4.692911e-05
124	0x3cf197ca	0.029491324
125	0x3d38fd99	0.045163725
126	0x3a138f54	0.00056289625
127	0xba9446fe	-0.0011312661
128	0x3cfde6c8	0.030993834
129	0xba168c29	-0.00057429314
130	0xbc97f64a	-0.018550057
131	0x3d485a4b	0.048914235
132	0x3bdb463e	0.006691723
133	0xbb5e48f1	-0.0033917988
134	0xbbaf13ae	-0.005342922
135	0x3bb03f3d	0.0053786323
136	0xbd19a5a9	-0.0375115
137	0xbd997cd6	-0.07494514
138	0xbacc14a0	-0.0015570112
139	0xbb2003c5	-0.002441631
140	0x3d4abff7	0.04949948
141	0xbd160db9	-0.03663418
142	0xbd0c7433	-0.034290504
143	0xbb59478b	-0.0033154215
144	0x3cc6363a	0.02419578
145	0xbb4b9a4a	-0.0031067305
146	0xbad6d678	-0.0016390821
147	0xbe1e5c37	-0.15464865
148	0xbb307c5f	-0.00269296
149	0x3d4fb632	0.050710864
150	0xb995f315	-0.00028600605
151	0x3d1d9a69	0.038477335
152	0x3a37bf72	0.00070094236
153	0x3b039118	0.0020075496
154	0x3c1cbd78	0.009566657
155	0x3b6e2560	0.0036338195
156	0x3ca86aac	0.020558678
157	0x3a868730	0.0010263678
158	0xb8dca99b	-0.00010522009
159	0xbc7decad	-0.015498322
160	0xbaa07a07	-0.0012243398
161	0xbc0fec14	-0.008784313
162	0xbb70feeb	-0.0036773037
163	0xba9ae568	-0.0011817636
164	0x3c0317ea	0.008001307
165	0x3a9d0cd6	0.0011981975
166	0xbdea1fd6	-0.114318535
167	0xbd853457	-0.06504124
168	0x3b75c3fd	0.0037500851
169	0x3afbccd8	0.0019210828
170	0x3d62c659	0.05536494
171	0x3b276840	0.0025544316
172	0xbb8fad57	-0.0043846774
173	0x3b4e7e82	0.003150851
174	0xbac31856	-0.0014884572
175	0x3a695431	0.000890079
176	0x3a6c1520	0.00090058334
177	0xbd09447d	-0.03351258
178	0xbb3c75f9	-0.002875684
179	0xbb0f4fbb	-0.0021867591
180	0xbb5e74f9	-0.0033944233
181	0x3b5dfb42	0.0033871685
182	0x38b9371f	8.8317545e-05
183	0xbcb69521	-0.022287907
184	0xbba845b1	-0.005135261
185	0xba6dbb45	-0.0009068738
186	0xbb995a09	-0.0046799225
187	0xba2b6425	-0.0006538055
188	0x3b220c72	0.0024726656
189	0xbd1a4d70	-0.037671506
190	0xbc36acf0	-0.01114963
191	0xbb8020cc	-0.0039101597
192	0x3cb63930	0.022244066
193	0xbaa1fa08	-0.001235784
194	0x3a7e80d4	0.0009708528
195	0x3a907485	0.0011021054
196	0xba10478e	-0.00055038265
197	0xbac39537	-0.0014921789
198	0x3adac79f	0.0016691572
199	0xbd6b875a	-0.05750213
200	0xbac194a6	-0.0014769032
201	0xbcbe73df	-0.023248611
202	0xbb7a0910	-0.0038152374
203	0xba76ee06	-0.00094196235
204	0xba907720	-0.001102183
205	0xbde7bce5	-0.11315326
206	0xbd01f7cd	-0.031730462
207	0x3bc0a250	0.005878724
208	0x3a2524d6	0.00062997395
209	0xbcb83372	-0.022485469
210	0xbb03b0a8	-0.002009431
211	0x3d29a93b	0.041421156
212	0xbb06dc97	-0.002057826
213	0xbb4f092e	-0.0031591165
214	0xbd1161f7	-0.035493817
215	0xbb42f595	-0.002974843
216	0xb9a75523	-0.00031916154
217	0xbe06d42c	-0.13166875
218	0xbad82249	-0.001648971
219	0x3bac94bd	0.0052667544
220	0xbd2fe3ec	-0.042941973
221	0x3bd79aa9	0.006579716
222	0xbcd81c16	-0.02638058
223	0x3a2575bc	0.0006311794
224	0x3a134103	0.00056172925
225	0xbd655f45	-0.05599906
226	0x3d8e2a0e	0.06941615
227	0xbb5c6ec3	-0.0033635355
228	0xb9fa6a4e	-0.0004776292
229	0x39ffcaba	0.00048788433
230	0xbd406510	-0.04697138
231	0x3b0bf1af	0.0021353771
232	0x3aa6f9fb	0.0012739295
233	0xbaaa51ca	-0.0012994346
234	0xbdaf66d2	-0.08564533
235	0x3af74e2f	0.0018867905
236	0x3b5ab98b	0.0033374752
237	0x3b206655	0.0024475057
238	0x3b77b59e	0.0037797461
239	0x3c45aef8	0.012065642
240	0x3b9e8590	0.0048376992
241	0xba21e7ee	-0.0006176223
242	0xbb72efbb	-0.003706916
243	0x3abf879b	0.0014612557
244	0x3b634e48	0.003468411
245	0x3ded122a	0.1157573
246	0xbaa95506	-0.0012919016
247	0xba406e7e	-0.00073406834
248	0x39cb522a	0.00038780394
249	0xbb4a6af4	-0.0030886503
250	0x3a568f95	0.00081848475
251	0xba829ea9	-0.0009965497
252	0xbdf4f364	-0.119604856
253	0xbd48143b	-0.04884742
254	0x3b057a5b	0.002036712
255	0x3a12f3f0	0.00056058075

distribution.mu.bias f4 [2]
0	0x3b469bd2	0.0030305278
1	0xb98575d3	-0.00025455523

critic.network_body.vector_processors.0.normalizer.running_mean f4 [4]
0	0x40048a29	2.0709326
1	0x3ceea3c0	0.029130816
2	0xc10e3ec0	-8.89032
3	0x3f6e23ce	0.93023384

critic.network_body.vector_processors.0.normalizer.running_variance f4 [4]
0	0x4b791fd7	1.6326615e+07
1	0x4a801765	4.1972985e+06
2	0x4a6de3a3	3.8975768e+06
3	0x4a46b509	3.2556182e+06

critic.network_body.linear_encoder.seq_layers.0.weight f4 [128, 4]
0	0x3ecbf9ea	0.39839107
1	0x3df2a590	0.11847985
2	0xbf2753ae	-0.6536206
3	0xbf940101	-1.1562806
4	0xbf05f3da	-0.5232521
5	0x3ea8a8b2	0.32941204
6	0x3e0dbb41	0.13840963
7	0xbe596e3b	-0.21233456
8	0x3f0a8655	0.54111224
9	0x3f2783b4	0.6543534
10	0x3f8a7b3f	1.0818862
11	0x3e1c9250	0.15290189
12	0xbf282c9e	-0.6569308
13	0xbf95216c	-1.1650825
14	0xbf0c4fa6	-0.54809034
15	0xbeeeeec9	-0.46666554
16	0xbebcb036	-0.36853188
17	0x3ebd157d	0.36930457
18	0x3cf7750a	0.030207176
19	0x3ce24a1a	0.027623225
20	0x3e2cfa94	0.16892463
21	0x3f02506f	0.5090398
22	0xbed5a40e	-0.41726726
23	0xbd947697	-0.07249182
24	0xbfd2a316	-1.645602
25	0x3ec215ce	0.3790726
26	0x3e539d1b	0.206654
27	0x3db715f8	0.08939737
28	0xbed49eca	-0.41527396
29	0xbd1ec42f	-0.038761314
30	0x3f1db472	0.6160346
31	0xbdd97cf6	-0.106195375
32	0xbcfe8314	-0.031068362
33	0xbe5102e7	-0.20411263
34	0xbd8b0b05	-0.06789211
35	0x3e99e589	0.30057934
36	0x3f3efc25	0.7460349
37	0xbf9f0597	-1.2423581
38	0x3e854ddf	0.26035973
39	0x3f146b4b	0.57976216
40	0x3fc3ca4b	1.529611
41	0x3eb45fb4	0.35229266
42	0x3ca34c0b	0.019933721
43	0xbeef2bcc	-0.46713102
44	0x3e16b857	0.14718758
45	0xbf2c4db0	-0.6730604
46	0x3d3f7632	0.04674358
47	0x3e9fe253	0.3122736
48	0x3f1ac6ec	0.6045978
49	0x3f8f0f5f	1.1176566
50	0x3e801dd6	0.25022763
51	0x3f0f0b47	0.5587658
52	0x3e311cd3	0.17296152
53	0xbe194166	-0.14966354
54	0x3dd40331	0.10352171
55	0x3e9a90c9	0.30188587
56	0xbeb28a1f	-0.34871003
57	0x3f385b16	0.72013986
58	0xbfb6959b	-1.4264406
59	0xbe4d39ad	-0.20041533
60	0xbcf73368	-0.03017588
61	0x3d706746	0.05869224
62	0xbda16dc4	-0.07882264
63	0xbeb6cd8c	-0.35703695
64	0xbe54a982	-0.20767787
65	0xbea4d388	-0.32192636
66	0xbf035e5b	-0.5131585
67	0xbe943cbd	-0.2895259
68	0xbec89ac4	-0.39180577
69	0x3fd30511	1.6485921
70	0xbdfd31ca	-0.12363012
71	0xbfaf5335	-1.3697268
72	0x3e0700d1	0.13183905
73	0xbf83aa66	-1.0286376
74	0x3f32752e	0.6971005
75	0x3f5dac58	0.865911
76	0x3fa08ace	1.254236
77	0xbed05c80	-0.40695572
78	0xbd3ec804	-0.04657747
79	0x3d85f648	0.06541115
80	0xbde1bc83	-0.11022284
81	0xbe893c72	-0.2680393
82	0xbe624eff	-0.22100447
83	0x3ebd90ee	0.37024635
84	0xbce4ed96	-0.027945321
85	0x3dafa3af	0.08576142
86	0x3e84f1c5	0.25965706
87	0x3e2e84ca	0.17042843
88	0xbf40cbfc	-0.75311255
89	0x3e0e5ffe	0.13903806
90	0xbd0d38c6	-0.03447797
91	0xbea671ea	-0.32508785
92	0x3e913842	0.28363234
93	0x3e4861cf	0.19568561
94	0xbeb797f8	-0.3585813
95	0x3f98f832	1.1950743
96	0x3ec584aa	0.38577777
97	0xbe3840f0	-0.17993522
98	0x3eea76da	0.45793802
99	0x3fa5dce8	1.295804
100	0x3f059e94	0.52195096
101	0x3ea8f45f	0.3299894
102	0x3f1a16a3	0.6019079
103	0x3f5730c8	0.8405881
104	0xbf32d84c	-0.6986129
105	0xbd2d579b	-0.042319875
106	0x3ee62b66	0.44954985
107	0xbf45181a	-0.769899
108	0xbf9b0a62	-1.2112544
109	0xbd2a7d0d	-0.041623164
110	0x3f26bda6	0.6513313
111	0x3ed17568	0.40909886
112	0xbf02536e	-0.50908554
113	0x3f03de89	0.51511437
114	0x3ee4acc1	0.4466305
115	0xbeb3de14	-0.3513037
116	0xbf9e917c	-1.2388148
117	0xbf596f3e	-0.8493537
118	0x3f1d1125	0.61354285
119	0xbef75e3c	-0.48314083
120	0x3f0a9b1a	0.54142916
121	0x3e1283c8	0.14308083
122	0x3ea9700f	0.33093306
123	0x3e9e85fe	0.30961603
124	0x3f20a96c	0.6275852
125	0xbfa4c021	-1.2871133
126	0xbd0ae48f	-0.033909377
127	0x3e23891a	0.15970269
128	0xbec9efad	-0.3944067
129	0xbbcac032	-0.0061874622
130	0xbd020b57	-0.031749096
131	0xbf11b547	-0.5691723
132	0x3eacf488	0.33780313
133	0x3f12415d	0.57130986
134	0x3f341f6c	0.70360446
135	0x3c933590	0.017969877
136	0x3f2b92a0	0.67020607
137	0xbe2b2875	-0.16714652
138	0x3e4eab56	0.20182547
139	0x3ef0e0c0	0.4704647
140	0xbf4b86fc	-0.79502845
141	0xbe137a12	-0.14402035
142	0x3e8b2ca6	0.27182502
143	0x3f3dbc5b	0.7411553
144	0x3efb20f8	0.4904859
145	0x3f72e236	0.9487642
146	0x3d8c32fc	0.06845662
147	0xbf8b0d28	-1.086339
148	0xbe340f06	-0.17583856
149	0xbb947cb6	-0.0045314683
150	0x3f8b7f97	1.0898312
151	0xbdf7cda8	-0.12099773
152	0xbf892149	-1.0713283
153	0xbf8c025b	-1.0938219
154	0x3f228296	0.6348051
155	0x3fc4865b	1.5353502
156	0xbf62151b	-0.88313454
157	0x3e8286b8	0.25493407
158	0xbe678bcd	-0.22611924
159	0x3eb42435	0.35183874
160	0xbf52a08f	-0.8227624
161	0xbe22901c	-0.15875286
162	0xbeb7e430	-0.3591628
163	0xbf2cc8be	-0.6749381
164	0x3f9f75b6	1.2457798
165	0xbe2442f8	-0.16041172
166	0xbee3748b	-0.44424853
167	0x3c52cbfd	0.012866017
168	0x3f11123f	0.56668466
169	0x3f228c4a	0.63495314
170	0xbf1fd5f5	-0.6243585
171	0xbe7c67f9	-0.24649037
172	0x3e8551fe	0.26039118
173	0xbe86555d	-0.26237002
174	0xbf604457	-0.8760428
175	0xbdf7b1ce	-0.120944604
176	0xbeb64e95	-0.35606828
177	0xbea942da	-0.33058816
178	0x3ec89b51	0.39180997
179	0x3e9d6091	0.30737737
180	0xbe0ddf34	-0.13854676
181	0xbee1288b	-0.43976244
182	0xbd08436e	-0.03326743
183	0xbdfdc18f	-0.12390434
184	0x3e91e658	0.2849605
185	0x3f72e9e4	0.9488814
186	0x3e750ef4	0.23931485
187	0x3f97437f	1.1817473
188	0x3ccd88d5	0.02508966
189	0x3ed257b1	0.41082528
190	0x3e7bb726	0.24581584
191	0xbe2f97a6	-0.17147693
192	0x3df24c14	0.11830917
193	0x3f7942e7	0.9736771
194	0xbfb168c8	-1.3860102
195	0xbe9567b7	-0.2918069
196	0xbf339716	-0.70152414
197	0x3ca5f877	0.020260079
198	0xbe5f13d6	-0.2178491
199	0xbe8aa5ca	-0.27079612
200	0xbf176a85	-0.5914691
201	0xbf14692f	-0.57973
202	0xbe95e50d	-0.29276314
203	0xbf3f13be	-0.746395
204	0xbe49c2c8	-0.1970321
205	0xbdba6fab	-0.0910333
206	0xbf06011d	-0.5234545
207	0x3f762423	0.9614889
208	0xbe812fe5	-0.25231853
209	0x3effc8ae	0.49957794
210	0xbe8b13ff	-0.27163693
211	0x3e8c2270	0.27370024
212	0x3d86774e	0.06565724
213	0xbda504f0	-0.080575824
214	0x3b371caf	0.002794068
215	0x3e5bdb98	0.21470487
216	0xbf388e0d	-0.7209175
217	0x3e821dc9	0.2541335
218	0xbf8db360	-1.1070366
219	0x3ea8aeae	0.3294577
220	0x3e83ac92	0.25717598
221	0x3c8ebb77	0.017423375
222	0xbf0ee38e	-0.5581597
223	0x3e5f88f9	0.21829595
224	0x3dd93dac	0.10607466
225	0xbc383b15	-0.011244555
226	0xbf0d1ea8	-0.551249
227	0xbd536a57	-0.051615085
228	0xbfb2d2fb	-1.3970636
229	0xbedb59bd	-0.42841902
230	0x3da68dbe	0.08132504
231	0x3bd9b24f	0.0066435705
232	0x3da4594b	0.08024844
233	0xc007b884	-2.120637
234	0x3e121e52	0.14269379
235	0x3eabdb65	0.33565822
236	0x3dd5db19	0.1044218
237	0xbe83a2ba	-0.25710088
238	0xbeaefc28	-0.34176755
239	0x3d92c431	0.07166327
240	0xbe7e9163	-0.24860148
241	0x3fd6f519	1.6793548
242	0xbec71732	-0.38884884
243	0xbd3a7485	-0.045521278
244	0x3f35bd66	0.70992124
245	0x3e14b86e	0.1452348
246	0xbbef589f	-0.0073042656
247	0xbf20ecb3	-0.62861174
248	0xbca9271d	-0.020648533
249	0x3ebda95c	0.37043273
250	0xbeb51cd2	-0.3537355
251	0xbe97436c	-0.29543626
252	0x3d75cad8	0.0600079
253	0x3f437bfe	0.7636107
254	0x3f3e42a2	0.74320424
255	0xbd6d12b1	-0.057879154

critic.network_body.linear_encoder.seq_layers.0.bias f4 [128]
0	0x3e06877b	0.13137619
1	0xbf10b859	-0.5653129
2	0x3e9a93d9	0.30190924
3	0x3e865984	0.2624017
4	0x3d9bc919	0.07606716
5	0xbed303aa	-0.41213733
6	0xbe0832ca	-0.13300624
7	0xbf065c4c	-0.52484584
8	0x3e50f3ad	0.20405455
9	0xbd41cc7a	-0.047314145
10	0x3e6cb0b9	0.2311429
11	0xbcf7e61a	-0.030261088
12	0x3e757468	0.23970187
13	0x3e5402a9	0.2070414
14	0xbbfbae85	-0.0076807165
15	0xbf0c6f4a	-0.54857314
16	0x3c3af304	0.0114104785
17	0x3e7e0542	0.24806693
18	0x3e6d4a49	0.23172869
19	0x3de088fb	0.10963627
20	0x3e4c8283	0.19971661
21	0xbdef1822	-0.11674525
22	0xbed611c5	-0.41810432
23	0x3cb42f3f	0.021995185
24	0x3e90f75b	0.28313717
25	0xbca4073f	-0.020022986
26	0x3e102417	0.14076267
27	0xbe09e4f3	-0.13466243
28	0xbe97985c	-0.29608428
29	0x3df3c81d	0.11903403
30	0x3ea75eba	0.32689458
31	0x3d826991	0.063677914
32	0xbe96aa85	-0.2942697
33	0xbdc0af73	-0.09408464
34	0x3c2455cb	0.01003022
35	0xbe68e53b	-0.22743694
36	0x3d9b8032	0.07592811
37	0x3e238e4d	0.15972252
38	0x3ea6018a	0.3242305
39	0xbdba5057	-0.09097355
40	0x3ba7cf4f	0.0051211487
41	0xbe64b97a	-0.22336379
42	0x3eb98c38	0.3623979
43	0xbe635624	-0.22200829
44	0xbe717831	-0.23581006
45	0x3eda8e04	0.42686474
46	0x3e75de48	0.24010575
47	0xbd47fffe	-0.048828118
48	0xbd53e5c6	-0.0517328
49	0x3de37a89	0.11107356
50	0xbc9f2c28	-0.019430235
51	0xbe7f1417	-0.24910007
52	0xbe7edab1	-0.24888112
53	0x3e21c2d1	0.15796973
54	0x3b8ac9bd	0.004235475
55	0x3e2a9c76	0.16661248
56	0xbe890dfa	-0.26768476
57	0xbe5b7a15	-0.2143329
58	0x3e21611d	0.15759702
59	0xbe30ab43	-0.17252831
60	0xbe79f8bd	-0.24411292
61	0xbd16ae4f	-0.036787327
62	0x3e87982e	0.2648329
63	0xbd4e7675	-0.05040594
64	0x3e8718d7	0.2638614
65	0x3e4cdfc1	0.2000723
66	0xbed76e93	-0.4207655
67	0x3cb66468	0.022264674
68	0x3df9ab59	0.12190885
69	0xbe809a27	-0.2511761
70	0x3d086a4b	0.033304494
71	0xbe04b8b5	-0.12961085
72	0x3ec97d0e	0.39353222
73	0x3e1acc4c	0.15116996
74	0x3e8680b9	0.26270083
75	0x3e84d55d	0.25944033
76	0x3e6dc1fe	0.23218533
77	0x3e5bbab5	0.21457942
78	0x3e4a0a3b	0.19730465
79	0x3de5fe18	0.11230105
80	0xbe32dd2c	-0.17467183
81	0x3e37e852	0.17959717
82	0x3e55a372	0.2086313
83	0x3e4def05	0.2011071
84	0xbf3409da	-0.7032753
85	0xbec04ef6	-0.37560242
86	0x3d8b021c	0.06787512
87	0x3e2d90ba	0.1694974
88	0x3d2d8225	0.042360444
89	0x3e36a738	0.17837226
90	0xbec0ad8f	-0.37632415
91	0xbc58dfe2	-0.013236972
92	0x3dba6524	0.09101322
93	0x3ec36275	0.38161054
94	0x3e128414	0.14308196
95	0xbdd956b1	-0.10612238
96	0xbdae1ec4	-0.08501962
97	0xbf07d619	-0.5306106
98	0x3ea3d793	0.32000408
99	0x3d79b99c	0.060968027
100	0x3dba2655	0.090893425
101	0xbc830710	-0.015994579
102	0xbf01983f	-0.50622934
103	0x3e033b42	0.12815574
104	0xbe8b340e	-0.27188152
105	0xbeb9b2f1	-0.36269334
106	0x3dd012b2	0.10159816
107	0xbe6f7177	-0.23383127
108	0x3e819e06	0.25315875
109	0x3e7934d8	0.24336565
110	0x3e90a873	0.28253517
111	0x3dc695cc	0.0969654
112	0xbe98b390	-0.29824495
113	0x3e300fd1	0.17193533
114	0x3e36acfd	0.17839427
115	0x3e30ab26	0.17252788
116	0xbef7649a	-0.4831894
117	0x3e34de07	0.17662822
118	0x3dfdbdc7	0.12389713
119	0x3e7a8b02	0.2446709
120	0x3e3cc635	0.18434985
121	0x3e48ff0a	0.1962854
122	0x3e734550	0.2375691
123	0xbec53e41	-0.38524058
124	0x3e723c36	0.23655781
125	0xbedf4193	-0.43604717
126	0xbdb5c693	-0.08875766
127	0x3e2831ce	0.16425249

critic.network_body.linear_encoder.seq_layers.2.weight f4 [128, 128]
0	0x3cca5bb5	0.024701932
1	0x3d8024a4	0.06256989
2	0xbd2dff8d	-0.04248004
3	0x3d8e903f	0.069611065
4	0x3d51fc0c	0.05126576
5	0x3b87b33b	0.004141239
6	0xbdbd197f	-0.092333786
7	0x3d5a83af	0.05334824
8	0xbd830670	-0.06397712
9	0xbd9c60c5	-0.07635645
10	0x3cd62e58	0.026145145
11	0x3e34dc2c	0.17662114
12	0x3d6c6397	0.057712164
13	0xbd145004	-0.03620912
14	0xbd03fd29	-0.032223854
15	0x3e3b0e7a	0.18267241
16	0x3e09ee2f	0.13469766
17	0x3d898d46	0.06716399
18	0x3c8cc61e	0.017184313
19	0xbb8bda62	-0.0042679766
20	0xbd3f0888	-0.046638995
21	0x3d74b619	0.059743974
22	0xbd9d82be	-0.07690953
23	0xbe809455	-0.25113168
24	0x3d8c152c	0.06839976
25	0xbdf2b952	-0.11851753
26	0x3ceb77ee	0.02874371
27	0x3b1afddd	0.002364985
28	0x3de0fb4d	0.10985432
29	0x3cb5aa84	0.022176035
30	0x3ce9edae	0.028555717
31	0xbdaf0999	-0.085467525
32	0x3deb2c39	0.11483044
33	0xbd9e971f	-0.07743668
34	0x3db92f2c	0.090422004
35	0x3d2d6cb9	0.042340014
36	0x3d28d3ea	0.041217722
37	0xbd1b6cd9	-0.037945602
38	0xba58e4ae	-0.0008273822
39	0x3d08a243	0.03335787
40	0xbe22041c	-0.1582188
41	0xbd7f37f7	-0.06230923
42	0x3cc7dbe0	0.024396837
43	0x3cf0a1b6	0.029373985
44	0xbe6b5aca	-0.22983852
45	0x3dbb2608	0.09138113
46	0x3df4130f	0.11917698
47	0x3d4d9cbb	0.050198298
48	0xbda50fdf	-0.08059668
49	0x3e3d25f2	0.18471506
50	0xbe0e3f7d	-0.13891406
51	0xbe05c37f	-0.13062857
52	0x3df6f691	0.120587476
53	0x3c1093b7	0.00882428
54	0xbe38a6d6	-0.18032393
55	0x3df5ec36	0.12007944
56	0xbcf600fe	-0.03002977
57	0x3e015249	0.12629046
58	0xbd647998	-0.055780023
59	0xbdbb1750	-0.09135306
60	0xbd9e3414	-0.07724777
61	0xbdd7b306	-0.10532193
62	0xbc2b8d06	-0.010470634
63	0xbcb61f8d	-0.022231841
64	0xbd08b415	-0.033374865
65	0xbdab3e47	-0.08361488
66	0xbdcce409	-0.10004432
67	0xbcbea530	-0.023272127
68	0xbc95a7e9	-0.018268542
69	0xbd18315d	-0.03715645
70	0xba5162e4	-0.0007987453
71	0x3defa636	0.11701624
72	0x3e18411e	0.1486859
73	0xbd89aa7d	-0.06721971
74	0xbcf88e5b	-0.030341318
75	0xbdbb686e	-0.09150778
76	0x3d81730f	0.06320774
77	0xbd8ad215	-0.06778351
78	0xbd51ddcf	-0.051236924
79	0xbbab2057	-0.005222361
80	0xbd07a9e8	-0.03312102
81	0xbbdaaf32	-0.006673717
82	0xbb27ece5	-0.0025623378
83	0x3cd34b61	0.02579278
84	0x3e118397	0.14210354
85	0xbd92d102	-0.07168771
86	0xbd4a52ec	-0.049395487
87	0x3cd0e7b9	0.025501119
88	0xbd16a68a	-0.036779918
89	0xbd8bde29	-0.06829483
90	0x3c9bdee2	0.019027177
91	0x3db7bcd2	0.089715615
92	0xbd956f19	-0.07296581
93	0xbd099f28	-0.03359905
94	0xbe017c5d	-0.12645097
95	0x3e367647	0.17818557
96	0xbcf1fc91	-0.029539378
97	0xbd257d49	-0.040402684
98	0x3e201fd2	0.15637138
99	0xbdbea046	-0.093079135
100	0x3d976a5c	0.07393333
101	0x3c6d9c79	0.014502638
102	0xbc2a7625	-0.010404144
103	0x3c8021e6	0.015641164
104	0xbc966b8b	-0.018361827
105	0x3de32d51	0.11092628
106	0xbd51ffe1	-0.051269416
107	0x3d910025	0.07080106
108	0xbd8a71b7	-0.06759971
109	0xbc97748a	-0.018488187
110	0xbe460936	-0.19339451
111	0x3b4e56c9	0.0031484833
112	0x3b9a649c	0.0047117006
113	0x3d56c51b	0.05243407
114	0x3c96b88d	0.018398548
115	0x3d68ea6e	0.056864195
116	0xbd60162e	-0.054708652
117	0xbd2dd927	-0.04244342
118	0x3a951294	0.0011373335
119	0x3d91f288	0.07126337
120	0xbd9be221	-0.0761149
121	0xbdcb559a	-0.099284366
122	0x3e507c00	0.20359802
123	0x3da7c887	0.081925444
124	0xbd9eb513	-0.07749381
125	0xbbac3091	-0.005254813
126	0x3dada673	0.08479013
127	0x3cd79232	0.026314829
128	0xbe5252a8	-0.20539343
129	0x3d59bfc5	0.0531614
130	0x3dc07312	0.09396948
131	0xbe59572a	-0.21224657
132	0xbe25ae2b	-0.16179721
133	0xbd719419	-0.058979128
134	0xbe24f41d	-0.16108747
135	0x3e702fff	0.23455809
136	0xbdf4660a	-0.11933525
137	0xbe5fe882	-0.21866038
138	0xbd648762	-0.055793174
139	0xbe20eaf1	-0.15714623
140	0x3e3979d7	0.18112884
141	0xbd442534	-0.047887042
142	0xbec2ba2b	-0.3803266
143	0x3e12b9ba	0.14328662
144	0xbe510141	-0.20410635
145	0xbf07c88d	-0.5304039
146	0xbe698885	-0.22805984
147	0xbcfe0038	-0.031005964
148	0xbd88d3e1	-0.06681038
149	0x3e8f4ac9	0.27986744
150	0x3e1cc372	0.15308931
151	0xbd20aed9	-0.039229248
152	0xbde7e3dd	-0.11322758
153	0x3e21fcf9	0.15819158
154	0xbe592994	-0.21207267
155	0xbdd39093	-0.1033031
156	0xbcc7461b	-0.024325421
157	0x3dcd5815	0.10026566
158	0xbd9988d7	-0.07496803
159	0xbe9da7cd	-0.30792084
160	0x3e05f219	0.13080634
161	0x3e04811e	0.1293988
162	0x3d09b7e3	0.033622634
163	0xbd99b0ae	-0.07504402
164	0xbcc363aa	-0.023851234
165	0xbca500b1	-0.020141931
166	0xbe3a3ef8	-0.18188083
167	0xbd803d80	-0.0626173
168	0x3b8d480a	0.0043115662
169	0x3c84a941	0.016193988
170	0xbe1a8761	-0.15090705
171	0x3df39733	0.11894073
172	0x3e1b1703	0.15145497
173	0xbe060775	-0.13088782
174	0x3d802a70	0.06258094
175	0x3d7e718d	0.06212001
176	0xbcf2ca9b	-0.029637625
177	0xbe2c3db9	-0.1682042
178	0xbb5b2744	-0.0033440152
179	0x3d414929	0.04718891
180	0xbdf05ca6	-0.11736421
181	0xbdbbf192	-0.09176935
182	0xbd8cc659	-0.06873769
183	0x3d031c65	0.0320095
184	0xbcb27148	-0.021782532
185	0x3d87a129	0.06622536
186	0xbe8f0a2c	-0.27937448
187	0xbde797ff	-0.11308288
188	0xbe8f3948	-0.2797339
189	0x3c5637bc	0.013074812
190	0xbe5561e3	-0.20838122
191	0xbdbea99b	-0.093096934
192	0xbcd38c5c	-0.025823765
193	0xbe23c238	-0.15992057
194	0xbc65c4b9	-0.014023953
195	0xbe967eaf	-0.29393527
196	0xbe0dbd2a	-0.13841692
197	0xbe8dd96c	-0.27704942
198	0xbd6cced6	-0.05781444
199	0x3d3decb3	0.046368312
200	0x3d26fddb	0.04076944
201	0xbe0fdd6f	-0.14049314
202	0xbe247b60	-0.16062689
203	0x3e365522	0.17805913
204	0xbe800246	-0.25001734
205	0xbe9332a2	-0.28749567
206	0xbedffc58	-0.4374721
207	0xbe0155f6	-0.12630448
208	0x3e575c71	0.21031357
209	0xbe669b20	-0.22520113
210	0xbe1a3ca7	-0.150622
211	0xbe64b0d5	-0.22333081
212	0x3e349599	0.17635192
213	0x3b9ca973	0.004780942
214	0xbd7aa4bf	-0.06119227
215	0x3d3827eb	0.044959944
216	0xbdd8cbd0	-0.10585749
217	0x3c7e6255	0.015526374
218	0x3e82aeb9	0.25523928
219	0x3e6ae0ed	0.22937365
220	0xbe029afc	-0.12754434
221	0x3c67a591	0.014138595
222	0x3a292cad	0.00064534956
223	0xbe9d0b2d	-0.3067259
224	0xbd5dbc9c	-0.05413495
225	0x3e32f995	0.1747802
226	0xbe4efb41	-0.20213033
227	0xbe19df52	-0.15026596
228	0x3d14c12f	0.036317047
229	0xbea883dc	-0.329131
230	0xbe3d41a4	-0.18482071
231	0x3ac00eff	0.0014652907
232	0x3d84601f	0.06463646
233	0x3de079ce	0.109607324
234	0xbec9562d	-0.3932356
235	0xbdd56650	-0.10419905
236	0xbe86f9df	-0.26362512
237	0xbe92b874	-0.28656352
238	0xbd908ed2	-0.07058491
239	0xbdc287aa	-0.09498532
240	0xbde9d28a	-0.1141711
241	0x3c93620d	0.01799109
242	0xbebbab1d	-0.36653987
243	0xbe8425a1	-0.2580996
244	0x3e578fe5	0.21050985
245	0xbe8fe0f5	-0.28101316
246	0xbe7060e5	-0.23474462
247	0xbe6c27a3	-0.23061995
248	0xbea19c61	-0.3156462
249	0x3def4462	0.11682965
250	0xbdffa10d	-0.1248189
251	0x3e3a6696	0.18203196
252	0xbb66665a	-0.003515622
253	0x3d129f57	0.03579649
254	0xbe4de8a7	-0.20108281
255	0xbe47de9a	-0.1951851

critic.network_body.linear_encoder.seq_layers.2.bias f4 [128]
0	0x3d965afe	0.07341574
1	0xbe9c1c9f	-0.30490586
2	0xbe455928	-0.19272292
3	0xbe97bd71	-0.2963672
4	0x3de58b97	0.11208265
5	0xbdd19ec6	-0.10235362
6	0xbebf6f6b	-0.37389693
7	0xbc5c6d44	-0.013453785
8	0xbd3dbbab	-0.046321552
9	0x3ead151c	0.33805168
10	0xbcc1ff83	-0.023681408
11	0xbe24af8e	-0.16082594
12	0x3d3d2e8c	0.04618697
13	0x3e5d7a4f	0.21628688
14	0xbda22a54	-0.0791823
15	0xbe888ff3	-0.26672325
16	0x3d04b510	0.032399237
17	0xbeed2643	-0.46318254
18	0x3cbaa135	0.022781948
19	0xbe8d7272	-0.27626377
20	0x3bc82977	0.0061084586
21	0x3d539077	0.051651444
22	0xbea2fa9e	-0.3183183
23	0xbea35bc0	-0.31905937
24	0x3e3daf88	0.18523991
25	0xbdb32e19	-0.08749027
26	0xbbe4412a	-0.006965776
27	0xbeac90c4	-0.33704197
28	0x3d13d9b8	0.036096305
29	0xbe55168b	-0.2080938
30	0x3ca68721	0.020328106
31	0x3ddf7891	0.10911668
32	0xbed4f7a8	-0.41595197
33	0xbb98db3c	-0.0046648066
34	0x3e3b887e	0.18313786
35	0xbc994099	-0.01870756
36	0x3d261ff2	0.04055781
37	0xbec2e862	-0.3806792
38	0xbe70b64b	-0.23507039
39	0xbd13d72b	-0.036093872
40	0xbe3e777b	-0.18600266
41	0xbe616a76	-0.22013268
42	0xbb73fce5	-0.0037229594
43	0xbd5fdc4b	-0.054653447
44	0x3e2aae76	0.16668114
45	0xbe92ca87	-0.2867014
46	0xbd6a3eeb	-0.05718891
47	0xbe8e1ff6	-0.2775876
48	0xbba9aa35	-0.005177761
49	0xbea74dd6	-0.32676572
50	0xbe6a3dad	-0.2287509
51	0xbe70113c	-0.23444074
52	0xbe64f7a7	-0.22360097
53	0xbd712aa3	-0.058878552
54	0x3d1a46c5	0.037665147
55	0x3e5eafae	0.21746704
56	0xbdc8bd92	-0.09801783
57	0xbe92c660	-0.28666973
58	0xbec630f9	-0.38709238
59	0x3e4e9c4b	0.20176809
60	0xbdf634a8	-0.12021762
61	0x3a8afd13	0.0010603986
62	0xbb1101cc	-0.0022126315
63	0xbe6ec38b	-0.23316781
64	0xbeddb78a	-0.43304092
65	0x3e9224ad	0.28543606
66	0xbe575382	-0.2102795
67	0x3e549d91	0.20763232
68	0xbc84c2da	-0.016206194
69	0x3e8e65fb	0.2781218
70	0xbce8cbfc	-0.02841758
71	0xbe10a2b0	-0.1412456
72	0xbe2685b5	-0.16261943
73	0xbebfac90	-0.37436342
74	0x3ca42f43	0.020042067
75	0x3caf074c	0.021365784
76	0xbe29a472	-0.16566637
77	0xbe90d22e	-0.28285354
78	0xbb268d07	-0.0025413649
79	0xbec1440e	-0.37747234
80	0x3cfd6356	0.030931156
81	0xbdc92127	-0.098207764
82	0xbeae7f61	-0.34081557
83	0xbd0fac7e	-0.03507661
84	0xbe1fa61e	-0.15590712
85	0x3e241571	0.16023804
86	0x3d18d146	0.037308954
87	0xbd105964	-0.0352415
88	0x3cbac7c8	0.022800341
89	0x3d34282c	0.043983623
90	0x3e1e5fa7	0.15466176
91	0x3e3cc514	0.18434554
92	0x3b95f5e4	0.0045764316
93	0x3ead8bce	0.33895725
94	0x3d7f0ec3	0.062269937
95	0x3d4f3e39	0.05059645
96	0xbe9d53d8	-0.3072803
97	0xbe81c4dd	-0.25345507
98	0xbce809a2	-0.028324906
99	0x3c32eef5	0.01092123
100	0xbe73e119	-0.23816337
101	0xb9e8fca2	-0.00044438714
102	0xba44abe8	-0.00075024227
103	0xbde7f0ba	-0.11325212
104	0x3e25b577	0.16182505
105	0xbeae562e	-0.34050125
106	0xbea9aa55	-0.33137766
107	0x3d78485d	0.060615886
108	0x3e9d8635	0.30766454
109	0x3ca0bf05	0.019622335
110	0x3e109ee1	0.14123107
111	0xbe4cc168	-0.19995654
112	0x3d09da5d	0.033655513
113	0xbe0fb402	-0.14033511
114	0xbe9ed0b5	-0.31018606
115	0xbedd6351	-0.43239835
116	0x3d3e7473	0.046497773
117	0xbe988943	-0.29792222
118	0xbda0c142	-0.07849361
119	0xbd963dbb	-0.07335993
120	0xbe826059	-0.25464132
121	0x3c708e39	0.014682346
122	0x3cf35616	0.029704135
123	0xbd096ea5	-0.033552784
124	0x3ed45805	0.41473404
125	0xbebaea10	-0.365067
126	0xbe896ae2	-0.26839358
127	0xbeca5591	-0.39518407
